CNP-model-save-name/saved_models/model_4000.pth.pth.tar (torch, 541394 bytes, 46 tensors)

_deterministic_encoder.input_projection.weight f4 [64, 4]
0	0xbd3f2d75	-0.04667421
1	0xbe372c1b	-0.17887919
2	0x3d86bcf2	0.06579007
3	0x3e99c3ed	0.30032292
4	0x3e6bb3a2	0.23017743
5	0xbe8ce26a	-0.2751649
6	0xbe65f6fe	-0.22457501
7	0x3d314bad	0.04328506
8	0x3db2869e	0.087170824
9	0xbe207cb9	-0.15672578
10	0x3d6539ec	0.05596344
11	0x3e1f00d1	0.15527655
12	0x3daef11a	0.0854208
13	0x3d4c2e79	0.049849007
14	0x3e3b9f48	0.1832248
15	0x3e25b4c5	0.1618224
16	0x3e46d431	0.19416882
17	0x3e411c10	0.18858361
18	0x3d858f7d	0.06521509
19	0x3dedd313	0.11612525
20	0x3e390df4	0.18071729
21	0xbe61b678	-0.22042263
22	0xbe8fd989	-0.28095654
23	0x3e50b549	0.20381655
24	0x3d060887	0.032722976
25	0x3e4a08bf	0.19729899
26	0x3db3e7a7	0.087844186
27	0x3d60c557	0.054875698
28	0x3d2bed40	0.041974306
29	0xbe15500f	-0.14581321
30	0x3e7161dd	0.23572488
31	0xbe1ca41b	-0.15296976
32	0x3d812d58	0.06307477
33	0xbe6141fb	-0.21997826
34	0x3d8a5133	0.06753769
35	0x3e7c62ca	0.2464706
36	0xbe643884	-0.22287184
37	0xbe4b0da1	-0.19829418
38	0x3dcf292d	0.101152755
39	0x3d542a4f	0.05179816
40	0xbe4d7e69	-0.20067753
41	0xbe523f17	-0.2053188
42	0x3da350cf	0.079743974
43	0x3e3dd5ca	0.18538585
44	0x3dfa506c	0.122223705
45	0x3e3b03e7	0.18263207
46	0x3e28f6af	0.16500352
47	0xbe8480b0	-0.2587943
48	0x3cd8b845	0.026455054
49	0xbcc8fa4c	-0.024533413
50	0xbd8c0631	-0.068371184
51	0xbe15a370	-0.14613128
52	0xbdd01736	-0.10160677
53	0x3ab8ed03	0.0014108721
54	0xbdf53ddb	-0.119746886
55	0x3e8a145d	0.2696866
56	0xbe941bef	-0.28927562
57	0xbd1f2fb4	-0.038863853
58	0x3e099b7d	0.1343822
59	0x3e75fe11	0.240227
60	0xbe1e8648	-0.15480912
61	0x3e07ff6a	0.13281026
62	0xbdfd3949	-0.12364442
63	0x3e73bc8c	0.23802394
64	0xbe4c26ce	-0.19936678
65	0x3c963600	0.018336296
66	0x3d56df8d	0.05245929
67	0x3e563a53	0.20920686
68	0x3e8d2e6b	0.27574477
69	0xbe85ff95	-0.26171556
70	0x3e1812ab	0.14850871
71	0x3e3794bb	0.1792783
72	0xbe6b6a7a	-0.22989836
73	0xbe56c4eb	-0.20973556
74	0xbe7866be	-0.24257943
75	0x3d9dee85	0.077115096
76	0x3ccbdff2	0.024887059
77	0xbe8f4f8f	-0.27990386
78	0xbc8856fa	-0.016643036
79	0xbe0eb8cf	-0.13937686
80	0xbe83e00c	-0.25756872
81	0x3dca52a4	0.09879044
82	0x3e12d1da	0.14337865
83	0x3c751991	0.014959709
84	0xbe148f8c	-0.14507884
85	0xbe03b766	-0.1286293
86	0xbd0eddce	-0.0348795
87	0xbdf743b9	-0.12073464
88	0x3e124e8d	0.14287777
89	0x3e11a517	0.14223133
90	0x3e8641c1	0.2622204
91	0xbcdcf691	-0.02697304
92	0x3e4df8e9	0.20114483
93	0xbdc592c2	-0.096471325
94	0xbcfb75db	-0.030695846
95	0x3e47f0ac	0.19525403
96	0x3e893597	0.26798698
97	0xbe44bbb3	-0.19212227
98	0xbc624f8e	-0.013812913
99	0x3e93956f	0.28824946
100	0xbdf2da57	-0.11858051
101	0x3d6e9192	0.058244295
102	0xbe44dfd1	-0.19226004
103	0xbe3d910e	-0.18512365
104	0xbd88abcc	-0.06673393
105	0x3e24086f	0.16018842
106	0xbd267b6a	-0.04064504
107	0xbe01183b	-0.126069
108	0xbdd9faf4	-0.10643569
109	0xbe0ccb80	-0.13749504
110	0x3e55e12e	0.2088668
111	0xbe89bb2a	-0.26900607
112	0x3d2e56f0	0.04256338
113	0x3ca9de4a	0.020735878
114	0xbdac992e	-0.08427654
115	0xbdfa47da	-0.12220736
116	0xbe44103d	-0.1914682
117	0x3e39a372	0.18128756
118	0x3e7a66a8	0.24453223
119	0xbe81cf4d	-0.2535347
120	0xbd1d79a8	-0.0384461
121	0xbd59ce21	-0.053175095
122	0xbe841a96	-0.25801533
123	0xbda811e2	-0.08206536
124	0xbe89f637	-0.2694566
125	0x3e899e9b	0.2687882
126	0xbe824016	-0.2543952
127	0x3e2417d9	0.16024722
128	0xbe353bbe	-0.17698571
129	0x3e71f939	0.23630227
130	0xbe4a172c	-0.19735402
131	0x3dde2a28	0.108478844
132	0x3e8d287b	0.27569947
133	0x3e4f8f9c	0.20269626
134	0xbd8ed600	-0.06974411
135	0xbe919a22	-0.28437907
136	0xbe91f314	-0.28505766
137	0x3e1cdf15	0.15319474
138	0x3d2a9640	0.041647196
139	0xbc805cd6	-0.015669268
140	0xbe41e5bf	-0.18935297
141	0xbe836b79	-0.25667933
142	0xbe8b56c8	-0.27214646
143	0xbd8d6840	-0.0690465
144	0x3d497c77	0.049190965
145	0x3e5112b8	0.20417297
146	0xbe19cbf6	-0.15019211
147	0x3c3dd3f3	0.011586177
148	0xbe7fffab	-0.24999873
149	0x3e805099	0.2506149
150	0xbdcd2bba	-0.10018106
151	0x3e4c3126	0.19940624
152	0xbdb4fd23	-0.088373445
153	0x3db80343	0.08984997
154	0x3dc230c8	0.094819605
155	0x3e4c19c8	0.1993171
156	0xbd8e2146	-0.0693994
157	0x3e4c6338	0.19959724
158	0x3c7d5058	0.01546105
159	0x3e6a2422	0.22865346
160	0xbe6b16cf	-0.2295792
161	0x3e81d663	0.25358877
162	0x3b487e71	0.0030592943
163	0x3e832dc1	0.25620845
164	0xbe81bafb	-0.25337967
165	0x3e3cf83b	0.18454067
166	0xbcdc1131	-0.026863666
167	0xbce74b68	-0.028234199
168	0xbe0b2356	-0.13587698
169	0x3d459a76	0.04824301
170	0xbd7d2223	-0.061800133
171	0xbe06be62	-0.13158563
172	0xbe8f3c2a	-0.2797559
173	0xbe4692c0	-0.19391918
174	0x3d922c84	0.07137397
175	0x3e3d62ec	0.18494767
176	0x3e99378a	0.29925185
177	0xbd9eaecd	-0.07748184
178	0xbd8b3808	-0.067977965
179	0xbda2147f	-0.079140656
180	0xbe465da4	-0.19371659
181	0xbe537958	-0.20651758
182	0xbd6d4582	-0.057927616
183	0xbe8d9260	-0.27650738
184	0xbe1fa571	-0.15590455
185	0x3e311f3b	0.1729707
186	0xbe11c5d3	-0.1423562
187	0x3e1ba802	0.15200809
188	0x3d98318a	0.07431324
189	0x3e110b91	0.14164568
190	0x3e3982f0	0.18116355
191	0x3e316272	0.1732271
192	0x3d29b10f	0.04142862
193	0x3d5771b1	0.05259866
194	0x3dbde5f7	0.09272378
195	0xbe243655	-0.16036351
196	0xbe496938	-0.19669044
197	0xbe071563	-0.13191752
198	0x3d3e8eee	0.046523027
199	0xbe247b95	-0.16062768
200	0x3e43a5df	0.19106244
201	0x3e6c5c5b	0.23082106
202	0xbd11dcb9	-0.03561089
203	0xbe488555	-0.19582112
204	0x3d609be1	0.054836158
205	0x3e72095b	0.23636381
206	0x3e5bd995	0.2146972
207	0x3e6ff60d	0.23433705
208	0x3c06179a	0.008184338
209	0xbe9ba5f4	-0.3040005
210	0xbd1fa76a	-0.038978018
211	0xbd5bf8f1	-0.053704206
212	0xbdfdf145	-0.12399534
213	0x3e487167	0.1957451
214	0x3e377219	0.17914619
215	0xbe1b907b	-0.15191834
216	0xbe7e1b39	-0.24815072
217	0x3ddf7e60	0.10912776
218	0xbddf93d1	-0.109168656
219	0xbe84ef19	-0.25963667
220	0x3e638d7e	0.22221944
221	0xbd336ae3	-0.043803107
222	0x3defd28e	0.11710082
223	0xbe3af8d9	-0.1825899
224	0xbe81275a	-0.25225335
225	0x3e350c2b	0.17680423
226	0xbe826ea7	-0.25475046
227	0x3d6128f8	0.05497071
228	0xbe81e8ba	-0.2537287
229	0xbe33a33c	-0.17542738
230	0x3e0c1f0f	0.13683723
231	0xbe907099	-0.28210905
232	0x3d58a49e	0.052891366
233	0x3e7cbb9e	0.24680945
234	0xbde4b2e4	-0.11166933
235	0xbd8cd0f0	-0.06875789
236	0xbcc1ac87	-0.023641838
237	0xbe5a803a	-0.21337977
238	0xbdd56a92	-0.10420717
239	0x3e568a9b	0.20951311
240	0x3dd0ac77	0.10189145
241	0xbe2fa7e1	-0.17153884
242	0x3e70941b	0.23493998
243	0xbe538bd1	-0.20658804
244	0xbe340d32	-0.17583159
245	0x3df0890c	0.117448896
246	0x3d2dcae8	0.042429835
247	0x3e5a5eda	0.21325245
248	0xbdeb73cd	-0.114966966
249	0xbdcb4dab	-0.09926923
250	0x3cb04365	0.021516511
251	0xbe732c9c	-0.23747486
252	0xbd19428c	-0.03741698
253	0xbe94124b	-0.28920206
254	0xbe1590a9	-0.14605965
255	0xbe69218d	-0.22766705

_deterministic_encoder.input_projection.bias f4 [64]
0	0x3be386d1	0.0069435616
1	0xbba079eb	-0.0048973463
2	0x3b82482a	0.003975888
3	0xbaca933f	-0.001545526
4	0x3c1b0318	0.009461187
5	0xbc6013bd	-0.013676581
6	0xbb598158	-0.0033188667
7	0x3b35b58b	0.0027726616
8	0x3aed39c8	0.0018098885
9	0xbc37b7b6	-0.011213234
10	0x3bc29f64	0.005939411
11	0xbc03bf1b	-0.008041169
12	0xbb42820b	-0.0029679562
13	0xbc09d1be	-0.008411823
14	0xbb365b68	-0.0027825478
15	0x3bce0c58	0.0062880926
16	0x3b858e46	0.004075798
17	0x3b57d3b0	0.0032932572
18	0x3c699f0f	0.014259114
19	0xbc00466a	-0.007829288
20	0x3b4be7a1	0.0031113403
21	0xbca5a21f	-0.020218907
22	0xbaaec617	-0.0013334182
23	0x3c067f27	0.008209026
24	0x3ca89834	0.020580389
25	0x3c475eb4	0.012168575
26	0x3a0a6a6d	0.0005280141
27	0x3c132918	0.0089819655
28	0x3b0ddc86	0.0021646335
29	0x3a758d12	0.00093670294
30	0x3c689df6	0.014197817
31	0xbc9da164	-0.019241996
32	0xb8ccd0d3	-9.7663746e-05
33	0xbc2b91b5	-0.010471751
34	0xbba79209	-0.0051138443
35	0x3ad5aae9	0.0016301546
36	0xbbcb8bdd	-0.0062117414
37	0xbc37f112	-0.011226909
38	0x3ae84c1e	0.001772288
39	0x3af76a8a	0.0018876356
40	0x3addbf5e	0.0016917994
41	0xbb7f7310	-0.0038978495
42	0x3cc55c66	0.02409191
43	0xb9fd522e	-0.0004831715
44	0x3c3bc1ed	0.01145981
45	0xb9fdd481	-0.00048414248
46	0xbb41ca2c	-0.0029569967
47	0xbbad797a	-0.005294022
48	0x3bafe27d	0.0053675757
49	0x3a8d1dd8	0.001076634
50	0x3b9fe093	0.0048790663
51	0x3c13182d	0.008977932
52	0xbc1eb447	-0.009686536
53	0xba486174	-0.0007643916
54	0xbbdf4351	-0.0068134447
55	0x3c01495f	0.007891028
56	0xb9a82dce	-0.00032077584
57	0x3b3d74b0	0.0028908662
58	0xbc092606	-0.008370882
59	0x3c13e196	0.009025952
60	0xbc36db1f	-0.011160641
61	0x3c1c5213	0.009541052
62	0x3a7d4f8c	0.00096630375
63	0xb7fd527b	-3.0198358e-05

_deterministic_encoder.transformer_encoder.layers.0.self_attn.in_proj_weight f4 [192, 64]
0	0x95b6161d	-7.3544103e-26
1	0x258ee234	2.4786355e-16
2	0x91a2b1fe	-2.566879e-28
3	0x3204f8c1	7.739971e-09
4	0x326d9e31	1.3831184e-08
5	0x919bb4b8	-2.4566065e-28
6	0x2e23b35e	3.722122e-11
7	0x1105500e	1.0516519e-28
8	0x96b66843	-2.9469484e-25
9	0x255d047a	1.9170211e-16
10	0x9188e1fc	-2.159629e-28
11	0x9fbac389	-7.909755e-20
12	0x22d3b12e	5.737926e-18
13	0x90a0d8b8	-6.344278e-29
14	0x0f31e020	8.769939e-30
15	0x119f7175	2.51557e-28
16	0x1085c115	5.275674e-29
17	0xa6a47d35	-1.1413723e-15
18	0x3385c9a4	6.229973e-08
19	0xae3c2cdf	-4.2786105e-11
20	0x8fbba3e5	-1.8502754e-29
21	0x2d7b07ee	1.4269459e-11
22	0xb20bb912	-8.132945e-09
23	0xa63f950a	-6.646842e-16
24	0xa961a022	-5.009893e-14
25	0x3197cc02	4.4178714e-09
26	0x0e59fef9	2.687008e-30
27	0x2b55eb4e	7.599935e-13
28	0x958cd9a7	-5.6888945e-26
29	0x0ed6ff04	5.3000644e-30
30	0x30c4ccd5	1.4319094e-09
31	0x10007c83	2.533947e-29
32	0x91056d26	-1.0525484e-28
33	0x9063cd53	-4.4926032e-29
34	0x0ff37678	2.4007282e-29
35	0x350ce40e	5.248593e-07
36	0x10d3429f	8.332747e-29
37	0xa03a671f	-1.5788933e-19
38	0xa979fa5c	-5.550626e-14
39	0x2ecfeb9c	9.455123e-11
40	0xaa74c39c	-2.1739419e-13
41	0x0e10b861	1.7838146e-30
42	0x2a9fcd21	2.838641e-13
43	0x1e33405c	9.48949e-21
44	0x9032ce4c	-3.5263236e-29
45	0xb61772e8	-2.2567638e-06
46	0x10d8f318	8.557152e-29
47	0x335eb8e2	5.1856553e-08
48	0x900f684f	-2.8282134e-29
49	0xad231567	-9.2702295e-12
50	0x93d89563	-5.4673372e-27
51	0xb5015b24	-4.818887e-07
52	0x2e9822b7	6.918326e-11
53	0x10d92cea	8.566061e-29
54	0x3022b329	5.918986e-10
55	0x0f376444	9.041907e-30
56	0xa70f41ec	-1.9880973e-15
57	0x33cd3b0f	9.556799e-08
58	0x912995a3	-1.337786e-28
59	0x9567376d	-4.6693802e-26
60	0x1102a41a	1.030576e-28
61	0xa17010c6	-8.133736e-19
62	0x3098ec65	1.1126643e-09
63	0xb57d6e31	-9.4410194e-07
64	0x0b8f2c99	5.51487e-32
65	0x16583edf	1.746818e-25
66	0x8b6a923e	-4.517678e-32
67	0x28bc7b43	2.0925649e-14
68	0x2b2f7e4b	6.2347756e-13
69	0x8c1c397a	-1.2035099e-31
70	0x25804e89	2.2257678e-16
71	0x8aced41e	-1.9916868e-32
72	0x8b2d23f7	-3.3345645e-32
73	0x94901f7b	-1.4552701e-26
74	0x8c742546	-1.8808293e-31
75	0x0c1f4ca1	1.2271974e-31
76	0x8ed3f309	-5.224955e-30
77	0x8b8dfffc	-5.4696387e-32
78	0x89ee5907	-5.7380137e-33
79	0x0c45328d	1.519154e-31
80	0x0bd3b182	8.154133e-32
81	0x1d7a1904	3.3100157e-21
82	0xac21c1e5	-2.298711e-12
83	0xa7d655d8	-5.9490004e-15
84	0x8b032c9c	-2.5263243e-32
85	0xa6299efc	-5.884912e-16
86	0x29a548b5	7.3400846e-14
87	0x13ed9d52	5.998234e-27
88	0x1d9935d9	4.055444e-21
89	0xa864b2db	-1.2695326e-14
90	0x0a022b9a	6.267473e-33
91	0xa328076e	-9.1088715e-18
92	0x0bed4d59	9.140546e-32
93	0x886bb41e	-7.0929467e-34
94	0xa8795001	-1.3839625e-14
95	0x0b81a8e4	4.994311e-32
96	0x0b2f9aa2	3.3820107e-32
97	0x8c49f2ec	-1.5557578e-31
98	0x8b177e84	-2.9176722e-32
99	0xb0b68783	-1.3280758e-09
100	0x8c55a61b	-1.6458909e-31
101	0x8d871742	-8.3256165e-31
102	0x2082192b	2.2039511e-19
103	0x279d0f8f	4.3593122e-15
104	0x20392fba	1.5685901e-19
105	0x0a77977d	1.1921109e-32
106	0x9fb867bf	-7.8098665e-20
107	0x0bd1e4d1	8.0848156e-32
108	0x8b44631c	-3.7822789e-32
109	0xaffc2b3a	-4.5869247e-10
110	0x0bcffeef	8.011708e-32
111	0x2c0075db	1.8255317e-12
112	0x8adbfa1b	-2.1183012e-32
113	0xa8332198	-9.9437806e-15
114	0x8ae345b4	-2.1885524e-32
115	0xaf310afe	-1.6101961e-10
116	0xa665933c	-7.9649875e-16
117	0x8c1c3c16	-1.2035884e-31
118	0xa8a38dc0	-1.815811e-14
119	0x0a3fb62a	9.230577e-33
120	0x9ab16418	-7.3367194e-23
121	0xab6a9218	-8.3336246e-13
122	0x8c486537	-1.5437898e-31
123	0x08bf4765	1.1512179e-33
124	0x8c7bcb20	-1.9397462e-31
125	0x0f1ed207	7.830451e-30
126	0xa836d559	-1.0149292e-14
127	0xaef71425	-1.1235838e-10
128	0x241cd583	3.400796e-17
129	0xadb43169	-2.0485573e-11
130	0x229f58a3	4.3190884e-18
131	0x345517d6	1.9845842e-07
132	0x37062631	7.9959145e-06
133	0xa26b21b2	-3.1866277e-18
134	0x3288592d	1.5873036e-08
135	0x8ebe451b	-4.6905162e-30
136	0xa23e913e	-2.5826692e-18
137	0xae2248b5	-3.6899112e-11
138	0xa4e56d61	-9.9498214e-17
139	0x2b04697d	4.7042215e-13
140	0xac13bdb3	-2.099526e-12
141	0x1db5bbe1	4.8104563e-21
142	0x15551d9b	4.3038362e-26
143	0x2398a14f	1.654819e-17
144	0x229b6038	4.211471e-18
145	0x30115f2b	5.2885935e-10
146	0x375df661	1.3229991e-05
147	0xb53c688d	-7.01876e-07
148	0x0c72ca93	1.8703962e-31
149	0x33a2871a	7.568288e-08
150	0x353109a2	6.5951656e-07
151	0x2cf99d68	7.0944813e-12
152	0xaecb9d35	-9.259297e-11
153	0x351b1eea	5.7786986e-07
154	0x0d17acda	4.673853e-31
155	0x31ad5d58	5.0455746e-09
156	0xa56ae3da	-2.0373464e-16
157	0x08221e5b	4.8785784e-34
158	0xb3b0cb4f	-8.23262e-08
159	0x8e296d36	-2.0883441e-30
160	0x0dd9f0cb	1.3431626e-30
161	0x1f8547a9	5.644624e-20
162	0x8d29f72c	-5.237467e-31
163	0x3744a4dc	1.1720895e-05
164	0x26a8f1df	1.1722901e-15
165	0x2b2212e7	5.7580194e-13
166	0xb0e94182	-1.69716e-09
167	0xb4b213cc	-3.3169488e-07
168	0xafc17630	-3.5190473e-10
169	0x94110b83	-7.3228995e-27
170	0x31ff5693	7.431319e-09
171	0xab2df7f2	-6.180604e-13
172	0x0df45d54	1.5060129e-30
173	0xb797a3ea	-1.8076931e-05
174	0x0e4de08d	2.5376318e-30
175	0x37788166	1.481208e-05
176	0x0d40c5b6	5.9402554e-31
177	0xb4f9a6a8	-4.6501123e-07
178	0x277292b6	3.3663779e-15
179	0xb8e0ec42	-0.00010725159
180	0x34389378	1.7189984e-07
181	0x249f39a6	6.905292e-17
182	0xb594e389	-1.1093081e-06
183	0x8dbfa704	-1.1811491e-30
184	0x2e840f5b	6.005393e-11
185	0x370286c0	7.779978e-06
186	0x27056da4	1.8516894e-15
187	0xa884b737	-1.47344e-14
188	0x1369dfa0	2.951899e-27
189	0x2bb0718f	1.2537071e-12
190	0xb482ef9d	-2.4388729e-07
191	0x36fdbac0	7.561728e-06
192	0x319512b6	4.338598e-09
193	0xb50715ff	-5.032343e-07
194	0x3039d48d	6.760466e-10
195	0xb93420c6	-0.00017178347
196	0x3a09cd4d	0.00052567275
197	0xb024a6f5	-5.990011e-10
198	0x37cb09ad	2.4203991e-05
199	0x23203074	8.683878e-18
200	0x305b2c68	7.973484e-10
201	0xb52dd188	-6.475243e-07
202	0xaf631be5	-2.065544e-10
203	0x3313607c	3.4313857e-08
204	0xb4556091	-1.9872301e-07
205	0x2de5157b	2.6043825e-11
206	0x2bac4fb7	1.224346e-12
207	0x2f8643b0	2.4422553e-10
208	0x3012c242	5.339055e-10
209	0x36407d40	2.8683135e-06
210	0xba1cd27f	-0.0005982294
211	0xb8a9adab	-8.090896e-05
212	0x1585dd32	5.4067257e-26
213	0x37dd76f8	2.6400652e-05
214	0x38ceb22a	9.856031e-05
215	0x352ba60c	6.3944094e-07
216	0xb5a71d8b	-1.2451068e-06
217	0xb95ecb07	-0.00021247203
218	0xa2c8b2dc	-5.4399483e-18
219	0xb6ce9b96	-6.157391e-06
220	0xb0d7a100	-1.5689068e-09
221	0x95dcd1be	-8.918821e-26
222	0xb8a01300	-7.6329336e-05
223	0x1b237a98	1.3522656e-22
224	0x97e0ec82	-1.4535364e-24
225	0x2bca36aa	1.4368136e-12
226	0x164b1d02	1.6407363e-25
227	0x3ac1e372	0.0014792515
228	0x3071c98d	8.796171e-10
229	0x32a15190	1.8779957e-08
230	0xb54db29d	-7.662837e-07
231	0x3912ae11	0.0001398849
232	0xb63a012b	-2.771684e-06
233	0xaac6acd8	-3.52918e-13
234	0xb4d701bc	-4.0048133e-07
235	0xb2b3838b	-2.0898161e-08
236	0x9451bfa7	-1.05896e-26
237	0xb98ee90e	-0.0002725799
238	0x25aa93d0	2.959046e-16
239	0xb9eafc91	-0.00044820135
240	0x15ab991b	6.930791e-26
241	0xb937ea7e	-0.00017539595
242	0x30abddc0	1.2504913e-09
243	0x3a1f58a3	0.00060785766
244	0x36dc4298	6.5642635e-06
245	0x2fe99766	4.2490028e-10
246	0x388ad33b	6.6196975e-05
247	0x970f9c83	-4.640334e-25
248	0x33b2c53b	8.324647e-08
249	0x372e3ef4	1.0385866e-05
250	0x304b89fc	7.404706e-10
251	0xb1db35cb	-6.3798544e-09
252	0xa8ec07a6	-2.620458e-14
253	0x3387516a	6.3012365e-08
254	0xb83e127c	-4.5316745e-05
255	0xba997a62	-0.0011709447

_deterministic_encoder.transformer_encoder.layers.0.self_attn.in_proj_bias f4 [192]
0	0x3775a5e2	1.4641761e-05
1	0xb67ea173	-3.7942925e-06
2	0x375b5a40	1.307443e-05
3	0x3abafa65	0.0014265297
4	0xb9894877	-0.00026184667
5	0x3988bc3b	0.00026080184
6	0xb9de1e71	-0.0004236582
7	0x396ccb23	0.00022582388
8	0xb890a777	-6.897648e-05
9	0xb64e2913	-3.07203e-06
10	0xb6d9624e	-6.478548e-06
11	0x37b0f157	2.1093218e-05
12	0xb962c2ec	-0.00021625654
13	0x3b509e14	0.0031832503
14	0x35c1ff23	1.4453875e-06
15	0x3914482a	0.00014141263
16	0x38afa9d7	8.3762854e-05
17	0xb8b7b571	-8.759916e-05
18	0x3ac25d8f	0.0014828908
19	0xbac11898	-0.0014732061
20	0xb88df039	-6.768149e-05
21	0x39d28177	0.0004015078
22	0xba1f40a2	-0.00060749997
23	0xb9f7feb7	-0.0004730129
24	0x3a9c2e81	0.0011915715
25	0xbaa9c7bb	-0.0012953201
26	0xbaa3e99d	-0.0012505535
27	0xbb4001af	-0.0029297879
28	0x39ae54a6	0.00033250934
29	0xb9a12029	-0.00030732274
30	0xbac4c945	-0.0015013596
31	0xb88a2aeb	-6.588347e-05
32	0x3689ffe9	4.11271e-06
33	0xb8356099	-4.3243726e-05
34	0x3afc8334	0.0019265176
35	0x3b22913d	0.0024805807
36	0xbaba0964	-0.0014193472
37	0xb2ed4a40	-2.7624196e-08
38	0x3a84386c	0.0010087616
39	0x399217aa	0.0002786492
40	0xbb571ee2	-0.0032824804
41	0xb98774d2	-0.00025836244
42	0x380c7b06	3.3493176e-05
43	0x3a04b8fd	0.0005062966
44	0xb9d2e074	-0.00040221552
45	0x3b0d5be2	0.002156966
46	0x39d5cc00	0.00040778518
47	0x3749e834	1.2034598e-05
48	0xba9bc171	-0.0011883212
49	0x3a4c6f8b	0.00077986036
50	0x3ad1ef43	0.001601674
51	0x39765a37	0.00023493996
52	0xb8a1d2e8	-7.7163626e-05
53	0xba6815cb	-0.0008853345
54	0x3a34cf0c	0.00068973075
55	0x3a9fffec	0.0012207008
56	0x385c58ec	5.2534902e-05
57	0x3a9510cd	0.0011372805
58	0x3a1e03b4	0.00060277735
59	0x3add96e5	0.0016905932
60	0xb6588cf9	-3.2268565e-06
61	0xba8fdfb8	-0.0010976708
62	0xba42111d	-0.0007403063
63	0x3a18f31b	0.00058345654
64	0x0c05d77f	1.0310796e-31
65	0x8b4bb099	-3.9229235e-32
66	0x8c4c7ccd	-1.5753144e-31
67	0x0ea9df4c	4.1876744e-30
68	0x8e18940f	-1.8806734e-30
69	0x0d32ec8f	5.513523e-31
70	0x8e25fc30	-2.0459244e-30
71	0x8b49223a	-3.873694e-32
72	0x8ccab3f0	-3.1231324e-31
73	0x8d8f1327	-8.817666e-31
74	0x8b9f328e	-6.132064e-32
75	0x0c31be36	1.3692824e-31
76	0x8d566f94	-6.607815e-31
77	0x8dbeb07f	-1.1752144e-30
78	0x0af2803d	2.335199e-32
79	0x0d5ede06	6.8676283e-31
80	0x8d0db691	-4.3668736e-31
81	0x0d25db9a	5.1108886e-31
82	0x8ea3c976	-4.0376602e-30
83	0x0ef03665	5.9216948e-30
84	0x0cd50a8a	3.282419e-31
85	0x8dd85e7a	-1.3334772e-30
86	0x0e9886b1	3.7600596e-30
87	0x0eadb14f	4.2818535e-30
88	0x8e79ecbc	-3.0805603e-30
89	0x0ed5a31c	5.2665623e-30
90	0x0ea232b7	3.998492e-30
91	0x0efe10f5	6.2632163e-30
92	0x8da40368	-1.01081e-30
93	0x0d592234	6.690946e-31
94	0x0ef23ac1	5.9714184e-30
95	0x0c44bdb7	1.5156381e-31
96	0x8c1ffdd7	-1.2325302e-31
97	0x0c6b6580	1.8134286e-31
98	0x8f7162d9	-1.1901255e-29
99	0x8eb7a917	-4.527581e-30
100	0x0ec2d25d	4.8027265e-30
101	0x094a37c4	2.4341086e-33
102	0x8e948725	-3.6614956e-30
103	0x8e399f17	-2.287961e-30
104	0x0f8e6dee	1.4044624e-29
105	0x8d4c4885	-6.2949646e-31
106	0x8cd1c29c	-3.2318675e-31
107	0x8e6de0c6	-2.932073e-30
108	0x0e22ec98	2.0081957e-30
109	0x8eb691d6	-4.50069e-30
110	0x8e8f4c45	-3.5325667e-30
111	0x8bb17bd5	-6.836424e-32
112	0x8e79fedb	-3.0814328e-30
113	0x0e8c2452	3.454764e-30
114	0x102ed477	3.4479126e-29
115	0x0dcc7e33	1.2602852e-30
116	0x8d654332	-7.0646957e-31
117	0x8eb3e878	-4.4350766e-30
118	0x0f0248e6	6.4235346e-30
119	0x104c2ecb	4.0267954e-29
120	0x0d23e800	5.0507513e-31
121	0x0e6574e0	2.8282703e-30
122	0x0e19fb86	1.897981e-30
123	0x0f32dff1	8.819207e-30
124	0x8b7e9ee5	-4.903816e-32
125	0x0d332286	5.520019e-31
126	0x8ecbfdc6	-5.028774e-30
127	0x0e849243	3.2681357e-30
128	0x3b909da9	0.004413326
129	0x3c81d2ec	0.015847646
130	0x3c1dcab6	0.00963085
131	0x3b93fb5c	0.0045160484
132	0xbccf8c88	-0.025335565
133	0x3c6663e7	0.0140619045
134	0xbc54737e	-0.012966989
135	0xbbbb0b6c	-0.0057081487
136	0xbc8e9bc0	-0.017408252
137	0x391f5743	0.00015195929
138	0xbc2eb99c	-0.01066437
139	0x3a08820d	0.00052073674
140	0x3885010b	6.3421285e-05
141	0xbb1a5b63	-0.0023553006
142	0xbb1701b5	-0.002304179
143	0xbb944d4b	-0.0045258156
144	0x3b7945d4	0.0038036006
145	0x3c085e69	0.00832329
146	0xbb3b7ea6	-0.0028609424
147	0x3c556f13	0.01302697
148	0x3ab7c23b	0.0014019677
149	0xbaef18a7	-0.00182416
150	0x3bca030a	0.006164913
151	0xbc8d7c24	-0.017271109
152	0xba1510e8	-0.0005686418
153	0xbc53048e	-0.012879504
154	0xbbb12595	-0.0054060915
155	0xbb6eedd8	-0.0036457684
156	0x3c0b3f2f	0.008498951
157	0xbc8526a9	-0.016253786
158	0xbbf185d4	-0.00737069
159	0x3c98dcf5	0.018660048
160	0xb928677d	-0.00016060281
161	0x3b7fa2f4	0.003900704
162	0xbb90c571	-0.004418068
163	0x3bdb1852	0.006686249
164	0x3c7db7ed	0.015485746
165	0xbb037356	-0.002005776
166	0xbaf95ba8	-0.0019024508
167	0x3ad60db9	0.0016330994
168	0x3c4ea87d	0.012613413
169	0xbb14b884	-0.0022692988
170	0x39908528	0.0002756503
171	0xbb84f68f	-0.0040577124
172	0xbc352fe1	-0.0110587785
173	0x3cc443c4	0.023958094
174	0x3b5f310b	0.0034056331
175	0x3c936bab	0.017995676
176	0xbbcea6ee	-0.0063065207
177	0xbc0d7de6	-0.008635974
178	0x3bbc095d	0.005738421
179	0xbb2f3cdf	-0.0026739163
180	0x3bb4bbfc	0.0055155735
181	0x3bab937a	0.0052360864
182	0xbc24a28d	-0.010048521
183	0x3c57261c	0.013131645
184	0x3aae7eb5	0.0013312908
185	0xbb3563b2	-0.0027677831
186	0xbbbea90e	-0.0058184927
187	0x3b00f32d	0.0019676194
188	0xbb608b2f	-0.0034262647
189	0x3b4f4075	0.0031624113
190	0x3bedb120	0.007253781
191	0x3c296011	0.010337845

_deterministic_encoder.transformer_encoder.layers.0.self_attn.out_proj.weight f4 [64, 64]
0	0x3decebe1	0.11568428
1	0x3e2fb62b	0.17159335
2	0x3e206535	0.15663607
3	0x3c2314a9	0.009953656
4	0xbb3d60ce	-0.0028896811
5	0x3df1522f	0.117832534
6	0x3d88eeee	0.06686197
7	0x3ca8effa	0.020622242
8	0xbdf968c1	-0.12178183
9	0x3e4122f4	0.1886099
10	0x3e338e1c	0.17534679
11	0x3c387ac6	0.01125974
12	0x3db7bf85	0.08972076
13	0xbe61efe5	-0.22064169
14	0xbccea3ac	-0.02522453
15	0x3dc5c8f1	0.09657467
16	0x3d3058e0	0.043053508
17	0xbd8a8ee1	-0.06765533
18	0x3da87f87	0.08227449
19	0xbe16dfa8	-0.14733756
20	0xbcf4c352	-0.029878292
21	0xbd984911	-0.07435811
22	0x3e13d27c	0.14435762
23	0x3dac7996	0.08421628
24	0xbce775fc	-0.028254502
25	0x3e40ff6f	0.1884744
26	0x3da55192	0.08072199
27	0x3db92fc3	0.09042313
28	0x3da57606	0.08079152
29	0xbdfb327d	-0.12265489
30	0xbe03187f	-0.12802313
31	0x3cf3ec99	0.029775904
32	0x3cdeee5f	0.027213274
33	0x3983b631	0.0002512201
34	0xbcddf8e8	-0.027096227
35	0xbdb1f713	-0.08689704
36	0x3e578225	0.2104574
37	0x3dfed192	0.12442316
38	0xbbb29c85	-0.0054507875
39	0x3c734144	0.0148471035
40	0x3d44aa29	0.04801384
41	0xbe04d4e9	-0.12971844
42	0x3df6db8b	0.12053593
43	0xbe5aa583	-0.213522
44	0xbcf87e59	-0.030333685
45	0x3e2fa117	0.17151295
46	0xbd88ce01	-0.06679917
47	0x3e407577	0.1879481
48	0x3c23ac0b	0.009989749
49	0x3cfdb491	0.03096989
50	0xbc328702	-0.010896446
51	0xbb34ddcb	-0.002759802
52	0xbde5594b	-0.11198672
53	0xbdde6cd1	-0.10860599
54	0xbdf5a446	-0.11994223
55	0xbe074eb1	-0.13213612
56	0xbe04b951	-0.12961318
57	0xbadfaffd	-0.0017065998
58	0x3c543ebe	0.012954412
59	0xbe492fe6	-0.19647178
60	0x3d879a50	0.0662123
61	0x3e375ce9	0.17906536
62	0x3cf706fe	0.030154701
63	0x3d091821	0.033470277
64	0x3e0ebcc5	0.13939197
65	0xbe33f2c8	-0.17573082
66	0xbd43fc7d	-0.047848213
67	0x3dfbf25f	0.12302088
68	0x3e19dbf6	0.15025315
69	0xbe1f22d2	-0.15540627
70	0x3e229f85	0.15881164
71	0xbe0eb2d7	-0.1393541
72	0xbe0dc85c	-0.13845962
73	0xbe17ce12	-0.14824703
74	0xbe08862f	-0.13332437
75	0xbdefc0d4	-0.11706701
76	0x3df8ab89	0.12142093
77	0x3e3f2a8c	0.18668574
78	0xbde10d94	-0.10988918
79	0xbdf015f7	-0.117229395
80	0x3df0cf9c	0.11758348
81	0xbe2d8fce	-0.16949388
82	0xbdff8d2e	-0.124781
83	0x3ddc2752	0.10749687
84	0xbd5e756b	-0.054311197
85	0x3dcb8d3a	0.09939046
86	0x3cf601e9	0.030030208
87	0xbdc0106a	-0.09378131
88	0x3e0a482b	0.13504092
89	0x3e46be57	0.19408546
90	0xbdac4919	-0.0841238
91	0x3b452aaf	0.0030085256
92	0xbe1cdd09	-0.15318693
93	0xbdd90c16	-0.10598008
94	0xbdceeddc	-0.10103962
95	0x3df3552d	0.1188148
96	0xbdd3131e	-0.10306381
97	0x3d8e839a	0.06958695
98	0x3d1e5d21	0.038663033
99	0xbc570ccb	-0.013125609
100	0xbd99a305	-0.07501797
101	0xbdc35b58	-0.09538907
102	0x3dead21a	0.11465855
103	0xbd88423f	-0.066532604
104	0x3dca520f	0.09878933
105	0x3cfbae73	0.030722832
106	0x3d46b4fd	0.048512448
107	0x3e100f7f	0.14068411
108	0x3bfa7f6f	0.007644586
109	0x3dcba64d	0.09943829
110	0xbc8c40e3	-0.017120784
111	0x3b42dd98	0.002973413
112	0x3d275a17	0.0408574
113	0x3d8b0029	0.0678714
114	0xbd982ad6	-0.07430045
115	0xbe0ac3f5	-0.13551314
116	0x3dd8ca81	0.105854996
117	0x3d6ccd72	0.057813115
118	0xbe265ed1	-0.16247107
119	0x3cc28dbd	0.023749227
120	0x3e322aa1	0.17399074
121	0x3d94836d	0.0725163
122	0x3d7d98f5	0.06191345
123	0xbc9491c8	-0.01813592
124	0xbdd877f5	-0.10569755
125	0xbdf580a7	-0.11987429
126	0xbe3998a8	-0.1812464
127	0x3e1ba8e5	0.15201147
128	0xbda039b1	-0.07823504
129	0xbe58531c	-0.21125454
130	0x3e48d453	0.19612245
131	0x3e1c52a7	0.15265904
132	0xbd14ad6b	-0.036298197
133	0x3e250b5d	0.16117616
134	0xbda92e46	-0.08260779
135	0xbda1dc11	-0.079033025
136	0xbdc3b089	-0.09555156
137	0xbe22b579	-0.15889539
138	0x3d8b4050	0.06799376
139	0x3d802999	0.06257934
140	0x3d278d46	0.040906213
141	0xbe537c52	-0.20652893
142	0x3e0d5e10	0.13805413
143	0x3dc37ad0	0.09544909
144	0xbd85beaf	-0.06530511
145	0x3e057090	0.1303122
146	0xbe04d17d	-0.12970538
147	0xbdc06399	-0.09393997
148	0xbd519006	-0.051162742
149	0xbda5d724	-0.080976754
150	0x3e5b4c9c	0.21415943
151	0xbddd046d	-0.1079186
152	0x3e0d6e2d	0.1381156
153	0x3d88ecb5	0.06685773
154	0xbe388e65	-0.18023069
155	0xbe210b55	-0.15726979
156	0x3dbb6762	0.09150578
157	0x3dcb600d	0.099304296
158	0x3d4adb7f	0.049525734
159	0x3e3950c6	0.18097219
160	0x3df718f7	0.120653085
161	0xbdd1c598	-0.10242766
162	0xbdc52aeb	-0.096273266
163	0x3e00eb1b	0.12589686
164	0xba3c7c17	-0.00071901217
165	0xbe4376b9	-0.19088258
166	0x3cebcdbe	0.028784629
167	0x3ba8c482	0.0051503787
168	0x3e373ed1	0.17895056
169	0xbd15db9c	-0.03658639
170	0x3e1afc5b	0.15135328
171	0x3da9a919	0.08284206
172	0xbd73560f	-0.059408244
173	0xbd7c99f8	-0.061670274
174	0xbe16b121	-0.14716007
175	0xbe2b9ec4	-0.16759783
176	0x3df10655	0.11768786
177	0xbdcd1e2e	-0.10015522
178	0x3d9e1e97	0.07720678
179	0xbcc8805c	-0.024475269
180	0x3e4cd9f6	0.2000502
181	0x3c95712c	0.018242441
182	0x3dbf05e9	0.09327299
183	0xbdfc03a9	-0.123053856
184	0x3de91715	0.11381356
185	0x3d42ddc1	0.047574762
186	0x3db92ce4	0.09041765
187	0x3e1c2455	0.15248235
188	0x3de96532	0.113962546
189	0x3c9536dd	0.018214637
190	0xbd1c8a2e	-0.038217716
191	0xbe0826b1	-0.1329601
192	0xbc227012	-0.009914415
193	0x3bdf26e8	0.006810058
194	0xbe03e221	-0.1287923
195	0xbe3718c4	-0.17880541
196	0x3d62ebbb	0.05540059
197	0xbbde683c	-0.006787328
198	0xbcb3cace	-0.02194729
199	0xbe23cd0e	-0.15996191
200	0xbc8e2521	-0.017351689
201	0xbde3ead1	-0.11128772
202	0x3e0fe720	0.14053011
203	0xbe3615f2	-0.17781809
204	0x3d9af0ef	0.07565486
205	0xbb99160e	-0.0046718186
206	0xbdc2192e	-0.09477459
207	0x3d2f3127	0.042771485
208	0x3d8b8311	0.06812108
209	0x3de6dba8	0.11272365
210	0xbd8032fc	-0.062597245
211	0x3dc6f3e7	0.097144894
212	0x3d008d6b	0.031384867
213	0x3d8133bd	0.063086964
214	0x3e135125	0.14386423
215	0x3da2496a	0.07924159
216	0x3e1a8299	0.15088882
217	0x3e059cdb	0.13048117
218	0x3e20a2e5	0.1568714
219	0x3df182fd	0.11792562
220	0x3d7a8f52	0.061171837
221	0x3d4956b4	0.049154952
222	0x3e51cd57	0.20488487
223	0xbdb28647	-0.087170176
224	0xbd47dedb	-0.048796516
225	0xbcb2fe1c	-0.021849684
226	0x3dcaa9b9	0.09895653
227	0xbe183910	-0.14865518
228	0xbcdd513a	-0.02701627
229	0xbdb70eeb	-0.08938392
230	0xbd3862d8	-0.04501614
231	0x3dac1b59	0.08403654
232	0x3d736ad7	0.059428062
233	0xbe170043	-0.14746194
234	0xbe02c49a	-0.1277031
235	0xbe15a0ee	-0.14612171
236	0xbe345dd6	-0.1761392
237	0x3ddfc609	0.10926444
238	0xbd4c9fbc	-0.049957022
239	0x3d8cd363	0.06876256
240	0xbe29572b	-0.16537158
241	0xbe13ead7	-0.14445053
242	0xbe2ab195	-0.16669305
243	0xbe2f3ad3	-0.17112283
244	0x3e3db2d6	0.18525252
245	0x3b13abf6	0.0022532917
246	0x3ddbb5ff	0.107280724
247	0xbe563dfc	-0.20922083
248	0x3c80e11b	0.015732339
249	0xbdd85032	-0.10562171
250	0xbd45a156	-0.048249565
251	0xbcf3cd0e	-0.029760864
252	0x3de7377d	0.112898804
253	0xbd74725f	-0.059679385
254	0x3cd39a04	0.025830276
255	0xbdd3c089	-0.103394575

_deterministic_encoder.transformer_encoder.layers.0.self_attn.out_proj.bias f4 [64]
0	0x3c2165c8	0.009850927
1	0xb9917f5b	-0.00027751442
2	0x3ba28a4b	0.0049603335
3	0xbb4de36a	-0.0031416067
4	0xba729246	-0.0009253364
5	0xbc795a14	-0.01521923
6	0xbba9947b	-0.005175171
7	0x3920ca6a	0.00015334194
8	0x3b80dc73	0.0039325296
9	0xbbda1b6a	-0.0066561
10	0xb995d323	-0.00028576804
11	0x3c4235c9	0.011853644
12	0x3be5bbcc	0.0070109125
13	0xbb2d8f35	-0.0026483063
14	0xbbf41f0d	-0.0074499906
15	0x3b6a9176	0.0035792268
16	0x3b9f9004	0.004869463
17	0xbb25e648	-0.002531426
18	0x3c245a79	0.010031336
19	0x3b363ae1	0.002780609
20	0x3c626194	0.01381721
21	0xbcac9745	-0.021068225
22	0xbbb4c307	-0.005516413
23	0xbb0875fc	-0.0020822277
24	0x3cbb5433	0.022867298
25	0x3b7b2e73	0.0038327246
26	0xbbfaae60	-0.0076501817
27	0x3cad2e38	0.021140203
28	0x39b2636f	0.0003402489
29	0xbc574daf	-0.01314108
30	0x3c81e2f0	0.015855283
31	0xbc983b3a	-0.018582929
32	0x3a1fce67	0.0006096125
33	0xbc10e0f0	-0.008842692
34	0xbbdfe5e6	-0.006832826
35	0xbc173000	-0.009227753
36	0xbb7e85ec	-0.0038837148
37	0xbc285dd9	-0.010276281
38	0xbbb603e1	-0.0055546616
39	0x3ade2a6f	0.0016949902
40	0x3bd88bfe	0.0066084852
41	0x3a6b766e	0.0008982186
42	0x3ccc07bc	0.024906032
43	0xbb130618	-0.0022434052
44	0x3bf42ce0	0.0074516386
45	0x3c30c3ab	0.010788838
46	0xbc78a131	-0.01517515
47	0x3c1b9f4a	0.009498427
48	0xbbaf7068	-0.005353976
49	0x3c3965e5	0.011315797
50	0xb984a08a	-0.00025296613
51	0x3c1d2f2c	0.009593766
52	0xbc2e9930	-0.01065664
53	0xbb4a5c57	-0.0030877793
54	0xbbc1be79	-0.0059125987
55	0x3c9b5e42	0.018965844
56	0x3bd25679	0.0064189998
57	0x3b295555	0.0025838215
58	0xbc58bbc7	-0.013228363
59	0x3b662a83	0.0035120554
60	0xbc5e58b7	-0.013570956
61	0xbb551e3b	-0.003251924
62	0xbbce9879	-0.0063047973
63	0x3c02406f	0.0079499325

_deterministic_encoder.transformer_encoder.layers.0.linear1.weight f4 [256, 64]
0	0x3d9a7948	0.07542664
1	0xbddf7a90	-0.10912049
2	0x3e097b22	0.13425878
3	0xbd8ebd96	-0.069697544
4	0xbdf0e489	-0.117623396
5	0x3d1722cd	0.036898423
6	0x3ca77637	0.020442111
7	0xbc9174b9	-0.017755853
8	0x3df1acaa	0.11800511
9	0xbd8fc720	-0.07020402
10	0xbde86884	-0.1134806
11	0x3d2dcc60	0.042431235
12	0x3d882986	0.06648545
13	0xbd845f08	-0.06463438
14	0x3d1c412c	0.03814809
15	0xbdd4de33	-0.10393944
16	0xbdca1435	-0.098671354
17	0xbde5d04f	-0.11221372
18	0x3cbd739d	0.023126418
19	0xbdd9d876	-0.1063699
20	0xbc08e304	-0.008354906
21	0x3df8c13a	0.1214623
22	0x3de8b90d	0.11363421
23	0x3db7deba	0.089780286
24	0x3d09bfbf	0.03363013
25	0x3dd7a7fd	0.10530088
26	0xbda47d08	-0.0803166
27	0x3d654cbb	0.05598138
28	0xbd8b6756	-0.06806819
29	0x3d4b32f2	0.049609132
30	0x3d3a50c2	0.045487173
31	0x3d70eabd	0.058817614
32	0x3d8beac2	0.06831886
33	0x3c54acc4	0.012980644
34	0x3df5adac	0.11996016
35	0xbdd6a2d4	-0.10480276
36	0x3dd92738	0.106031835
37	0xbbd87a36	-0.0066063656
38	0x3d651d9f	0.055936452
39	0x3d3b736d	0.045764375
40	0x3ce3d1e3	0.027810043
41	0x3c8d59b7	0.017254693
42	0x3bee3b28	0.0072702356
43	0x3dad3657	0.0845763
44	0xbd982301	-0.074285515
45	0x3ce93139	0.028465854
46	0xbd43dce6	-0.047818087
47	0x3e0c14be	0.13679788
48	0xbd110ae9	-0.035410795
49	0xbd812905	-0.06306652
50	0xbdf0827e	-0.117436394
51	0xbdafe39a	-0.085883334
52	0xba03f268	-0.0005033375
53	0x3de8e7d3	0.11372342
54	0x3d8bce09	0.068264075
55	0x3d92e43c	0.071724385
56	0x3c2c9729	0.010534086
57	0x3def8842	0.11695911
58	0x3e020236	0.12696156
59	0xbdeb5eaa	-0.11492665
60	0x3d36fec4	0.044676557
61	0xbcca1e9b	-0.024672797
62	0xbd7cafa1	-0.06169093
63	0xbdabd28d	-0.08389769
64	0x3c496296	0.012291571
65	0xbc23c6b2	-0.009996103
66	0xbca0377c	-0.019557707
67	0x3be86c65	0.0070929998
68	0xbc7a9184	-0.015293483
69	0x3cb4d697	0.02207498
70	0x3ac96d3b	0.0015367636
71	0xbd18b203	-0.03727914
72	0xbc2ef4a8	-0.010678448
73	0x3c19b938	0.0093825385
74	0x3b6a6679	0.0035766645
75	0xbc94ca68	-0.018162921
76	0x3cab2c77	0.020895226
77	0xba34dda1	-0.00068994804
78	0x3da1d74a	0.07902391
79	0x3c1d460c	0.00959922
80	0x3bdef654	0.006804267
81	0xbd72d0f6	-0.059281312
82	0x3bccef12	0.0062540853
83	0x3cb8d837	0.022564037
84	0x3a1feb31	0.0006100415
85	0x3d408685	0.047003288
86	0x392a9911	0.00016269485
87	0xbcd2d5bd	-0.025736684
88	0xbd5d18a5	-0.05397858
89	0x3aa6096f	0.0012667606
90	0xbb54fa89	-0.0032497963
91	0xbd1fa75e	-0.038977973
92	0xbb88554a	-0.004160558
93	0xbc0b3be0	-0.008498162
94	0x3d3749a4	0.044747964
95	0x3d60965d	0.054830898
96	0x3c4711bc	0.012150224
97	0x3d0cfc73	0.03442044
98	0x3cbb12c8	0.022836104
99	0x3cf08234	0.02935896
100	0xbbd88246	-0.0066073267
101	0x3c66db42	0.014090361
102	0x3c78e034	0.015190173
103	0x3d06f912	0.032952376
104	0x3bf79163	0.0075551732
105	0xb9dae4ce	-0.00041750673
106	0xbbfa6890	-0.0076418594
107	0xbcdbe258	-0.026841328
108	0x3b5ecb17	0.0033995563
109	0x3d33668c	0.04379897
110	0xbd3c6963	-0.045998942
111	0x3cd08723	0.025455063
112	0xbce23456	-0.027612846
113	0xbcddf5c3	-0.027094727
114	0x3c186908	0.009302385
115	0xbd0e0c04	-0.034679428
116	0x3d51923f	0.05116486
117	0xbd32be23	-0.04363836
118	0x3cb394f6	0.021921616
119	0x3cb861fe	0.022507664
120	0xbd0871bc	-0.03331159
121	0x3ba09e28	0.004901666
122	0x3afc79a8	0.0019262331
123	0xba113775	-0.0005539575
124	0xbd75d267	-0.06001511
125	0x3a33a108	0.00068523036
126	0x3d54f7df	0.0519942
127	0x3d64dc2a	0.055874027
128	0xbd3b7a74	-0.045771077
129	0xbd0f9d8d	-0.03506236
130	0x3e079778	0.13241374
131	0x3de90095	0.11377064
132	0xbdaa0ef7	-0.083036356
133	0xbddcc06e	-0.107788906
134	0x3e09880a	0.13430801
135	0x3c1ceada	0.009577477
136	0x3dcf1d59	0.101130195
137	0xbdc7a987	-0.09749132
138	0xbde0d039	-0.10977215
139	0x3d6c47a9	0.057685528
140	0x3db54701	0.088514335
141	0xbcfaecf7	-0.030630572
142	0x3d51bd80	0.051206112
143	0xbd1bd03e	-0.038040392
144	0x3d4773b4	0.048694327
145	0x3dcc127f	0.09964465
146	0xbdb2fa75	-0.08739177
147	0xbd916ee3	-0.07101228
148	0x3de9e641	0.114208706
149	0x3d16a48c	0.036778018
150	0x3e07f8f6	0.13278565
151	0xbd1c2ed9	-0.038130615
152	0x3c9ed5d4	0.01938907
153	0xbd65ac6c	-0.056072637
154	0xbdc4f053	-0.09616151
155	0xbdb2bf71	-0.08727921
156	0x3dc60438	0.096687734
157	0xbda01660	-0.07816768
158	0xbd38d987	-0.045129325
159	0x3d0e005a	0.034668304
160	0xbc66b3d2	-0.014080958
161	0x3dd30e25	0.10305432
162	0xbd6b21ec	-0.057405397
163	0xbd59b9ee	-0.053155832
164	0xbc49ffac	-0.012329023
165	0xbdbe4b02	-0.0929165
166	0x3db804b8	0.08985275
167	0x3e0d9c3d	0.13829131
168	0x3b98a01f	0.00465776
169	0xbdd47a2e	-0.103748664
170	0x3d59983a	0.05312369
171	0xbb89c3d6	-0.0042042537
172	0x3d5362da	0.051607944
173	0x3d5f2f7d	0.054488648
174	0xbd26eccd	-0.040753175
175	0x3d796204	0.06088449
176	0x3d68dd31	0.05685157
177	0x3dcca937	0.09993213
178	0x3be966e1	0.00712286
179	0x3e08dd04	0.13365561
180	0x3d5ba6bd	0.05362581
181	0xbd402fcb	-0.04692058
182	0x3d2253f7	0.039630856
183	0x3d63657d	0.05551671
184	0xbde583be	-0.112067685
185	0x3df143d8	0.11780518
186	0xbdd09052	-0.10183777
187	0x3dd41513	0.10355582
188	0xbde57ce0	-0.11205459
189	0xbd391987	-0.04519036
190	0xbdd295f6	-0.10282509
191	0x3c7f3d63	0.015578601
192	0xbc930493	-0.017946517
193	0xbdf35f89	-0.11883456
194	0x3dbbf5ab	0.09177717
195	0xbdb2d1f3	-0.08731451
196	0x3c758116	0.01498439
197	0xbc924959	-0.01785724
198	0x3deb6045	0.11492971
199	0xbd9f09d6	-0.07765548
200	0x3d602a36	0.054727755
201	0xbe0b8250	-0.13623929
202	0x3d457d92	0.048215456
203	0xbc751d10	-0.014960542
204	0x3db7a882	0.08967687
205	0x3dba8be7	0.091087155
206	0xbd567bf3	-0.0523643
207	0xbe03f5ae	-0.12886688
208	0x3c1f84fa	0.009736294
209	0x3de231d4	0.1104466
210	0xbdc206db	-0.09473964
211	0xbcb7214b	-0.022354743
212	0xbd936448	-0.071968615
213	0xbd9814cc	-0.07425842
214	0x3dc78fb4	0.09744206
215	0x3da2d1da	0.07950182
216	0x3df375de	0.11887716
217	0x3d05e154	0.032685593
218	0xbe039904	-0.1285134
219	0x3d74aa0e	0.05973249
220	0xbd575863	-0.052574527
221	0x3daf12b0	0.08548486
222	0x3c06d42c	0.008229297
223	0xbdb116c7	-0.086469226
224	0xbdd97338	-0.10617679
225	0xbd904edc	-0.07046291
226	0x3db72569	0.08942682
227	0xbd8f9726	-0.07011251
228	0xbc40aaca	-0.011759469
229	0xbd838e27	-0.06423598
230	0x3dc4f25d	0.096165396
231	0x3db35bc1	0.08757735
232	0x3e0c598e	0.13706037
233	0x3cc77f01	0.024352552
234	0x3d0d2a8d	0.034464408
235	0xbce53874	-0.02798102
236	0x3d3b91f3	0.045793485
237	0x3c28bc1d	0.010298756
238	0xbdfc5a3e	-0.123219
239	0x3d9c8858	0.07643193
240	0xbe016988	-0.12637913
241	0x3d84fc9f	0.06493496
242	0xbd5300c1	-0.05151439
243	0xbdbb984e	-0.09159909
244	0xbdd8a008	-0.105773985
245	0x3c9e0fdc	0.019294672
246	0xbdbfcb9f	-0.093650095
247	0xbd7fea89	-0.06247953
248	0x3d7f282b	0.062294167
249	0x3d3848fb	0.044991475
250	0x3df07962	0.11741902
251	0xbdebf827	-0.11521941
252	0xbc2ec18c	-0.010666262
253	0xbd768905	-0.060189266
254	0xbd4db2fe	-0.05021953
255	0xbdc57ce0	-0.09642959

_deterministic_encoder.transformer_encoder.layers.0.linear1.bias f4 [256]
0	0x3c026cfc	0.007960554
1	0xb9d857be	-0.00041264103
2	0x3bf63b58	0.0075143985
3	0x3c61ad8a	0.013774285
4	0x3b3e72bd	0.0029060089
5	0xb9ed79cf	-0.00045294917
6	0xbc047593	-0.0080846725
7	0x38bc4c0d	8.978704e-05
8	0xbc067179	-0.008205765
9	0xbb75f0cc	-0.003752756
10	0xbc0b86f8	-0.008516066
11	0x3b8474fc	0.004042266
12	0xbc175625	-0.009236847
13	0x39636cdd	0.00021688962
14	0xbb7a3241	-0.0038176926
15	0xbbff4d5e	-0.0077912053
16	0x3b0567c7	0.0020356046
17	0xbbbb864c	-0.0057227965
18	0xbbee2823	-0.0072679683
19	0x3c26afb6	0.010173729
20	0x3baeb013	0.0053310483
21	0x3b939c52	0.004504719
22	0x3b8e2d60	0.004338905
23	0xbba5c3bd	-0.005058734
24	0xbc58473c	-0.013200577
25	0xbbf051a8	-0.007333953
26	0x3be16c9c	0.0068794023
27	0xbc3aeee0	-0.011409491
28	0x3c9e6cb1	0.019338937
29	0x3b53bb1e	0.0032307575
30	0x3a1be627	0.0005947076
31	0xbab4980e	-0.0013778226
32	0xbc266b68	-0.010157444
33	0xbb245eb0	-0.0025080852
34	0x3c928821	0.017887177
35	0xbbf86f47	-0.0075816247
36	0xbc483892	-0.012220519
37	0xba0f479f	-0.00054656895
38	0xbbe37468	-0.006941367
39	0xbb9b5a7c	-0.004741011
40	0x396348d9	0.00021675545
41	0xbac35d59	-0.0014905139
42	0xbb7b4e7e	-0.0038346346
43	0xbbb07d91	-0.0053860624
44	0xb9b966a4	-0.00035362423
45	0xbb6a7242	-0.003577367
46	0xba9f0773	-0.0012132957
47	0xbc0888c1	-0.008333386
48	0xbbeca16c	-0.0072213914
49	0x3c383b5f	0.011244624
50	0x3a7dda3d	0.0009683704
51	0xbbf409f6	-0.0074474765
52	0xbc1ef520	-0.009701997
53	0xbc6b301b	-0.014354731
54	0xb82def06	-4.1469022e-05
55	0xbbbdd04d	-0.0057926537
56	0x3c771a23	0.015081915
57	0x3c3b0d88	0.0114168
58	0x3acda68a	0.0015689891
59	0xbba42ae3	-0.0050099953
60	0xba773861	-0.00094307034
61	0x3b82b3e5	0.0039887303
62	0xbb80e6c4	-0.0039337594
63	0xbc421a51	-0.011847095
64	0xbbcf98a1	-0.0063353335
65	0x3c0e07ae	0.008668823
66	0xbaf74767	-0.0018865884
67	0xbc5e8bbc	-0.01358312
68	0xbb7e9782	-0.003884763
69	0xbc88e647	-0.016711367
70	0x3bf2a31c	0.007404698
71	0xbbf3c575	-0.00743931
72	0xbb8b18e3	-0.00424491
73	0xbabef738	-0.0014569527
74	0xbb38ddeb	-0.0028208445
75	0x3b5bc350	0.0033533163
76	0xbc918d6a	-0.017767627
77	0xbc7cc6f1	-0.015428291
78	0xbc07ad22	-0.008281024
79	0xbc02fbe4	-0.007994626
80	0xbbddb920	-0.0067664534
81	0xbaa3f6ec	-0.0012509502
82	0x3a6eabee	0.0009104599
83	0xbc0e64f1	-0.0086910585
84	0xbb81e3b1	-0.0039639105
85	0x3bc9eef5	0.006162519
86	0xbba78be2	-0.005113111
87	0xbc6cd423	-0.014454874
88	0x3cc37d24	0.023863383
89	0x3c6348e9	0.013872364
90	0xba9c5870	-0.0011928212
91	0x3b397f6d	0.0028304711
92	0x3c333926	0.010938918
93	0xbb55b08a	-0.0032606446
94	0xbb1271e8	-0.0022345725
95	0xba37d206	-0.0007012192
96	0xbaae35fc	-0.0013291235
97	0xbb5110fb	-0.003190099
98	0xbb1d55f2	-0.0024007526
99	0x3bde5e75	0.0067861625
100	0xbb84ed14	-0.004056582
101	0xba82e742	-0.0009987133
102	0xbc39f1c6	-0.011349147
103	0xbb8ccfdd	-0.00429724
104	0x3c2cf712	0.010556953
105	0x05e093ec	2.1119197e-35
106	0xb9b072b9	-0.0003365481
107	0xb85e9c01	-5.3074215e-05
108	0xbb6e9796	-0.003640627
109	0x3b6ceab4	0.0036150636
110	0x3c7da9a9	0.015482345
111	0xbb30881b	-0.0026936594
112	0xba0a61c3	-0.000527885
113	0x3babee30	0.0052469
114	0x3a8c80c1	0.0010719524
115	0xbc4e4bbd	-0.0125913
116	0x3c4d9c81	0.0125495205
117	0x3acb822e	0.0015526467
118	0xba18cd38	-0.000582892
119	0xbc5ab820	-0.013349563
120	0xbbc8ae62	-0.0061243037
121	0xbc032714	-0.008004922
122	0x3c3f9316	0.011692783
123	0xbc6edba1	-0.014578731
124	0x3c8e5343	0.017373687
125	0x3c2d2a2a	0.010569135
126	0x3c6767e2	0.014123889
127	0xbc3939a4	-0.0113052465
128	0xb8e6a325	-0.00010997643
129	0xbbd26797	-0.0064210403
130	0xbb81acbe	-0.00395736
131	0x3b785ff0	0.003789898
132	0x3c03ae1f	0.008037119
133	0x3bd3e595	0.0064665773
134	0xbb86b227	-0.004110593
135	0x3cb27e7a	0.021788824
136	0x3be44e22	0.006967322
137	0xbc051b2a	-0.008124152
138	0xba6ef36d	-0.0009115253
139	0xbc0569d8	-0.008142911
140	0x3cd878e8	0.02642484
141	0xbb4bca43	-0.00310959
142	0xba2adc54	-0.0006517817
143	0x3c8b2d2f	0.016989319
144	0xbbd41542	-0.0064722607
145	0x372f69e7	1.045547e-05
146	0x3bcbfadc	0.006224973
147	0xbc2a035c	-0.0103767775
148	0x3adac391	0.0016690363
149	0xba523a78	-0.0008019577
150	0x3bf87a97	0.007582973
151	0x3a1f5be4	0.00060790614
152	0x3c11d665	0.008901213
153	0x3aa0fe0e	0.0012282745
154	0xbc018b74	-0.007906783
155	0xbc0cd5a2	-0.008595856
156	0xbbd269d9	-0.0064213094
157	0x3cc72cca	0.02431335
158	0xbc0c9f0e	-0.0085828435
159	0x3b01255a	0.00197061
160	0xbbf9b802	-0.0076208124
161	0xbb092e84	-0.0020932266
162	0xbc008721	-0.007844717
163	0xba4708bc	-0.0007592549
164	0xbc1d1aa2	-0.009588869
165	0x3b33b55f	0.0027421338
166	0x39ddd9f9	0.00042314807
167	0xbad55ecd	-0.0016278863
168	0xbbd78f65	-0.0065783733
169	0x3c690a79	0.014223688
170	0x3c0adbca	0.008475253
171	0xba52cffb	-0.0008041856
172	0xbc05a1ea	-0.008156279
173	0xbc1677b9	-0.009183818
174	0xbb0df2cf	-0.0021659618
175	0xba560963	-0.0008164851
176	0xbb994cf1	-0.0046783616
177	0x3c0756eb	0.008260469
178	0x3bf62e4b	0.007512843
179	0xba664af4	-0.00087849726
180	0xbbb5b301	-0.0055450206
181	0xba77ca40	-0.000945244
182	0x3c5b0ce3	0.013369772
183	0x3bdf369c	0.00681193
184	0xbb4079a5	-0.002936938
185	0xb82853e6	-4.0132458e-05
186	0x3b81b100	0.0039578676
187	0xbc1d04c6	-0.009583658
188	0x3b16db28	0.002301881
189	0x397b30e8	0.00023955444
190	0xbbbacc1f	-0.0057006027
191	0xbaf6469b	-0.0018789353
192	0x3bef2b08	0.007298831
193	0xbb09dd93	-0.002103661
194	0xbad06b62	-0.0015901143
195	0x3b85f95b	0.0040885634
196	0x3c9ee1ba	0.019394744
197	0xba9c2b78	-0.001191481
198	0xba040bde	-0.0005037169
199	0xb9148cdb	-0.00014166853
200	0xbbc85f93	-0.006114909
201	0x3bba9c90	0.0056949332
202	0xbb91f1e8	-0.0044538863
203	0xbbe12d0e	-0.006871826
204	0xbc3c874e	-0.0115068685
205	0x3beecef8	0.007287856
206	0xbb3a837d	-0.002845972
207	0xbc02fe55	-0.007995208
208	0x3944138e	0.00018699301
209	0xbbc90bfe	-0.006135463
210	0x3c00814a	0.007843325
211	0xbb5fe064	-0.0034160847
212	0xbb50eb0a	-0.0031878375
213	0xbc81a96d	-0.015827859
214	0xbbc4e112	-0.006008276
215	0x3b5dea12	0.003386144
216	0xbb6d407d	-0.0036201768
217	0x3ca6de18	0.020369574
218	0x3b57f980	0.003295511
219	0xbc6ecd2f	-0.014575287
220	0xb98eb0e5	-0.00027216147
221	0x3c2c7fed	0.010528547
222	0xbc133a46	-0.008986061
223	0x3bd96326	0.006634134
224	0xb85a1a06	-5.1999486e-05
225	0xbb6f218b	-0.00364885
226	0x3b5246c7	0.0032085644
227	0xbbbd835f	-0.005783483
228	0x39aaa275	0.00032545967
229	0x3c2de5a1	0.01061383
230	0xba0c7815	-0.000535847
231	0xbc5c43b3	-0.013443875
232	0xbbc6a89a	-0.0060625793
233	0x3c59af9a	0.013286496
234	0xbb8eb6f4	-0.004355306
235	0xbb9d2b25	-0.004796403
236	0xbbd25614	-0.0064189527
237	0xbb0188a8	-0.0019765291
238	0xbbc1ad78	-0.0059105717
239	0x3bc73814	0.006079683
240	0xbbef44d8	-0.007301908
241	0x39b8be22	0.00035236875
242	0x3c714f6b	0.014728407
243	0xb6f61ac5	-7.3344877e-06
244	0xbb903e1a	-0.0044019343
245	0xa70c4deb	-1.9471142e-15
246	0xbc03df24	-0.008048806
247	0xbbf03638	-0.007330682
248	0x3a700cb7	0.0009157168
249	0xbb724327	-0.0036966295
250	0xbbcbcdc7	-0.006219599
251	0x3c079251	0.008274631
252	0xbb2aa060	-0.0026035532
253	0x3c626f94	0.013820548
254	0x3c178f77	0.009250513
255	0x3a136ec9	0.0005624113
