CNP-model-save-name/saved_models/model_20000.pth (torch, 957763 bytes, 40 tensors)

weight_ih_l0 f4 [256, 2]
000000 cf e8 d8 bc fa 86 dc bc bc 61 de bc e1 a6 d9 bc
       -0.0264782 -0.02691983 -0.027146213 -0.026568832
000010 f3 42 2d bd b5 51 2f bd 25 39 6e bc 21 70 a2 bc
       -0.042300176 -0.04280253 -0.0145399915 -0.019828858
000020 41 70 dd bc 08 ff ea bc f9 d3 f2 bc 7a 03 1f bd
       -0.027031066 -0.028686062 -0.029642092 -0.038821675
000030 c6 c8 77 bc d9 3c 76 bc 6b 7d e9 bc 52 fd 26 bd
       -0.015123552 -0.015029156 -0.028502187 -0.04076893
000040 65 90 0e bc dc 2a 8a bc 00 f3 93 bc 7b 8b d5 bc
       -0.0087014185 -0.01686614 -0.018060207 -0.026067486
000050 3a f3 48 bd f3 a4 6b bd c9 dd 9c bc 13 c8 b7 bc
       -0.049060084 -0.057530355 -0.019148724 -0.02243427
000060 cf 58 73 bc 96 ed 8f bc 35 b9 9a bc 7b ce ad bc
       -0.014852717 -0.017569344 -0.018887142 -0.021216622
000070 02 b6 57 bc d6 39 63 bc f9 82 a9 bc d2 57 00 bd
       -0.013165953 -0.01386877 -0.020692335 -0.031333752
000080 fc 2a ec bc 7c 89 bb bc d5 29 01 bd c8 66 d9 bc
       -0.02882909 -0.022892706 -0.031534035 -0.026538268
000090 60 80 15 bd 37 97 26 bd b7 5d 9c bc 47 f6 bb bc
       -0.03649938 -0.040671553 -0.019087655 -0.022944583
0000a0 3a f2 a5 bc 9b ee d7 bc 83 b4 f6 bc dc b1 1b bd
       -0.020257104 -0.026358893 -0.030115372 -0.038011417
0000b0 ad 10 8b bc 6e 1c ad bc 98 c5 0f bd 1b a4 1f bd
       -0.016975725 -0.02113172 -0.03510055 -0.038974863
0000c0 56 94 b6 bc db e8 e8 bc c1 49 d0 bc c6 43 ee bc
       -0.022287529 -0.028431347 -0.025425794 -0.029085051
0000d0 41 a8 6c bc 9a b3 8b bc 0c d9 3b bd ad d9 64 bd
       -0.014444412 -0.017053414 -0.04586129 -0.055871654
0000e0 57 a8 c9 bc 14 07 20 bd 23 b2 49 bd 11 cc 20 bd
       -0.024616404 -0.03906925 -0.04924215 -0.039257113
0000f0 9d 0b b5 bc 45 4e 99 bc 3d c8 33 bc 84 58 6f bc
       -0.022100264 -0.01871408 -0.0109730335 -0.014608506
000100 9f 3b 20 bd c9 06 41 bd a5 96 35 bd 2e f5 64 bd
       -0.03911936 -0.04712561 -0.04433312 -0.055897884
000110 39 93 8b bc 7a fb b7 bc 2f d6 2c bc 0a 7e 43 bc
       -0.017037975 -0.02245878 -0.010549112 -0.0119319055
000120 e7 be 18 bd ef 40 11 bd 65 15 e2 bc 3f b1 ca bc
       -0.037291434 -0.035462316 -0.027598092 -0.02474272
000130 4a ee 11 bd ab ca 2b bd 9d 59 ee bc f4 7e 17 bd
       -0.03562764 -0.041941326 -0.029095465 -0.036986306
000140 28 07 20 bd 90 18 ea bc 6b 15 f3 bc ab 40 03 bd
       -0.039069325 -0.028576165 -0.029673299 -0.032044094
000150 52 58 03 bd 16 e9 db bc 32 8b c8 bc 05 d4 f8 bc
       -0.03206665 -0.026844542 -0.024480436 -0.030374536
000160 f6 c4 51 bc e1 24 b8 bc 3c e5 b3 bc 53 b5 bb bc
       -0.012803307 -0.022478523 -0.021959893 -0.02291361
000170 08 c1 e2 bc fb af 01 bd cf db a7 bc ff 80 7d bc
       -0.027679935 -0.03166197 -0.020490555 -0.01547265
000180 e9 ac 64 bc 2a 4a a4 bb de ac a5 bc 8b 89 e1 bc
       -0.013957241 -0.005013724 -0.020224031 -0.027531406
000190 1e 04 f0 bc 72 13 ea bc 46 36 8f bc 11 e6 b6 bc
       -0.029298838 -0.028573725 -0.017481934 -0.022326501
0001a0 c9 0b 20 bd 2d a6 3a bd 3d c1 9f bc 5c 70 b3 bc
       -0.03907374 -0.045568634 -0.019501323 -0.021904163
0001b0 d2 27 c8 bc af fa c3 bc 2b 41 ea bc c2 85 28 bd
       -0.02443305 -0.023923246 -0.028595528 -0.041143186
0001c0 e8 c5 3e bd 69 49 51 bd 5e e8 1d bd dc c5 7f bd
       -0.046575457 -0.0510954 -0.03855168 -0.062444553
0001d0 dd 35 37 bd 2f 91 5d bd e6 42 e5 bc 19 e6 f7 bc
       -0.044729102 -0.054093536 -0.027986001 -0.030261086
0001e0 c7 74 93 bc b8 8d b2 bc 6e 16 dd bc 35 07 02 bd
       -0.01800002 -0.021796092 -0.026988234 -0.031745154
0001f0 9f 49 47 bd 9b e6 69 bd ff 1b d9 bc b2 41 0d bd
       -0.048654195 -0.05710469 -0.026502607 -0.03448648
000200 1f 8b ae bc 95 9d c5 bc f6 20 af bc 5e 29 dc bc
       -0.021306572 -0.024122993 -0.021378022 -0.026875194
000210 92 f6 18 bd e4 d7 1d bd 3c ef 3b bc ea 31 93 bc
       -0.037344523 -0.038535967 -0.011470612 -0.017968137
000220 da 35 c9 bc ce 68 df bc 2d 23 9e bc 69 9e e0 bc
       -0.024561811 -0.027271654 -0.019303882 -0.027419286
000230 2a 69 cc bb 42 c4 34 bc 4a 66 b9 bc 0d ca 08 bd
       -0.0062381225 -0.01103312 -0.022631783 -0.033395816
000240 fd 75 79 bb ad 74 1a bc 22 ab ae bc 64 6a d2 bc
       -0.0038064711 -0.009427232 -0.021321837 -0.025685497
000250 56 b1 0c bd e3 6b 38 bd 89 25 83 bc 30 c8 a2 bc
       -0.03434881 -0.045024764 -0.01600911 -0.019870847
000260 33 3d ab bb c9 79 f3 bb 09 83 91 bc 5b 07 ba bc
       -0.0052258014 -0.0074302894 -0.017762678 -0.022708585
000270 a7 ea 08 bc 45 5b 39 bc 76 87 bd bc 18 c3 d5 bc
       -0.008356727 -0.011313264 -0.023135882 -0.026094005
000280 3c c7 d7 bc 96 29 10 bd 96 5a c8 bc 35 b7 e9 bc
       -0.02634012 -0.03519591 -0.024457257 -0.028529743
000290 cc bc f3 bc 07 0e 18 bd cf 52 8d bc 17 22 aa bc
       -0.029753111 -0.037122753 -0.0172514 -0.020768208
0002a0 f5 bb 71 bc c7 43 a1 bc 4f c5 88 bc 3a 0f cd bc
       -0.014754285 -0.019685639 -0.016695647 -0.025031675
0002b0 92 1c 9b bc a2 6a b7 bc e1 6e e7 bc 45 15 0b bd
       -0.018934522 -0.022389714 -0.028251113 -0.03395583
0002c0 c0 49 ac bc f4 d2 ca bc 68 ec ad bc 1f e6 d9 bc
       -0.02103126 -0.024758793 -0.021230891 -0.026598988
0002d0 13 38 74 bc 56 fd 8e bc 88 09 01 bd 9b b0 29 bd
       -0.014905947 -0.017454784 -0.03150323 -0.04142819
0002e0 b8 2c d7 bc ba 4a 00 bd b8 85 fd bc ac ef 2f bd
       -0.02626644 -0.031321265 -0.030947551 -0.04295318
0002f0 06 63 75 bc 88 fb a2 bc 2e 9d ed bb b1 8e 3f bc
       -0.014977222 -0.01989533 -0.0072514033 -0.011691735
000300 60 a3 c8 bc c0 87 0b bd 2c 6f 26 bd be 0c 46 bd
       -0.024491966 -0.03406501 -0.040633366 -0.048351996
000310 f2 b9 01 bc 3f 41 5f bc 0a d8 b5 bb b8 dc 04 bc
       -0.007917868 -0.013626396 -0.0055494355 -0.008109264
000320 cd 57 ae bc 91 b5 ef bc b6 9a 47 bc a4 5d 99 bc
       -0.021282101 -0.029261382 -0.012182882 -0.01872141
000330 db 73 ab bc 69 cf e9 bc c2 4e c7 bc 29 54 f0 bc
       -0.020929268 -0.028541284 -0.024329547 -0.029337006
000340 5d a7 e8 bc 44 4c 0b bd ec 9f bb bc 56 77 d8 bc
       -0.028400118 -0.03400828 -0.022903405 -0.026424091
000350 0d fa cb bc 26 a6 e1 bc ca dc cf bc fe 42 e6 bc
       -0.024899507 -0.027545046 -0.025373835 -0.028108116
000360 5e a1 6b bc 17 c4 af bc de c2 87 bc 09 23 ae bc
       -0.014381735 -0.021455808 -0.016572412 -0.02125694
000370 6f 21 c8 bc 74 81 d5 bc 95 61 3a bc 58 93 9e bc
       -0.024430005 -0.026062705 -0.011375804 -0.019357368
000380 f7 12 0d bc c8 c2 0f bc 83 30 a4 bc c1 87 cc bc
       -0.008610479 -0.008774467 -0.020042663 -0.024967076
000390 3d a0 b5 bc 88 11 d0 bc 50 92 76 bc 36 1f a7 bc
       -0.022171134 -0.025398985 -0.015049532 -0.020400625
0003a0 c7 7f 0f bd 13 88 28 bd 65 38 4d bc a6 0c 89 bc
       -0.035033967 -0.041145395 -0.012525653 -0.016729664
0003b0 b6 7c b4 bc c2 e5 c9 bc 00 14 fa bc be c7 1c bd
       -0.022032123 -0.02464569 -0.030527115 -0.038276426
0003c0 9a 02 24 bd 33 57 26 bd eb 64 16 bd e5 f3 4a bd
       -0.040041544 -0.040610503 -0.036717337 -0.049549002
0003d0 7c 97 12 bd de e7 39 bd b2 bd bd bc 53 f0 e4 bc
       -0.035788998 -0.04538714 -0.023161743 -0.027946627
0003e0 ac c3 99 bc 3a b9 af bc 5b 78 cb bc 79 76 d9 bc
       -0.018770061 -0.021450628 -0.024837663 -0.02654575
0003f0 0b 6c 35 bd fa a4 58 bd 26 32 95 bc d9 44 d2 bc
       -0.04429249 -0.05289171 -0.01821239 -0.025667595

weight_hh_l0 f4 [256, 64]
000000 4c ff 08 3b 6a 5e 80 b8 5e 88 7c 38 c8 cc cd 35
       0.0020904122 -6.1211016e-05 6.0208484e-05 1.5333289e-06
000010 ef 29 3c b8 75 09 98 b7 c2 96 ee 37 d8 98 ad 38
       -4.4861747e-05 -1.8124216e-05 2.8442013e-05 8.277752e-05
000020 18 83 08 b8 f9 75 e6 b7 84 b0 39 37 f7 6e 85 b9
       -3.2547017e-05 -2.7473072e-05 1.10679575e-05 -0.00025450412
000030 94 78 82 b8 0c ec 5f 38 8c b8 58 b4 65 11 b2 b8
       -6.2213425e-05 5.338718e-05 -2.0183705e-07 -8.4909414e-05
000040 9b 9a 88 3b 28 b1 12 3a b4 42 63 b8 e3 e8 88 b5
       0.004168821 0.00055958563 -5.418314e-05 -1.0200569e-06
000050 43 08 71 b7 29 01 15 b7 07 27 b2 bb 9c 02 8f 3a
       -1.4366643e-05 -8.881362e-06 -0.0054367813 0.0010910812
000060 de 92 28 b8 f3 29 72 b7 9b 08 d1 3b ff 9b 12 38
       -4.0191102e-05 -1.4434091e-05 0.0063791997 3.4954395e-05
000070 52 0b 61 b6 a1 af b2 b7 e8 29 1f 38 d6 ba 4d b6
       -3.3534202e-06 -2.1301037e-05 3.7947582e-05 -3.0656133e-06
000080 8e d8 8c 38 a5 69 95 38 7b 65 7b b8 13 44 8a b8
       6.716057e-05 7.1245515e-05 -5.9937574e-05 -6.5930326e-05
000090 1c 60 9a 37 9f 3f 3c b7 91 95 01 b8 3b b2 2e b8
       1.8402985e-05 -1.1220486e-05 -3.089529e-05 -4.1650823e-05
0000a0 fa 5c 9a b8 4f 52 84 ba 3d e5 c7 b9 31 23 3f b9
       -7.3606105e-05 -0.0010095331 -0.00038127034 -0.00018228289
0000b0 61 05 c4 37 4e 21 fc 36 85 e5 0d 38 97 73 46 b7
       2.3367526e-05 7.5140624e-06 3.3830776e-05 -1.18286325e-05
0000c0 64 bc e3 b8 e4 46 02 ba b3 3f 22 3a 52 f7 70 b7
       -0.00010859294 -0.000496967 0.00061893015 -1.43626985e-05
0000d0 62 57 9e 36 f4 4f c7 b6 43 e8 a7 ba 89 f2 b9 b7
       4.7189396e-06 -5.93997e-06 -0.0012810308 -2.2166658e-05
0000e0 69 22 42 38 5b b1 d3 37 04 58 57 b8 86 90 a6 37
       4.628525e-05 2.5235748e-05 -5.1341965e-05 1.9856041e-05
0000f0 45 d0 57 bb 99 ac c0 b6 e9 58 ac 38 5f da 2c b8
       -0.0032930535 -5.742139e-06 8.21816e-05 -4.121137e-05
000100 d5 ce b0 38 c8 00 5b b8 4a da 09 b8 06 07 37 37
       8.4308595e-05 -5.2214396e-05 -3.2866643e-05 1.0909285e-05
000110 49 bb 83 b8 66 95 a1 b8 6b 88 4f 39 3c f8 86 39
       -6.281451e-05 -7.704906e-05 0.00019791878 0.0002574342
000120 b7 87 71 b8 2d c5 cb b8 09 32 b8 b9 ce 11 df 38
       -5.7585272e-05 -9.716521e-05 -0.00035132494 0.00010636785
000130 b8 f4 c6 b8 e6 14 6b 38 31 42 b6 b8 02 32 9c 39
       -9.486958e-05 5.604783e-05 -8.6907654e-05 0.00029791897
000140 c0 8e 25 39 e0 33 93 38 6d 7a b0 39 77 d1 10 38
       0.00015788805 7.019169e-05 0.0003366055 3.4527355e-05
000150 05 ee 3b b8 90 ca 4a b9 26 5e 5c b9 71 6e 9d b8
       -4.4805947e-05 -0.00019339682 -0.00021015908 -7.506915e-05
000160 53 48 8c b8 95 c0 50 b8 6c c6 37 3a b0 80 55 38
       -6.689192e-05 -4.977042e-05 0.0007010463 5.0903007e-05
000170 09 53 df b7 13 1a 57 b7 bb 88 fb 38 e7 7b 78 37
       -2.6622338e-05 -1.28210695e-05 0.00011994081 1.48108e-05
000180 00 fa 1f b9 f5 e0 93 38 c2 ac 06 b9 cd 92 60 b8
       -0.00015256554 7.051408e-05 -0.00012843593 -5.354248e-05
000190 00 c8 99 38 87 6c e0 38 c7 9d ec b8 83 8e 4a b8
       7.3328614e-05 0.00010701367 -0.00011282745 -4.8293277e-05
0001a0 60 56 01 39 ce 74 87 b8 a2 f1 06 b8 d8 3e b9 36
       0.00012334576 -6.459058e-05 -3.2173128e-05 5.5207456e-06
0001b0 e1 cd d5 38 62 1d d7 36 bb 66 c0 38 0e 1c 6a b8
       0.000101949794 6.41092e-06 9.1744085e-05 -5.5816075e-05
0001c0 a0 06 a0 39 0e 5a 30 38 42 e4 dd 38 b0 92 27 b8
       0.00030522514 4.204554e-05 0.000105806175 -3.9952516e-05
0001d0 02 b3 40 b7 75 37 2b b9 be 26 56 b8 bf c3 bb 36
       -1.148577e-05 -0.0001632849 -5.1057657e-05 5.595822e-06
0001e0 66 40 8f b8 42 7b ca 38 6b fa e8 38 d1 49 b5 38
       -6.8307665e-05 9.655069e-05 0.00011109266 8.644502e-05
0001f0 c8 61 ee b8 7a a1 17 38 b9 03 7b b8 99 af 5c b9
       -0.000113669375 3.6151592e-05 -5.984653e-05 -0.0002104625
000200 4c 41 47 b7 e7 c3 cf 35 2b db 4d b8 6f 83 01 37
       -1.1876527e-05 1.5479717e-06 -4.9079925e-05 7.719601e-06
000210 23 8c 45 38 dc d0 af b7 e4 8c 5e 36 b1 1f 22 38
       4.7098973e-05 -2.0958883e-05 3.3162587e-06 3.8653325e-05
000220 b6 53 ed 37 10 f2 7a 38 82 2a 6a b7 24 0a 2a b8
       2.8291583e-05 5.9830083e-05 -1.3957384e-05 -4.0540603e-05
000230 a4 e9 ee b6 c3 76 df b7 5f b5 5e 36 c1 95 73 38
       -7.120152e-06 -2.6638974e-05 3.318615e-06 5.8075184e-05
000240 77 49 44 38 c9 fa 61 b8 d3 55 ad 38 fe 2d 71 37
       4.679846e-05 -5.3877742e-05 8.265269e-05 1.4375428e-05
000250 d6 09 15 b8 84 d4 d4 37 17 a0 06 ba a3 ce c8 38
       -3.553353e-05 2.537133e-05 -0.00051355496 9.575232e-05
000260 d0 b9 2e 38 aa 52 91 b7 f0 af 9a 3a 7f df eb b6
       4.1657884e-05 -1.732384e-05 0.0011801701 -7.029564e-06
000270 6f b3 92 37 4e 5d 75 37 18 67 78 b8 73 87 f6 36
       1.7488112e-05 1.4624862e-05 -5.922382e-05 7.3471397e-06
000280 87 66 90 b7 6e f8 85 b8 f1 5d eb 37 b5 c0 cf 37
       -1.721388e-05 -6.388208e-05 2.8057928e-05 2.476606e-05
000290 f3 59 84 37 cc c6 a0 b6 7e eb 8a b7 c0 f8 aa 38
       1.5777512e-05 -4.7915146e-06 -1.6560542e-05 8.152565e-05
0002a0 a2 77 e6 b6 58 85 c7 b8 72 3a dd 37 50 1b 4a b7
       -6.8684612e-06 -9.513897e-05 2.6372469e-05 -1.2046497e-05
0002b0 99 86 1e b8 bb e6 06 b8 56 f7 b8 b8 2b 8b cb b7
       -3.779549e-05 -3.2162974e-05 -8.8198736e-05 -2.4264291e-05
0002c0 b0 70 77 38 a3 93 e4 b8 8f 4b 50 b8 8a 02 a3 37
       5.8994337e-05 -0.00010899387 -4.9661434e-05 1.9432297e-05
0002d0 bd 62 f4 b7 40 31 0c b8 99 17 ce 37 54 77 d0 37
       -2.9133045e-05 -3.342447e-05 2.4568102e-05 2.4851099e-05
0002e0 6c 46 36 39 3b 3f c1 b7 aa 0b 85 38 37 24 a3 b7
       0.00017383107 -2.3036837e-05 6.344107e-05 -1.9447978e-05
0002f0 a4 a0 18 b9 7b 74 98 37 c7 58 b3 b7 7c e1 a8 37
       -0.00014555693 1.8174052e-05 -2.1379803e-05 2.013216e-05
000300 39 1b cd 38 4d 15 b1 b7 68 0e 9f b8 e5 c4 26 b7
       9.780232e-05 -2.1109963e-05 -7.584394e-05 -9.940214e-06
000310 9f 40 11 38 7a b3 22 b9 c2 77 26 39 cc 86 b0 39
       3.4630877e-05 -0.00015516384 0.00015875607 0.00033669767
000320 08 72 01 b7 f3 4f 82 b7 95 5a 5f b9 48 e9 bb 38
       -7.715549e-06 -1.5534437e-05 -0.00021300682 8.960307e-05
000330 f6 08 4d b8 a5 d9 76 36 77 5d 25 b8 7f 16 b3 39
       -4.8884154e-05 3.6783542e-06 -3.942611e-05 0.000341583
000340 b3 4b 8b 38 6e 7d 33 38 2f 09 84 39 39 89 2a 38
       6.6421366e-05 4.279374e-05 0.00025183844 4.0658957e-05
000350 67 88 86 b8 9b 92 18 b9 19 91 64 b8 8a c0 b8 b7
       -6.415025e-05 -0.00014550464 -5.449457e-05 -2.2024167e-05
000360 92 0d a4 b7 d5 b5 5f b8 13 61 f9 38 91 b6 75 38
       -1.9556643e-05 -5.3336687e-05 0.00011891327 5.858258e-05
000370 a1 b0 55 b8 87 c7 1b 38 75 e6 ad 38 d9 b7 e0 37
       -5.0947656e-05 3.7140704e-05 8.292209e-05 2.6788492e-05
000380 fc 39 f2 b8 80 b4 0a 38 a7 9c 87 b8 81 a1 92 b7
       -0.0001155026 3.3069868e-05 -6.4664804e-05 -1.7479762e-05
000390 03 23 2a 38 6d ef 90 38 8f d3 06 b9 01 41 1a b7
       4.0563766e-05 6.9110516e-05 -0.00012858048 -9.19425e-06
0003a0 43 ea 76 38 4c a4 94 b8 04 1b 03 b8 0f 75 ae b4
       5.8869144e-05 -7.0877926e-05 -3.1257994e-05 -3.2495197e-07
0003b0 2e 8f a2 38 06 9f bb b7 4e 83 f9 35 2a bb 95 37
       7.751431e-05 -2.2366188e-05 1.859016e-06 1.784934e-05
0003c0 36 ed 81 39 f0 cd 8e b6 47 40 f0 38 0e 6c ff b7
       0.00024781533 -4.255904e-06 0.000114560644 -3.0448686e-05
0003d0 50 d4 38 b7 d2 42 c3 b8 17 37 5e b8 46 90 85 37
       -1.10166875e-05 -9.310771e-05 -5.298023e-05 1.5922018e-05
0003e0 fc 5c d8 38 4a 2a 0a 38 1d bb 0d 39 f6 bd 85 38
       0.00010317002 3.294115e-05 0.00013516513 6.377317e-05
0003f0 c2 4e 72 b8 54 21 90 38 61 95 81 b8 1c b1 4d b9
       -5.7770645e-05 6.872663e-05 -6.179023e-05 -0.00019616302

bias_ih_l0 f4 [256]
000000 5d 89 ff bc c6 69 12 bd 1b 75 74 bd 21 2c 06 bd
       -0.03119343 -0.035745405 -0.059681993 -0.03275693
000010 45 3c 3d bd e2 41 93 bd 27 93 17 bd a2 74 5f bd
       -0.046200056 -0.071903005 -0.03700557 -0.05455459
000020 22 1c f6 bc 92 50 20 bd 41 47 b1 bd 08 41 05 bd
       -0.030042712 -0.039139338 -0.08656169 -0.03253272
000030 ab c8 15 bd 3f 50 fc bc c6 de 0b bd 0a 43 13 bd
       -0.036568325 -0.030799983 -0.034148 -0.035952605
000040 48 10 26 bd a6 e4 fc bc 41 1c 8d bd 16 bf 17 bd
       -0.04054287 -0.030870747 -0.06890155 -0.037047468
000050 ce 6f 4b bd 0c a4 94 bd 76 06 b3 bc 71 0d 36 bd
       -0.049667172 -0.07257852 -0.021853667 -0.044446412
000060 50 d8 06 bd bd ec 29 bd e1 4b 8d bc 44 34 b3 bd
       -0.032921135 -0.041485537 -0.017248096 -0.08750203
000070 19 7f 72 bd ab 44 82 bd 78 61 06 bd b5 53 07 bd
       -0.05920324 -0.063607536 -0.032807797 -0.033038814
000080 4f 37 aa bd b4 9b 8a bd 86 d8 e8 bc 1e 7b ee bc
       -0.083113305 -0.06767979 -0.028423559 -0.029111441
000090 f5 96 77 bd 8b 19 53 bd 7f dc 9a bd 5f b4 66 bd
       -0.0604467 -0.05153803 -0.075615875 -0.05632436
0000a0 3a bf 79 bd 9f 66 f7 bc 17 0c fc bc 51 50 06 bd
       -0.060973383 -0.0302003 -0.030767484 -0.03279144
0000b0 7d a6 1e bd 5b 80 2d bd 8a 89 26 bd db 40 f4 bc
       -0.038732994 -0.042358737 -0.04065851 -0.029816082
0000c0 4f c8 df bc 28 5e 00 bd 44 f6 fc bc 21 d2 08 bd
       -0.027317194 -0.031339794 -0.030879147 -0.03340352
0000d0 da 74 69 bd ae d9 40 bd b2 39 da bc 04 94 50 bd
       -0.056996204 -0.047082596 -0.02663884 -0.05092241
0000e0 23 44 5b bd 9b 0d bc bd 48 77 a2 bd 84 c9 1c bd
       -0.053531777 -0.091822825 -0.07932907 -0.038278118
0000f0 84 5f ad bc 26 f2 42 bd a5 da a5 bd b4 72 70 bd
       -0.02116371 -0.047594212 -0.08098344 -0.05870314
000100 80 61 ef bc 09 4e 0d bd d8 f4 5f bd e7 6d f9 bc
       -0.029221296 -0.03449825 -0.05467686 -0.030447913
000110 f0 c8 24 bd 40 e1 76 bd 55 52 04 bd f7 a8 4b bd
       -0.04023069 -0.06027341 -0.03230508 -0.049721684
000120 97 52 d8 bc 06 b0 20 bd ed 81 9b bd a5 a5 f4 bc
       -0.02640657 -0.03923037 -0.07593141 -0.029864142
000130 26 2e f0 bc 68 60 f9 bc 7d 27 f8 bc 92 73 18 bd
       -0.02931888 -0.030441478 -0.030292267 -0.03721959
000140 47 d4 2f bd ed c5 00 bd 48 cf 81 bd a8 a9 10 bd
       -0.042927053 -0.031438757 -0.06338364 -0.035318047
000150 09 ce 34 bd a5 ed 72 bd fc 5b c1 bc fb d2 31 bd
       -0.044141803 -0.059308667 -0.023603432 -0.043414097
000160 2e e5 fc bc c9 74 22 bd e6 29 91 bc 2d 8c 98 bd
       -0.030871 -0.039662156 -0.017720174 -0.074486114
000170 bc f0 58 bd 9a c4 5f bd 6f 6e 07 bd a6 b7 f3 bc
       -0.052963957 -0.054630853 -0.033064302 -0.029750656
000180 17 23 8f bd e3 b9 84 bd 4e 3f e4 bc 14 85 de bc
       -0.06989115 -0.064807676 -0.027862217 -0.027163066
000190 8d 87 5a bd e7 99 30 bd 06 96 7a bd 56 6f 54 bd
       -0.053351928 -0.043115523 -0.06117823 -0.05186399
0001a0 00 5c 63 bd 26 6a e9 bc 60 b7 f2 bc 47 dc 01 bd
       -0.05550766 -0.028492998 -0.029628456 -0.031704213
0001b0 23 ed 19 bd f4 74 24 bd 32 b9 1c bd df b0 03 bd
       -0.037579667 -0.040150598 -0.038262554 -0.0321511
0001c0 58 ba ce bc 69 db f9 bc d0 96 fe bc da 36 02 bd
       -0.02523534 -0.03050013 -0.031077772 -0.03179059
0001d0 21 da 64 bd ae d9 22 bd 1b 6c dc bc ba c1 61 bd
       -0.055872086 -0.039758377 -0.026907017 -0.055116393
0001e0 d4 7f 4c bd 56 4f a3 bd 8a 35 92 bd 7d e4 19 bd
       -0.049926594 -0.079741165 -0.07139118 -0.03757142
0001f0 25 d7 b4 bc ae ad 28 bd 4d a1 9e bd 95 45 4e bd
       -0.022075245 -0.04118126 -0.077456094 -0.050359327
000200 64 19 00 bd f2 52 6b 3a 2b fa 67 3c 17 fb 09 3b
       -0.031274214 0.00089768984 0.014158766 0.0021054202
000210 96 9e 7d bb c1 25 a1 3c 7b f4 a3 bc 3f 7d 16 bd
       -0.003869926 0.019671323 -0.020014038 -0.036740538
000220 60 63 fa 3b 61 0e ef 3c fc 44 a4 3c a4 2b 03 bc
       0.007641241 0.029181661 0.020052426 -0.00800601
000230 3d ee d5 3c fa b0 46 ba 30 18 e6 3b 63 3d 38 bb
       0.026114577 -0.0007579472 0.0070219263 -0.0028112761
000240 f0 e5 2f bc 60 66 02 bc 62 69 8e bc af ed 66 ba
       -0.010735974 -0.007958978 -0.017384235 -0.00088092213
000250 9d e9 c5 bb 17 7e 03 3d 22 bb 16 3c b1 2e dd ba
       -0.0060398118 0.03210267 0.009199889 -0.0016874877
000260 d0 77 54 3c 0f f2 bd 3a 5d df 2f bd f8 01 c0 bb
       0.012968019 0.0014491695 -0.042937625 -0.0058596097
000270 df c4 39 3c 25 ce e6 bb ab eb 04 bd 62 da 1f bb
       0.011338442 -0.0070436173 -0.032451313 -0.002439164
000280 15 86 40 3c 53 13 0c bd 4a ab 04 3d 4f 7e c3 3c
       0.011750718 -0.034198117 0.032389916 0.02386394
000290 17 58 b8 bb ee 87 64 bc 40 02 1a 3c da 71 d3 3c
       -0.0056257355 -0.013948424 0.0093999505 0.025811125
0002a0 62 39 2b bc c3 61 ad 3c 93 88 ac 39 c1 45 93 3b
       -0.010450693 0.02116478 0.00032908152 0.0044943993
0002b0 99 dc a3 bc 61 27 c8 bb 24 e5 9d bc 69 b9 87 bb
       -0.02000265 -0.00610821 -0.019274302 -0.0041419757
0002c0 f9 3b 4e 3b ca aa 43 3c 9f 4f 04 bd 3a 44 1d 3c
       0.0031468852 0.011942575 -0.032302495 0.009598786
0002d0 6f de 1f bc 09 67 fe 3b 42 f5 e3 3b 40 69 e0 bb
       -0.009757622 0.0077637476 0.0069567272 -0.0068484843
0002e0 58 1c 82 bc 44 57 67 bc 15 57 95 3b 60 b9 95 bc
       -0.015882656 -0.014119927 0.0045575 -0.01827687
0002f0 5c 23 f7 3c b3 a1 9a bb 30 81 b7 bb 64 89 e2 3c
       0.030168228 -0.004718983 -0.005600117 0.027653404
000300 dc 7a ff bc 9e 69 12 bd e5 ce 74 bd 33 18 06 bd
       -0.031186514 -0.035745256 -0.059767623 -0.032737922
000310 07 3d 3d bd b3 3e 93 bd 29 9b 17 bd 6f 87 5f bd
       -0.04620078 -0.07189693 -0.037013207 -0.05457252
000320 05 04 f6 bc af 1c 20 bd 0e 6a b1 bd 4b 3e 05 bd
       -0.030031214 -0.039089855 -0.086628065 -0.03253011
000330 3e 19 16 bd 73 44 fb bc 5c 52 0b bd b4 5f 13 bd
       -0.036645167 -0.030672288 -0.03401409 -0.03597994
000340 09 92 29 bd ec a6 fc bc 95 cc 8c bd cc c7 18 bd
       -0.041399036 -0.030841313 -0.068749584 -0.037299916
000350 76 af 4b bd 4d de 94 bd 86 83 b4 bc 3b e0 36 bd
       -0.04972788 -0.07268963 -0.022035372 -0.044647437
000360 37 f3 06 bd ef a4 29 bd e7 3a 8e bc 53 3f b3 bd
       -0.03294679 -0.04141706 -0.017362071 -0.087523125
000370 d1 9b 72 bd f7 f1 81 bd 58 43 06 bd 3c 4e 07 bd
       -0.05923063 -0.06344979 -0.032779068 -0.033033594
000380 17 93 aa bd 1b 7d 8a bd 8b 05 e9 bc 32 cb ee bc
       -0.083288364 -0.06762143 -0.028445026 -0.029149625
000390 b3 95 77 bd 15 41 53 bd 86 d9 9a bd 9e 05 67 bd
       -0.0604455 -0.05157574 -0.075610206 -0.05640184
0003a0 2e 91 7a bd 1f 50 f7 bc ea 2c fc bc 2e 85 06 bd
       -0.06117361 -0.030189572 -0.030783135 -0.032841854
0003b0 89 92 1e bd ea 09 2e bd 5b 69 26 bd cf f1 f4 bc
       -0.038713966 -0.042489924 -0.04062782 -0.02990046
0003c0 a9 88 e1 bc 9a 99 00 bd 7f d5 fb bc 6b 47 09 bd
       -0.027530985 -0.031396486 -0.030741451 -0.033515375
0003d0 28 8e 69 bd 61 0c 42 bd d5 b2 da bc ee cb 50 bd
       -0.057020336 -0.047375087 -0.026696602 -0.050975733
0003e0 1a cc 5a bd 49 81 bb bd 2f 71 a2 bd 99 8b 1c bd
       -0.053417303 -0.091555186 -0.07931744 -0.03821907
0003f0 5e f5 ad bc 33 90 42 bd 81 eb a5 bd 35 1a 70 bd
       -0.021235164 -0.0475008 -0.081015594 -0.058618743

bias_hh_l0 f4 [256]
000000 5d 89 ff bc c6 69 12 bd 1b 75 74 bd 21 2c 06 bd
       -0.03119343 -0.035745405 -0.059681993 -0.03275693
000010 45 3c 3d bd e2 41 93 bd 27 93 17 bd a2 74 5f bd
       -0.046200056 -0.071903005 -0.03700557 -0.05455459
000020 22 1c f6 bc 92 50 20 bd 41 47 b1 bd 08 41 05 bd
       -0.030042712 -0.039139338 -0.08656169 -0.03253272
000030 ab c8 15 bd 3f 50 fc bc c6 de 0b bd 0a 43 13 bd
       -0.036568325 -0.030799983 -0.034148 -0.035952605
000040 48 10 26 bd a6 e4 fc bc 41 1c 8d bd 16 bf 17 bd
       -0.04054287 -0.030870747 -0.06890155 -0.037047468
000050 ce 6f 4b bd 0c a4 94 bd 76 06 b3 bc 71 0d 36 bd
       -0.049667172 -0.07257852 -0.021853667 -0.044446412
000060 50 d8 06 bd bd ec 29 bd e1 4b 8d bc 44 34 b3 bd
       -0.032921135 -0.041485537 -0.017248096 -0.08750203
000070 19 7f 72 bd ab 44 82 bd 78 61 06 bd b5 53 07 bd
       -0.05920324 -0.063607536 -0.032807797 -0.033038814
000080 4f 37 aa bd b4 9b 8a bd 86 d8 e8 bc 1e 7b ee bc
       -0.083113305 -0.06767979 -0.028423559 -0.029111441
000090 f5 96 77 bd 8b 19 53 bd 7f dc 9a bd 5f b4 66 bd
       -0.0604467 -0.05153803 -0.075615875 -0.05632436
0000a0 3a bf 79 bd 9f 66 f7 bc 17 0c fc bc 51 50 06 bd
       -0.060973383 -0.0302003 -0.030767484 -0.03279144
0000b0 7d a6 1e bd 5b 80 2d bd 8a 89 26 bd db 40 f4 bc
       -0.038732994 -0.042358737 -0.04065851 -0.029816082
0000c0 4f c8 df bc 28 5e 00 bd 44 f6 fc bc 21 d2 08 bd
       -0.027317194 -0.031339794 -0.030879147 -0.03340352
0000d0 da 74 69 bd ae d9 40 bd b2 39 da bc 04 94 50 bd
       -0.056996204 -0.047082596 -0.02663884 -0.05092241
0000e0 23 44 5b bd 9b 0d bc bd 48 77 a2 bd 84 c9 1c bd
       -0.053531777 -0.091822825 -0.07932907 -0.038278118
0000f0 84 5f ad bc 26 f2 42 bd a5 da a5 bd b4 72 70 bd
       -0.02116371 -0.047594212 -0.08098344 -0.05870314
000100 80 61 ef bc 09 4e 0d bd d8 f4 5f bd e7 6d f9 bc
       -0.029221296 -0.03449825 -0.05467686 -0.030447913
000110 f0 c8 24 bd 40 e1 76 bd 55 52 04 bd f7 a8 4b bd
       -0.04023069 -0.06027341 -0.03230508 -0.049721684
000120 97 52 d8 bc 06 b0 20 bd ed 81 9b bd a5 a5 f4 bc
       -0.02640657 -0.03923037 -0.07593141 -0.029864142
000130 26 2e f0 bc 68 60 f9 bc 7d 27 f8 bc 92 73 18 bd
       -0.02931888 -0.030441478 -0.030292267 -0.03721959
000140 47 d4 2f bd ed c5 00 bd 48 cf 81 bd a8 a9 10 bd
       -0.042927053 -0.031438757 -0.06338364 -0.035318047
000150 09 ce 34 bd a5 ed 72 bd fc 5b c1 bc fb d2 31 bd
       -0.044141803 -0.059308667 -0.023603432 -0.043414097
000160 2e e5 fc bc c9 74 22 bd e6 29 91 bc 2d 8c 98 bd
       -0.030871 -0.039662156 -0.017720174 -0.074486114
000170 bc f0 58 bd 9a c4 5f bd 6f 6e 07 bd a6 b7 f3 bc
       -0.052963957 -0.054630853 -0.033064302 -0.029750656
000180 17 23 8f bd e3 b9 84 bd 4e 3f e4 bc 14 85 de bc
       -0.06989115 -0.064807676 -0.027862217 -0.027163066
000190 8d 87 5a bd e7 99 30 bd 06 96 7a bd 56 6f 54 bd
       -0.053351928 -0.043115523 -0.06117823 -0.05186399
0001a0 00 5c 63 bd 26 6a e9 bc 60 b7 f2 bc 47 dc 01 bd
       -0.05550766 -0.028492998 -0.029628456 -0.031704213
0001b0 23 ed 19 bd f4 74 24 bd 32 b9 1c bd df b0 03 bd
       -0.037579667 -0.040150598 -0.038262554 -0.0321511
0001c0 58 ba ce bc 69 db f9 bc d0 96 fe bc da 36 02 bd
       -0.02523534 -0.03050013 -0.031077772 -0.03179059
0001d0 21 da 64 bd ae d9 22 bd 1b 6c dc bc ba c1 61 bd
       -0.055872086 -0.039758377 -0.026907017 -0.055116393
0001e0 d4 7f 4c bd 56 4f a3 bd 8a 35 92 bd 7d e4 19 bd
       -0.049926594 -0.079741165 -0.07139118 -0.03757142
0001f0 25 d7 b4 bc ae ad 28 bd 4d a1 9e bd 95 45 4e bd
       -0.022075245 -0.04118126 -0.077456094 -0.050359327
000200 64 19 00 bd f2 52 6b 3a 2b fa 67 3c 17 fb 09 3b
       -0.031274214 0.00089768984 0.014158766 0.0021054202
000210 96 9e 7d bb c1 25 a1 3c 7b f4 a3 bc 3f 7d 16 bd
       -0.003869926 0.019671323 -0.020014038 -0.036740538
000220 60 63 fa 3b 61 0e ef 3c fc 44 a4 3c a4 2b 03 bc
       0.007641241 0.029181661 0.020052426 -0.00800601
000230 3d ee d5 3c fa b0 46 ba 30 18 e6 3b 63 3d 38 bb
       0.026114577 -0.0007579472 0.0070219263 -0.0028112761
000240 f0 e5 2f bc 60 66 02 bc 62 69 8e bc af ed 66 ba
       -0.010735974 -0.007958978 -0.017384235 -0.00088092213
000250 9d e9 c5 bb 17 7e 03 3d 22 bb 16 3c b1 2e dd ba
       -0.0060398118 0.03210267 0.009199889 -0.0016874877
000260 d0 77 54 3c 0f f2 bd 3a 5d df 2f bd f8 01 c0 bb
       0.012968019 0.0014491695 -0.042937625 -0.0058596097
000270 df c4 39 3c 25 ce e6 bb ab eb 04 bd 62 da 1f bb
       0.011338442 -0.0070436173 -0.032451313 -0.002439164
000280 15 86 40 3c 53 13 0c bd 4a ab 04 3d 4f 7e c3 3c
       0.011750718 -0.034198117 0.032389916 0.02386394
000290 17 58 b8 bb ee 87 64 bc 40 02 1a 3c da 71 d3 3c
       -0.0056257355 -0.013948424 0.0093999505 0.025811125
0002a0 62 39 2b bc c3 61 ad 3c 93 88 ac 39 c1 45 93 3b
       -0.010450693 0.02116478 0.00032908152 0.0044943993
0002b0 99 dc a3 bc 61 27 c8 bb 24 e5 9d bc 69 b9 87 bb
       -0.02000265 -0.00610821 -0.019274302 -0.0041419757
0002c0 f9 3b 4e 3b ca aa 43 3c 9f 4f 04 bd 3a 44 1d 3c
       0.0031468852 0.011942575 -0.032302495 0.009598786
0002d0 6f de 1f bc 09 67 fe 3b 42 f5 e3 3b 40 69 e0 bb
       -0.009757622 0.0077637476 0.0069567272 -0.0068484843
0002e0 58 1c 82 bc 44 57 67 bc 15 57 95 3b 60 b9 95 bc
       -0.015882656 -0.014119927 0.0045575 -0.01827687
0002f0 5c 23 f7 3c b3 a1 9a bb 30 81 b7 bb 64 89 e2 3c
       0.030168228 -0.004718983 -0.005600117 0.027653404
000300 dc 7a ff bc 9e 69 12 bd e5 ce 74 bd 33 18 06 bd
       -0.031186514 -0.035745256 -0.059767623 -0.032737922
000310 07 3d 3d bd b3 3e 93 bd 29 9b 17 bd 6f 87 5f bd
       -0.04620078 -0.07189693 -0.037013207 -0.05457252
000320 05 04 f6 bc af 1c 20 bd 0e 6a b1 bd 4b 3e 05 bd
       -0.030031214 -0.039089855 -0.086628065 -0.03253011
000330 3e 19 16 bd 73 44 fb bc 5c 52 0b bd b4 5f 13 bd
       -0.036645167 -0.030672288 -0.03401409 -0.03597994
000340 09 92 29 bd ec a6 fc bc 95 cc 8c bd cc c7 18 bd
       -0.041399036 -0.030841313 -0.068749584 -0.037299916
000350 76 af 4b bd 4d de 94 bd 86 83 b4 bc 3b e0 36 bd
       -0.04972788 -0.07268963 -0.022035372 -0.044647437
000360 37 f3 06 bd ef a4 29 bd e7 3a 8e bc 53 3f b3 bd
       -0.03294679 -0.04141706 -0.017362071 -0.087523125
000370 d1 9b 72 bd f7 f1 81 bd 58 43 06 bd 3c 4e 07 bd
       -0.05923063 -0.06344979 -0.032779068 -0.033033594
000380 17 93 aa bd 1b 7d 8a bd 8b 05 e9 bc 32 cb ee bc
       -0.083288364 -0.06762143 -0.028445026 -0.029149625
000390 b3 95 77 bd 15 41 53 bd 86 d9 9a bd 9e 05 67 bd
       -0.0604455 -0.05157574 -0.075610206 -0.05640184
0003a0 2e 91 7a bd 1f 50 f7 bc ea 2c fc bc 2e 85 06 bd
       -0.06117361 -0.030189572 -0.030783135 -0.032841854
0003b0 89 92 1e bd ea 09 2e bd 5b 69 26 bd cf f1 f4 bc
       -0.038713966 -0.042489924 -0.04062782 -0.02990046
0003c0 a9 88 e1 bc 9a 99 00 bd 7f d5 fb bc 6b 47 09 bd
       -0.027530985 -0.031396486 -0.030741451 -0.033515375
0003d0 28 8e 69 bd 61 0c 42 bd d5 b2 da bc ee cb 50 bd
       -0.057020336 -0.047375087 -0.026696602 -0.050975733
0003e0 1a cc 5a bd 49 81 bb bd 2f 71 a2 bd 99 8b 1c bd
       -0.053417303 -0.091555186 -0.07931744 -0.03821907
0003f0 5e f5 ad bc 33 90 42 bd 81 eb a5 bd 35 1a 70 bd
       -0.021235164 -0.0475008 -0.081015594 -0.058618743

weight_ih_l0_reverse f4 [256, 2]
000000 ab 9d 2f bd 12 bd 51 bd 26 f2 40 bd 0c 26 81 bd
       -0.042874973 -0.051205702 -0.04710593 -0.06306085
000010 96 e2 c9 bc a5 6d e7 bc bc 7b 59 bd 0e 8d 91 bd
       -0.024644177 -0.028250525 -0.053096518 -0.07106982
000020 13 84 c5 bc 0b e0 dc bc f1 78 15 bc 76 be d9 bb
       -0.02411083 -0.0269623 -0.009123073 -0.006645019
000030 db bc 5d bd 8d 9a 84 bd d2 f3 bf bc 60 30 df bc
       -0.054135185 -0.06474791 -0.023431692 -0.027244747
000040 01 b3 63 bc bf 0b 87 bc 67 cd e1 bc 22 a2 11 bd
       -0.013897658 -0.016485093 -0.027563764 -0.035555013
000050 12 77 d4 bc 23 dd f1 bc 1d 91 e4 bc 5c 38 08 bd
       -0.025935683 -0.029524392 -0.027901227 -0.033256873
000060 16 22 cd bc 58 97 ef bc dc b0 21 bd ab eb 15 bd
       -0.025040668 -0.029246971 -0.039475307 -0.036601704
000070 d4 dd 23 bd 06 de 27 bd 97 1e de bc e6 79 01 bd
       -0.040006474 -0.040983222 -0.027114196 -0.031610392
000080 fe 76 1f bd 77 3d 1a bd 59 dd db bc 3c d7 e6 bc
       -0.03893184 -0.037656274 -0.026838945 -0.028178804
000090 14 1f cb bc 25 86 f6 bc 27 9e e6 bc 7a d8 18 bd
       -0.024795093 -0.030093262 -0.028151585 -0.037315823
0000a0 15 5e de bc 21 17 00 bd e4 01 4f bc be 17 56 bc
       -0.027144471 -0.031272057 -0.012634728 -0.013067184
0000b0 39 e7 38 bd 63 7c 5f bd f9 59 7f bc 7c 71 a4 bc
       -0.045142386 -0.054561984 -0.015585416 -0.020073645
0000c0 e3 92 18 bd f5 86 30 bd 59 ab c3 bc 8b e0 e9 bc
       -0.037249457 -0.043097455 -0.023885416 -0.028549453
0000d0 98 78 81 bc 8f 49 a1 bc 38 90 bb bc a6 70 08 bd
       -0.015804574 -0.019688396 -0.022895917 -0.033310555
0000e0 4e 97 f2 bc 8c a2 0e bd 80 d8 ff bb dd fa 48 bc
       -0.029613163 -0.034822986 -0.0078077912 -0.012266842
0000f0 e7 b6 05 bd c8 ad 2c bd 12 d0 76 bd 4e ca 78 bd
       -0.032645132 -0.04215792 -0.060257025 -0.060739808
000100 ab 63 0f bd cb 62 32 bd 5f 05 b3 bc 00 a2 b7 bc
       -0.03500716 -0.043551248 -0.021853147 -0.022416115
000110 49 34 fe bc e1 ae 1a bd 5f 42 e7 bc ed e2 19 bd
       -0.03103079 -0.037764434 -0.02822989 -0.03756993
000120 f5 99 38 bd 3b 4a 55 bd 19 1d cf bc a1 09 0d bd
       -0.0450687 -0.052072745 -0.02528243 -0.03443301
000130 d7 e6 0d bd f0 61 df bc e5 59 43 bc 54 06 16 bc
       -0.034643974 -0.02726838 -0.011923288 -0.009156782
000140 c8 c7 88 bc 01 d6 c1 bc 66 ea e5 bc 57 00 d7 bc
       -0.016696826 -0.023661615 -0.028065871 -0.02624528
000150 29 b3 b7 bc 60 bc e7 bc e9 e5 17 bd c9 e0 e9 bc
       -0.022424297 -0.028288066 -0.037084494 -0.028549569
000160 48 ea dc bc 79 9a 01 bd 4c 5f 86 bc bd de 7c bc
       -0.026967183 -0.031641457 -0.016402863 -0.015433964
000170 48 2b 66 bd 70 16 77 bd 6a 49 8a bc c1 92 bb bc
       -0.05619362 -0.060324132 -0.01688071 -0.022897126
000180 27 f2 aa bc e8 ab e8 bc e9 6d e0 bc 01 5f fc bc
       -0.02086742 -0.028402284 -0.02739616 -0.03080702
000190 77 a6 17 bd 27 32 44 bd cd 00 c3 bc 92 6b f4 bc
       -0.037023988 -0.04789939 -0.023804093 -0.02983645
0001a0 54 d9 05 bd b2 cb 15 bd 76 71 e8 bc 7c 30 bf bc
       -0.032677963 -0.036571212 -0.028374415 -0.023338549
0001b0 5e d9 94 bc eb 00 ab bc af c3 b3 bc 64 a7 c2 bc
       -0.018170055 -0.020874461 -0.021943895 -0.023761459
0001c0 34 a5 c6 bc e2 97 d0 bc 41 ca 11 bd 85 aa 0f bd
       -0.024248697 -0.025463048 -0.035593275 -0.03507473
0001d0 9a 48 b2 bc 1e e8 bb bc e4 e6 3c bd 59 17 3d bd
       -0.021763135 -0.02293783 -0.046118632 -0.046164844
0001e0 aa 5e bc bc 0b 1f f5 bc 29 1c 4e bc 92 21 8b bc
       -0.022994358 -0.029922029 -0.012579956 -0.016983781
0001f0 ad ea 48 bd cc be 40 bd f5 8e dc bc 72 b1 01 bd
       -0.04905193 -0.047056958 -0.026923636 -0.031663366
000200 f3 1d 06 bd b4 bc 21 bd 13 1b 20 bd 8b a1 44 bd
       -0.032743406 -0.039486602 -0.03908832 -0.048005622
000210 cb 19 a0 bc f8 55 d8 bc 69 e9 20 bd aa f0 19 bb
       -0.019543549 -0.02640818 -0.039285097 -0.0023489394
000220 6b cf b3 bc af bb d0 bc a2 d2 08 bb 9b 35 b2 bb
       -0.02194949 -0.02548012 -0.00208775 -0.005438519
000230 6e 72 25 bd 4f 5b 56 bd 98 41 a9 bc fb f1 ca bc
       -0.04039233 -0.052333172 -0.02066116 -0.024773588
000240 57 bc 17 bc 6b 4b 55 bc b0 c4 c3 bc e8 92 e7 bc
       -0.009261212 -0.013018469 -0.023897499 -0.028268293
000250 7a 16 a6 bc de 46 0a bd 07 96 af bc 96 e8 e9 bc
       -0.02027439 -0.03375899 -0.021433843 -0.028553288
000260 e1 97 a2 bc a3 a7 db bc 94 48 03 bd 99 81 15 bd
       -0.019847812 -0.026813334 -0.032051638 -0.036500547
000270 83 84 ef bc 07 2d 15 bd 8e 7f b0 bc 4f 46 e6 bc
       -0.029237991 -0.036419895 -0.021545198 -0.028109698
000280 74 88 10 bd c9 ce 01 bd f0 78 bf bc c7 40 da bc
       -0.03528638 -0.031691346 -0.023373097 -0.026642216
000290 a5 a4 ba bc 7f a4 e3 bc 8d f4 b9 bc 4e b6 e2 bc
       -0.022783587 -0.027788399 -0.022699619 -0.02767482
0002a0 05 ad c5 bc 79 9f f7 bc 69 1f f5 bb 93 c5 39 bc
       -0.024130354 -0.03022741 -0.007480551 -0.011338609
0002b0 34 5d 15 bd d5 e1 3f bd 02 3b 26 bc 6c 4a 62 bc
       -0.03646584 -0.04684623 -0.0101459045 -0.013811689
0002c0 15 c8 f6 bc 89 7a 0c bd a5 c1 2b bd 8c 80 14 bd
       -0.030124703 -0.034296546 -0.04193272 -0.036255404
0002d0 60 31 1c bc 2e ec 4e bc 5e d9 29 bd 6a 91 75 bc
       -0.009533256 -0.012629552 -0.041467063 -0.014988283
0002e0 0c b2 dc bc 8e d2 ff bc 26 2d 83 bb 78 3e f6 bb
       -0.026940368 -0.03122833 -0.004003185 -0.007514771
0002f0 ce c7 e9 bc b1 d7 1b bd dd 2e 4c bd 42 af 74 bd
       -0.028537657 -0.038047496 -0.04984938 -0.05973745
000300 4f 08 de bc 61 2f 09 bd f0 0e a5 bc 80 98 ae bc
       -0.027103571 -0.03349245 -0.020148724 -0.021312952
000310 97 8f da bc d0 35 04 bd a5 cf 26 bd 31 ca e8 bc
       -0.026679797 -0.032277882 -0.04072537 -0.028416725
000320 ae 32 15 bd a0 7d 33 bd 2e bf f7 bc 6b 6b 0e bd
       -0.036425285 -0.043820977 -0.030242529 -0.03477041
000330 b0 08 f8 bc 3e 3f 1d bd a2 d8 9e bb 66 33 cd bb
       -0.03027758 -0.03839039 -0.004847602 -0.0062622307
000340 00 06 6b bc 7c 25 ad bc 49 0a c7 bc 0a 38 e1 bc
       -0.014344692 -0.021136038 -0.024296897 -0.027492542
000350 37 c6 88 bc 8f 11 d3 bc 2c e0 d7 bc 07 32 b9 bc
       -0.016696079 -0.025765209 -0.02635201 -0.022606863
000360 f2 02 bc bc 6b 83 e9 bc 66 1c 1d bc bf 9a 5b bc
       -0.022950623 -0.028505048 -0.00958929 -0.013403594
000370 d4 3d 45 bd 4f 86 60 bd 93 86 92 bc 5f 97 a4 bc
       -0.048154667 -0.054815587 -0.017886436 -0.02009171
000380 3d 72 77 bc 17 3b 95 bc 44 f5 d7 bc d6 f9 f2 bc
       -0.01510292 -0.018216653 -0.026362069 -0.029660147
000390 a7 6d ef bc 18 f0 1c bd 84 e7 a5 bc 2b ab d9 bc
       -0.029227091 -0.03831491 -0.020251997 -0.026570877
0003a0 a7 cc dd bc 0a 8b 04 bd c9 9e a5 bc d9 1d db bc
       -0.027075125 -0.03235916 -0.020217316 -0.02674763
0003b0 6c e8 92 bc ca fd aa bc 86 03 a9 bc 41 88 bb bc
       -0.017933093 -0.02087297 -0.020631563 -0.02289212
0003c0 a1 36 94 bc 5a 95 ce bc 1e d1 c3 bc d0 ac fa bc
       -0.018092455 -0.0252177 -0.023903426 -0.030599982
0003d0 0e c8 64 bc 62 64 b5 bc 24 42 45 bd 88 c2 58 bd
       -0.013963712 -0.022142593 -0.04815878 -0.052919894
0003e0 54 af e0 bc 81 8c ed bc 97 27 80 bc 5c c2 7a bc
       -0.027427353 -0.028997662 -0.015643878 -0.015305128
0003f0 02 bc 23 bd 99 4f 14 bd 56 3d c9 bc 67 15 f4 bc
       -0.03997422 -0.036208723 -0.02456538 -0.029795362

weight_hh_l0_reverse f4 [256, 64]
000000 55 d0 28 b8 1d 97 bf 38 81 af 54 38 53 64 0e 39
       -4.0248346e-05 9.135737e-05 5.070819e-05 0.00013579549
000010 10 23 ea b7 ef 4a a3 38 5c 9c df 37 75 da af 37
       -2.7911301e-05 7.786403e-05 2.6656482e-05 2.0963353e-05
000020 f0 ff 54 b8 15 26 30 38 15 d2 06 39 e3 71 7e 38
       -5.07831e-05 4.1997137e-05 0.00012857497 6.0664384e-05
000030 48 9f 3a 38 a9 0c 54 38 0f ca 48 b8 b3 d8 20 b8
       4.4494198e-05 5.055653e-05 -4.7871898e-05 -3.834879e-05
000040 f6 f2 dc 37 a9 5a 58 38 c4 ae 25 38 a0 19 77 b8
       2.6339181e-05 5.1582847e-05 3.950183e-05 -5.8913254e-05
000050 9f 5b 5f 38 94 65 36 b8 01 03 4b b8 81 70 b7 38
       5.3252672e-05 -4.3486783e-05 -4.840177e-05 8.7470755e-05
000060 7b b0 8e 37 43 53 11 b8 a6 5b 83 b5 a9 6b 0c b8
       1.70099e-05 -3.4648237e-05 -9.786934e-07 -3.3478867e-05
000070 e9 0b ad 36 5f fe ba 37 0f 0e 14 38 73 0f fa 36
       5.1571883e-06 2.2291379e-05 3.5299043e-05 7.452379e-06
000080 fa c5 ba 38 e3 da de 37 c6 4d 68 b7 66 f9 32 b8
       8.906047e-05 2.656639e-05 -1.3846386e-05 -4.2670777e-05
000090 a0 e8 6e 36 b9 84 1f 38 8f c0 67 38 68 c9 bb 38
       3.560017e-06 3.803216e-05 5.5254026e-05 8.95437e-05
0000a0 73 ea 27 37 cc 85 8d b7 18 b0 77 b8 ba 2a c3 37
       1.0008563e-05 -1.6870814e-05 -5.905339e-05 2.3265708e-05
0000b0 87 81 17 37 00 08 90 b8 78 44 ec b7 e8 26 d7 38
       9.030459e-06 -6.867945e-05 -2.8165276e-05 0.00010259246
0000c0 50 b1 bf 37 bb 9f 0c b8 18 de dd 35 1c 80 32 b8
       2.2851542e-05 -3.352736e-05 1.6530421e-06 -4.255782e-05
0000d0 6d 9a 66 b7 98 85 b7 b8 ec 65 54 b7 35 f1 55 b8
       -1.3745023e-05 -8.751004e-05 -1.2659915e-05 -5.10078e-05
0000e0 60 22 b5 38 b2 9d 38 38 c8 70 bc 38 32 de 8d 37
       8.6371554e-05 4.4015884e-05 8.985546e-05 1.6911978e-05
0000f0 c6 bd 08 38 c7 1e 9a 39 8f 86 84 38 43 ab 81 b8
       3.2601667e-05 0.000293961 6.319314e-05 -6.183099e-05
000100 d7 63 2f b9 98 08 d9 3a 81 f0 05 39 dd af 1d 3b
       -0.00016726494 0.0016558347 0.00012773463 0.0024061122
000110 1e 65 d8 b8 75 bf 8f 39 92 3e 18 39 d9 02 80 38
       -0.00010318517 0.00027417732 0.00014519159 6.104046e-05
000120 97 09 7f b9 58 eb 3d 39 ac 66 bd 39 d9 bb 10 37
       -0.00024322268 0.00018112117 0.00036125386 8.6268055e-06
000130 1b 33 45 39 43 f7 a0 b7 5a fc 10 b9 89 c3 69 b8
       0.00018806422 -1.9188627e-05 -0.00013826918 -5.5733635e-05
000140 84 eb ad 39 a4 32 77 39 0f ec 04 39 98 18 59 b9
       0.00033172604 0.0002357462 0.0001267644 -0.00020703895
000150 31 01 3b 39 9a 47 3e b9 d7 93 8c b9 84 fa 14 35
       0.00017834154 -0.00018146486 -0.0002681303 5.5498845e-07
000160 85 ae 8f 39 82 c1 8d ba 7f 1a 9d b3 30 08 36 ba
       0.00027405113 -0.0010815116 -7.315702e-08 -0.0006943969
000170 6a 1b db 34 16 d7 de 38 23 c8 d1 38 7b 68 c1 38
       4.0811875e-07 0.00010625848 0.00010003175 9.222418e-05
000180 4a f6 a1 38 3b 42 b8 38 84 1e 9d 39 49 4f 01 b9
       7.722953e-05 8.78614e-05 0.0002996811 -0.00012331935
000190 9b dc e6 38 4a 9c a3 38 5e fb 55 39 ba 03 84 39
       0.000110083456 7.801557e-05 0.00020406905 0.00025179778
0001a0 d0 26 a7 b8 35 f4 93 b7 f6 6d 02 b9 ee 9b 22 39
       -7.97041e-05 -1.7637483e-05 -0.0001243873 0.00015507612
0001b0 4b 95 38 38 41 94 b2 36 90 a4 3d b9 5a 64 db 39
       4.400806e-05 5.3220724e-06 -0.00018085749 0.00041845703
0001c0 6d cd 40 b8 88 bf 44 b8 c6 8f f8 b7 29 65 f1 b8
       -4.5967685e-05 -4.690842e-05 -2.9630854e-05 -0.00011510618
0001d0 d7 21 c9 37 5c fa 5b b9 8b 78 9c 37 94 26 dd b8
       2.3976825e-05 -0.00020978734 1.8652781e-05 -0.00010545287
0001e0 0c 70 50 39 cd 7a 00 39 68 2a 87 39 dc f8 94 b7
       0.00019878166 0.00012252778 0.00025780802 -1.7758859e-05
0001f0 7f be 9e 38 43 06 26 3b fe 18 5f 3a 3d bb 49 b8
       7.56951e-05 0.0025333322 0.0008510499 -4.8096514e-05
000200 a4 25 5a b6 68 8f 0d 38 9e 1b fd b5 e7 ed cb 3a
       -3.250644e-06 3.3750577e-05 -1.8858007e-06 0.0015558571
000210 21 30 59 36 96 87 ec 37 b8 b5 bb 36 44 a8 ac b6
       3.2363535e-06 2.819653e-05 5.594189e-06 -5.145588e-06
000220 12 6e cd 37 27 a1 39 38 96 c6 62 37 92 71 14 b7
       2.448916e-05 4.4257522e-05 1.3516887e-05 -8.84793e-06
000230 58 db 6a 35 65 e8 55 b7 e1 80 0c 37 5b 82 4a 36
       8.749098e-07 -1.2749898e-05 8.374657e-06 3.0176222e-06
000240 58 a2 fc b3 34 06 63 38 95 36 32 b7 4e e4 05 b7
       -1.17641946e-07 5.4126795e-05 -1.0622335e-05 -7.980574e-06
000250 dc c6 2e 38 c3 0f 65 37 51 43 8e b8 4c 7d e0 38
       4.1670035e-05 1.36531335e-05 -6.783626e-05 0.00010704491
000260 e6 18 47 b8 92 26 56 ba f0 85 9c 37 95 57 04 bb
       -4.7468486e-05 -0.00081691996 1.8659019e-05 -0.0020193805
000270 73 1b df 36 bc 6e 23 b6 58 cd a6 36 4c 50 b0 b6
       6.6491134e-06 -2.4353349e-06 4.9710907e-06 -5.2545565e-06
000280 c1 36 82 38 b0 34 f5 38 c5 f8 9d b7 3c 62 59 39
       6.209082e-05 0.00011692324 -1.88317e-05 0.00020731328
000290 81 b9 e5 36 c2 6b 91 b8 c9 66 66 b8 7d 07 85 b7
       6.8463273e-06 -6.93421e-05 -5.4932e-05 -1.5858323e-05
0002a0 bf 20 34 37 a2 2d 9b 37 07 79 15 b7 78 8f 0e 37
       1.073646e-05 1.849869e-05 -8.909271e-06 8.4972635e-06
0002b0 8c bd da 36 c2 db 54 36 54 df 65 b7 af 36 d1 37
       6.5189724e-06 3.1718378e-06 -1.3701461e-05 2.4940206e-05
0002c0 e2 c8 63 38 ee 1d e2 b6 8d 58 38 37 6f 8e c7 b7
       5.4308104e-05 -6.738809e-06 1.0987872e-05 -2.3788974e-05
0002d0 34 98 ae 37 38 32 6d b6 05 81 8a 37 cc 3c 1f b9
       2.0813291e-05 -3.5344983e-06 1.6510961e-05 -0.0001518607
0002e0 75 8a 6f b6 f9 d9 12 b8 06 7f 23 b7 2d 74 4e 37
       -3.5694368e-06 -3.5012115e-05 -9.745132e-06 1.2305606e-05
0002f0 71 f1 be 34 03 a0 45 3b 7d b2 77 37 6e 3f 0f b9
       3.556593e-07 0.003015519 1.4763905e-05 -0.00013661172
000300 fe af 91 37 cf 07 c8 ba 46 61 13 bb 44 b6 bf 3c
       1.73673e-05 -0.0015261116 -0.00224884 0.02340234
000310 bf 90 88 bb 7f d9 29 b9 f5 eb 3e ba 5d 8b 86 ba
       -0.0041676457 -0.0001619812 -0.0007283085 -0.0010264922
000320 34 c9 f5 b8 d1 54 b1 3b bb 4e 58 bb 76 a4 dc 3a
       -0.000117199874 0.005411722 -0.0033005911 0.0016833681
000330 75 b4 5c 3b 34 16 b6 ba c9 8d 50 bb 12 26 f1 3a
       0.0033676897 -0.0013892115 -0.0031822792 0.0018398187
000340 1b e5 0c bc a1 11 fa 3b c6 13 86 39 1d 32 36 b9
       -0.008599545 0.007631496 0.00025573204 -0.00017375541
000350 00 3f a6 3b 03 3f e3 b8 90 08 13 3a 6b 2e 7a ba
       0.005073428 -0.0001083594 0.0005608881 -0.000954366
000360 14 00 ad 38 cd 2f 98 bc 67 ba 00 b8 27 d6 c1 bc
       8.2492974e-05 -0.01857748 -3.069118e-05 -0.023661686
000370 25 92 2c 3a 90 c9 00 b9 07 52 eb 39 8a ba 84 3a
       0.00065830565 -0.00012282119 0.00044883808 0.0010126394
000380 65 cc ba ba d8 ae 25 3c eb b1 0c 3a bb 24 85 3c
       -0.0014251588 0.010112487 0.0005367088 0.016252866
000390 31 9d 59 3a db b1 79 3c a8 34 30 bc 10 f4 5d 39
       0.00083013164 0.015240158 -0.010754742 0.00021167123
0003a0 5c a2 1e ba 3a 46 82 3b 4a cf 2a 3b 90 e5 df bb
       -0.0006051415 0.003975657 0.0026063495 -0.006832786
0003b0 3d fc 10 bb d4 d4 52 b9 9a fc 60 ba d1 c6 09 3c
       -0.0022123002 -0.00020106445 -0.00085825624 0.008409218
0003c0 1a a0 d8 b9 c6 6d b0 bb 3e 69 2a 39 6f 8a 58 3a
       -0.00041318015 -0.0053841798 0.00016251669 0.00082603743
0003d0 9f a1 b1 b5 fc 44 92 3a c2 ac 38 3c 4b 85 4a bc
       -1.3234566e-06 0.0011159475 0.011271657 -0.012360881
0003e0 11 42 c3 ba 4e 98 d9 39 21 b9 7f ba 88 b4 00 ba
       -0.0014897009 0.0004150294 -0.00097550644 -0.0004909714
0003f0 d2 9a 73 3b aa 2a a4 3c 3f 8c b1 bb 4e 8d 72 bc
       0.0037171138 0.020039875 -0.00541833 -0.0148041975
