CNP-model-save-name/saved_models/model_0.pth (torch, 735732 bytes, 50 tensors)

weight f4 [64, 11]
0	0xbe202765	-0.15640028
1	0x3dea8fac	0.114531845
2	0x3e529509	0.20564665
3	0xbe66bed9	-0.2253374
4	0xbd469642	-0.04848314
5	0x3e050e34	0.129937
6	0xbdc5996e	-0.09648405
7	0xbbac740f	-0.0052628587
8	0x3e7dfae4	0.24802738
9	0xbdb56aa7	-0.08858233
10	0x3e7ff539	0.24995889
11	0x3ba33dc6	0.004981729
12	0x3e8a54f1	0.2701793
13	0x3e240206	0.16016397
14	0xbe70a8b8	-0.23501861
15	0xbe84a11e	-0.25904173
16	0x3e046db5	0.12932475
17	0x3dd1e5f4	0.10248938
18	0x3d8736d8	0.066022575
19	0xbe8c70be	-0.27429765
20	0x3ba7ccc9	0.005120848
21	0x3e84fce3	0.25974187
22	0xbe807eec	-0.25096834
23	0x3cff6da3	0.031180209
24	0x3d0cb157	0.034348812
25	0x3d63d70e	0.055625014
26	0xbe5cb2e7	-0.21552621
27	0x3e4d2384	0.2003308
28	0xbd6709f0	-0.05640596
29	0x3e37f86f	0.17965864
30	0xbe6001db	-0.21875708
31	0xbd324518	-0.043522924
32	0x3e69fa45	0.22849376
33	0x3dcf2c2d	0.10115848
34	0x3cbc760d	0.02300551
35	0x3e54c94b	0.20779912
36	0xbdf431bd	-0.11923549
37	0xbe893a07	-0.26802084
38	0xbe8a1281	-0.26967242
39	0xbbf3b12c	-0.007436892
40	0xbe8d9d8d	-0.27659264
41	0xbe8a325d	-0.2699155
42	0xbd5e70af	-0.054306682
43	0x3dd13832	0.102157965
44	0xbe32acab	-0.1744868
45	0x3e835d17	0.2565696
46	0x3daaed5d	0.08346055
47	0x3e478723	0.19485144
48	0xbe388e88	-0.18023121
49	0x3d0fc545	0.03510024
50	0x3e2e2593	0.17006521
51	0x3d711aef	0.058863577
52	0xbd91ff3a	-0.07128759
53	0xbe68acc0	-0.22722149
54	0xbe1747c3	-0.14773469
55	0xbc58d0d2	-0.01323338
56	0xbdef0c47	-0.116722636
57	0x3e8db232	0.27675015
58	0xbdf5c95a	-0.120012954
59	0x3e45f30a	0.19330993
60	0xbe71130e	-0.23542425
61	0x3e5ba653	0.21450166
62	0xbe5a23a3	-0.21302657
63	0x3e70dec8	0.23522484
64	0x3d7a3ebf	0.061094996
65	0x3d908093	0.070557736
66	0x3e84396e	0.25825065
67	0x3da8679d	0.08222888
68	0xbb7d35e6	-0.0038636862
69	0x3e0041bf	0.1252508
70	0xbe22bc84	-0.15892226
71	0xbce6d1ae	-0.028176155
72	0x3e8aa556	0.27079266
73	0xbdb07c5d	-0.086174704
74	0xbe14b298	-0.14521253
75	0x3d09e014	0.033660963
76	0x3a5ac564	0.00083454535
77	0x3d446bbd	0.04795431
78	0x3e8dc820	0.27691746
79	0x3e5e27f6	0.21694931
80	0xbddc2833	-0.10749855
81	0x3e6e2f84	0.23260313
82	0x3e0d76bb	0.13814823
83	0x3d8f0b89	0.06984622
84	0x3e1ff0f0	0.15619254
85	0x3e8b083b	0.27154717
86	0x3e303f4f	0.1721165
87	0xbd979fb7	-0.0740351
88	0xbe456c0f	-0.19279502
89	0x3dcbc2a3	0.099492334
90	0x3e14eb23	0.14542823
91	0x3d3de262	0.046358474
92	0xbc3ca935	-0.0115149515
93	0x3db2caa4	0.08730057
94	0x3df5d2be	0.120030865
95	0xbd746903	-0.05967046
96	0x3e58730a	0.21137634
97	0x3e2f675a	0.17129269
98	0xbc9b61b8	-0.018967494
99	0xbe874c02	-0.26425177
100	0x3e86b331	0.26308587
101	0xbe469545	-0.1939288
102	0xbd907446	-0.070534274
103	0xbdd5adc0	-0.10433531
104	0x3e546ce3	0.20744662
105	0xbd1d61d2	-0.038423367
106	0x3e5a5b86	0.21323976
107	0x3dba729c	0.09103891
108	0xbce1f597	-0.027582927
109	0x3d256f46	0.04038932
110	0xbe5b3f64	-0.214109
111	0xbe47944e	-0.19490167
112	0xbe1dd87f	-0.15414618
113	0x3e2209cd	0.15824051
114	0x3e54790d	0.20749302
115	0xbe2a6dc4	-0.16643435
116	0xbdecc98d	-0.1156188
117	0xbe6a8f81	-0.22906305
118	0xbe22752c	-0.1586501
119	0x3d63294f	0.055459317
120	0xbda8213a	-0.082094625
121	0xbd100abc	-0.035166487
122	0xbe713724	-0.2355619
123	0xbd2aad70	-0.04166931
124	0xbe432f98	-0.19061124
125	0x3c75c16d	0.01499973
126	0xbe698dfb	-0.22808068
127	0x3e20c6b4	0.15700799
128	0xbe8c1aec	-0.2736429
129	0xbd723e93	-0.059141707
130	0x3d6f6d30	0.05845374
131	0xbe09c532	-0.1345413
132	0xbce41208	-0.02784063
133	0x3d1147cc	0.03546886
134	0x3dbd67c2	0.09248306
135	0x3d910d57	0.070826225
136	0xbcf4514e	-0.029823925
137	0x3e306776	0.17226967
138	0x3db17a2c	0.086658806
139	0x3e3225af	0.17397188
140	0x3e46494c	0.19363898
141	0x3e0d3361	0.13789131
142	0xbe82a542	-0.25516707
143	0xbe5ea3e0	-0.21742201
144	0xbd3f66ae	-0.046728782
145	0x3cebe774	0.028796889
146	0xbd217732	-0.039420314
147	0x3d3c3488	0.045948535
148	0x3e21f7f1	0.15817238
149	0xbdba5583	-0.09098341
150	0x3d96cdfb	0.073635064
151	0xbdd627a7	-0.10456782
152	0xbe1c5f79	-0.15270795
153	0xbd1777c1	-0.03697944
154	0x3e75668d	0.23964901
155	0x3e0026a4	0.1251474
156	0xbd8da777	-0.06916707
157	0xbd5d34c3	-0.054005396
158	0x3e83659f	0.25663468
159	0x3e8f98bf	0.28046224
160	0x3e3b2d72	0.18279055
161	0xbdc172c7	-0.0944572
162	0x3e5776dd	0.21041436
163	0x3d4f7e91	0.050657813
164	0x3e096b35	0.13419802
165	0x3be06c2e	0.0068488335
166	0x3e8cbd32	0.27488095
167	0xbdd4deac	-0.10394034
168	0x3e4cec74	0.20012075
169	0xbe6eba88	-0.23313344
170	0xbd97880e	-0.07398997
171	0xbd41d6ce	-0.047323994
172	0x3cfe98ce	0.031078722
173	0x3e899557	0.2687175
174	0xbe3741c0	-0.17896175
175	0xbe84a6b6	-0.2590844
176	0x3d7911d5	0.06080802
177	0x3d5eae86	0.054365657
178	0x3c5864b4	0.013207603
179	0x3dd44c35	0.10366098
180	0xbd2a1945	-0.041528005
181	0x3cf294f0	0.029612035
182	0xbd3177e7	-0.04332724
183	0xbddea2d4	-0.10870901
184	0xbe57f1c3	-0.21088319
185	0x3dcebc4a	0.10094507
186	0x3dd50c2b	0.104027115
187	0x3e691beb	0.22764556
188	0x3e08ebb6	0.13371167
189	0x3991af41	0.0002778713
190	0x3dc003ee	0.093757495
191	0xbd7afd4e	-0.061276726
192	0x3e84535f	0.25844857
193	0x3d636e43	0.055525076
194	0x3e64e1ad	0.22351713
195	0xbe30e814	-0.17276031
196	0x3d2b2145	0.041779775
197	0x3d115112	0.035477705
198	0xbe6c25d8	-0.23061311
199	0xbe82141e	-0.25405973
200	0xbd9d8169	-0.07690699
201	0x3e5b62ca	0.21424404
202	0xbe03735e	-0.12836978
203	0xbe5e3076	-0.21698174
204	0x3e2cdeec	0.16881913
205	0x3d724784	0.059150234
206	0xbe059932	-0.1304672
207	0xbe34d383	-0.1765881
208	0xbe1bdc36	-0.15220723
209	0x3e86ab11	0.26302388
210	0x3e891912	0.2677694
211	0x3defac1e	0.117027506
212	0x3c647345	0.013943498
213	0x3e10af46	0.14129362
214	0x3dfebb92	0.1243812
215	0x3dd52840	0.10408068
216	0x3e339c70	0.17540145
217	0x3c8d1afd	0.017224783
218	0xbe2ab636	-0.1667107
219	0x3e63766f	0.22213148
220	0xbe49190d	-0.19638462
221	0x3e88d5e4	0.26725686
222	0x3e7998ca	0.2437469
223	0xbe07660e	-0.13222525
224	0x3d668c72	0.056286283
225	0xbe4f5795	-0.20248254
226	0xbc680365	-0.014160966
227	0x3db8f435	0.09030954
228	0x3e3c7d2f	0.18407129
229	0x3db0dcf8	0.086358964
230	0x3d5b9e63	0.053617846
231	0x3e0da56d	0.13832636
232	0xbe4b0a52	-0.19828156
233	0xbe0b9c9a	-0.13633958
234	0x3dedd7f6	0.11613457
235	0xbe53e848	-0.20694077
236	0x3e620fa0	0.22076273
237	0x3e86902d	0.26281872
238	0xbe8979b5	-0.26850668
239	0xbd1dfad7	-0.038569298
240	0xbe8345b0	-0.25639105
241	0xbd7af6d0	-0.061270535
242	0x3e0442f0	0.1291616
243	0x3e0646b6	0.13112912
244	0x3d85d623	0.06534984
245	0xbb477ce4	-0.003043943
246	0xbd656029	-0.05599991
247	0xbe73377c	-0.23751634
248	0x3e6916a0	0.22762537
249	0xbddd55b5	-0.10807363
250	0xbd80729b	-0.06271859
251	0x3d010125	0.031495232
252	0x3e7de17d	0.24793048
253	0x3e7aa9d3	0.24478845
254	0x3e885742	0.26629072
255	0xbd63e82b	-0.055641335

bias f4 [64]
0	0x3a831259	0.0009999975
1	0x3a831267	0.0009999991
2	0xba831227	-0.0009999917
3	0x3a831263	0.0009999987
4	0x3a831262	0.0009999985
5	0x3a83124d	0.0009999961
6	0x3a831224	0.0009999913
7	0xba83126b	-0.0009999996
8	0x3a83126b	0.0009999996
9	0xba831264	-0.0009999988
10	0xba83126a	-0.0009999995
11	0x3a83125c	0.0009999978
12	0xba83126a	-0.0009999995
13	0x3a831264	0.0009999988
14	0xba831268	-0.0009999992
15	0x3a831264	0.0009999988
16	0xba83126b	-0.0009999996
17	0x3a831269	0.0009999993
18	0xba83126c	-0.0009999997
19	0x3a831267	0.0009999991
20	0x3a831265	0.0009999989
21	0xba831262	-0.0009999985
22	0x3a831262	0.0009999985
23	0xba831266	-0.000999999
24	0xba83126b	-0.0009999996
25	0xba83123c	-0.0009999941
26	0xba831264	-0.0009999988
27	0xba831267	-0.0009999991
28	0xba83126c	-0.0009999997
29	0x3a831261	0.0009999984
30	0x3a83125f	0.0009999982
31	0x3a831267	0.0009999991
32	0xba831264	-0.0009999988
33	0xba831267	-0.0009999991
34	0xba831231	-0.0009999928
35	0xba831266	-0.000999999
36	0x3a83126b	0.0009999996
37	0xba8311fa	-0.0009999864
38	0xba831266	-0.000999999
39	0x3a83125d	0.000999998
40	0xba831267	-0.0009999991
41	0xba83125f	-0.0009999982
42	0xba83121e	-0.0009999906
43	0xba83126b	-0.0009999996
44	0x3a83126b	0.0009999996
45	0xba8311a6	-0.0009999766
46	0x3a83126b	0.0009999996
47	0x3a831264	0.0009999988
48	0xba831267	-0.0009999991
49	0x3a831267	0.0009999991
50	0x3a831269	0.0009999993
51	0xba831269	-0.0009999993
52	0x3a831263	0.0009999987
53	0xba831263	-0.0009999987
54	0xba83125c	-0.0009999978
55	0xba831266	-0.000999999
56	0xba83126c	-0.0009999997
57	0x3a83126b	0.0009999996
58	0xba831266	-0.000999999
59	0x3a831269	0.0009999993
60	0x3a831266	0.000999999
61	0xba831261	-0.0009999984
62	0xba831265	-0.0009999989
63	0x3a83124f	0.0009999963

weight f4 [64, 10]
0	0x3e5364e1	0.20643951
1	0xbda14b23	-0.07875659
2	0xbe3ab596	-0.18233332
3	0x3e3535e9	0.17696346
4	0x3e8c6855	0.2742335
5	0xbe8e6447	-0.2781088
6	0x3e4a17ba	0.19735613
7	0xbdbb3211	-0.09140409
8	0xbe8542c4	-0.260275
9	0x3d7493eb	0.059711378
10	0x3d84142e	0.064491615
11	0xbe388e27	-0.18022977
12	0x3e0a7f22	0.1352506
13	0xbe01eac6	-0.12687215
14	0xbcf247d7	-0.029575272
15	0xbd6a0963	-0.057137858
16	0xbd5b42a1	-0.05353034
17	0xbe7f45cd	-0.2492897
18	0x3e19a612	0.15004757
19	0xbdda169f	-0.10648846
20	0x3e6a6afe	0.22892377
21	0x3e91b2d0	0.28456736
22	0x3d80512f	0.062654845
23	0x3e8a3b7b	0.26998505
24	0x3e0d79dd	0.13816018
25	0xbda8dd69	-0.08245356
26	0xbe70b2bb	-0.2350568
27	0x3d3fe4a6	0.046848916
28	0x3e592f02	0.21209338
29	0x3db97595	0.0905563
30	0xbdf7b9a2	-0.120959535
31	0x3e61ce8c	0.22051448
32	0x3e848013	0.25878963
33	0xbe26edf2	-0.16301706
34	0xbe5cf5c7	-0.21578132
35	0xbe22ef9c	-0.15911716
36	0x3e8d526e	0.2760195
37	0xbe832f6c	-0.25622118
38	0xbe0c2b52	-0.136884
39	0x3cd800e6	0.026367616
40	0xbe29438f	-0.16529678
41	0x3db0af11	0.08627141
42	0xbe015e84	-0.12633711
43	0x3e189395	0.14900048
44	0xbe449f33	-0.19201355
45	0xbde65f3f	-0.112486355
46	0xbb25d7f5	-0.0025305722
47	0xbd04b4f8	-0.032399148
48	0x3e87bdb2	0.26511914
49	0xbe8aa0df	-0.2707586
50	0xbc99a290	-0.018754274
51	0x3e7bac23	0.24577384
52	0xbbd5eca3	-0.0065284534
53	0xbce9cc8d	-0.02853992
54	0x3e857d28	0.2607205
55	0xbd0e8c1d	-0.03480159
56	0x3e70d84e	0.23520014
57	0x3d833901	0.06407357
58	0xbc0ef771	-0.008725987
59	0xbe8d02f8	-0.27541327
60	0x3e911580	0.28336716
61	0x3b6ca9d9	0.003611198
62	0xbe00b73c	-0.12569898
63	0x3df77256	0.12082355
64	0x3e7f61cf	0.24939655
65	0x3e365159	0.17804469
66	0xbe02f8d3	-0.12790231
67	0xbd4e1b1c	-0.050318822
68	0x3e157eb8	0.1459912
69	0xbcfca847	-0.03084196
70	0x3c5d11b5	0.013492991
71	0x3dc75a29	0.097339936
72	0x3e7f4909	0.24930204
73	0x3e561938	0.20908058
74	0xbd838d16	-0.064233944
75	0x3d8dd5f2	0.069255725
76	0xbcc77802	-0.024349216
77	0xbe5c68fe	-0.21524426
78	0xbe143dce	-0.14476702
79	0x3d3adbd4	0.0456198
80	0xbd712687	-0.058874633
81	0x3e6896da	0.22713795
82	0xbe3f1821	-0.18661548
83	0xbe417726	-0.18893108
84	0x3d8e9846	0.069626376
85	0xbd141b5f	-0.036158916
86	0xbc2249f8	-0.009905331
87	0x3e509f24	0.20373207
88	0xbd2314c9	-0.039814744
89	0x3e804a8f	0.25056884
90	0xbde536da	-0.11192103
91	0xbe209a48	-0.15683854
92	0xbd8cd69a	-0.068768695
93	0xbe1b166a	-0.15145269
94	0x3e2923e5	0.16517599
95	0xbe154444	-0.14576823
96	0x3d0a2ed4	0.033736065
97	0x3e01fae2	0.1269336
98	0x3d2dea5f	0.04245984
99	0x3ccf78e3	0.025326198
100	0xbdebb76e	-0.11509596
101	0xbde50319	-0.111822315
102	0xbb9369cb	-0.0044986955
103	0xbe1b8bf7	-0.15190111
104	0xbe311017	-0.17291294
105	0x3dd6a099	0.1047985
106	0x3cb10bc3	0.021612054
107	0x3e497fd3	0.19677667
108	0x3e8968f2	0.2683788
109	0xbe095a65	-0.13413389
110	0x3e8bd4b3	0.27310714
111	0x3e12cbc2	0.1433554
112	0xbe878820	-0.26471043
113	0x3befa875	0.007313783
114	0xbe10dc9d	-0.14146657
115	0xbe17b83b	-0.14816372
116	0x3e6b0f4d	0.22955056
117	0xbdf96051	-0.12176574
118	0x3e491351	0.19636275
119	0xbcbc49d7	-0.022984428
120	0xbe625f9e	-0.22106788
121	0x3dec904a	0.115509585
122	0x3e3b4cab	0.18290965
123	0x3c73e74c	0.014886688
124	0xbe30f3f7	-0.17280565
125	0xbd15cc2b	-0.036571663
126	0x3e8a926d	0.2706484
127	0xbe1ed46a	-0.15510717
128	0xbe848ac8	-0.25887132
129	0xbe22c14a	-0.15894046
130	0xbe0b175e	-0.13583133
131	0x3debf5ef	0.115215175
132	0x3da0bb46	0.078482196
133	0xbc80cd0d	-0.015722776
134	0xbe85ca71	-0.26131013
135	0x3e0f0bd2	0.13969353
136	0xbcd20902	-0.02563906
137	0xbe8bd59f	-0.27311417
138	0xbd79e0f9	-0.061005566
139	0xbe8d050f	-0.27542922
140	0x3e2be59d	0.1678681
141	0x3d505ea1	0.050871495
142	0x3e1373fd	0.14399715
143	0xbd57c734	-0.05268021
144	0xbdbc8782	-0.092055336
145	0xbdb09ae7	-0.08623295
146	0xbe682289	-0.22669424
147	0x3e00123f	0.1250696
148	0xbe3a741a	-0.18208352
149	0x3d04bba1	0.0324055
150	0xbe68e872	-0.22744921
151	0xbe29befd	-0.16576762
152	0x3e7d10d4	0.2471345
153	0x3c2002dd	0.009766308
154	0x3c6e9dab	0.014563958
155	0xbe14184e	-0.14462397
156	0xbdebf326	-0.11520986
157	0xbd36cf50	-0.044631302
158	0x3e7e8e07	0.24858867
159	0xbe000ecd	-0.12505646
160	0xbe744eb2	-0.23858145
161	0x3d8c033e	0.06836556
162	0x3df7fb7e	0.12108515
163	0x3e8327c1	0.25616267
164	0x3de6c74e	0.11268483
165	0xbe29d273	-0.16584186
166	0x3e83bc5e	0.2572965
167	0x3da8227e	0.08209704
168	0xbde2d9b1	-0.110766776
169	0xbd4d34ae	-0.050099067
170	0x3e1b5844	0.1517039
171	0x3e1b25ad	0.15151091
172	0xbd94b4d3	-0.07261052
173	0x3c1fe51e	0.009759216
174	0xbcdcde2a	-0.026961405
175	0x3e6a1078	0.22857845
176	0x3e07dec6	0.13268575
177	0xbe2d1ef0	-0.16906333
178	0xbe0ca61f	-0.13735245
179	0x3e57c4f2	0.21071222
180	0x3e3ce180	0.18445396
181	0x3c01366c	0.00788651
182	0xbc5a0ffc	-0.013309475
183	0x3cf5cb90	0.030004293
184	0xbe847a22	-0.2587443
185	0xbe8d7940	-0.2763157
186	0x3baf86e7	0.005356658
187	0x3e8cfd92	0.2753721
188	0x3dd418f8	0.10356325
189	0x3b0f6650	0.0021881051
190	0x3c9b0526	0.018923353
191	0x3e0f1f88	0.13976872
192	0xbe4dc407	-0.2009431
193	0xbdbdaf03	-0.092618965
194	0xbe745991	-0.23862292
195	0xbe81602f	-0.25268695
196	0x3e866a16	0.26252812
197	0xbc55ea3c	-0.013056334
198	0x3d640cae	0.055676155
199	0x3e328e39	0.17437066
200	0xbe703396	-0.23457178
201	0x3e8bb595	0.27286974
202	0x3e8c9ec5	0.27464882
203	0x3e46d7e7	0.19418298
204	0x3e8aa9b0	0.27082586
205	0xbca3bc7b	-0.019987335
206	0xbe29b9a8	-0.16574728
207	0x3ddd2e52	0.107998505
208	0xbdae4c20	-0.085106134
209	0xbe2dcdc5	-0.16973026
210	0xbd5982b3	-0.05310316
211	0x3cf9fdd8	0.03051655
212	0x3e85ad1f	0.26108643
213	0xbb407e3f	-0.0029372124
214	0xbe5a301c	-0.21307415
215	0xbe1a43a0	-0.1506486
216	0x3e2c4279	0.16822232
217	0x3dd09eb6	0.10186522
218	0xbe2334fc	-0.1593818
219	0x3e8e2190	0.2775998
220	0x3e445303	0.19172291
221	0x3e645a51	0.22300078
222	0xbcda9cb3	-0.026686048
223	0x3e4dc7fc	0.20095819
224	0xbe71a937	-0.23599707
225	0x3e7a3891	0.24435641
226	0xbb1f90e7	-0.0024347843
227	0x3b10c04a	0.002208727
228	0xbe1ac47c	-0.15114015
229	0xbe0c2b5e	-0.13688418
230	0xbe07cacf	-0.13260959
231	0xbe35fec0	-0.1777296
232	0xbe6e8bb1	-0.23295476
233	0x3cdd3988	0.027004972
234	0xbe4a6735	-0.19765933
235	0xbc4ebee3	-0.012618753
236	0xbd999d34	-0.07500687
237	0xbe442f56	-0.19158682
238	0x3d4958ee	0.049157076
239	0xbd21810b	-0.039429706
240	0x3cc109dc	0.023564272
241	0x3e82ab01	0.2552109
242	0xbcc1d56b	-0.023661336
243	0x3e2f7757	0.17135368
244	0xbd54d5cd	-0.05196171
245	0xbe21a723	-0.15786414
246	0x3e8ee07c	0.27905643
247	0x3e785746	0.24252042
248	0xbe896f3d	-0.2684268
249	0x3d0ecc2a	0.034862675
250	0x3e889389	0.2667506
251	0xbcda4fa1	-0.026649298
252	0x3e3295d3	0.17439966
253	0xbe4602cc	-0.19337004
254	0xbe4b18e7	-0.19833718
255	0x3e014282	0.12623027

bias f4 [64]
0	0x3a831256	0.0009999971
1	0x3a831260	0.0009999983
2	0x3a831263	0.0009999987
3	0xba83124f	-0.0009999963
4	0x3a831268	0.0009999992
5	0x3a831212	0.0009999892
6	0xba83125d	-0.000999998
7	0xba83124a	-0.0009999957
8	0x3a83125f	0.0009999982
9	0xba83124c	-0.000999996
10	0xba831264	-0.0009999988
11	0x3a831263	0.0009999987
12	0xba831268	-0.0009999992
13	0x3a831264	0.0009999988
14	0x3a8311f4	0.0009999857
15	0x3a831257	0.0009999973
16	0xba83125f	-0.0009999982
17	0x3a831269	0.0009999993
18	0xba83126b	-0.0009999996
19	0x3a83125d	0.000999998
20	0x3a83118a	0.0009999734
21	0xba831263	-0.0009999987
22	0x3a831250	0.0009999964
23	0x3a831264	0.0009999988
24	0xba831262	-0.0009999985
25	0x3a83122f	0.0009999926
26	0xba831268	-0.0009999992
27	0xba83124d	-0.0009999961
28	0xba831262	-0.0009999985
29	0x3a83125c	0.0009999978
30	0xba831260	-0.0009999983
31	0x3a831268	0.0009999992
32	0x3a83124a	0.0009999957
33	0x3a831266	0.000999999
34	0x3a831264	0.0009999988
35	0xba831269	-0.0009999993
36	0x3a831269	0.0009999993
37	0x3a831256	0.0009999971
38	0x3a831219	0.00099999
39	0xba831266	-0.000999999
40	0xba831268	-0.0009999992
41	0xba831262	-0.0009999985
42	0xba831266	-0.000999999
43	0x3a83124f	0.0009999963
44	0x3a831150	0.0009999666
45	0xba831266	-0.000999999
46	0x3a831261	0.0009999984
47	0x3a831208	0.000999988
48	0x3a83125f	0.0009999982
49	0x3a83126a	0.0009999995
50	0xba831262	-0.0009999985
51	0xba831244	-0.000999995
52	0x3a831261	0.0009999984
53	0x3a83120c	0.0009999885
54	0x3a831263	0.0009999987
55	0x3a831235	0.0009999933
56	0xba83125f	-0.0009999982
57	0x3a831267	0.0009999991
58	0xba83126a	-0.0009999995
59	0xba83126b	-0.0009999996
60	0xba831232	-0.000999993
61	0x3a8311e8	0.0009999843
62	0x3a831268	0.0009999992
63	0xba831262	-0.0009999985

in_proj_weight f4 [192, 64]
0	0x3dc5e31c	0.09662458
1	0x3cb311e2	0.021859113
2	0xbc99c65d	-0.018771345
3	0xbdc335c5	-0.0953174
4	0x3d2370f7	0.039902654
5	0xbe15af35	-0.14617617
6	0x3d83302c	0.064056724
7	0xbceebebe	-0.029143687
8	0xbcd96dba	-0.02654158
9	0x3cc96f25	0.02458913
10	0xbd00d1f0	-0.031450212
11	0xbd600847	-0.054695394
12	0xbc3ab4b5	-0.011395623
13	0x3df6ef54	0.12057367
14	0x3d64b455	0.05583604
15	0xbdf7101f	-0.12063622
16	0x3d95c04d	0.07312069
17	0xbdccb09e	-0.099946246
18	0xbda6ce07	-0.08144765
19	0xbc92aa43	-0.017903453
20	0x3e0ac9ec	0.1355359
21	0x3dab7edf	0.08373808
22	0x3cef701b	0.02922826
23	0x3ced1530	0.028940767
24	0xbd513f38	-0.05108568
25	0xbe0b2757	-0.13589226
26	0x3decc1fa	0.115604356
27	0x3ddc18f4	0.10746947
28	0x3d24117f	0.040055748
29	0x3d86084a	0.0654455
30	0x3e10ecb6	0.14152798
31	0xbbc35615	-0.0059611895
32	0xbdd78d37	-0.105249815
33	0xbe02d2da	-0.12775746
34	0xbd12ee56	-0.035871826
35	0xbc7c261c	-0.015389945
36	0x3d94f4b9	0.0727324
37	0x3ddb280f	0.10701
38	0x3d981259	0.074253745
39	0xbd49ce7d	-0.04926919
40	0x3df8e512	0.12153067
41	0xbe19f311	-0.15034129
42	0x3d614660	0.054998755
43	0xbe060a7b	-0.13089935
44	0x3d8d69a7	0.06904917
45	0xba91036d	-0.0011063643
46	0xbe0f5c93	-0.14000158
47	0x3db619f3	0.08891668
48	0xbdc3affe	-0.09555052
49	0xbdc399cf	-0.09550821
50	0x3da03f20	0.0782454
51	0xbc3a9ffb	-0.011390681
52	0x3d832af0	0.06404674
53	0xbd7a9217	-0.06117448
54	0xbe10f927	-0.14157544
55	0xbd5ef328	-0.05443111
56	0xbd932253	-0.07184281
57	0x3d828e1f	0.06374764
58	0xbdc5bda3	-0.09655311
59	0xbd8e135b	-0.069372855
60	0xbd9dcf96	-0.077056095
61	0x3e0b2eb1	0.1359203
62	0x3d51a845	0.051185865
63	0xbcf0eb2d	-0.029409016
64	0xbd528d3f	-0.051404234
65	0xbd968d6a	-0.07351191
66	0xbc9d76b8	-0.019221649
67	0x3e04cc70	0.12968612
68	0xbd913d02	-0.070917144
69	0x3d236131	0.03988761
70	0x3df27a88	0.11839777
71	0x3dc6153f	0.09672021
72	0x3dcb59c5	0.099292316
73	0xbdd647fd	-0.104629494
74	0xbdc9f0e9	-0.09860403
75	0xbd8ab0fd	-0.06772039
76	0xbe037719	-0.12838401
77	0xbd398ff7	-0.04530331
78	0x3e079a1d	0.13242383
79	0x3dcae8a2	0.099076524
80	0xbe0a17e8	-0.13485682
81	0x3dc7448a	0.0972987
82	0x3d6469df	0.05576503
83	0x3d7d1119	0.061783884
84	0xbdb04d92	-0.08608545
85	0xbde3c580	-0.111216545
86	0x3e18124d	0.14850731
87	0xbd98f0d2	-0.07467808
88	0xbe17652a	-0.14784685
89	0x3dc8e16b	0.0980862
90	0x3db9985f	0.090622656
91	0x3da238e8	0.0792101
92	0x3e10d7bf	0.141448
93	0x3e1781d7	0.14795624
94	0x3d97b7dc	0.07408115
95	0x3c191f97	0.0093459105
96	0xbd355a74	-0.044275716
97	0xbcf791d4	-0.030220903
98	0xbb937a37	-0.004500653
99	0xbd359278	-0.044329137
100	0xbd88c138	-0.066774786
101	0x3c4edc95	0.012625833
102	0x3a3941ec	0.0007067013
103	0xbd32f2a2	-0.043688424
104	0x3e0c15ea	0.13680235
105	0xbdd96ec2	-0.106168285
106	0x3e0a10b0	0.13482928
107	0x3df5f538	0.120096624
108	0x3d8b559a	0.068034366
109	0xbd9ea992	-0.07747187
110	0x3c54f146	0.012996977
111	0x3d17622e	0.036958866
112	0xbbf58c87	-0.007493559
113	0x3d2545cf	0.040349778
114	0x3b6f3904	0.003650249
115	0x3d8f7c83	0.070061706
116	0xbce4ee4f	-0.027945666
117	0xbdf7186d	-0.12065206
118	0x3bd481dc	0.006485207
119	0xbe0b5539	-0.13606729
120	0x3d96c9d2	0.07362713
121	0xbd997b6c	-0.07494244
122	0xbd179172	-0.03700394
123	0xbd29f53e	-0.041493647
124	0xbddb1c8b	-0.106988035
125	0x39c5c9b9	0.00037725063
126	0x3c9c1d05	0.019056806
127	0x3d75f8f6	0.06005188
128	0xbda9a28c	-0.082829565
129	0xbe191a31	-0.14951397
130	0xbdb150ee	-0.08658014
131	0xbd7b1ab5	-0.061304767
132	0x3df9c6f5	0.12196151
133	0x3e0b83fe	0.1362457
134	0xbd856bac	-0.065146774
135	0xbe11ea4f	-0.14249538
136	0xbd2f2e82	-0.042768963
137	0xbc861348	-0.016366616
138	0x3df17f57	0.11791866
139	0x3d3d5f60	0.046233535
140	0x3d513e4f	0.051084813
141	0x3c4e76ef	0.012601598
142	0x3e1d7739	0.15377511
143	0xbd3c8e34	-0.046034053
144	0x3e189230	0.14899516
145	0x3d6057c1	0.05477119
146	0x3ddce077	0.10785001
147	0xbd2a826d	-0.04162829
148	0xbd7918b7	-0.060814586
149	0xbd90e5aa	-0.07075055
150	0xbda5547d	-0.080727555
151	0x3e0e5356	0.13898978
152	0x3dea49b6	0.114398405
153	0x3d9788b3	0.0739912
154	0x3dc05e4f	0.09392988
155	0xbc50ccba	-0.012744123
156	0x3c8b8454	0.017030872
157	0xbe06aaa8	-0.13151038
158	0xbd3e59fc	-0.046472535
159	0x3de5ab71	0.112143405
160	0x3dca34f2	0.0987338
161	0xbdc38128	-0.09546119
162	0xbb2a8763	-0.0026020638
163	0xbcfb19fc	-0.030652039
164	0xbcae0a01	-0.021245005
165	0x3c7576c3	0.014981928
166	0x3cf3be5d	0.029753858
167	0xbdf10c08	-0.11769873
168	0x3e0d8dfa	0.13823691
169	0xbdaef618	-0.085430324
170	0xbd918baf	-0.07106721
171	0x3dc8a6c7	0.09797435
172	0xbc586e93	-0.013209957
173	0x3ceaa8c1	0.028644921
174	0x3d9a154a	0.07523592
175	0xbda4c4f6	-0.0804538
176	0xbd6de99a	-0.058084108
177	0x3d8d1ccc	0.06890258
178	0xbd032c12	-0.03202445
179	0x3d489962	0.048974402
180	0x3e199672	0.14998797
181	0xbdc7ca46	-0.097553775
182	0xbd71c857	-0.05902895
183	0x3dec4993	0.11537471
184	0xbd526537	-0.051366057
185	0xbdfd310d	-0.12362871
186	0xbd26608c	-0.040619418
187	0x3dfabb94	0.12242809
188	0xbd3fdbfd	-0.046840657
189	0x3d0fd2db	0.035113197
190	0x3e045f1a	0.12926903
191	0x3bc59ac1	0.006030411
192	0x3cdf016d	0.02722236
193	0x3d9c4746	0.07630782
194	0xbc2839fc	-0.010267731
195	0x3dfbf264	0.12302092
196	0x3d249af7	0.04018685
197	0x3e02071e	0.12698027
198	0xbdcdc5f7	-0.100475244
199	0xbd993104	-0.07480052
200	0xbd2c66a1	-0.042090062
201	0xbdd63656	-0.104595825
202	0x3d2588c3	0.04041363
203	0xbdab2c1f	-0.08358025
204	0xbd6751d3	-0.056474518
205	0x3be15817	0.006876956
206	0x3db41110	0.08792317
207	0x3db9d8ef	0.0907458
208	0x3d1a6673	0.03769536
209	0x3dcf6c34	0.1012806
210	0x3d4328fc	0.047646508
211	0xbdd6de64	-0.104916364
212	0x3de57531	0.11203993
213	0xbdd58e5f	-0.10427546
214	0xbc4fcb77	-0.012682787
215	0x3dbd6cc5	0.09249262
216	0x3dfbccb2	0.12294902
217	0x3e0afd8c	0.13573283
218	0xbdb6b42f	-0.08921086
219	0xbcfaf5d1	-0.030634793
220	0x3dc8845d	0.09790871
221	0x3d219695	0.039450247
222	0xbc99c8bb	-0.018772474
223	0xbd9ef80d	-0.07762156
224	0x3b0d9c38	0.0021608006
225	0xbd1e7557	-0.038686123
226	0xbe0f3709	-0.13985838
227	0xbdbb8f65	-0.0915821
228	0x3c1ef98c	0.009703051
229	0xbc0c300d	-0.008556378
230	0xbe184806	-0.14871225
231	0x3bbb110d	0.0057088197
232	0xbd1c0f7c	-0.038100705
233	0xbda9443a	-0.08264966
234	0x3db12504	0.08649638
235	0xbba99dae	-0.0051762676
236	0xbd2396b7	-0.039938655
237	0x3d20dbec	0.039272234
238	0x3d6aab1f	0.0572921
239	0x3d55d31f	0.052203294
240	0x3e190806	0.14944467
241	0x3d59fb60	0.053218246
242	0x3e1adaca	0.15122524
243	0x3e168638	0.14699638
244	0x3e1ba145	0.15198238
245	0xbd5a6ded	-0.05332749
246	0x3c880c8d	0.016607547
247	0xbaf8e9e8	-0.0018990608
248	0x3e19c536	0.15016636
249	0x3d96bda8	0.07360393
250	0xbd6867e8	-0.056739718
251	0xbd560e2c	-0.05225961
252	0xbe00d8f7	-0.12582766
253	0x3cc4be2b	0.02401646
254	0xbd3506a8	-0.0441958
255	0xbc87f2e0	-0.016595304

in_proj_bias f4 [192]
0	0xba83024b	-0.000999519
1	0xba829d3e	-0.0009965075
2	0x3a82fe80	0.000999406
3	0xba82feb7	-0.0009994124
4	0x3a82fcb0	0.000999352
5	0x3a828c62	0.000996005
6	0xba82d509	-0.0009981702
7	0x3a82fcf7	0.0009993602
8	0x3a82e0c6	0.0009985201
9	0x3a82fb1b	0.0009993048
10	0x3a83087a	0.0009997033
11	0xba82ca6c	-0.0009978539
12	0xba82fb9d	-0.00099932
13	0xba82fd2b	-0.0009993663
14	0x3a82f7fd	0.0009992119
15	0x3a8305c9	0.0009996231
16	0x3a82eb13	0.000998827
17	0x3a82e7f2	0.0009987338
18	0x3a82cc34	0.000997907
19	0x3a82fb4b	0.0009993104
20	0xba830560	-0.0009996109
21	0x3a8294bb	0.0009962538
22	0xba82de00	-0.0009984374
23	0xba82ec2b	-0.0009988596
24	0x3a82f124	0.0009990078
25	0xba830207	-0.0009995111
26	0x3a830410	0.0009995718
27	0x3a82fc5f	0.0009993425
28	0xba830672	-0.0009996428
29	0x3a82da09	0.0009983192
30	0xba82ef92	-0.000998961
31	0xba82f9f7	-0.0009992708
32	0xba82faa6	-0.0009992912
33	0xba82f2e9	-0.0009990606
34	0x3a82ffc4	0.0009994437
35	0x3a82f015	0.0009989763
36	0x3a82f2d9	0.0009990587
37	0x3a82f487	0.0009991088
38	0x3a82feb7	0.0009994124
39	0x3a82fef2	0.0009994193
40	0xba82f6b2	-0.0009991734
41	0x3a82ffcf	0.000999445
42	0x3a810e5b	0.0009846197
43	0x3a82f169	0.0009990159
44	0x3a82fb26	0.0009993061
45	0xba82f283	-0.0009990487
46	0x3a82e0b7	0.0009985183
47	0x3a83040f	0.0009995716
48	0xba82fd24	-0.0009993655
49	0x3a82fc79	0.0009993456
50	0xba830086	-0.0009994663
51	0xba82ed0f	-0.0009988862
52	0x3a817d58	0.0009879274
53	0x3a82da0b	0.0009983195
54	0xba8303bf	-0.0009995623
55	0xba82fb0b	-0.000999303
56	0x3a82bdd2	0.0009974784
57	0xba82f25d	-0.0009990443
58	0xba82eeaf	-0.0009989346
59	0x3a82a31e	0.0009966826
60	0xba81bf48	-0.0009898925
61	0xba82f936	-0.0009992484
62	0x3a82d3d7	0.0009981346
63	0xba82e143	-0.0009985346
64	0xb3742073	-5.684019e-08
65	0x00000000	0.0
66	0xb3434db9	-4.5472664e-08
67	0xb50635d0	-4.99972e-07
68	0xb4c33dd2	-3.636656e-07
69	0xb4988b66	-2.8413632e-07
70	0xb507bc0c	-5.0565063e-07
71	0x351e9900	5.908223e-07
72	0x34bd2470	3.5230505e-07
73	0xb4371302	-1.7050118e-07
74	0xb42adf09	-1.5913623e-07
75	0x352aca2a	6.362412e-07
76	0x346dfbfe	2.2164019e-07
77	0x34b0f192	3.295832e-07
78	0xb4371302	-1.7050118e-07
79	0xb45bae7e	-2.0459444e-07
80	0xb5e17364	-1.679739e-06
81	0xb592531f	-1.0902039e-06
82	0xb518804e	-5.681112e-07
83	0x33dbb440	1.02307695e-07
84	0xb55b8bfe	-8.1787573e-07
85	0x3464d544	2.131174e-07
86	0x341276e3	1.364056e-07
87	0x345bae7e	2.0459444e-07
88	0x34aad813	3.1822182e-07
89	0xb4f58ddc	-4.5738022e-07
90	0x35cc2822	1.5210865e-06
91	0xb5388124	-6.8733266e-07
92	0x34bd2470	3.5230505e-07
93	0xb4ba17bb	-3.4662466e-07
94	0xb483318b	-2.44367e-07
95	0x3487c4d6	2.5288927e-07
96	0xb3f41ce5	-1.1367391e-07
97	0xb52aca2a	-6.362412e-07
98	0xb34f826f	-4.8314572e-08
99	0xb3927972	-6.8207456e-08
100	0x3461c858	2.1027643e-07
101	0x33c34b74	9.09412e-08
102	0x34371302	1.7050118e-07
103	0x34f40797	4.5454064e-07
104	0xb49271c6	-2.72774e-07
105	0xb3127ab9	-3.410489e-08
106	0x33434db9	4.5472664e-08
107	0x34371302	1.7050118e-07
108	0xb3927972	-6.8207456e-08
109	0x33dbb440	1.02307695e-07
110	0x341276e3	1.364056e-07
111	0x34c33dd2	3.636656e-07
112	0x34002896	1.1935694e-07
113	0xb512678d	-5.4539925e-07
114	0x3518804e	5.681112e-07
115	0x33f41ce5	1.1367391e-07
116	0x34e7d55c	4.3182342e-07
117	0xb55e97f5	-8.292257e-07
118	0xb4d589c0	-3.9774568e-07
119	0xb5001cd7	-4.7725683e-07
120	0xb2c34edd	-2.273685e-08
121	0xb5db5e10	-1.6344147e-06
122	0x33c34b74	9.09412e-08
123	0xb4cf7079	-3.863859e-07
124	0x347415cb	2.2732199e-07
125	0x345bae7e	2.0459444e-07
126	0x33c34b74	9.09412e-08
127	0x34fd2d2c	4.715779e-07
128	0xba831269	-0.0009999993
129	0xba83126b	-0.0009999996
130	0xba831252	-0.0009999967
131	0xba831268	-0.0009999992
132	0xba831267	-0.0009999991
133	0xba831267	-0.0009999991
134	0xba831259	-0.0009999975
135	0xba83126b	-0.0009999996
136	0xba831269	-0.0009999993
137	0xba83126b	-0.0009999996
138	0x3a83126d	0.0009999998
139	0x3a83125b	0.0009999977
140	0xba83125b	-0.0009999977
141	0x3a83126a	0.0009999995
142	0x3a83126b	0.0009999996
143	0xba83126b	-0.0009999996
144	0x3a83126a	0.0009999995
145	0xba83123d	-0.0009999942
146	0x3a831262	0.0009999985
147	0xba831260	-0.0009999983
148	0x3a83126b	0.0009999996
149	0x3a831269	0.0009999993
150	0xba831268	-0.0009999992
151	0xba83126b	-0.0009999996
152	0x3a83125d	0.000999998
153	0x3a831269	0.0009999993
154	0x3a831261	0.0009999984
155	0x3a83126a	0.0009999995
156	0x3a831269	0.0009999993
157	0xba83126c	-0.0009999997
158	0x3a83126a	0.0009999995
159	0x3a83126a	0.0009999995
160	0xba831268	-0.0009999992
161	0xba83126a	-0.0009999995
162	0xba83122e	-0.0009999925
163	0xba831266	-0.000999999
164	0xba83126b	-0.0009999996
165	0x3a83126b	0.0009999996
166	0x3a83126a	0.0009999995
167	0xba831268	-0.0009999992
168	0xba83126b	-0.0009999996
169	0xba831257	-0.0009999973
170	0x3a831268	0.0009999992
171	0xba831262	-0.0009999985
172	0xba83125f	-0.0009999982
173	0xba831269	-0.0009999993
174	0x3a831267	0.0009999991
175	0x3a83126b	0.0009999996
176	0x3a831267	0.0009999991
177	0xba831243	-0.0009999949
178	0xba831269	-0.0009999993
179	0x3a83125d	0.000999998
180	0xba83126b	-0.0009999996
181	0xba831265	-0.0009999989
182	0x3a83126b	0.0009999996
183	0xba831241	-0.0009999947
184	0x3a83126c	0.0009999997
185	0x3a831260	0.0009999983
186	0x3a83125a	0.0009999976
187	0x3a831269	0.0009999993
188	0x3a831266	0.000999999
189	0xba831262	-0.0009999985
190	0x3a831264	0.0009999988
191	0xba831258	-0.0009999974

weight f4 [64, 64]
0	0x3dc0c97c	0.0941343
1	0xbd50d3b2	-0.05098314
2	0x3dc2e922	0.09517123
3	0x3e1e35c5	0.15450199
4	0x3e3db9b2	0.18527868
5	0xbe4b86f3	-0.19875698
6	0xbdd1db01	-0.1024685
7	0xbd1a9b52	-0.03774578
8	0x3e34380c	0.17599505
9	0xbbcd3603	-0.006262542
10	0xbe281a96	-0.16416392
11	0xbe3e978d	-0.186125
12	0xbda4c07e	-0.080445275
13	0x3e55084a	0.20803943
14	0xbd908cf4	-0.07058135
15	0xbe3e8124	-0.1860395
16	0xbd84a434	-0.06476632
17	0x3e37f87b	0.17965882
18	0x3dcf3c0d	0.10118876
19	0xbc327027	-0.010890997
20	0x3d940bc3	0.07228806
21	0x3e23ca50	0.15995145
22	0xbe0508b0	-0.12991595
23	0x3dba734d	0.09104023
24	0xbe514490	-0.20436311
25	0x3e4d7c06	0.20066842
26	0xbe15b79f	-0.14620827
27	0xbd9ba8a1	-0.07600523
28	0xbdc4b455	-0.09604708
29	0xbe0af4e3	-0.1356998
30	0x3e49d516	0.19710192
31	0xbdecf6fe	-0.115705475
32	0xbd2fa26f	-0.042879518
33	0xbe5a7a76	-0.21335778
34	0x3c2cb988	0.010542281
35	0xbe0ed756	-0.13949332
36	0xbdcd421a	-0.100223735
37	0xbd829aff	-0.063772194
38	0x3cdd7117	0.027031465
39	0xbe19f1b6	-0.15033612
40	0x3e11e713	0.14248304
41	0xbd9fad57	-0.07796734
42	0x3e433e60	0.19066763
43	0xbdb53969	-0.08848841
44	0xbe083333	-0.13300781
45	0x3e00ed2f	0.12590478
46	0x3dfe5bca	0.12419851
47	0x3e0e5b4c	0.13902014
48	0x3e25ede0	0.16204023
49	0x3e0108b1	0.12600972
50	0x3e1e855b	0.15480559
51	0x3d855033	0.065094374
52	0x3d5758be	0.052574866
53	0xbd2afb3b	-0.0417435
54	0x3e1baeab	0.1520335
55	0xbd1fb385	-0.038989563
56	0x3d87f11f	0.06637787
57	0x3e4e8e16	0.20171389
58	0xbdcb83ea	-0.0993727
59	0x3df57a2f	0.11986195
60	0x3e27b5ae	0.16377899
61	0x3d8235fb	0.06357952
62	0x3e5b9672	0.21444109
63	0xbe0e4815	-0.13894685
64	0x3e14dec0	0.14538097
65	0xbe5e3bc9	-0.21702494
66	0x3dc9b613	0.09849181
67	0xbe05605a	-0.13025036
68	0x3db633d8	0.08896607
69	0xbe107f5c	-0.14111084
70	0xbe4d6ab1	-0.20060231
71	0x3dfef3df	0.124488585
72	0x3b6908bc	0.0035558185
73	0x3e10849a	0.14113083
74	0x3d87fe45	0.06640295
75	0xbe28174f	-0.16415142
76	0xbe2d5e13	-0.16930418
77	0x3e2123c7	0.15736304
78	0x3db7d696	0.08976476
79	0x3dfcdc22	0.123466745
80	0x3d6fb652	0.058523484
81	0xbe31812b	-0.1733443
82	0xbddb4a18	-0.10707492
83	0x3da6f361	0.081518896
84	0xbd09ac62	-0.033611663
85	0x3e482758	0.19546258
86	0x3dda7bf0	0.106681705
87	0x3e5178e8	0.20456278
88	0xbddeefe3	-0.108855985
89	0x3c0f3eeb	0.008743028
90	0x3cb35108	0.021889225
91	0x3dc745be	0.09730099
92	0x3e133e25	0.14379175
93	0xbdc6a1ce	-0.096988305
94	0x3e30e12f	0.172734
95	0x3d1c62de	0.038180225
96	0xbe57106e	-0.21002361
97	0x3e2e1ab7	0.17002378
98	0xbd2b9408	-0.04188922
99	0x3e15524a	0.14582172
100	0x3a823e26	0.0009936735
101	0xbd7ec290	-0.062197268
102	0xbe468ec7	-0.19390403
103	0xbd83f9e6	-0.06444149
104	0xbd91668b	-0.07099637
105	0x3e448dc5	0.19194706
106	0x3d4869c8	0.048929006
107	0x3e53ff22	0.20702794
108	0x3d8507de	0.06495641
109	0x3de5be84	0.112179786
110	0xbc045e4a	-0.008079121
111	0x3e1e1722	0.15438512
112	0xbcba618a	-0.022751588
113	0x3e0283b1	0.12745549
114	0xbe0b0d0e	-0.13579199
115	0x3dd82be0	0.105552435
116	0xbdb0b3dc	-0.086280555
117	0xbd8d9ad6	-0.06914298
118	0xbe298065	-0.16552885
119	0xbe37c906	-0.17947778
120	0x3cc79ef6	0.02436779
121	0x3b7641ee	0.0037575918
122	0xbd069a81	-0.03286219
123	0x3c8a6176	0.016892176
124	0x3df358f4	0.11882201
125	0xbdc7f913	-0.09764304
126	0xbdb46907	-0.08809095
127	0xbd574bdb	-0.052562576
128	0x3e3bb079	0.18329038
129	0x3db06589	0.08613116
130	0xbc89133b	-0.016732803
131	0x3e22f1ae	0.15912506
132	0x3db50f77	0.0884084
133	0x3e2e65b1	0.1703098
134	0xbdbf8e22	-0.093532816
135	0x3e1e09f2	0.15433481
136	0xbcba6ed2	-0.022757921
137	0x3e0ddda2	0.13854077
138	0xbdcad7fb	-0.09904476
139	0x3e01e64a	0.12685505
140	0x3e0beb24	0.13663918
141	0xbcb7682c	-0.02238854
142	0x3c044739	0.008073621
143	0xbc64590a	-0.013937244
144	0xbe3cd776	-0.18441567
145	0xbd692af7	-0.05692574
146	0x3e3cd35a	0.18439999
147	0x3e18fb67	0.14939652
148	0xbe0d940a	-0.13826004
149	0x3deb26c7	0.114820056
150	0x3e0c1a0c	0.13681811
151	0x3ddb1950	0.10698187
152	0x3e383ed3	0.17992716
153	0xbe4ae71a	-0.19814721
154	0x3bcc1a93	0.006228754
155	0x3dac20bd	0.08404682
156	0x3e46a638	0.19399345
157	0x3ddce1ee	0.1078528
158	0x3da0beff	0.078489296
159	0xbe0113fb	-0.12605278
160	0xbe0e0568	-0.1386925
161	0x3e29553f	0.16536425
162	0xbe0ec452	-0.13942078
163	0xbe04e528	-0.12978041
164	0xbd8ffe3d	-0.07030914
165	0xbe0b9805	-0.1363221
166	0xbd833a38	-0.06407589
167	0xbdc23955	-0.094835915
168	0xbd50c1e1	-0.050966147
169	0x3d278c4c	0.040905282
170	0xbde488c8	-0.111589015
171	0x3e29b7f9	0.16574086
172	0xbd18be4c	-0.037290856
173	0xbe3e9906	-0.18613061
174	0x3d9f7511	0.077860005
175	0xbe08ee96	-0.13372263
176	0x3e1c90ca	0.15289608
177	0x3db84984	0.08998397
178	0xbe00371d	-0.12521024
179	0xbe1b9ab0	-0.15195727
180	0x3e0eede2	0.13957933
181	0x3db3b7df	0.08775305
182	0xbd521c38	-0.051296443
183	0xbd01ef85	-0.031722564
184	0xbe36ad15	-0.17839463
185	0xbdfb9594	-0.12284389
186	0x3e0c54c4	0.1370421
187	0x3da2beb9	0.07946534
188	0xbda044f7	-0.07825654
189	0x3e1a6e72	0.15081194
190	0xbe4b7321	-0.19868137
191	0x3e48ecfe	0.19621655
192	0xbe0872ef	-0.13325094
193	0xbdacc367	-0.084357075
194	0x3c4bf057	0.012447438
195	0x3dbac17a	0.09118934
196	0xbd447ba9	-0.047969494
197	0xbc8b7bd9	-0.017026829
198	0x3dc53af9	0.09630389
199	0xbdb93b7b	-0.09044548
200	0xbd5ed703	-0.05440427
201	0xbe06548f	-0.13118194
202	0xbd8f483b	-0.06996199
203	0xbe58a019	-0.21154822
204	0xbe25b6fb	-0.16183083
205	0xba1b6015	-0.0005927098
206	0xbe378107	-0.17920314
207	0xbe09fc24	-0.1347509
208	0xbc91462e	-0.01773366
209	0xbd88f67d	-0.06687639
210	0xbd546b55	-0.051860172
211	0x3cdb51f5	0.026772479
212	0x3e468c57	0.19389473
213	0x3d6cad23	0.057782304
214	0xbc1a87f7	-0.009431831
215	0xbe40deaa	-0.1883494
216	0x3e17547d	0.14778323
217	0x3daa3594	0.083110005
218	0xbd2b0db4	-0.041761115
219	0xbe46a550	-0.19398999
220	0xbe425968	-0.18979418
221	0x3d67f80b	0.056633037
222	0x3da16af2	0.07881726
223	0xbdcf78f8	-0.10130495
224	0x3e54755f	0.20747899
225	0xbe5bbdd7	-0.21459137
226	0x3ced3f7e	0.02896094
227	0xbdf07bc3	-0.11742356
228	0x3ded755b	0.115946494
229	0xbd357f52	-0.044310875
230	0xbe468618	-0.1938709
231	0xbcf0208a	-0.02931239
232	0xbd2bedfc	-0.041975006
233	0x3d3ee498	0.046604723
234	0xbe1cc232	-0.15308455
235	0x3e5c210e	0.21496984
236	0xbd269424	-0.04066862
237	0x3e4dd9a2	0.20102552
238	0x3e08b623	0.1335073
239	0xbe454269	-0.19263615
240	0x3d095313	0.03352649
241	0xbe451b47	-0.19248687
242	0x3d7292fa	0.0592222
243	0x3d6826db	0.05667768
244	0x3e5367d2	0.20645073
245	0x3dfc586b	0.12321552
246	0xbe380f99	-0.179747
247	0xbc8c487f	-0.017124413
248	0x3d14313f	0.036179777
249	0xbc294f88	-0.010333903
250	0xbdf71d2e	-0.120661125
251	0x3d5e5530	0.05428046
252	0xbd50274e	-0.050818734
253	0xbda4ed09	-0.08053023
254	0x3d5f26e2	0.05448044
255	0x3d948733	0.0725235

bias f4 [64]
0	0x3a83126b	0.0009999996
1	0x3a831264	0.0009999988
2	0xba831268	-0.0009999992
3	0xba83125f	-0.0009999982
4	0x3a83126b	0.0009999996
5	0xba831262	-0.0009999985
6	0x3a831262	0.0009999985
7	0xba831254	-0.0009999969
8	0x3a831268	0.0009999992
9	0x3a831266	0.000999999
10	0xba83126c	-0.0009999997
11	0x3a831268	0.0009999992
12	0xba83126a	-0.0009999995
13	0x3a831268	0.0009999992
14	0xba83125f	-0.0009999982
15	0x3a831269	0.0009999993
16	0x3a831251	0.0009999966
17	0x3a83126b	0.0009999996
18	0xba83126d	-0.0009999998
19	0x3a831264	0.0009999988
20	0x3a831266	0.000999999
21	0xba831269	-0.0009999993
22	0x3a83126a	0.0009999995
23	0xba83126a	-0.0009999995
24	0xba831269	-0.0009999993
25	0x3a831267	0.0009999991
26	0xba83126b	-0.0009999996
27	0xba831269	-0.0009999993
28	0xba83126b	-0.0009999996
29	0x3a83125b	0.0009999977
30	0x3a831254	0.0009999969
31	0x3a831269	0.0009999993
32	0x3a83125e	0.0009999981
33	0x3a831250	0.0009999964
34	0x3a83125d	0.000999998
35	0xba831266	-0.000999999
36	0x3a83126b	0.0009999996
37	0xba831267	-0.0009999991
38	0x3a831266	0.000999999
39	0x3a831206	0.0009999878
40	0xba83126b	-0.0009999996
41	0xba831267	-0.0009999991
42	0x3a831252	0.0009999967
43	0xba831264	-0.0009999988
44	0x3a831268	0.0009999992
45	0x3a83125b	0.0009999977
46	0x3a831269	0.0009999993
47	0x3a831268	0.0009999992
48	0xba831267	-0.0009999991
49	0x3a83126b	0.0009999996
50	0x3a831267	0.0009999991
51	0xba83125f	-0.0009999982
52	0x3a83126b	0.0009999996
53	0xba831266	-0.000999999
54	0xba831264	-0.0009999988
55	0xba831267	-0.0009999991
56	0xba83126a	-0.0009999995
57	0x3a83126b	0.0009999996
58	0xba83126b	-0.0009999996
59	0xba831267	-0.0009999991
60	0xba831237	-0.0009999935
61	0x3a83114c	0.0009999662
62	0x3a831260	0.0009999983
63	0x3a831255	0.000999997

weight f4 [256, 64]
0	0x3e050793	0.1299117
1	0x3dbc4ae0	0.09193969
2	0xbd88e1d9	-0.06683702
3	0xbd3dc663	-0.046331774
4	0x3dd13953	0.10216012
5	0x3d33c32b	0.0438873
6	0xbd519f64	-0.051177397
7	0x3d59937e	0.053119175
8	0xbc2bbd90	-0.010482207
9	0x3db7eebd	0.089810826
10	0xbdc541e0	-0.09631705
11	0x3e091237	0.13385855
12	0x3d2ecbb3	0.04267473
13	0x3da77462	0.08176495
14	0x3d1f76a0	0.03893149
15	0xbcba76dd	-0.022761757
16	0x3b4c7eee	0.0031203586
17	0x3c4cfb84	0.012511138
18	0xbd986c32	-0.074425116
19	0xbbe17ba9	-0.0068811965
20	0xbdf29091	-0.1184398
21	0xbe072f09	-0.13201536
22	0xbb186e0d	-0.0023258955
23	0xbccc3cb0	-0.024931282
24	0x3dc4191b	0.09575101
25	0xbc953ecf	-0.018218426
26	0xbe0a676e	-0.13516018
27	0xbdccba53	-0.09996476
28	0x3d6db514	0.058034018
29	0x3d0f6053	0.03500397
30	0x3bc109f5	0.0058910795
31	0x3c7aba0a	0.015303144
32	0xbd400deb	-0.046888273
33	0xbdae0bd6	-0.08498351
34	0x3d053360	0.0325197
35	0xbddf0c51	-0.10891021
36	0x3d8157c8	0.06315571
37	0xbd892ce0	-0.06698012
38	0x3cbbf240	0.022942662
39	0x3d52eb61	0.051494006
40	0xbdd75f7f	-0.10516261
41	0xbd44f75c	-0.048087463
42	0x3de2d613	0.11075988
43	0xba936106	-0.0011244125
44	0xbdf66cd8	-0.12032479
45	0xbd9ec2dd	-0.07752011
46	0xbc8b4acf	-0.017003445
47	0x3c7d3f0f	0.015456929
48	0x3d8066aa	0.062695816
49	0x3da4e428	0.0805133
50	0xbe074664	-0.13210446
51	0x3d5572e8	0.052111536
52	0x3da1c61c	0.078991145
53	0xbdeee125	-0.11664037
54	0xbc4ab4fa	-0.01237225
55	0x3d06ff6d	0.032958437
56	0x3d21f423	0.039539468
57	0x3d3fe353	0.046847653
58	0x3e0890c8	0.1333648
59	0x3c2ececa	0.01066942
60	0x3db49256	0.08816974
61	0x3da0d4e5	0.078531064
62	0x3ccffdeb	0.025389632
63	0xbc01f523	-0.00793198
64	0xbd7f918c	-0.062394664
65	0xbdad646e	-0.08466421
66	0xbdf17710	-0.117902875
67	0xbdcacbf3	-0.099021815
68	0xbdbbcaa3	-0.09169509
69	0xbdceb66e	-0.100933895
70	0x3db0f096	0.08639638
71	0xbe094a69	-0.13407291
72	0xbdd2de0f	-0.102962606
73	0xbe01d58d	-0.1267912
74	0xbdb4508f	-0.08804428
75	0x3db12b0d	0.086507894
76	0x3b0afbb3	0.0021207153
77	0x3e0b0f9f	0.13580178
78	0x3de77c4c	0.113030046
79	0xbdaf25dc	-0.08552143
80	0xbd63f63a	-0.05565474
81	0x3d38d1fa	0.045122124
82	0x3d0eb63a	0.034841754
83	0xbda1884f	-0.07887327
84	0xbd2e56ee	-0.04256337
85	0xbd81d3f6	-0.063392565
86	0x3d3e3b4e	0.046443276
87	0xbd9bc3ab	-0.0760568
88	0xbdc96ab0	-0.09834802
89	0xbe0333f9	-0.12812795
90	0x3e04c521	0.12965824
91	0x3de5a96c	0.11213955
92	0x3cc75bb0	0.024335712
93	0xbc9c96b1	-0.019114824
94	0x3d7222ef	0.059115347
95	0xbd8b0576	-0.06788151
96	0xbda532f2	-0.08066358
97	0xbd3aa169	-0.04556409
98	0xbda87628	-0.082256615
99	0x3ca84a07	0.020543111
100	0xbd2ca617	-0.042150583
101	0xbbe5586e	-0.006999067
102	0x3d9ee1c3	0.077579044
103	0x3a3c2060	0.0007176455
104	0x3d7fb9e8	0.062433153
105	0xbc9bf3d1	-0.01903716
106	0x3c947f5f	0.018127142
107	0xbdf0901a	-0.11746235
108	0xbc74b256	-0.014935097
109	0xbd99cca4	-0.07509735
110	0xbde1642a	-0.11005433
111	0xbdd31b64	-0.10307959
112	0xbd97d619	-0.07413883
113	0x3d834d5f	0.06411242
114	0x3da4e5ef	0.08051669
115	0x3d7409cd	0.05957966
116	0x3e076993	0.13223867
117	0x3c12990e	0.008947624
118	0x3c63f4d5	0.013913353
119	0xbdd92cf3	-0.106042765
120	0xbd6371b4	-0.055528358
121	0x3d840268	0.064457715
122	0x3c753a55	0.014967521
123	0x3dfbae7f	0.12289142
124	0x3ddc46c2	0.107556835
125	0xbdfa1aee	-0.12212168
126	0xbda3fd76	-0.08007328
127	0x3d08446f	0.03326839
128	0xbd858eb4	-0.06521359
129	0x3d7c0d93	0.061536383
130	0x3c5fb815	0.013654728
131	0xbda3f729	-0.080061264
132	0x3e0a9b39	0.13535775
133	0xbc4ac1ae	-0.012375278
134	0xbcf9505d	-0.030433828
135	0xbdd4ce32	-0.10390891
136	0xbd92e0a2	-0.071717516
137	0xbd9c0d4b	-0.07619723
138	0xbdb69d6e	-0.08916746
139	0xbdf89eab	-0.121396385
140	0x3d8c8d5d	0.068629004
141	0xbd367b73	-0.044551324
142	0x3de9fb61	0.114249
143	0xbd4895a0	-0.04897082
144	0x3cf2144b	0.029550692
145	0xbdf8e1e6	-0.12152462
146	0x3d116051	0.035492245
147	0xbd13fa32	-0.036127277
148	0xbbb055b4	-0.0053813104
149	0xbd8f4f73	-0.069975756
150	0x3d03d01f	0.0321809
151	0xbe0a7c66	-0.13524017
152	0xbcbf44bc	-0.023348205
153	0x3ddc4452	0.107552186
154	0xbdb8c371	-0.090216525
155	0x3db331da	0.08749743
156	0x3c708ffe	0.014682768
157	0x3d6f4673	0.058416795
158	0xbde9c5fa	-0.11414714
159	0xbda40140	-0.08008051
160	0xbd069064	-0.032852545
161	0xbd315eb5	-0.04330321
162	0x3d9dece4	0.07711199
163	0xbdf52983	-0.11970808
164	0x3dd75b0f	0.10515415
165	0xbdf0bcbf	-0.117547505
166	0xbdc0a41e	-0.09406303
167	0xbddd0f4a	-0.10793932
168	0xbd360817	-0.04444131
169	0xbdab2992	-0.08357538
170	0xbe091a55	-0.13388951
171	0x3cd3bab0	0.025845855
172	0xbdc9ad33	-0.09847488
173	0xbce0cf92	-0.027442727
174	0x3d53136e	0.0515322
175	0x3dd41081	0.1035471
176	0xbe0886e3	-0.13332705
177	0xbdc8a01c	-0.097961634
178	0xbd366088	-0.044525653
179	0x3e0c12bc	0.13679022
180	0xbe040dff	-0.12895964
181	0xbdf46eba	-0.11935182
182	0xbc7f67cf	-0.015588715
183	0xbc855f2e	-0.016280737
184	0xbd5aa67d	-0.05338143
185	0x3d989b0c	0.07451448
186	0x3d91c586	0.07117753
187	0xbe006852	-0.12539795
188	0xbe0a1458	-0.13484323
189	0x3da6f802	0.081527725
190	0x3b6573f6	0.0035011745
191	0x3e04ee2f	0.12981485
192	0x3ddb5e4e	0.107113466
193	0x3df09717	0.11747568
194	0x3c43cc13	0.011950511
195	0xbc13740c	-0.008999836
196	0xbd95349e	-0.072854266
197	0x3ddc2b98	0.10750502
198	0x3c9d7e49	0.019225257
199	0xbe0a3dd3	-0.13500147
200	0xbcf536ef	-0.029933421
201	0xbc670ee6	-0.014102673
202	0xbd2f4ebb	-0.042799693
203	0x3dd9936e	0.10623823
204	0x3bebf4be	0.0072008064
205	0xbe014c92	-0.12626866
206	0xbc9b8bfd	-0.01898765
207	0xbd57dde8	-0.05270186
208	0x3b9aee93	0.0047281473
209	0x3dff8fa9	0.12478573
210	0x3d670f64	0.056411162
211	0xbd8cc35f	-0.068732016
212	0xbcfbf733	-0.030757522
213	0xbd69eff2	-0.057113595
214	0xbba60609	-0.0050666374
215	0x3d6dff52	0.05810482
216	0x3d48fc1b	0.04906855
217	0xbd8b59ac	-0.06804213
218	0x3d77c83c	0.060493693
219	0xbd8de2d6	-0.06928031
220	0xbd43807e	-0.04772996
221	0xbc80ae95	-0.015708247
222	0x3b82cf2a	0.003991981
223	0xbc4e2296	-0.012581488
224	0x3d71e84f	0.059059437
225	0x3d71113d	0.05885433
226	0x3bc318a4	0.005953865
227	0xbdfff1af	-0.12497269
228	0xbdb02951	-0.086016305
229	0xbe06b132	-0.13153532
230	0x3d531998	0.05153808
231	0x3d5aa080	0.05337572
232	0xbdfd8498	-0.12378806
233	0xbe045a09	-0.1292497
234	0xbd91a89c	-0.07112238
235	0x3dea7c98	0.114495456
236	0x3d9bba26	0.07603864
237	0xbdb219f8	-0.086963594
238	0xbd3816e3	-0.0449437
239	0xbdc83c47	-0.09777122
240	0xbdc860cc	-0.097840875
241	0xbc170486	-0.009217387
242	0x3e0c73a9	0.13715996
243	0x3d12ca9c	0.035837755
244	0xbd88836f	-0.06665694
245	0xbca555fd	-0.020182604
246	0xbc543a34	-0.01295333
247	0xbe06db67	-0.13169633
248	0x3c2f5fe2	0.010704013
249	0x3dade40c	0.08490762
250	0xbde95bfb	-0.11394497
251	0x3df9de0e	0.12200557
252	0x3e099c1e	0.1343846
253	0x3df2324c	0.118259996
254	0xbd2b6ba3	-0.041850697
255	0x3dd2a9b4	0.102862746
