CNP-model-save-name/saved_models/model_12000.pth (torch, 551172 bytes, 26 tensors)

weight f4 [128, 2]
00000000: 9112 063d 8030 663e 647c 47bd 2d12 a63c
00000010: 4e64 0580 38b9 0480 9c31 423d 5add 673e
00000020: 4dfe 95bd e97b ee3e 42ef a43c a28a ec3c
00000030: 9276 0580 7a5e 0500 4599 a43d a35e 523c
00000040: e166 0500 8957 0580 df5c 0580 435c 0580
00000050: 485a ba07 9b1b ec08 a778 0580 7b68 0580
00000060: 95f0 e13c fa17 503e ec19 0c28 6100 c127
00000070: 9017 35b6 bea5 80b6 fe5e 0500 336e 0580
00000080: 07fa 0abd 9c3c 13bd 066b 0580 4eb8 0380
00000090: 268f 9aba 6faf 2bbb 5a29 48bc fa5c 41bd
000000a0: 5249 923d a5da 413e 7a32 463e bc9c 13be
000000b0: 8300 ab3e b0ae 2abe ae11 b93d eec9 4e3e
000000c0: e311 d43d 531a b3bd da67 0580 f259 0580
000000d0: 906d 0480 9478 0580 50b2 2bbd a5f9 133e
000000e0: 6dd2 27b4 2d6a a0b6 1aa9 88be 918f 193e
000000f0: e614 0c3c ae8f 3cbd a673 0580 5c69 0580
00000100: bd66 3db0 5df3 85af 4698 583d 5817 47be
00000110: eca0 41bb a653 4abc ac0c c63d b93a 1ebe
00000120: 8c94 b33d 20b5 0abe 88be 2cbe 997d 273e
00000130: 6184 0580 9073 0680 ee5b 0580 e86c 0580
00000140: e9b3 863e e404 3dbd 15a8 0580 7557 0580
00000150: 85ad 803e e490 62bd fe8c a439 2aaf a23d
00000160: 252d e53d f461 4f3c 73fc a43d c74f 953d
00000170: 0742 d429 d457 19a9 48e3 3f3e b405 c2be
00000180: ef75 0580 927f 0580 86c3 723e a0be 7d3d
00000190: 9b64 0580 8dd8 3e90 db84 913e 4ee1 953e
000001a0: df94 4f3e bfa7 c83e 455e c2bd b7d6 b03e
000001b0: c3d4 b53e 533b 503e f422 04be 2d6b 113d
000001c0: 8e6c 0500 8059 0580 9287 973c 12a7 14bc
000001d0: fd17 743e 8645 233c e464 0580 3b5e 0500
000001e0: eac3 bd3e 1600 6ebe 225d 40bd 9b6e e13e
000001f0: 1435 81be 51b8 313e d6ba 82be edb0 723e
00000200: 8658 ba3c ae0e 44be fcb8 2019 1516 9fa4
00000210: 133a 8a3d b514 74be b460 b63d 15bf 9cbe
00000220: 945c 1b3e 6dfc 5c3e e3c9 c53e 5d17 d53e
00000230: 4b8a 43be 1b85 3e3d 6aa8 273e ca1d 97be
00000240: af23 693e d25b c93e 1aff 0cbe 3519 dc3e
00000250: ca5e 0580 425f 0580 d24c 97bb 759e 3bbe
00000260: 3e6f 1c3e 7a39 9dbc 0c01 453c 38db a4be
00000270: 077c 24be e55d 95bd 768b b6bd 47dc 093e
00000280: ad5d 0580 4958 0580 ac72 0580 cd67 0580
00000290: de36 a53c 2f09 54bd 1143 4ba9 6b48 f2a8
000002a0: f25e 0500 5b68 0580 5e64 0580 8252 0180
000002b0: 661c 463d d722 203e 2cd9 c9bd a087 4a3e
000002c0: 5dcd 993d f883 813d 50d0 7e3e 485c 443e
000002d0: 1a62 0580 b459 0580 8e79 0580 3d59 0580
000002e0: 2df5 e0bc 9b80 27be c871 0580 455e 0580
000002f0: f8b9 263e c14b fc3d 2498 fd3d 3e78 753d
00000300: 646d 433b c7b8 4fbc b445 d1bd abc9 3bbe
00000310: ed5f 2cb8 6578 a0b9 9eca 919d bcb5 1fac
00000320: cd36 808a 8e0a aa89 005e 0580 036a 0580
00000330: 6096 80bc 2dfd bc3d 0869 0580 d360 0500
00000340: 8354 8bba 361a 1cbb ee5a 8d3d 9ccc 1c3c
00000350: 5492 0500 9e6c 0580 5725 39bd d69b e03d
00000360: 2862 88be ae69 9a3e 9e24 77bd 6645 3e3e
00000370: 7e77 8a3d e0e8 d33c e24e 813d ba6f 2f3d
00000380: d70d 0fbe 003f 50bc b39c 2b3d 6826 2f3c
00000390: f95b 0500 186d 0580 eb8a 3dbd fb25 f5bd
000003a0: 6668 0500 185d 0580 ac58 0580 d55a 0580
000003b0: f44a 4f3d 214d 7a3d e172 0580 8266 0580
000003c0: b55b 0580 4e5e 0580 7651 c7bd d251 5fbd
000003d0: 9cea 2ebb ffec 49bc bbd7 0ebe 807d 29bc
000003e0: a3b7 45be b821 963d 0f69 0500 c22f 0680
000003f0: 34ed c4bd 8bda 3f3c ee03 403d 40cc d5bc
0.03273255 0.22479439 -0.048702613 0.020272339 -4.9516e-40 -4.33786e-40 0.047410592 0.22643033
-0.07323895 0.4657891 0.020133618 0.028874699 -5.01712e-40 4.93069e-40 0.08037046 0.012839946
4.96083e-40 -4.90579e-40 -4.92493e-40 -4.92275e-40 2.8039232e-34 1.4210223e-33 -5.0246e-40 -4.96658e-40
0.027580539 0.20321646 7.777182e-15 5.356867e-15 -2.6984817e-06 -3.833992e-06 4.93254e-40 -4.9871e-40
-0.03392985 -0.035946473 -4.9757e-40 -3.41623e-40 -0.0011791929 -0.0026197096 -0.01221689 -0.04720781
0.07142891 0.18931063 0.19355193 -0.14415258 0.33398828 -0.166682 0.09036575 0.20194218
0.10354974 -0.08745255 -4.96432e-40 -4.91444e-40 -4.06646e-40 -5.02433e-40 -0.0419181 0.144507
-1.562964e-07 -4.780732e-06 -0.26691514 0.14996172 0.008549904 -0.04603546 -5.00664e-40 -4.96973e-40
-6.89038e-10 -2.436548e-10 0.052879594 -0.19442499 -0.002954538 -0.012349045 0.09670386 -0.15452088
0.087685674 -0.13545656 -0.16869557 0.16356505 -5.06666e-40 -5.92469e-40 -4.92156e-40 -4.98246e-40
0.26309136 -0.046147242 -5.19474e-40 -4.90551e-40 0.25132385 -0.05531396 0.00031385565 0.07943566
0.11190251 0.012657631 0.08055963 0.07290607 9.426145e-14 -3.4049003e-14 0.18739045 -0.37894976
-5.01484e-40 -5.04941e-40 0.23707399 0.061949372 -4.95268e-40 -3.7637718e-29 0.28421673 0.29273456
0.20271634 0.3919048 -0.09490637 0.34538814 0.35513887 0.2033513 -0.12903959 0.0355026
4.9812e-40 -4.91284e-40 0.018497262 -0.009073036 0.23837276 0.009965306 -4.9537e-40 4.92981e-40
0.37063533 -0.2324222 -0.04696382 0.44029698 -0.25235808 0.17355467 -0.2553317 0.23700304
0.02274729 -0.19146225 8.3091634e-24 -6.8992667e-17 0.06749358 -0.23836024 0.089051634 -0.30614534
0.15172035 0.21580668 0.3863059 0.41619387 -0.19095723 0.046513658 0.16372839 -0.29514915
0.22767518 0.39327866 -0.13769189 0.4298798 -4.93181e-40 -4.9335e-40 -0.004617312 -0.18322165
0.1527681 -0.019192446 0.012024175 -0.321985 -0.16062938 -0.072932996 -0.08913319 0.13462935
-4.92782e-40 -4.90848e-40 -5.00314e-40 -4.96414e-40 0.020167764 -0.05176657 -4.5133226e-14 -2.6898803e-14
4.93237e-40 -4.96613e-40 -4.95182e-40 -1.21434e-40 0.048366927 0.1563829 -0.098558754 0.197783
0.07509873 0.06323999 0.24884152 0.19175828 -4.9437e-40 -4.91357e-40 -5.02783e-40 -4.9119e-40
-0.027460659 -0.16357653 -4.99995e-40 -4.92995e-40 0.16281879 0.123191364 0.12382534 0.059929125
0.002981984 -0.012678332 -0.10218373 -0.18338649 -4.1097333e-05 -0.0003060728 -3.859068e-21 -2.2696142e-12
-1.2346565e-32 -4.0935937e-33 -4.92898e-40 -4.97207e-40 -0.015696704 0.09227977 -4.96856e-40 4.93911e-40
-0.0010630045 -0.0023819334 0.06902109 0.009570267 5.1167e-40 -4.98142e-40 -0.045201626 0.10967223
-0.26637387 0.30158752 -0.060337655 0.18581161 0.067610726 0.02586788 0.06313874 0.04283116
-0.13970123 -0.012710333 0.041897487 0.010690309 4.92171e-40 -4.98313e-40 -0.04627506 -0.11970135
4.96629e-40 -4.92573e-40 -4.90987e-40 -4.91762e-40 0.05060859 0.061108712 -5.00388e-40 -4.9595e-40
-4.92076e-40 -4.93008e-40 -0.09732334 -0.05452139 -0.002669013 -0.012324571 -0.13949482 -0.010344863
-0.19308333 0.0733065 4.96865e-40 -5.68145e-40 -0.096155554 0.01170982 0.046878748 -0.02609837

bias f4 [128]
00000000: 512c 46be 16e0 313e bf5f 0580 7890 e83d
00000010: b35f 8fbe d5be 26bd d45d 0580 d100 cf3d
00000020: 194e 0ca7 965f 0580 f45b f9a0 da57 0580
00000030: 12dc 043f e080 ce27 c258 c4b6 9d5d 0580
00000040: 1206 353e 2264 0580 07e2 683c 52e9 0b3e
00000050: 27e8 d63c 8466 d33e a77f 0ebd dac6 02be
00000060: 41d9 0d3d 9764 0580 de78 0580 1e62 11bd
00000070: e648 5c37 36f5 d03e a0bc 653e 115c 0580
00000080: b9ac 5b31 7541 a13e b382 1b3d 33a2 b33e
00000090: 2804 ed3d 2e05 813e c674 0580 7064 0580
000000a0: 4e83 033f bfa6 0580 98fe aa3d b0d1 353e
000000b0: 4b2b 8a3e 2290 37be 5ff4 01aa 45cd aa3e
000000c0: d681 0680 416c 1c3e adb8 f89e bbf4 e13e
000000d0: 1dba 1bbc 8e4b 43be 1346 4d3e 84d7 b03e
000000e0: 3457 0580 1ee6 fa3e 5199 913e 7764 0580
000000f0: 3457 0f3d 9375 8ebe daaa da3e ddb1 813e
00000100: 2d1e 6d3e a5a3 3cae ed0a 773e bc9e dd3e
00000110: 179c 683e a061 913c 4a21 953e 38a0 bc3e
00000120: e831 fd3e d59b be3e 795e 0580 f080 a73e
00000130: 19b8 b0bd 7731 ab3e 0a00 be3e f919 c93d
00000140: 6d60 0580 f057 0580 3f96 643e 1f96 8da8
00000150: 85b2 0180 7558 0380 1b92 423e e08e f13b
00000160: 7692 82bd e0c3 d83e 475f 0580 fa6c 0580
00000170: 3cfa 703e d265 0580 dbed 033f 3570 2d3e
00000180: 8c5e 953c e818 b43e f8d9 1f3b 7a9f 8db2
00000190: 1613 8a89 c55b 0580 1724 9e3d 3859 0580
000001a0: b222 5f3c 4b69 283d 33fa 81a1 44a2 a33d
000001b0: 2b6d 633e 8f7a 4c3e 44c3 523e 9e05 44bd
000001c0: 68bb 203e bfb8 9a3d 4968 0580 9751 853e
000001d0: b557 0580 3859 0580 6d02 bbbc e264 0580
000001e0: 285b 0580 9b10 b63e fb0c 273d d623 813e
000001f0: 293b 753e f157 0580 53c5 ac3d 1a12 ec3c
-0.19352843 0.17370638 -4.93525e-40 0.1135568 -0.280027 -0.040709335 -4.92837e-40 0.101075776
-1.947124e-15 -4.93467e-40 -4.224309e-19 -4.90693e-40 0.518983 5.7316212e-15 -5.851588e-06 -4.9276e-40
0.17678097 -4.95098e-40 0.014214045 0.13663223 0.026233746 0.4128915 -0.034789708 -0.12771168
0.034631018 -4.95262e-40 -5.02536e-40 -0.035493962 1.3129995e-05 0.4081208 0.22435236 -4.92205e-40
3.1966876e-09 0.31495252 0.03796644 0.35084686 0.11573058 0.25199264 -5.01068e-40 -4.95208e-40
0.5137223 -5.18995e-40 0.08349341 0.1775577 0.26986155 -0.17926076 -1.1542285e-13 0.33359733
-5.9759e-40 0.1527567 -2.6334401e-20 0.44132027 -0.009504822 -0.1907179 0.20046262 0.34539425
-4.9046e-40 0.4900369 0.28437284 -4.95217e-40 0.034995273 -0.27824077 0.42708474 0.2533101
0.23156042 -4.2891597e-11 0.24125262 0.43285167 0.22715794 0.017746747 0.2912696 0.36840987
0.49452138 0.37228265 -4.93068e-40 0.3271556 -0.08628864 0.33436176 0.37109405 0.09819407
-4.93769e-40 -4.90724e-40 0.2232294 -1.571925e-14 -1.55876e-40 -3.07239e-40 0.19001047 0.0073717684
-0.063755915 0.4233694 -4.93357e-40 -4.98271e-40 0.23532957 -4.95704e-40 0.51534814 0.16937335
0.01823356 0.35175252 0.0024391394 -1.6487082e-08 -3.324024e-33 -4.92098e-40 0.07721727 -4.91183e-40
0.013619112 0.04111604 -8.807607e-19 0.07989934 0.22209613 0.19968627 0.205823 -0.04785692
0.1569649 0.07554769 -4.96588e-40 0.2603881 -4.90641e-40 -4.91183e-40 -0.022828305 -4.95367e-40
-4.91878e-40 0.35559544 0.040783864 0.25222653 0.23948349 -4.90725e-40 0.08436074 0.028817225

weight f4 [128, 128]
00000000: 3b64 c389 1f28 ce8b 4dcf 0580 830b d70b
00000010: f4ad fe89 d877 bc02 8173 0500 bbfd 978a
00000020: 7af3 0580 ef81 0500 11fe 0580 c01b 0680
00000030: cedc ef0a f4b6 0580 edcf 2c03 78d1 0580
00000040: 6520 2089 f45a 0580 343e 8c0a 0622 da0b
00000050: caaf 1c0a 4e4e a00b ef72 b986 6163 ee8a
00000060: 7a1c 8509 eaa1 0500 f965 0580 9b0a 800a
00000070: b9f0 1305 2d7a 8f8a a18a b38b 9fbc 0600
00000080: 6e3b 0600 0d7c 168c 553a 2a0b efc3 4a8b
00000090: e71f 098b 051e 070a c376 0500 8692 0680
000000a0: 6eca 1f0c fda7 0500 07a2 c38b c858 2c8c
000000b0: 1a47 660b c37e 0680 d374 0600 d45d 918b
000000c0: 63e0 0580 18b4 2c0b 8421 0600 c3e0 758c
000000d0: b4ed 190c ef63 b40a 8ac3 1f0c e1f4 6a8b
000000e0: 0959 0580 557f f60b f0a7 af0b 4e03 0600
000000f0: f381 108b b778 c18a 319c d80b 228f 028c
00000100: 33be f10b f086 0500 529c 9b8b 288f 868c
00000110: 267a d00b 1e3b 4a0c 5413 4c8c 5416 6c8c
00000120: 2120 9d8c cce2 910b 550a 0600 9458 078c
00000130: 461b 7b09 4b32 c60b 14bd 778c 4b76 ef8b
00000140: a9b0 0580 4f83 0500 05c0 7f0a 25a1 0680
00000150: c96f 0580 cde2 0500 dccf d10b 2cfb 750b
00000160: 3a67 1b0a 8cbb a609 27a2 0500 b823 0680
00000170: 43bb b10b 9199 0680 221c 110b 18ad ae0b
00000180: c113 a00a 9047 090b 0fa3 3b09 40d9 0580
00000190: 296d 0500 9ccc 0500 f96b 858b 3d33 0600
000001a0: 7a34 730a 9c67 648b 1704 0680 5d49 d18b
000001b0: e5a2 078b d736 b40b d5de a30a 57b8 5909
000001c0: 84ec 398b fcc0 a28b 6085 0500 4c00 5189
000001d0: ffd3 0500 9da0 0500 76b2 c58a 385f 0500
000001e0: e273 0580 5469 6b8c 1963 6c0b 5d0d 418b
000001f0: 5d0d 2d8c 2588 0580 b822 b18a ccd3 a209
00000200: 397c 0580 e963 0500 4a86 0680 ec5e 0500
00000210: 9b59 0580 655a 0580 4a70 0580 f357 0500
00000220: 4764 0680 2f85 0680 6fce 0580 3c68 0500
00000230: 7ab0 e496 c9c9 0500 5fbb 0500 499b 0500
00000240: 3d59 0580 40b2 0500 0b5d 0500 4f5a 0500
00000250: 16e0 0500 d039 ad80 5b6c 0580 455e 0580
00000260: 1263 0580 a478 0500 bb4e 0600 de5c 0580
00000270: 9166 0500 5f63 0500 db5a 0500 f88c 0580
00000280: 0596 0580 2c5e 0580 7460 0580 2e64 0500
00000290: 765d 0500 1659 0500 51fe 0580 f6b1 0680
000002a0: 2742 878b 250d 0680 2e63 0580 0262 0580
000002b0: 9090 6b8f 6a92 0580 88e6 0500 7b59 0580
000002c0: 9c68 0500 2e5d 0500 be77 0580 aeff 849d
000002d0: 2960 0500 6764 0500 c502 aa03 785e 0500
000002e0: 9cd6 0580 3a1a 7406 4760 0500 3e59 0580
000002f0: 0962 0580 dd5b 0500 353b 6581 5a5f 0500
00000300: 7061 0580 5897 0500 3e60 0580 8660 0500
00000310: 3468 308a ed63 0500 385a 0500 185f 0500
00000320: ae29 809e c924 2e92 63a8 0500 d859 0580
00000330: 1e71 0580 0b5e 0500 ad60 0580 7963 0580
00000340: d559 0500 4f0e 0600 795c 0500 705b 0500
00000350: e45b 0500 bf7d 0500 4860 0500 d564 0500
00000360: d45d 0500 8d1c f196 0d60 0500 1d89 0580
00000370: 7e60 0580 2782 0600 df41 0897 7258 0500
00000380: dc6d 0500 085f 0580 a45e 0500 a2c3 0680
00000390: 5162 0580 2ef9 0580 8e5e 0580 fdbd 0500
000003a0: 546e 0580 715f 0580 4a2c 0600 cb5f 0580
000003b0: c059 0500 18d9 7902 1f5e 0500 dc5e 0500
000003c0: 5464 0580 7960 0580 0ab8 0500 985a 0580
000003d0: 927b 0580 8732 0680 4059 0580 f990 0500
000003e0: ac84 0580 d55f 0500 dd5e 0500 0965 0580
000003f0: 4063 0580 1e59 0680 bb62 0500 3161 0500
-4.70388e-33 -7.940868e-32 -5.33543e-40 8.283231e-32 -6.131186e-33 2.7692904e-37 5.00612e-40 -1.4636214e-32
-5.4652e-40 5.05789e-40 -5.5032e-40 -5.60968e-40 2.309792e-32 -5.24809e-40 5.0784944e-37 -5.34321e-40
-1.9274531e-33 -4.91805e-40 1.3504908e-32 8.402174e-32 7.544189e-33 6.174758e-32 -6.9758145e-35 -2.2955949e-32
3.2045365e-33 5.17261e-40 -4.95758e-40 1.2329941e-32 6.9561206e-36 -1.3816357e-32 -6.915688e-32 6.18677e-40
5.72332e-40 -1.159291e-31 3.2784693e-32 -3.905119e-32 -2.640924e-32 6.5056596e-33 5.01781e-40 -6.03576e-40
1.2309831e-31 5.1944e-40 -7.535506e-32 -1.3277115e-31 4.434988e-32 -5.96487e-40 5.92922e-40 -5.5993145e-32
-5.39672e-40 3.3261483e-32 5.63036e-40 -1.894175e-31 1.1858222e-31 1.737096e-32 1.2307757e-31 -4.5250987e-32
-4.91117e-40 9.494734e-32 6.766023e-32 5.52198e-40 -2.7831154e-32 -1.8630632e-32 8.3435184e-32 -1.0057908e-31
9.3116003e-32 5.07584e-40 -5.9939033e-32 -2.0732128e-31 8.0302474e-32 1.5579304e-31 -1.5721405e-31 -1.8187498e-31
-2.4209017e-31 5.6193214e-32 5.5472e-40 -1.0426677e-31 3.022585e-33 7.63425e-32 -1.9085086e-31 -9.223744e-32
-5.22551e-40 5.06282e-40 1.2313918e-32 -6.08821e-40 -4.99278e-40 5.40538e-40 8.0816624e-32 4.7374244e-32
7.482393e-33 4.0139415e-33 5.17347e-40 -5.63826e-40 6.845968e-32 -6.06102e-40 2.794715e-32 6.7282805e-32
1.541487e-32 2.6439078e-32 2.2585976e-33 -5.37112e-40 4.98337e-40 5.32577e-40 -5.1392196e-32 5.69394e-40
1.1709894e-32 -4.398915e-32 -5.5248e-40 -8.0614256e-32 -2.6122602e-32 6.941599e-32 1.5780149e-32 2.6207101e-33
-3.580764e-32 -6.26905e-32 5.07023e-40 -2.51576e-33 5.35227e-40 5.16795e-40 -1.903754e-32 4.93336e-40
-5.00748e-40 -1.8135438e-31 4.55265e-32 -3.71805e-32 -1.3331457e-31 -5.08017e-40 -1.705754e-32 3.9199254e-33
-5.0374e-40 4.95018e-40 -5.99187e-40 4.93229e-40 -4.91322e-40 -4.91605e-40 -4.99459e-40 4.90728e-40
-5.86986e-40 -5.9879e-40 -5.33232e-40 4.9657e-40 -3.694676e-25 5.31564e-40 5.26394e-40 5.14883e-40
-4.9119e-40 5.23122e-40 4.92555e-40 4.91574e-40 5.39564e-40 -1.590828e-38 -4.98048e-40 -4.92995e-40
-4.94717e-40 5.02455e-40 5.79256e-40 -4.92492e-40 4.95971e-40 4.94825e-40 4.9177e-40 -5.09748e-40
-5.12994e-40 -4.9296e-40 -4.93778e-40 4.95115e-40 4.92705e-40 4.91135e-40 -5.50409e-40 -6.14853e-40
-5.2099643e-32 -5.55728e-40 -4.94756e-40 -4.94336e-40 -1.1614236e-29 -5.11701e-40 5.41877e-40 -4.91277e-40
4.96704e-40 4.92604e-40 -5.02133e-40 -3.5204476e-21 4.93673e-40 4.95195e-40 9.992338e-37 4.93066e-40
-5.36165e-40 4.5910568e-35 4.93715e-40 -4.91192e-40 -4.94346e-40 4.92132e-40 -4.2103136e-38 4.93383e-40
-4.94131e-40 5.1347e-40 -4.93703e-40 4.93804e-40 -8.49369e-33 4.95024e-40 4.91542e-40 4.9329e-40
-1.3569765e-20 -5.495006e-28 5.19583e-40 -4.91407e-40 -4.99756e-40 4.92914e-40 -4.93858e-40 -4.94862e-40
4.91403e-40 5.56146e-40 4.9235e-40 4.91979e-40 4.92142e-40 5.04287e-40 4.93717e-40 4.95349e-40
4.92837e-40 -3.8953668e-25 4.93634e-40 -5.08364e-40 -4.93792e-40 5.97703e-40 -4.402711e-25 4.90906e-40
4.98588e-40 -4.93268e-40 4.93128e-40 -6.21193e-40 -4.94447e-40 -5.48566e-40 -4.93097e-40 5.27332e-40
-4.98756e-40 -4.93415e-40 5.66901e-40 -4.93542e-40 4.91374e-40 1.8355934e-37 4.92942e-40 4.93207e-40
-4.95168e-40 -4.93785e-40 5.25198e-40 -4.91676e-40 -5.03506e-40 -5.69139e-40 -4.91194e-40 5.11184e-40
-5.06771e-40 4.93556e-40 4.93208e-40 -4.95422e-40 -4.94782e-40 -5.82982e-40 4.94595e-40 4.94043e-40

bias f4 [128]
00000000: f698 3b0b 452c d89b 7274 5dbc a05d 7bbd
00000010: c0a5 3bbc 8508 1c05 2b19 2089 8320 083d
00000020: cab0 5d97 cb4c 95bc c203 892e eb5d cb3c
00000030: 8c84 aebd 71e4 bcbb 73ff 6cbd a4bd ed3b
00000040: 13fc 77a7 05a1 c13a c154 5d38 50fd 18bd
00000050: c920 59b3 1947 0d29 9480 22bd c957 0500
00000060: 06ea 38ab c125 bc91 2b9a 67bd cd17 b7bb
00000070: b608 50bc 8ca8 ec8a 0e60 0580 abaf 13b0
00000080: e19f 78bd af2e 8bb9 ddfe 8fbb 657c 1295
00000090: 8559 693c d57f 0abc fed2 cf96 1c98 443c
000000a0: e7c1 02bd d462 04ba e0f0 17ba d577 92bd
000000b0: 27cf dfba 45bb 06a8 42aa d5bb a759 eea6
000000c0: 4ee8 6b3c 0d7c 5b97 27e3 90b6 d7ce 8bb1
000000d0: 4022 17b9 fdad 60bc f386 11b5 ab93 e1bb
000000e0: 44e3 c6bc 39fd 443d a3ab a4a3 9bf9 593c
000000f0: 8600 8697 15e9 b5bc dc46 e03c 1a95 9db7
00000100: 5d38 10b8 9ddf 3ebd 862b 443b 68a8 1c3c
00000110: 7ccd c6b3 3135 b397 6aaa 5186 1591 6eb1
00000120: f348 d7a6 5273 8b82 4a24 8e3a 835e 2f3d
00000130: 1fb5 d9bb d529 3dbc 6a34 42b5 a1de e9af
00000140: 6f97 b5bb 7a5e 2ba0 af97 8fba c167 f0ad
00000150: 415b c6aa 6929 4382 0918 93bd dfcb 253d
00000160: 7533 5eaf 74f7 27bd 9663 0580 5bf8 153c
00000170: f389 f6bc ecc3 a0b0 14b8 953c 7f55 ee9f
00000180: f9ea 053d 0f7d de3c b87c 1795 df96 f41d
00000190: c920 c89f 650f 03bd f66a 44bd b4a5 25b9
000001a0: fc8e b9bc 8490 4d3d 0daf 7b3c e3cb 07a6
000001b0: db50 4bb5 3203 b4bb 1852 693c 1cd6 3a3d
000001c0: 14db 2dbd 53d6 90bd 4df9 25bd 1266 e0a6
000001d0: bcc2 20b5 cbe4 49bb 3d9b cb9b 7537 a839
000001e0: 2e9d 61bc e1e3 2ca1 9468 1dbd 087e 91b8
000001f0: 66c7 33ac 62f1 3dbd 96fc 22b3 e45e 0500
3.6129965e-32 -3.576281e-22 -0.013516532 -0.061368585 -0.011453092 7.3366495e-36 -1.9271133e-33 0.03323413
-7.163209e-25 -0.018225094 6.230706e-11 0.024825057 -0.08521375 -0.005764537 -0.057860803 0.007255273
-3.4414786e-15 0.0014772719 5.276944e-05 -0.037350953 -5.0554068e-08 3.1369957e-14 -0.039673403 4.90669e-40
-6.5694704e-13 -2.9684438e-28 -0.05654351 -0.005587554 -0.012697389 -2.2789374e-32 -4.93635e-40 -5.372793e-10
-0.060699347 -0.00026546928 -0.0043943957 -2.9582595e-26 0.0142425345 -0.008453329 -3.3575808e-25 0.011999156
-0.0319232 -0.0005050127 -0.0005796086 -0.071517624 -0.0017075286 -7.479102e-15 -0.0065205405 -1.6538868e-15
0.0143986475 -7.091929e-25 -4.3179784e-06 -4.0689474e-09 -0.00014413241 -0.013713357 -5.4213086e-07 -0.0068840585
-0.02427829 0.048093054 -1.7853607e-17 0.0133041395 -8.659679e-25 -0.022205869 0.027377538 -1.878529e-05
-3.4384768e-05 -0.046599973 0.0029933169 0.009561636 -9.257471e-08 -1.1581031e-24 -3.9433732e-35 -3.4716028e-09
-1.4938395e-15 -2.0490405e-37 0.0010844555 0.042814743 -0.006643906 -0.011545618 -7.2346904e-07 -4.254064e-10
-0.005541734 -1.4515523e-19 -0.0010955239 -2.7330917e-11 -3.5235186e-13 -1.4338222e-37 -0.07182319 0.04047763
-2.0209064e-10 -0.041007474 -4.94902e-40 0.009153451 -0.030095076 -1.1697217e-09 0.018276252 -1.0093836e-19
0.03269479 0.027159242 -3.0592593e-26 6.474226e-21 -8.475753e-20 -0.031997103 -0.04795357 -0.00015797355
-0.022651188 0.05018665 0.01536156 -4.711385e-16 -7.5741053e-07 -0.005493545 0.014240764 0.045614347
-0.042445257 -0.07072129 -0.040520955 -1.5570789e-15 -5.988802e-07 -0.0030806537 -3.3683853e-22 0.00032084776
-0.013770385 -5.857746e-19 -0.03842981 -6.937614e-05 -2.5548118e-12 -0.04637278 -3.794829e-08 4.93218e-40

weight f4 [128, 128]
00000000: 6163 0680 66a1 0680 fb5e 0500 885c 0500
00000010: 75e1 0580 ec9b 0680 cb5c 0500 df61 0500
00000020: 9d97 0500 3958 0580 8a5c 0580 4e80 c203
00000030: 5f8c 0286 e5d5 0600 685c 0500 30b0 0580
00000040: d66d 0500 fe61 0580 cc5b 0580 5663 0580
00000050: bbd8 0500 7782 0600 4c60 0500 2988 0500
00000060: 6757 0580 ca5f 0500 4e5c 0500 aea1 0500
00000070: 6960 0500 c57f 0500 0dc9 0580 6dcb 0580
00000080: 4d63 0500 ea5b 0500 8f7d 0580 b886 0500
00000090: 495a 0500 f663 0500 0579 0580 9a5d 0500
000000a0: 6575 0500 9c65 0580 ff80 0600 6f5c 0500
000000b0: 8969 0580 1e5b 0500 3185 0580 b776 0500
000000c0: 0364 0500 a27e 0500 139d 0500 eabe 0580
000000d0: 7284 0580 3567 0500 7eda 0500 3c66 0580
000000e0: 155a 0500 585a 0500 7f72 0500 595b 0500
000000f0: fd31 0680 b182 7803 1460 0500 1b58 0500
00000100: fef9 0580 d95a 0500 eb59 0580 a857 0500
00000110: 6e7c 0580 e457 0580 5867 0500 ee6f 0500
00000120: 935c 0580 dc8b 0500 4a59 0500 c862 0500
00000130: 6c60 0580 8460 0500 e26b 0500 ee5a 0500
00000140: 7757 0500 aec1 0580 7061 0580 4f6e 0500
00000150: d557 0580 d1ad 0500 fb5b 0500 fe90 0600
00000160: c2c9 0580 6345 3f08 0345 0600 03c8 3291
00000170: d571 0680 0f7e 0500 3f5f 0500 37be 0600
00000180: 7a58 0500 c25a 0500 cf63 0580 9779 0500
00000190: 4d8e 0500 9960 0500 6b57 0500 f6c7 0500
000001a0: 885e 0580 9dc1 e203 3a62 0500 9b65 0500
000001b0: d66c 0500 8f62 0580 2c64 0500 3358 0500
000001c0: bf5a 0500 f861 0500 dc5b 0500 e158 0580
000001d0: 1c5a 0580 d070 0500 7058 0500 3281 2c89
000001e0: 4164 0500 0a24 0680 aa58 0500 3263 0580
000001f0: 816c 0580 2f63 0500 3b8b 0600 797d 0580
00000200: 105a 0500 295f 0580 aa42 3a3c f851 c7bb
00000210: 3e60 0580 c159 0500 b965 0500 f5ae 32bb
00000220: 965a 0500 32b4 0b38 5862 0580 e23f ee3c
00000230: 6ee0 1abd 5e7b b337 78bb b8bb 479e 9cb9
00000240: b573 0500 9b6b 1cba 4225 1c31 4e75 78bc
00000250: 835b 0580 e7d0 3c94 ceb3 acbc 465e 0580
00000260: 854e e922 7660 0500 dddb 373d b363 0580
00000270: 4f58 0500 2964 0500 ae61 0500 6d62 0500
00000280: 4e77 1c3d 3c69 0580 7a69 0500 135a 0500
00000290: 1637 0ebc 60aa fdbb 595e 0500 77c0 dd3c
000002a0: ab5d 0500 195b 0580 af5c 0400 497b 253d
000002b0: ea5d 0500 ca61 0500 4161 0580 7e99 b11d
000002c0: d9e4 4c3c fe74 0580 65b4 fc2c 5a5e 0580
000002d0: d476 0580 d925 313b 3862 0500 d4ca 443c
000002e0: 9d14 80ba bbb0 e43c 7762 cea1 3e26 223d
000002f0: 1d59 0500 6888 09bc 69d4 483c 5ac2 0232
00000300: 76b4 58a9 fc6c d43b 8ab8 25bc c8fb bebc
00000310: 958e 0580 195b 0500 ce5b 0500 5920 a9b2
00000320: a657 0500 9c5a 0580 4982 9037 ef04 c33b
00000330: 9ee5 fe3b 6d97 3abc 79cc acb3 895d 0580
00000340: 2391 41bc c1fe 191b 228f 5d33 16a3 8aac
00000350: 1e58 0500 c963 0500 6a0a a9bc 539e 7f3c
00000360: a966 85ab fbd7 803d c061 0500 fd0c 65bd
00000370: 1f58 0500 b967 0500 85bd 853b 8158 0500
00000380: f72a 9c3c 8db9 0d3d 2d5a 0580 7f57 0500
00000390: a762 0580 8b2b 2d3c afc8 9d3c 0c69 0500
000003a0: e6b0 0a3c 0a2f 803d d97c e33c 6961 0580
000003b0: 7f94 0737 daea 82bc 743f 3cbc 2fc3 debb
000003c0: 0458 0580 da43 f03c 16a7 07bc e857 0580
000003d0: bd57 0500 d651 0680 ee5b 0500 563a e53b
000003e0: 4acd b63c 8868 0580 6e99 f03a bf5f 0580
000003f0: 8080 8327 06e6 0d3d 4c66 0580 5357 0580
-5.86663e-40 -6.08912e-40 4.9325e-40 4.92371e-40 -5.40056e-40 -6.06947e-40 4.92465e-40 4.94287e-40
5.13566e-40 -4.90826e-40 -4.92374e-40 1.14317525e-36 -2.455341e-35 6.27744e-40 4.92327e-40 -5.22382e-40
4.98579e-40 -4.9433e-40 -4.92108e-40 -4.94813e-40 5.36926e-40 5.97815e-40 4.93722e-40 5.08023e-40
-4.90532e-40 4.9354e-40 4.9229e-40 5.17177e-40 4.93763e-40 5.05013e-40 -5.31301e-40 -5.32153e-40
4.948e-40 4.9215e-40 -5.0422e-40 5.07505e-40 4.91566e-40 4.95037e-40 -5.02591e-40 4.92755e-40
5.01291e-40 -4.95628e-40 5.97288e-40 4.92336e-40 -4.97036e-40 4.91864e-40 -5.06958e-40 5.01764e-40
4.95055e-40 5.04605e-40 5.15525e-40 -5.27665e-40 -5.0669e-40 4.96201e-40 5.37558e-40 -4.95852e-40
4.91493e-40 4.91587e-40 5.00251e-40 4.91947e-40 -5.68945e-40 7.3030676e-37 4.93644e-40 4.90784e-40
-5.48858e-40 4.91767e-40 -4.91434e-40 4.90623e-40 -5.03814e-40 -4.90707e-40 4.9625e-40 4.9933e-40
-4.92387e-40 5.0935e-40 4.91208e-40 4.94614e-40 -4.93767e-40 4.93801e-40 4.97879e-40 4.91797e-40
4.90554e-40 -5.28657e-40 -4.94131e-40 4.98749e-40 -4.90686e-40 5.21531e-40 4.92174e-40 6.03026e-40
-5.31555e-40 5.7558535e-34 5.7577e-40 -1.4103357e-28 -5.91848e-40 5.04399e-40 4.93345e-40 6.19249e-40
4.90917e-40 4.91735e-40 -4.94982e-40 5.02796e-40 5.10225e-40 4.9383e-40 4.90537e-40 5.3091e-40
-4.93089e-40 1.3327538e-36 4.94415e-40 4.95627e-40 4.9822e-40 -4.94534e-40 4.95112e-40 4.90817e-40
4.91731e-40 4.94322e-40 4.9213e-40 -4.91061e-40 -4.91503e-40 4.99647e-40 4.90903e-40 -2.0764494e-33
4.95142e-40 -5.63941e-40 4.90984e-40 -4.94762e-40 -4.98101e-40 4.94758e-40 6.0096e-40 -5.04189e-40
4.91486e-40 -4.93315e-40 0.011368433 -0.0060827695 -4.93703e-40 4.91375e-40 4.95669e-40 -0.0027264927
4.91674e-40 3.3308002e-05 -4.94457e-40 0.029083196 -0.03781169 2.139591e-05 -0.0056375824 -0.00029872564
5.00685e-40 -0.0005966962 2.2722166e-09 -0.015164686 -4.92006e-40 -9.532773e-27 -0.021081831 -4.92996e-40
6.3237912e-18 4.93781e-40 0.044887412 -4.94943e-40 4.90857e-40 4.95108e-40 4.94218e-40 4.94486e-40
0.038199715 -4.96928e-40 4.97015e-40 4.9149e-40 -0.008680126 -0.0077412575 4.93023e-40 0.027069313
4.92779e-40 -4.91857e-40 4.0059e-40 0.040400777 4.92867e-40 4.94258e-40 -4.94066e-40 4.7010217e-21
0.012505733 -5.01146e-40 7.1822986e-12 -4.93024e-40 -5.01805e-40 0.0027030616 4.94412e-40 0.012011249
-0.0009771768 0.027916303 -1.3985166e-18 0.03958725 4.91145e-40 -0.008394338 0.012257674 7.611186e-09
-4.811816e-14 0.0064827185 -0.010114798 -0.023313418 -5.10326e-40 4.91857e-40 4.92111e-40 -1.96889e-08
4.9062e-40 -4.91682e-40 1.7226806e-05 0.005951516 0.0077788373 -0.011388642 -8.0465675e-08 -4.92732e-40
-0.011814388 1.2738179e-22 5.158575e-08 -3.940302e-12 4.90788e-40 4.94974e-40 -0.020634849 0.015601712
-9.478712e-13 0.06291195 4.94244e-40 -0.05592059 4.9079e-40 4.96386e-40 0.0040814304 4.90927e-40
0.019063456 0.034600783 -4.91526e-40 4.90565e-40 -4.94567e-40 0.0105694635 0.019260732 4.96861e-40
0.008465027 0.06258972 0.027769493 -4.94122e-40 8.0812015e-06 -0.015981127 -0.011489738 -0.00679817
-4.90752e-40 0.02932923 -0.0082795825 -4.90712e-40 4.90652e-40 -5.8037e-40 4.92156e-40 0.0069954796
0.022314686 -4.96676e-40 0.0018356272 -4.93525e-40 3.6499124e-15 0.034643196 -4.95875e-40 -4.90504e-40

bias f4 [128]
00000000: 2a72 a1a5 3185 95bd f242 11bc 4e6c b13d
00000010: dd98 8b3d 584e 0680 0649 d6b0 e556 aebc
00000020: e189 ab3d 9a0d 1db3 47d3 7cbc 5457 d6bc
00000030: dd9d b4b7 4ea4 c3bc b496 47b0 a5f1 96bb
00000040: 6382 c4ad cff4 1bbc 10f6 9b9c 87d3 10a8
00000050: f19f 01ab 602c 4bba e361 b9bb 5efb e1bc
00000060: d8b2 9cb8 b1ac 3d90 ef0b 0fb7 2c6e 33bd
00000070: 4012 5aa8 761d 103d a095 0680 b2a9 1ebc
00000080: 528d 9f3d dc90 aabb f2a6 e6bc 7407 61ad
00000090: bd5a 42b8 5eb4 94b8 6715 9fa5 87ff 02ba
000000a0: da33 0ebb 7199 bf3c 2ab3 1dbd 069d 6a8f
000000b0: c14b bd3d d4b5 69b9 290a daab ca28 dfaf
000000c0: e4e7 cab5 0fc7 ee3c 8c72 22a7 4d17 9abb
000000d0: 5778 c9bb d00c 11ac 7045 11bb e2ce 71bc
000000e0: f69f b29b e73e 2aab 2783 02b7 4b1a 8bbc
000000f0: 9f43 c9af 796c 5d85 0584 733c 72c2 eab7
00000100: 49bf 22bd a43f 0d3d 9645 5fbc bcee 17ae
00000110: e910 55b8 e8df 763d d3cf 4691 f20f 6cb5
00000120: f260 d4b0 2b77 ca3d cc30 0fb1 93a2 cbbb
00000130: 1a41 0cbb e30a d4ab 986e 8991 c1e4 7b3a
00000140: 2cee f1b9 92c2 00bd 51ea 50bb 7f48 893d
00000150: b898 4dbd 6510 2388 d1ec 1bb6 bcea 82ac
00000160: c8d8 d8bb d481 21ba 2f5f caba 2b4f 86bc
00000170: a9d2 09ba d865 033d 2c4a 6cbb 7000 81bb
00000180: 851c 4eb5 41a3 d9bb a7a5 ffbc 856c 0e3d
00000190: d51c 6ebb 284f af3c cac9 afbb 37a1 bbb7
000001a0: 9963 87aa d434 0780 d2d7 8ebb 8d1d c4b1
000001b0: 981c 17bd d234 003d 4e1a 5bbb 1570 4495
000001c0: b3a0 75b7 c9f8 ddb7 5f7c cc3b 265a 97b0
000001d0: 849c 46bb b0a1 dfb2 4264 7eb3 678b 14af
000001e0: 68f0 2486 fb23 e6b6 98bf 5cbd b3c5 8cba
000001f0: 27d2 99b4 6b2e 2aaf 7691 8193 d462 b5bc
-2.8006409e-16 -0.07300795 -0.008866059 0.086632356 0.06816266 -5.79117e-40 -1.5591304e-09 -0.021281669
0.08375908 -3.656678e-08 -0.015431232 -0.026164688 -2.1531183e-05 -0.023882058 -7.260994e-10 -0.004606443
-2.2340524e-11 -0.009518816 -1.0320645e-21 -8.0394735e-15 -4.605197e-13 -0.0007750448 -0.005657421 -0.027585682
-7.471972e-05 -3.7406714e-29 -8.526243e-06 -0.04380624 -1.2105388e-14 0.035184346 -6.04688e-40 -0.009684013
0.077906266 -0.005205257 -0.028155778 -1.2791424e-11 -4.633771e-05 -7.090786e-05 -2.7596606e-16 -0.0004997183
-0.0021698386 0.023388596 -0.038500942 -1.1567332e-29 0.092429645 -0.00022288348 -1.5492652e-12 -4.0592446e-10
-1.5117662e-06 0.029147653 -2.2544112e-15 -0.0047024847 -0.006148379 -2.0612852e-12 -0.0022166632 -0.014758797
-2.9551002e-22 -6.0483427e-13 -7.77914e-06 -0.01698031 -3.6609735e-10 -1.0411293e-35 0.014863019 -2.798552e-05
-0.039733205 0.03448452 -0.01362743 -3.4545464e-11 -5.0798906e-05 0.060272127 -1.5683487e-28 -8.7940055e-07
-1.5452584e-09 0.09886011 -2.0836977e-09 -0.0062144487 -0.0021401108 -1.5066528e-12 -2.1682947e-28 0.0009608977
-0.00046144554 -0.031435557 -0.0031877945 0.06703281 -0.050194472 -4.90703e-34 -2.3234645e-06 -3.720883e-12
-0.006617639 -0.00061610085 -0.0015439744 -0.016395172 -0.0005257526 0.032079548 -0.0036054952 -0.0039368197
-7.678248e-07 -0.006641776 -0.031206919 0.03477146 -0.0036333103 0.02140005 -0.0053646313 -2.2367209e-05
-2.4049927e-13 -6.618e-40 -0.004359224 -5.7077103e-09 -0.036892503 0.031300373 -0.0033432427 -3.9670302e-26
-1.4640554e-05 -2.6461103e-05 0.006240412 -1.1012318e-09 -0.0030305693 -2.6034144e-08 -5.9230167e-08 -1.3510047e-10
-3.1021594e-35 -6.858723e-06 -0.053893656 -0.0010740071 -2.8651377e-07 -1.5477901e-10 -3.2707614e-27 -0.022141851

weight f4 [128, 128]
00000000: 88e7 0500 ce62 0580 3759 0580 6e62 789f
00000010: 2fa6 449f 8ffc 0500 69aa 0500 356b 0500
00000020: 2ef5 cd1d f55b 0580 025f 0580 0550 9b0e
00000030: 91c3 0500 5c84 0580 1dc2 0600 7678 0500
00000040: 9b62 0500 6c9e 0500 d180 0500 065d 0580
00000050: 8dfd 0500 dcaa 0580 d05d 0500 1a68 0500
00000060: d0c1 0680 cc81 0580 aa79 0500 a95e 0500
00000070: b330 0600 c0ff 329f 59a8 0580 c55d 0500
00000080: c6be a89f 056c 0680 a3aa 0500 d064 0580
00000090: cd73 0500 b7cf 0600 3ee8 0500 7e64 0580
000000a0: 4d2f 0680 e28e 649d 3a59 0500 c3f1 0500
000000b0: c916 019d a53e 0600 df7b 0500 6b88 0500
000000c0: 05ae 0580 5f72 9e1d a58f 0580 2661 0580
000000d0: 4c58 0500 356e 0580 8172 0500 1ee2 0500
000000e0: 62b0 0580 5b04 0680 ce88 0580 0b64 0500
000000f0: 695e 0580 cc73 0500 c998 b79b d87d 0500
00000100: 0a71 0580 db4b a29e 0576 0500 ae63 0500
00000110: 5e5f 0500 35fa 9b9f 0d6a 0580 88bb 0500
00000120: ee6e 0500 aeaf cf9e ba52 0680 2e7c 0580
00000130: d259 0500 056e 0580 5629 0600 00b9 4d0e
00000140: 8fe4 0500 d75d 0500 0867 0500 8e47 fe1e
00000150: 1e63 0500 e97a 0500 63bd 0500 a1b7 0500
00000160: 275c 0580 036c 0580 3c61 0500 2390 0580
00000170: 4173 0500 2af4 049d 98d5 0500 3061 0500
00000180: 9155 0600 ba29 0600 ca61 0500 2328 0a9e
00000190: 5a5b 0500 1fb0 9e1c 7e5d 0500 8ad9 0500
000001a0: 6e71 0500 9474 0580 d2c6 0500 b16f 0500
000001b0: 8662 0500 d043 6a9e 915c 0580 cf97 0500
000001c0: 93ba 0500 fc73 0580 6848 158e e283 0500
000001d0: bc71 0680 92ae 0500 ebb8 0580 3b92 0680
000001e0: de6b 0500 3b72 0500 4e5c 0580 fb87 0500
000001f0: 0434 0600 f07b 0580 f263 0580 5857 0580
00000200: 7159 0580 b284 043d f096 4ab9 90cd 22bd
00000210: f3f2 283d 5058 0580 5fcb c722 9594 e8bc
00000220: 671c 3f3d 8064 0500 461a 2c3c 6960 62bd
00000230: 5b0c 84b5 8bdd 4e36 c26c f624 7187 e738
00000240: 3f5b 0500 e460 0500 3f64 0500 a6bf 8019
00000250: a42f a28a 1964 0500 fb63 2c3b 553d 71bb
00000260: 945b 15ae d45a 0580 5162 0500 567e 71bb
00000270: 825b 0580 9760 90b9 065a 0500 b07e 5b3c
00000280: a18b 19bd d463 0500 1967 0500 fd5b 0580
00000290: 575c 0500 c663 e3b5 adeb 670e 4a66 0500
000002a0: 16c3 923c 07a8 f53b ef8d f63b da58 0580
000002b0: 10ed f63c 347f 0500 9258 0580 e35a 0580
000002c0: fbef f6ae 907c 8d3c 2a5f 0500 7006 4a3c
000002d0: 2359 0500 e962 0680 5f6d 0500 9466 0500
000002e0: 8e61 0580 cd6b 0500 f363 0580 7d73 91bc
000002f0: 295c 0580 725c 0580 48d0 04bc 045d 0500
00000300: 5c86 303d 058c 263d b134 a63a fd5f 0580
00000310: b45b 00ac 7269 aaba a665 0500 589c 0580
00000320: ea60 04a7 5dbe 583c c259 0500 a862 0500
00000330: fd73 99b8 f00c a814 fe64 0500 18f9 a539
00000340: 7f5a 0500 e5d8 d7bc c25f 0500 2dc4 ce3b
00000350: 4fc4 0f3d c25e 0580 0976 0580 d627 0d15
00000360: dc95 2ebc 9674 0580 80fb 8d38 0859 0580
00000370: 046b 92b8 4fb9 133d d155 233c 4981 30bb
00000380: 1591 0500 6363 0580 6d5d 04bc 7dca 40bd
00000390: 17bf 983c 87b7 c63a 015c fc3b a059 0580
000003a0: 2d5e 0500 2662 0500 238e 0500 68c0 0600
000003b0: f975 0f3d acd2 333c 35ca 4f3d 5e59 0580
000003c0: ff80 21b4 fa80 0580 66af 8bbc 6a58 0580
000003d0: ce59 0580 e663 0500 70db 2024 6226 b322
000003e0: dc58 0580 a65b 0580 3b1d b43b 2dd8 c73a
000003f0: 4457 0500 8e5f 0580 8c6b d421 f12b 5d3b
5.42235e-40 -4.94622e-40 -4.91182e-40 -5.2597462e-20 -4.1642078e-20 5.49778e-40 5.20309e-40 4.97636e-40
5.451656e-21 -4.92165e-40 -4.9326e-40 3.8287506e-30 5.29333e-40 -5.06659e-40 6.20648e-40 5.02391e-40
4.9455e-40 5.16009e-40 5.05388e-40 -4.92548e-40 5.50134e-40 -5.2047e-40 4.92831e-40 4.96522e-40
-6.2054e-40 -5.0574e-40 5.02822e-40 4.93135e-40 5.68483e-40 -3.7904518e-20 -5.19569e-40 4.92816e-40
-7.1466376e-20 -5.89763e-40 5.2039e-40 -4.95342e-40 5.00719e-40 6.25527e-40 5.4249e-40 -4.95227e-40
-5.67981e-40 -3.0249417e-21 4.91186e-40 5.45905e-40 -1.7084787e-21 5.73486e-40 5.03614e-40 5.08115e-40
-5.21604e-40 4.194051e-21 -5.10707e-40 -4.94028e-40 4.90852e-40 -4.98712e-40 5.00254e-40 5.40293e-40
-5.22452e-40 -5.52575e-40 -5.08254e-40 4.95066e-40 -4.93045e-40 5.00718e-40 -3.0373546e-22 5.04322e-40
-4.99728e-40 -1.718379e-20 5.01515e-40 4.94936e-40 4.93389e-40 -6.6058986e-20 -4.97221e-40 5.26451e-40
4.98972e-40 -2.1989637e-20 -5.8069e-40 -5.03725e-40 4.91399e-40 -4.98645e-40 5.65842e-40 2.5357275e-30
5.41169e-40 4.92841e-40 4.96138e-40 2.692289e-20 4.94734e-40 5.0327e-40 5.27117e-40 5.25051e-40
-4.92236e-40 -4.97925e-40 4.94059e-40 -5.10884e-40 5.00523e-40 -1.7596284e-21 5.358e-40 4.94042e-40
5.81708e-40 5.65982e-40 4.94258e-40 -7.313959e-21 4.91948e-40 1.0501089e-21 4.92716e-40 5.37216e-40
4.99868e-40 -5.00998e-40 5.30501e-40 4.99245e-40 4.94521e-40 -1.240188e-20 -4.92384e-40 5.13636e-40
5.26108e-40 -5.00785e-40 -1.840053e-30 5.06488e-40 -5.91813e-40 5.21802e-40 -5.25514e-40 -6.0347e-40
4.97873e-40 5.00156e-40 -4.9229e-40 5.07958e-40 5.69673e-40 -5.03638e-40 -4.95031e-40 -4.9051e-40
-4.91263e-40 0.03235311 -0.0001932045 -0.03974682 0.04124732 -4.90858e-40 5.4154386e-18 -0.028391162
0.046657946 4.9523e-40 0.010504311 -0.055267725 -9.838362e-07 3.0825347e-06 1.06869737e-16 0.00011040166
4.9191e-40 4.93935e-40 4.95139e-40 1.3312296e-23 -1.5617953e-32 4.95086e-40 0.002630471 -0.0036810238
-3.3960015e-11 -4.9176e-40 4.94447e-40 -0.0036848984 -4.92004e-40 -0.00027537785 4.91472e-40 0.013396904
-0.037486676 4.94989e-40 4.96162e-40 -4.92177e-40 4.92303e-40 -1.6941856e-06 2.8586422e-30 4.95872e-40
0.01791529 0.007496837 0.007524244 -4.91051e-40 0.030142337 5.0481e-40 -4.9095e-40 -4.91781e-40
-1.1229414e-10 0.01727131 4.93316e-40 0.012330636 4.91154e-40 -5.86495e-40 4.98412e-40 4.95976e-40
-4.94174e-40 4.97849e-40 -4.95033e-40 -0.017755264 -4.92238e-40 -4.9234e-40 -0.008106299 4.92545e-40
0.043096885 0.040660877 0.0012680498 -4.93612e-40 -1.82408e-12 -0.0013001396 4.95642e-40 -5.15263e-40
-1.8371217e-15 0.01322898 4.91377e-40 4.94569e-40 -7.317213e-05 1.6968768e-26 4.95407e-40 0.00031656842
4.91641e-40 -0.02634854 4.93529e-40 0.006310007 0.035099324 -4.9317e-40 -5.0152e-40 2.8506148e-26
-0.010655846 -5.01e-40 6.7702495e-05 -4.91116e-40 -6.981756e-05 0.036065396 0.009969191 -0.0026932529
5.11223e-40 -4.94831e-40 -0.008078915 -0.047068108 0.018645806 0.0015160897 0.0077013974 -4.91329e-40
4.92961e-40 4.94387e-40 5.10167e-40 6.20035e-40 0.035024617 0.010975521 0.05072995 -4.91236e-40
-1.5041222e-07 -5.05446e-40 -0.01705141 -4.90894e-40 -4.91393e-40 4.95014e-40 3.488034e-17 4.8558687e-18
-4.91054e-40 -4.92055e-40 0.0054966486 0.001524692 4.90482e-40 -4.93456e-40 1.4394146e-18 0.0033748115

bias f4 [128]
00000000: 3ef5 3da1 459a b9bc 3885 72bc fb63 d1bc
00000010: c550 283d c66d bdb9 de2e 2c3c 1d32 00bd
00000020: bfda 5ea8 d464 a73b a6ad a83c ff35 0dbd
00000030: 9bae 6a90 10cf e2bc 5fe5 3bb4 d6f5 0bba
00000040: c31f 99b1 6e8a 913c e3e2 90bb 4256 c1bc
00000050: 73ff 21b6 e00d 6c3c ebfc e3bc dd70 463c
00000060: 0089 8aa3 9c90 4fbc 2857 c7b8 92ae f3bc
00000070: caf9 2694 b0c4 00bd bc28 8a92 3343 05bb
00000080: a78c 8dbb 2fee 23ba 80a4 583b 5015 403d
00000090: ecbe a4bb 9ca2 ecbc c085 9cbb c938 15b5
000000a0: 762c e8bb 0f58 f6bc edb1 d23c 3ddc 5cb9
000000b0: eb2d f1bc c788 c53c a90f 1dbc 65ce d0bb
000000c0: d7dd 07bb cca0 debc 8352 933a 6412 3c9d
000000d0: 6a71 a03b a168 063a c1f9 163d 6e04 093c
000000e0: 5f9a d5b9 c5e4 47bc 1e8e bda5 0c54 01bd
000000f0: 2fb9 9abc 9006 c73c e86d 628e ee99 bb3c
00000100: 41ac 363c d21d 69bc f588 d7af 59d4 02bb
00000110: 1075 5c92 595a d4bb 3533 123b cda3 12bc
00000120: 87c8 e7b7 e733 16bc 867a 62bc 7d64 c4bc
00000130: b112 10bd a6e8 29bd c9eb 85bb f78a 09bc
00000140: 251f 6abc b528 d6bc b59b 95bc 1c97 25bc
00000150: dd2d b3bb 1f30 aabb 5955 fc3a b6a5 f8ba
00000160: c70f 87bc ef2b e83c 6d01 46bc b1cf 71a1
00000170: 38f0 c2ba 023d dbbc 9010 b2ba 6edc 71bc
00000180: 90e0 42bb 8038 36bd ea35 87bc b74f d23c
00000190: 0465 61bd 9ac2 5db6 a784 3f3c f2eb 88b1
000001a0: cdaa cbbc 555e dab3 e7af 1abc f5c7 f9bc
000001b0: 9f3b 193c dfe3 afab 72f5 45b8 de44 07bd
000001c0: e878 36a3 be57 31bc a3fa ef3a 36ae bfbc
000001d0: 7332 c9bc 38ec 013d a842 9b3b 6a0c 1c3b
000001e0: 1eea 803c f559 09bd 3fa1 d53c 4e9a ceaf
000001f0: 7a93 21bb c080 3fbd 0112 273c 4f39 513b
-6.4360266e-19 -0.02265657 -0.01480227 -0.02556037 0.041092653 -0.00036130677 0.010509221 -0.03129779
-1.23709086e-14 0.005108455 0.020590615 -0.034475323 -4.6282874e-29 -0.027686626 -1.7499177e-07 -0.00053390616
-4.456497e-09 0.017766204 -0.0044215783 -0.023600701 -2.413956e-06 0.014407605 -0.027830562 0.01211187
-1.5020012e-17 -0.012668755 -9.5052936e-05 -0.029746328 -8.4301205e-27 -0.031437576 -8.719066e-28 -0.0020334243
-0.0043197456 -0.00062534487 0.0033057034 0.046895325 -0.0050276425 -0.028886132 -0.0047766864 -5.558946e-07
-0.0070853783 -0.030071286 0.025719607 -0.0002106288 -0.02944084 0.024113072 -0.009586253 -0.0063722604
-0.0020731592 -0.027176283 0.00112398 -2.48911e-21 0.0048963325 0.0005127285 0.036859278 0.0083628725
-0.0004074154 -0.012200539 -3.2882576e-16 -0.031574294 -0.01888713 0.024295121 -2.7909569e-30 0.022900548
0.011149467 -0.014228301 -3.9205586e-10 -0.0019962995 -6.956405e-28 -0.006480497 0.0022308354 -0.008950186
-2.7630724e-05 -0.009167648 -0.013823157 -0.023973698 -0.035174076 -0.041481636 -0.0040869457 -0.008394948
-0.014289652 -0.026142458 -0.018262723 -0.010106828 -0.005468114 -0.0051937248 0.001925151 -0.0018970284
-0.016487015 0.028341262 -0.012085301 -8.1928853e-19 -0.0014872616 -0.02676249 -0.0013585258 -0.014762027
-0.00297359 -0.044487476 -0.0165052 0.025672777 -0.055027977 -3.304484e-06 0.011689342 -3.984945e-09
-0.024861718 -1.0168575e-07 -0.009441352 -0.030490855 0.009352594 -1.2497745e-12 -4.719705e-05 -0.03302466
-9.891843e-18 -0.010824142 0.0018308948 -0.0233985 -0.024560189 0.031719416 0.0047381707 0.002381111
0.015736636 -0.033533055 0.026077865 -3.7580822e-10 -0.0024654553 -0.046753645 0.010197164 0.0031925028

weight f4 [128, 128]
00000000: 70e8 e01a 3c21 30bd 7fd6 cbb8 44b1 253c
00000010: df6e 8f3d bf22 45a1 0a08 e0bb aedb ba3d
00000020: 8159 0500 9aea 9c3c c983 453c 0e0c 29bb
00000030: 6744 618f 5175 0580 e16e 131b 6860 0580
00000040: 1529 4016 d929 71bb 392d 84bc c681 8d37
00000050: fd60 0580 ac0b d23b 1d7c 0580 a3ca 83bc
00000060: 5462 0580 8355 a72d 2571 6f2a 0796 44b9
00000070: 7d85 a68d 3450 0b3c 8e5f 0500 a73f e834
00000080: 9dab 513d 029d 2728 7de0 5cbc 7a05 193d
00000090: 0519 b8bc 4055 c7b6 c450 4f39 f628 100b
000000a0: e745 eeb4 1759 063d 848f c5bc 3dbd 7c2c
000000b0: 155d 0500 2775 953d ee2f 51a8 ff6b 8a20
000000c0: 64c9 a91c 29e3 9db8 fe55 9a3c ca97 4d18
000000d0: 957f e739 ed92 d9bc aaf9 c83c 0ee2 8cbc
000000e0: a5a5 32b4 434c 0731 3583 0580 637a 9fba
000000f0: dc64 5c3c 4a30 8d3d 4899 0588 3e75 453c
00000100: 9d35 6c3b 65ed b33d 6283 a688 3a60 0580
00000110: 6e5a 0580 8a66 053a d251 973b 9058 133d
00000120: 825e 0580 0bb8 9d3d a5b1 eb23 142f 97a6
00000130: 9416 233b 1f80 bbbc 0c74 753a ae5a ec2e
00000140: f0b1 bd3b 1f16 b7bc 8de1 8ebb 34d8 72bb
00000150: f0b2 2523 df07 c7b7 0336 39bc 25c4 65b4
00000160: d2b8 873b f909 8d3d 72c9 ae38 8959 0500
00000170: d722 efa7 f25f c686 7f60 0580 8961 c537
00000180: 0062 0500 b2c8 10bb e3a3 88ae 4b9c aa3d
00000190: 3c4b d43c dae0 0580 0c69 d1bb b661 0500
000001a0: a314 843a e63c f604 7888 be3b 905d 693c
000001b0: d374 573a 5622 0f95 bd49 1329 4792 b33c
000001c0: d85b 0580 e712 d7b5 42e6 36bb 028d 2a32
000001d0: 9236 9139 a8b8 133d 9d20 e83c 72e6 8b3c
000001e0: 4a65 30b9 1e3f b5b8 0c18 e33d bb60 0580
000001f0: a9ce c639 c864 033d 93e9 bebc 9144 65bc
00000200: 81dd a397 ac0d 76ba ad57 0500 8d69 3b21
00000210: 761b 42bd ad63 0500 fdad cd35 854d 3fbc
00000220: 3167 0580 ea98 8dbc 59d4 5b34 6959 0580
00000230: eb1b 180e 868b 0500 b957 0500 c759 0500
00000240: 8a5a 0500 0905 362f 3820 ff3c c457 0580
00000250: 945a 0580 529e 862e 92b6 0580 a76b a5bc
00000260: a158 0580 915a 0580 5f5e 0580 f45f 0500
00000270: 8016 5c8b 8da3 4c29 375e 0580 6d5e 0500
00000280: dd8e 5bbc 795b 0500 8135 1e34 58e7 4abd
00000290: 0ff7 68bd e158 0500 8777 2d1a 945c 0580
000002a0: 4661 0500 3ba1 1339 918e 84b9 d960 0580
000002b0: 605f 0500 6581 02be 7f57 0500 915c 0500
000002c0: f55c 0500 961f 25b0 adb8 91b9 1a0b 2815
000002d0: 4777 f2bb 9d47 45b8 928d dcbc f3b4 03bd
000002e0: 3964 0500 c35e 0500 4bb2 0680 4b20 a23c
000002f0: 7817 26b9 c3de 94bc 29ce 6f85 39a7 cc33
00000300: ef1f a0b5 0b4a 82ba b461 0580 195b 0500
00000310: 3a58 0580 342c c1b3 231c 92bc b7a7 3b3c
00000320: e360 0580 f19a f7bc 9bbc 0600 736a 91a6
00000330: e926 2210 5a3e 74b6 80e3 0532 335f 0500
00000340: 91ff 12b2 7d32 c9bc 115e 0500 ac74 25b7
00000350: 3ce6 3105 b95d 0500 5e62 bcba 2a62 0580
00000360: 97b1 e02e 7c00 a6bd f861 0580 2859 0500
00000370: d659 0580 13d5 8106 f359 0580 e753 f289
00000380: 3957 0580 a33a c5af f95d 0500 06fb e43c
00000390: beb9 02b8 515b 0580 0950 8234 715a 0500
000003a0: 5f05 c3a9 2d58 0580 e3b2 76b5 241d b63c
000003b0: 3547 cb38 96f8 6893 8963 0500 ce9f 6136
000003c0: 3957 0500 d2f8 ef8c ae37 312d a679 0580
000003d0: 1e77 5c31 f3a2 ee3c 90b9 fcb7 c11a 83ba
000003e0: d81d db9e 7260 0500 da4d 0abc 8764 0580
000003f0: c06a b5a4 2936 5b39 7ce2 4c3a 51e1 083b
9.301975e-23 -0.043000445 -9.719747e-05 0.010113064 0.07003569 -6.679218e-19 -0.006836896 0.09123932
4.91285e-40 0.019154835 0.012055346 -0.0025794539 -1.110653e-29 -5.01263e-40 1.2195382e-22 -4.93762e-40
1.55226e-25 -0.0036798625 -0.016134845 1.686894e-05 -4.9397e-40 0.006410083 -5.03701e-40 -0.016087836
-4.94451e-40 1.9023677e-11 2.1266719e-13 -0.00018747906 -1.0262676e-30 0.008503009 4.93456e-40 4.325968e-07
0.051189054 9.304408e-15 -0.013481257 0.03735874 -0.022472868 -5.9405866e-06 0.00019771146 2.7764207e-32
-4.4381815e-07 0.032799806 -0.024116285 3.5916402e-12 4.92569e-40 0.07297736 -1.1612224e-14 2.3449575e-19
1.123554e-21 -7.528655e-05 0.018839832 2.6572263e-24 0.0004415481 -0.026559317 0.024533112 -0.017197635
-1.6637803e-07 1.9688435e-09 -5.06246e-40 -0.0012167211 0.013451781 0.06893976 -4.0203413e-34 0.0120518785
0.0036042698 0.08785514 -1.00216495e-33 -4.93697e-40 -4.91618e-40 0.0005088827 0.004617908 0.03597313
-4.9308e-40 0.07701119 2.5553986e-17 -1.049049e-15 0.0024885284 -0.022888241 0.00093633006 1.07481454e-10
0.005789034 -0.022349415 -0.004360384 -0.0037055137 8.982559e-18 -2.3726314e-05 -0.011304381 -2.1398644e-07
0.0041419053 0.06886668 8.334489e-05 4.91297e-40 -6.63736e-15 -7.46203e-35 -4.93794e-40 2.3529648e-05
4.94333e-40 -0.002209228 -6.213676e-11 0.08330592 0.02591478 -5.39839e-40 -0.0063906964 4.9423e-40
0.0010076951 5.789025e-36 0.005814608 0.014243498 0.0008219007 -2.8905706e-26 3.2704515e-14 0.021920336
-4.92125e-40 -1.602425e-06 -0.002790824 9.927364e-09 0.00027697213 0.036064774 0.028335864 0.017077658
-0.00016822401 -8.642509e-05 0.11088571 -4.93878e-40 0.00037919477 0.032078534 -0.023304736 -0.013993398
-1.0589544e-24 -0.00093861925 4.9063e-40 6.349776e-19 -0.04738947 4.94934e-40 1.5324327e-06 -0.011676197
-4.96196e-40 -0.01728483 2.0473216e-07 -4.91252e-40 1.8748889e-30 5.09229e-40 4.90646e-40 4.91384e-40
4.91657e-40 1.6554592e-10 0.031143293 -4.90662e-40 -4.91671e-40 6.121738e-11 -5.24671e-40 -0.020192934
-4.90972e-40 -4.91667e-40 -4.93031e-40 4.93599e-40 -4.2387386e-32 4.5438957e-14 -4.92975e-40 4.93051e-40
-0.0134007605 4.91992e-40 1.4734361e-07 -0.049537033 -0.05687624 4.91061e-40 3.5872115e-23 -4.92388e-40
4.94073e-40 0.00014079075 -0.00025283222 -4.9392e-40 4.93392e-40 -0.12744673 4.90565e-40 4.92384e-40
4.92524e-40 -6.0071537e-10 -0.0002779415 3.3936087e-26 -0.007399473 -4.7035155e-05 -0.026922975 -0.03215499
4.9513e-40 4.93172e-40 -6.14972e-40 0.01979079 -0.00015839736 -0.018172627 -1.12755916e-35 9.529908e-08
-1.1930223e-06 -0.0009940279 -4.94227e-40 4.91857e-40 -4.90827e-40 -8.995303e-08 -0.017835682 0.011453561
-4.93934e-40 -0.030225249 6.18672e-40 -1.0090249e-15 3.1978842e-29 -3.6395127e-06 7.793346e-09 4.93329e-40
-8.556428e-09 -0.024560208 4.92922e-40 -9.861931e-06 8.3647874e-36 4.92799e-40 -0.0014372577 -4.94392e-40
1.0217887e-10 -0.08105561 -4.94322e-40 4.91161e-40 -4.91405e-40 4.883749e-35 -4.91445e-40 -5.8338282e-33
-4.90467e-40 -3.5875755e-10 4.92889e-40 0.027951729 -3.11674e-05 -4.91936e-40 2.427262e-07 4.91622e-40
-8.660671e-14 -4.90809e-40 -9.1902456e-07 0.022230692 9.693058e-05 -2.940508e-27 4.94884e-40 3.3620631e-06
4.90467e-40 -3.6973534e-31 1.00736485e-11 -5.02817e-40 3.2081924e-09 0.029130435 -3.012715e-05 -0.001000248
-2.319987e-20 4.93776e-40 -0.008441413 -4.9524e-40 -7.867708e-17 0.00020905644 0.0007815731 0.0020886252

bias f4 [128]
00000000: 7f35 3fbc c451 2f3a bf46 983d 0609 063e
00000010: 369a 9e3a d6a5 dcbc 6774 23ba c445 893d
00000020: 8c93 d4b9 999c c4bd 8a74 9abd 3d35 bfbb
00000030: 6d49 8cbd 7eb9 85bb 6f5f 423a 1d9f f5bc
00000040: df47 17b9 9c4a 88b9 f438 76bd db52 aeba
00000050: cb05 9bba 487a beb9 a3cc 223b 2d92 3b3c
00000060: a4cd 4e3a 0d85 2abb 3fea 863d 8103 873d
00000070: 7830 91bd 9317 a83d bcc1 16bd c6da 56ba
00000080: 2d52 02bb 4734 f83d ff06 e43a 921b 11bb
00000090: f425 e93d 0977 abbc 2a96 db3a b943 1e3a
000000a0: 8357 87bc d77c d8bd 6e3b d7ba 1e53 683d
000000b0: c98e 033d 3a63 083e c158 ecbc cfa1 b2bd
000000c0: 49c0 693c 1d1e a8bc 073f 293a 1d36 26bd
000000d0: 3240 f4bc 20c6 ffbc 4f77 9d3d aa0b 2a3d
000000e0: 8c25 03bb d4c5 ceba 56b9 b3bd b01c 87ba
000000f0: 5c3c 353d 0f75 41ba d747 363b 3f4b a8b9
00000100: 17da 39ba 1646 573a 36a0 313d e3c8 bf39
00000110: d8f3 09ba 47eb 483a 6500 763d 5c4e f239
00000120: 6670 cdba 2720 83bd 318a 5abd dc2b 4c3d
00000130: 8c18 17bd 98ec fc3d d67d b1b9 3bf0 b63d
00000140: 9894 7b3b b268 02bb a64a 423b fdc8 703c
00000150: 0549 933a f336 e8bd eadf d23a 8232 123c
00000160: 09a2 30bb d286 d23a 71ee 13ba 399a aaba
00000170: 16fc 65ba 9592 3d3b 3346 3c39 9bce 02be
00000180: 24c4 d8bd 9029 fd3d 8005 35bd 612e 88b8
00000190: 6c14 8fbd c439 adba 5969 7ab8 1be1 e43c
000001a0: 7257 64ba 8315 99ba 058d 803c 1e64 743d
000001b0: 5b6e 713d 16c5 f2ba b479 c1ba 01bf 0b3d
000001c0: e4f0 4eba 79db 90bd f6cc b63d d5db 09be
000001d0: 3ec1 9a3a feec cdbc 6cba fdbc 0a69 04bb
000001e0: 5ab3 56bd c947 123b 7e4a aaba 874b 0cbb
000001f0: 3078 e73a 8fb2 0f3e a333 85ba 38d5 0fbe
-0.011670469 0.0006687904 0.07435369 0.1308938 0.0012100402 -0.026934545 -0.0006235302 0.0670276
-0.00040545722 -0.09600181 -0.07541759 -0.005835204 -0.06849942 -0.0040809503 0.00074147334 -0.029983098
-0.00014427256 -0.0002599553 -0.06011291 -0.0013299839 -0.0011827288 -0.0003633073 0.0024841211 0.011448425
0.0007888919 -0.0026019246 0.06587648 0.06592465 -0.07089323 0.082076214 -0.036805853 -0.0008196052
-0.0019885406 0.12119346 0.0017397105 -0.0022141677 0.11384192 -0.020930784 0.0016753126 0.0006037313
-0.016521221 -0.10570686 -0.001642091 0.05671989 0.032118592 0.13319102 -0.028850915 -0.08722269
0.014267036 -0.020522172 0.000645623 -0.04057895 -0.029815767 -0.031222403 0.07688772 0.04151503
-0.0020011393 -0.001577551 -0.087755844 -0.0010308232 0.044247016 -0.0007379809 0.0027813816 -0.0003209952
-0.0007089688 0.0008212043 0.04336568 0.0003658003 -0.0005262471 0.00076644536 0.06005897 0.0004621622
-0.0015673756 -0.06402617 -0.053354446 0.049846515 -0.036888644 0.12349814 -0.00033853826 0.08932539
0.003838813 -0.001989883 0.0029646545 0.014696357 0.0011236971 -0.11338606 0.001608846 0.008923175
-0.002695205 0.0016061908 -0.00056431355 -0.0013015933 -0.00087732205 0.002892648 0.00017955228 -0.12774126
-0.10584286 0.12361443 -0.0441947 -6.493624e-05 -0.06986317 -0.0013216068 -5.9702757e-05 0.02793937
-0.000871054 -0.0011679385 0.015692243 0.05966579 0.058943134 -0.0018521871 -0.0014761002 0.034117702
-0.0007894172 -0.07073111 0.08925812 -0.13462766 0.0011806858 -0.02513742 -0.030972682 -0.002020421
-0.052417137 0.002232062 -0.0012992171 -0.0021407322 0.001765972 0.14032958 -0.0010162484 -0.1404618
