CNP-model-save-name/saved_models/model_0.pth (torch, 732660 bytes, 50 tensors)

weight f4 [64, 5]
0	0x3e365146	0.17804441
1	0xbd9225d7	-0.071361236
2	0xbcbffdc8	-0.023436442
3	0x3e90961f	0.28239533
4	0xbe923082	-0.28552634
5	0xbc49a99a	-0.012308503
6	0x3e8cd066	0.27502745
7	0xbd683ca5	-0.05669846
8	0xbcb27ab4	-0.021787025
9	0x3e49d60a	0.19710556
10	0xbd11f921	-0.03563798
11	0xbadca239	-0.0016833014
12	0xbdce4804	-0.1007233
13	0xbd646162	-0.055756934
14	0xbe74f16f	-0.23920225
15	0x3dbe2a50	0.09285414
16	0xbe3eb352	-0.18623093
17	0xbda7701a	-0.081756786
18	0x3e479119	0.19488944
19	0xbe707e99	-0.23485793
20	0x3e92088c	0.28522146
21	0xbe93d2c3	-0.28871736
22	0x3d98475f	0.07435488
23	0x3ce847d9	0.028354572
24	0x3e8d9b98	0.2765777
25	0x3cd67821	0.026180329
26	0x3e02b00d	0.1276247
27	0x3e9321c3	0.28736696
28	0x3ce8bd36	0.028410535
29	0xbd85cdaf	-0.06533372
30	0xbe6686d0	-0.22512364
31	0x3e8d049a	0.27542573
32	0xbe333f62	-0.17504647
33	0xbe35e973	-0.17764835
34	0x3e082d0b	0.13298433
35	0x3cfc3d39	0.030790912
36	0xbd25c263	-0.040468585
37	0x3e883de6	0.26609725
38	0xbcbb3ce0	-0.022856176
39	0x3e0507a0	0.1299119
40	0xbe883f89	-0.26610973
41	0xbe388623	-0.18019919
42	0xbde7ad9e	-0.11312412
43	0xbc85e2cf	-0.016343502
44	0xbd445fd0	-0.047942936
45	0x3e5d272f	0.21596979
46	0xbe3c633a	-0.18397227
47	0xbe826e3b	-0.25474724
48	0x3e2e3dd7	0.17015778
49	0x3e8ca079	0.2746618
50	0xbda132ce	-0.07871018
51	0x3d97a93b	0.07405325
52	0x3e69dbe3	0.22837786
53	0x3d2b47ce	0.041816525
54	0xbe946889	-0.28986004
55	0xbc091194	-0.008366007
56	0xbe2d95d8	-0.16951692
57	0xbdfc3834	-0.123154074
58	0x3deff74e	0.117170915
59	0x3e551642	0.20809272
60	0xbde7c53e	-0.11316918
61	0x3d996fd8	0.074920356
62	0xbd6663a0	-0.056247354
63	0x3e3edc0f	0.18638633
64	0xbe4d4eba	-0.20049563
65	0xbe3e8588	-0.18605626
66	0x3e1d7106	0.15375146
67	0xbd02c26a	-0.03192369
68	0x3d8dc2eb	0.06921943
69	0xbe1ad061	-0.15118553
70	0x3e5d0ccc	0.21586913
71	0x3e44ff74	0.19238073
72	0xbd6304b6	-0.055424415
73	0x3e75c2d4	0.24000102
74	0xbe926841	-0.28595164
75	0x3e94a51d	0.2903222
76	0x3e86bd8e	0.26316494
77	0x3e6851f3	0.22687511
78	0xbe84379c	-0.25823677
79	0x3da0ee96	0.07858007
80	0x3e35630b	0.17713563
81	0xbe8f832a	-0.28029758
82	0x3e3d8411	0.1850741
83	0xbe549038	-0.2075814
84	0x3e642959	0.22281398
85	0xbd6b770f	-0.05748659
86	0x3e8577cf	0.2606797
87	0xbe482184	-0.19544035
88	0x3d3b83dc	0.045780048
89	0x3dac8613	0.0842401
90	0x3d608a45	0.054819364
91	0x3e81fa3d	0.2538623
92	0xbe67c0cc	-0.2263214
93	0x3daacd00	0.08339882
94	0x3da5e0c2	0.0809951
95	0x3e291e6b	0.1651551
96	0x3e2db05c	0.16961807
97	0x3e313f59	0.17309321
98	0xbe510791	-0.20413043
99	0xbb17619a	-0.0023098947
100	0xbe47e591	-0.19521166
101	0xbe32ab1f	-0.1744809
102	0xbcb5c55b	-0.022188833
103	0x3e0e1282	0.13874248
104	0x3e5ba0ec	0.21448106
105	0xbe44ec6e	-0.19230816
106	0x3e6cc3cf	0.2312157
107	0xbe87b42b	-0.26504645
108	0xbd98565c	-0.07438347
109	0xbe420edd	-0.18950982
110	0x3e463615	0.19356568
111	0xbd3bcb26	-0.045848034
112	0x3e8e76f0	0.27825117
113	0x3e00011c	0.12500423
114	0xbd463009	-0.048385654
115	0xbbf5907d	-0.007494031
116	0x3e352abc	0.17692083
117	0xbd6824cc	-0.056675717
118	0x3e55aed4	0.20867473
119	0xbe2ad613	-0.16683225
120	0xbdd0b9ed	-0.101917125
121	0x3e4bcee3	0.1990314
122	0xbe6f8ad5	-0.23392804
123	0xbda25be9	-0.07927687
124	0x3df4d6d8	0.11955041
125	0x3e0b5845	0.13607891
126	0xbe601a6e	-0.21885082
127	0x3e40c0d2	0.18823555
128	0x3e2ceb05	0.16886528
129	0xbd4205fe	-0.047368996
130	0xbe6a69dc	-0.22891945
131	0x3e9167f6	0.28399628
132	0xbdcd17ee	-0.1001433
133	0x3b9bacb8	0.0047508143
134	0xbe319274	-0.17341024
135	0x3d2e8588	0.042607814
136	0xbc3c1a15	-0.011480828
137	0xbda9bb9e	-0.08287738
138	0x3df4f3c9	0.11960561
139	0x3d735b51	0.059413258
140	0x3e5527f2	0.20816019
141	0x3e83a356	0.25710553
142	0xbd4ef70b	-0.050528567
143	0x3db1c2df	0.08679747
144	0xbd930e6d	-0.07180486
145	0xbde264fa	-0.11054416
146	0x3e6ebc26	0.2331396
147	0xbe94288d	-0.28937188
148	0xbe8ecc23	-0.2789012
149	0xbe4aaeb4	-0.19793206
150	0xbe108dd5	-0.14116605
151	0xbe8edaf9	-0.27901438
152	0xbe5c2102	-0.21496966
153	0x3dcceade	0.10005735
154	0xbda9c639	-0.08289761
155	0x3e62b926	0.22140941
156	0x3d4737cd	0.0486372
157	0x3dbcad14	0.092126995
158	0x3e15791f	0.14596985
159	0xbe3371e7	-0.17523919
160	0xbde690c5	-0.11258081
161	0x3e928cb6	0.2862298
162	0xbe792fc8	-0.24334633
163	0x3d9f6107	0.07782178
164	0x3e27247f	0.16322516
165	0xbe7423c3	-0.23841767
166	0x3d8cd001	0.06875611
167	0xbda06e2a	-0.07833512
168	0xbe021de3	-0.12706713
169	0xbd5510ca	-0.052017964
170	0xbe687f83	-0.22704892
171	0x3e09c98e	0.13455793
172	0xbe624cbe	-0.22099587
173	0x3e74918d	0.23883648
174	0x3e482225	0.19544275
175	0x3e0af06d	0.13568278
176	0xbcd4bacd	-0.02596798
177	0x3d108db7	0.0352914
178	0xbdc86120	-0.0978415
179	0x3e76b31e	0.24091765
180	0x3e43b23e	0.19110963
181	0xbdc43da3	-0.09582069
182	0x3dcf1d4b	0.10113009
183	0xbcdadd0a	-0.026716728
184	0xbe73f3c4	-0.23823458
185	0x3d664678	0.056219548
186	0xbe04109f	-0.12896965
187	0xbe781ab6	-0.2422894
188	0xbd478b08	-0.048716575
189	0x3e85cfc4	0.26135075
190	0x3e3ce6a2	0.18447354
191	0x3d859acf	0.06523668
192	0xbe531e0b	-0.20616929
193	0xbdb8eb7c	-0.0902929
194	0x3e8e7370	0.27822447
195	0xbe69cfd3	-0.22833185
196	0xbe27387c	-0.16330141
197	0xbe041c04	-0.12901312
198	0x3db72017	0.089416675
199	0x3e2039c0	0.1564703
200	0x3e30bb4b	0.17258947
201	0xbcdc7e76	-0.02691577
202	0xbc8a2384	-0.016862638
203	0xbe0ceb1b	-0.1376156
204	0x3e3767f0	0.17910743
205	0x3e675bec	0.22593659
206	0x3e519cac	0.20469922
207	0xbe59cd71	-0.21269776
208	0xbdf8e4fb	-0.121530496
209	0x3dc3d3d1	0.09561885
210	0x3d8bff53	0.068358086
211	0x3e0863dc	0.13319343
212	0x3d18fe01	0.037351612
213	0xbe574f3a	-0.21026316
214	0xbdf7c3c7	-0.120978884
215	0xbe6a5c8a	-0.22886863
216	0xbd4d24e0	-0.050083995
217	0x3cb3ec7c	0.02196335
218	0x3c8ca238	0.017167196
219	0x3e58f711	0.21187998
220	0x3d40d0f4	0.047074273
221	0x3d46d340	0.048541307
222	0xbdea08e8	-0.1142748
223	0x3e5449be	0.20731255
224	0xbd86b412	-0.065773144
225	0x3e84694e	0.2586159
226	0xbce5b5d1	-0.028040798
227	0x3e67b925	0.22629221
228	0x3df35eb5	0.11883298
229	0xbb908d88	-0.004411403
230	0x3e68daeb	0.2273976
231	0xbdc5f814	-0.09666458
232	0x3e5a3d8d	0.21312542
233	0x3e68e853	0.22744875
234	0x3dff82b4	0.124761015
235	0x3e414eb7	0.18877684
236	0x3b90bb46	0.004416856
237	0x3e1253e7	0.14289819
238	0xbe70787e	-0.23483464
239	0xbe5b8865	-0.21438749
240	0xbdfc0f07	-0.12307554
241	0x3df9b7d0	0.121932626
242	0xbe964ab0	-0.29353857
243	0x3dd2e89a	0.102982715
244	0x3e771730	0.24129939
245	0xbd68499f	-0.056710836
246	0x3d39b72e	0.04534071
247	0xbe2e4b6d	-0.1702096
248	0xbd444cbf	-0.047924753
249	0xbe8874a5	-0.26651493
250	0xbe320ed1	-0.17388465
251	0xbcdf7efe	-0.027282234
252	0x3da5d014	0.080963284
253	0x3dd602af	0.104497306
254	0xbd89e932	-0.067339316
255	0xbda9b234	-0.08285943

bias f4 [64]
0	0xba83126a	-0.0009999995
1	0x3a83126d	0.0009999998
2	0xba83126d	-0.0009999998
3	0x3a83126c	0.0009999997
4	0x3a831265	0.0009999989
5	0xba83126d	-0.0009999998
6	0xba83126d	-0.0009999998
7	0xba83126d	-0.0009999998
8	0xba83126d	-0.0009999998
9	0x3a8311eb	0.0009999847
10	0x3a83126b	0.0009999996
11	0xba83126a	-0.0009999995
12	0xba831269	-0.0009999993
13	0xba83126c	-0.0009999997
14	0x3a83126d	0.0009999998
15	0x3a83126d	0.0009999998
16	0xba83126d	-0.0009999998
17	0x3a83126d	0.0009999998
18	0x3a831269	0.0009999993
19	0x3a831268	0.0009999992
20	0xba83126d	-0.0009999998
21	0x3a83125f	0.0009999982
22	0xba83126d	-0.0009999998
23	0x3a83126d	0.0009999998
24	0xba83126d	-0.0009999998
25	0xba83126e	-0.0009999999
26	0x3a83126e	0.0009999999
27	0x3a83126d	0.0009999998
28	0x3a831269	0.0009999993
29	0x3a83126d	0.0009999998
30	0xba83126d	-0.0009999998
31	0xba83126d	-0.0009999998
32	0x3a83126e	0.0009999999
33	0xba83126d	-0.0009999998
34	0x3a83126e	0.0009999999
35	0xba83126b	-0.0009999996
36	0x3a83126d	0.0009999998
37	0x3a83126d	0.0009999998
38	0x3a831267	0.0009999991
39	0xba83126b	-0.0009999996
40	0xba83125e	-0.0009999981
41	0x3a83126c	0.0009999997
42	0x3a831269	0.0009999993
43	0xba83126d	-0.0009999998
44	0x3a83126c	0.0009999997
45	0x3a83126d	0.0009999998
46	0xba83126d	-0.0009999998
47	0xba831260	-0.0009999983
48	0x3a83126a	0.0009999995
49	0x3a83126e	0.0009999999
50	0x3a831266	0.000999999
51	0xba831247	-0.0009999954
52	0xba83126d	-0.0009999998
53	0x3a831261	0.0009999984
54	0x3a831266	0.000999999
55	0xba83126d	-0.0009999998
56	0x3a83126d	0.0009999998
57	0x3a83126b	0.0009999996
58	0xba831256	-0.0009999971
59	0xba83126b	-0.0009999996
60	0x3a83126d	0.0009999998
61	0xba83126b	-0.0009999996
62	0x3a83126d	0.0009999998
63	0xba83126b	-0.0009999996

weight f4 [64, 4]
0	0x3cd26e16	0.025687259
1	0xbe2d8d72	-0.16948488
2	0x3c2e5055	0.01063927
3	0x3e7ea8c0	0.2486906
4	0xbc2ddeb6	-0.01061218
5	0xbe0841a6	-0.13306293
6	0x3e590bf4	0.21195966
7	0xbe59293c	-0.21207136
8	0x3e590fd5	0.21197446
9	0xbc09a4d8	-0.008401118
10	0x3e920a5d	0.28523532
11	0x3cedec80	0.029043436
12	0xbe53f51a	-0.20698968
13	0x3e83f3b8	0.2577188
14	0xbd8d707e	-0.06906222
15	0xbdbff07e	-0.09372042
16	0x3cbae710	0.022815257
17	0x3d1531e8	0.036424547
18	0x3e83403e	0.2563495
19	0xbe5dd455	-0.2166303
20	0xbdf48111	-0.1193868
21	0x3e9317ae	0.28729004
22	0xbe0a03d7	-0.13478027
23	0x3e28b012	0.16473415
24	0xbe04d254	-0.12970859
25	0x3d7947cd	0.06085949
26	0xbe55b613	-0.20870237
27	0xbe0f4613	-0.13991575
28	0x3dba78c9	0.09105069
29	0xbd537ae0	-0.051630855
30	0xbc5621da	-0.013069594
31	0x3dacc2b9	0.08435578
32	0xbdd2438a	-0.10266788
33	0x3e11cee0	0.14239073
34	0x3d87685e	0.06611703
35	0x3d9e561c	0.07731268
36	0x3deb89ac	0.11500868
37	0xbe45e3af	-0.19325136
38	0x3e3534e8	0.17695963
39	0xbe141d60	-0.1446433
40	0x3e0829db	0.13297217
41	0xbe9377eb	-0.28802428
42	0x3de07b93	0.1096107
43	0x3e634193	0.22192983
44	0xbd9ffe3b	-0.078121625
45	0x3e75114a	0.23932377
46	0xbdf46afe	-0.1193447
47	0x3e27e20b	0.16394822
48	0xbe4d0117	-0.20019947
49	0xbe8c1128	-0.2735684
50	0x3e351c14	0.17686492
51	0xbc488a33	-0.0122399805
52	0x3e419c42	0.18907264
53	0xbdb0cf10	-0.08633244
54	0xbd109616	-0.035299383
55	0x3d951a75	0.07280437
56	0xbdf095e3	-0.117473386
57	0xbde4dc20	-0.11174798
58	0xbb3ab0af	-0.002848666
59	0x3e4c1053	0.19928102
60	0xbe3abd99	-0.18236388
61	0xbe88700f	-0.26647994
62	0xbe3968b6	-0.1810635
63	0x3d863678	0.06553358
64	0x3dbd8c4e	0.092552766
65	0xbe86b3e1	-0.26309112
66	0xbd8a60dd	-0.067567565
67	0xbe8f59e4	-0.2799827
68	0xbdd52dc5	-0.104091205
69	0x3e87dd4d	0.26536027
70	0x3d5ea6e8	0.054358393
71	0x3e37b720	0.1794095
72	0xbe7794c1	-0.24177839
73	0x3e2ff69e	0.1718392
74	0x3e947a82	0.28999716
75	0xbe69f6be	-0.22848031
76	0x3dbf7f69	0.093504734
77	0xbd427880	-0.0474782
78	0xbdaea867	-0.08528214
79	0xbe575ec2	-0.21032241
80	0x3e19857a	0.14992324
81	0x3e327f94	0.1743148
82	0x3db651f1	0.08902348
83	0x3c18bfd6	0.009323081
84	0x3e2dcdb6	0.16973004
85	0x3e77e58f	0.24208663
86	0x3e5506aa	0.20803323
87	0x3e210329	0.15723862
88	0x3dff37ad	0.12461791
89	0x3bf8be0d	0.007591015
90	0x3e495f80	0.19665337
91	0xbd852d15	-0.06502739
92	0x3e539195	0.20661004
93	0x3d3ba696	0.045813166
94	0xbdcb82b6	-0.099370405
95	0x3e069cdb	0.13145773
96	0x3d61d582	0.055135258
97	0xbe8f045c	-0.27933013
98	0xbe2f7632	-0.17134932
99	0x3db3d807	0.08781438
100	0x3e2239c8	0.15842354
101	0xbddc356e	-0.107523784
102	0xb9827d9d	-0.0002488912
103	0x3e3cbe8b	0.18432061
104	0xbe2625a9	-0.16225304
105	0x3e76c5f4	0.2409895
106	0xbe3a3de0	-0.18187666
107	0xbdf1a500	-0.117990494
108	0xbe3fae8d	-0.1871893
109	0x3e57abbe	0.21061608
110	0x3e0f4420	0.13990831
111	0xbd518d56	-0.05116018
112	0x3e75513f	0.23956774
113	0xbd55351d	-0.052052606
114	0x3e9108ab	0.28326926
115	0xbe2f20d2	-0.17102364
116	0xbe7b61d0	-0.24549031
117	0x3dc53923	0.096300386
118	0x3df05493	0.11734881
119	0xbe6254a2	-0.22102597
120	0x3e8b40db	0.27197918
121	0xbe8a4b65	-0.27010646
122	0xbe2af32d	-0.16694327
123	0xbc1d9059	-0.009616935
124	0x3dbfe3c5	0.093696155
125	0xbd8f267d	-0.06989763
126	0x3cf6161a	0.030039836
127	0x3e2cdbaf	0.16880678
128	0xbc6de810	-0.01452066
129	0x3e0fa2f1	0.14027001
130	0xbd480807	-0.04883578
131	0xbdc9615c	-0.09833023
132	0x3df50bc1	0.119651325
133	0xbd925e8f	-0.07146942
134	0xbcb424f5	-0.021990279
135	0x3e96be09	0.2944186
136	0xbd5437cb	-0.05181102
137	0x3e720459	0.23634471
138	0x3cf2ce50	0.029639393
139	0xbe178bb2	-0.14799383
140	0xbd47632b	-0.04867856
141	0x3e8f9843	0.28045854
142	0x3e047173	0.12933902
143	0x3d025688	0.031820804
144	0x3deed8ad	0.116624214
145	0x3d797643	0.0609038
146	0x3e1a25d5	0.15053494
147	0x3d22d013	0.039749216
148	0x3e28e07d	0.16491885
149	0xbe2bf039	-0.16790856
150	0xbded39f6	-0.11583321
151	0xbda7bc68	-0.081902325
152	0x3e7b947a	0.24568358
153	0xbbf5f846	-0.007506403
154	0x3d3f882e	0.04676073
155	0xbe83b452	-0.2572351
156	0xbe613c19	-0.21995582
157	0x3e4a489f	0.19754265
158	0xbe07d7d3	-0.13265924
159	0xbc2ad2ad	-0.010426206
160	0x3e435b7f	0.19077872
161	0x3e714f49	0.23565401
162	0x3dd2eeac	0.10299429
163	0x3e6b064c	0.22951621
164	0x3d79bb70	0.06096977
165	0x3d6e4dde	0.05817973
166	0xbe1a59cf	-0.15073322
167	0x3e6c4630	0.2307365
168	0xbe731942	-0.23740104
169	0x3d9d9dc4	0.07696107
170	0xbe480eb2	-0.19536856
171	0xbdf8c0bb	-0.121461354
172	0x3b363e82	0.0027808254
173	0x3e82a29b	0.25514683
174	0x3d75cf05	0.060011882
175	0xbd558b6d	-0.05213492
176	0xbd12f636	-0.035879336
177	0x3de2a6d6	0.11066978
178	0xbe1c920c	-0.15290087
179	0x3e6be259	0.23035564
180	0x3e290f56	0.16509756
181	0x3c161ee2	0.0091626365
182	0x3e8655a9	0.2623723
183	0x3d7a888c	0.061165377
184	0xbcb962db	-0.022630146
185	0x3c3255e3	0.010884735
186	0xbde1cb94	-0.110251576
187	0x3de6dc4b	0.11272486
188	0xbe8a2489	-0.26981
189	0xbe1ba397	-0.15199123
190	0xbd32b38a	-0.043628253
191	0x3e61df40	0.2205782
192	0x3cbcc3d9	0.023042606
193	0xbe8e2e8c	-0.27769887
194	0xbdcbe8a4	-0.09956482
195	0xbaf1730c	-0.0018421127
196	0xbcfb55f3	-0.030680632
197	0x3d62409e	0.055237405
198	0xbd4be45e	-0.049778335
199	0x3e44f00d	0.19232197
200	0x3dc878f2	0.097886935
201	0x3e3f9ab0	0.18711352
202	0xbceff99a	-0.029293824
203	0xbe154f58	-0.14581048
204	0xbd84e49b	-0.064889155
205	0xbe958784	-0.29204953
206	0x3e329c96	0.17442545
207	0xbe2f0716	-0.17092547
208	0xbce36eec	-0.027762853
209	0x3e087067	0.13324128
210	0x3dc5e909	0.096635886
211	0xbdb078b5	-0.08616773
212	0xbe651d5c	-0.22374481
213	0xbdaf110e	-0.08548175
214	0x3e8b88d3	0.27252826
215	0x3c8d028b	0.017213127
216	0x3e69f610	0.22847772
217	0xbe380ccc	-0.17973632
218	0xbe2e8467	-0.17042695
219	0xbde6d19a	-0.11270447
220	0xbd0ccc7f	-0.03437471
221	0xbdcc35b1	-0.09971178
222	0xbe9193a4	-0.28432953
223	0x3e7915a7	0.24324666
224	0xbe1a5716	-0.15072283
225	0x3e8ecb15	0.27889314
226	0xbdd3604d	-0.10321102
227	0xbe4736ea	-0.19454542
228	0x3e539e58	0.20665872
229	0xbda797f9	-0.08183283
230	0x3d78a697	0.060705747
231	0x3e3fb943	0.18723015
232	0xbc835c9e	-0.016035374
233	0xbd9c0485	-0.076180495
234	0xbe4ec11b	-0.20190851
235	0x3d121cc6	0.03567197
236	0xbd1e566e	-0.038656645
237	0xbe8862b3	-0.26637802
238	0x3e923c61	0.2856169
239	0x3c033382	0.008007886
240	0xbd60e749	-0.05490807
241	0x3d72cd5c	0.059277877
242	0x3d87d88c	0.066331
243	0xbd2a81d9	-0.04162774
244	0xbd1d9346	-0.03847053
245	0x3e57600b	0.21032731
246	0xbddfd3b5	-0.10929052
247	0x3cbb4ae7	0.022862865
248	0x3e657343	0.2240725
249	0xbe1a042a	-0.15040651
250	0xbde47a2c	-0.11156115
251	0xbe8c1cfe	-0.2736587
252	0xbe50842e	-0.20362923
253	0x3e0a62e5	0.13514288
254	0x3e8f63df	0.28005883
255	0x3e405e34	0.18785936

bias f4 [64]
0	0xba831269	-0.0009999993
1	0x3a831269	0.0009999993
2	0x3a831264	0.0009999988
3	0x3a83120c	0.0009999885
4	0xba831266	-0.000999999
5	0xba83126b	-0.0009999996
6	0xba831262	-0.0009999985
7	0x3a83126b	0.0009999996
8	0x3a831269	0.0009999993
9	0x3a83126d	0.0009999998
10	0xba83126c	-0.0009999997
11	0xba83125e	-0.0009999981
12	0xba83126d	-0.0009999998
13	0x3a83126b	0.0009999996
14	0xba831257	-0.0009999973
15	0x3a83126b	0.0009999996
16	0x3a83126c	0.0009999997
17	0x3a831268	0.0009999992
18	0x3a83126c	0.0009999997
19	0x3a831261	0.0009999984
20	0x3a83126b	0.0009999996
21	0xba831256	-0.0009999971
22	0x3a83126c	0.0009999997
23	0xba83126a	-0.0009999995
24	0x3a83123f	0.0009999945
25	0x3a83126c	0.0009999997
26	0xba831269	-0.0009999993
27	0x3a83126c	0.0009999997
28	0xba83126b	-0.0009999996
29	0x3a831246	0.0009999953
30	0x3a83126b	0.0009999996
31	0xba831266	-0.000999999
32	0xba83126e	-0.0009999999
33	0xba831266	-0.000999999
34	0x3a831269	0.0009999993
35	0xba83126c	-0.0009999997
36	0x3a83126b	0.0009999996
37	0x3a8311a2	0.0009999762
38	0x3a83126a	0.0009999995
39	0x3a83126b	0.0009999996
40	0xba83126d	-0.0009999998
41	0xba831255	-0.000999997
42	0xba83126b	-0.0009999996
43	0x3a83126b	0.0009999996
44	0x3a83126c	0.0009999997
45	0x3a83126d	0.0009999998
46	0xba83126b	-0.0009999996
47	0xba83126d	-0.0009999998
48	0x3a831208	0.000999988
49	0x3a830ec7	0.0009998911
50	0xba83126b	-0.0009999996
51	0x3a83126d	0.0009999998
52	0xba83126b	-0.0009999996
53	0x3a831263	0.0009999987
54	0x3a83126b	0.0009999996
55	0x3a831257	0.0009999973
56	0xba831266	-0.000999999
57	0x3a831269	0.0009999993
58	0xba831267	-0.0009999991
59	0xba831254	-0.0009999969
60	0xba831268	-0.0009999992
61	0x3a83126c	0.0009999997
62	0xba831264	-0.0009999988
63	0x3a83126d	0.0009999998

in_proj_weight f4 [192, 64]
0	0xbb3d79fc	-0.002891182
1	0xbca0eddf	-0.019644676
2	0x3d0b0ee2	0.03394974
3	0xbdcee91c	-0.10103056
4	0x3dceaa62	0.10091092
5	0x3daf4d26	0.08559637
6	0xbb83a1a4	-0.004017072
7	0x3d01a39d	0.031650174
8	0xbd7305e9	-0.05933181
9	0xbdb84b54	-0.08998743
10	0x3db19685	0.086712874
11	0x3e04bb61	0.12962104
12	0xbd34a75e	-0.044104926
13	0xbe050c77	-0.12993036
14	0xbe0f5f49	-0.14001192
15	0x3d983d5f	0.074335806
16	0xbe0f67ba	-0.14004412
17	0x3da7ae6a	0.08187564
18	0xbe0440c1	-0.12915327
19	0xbe15698d	-0.14591046
20	0x3e0eccb3	0.13945274
21	0xbda81019	-0.082061954
22	0x3d36d2ee	0.044634752
23	0x3d427495	0.047474463
24	0x3dea775e	0.11448549
25	0x3e16ba34	0.14719468
26	0x3d8dfd80	0.06933117
27	0xbdf6142c	-0.12015566
28	0xbe15e911	-0.14639689
29	0xbd887e56	-0.06664722
30	0x3e0ab564	0.13545758
31	0xbd53c8d2	-0.05170519
32	0x3d11f33e	0.035632364
33	0x3dc62c49	0.096764155
34	0xbda6d364	-0.08145788
35	0xbe14aa5b	-0.1451811
36	0x3d6efd9f	0.05834734
37	0xbde3a43e	-0.11115311
38	0xbd9f8bcb	-0.07790335
39	0x3d2bc434	0.04193516
40	0x3d44035f	0.047854777
41	0x3d2511df	0.040300246
42	0xbd59bf44	-0.05316092
43	0x3e1b5a43	0.15171151
44	0xbd95eecf	-0.0732094
45	0xbe0f089d	-0.1396813
46	0xbe15ae97	-0.14617382
47	0x3bcdcf84	0.0062808413
48	0x3c8c6a85	0.017140636
49	0x3d8da745	0.0691667
50	0x3dab00cf	0.083497636
51	0xbded38ea	-0.11583121
52	0x3da7985e	0.081833586
53	0x3d74be4d	0.059751797
54	0x3e129a56	0.14316687
55	0xbdafae3d	-0.08578155
56	0x3d0cbc88	0.034359485
57	0x3e1a1039	0.15045251
58	0x3db91510	0.090372205
59	0x3d136f7d	0.035994995
60	0x3dd0fb2e	0.10204159
61	0x3c1ad055	0.009449084
62	0x3bad4bc1	0.0052885716
63	0x3cf01649	0.029307501
64	0xbb66905a	-0.0035181255
65	0xbd89efcd	-0.067351915
66	0x3e1314af	0.14363359
67	0x3d45723c	0.048204646
68	0x3e15c1c9	0.14624704
69	0x3de1d6e0	0.11027312
70	0xbe0462e1	-0.12928344
71	0xbcc83720	-0.024440348
72	0xbdf3daab	-0.11906942
73	0x3ddb1385	0.106970824
74	0x3d600a5c	0.05469738
75	0x3e05a307	0.13050471
76	0x3ddf999e	0.10917972
77	0xbd76ea4f	-0.060282048
78	0xbda9428d	-0.08264647
79	0xbdad22f5	-0.08453933
80	0x3de29053	0.11062684
81	0xbe003c3a	-0.12522975
82	0x3df5fecb	0.120114885
83	0x3dcfb690	0.10142243
84	0xbdc0cf16	-0.094144985
85	0xbde76141	-0.112978466
86	0xbc9bc4d2	-0.01901475
87	0x3d33f544	0.043935075
88	0xbe19e084	-0.15027052
89	0x3dfa503a	0.12222333
90	0x3e0327c9	0.12808146
91	0xbd41d8a0	-0.04732573
92	0xbd831dd0	-0.06402171
93	0x3cd3aa0b	0.025837919
94	0xbd77c0fa	-0.06048677
95	0x3da77132	0.08175887
96	0xbe17f67d	-0.14840122
97	0xbd436f39	-0.047713492
98	0x3dce2497	0.10065573
99	0x3d909479	0.07059569
100	0x3d00a752	0.03140957
101	0x3db5aace	0.08870469
102	0xbb9efcbf	-0.004851907
103	0xbdf4f7f5	-0.119613566
104	0x3d4493c5	0.047992487
105	0x3dd47a3d	0.103748776
106	0x3dcff662	0.10154416
107	0xbcc3928e	-0.023873594
108	0x3e197750	0.1498692
109	0x3c30bffb	0.010787959
110	0x3df694fc	0.12040135
111	0x3b15be5f	0.0022849066
112	0x3c63467b	0.013871784
113	0xbddada99	-0.106862254
114	0xbdf5fd93	-0.12011256
115	0xbcb1755e	-0.02166241
116	0x3dc2c426	0.095100686
117	0x3d45054f	0.048100766
118	0xbc9ebb03	-0.019376284
119	0xbe031ab8	-0.12803161
120	0x3d47db79	0.04879329
121	0xbe021ece	-0.12707064
122	0xbdb4d066	-0.08828811
123	0xbd7bc5b9	-0.06146786
124	0xbdebd6b3	-0.1151556
125	0xbbf32c2c	-0.007421037
126	0xbc9f06e1	-0.01941246
127	0x3d43bbde	0.047786586
128	0x3bab1ca4	0.00522192
129	0x3dbe2afd	0.09285543
130	0x3d4f95f7	0.050680127
131	0x3dcd0ee7	0.10012608
132	0xbda0665b	-0.07832023
133	0x3dff04a8	0.1245206
134	0xbcb0180e	-0.021495845
135	0xbb461ee4	-0.0030230815
136	0x3dba3415	0.09091965
137	0xbcda90cd	-0.026680375
138	0x3e05fc4e	0.13084528
139	0xbd665876	-0.056236707
140	0x3e15e4e9	0.14638104
141	0x3de6283b	0.11238142
142	0xbe129e2f	-0.14318155
143	0xbe0cffb4	-0.13769418
144	0x3cc35af2	0.023847077
145	0xbc677939	-0.014128023
146	0x3e0e62fa	0.13904944
147	0xbd8cf4e3	-0.06882646
148	0xbd552550	-0.052037537
149	0x3da1b549	0.078959055
150	0xbd11c214	-0.035585478
151	0x3c59f698	0.013303421
152	0x3d882398	0.06647414
153	0x3dd05f1c	0.10174391
154	0xbd116c20	-0.035503507
155	0x3e172feb	0.14764373
156	0xbdd6364a	-0.104595736
157	0xbda4f964	-0.0805538
158	0xbd6c2456	-0.05765184
159	0x3d05202d	0.03250139
160	0xbdc189ad	-0.09450088
161	0xbe01c18d	-0.1267149
162	0xbe0ca0f5	-0.13733275
163	0x3ded00e8	0.115724385
164	0x3e15fe0b	0.14647691
165	0xbe0ddda7	-0.13854085
166	0xbe116dc4	-0.14202029
167	0xbdc05a8d	-0.09392271
168	0x3dcd5763	0.10026433
169	0x3d342c7a	0.04398773
170	0x3de4df2a	0.11175378
171	0x3e15108b	0.14557092
172	0x3dccf493	0.10007586
173	0xbc7d2f73	-0.015453207
174	0xbe09b3df	-0.13447522
175	0x3e0908b6	0.13382229
176	0xbe0e2119	-0.13879813
177	0x3deac8fb	0.11464115
178	0x3e042dac	0.12908047
179	0xbd92d7aa	-0.07170041
180	0x3dc24824	0.09486416
181	0x3d2db031	0.042404357
182	0x3d007541	0.031361822
183	0x3e14ef0c	0.14544314
184	0x3e043d8f	0.12914108
185	0x3d998e85	0.074978866
186	0xbcd64d09	-0.02615978
187	0xbdf4f339	-0.119604535
188	0xbd8fdbb8	-0.0702433
189	0x3c7ada89	0.015310892
190	0xbc9b87ef	-0.018985717
191	0xbd72727a	-0.059191205
192	0x3dbdf1fb	0.0927467
193	0x3cf20cd8	0.02954714
194	0x3c407092	0.011745589
195	0xbde440f8	-0.11145204
196	0x3bef30a5	0.0072995
197	0x3d3691a2	0.04457248
198	0xbd2f1255	-0.042742092
199	0x3df28d45	0.11843351
200	0xbdcaf7d7	-0.09910553
201	0x3c2ac905	0.010423903
202	0xbca50cae	-0.020147648
203	0xbdd1e28d	-0.10248289
204	0xbda11ea6	-0.07867174
205	0xbd99d9d1	-0.07512248
206	0xbd82b014	-0.063812405
207	0xbde26b28	-0.11055595
208	0x3ba4f628	0.005034227
209	0x3d6e9f26	0.058257245
210	0x3dfa5813	0.1222383
211	0x3c3f1864	0.01166353
212	0x3c2d8876	0.010591617
213	0xbd0a105d	-0.03370701
214	0x3bb08d61	0.0053879474
215	0x3d6c7d75	0.057736833
216	0xbe063a7b	-0.13108246
217	0xbe13d046	-0.14434919
218	0x3dc5f504	0.09665874
219	0xbddbc099	-0.107300945
220	0x3d17899a	0.03699646
221	0x3da76ea4	0.081754
222	0x3c226d8c	0.009913813
223	0xbdbd6e9b	-0.09249612
224	0xbc5b2801	-0.013376237
225	0xbdbf66c2	-0.09345771
226	0xbd9301b0	-0.07178056
227	0x3e0cb594	0.13741142
228	0xbddf8e27	-0.10915785
229	0x3d2771e0	0.040880084
230	0x3ddb2cc4	0.10701898
231	0x3aed6e63	0.0018114563
232	0xbcde6d2d	-0.027151668
233	0xbd8189e2	-0.06325127
234	0xbe181783	-0.14852719
235	0xbd9e7d54	-0.07738748
236	0x3d8ef0c3	0.069795154
237	0xbd5d9f7b	-0.05410717
238	0xbdd2b2c9	-0.10288007
239	0xbdfc45c9	-0.12317998
240	0x3dcbfcea	0.09960349
241	0xbdf4a32a	-0.119451836
242	0x3e08f333	0.13374023
243	0xbdc0f242	-0.09421207
244	0x3dc709d8	0.097186744
245	0x3e153d48	0.14574158
246	0xbdf23be1	-0.11827827
247	0x3e05b03a	0.13055506
248	0x3d2cffcf	0.042236146
249	0x3d3a673f	0.04550862
250	0x3d2d0676	0.04224249
251	0xbdb71c78	-0.08940977
252	0xbd3d2ccc	-0.0461853
253	0xbd627dc7	-0.055295732
254	0x3dc8ce68	0.09804994
255	0x3e181b5e	0.1485419

in_proj_bias f4 [192]
0	0x3a82e989	0.0009987812
1	0x3a82f3bd	0.0009990853
2	0x3a82c2d6	0.0009976279
3	0xba82ea44	-0.000998803
4	0xba82cc97	-0.0009979185
5	0xba82b59d	-0.0009972338
6	0xba82305d	-0.0009932626
7	0xba8287c2	-0.0009958672
8	0xba824432	-0.0009938537
9	0xba82df4e	-0.0009984763
10	0x3a82f842	0.00099922
11	0xba8278d9	-0.0009954228
12	0xba821d89	-0.0009927015
13	0xba82e79c	-0.0009987238
14	0xba82e5bd	-0.000998668
15	0xba82f426	-0.0009990975
16	0x3a81eda7	0.0009912745
17	0x3a81be3b	0.0009898612
18	0xba829879	-0.0009963653
19	0x3a824f37	0.0009941821
20	0xba8263c6	-0.0009947948
21	0xba8281c2	-0.0009956884
22	0xba82c9b6	-0.0009978327
23	0x3a824bb1	0.0009940771
24	0x3a82b1d2	0.0009971207
25	0x3a8013e0	0.0009771548
26	0xba82ba76	-0.0009973783
27	0xba827c7f	-0.0009955316
28	0x3a80e0cf	0.0009832623
29	0x3a817ddf	0.0009879431
30	0xba81ec2c	-0.0009912304
31	0xba80116f	-0.0009770821
32	0xba82c029	-0.0009975481
33	0xba825167	-0.0009942473
34	0xba82545e	-0.0009943356
35	0xba81d1a4	-0.0009904397
36	0xba7bbfb7	-0.0009603458
37	0x3a82a59f	0.0009967572
38	0xba75753e	-0.0009363479
39	0x3a8249ed	0.0009940244
40	0x3a8263d9	0.000994797
41	0xba697658	-0.0008905879
42	0xba821bd9	-0.0009926512
43	0xba7d0852	-0.0009652424
44	0xba805b88	-0.0009792903
45	0x3a81ec18	0.000991228
46	0xba823674	-0.0009934441
47	0x3a82a492	0.0009967259
48	0xba82c3f2	-0.0009976609
49	0x3a82f63e	0.0009991599
50	0xba82cb6b	-0.0009978836
51	0x3a824556	0.0009938877
52	0xba828bdf	-0.0009959898
53	0x3a82e080	0.0009985119
54	0xba82dd12	-0.0009984097
55	0x3a82e0bb	0.0009985188
56	0x3a82d401	0.0009981395
57	0x3a82416f	0.0009937714
58	0xba82aad4	-0.0009969124
59	0x3a82e274	0.0009985701
60	0x3a82d96f	0.0009983013
61	0xba82d6f9	-0.000998228
62	0x3a82d792	0.0009982458
63	0x3a82b3eb	0.0009971833
64	0xb602f830	-1.9515974e-06
65	0x35032956	4.8861455e-07
66	0xb642bee7	-2.9019373e-06
67	0xb48c581b	-2.6141137e-07
68	0x34f40797	4.5454064e-07
69	0x36369b73	2.7210597e-06
70	0x35ffdbe7	1.906298e-06
71	0x3524b19e	6.135323e-07
72	0xb512678d	-5.4539925e-07
73	0x3513edbf	5.5107733e-07
74	0x362d8020	2.5853587e-06
75	0xb51e9900	-5.908223e-07
76	0xb60c167b	-2.087471e-06
77	0xb5e17364	-1.679739e-06
78	0x35ea931d	1.7477174e-06
79	0x344346e9	1.8186587e-07
80	0x355b8bfe	8.1787573e-07
81	0x3596e466	1.1242344e-06
82	0xb5b0c4d3	-1.3170305e-06
83	0x357a02d5	9.313638e-07
84	0xb49ea4ff	-2.9549844e-07
85	0xb5ba47a1	-1.3878927e-06
86	0x360f2070	2.1327542e-06
87	0xb58f478e	-1.0675155e-06
88	0xb592531f	-1.0902039e-06
89	0x3501a317	4.829357e-07
90	0xb6072627	-2.0138775e-06
91	0x35db5e10	1.6344147e-06
92	0xb50c4eb7	-5.226861e-07
93	0x352c504a	6.419183e-07
94	0x34a951b3	3.1538147e-07
95	0x3637bed2	2.7380197e-06
96	0xb3bd313c	-8.809954e-08
97	0x35b9e63e	1.3850583e-06
98	0xb511a472	-5.425601e-07
99	0x350635d0	4.99972e-07
100	0x351573f0	5.5675537e-07
101	0xb52aca2a	-6.362412e-07
102	0x35594302	8.093631e-07
103	0xb4e7d55c	-4.3182342e-07
104	0xb54943d7	-7.4977055e-07
105	0xb3f41ce5	-1.1367391e-07
106	0xb3adefa5	-8.0995314e-08
107	0xb533eedb	-6.7030277e-07
108	0xb55e97f5	-8.292257e-07
109	0xb5849ecb	-9.880981e-07
110	0x34b70b05	3.4094424e-07
111	0xb4c33dd2	-3.636656e-07
112	0xb5dce369	-1.6457462e-06
113	0x35986a24	1.1355773e-06
114	0xb623a1cc	-2.438307e-06
115	0x36090c74	2.042184e-06
116	0x33742073	5.684019e-08
117	0xb55b8bfe	-8.1787573e-07
118	0xb5d3c335	-1.5777538e-06
119	0x3662969c	3.376429e-06
120	0x36215ab2	2.4043661e-06
121	0xb5bffc59	-1.4304052e-06
122	0x344346e9	1.8186587e-07
123	0x352c504a	6.419183e-07
124	0x35c181d9	1.4417411e-06
125	0x3561a3e7	8.405754e-07
126	0x35819312	9.654052e-07
127	0x359cfb51	1.1696048e-06
128	0x3a831267	0.0009999991
129	0xba83126d	-0.0009999998
130	0x3a83126c	0.0009999997
131	0xba83126b	-0.0009999996
132	0xba83126b	-0.0009999996
133	0x3a83125f	0.0009999982
134	0x3a83126c	0.0009999997
135	0x3a83126c	0.0009999997
136	0xba83126e	-0.0009999999
137	0xba83126b	-0.0009999996
138	0x3a83126d	0.0009999998
139	0x3a83126c	0.0009999997
140	0x3a83126d	0.0009999998
141	0xba831267	-0.0009999991
142	0xba83126b	-0.0009999996
143	0x3a83126e	0.0009999999
144	0xba831267	-0.0009999991
145	0x3a83126b	0.0009999996
146	0xba830f7f	-0.0009999125
147	0xba83126a	-0.0009999995
148	0xba83126d	-0.0009999998
149	0xba83126d	-0.0009999998
150	0xba83126c	-0.0009999997
151	0xba83126a	-0.0009999995
152	0x3a83126d	0.0009999998
153	0xba83126e	-0.0009999999
154	0x3a83126b	0.0009999996
155	0xba83126d	-0.0009999998
156	0xba83126b	-0.0009999996
157	0x3a83126d	0.0009999998
158	0xba83126c	-0.0009999997
159	0xba831269	-0.0009999993
160	0x3a83119c	0.0009999755
161	0x3a83126d	0.0009999998
162	0x3a831267	0.0009999991
163	0x3a831246	0.0009999953
164	0x3a83126b	0.0009999996
165	0xba83126d	-0.0009999998
166	0x3a831268	0.0009999992
167	0xba831267	-0.0009999991
168	0x3a83126b	0.0009999996
169	0x3a83126a	0.0009999995
170	0x3a83126d	0.0009999998
171	0xba83126c	-0.0009999997
172	0xba83126c	-0.0009999997
173	0x3a83126d	0.0009999998
174	0xba83126b	-0.0009999996
175	0x3a83126b	0.0009999996
176	0xba83126d	-0.0009999998
177	0xba83126d	-0.0009999998
178	0xba83126d	-0.0009999998
179	0x3a83126e	0.0009999999
180	0xba83126d	-0.0009999998
181	0x3a830e1d	0.0009998713
182	0xba83126d	-0.0009999998
183	0xba83126e	-0.0009999999
184	0x3a83126c	0.0009999997
185	0xba83126b	-0.0009999996
186	0x3a83126d	0.0009999998
187	0xba83126d	-0.0009999998
188	0xba83126a	-0.0009999995
189	0xba83126d	-0.0009999998
190	0xba83126c	-0.0009999997
191	0xba83126d	-0.0009999998

weight f4 [64, 64]
0	0x3dd69d0b	0.10479172
1	0x3e5d0808	0.21585095
2	0xbe4d2106	-0.20032129
3	0x3e19f489	0.15034689
4	0x3d02f36f	0.031970438
5	0x3e57062b	0.20998447
6	0xbe21e1de	-0.15808818
7	0x3dd69b37	0.10478824
8	0xbd97b061	-0.074066885
9	0x3d2d74f0	0.04234785
10	0x3dde1746	0.10844283
11	0x3d83fbad	0.06444488
12	0x3da6c122	0.08142306
13	0xbe0569fd	-0.13028713
14	0x37de842f	2.6526015e-05
15	0x3d0ecd51	0.034863774
16	0xbd8aeb61	-0.06783176
17	0xbe01ca30	-0.12674785
18	0x3e1f57a7	0.1556078
19	0xbe2bdae5	-0.1678272
20	0x3dde2123	0.10846164
21	0xbe1b5650	-0.15169644
22	0xbd0ac4cd	-0.03387909
23	0x3df46e5c	0.11935112
24	0xbe11967e	-0.14217564
25	0xbe2ab54a	-0.16670719
26	0x3e27713d	0.1635179
27	0x3e22b721	0.1589017
28	0xbd8e671c	-0.0695326
29	0x3dff169e	0.12455486
30	0xbe0fcef1	-0.14043786
31	0x3db9967a	0.09061904
32	0xbe5822d7	-0.2110704
33	0xbe5446dc	-0.20730156
34	0xbe36fe33	-0.17870407
35	0x3dca6395	0.09882275
36	0xbdbaf6f7	-0.09129136
37	0x3de2ac28	0.110679924
38	0xbe23d522	-0.15999272
39	0x3e13abdd	0.1442103
40	0x3dbcaab2	0.09212245
41	0xbc6aee6c	-0.014339071
42	0x3e47a1d3	0.19495325
43	0xbc7fe7c9	-0.015619227
44	0xbe36e1a2	-0.1785951
45	0x3dbf94fa	0.09354587
46	0xbd4b0535	-0.049565513
47	0x3d9c117d	0.07620523
48	0xbe4f46a5	-0.20241793
49	0xbb991567	-0.004671741
50	0xbd18f87c	-0.03734635
51	0x3ddeab7f	0.10872554
52	0x3d88ea1f	0.0668528
53	0xbd9173b5	-0.071021475
54	0xbdbf125d	-0.093296744
55	0xbdd0cb35	-0.10195009
56	0xbdd0b6cc	-0.10191116
57	0xbe4fb831	-0.20285107
58	0xbe18f942	-0.14938834
59	0x3e17faf8	0.1484183
60	0x3e49620f	0.19666313
61	0xbdea9809	-0.1145478
62	0x3dc233ba	0.09482522
63	0x3e3a8a78	0.18216884
64	0xbd17f4f9	-0.03709886
65	0xbde3f5cc	-0.111308664
66	0x3d13ccc0	0.036083937
67	0xbe3d6591	-0.18495776
68	0xbdcb8ef1	-0.09939373
69	0x3d1409a7	0.036142018
70	0x3d8e259a	0.06940766
71	0xbd32e692	-0.04367692
72	0xbe2c4b41	-0.16825582
73	0xbd3a648b	-0.04550604
74	0xbc84a39d	-0.016191298
75	0x3e537546	0.20650205
76	0x3d0fff3b	0.035155516
77	0x3e2fb89f	0.17160271
78	0x3e475056	0.1946424
79	0x3e5527f2	0.20816019
80	0xbd7c6c0d	-0.061626483
81	0xbdadb44e	-0.08481656
82	0xbc2cb474	-0.01054107
83	0xbe4688d9	-0.1938814
84	0x3e4c33d5	0.19941647
85	0xbe4b84aa	-0.19874826
86	0x3e445e4a	0.19176593
87	0xbc8cad49	-0.017172473
88	0x3ca66288	0.020310655
89	0x3d6944b8	0.0569503
90	0x3cec2692	0.028826986
91	0xbdba1514	-0.090860516
92	0x3e4a9d8f	0.19786666
93	0x3dd6608b	0.10467633
94	0x3cbad2ae	0.022805538
95	0x3d157691	0.036490027
96	0xbcd37587	-0.025812877
97	0xbd033219	-0.0320302
98	0xbd0c0046	-0.03417995
99	0x3e23c1bc	0.15991873
100	0x3e32e05b	0.17468397
101	0x3d334bd0	0.043773472
102	0x3d956435	0.072945036
103	0x3dca426a	0.09875949
104	0x3df69f5d	0.12042115
105	0x3e28fead	0.16503401
106	0xbb67e206	-0.0035382523
107	0xbe1a0904	-0.15042502
108	0xbd8c5bb7	-0.06853431
109	0xbe1bdbfe	-0.15220639
110	0xbe5a0cc3	-0.2129393
111	0xbca8fe40	-0.020629048
112	0xbd9a5340	-0.0753541
113	0x3e0d101e	0.1377568
114	0xbd187448	-0.03722027
115	0xbe01edc2	-0.12688354
116	0xbdbe1b30	-0.09282529
117	0xbe23b097	-0.15985332
118	0x3d417f1a	0.047240354
119	0xbc424dff	-0.011859416
120	0x3e351b76	0.17686257
121	0x3db1e2b1	0.08685816
122	0xbd5a5a89	-0.053308997
123	0xbe00b6c3	-0.12569718
124	0xbe596a7b	-0.21232025
125	0x3e4c3b5b	0.19944517
126	0x3dfcba9f	0.12340283
127	0xbc63bded	-0.013900262
128	0x3e2fcbfc	0.17167658
129	0xbe129063	-0.14312892
130	0x3e4e3fc7	0.20141517
131	0xbdd9941f	-0.10623955
132	0xbe119fd8	-0.14221132
133	0xbd0e8809	-0.034797702
134	0x3d89489c	0.06703302
135	0xbd575113	-0.052567553
136	0xbdc7a5d4	-0.09748426
137	0xbe4ca11f	-0.19983338
138	0xbe33fa3f	-0.1757593
139	0x3de412c4	0.11136392
140	0xbe416376	-0.18885598
141	0xbb43c128	-0.0029869769
142	0xbe5296c8	-0.20565331
143	0xbe404ac3	-0.1877852
144	0xbe510adf	-0.20414303
145	0x3c1a86ef	0.009431585
146	0xbe52ed5f	-0.20598362
147	0x3d911ecf	0.070859544
148	0xbd8c72fa	-0.068578675
149	0xbd2cfa5c	-0.04223095
150	0xbd3e4ac3	-0.046458017
151	0x3e09b5ad	0.1344821
152	0xbe074a9b	-0.13212053
153	0xbdd21872	-0.10258569
154	0x3dc888e8	0.09791738
155	0xbdb56704	-0.08857539
156	0x3de3ac05	0.111167945
157	0xbe4db81d	-0.20089765
158	0xbe335c57	-0.17515694
159	0x3e4f58e8	0.20248759
160	0xbdee8f87	-0.116484694
161	0x3dd165e7	0.102245145
162	0xbd4b0497	-0.049564924
163	0x3da55620	0.08073068
164	0x3df0dc1a	0.11760731
165	0xbe14fc89	-0.1454946
166	0x3e13c070	0.14428878
167	0xbe198fcd	-0.14996262
168	0xbde34049	-0.11096246
169	0x3c447d0c	0.011992704
170	0x3dd4efb9	0.10397286
171	0x3e12fb17	0.14353596
172	0xbd10b1b8	-0.035325736
173	0x3d18c95c	0.037301406
174	0xbe4fe421	-0.20301868
175	0xbcf8af17	-0.030356927
176	0x3c3661a4	0.011131678
177	0x3e3fb168	0.18720019
178	0x3e55aa1e	0.20865676
179	0xbe3a24ef	-0.18178152
180	0xbd419349	-0.047259603
181	0x3e242850	0.16031003
182	0xbd9e5f0b	-0.07732972
183	0xbd4f8081	-0.05065966
184	0xbe0ebcb7	-0.13939176
185	0xbe2ce764	-0.16885144
186	0xbe42a5b7	-0.19008528
187	0x3d0ac9c6	0.033883832
188	0x3e1ba2de	0.15198848
189	0x3d99a3a9	0.07501919
190	0x3e3c71ea	0.1840283
191	0xbe2613d2	-0.16218498
192	0xbe14dbec	-0.14537019
193	0x3d9c0eb7	0.07619994
194	0x3e032f18	0.12810934
195	0xbd0bd3c0	-0.034137487
196	0x3c7835ac	0.015149515
197	0xbe4d2642	-0.20034125
198	0x3d8d1913	0.06889548
199	0x3d6a7003	0.05723573
200	0xbc47fe3a	-0.012206608
201	0xbd946d87	-0.07247453
202	0x3dd4bf4b	0.10388049
203	0xbdfce13f	-0.1234765
204	0x3e14a4dd	0.14516015
205	0x3e1fe6e1	0.15615417
206	0x3cc68e9d	0.024237925
207	0x3d9d6837	0.07685893
208	0xbe4d81dd	-0.2006907
209	0xbde95825	-0.11393765
210	0xbe145551	-0.1448567
211	0x3e1ddda5	0.15416582
212	0xbdd25da3	-0.10271766
213	0x3d51e9a7	0.05124822
214	0xbe26ceee	-0.16289875
215	0xbda5c4e9	-0.08094198
216	0x3d3dceab	0.046339672
217	0xbe08d8b4	-0.13363916
218	0xbe4bf682	-0.19918254
219	0xbda0d086	-0.07852273
220	0x3d81a2ef	0.06329905
221	0xbe0cf11c	-0.13763851
222	0xbe5d855f	-0.21632908
223	0xbd80cd5d	-0.0628917
224	0x3d992574	0.07477847
225	0x3c99190c	0.018688701
226	0x3df477cc	0.11936912
227	0x3cd72f90	0.026267797
228	0x3e2afea4	0.166987
229	0xbdec3de1	-0.1153524
230	0xbdbdf037	-0.09274333
231	0xbc2516d5	-0.010076244
232	0x3e2616ff	0.1621971
233	0x3e3b4b24	0.18290383
234	0xbc4c8113	-0.012481946
235	0x3e50d3d9	0.20393313
236	0xbe243e35	-0.16039355
237	0x3e0735d8	0.13204134
238	0x3e0cb6cc	0.13741606
239	0xbd30a44e	-0.043125443
240	0x3e168789	0.1470014
241	0xbe26b0fc	-0.16278452
242	0xbde5e674	-0.11225596
243	0x3d81f416	0.06345384
244	0x3e12b526	0.14326915
245	0x3d81ba77	0.063343935
246	0x3e2773cf	0.16352771
247	0xbddd1cc1	-0.107965
248	0xbd9b05bf	-0.07569455
249	0x3e5a89c0	0.2134161
250	0x3d14fa3e	0.036371462
251	0xbdb8848e	-0.09009658
252	0xbe4888f6	-0.19583496
253	0xbd529964	-0.051415816
254	0x3de987b6	0.11402838
255	0xbe5d2c0c	-0.21598834

bias f4 [64]
0	0xba831263	-0.0009999987
1	0x3a83126d	0.0009999998
2	0xba83126b	-0.0009999996
3	0x3a83126d	0.0009999998
4	0xba831269	-0.0009999993
5	0xba83126e	-0.0009999999
6	0xba83126b	-0.0009999996
7	0xba83126c	-0.0009999997
8	0xba83126b	-0.0009999996
9	0x3a83126d	0.0009999998
10	0xba83126c	-0.0009999997
11	0xba83126b	-0.0009999996
12	0xba83126b	-0.0009999996
13	0xba83126a	-0.0009999995
14	0x3a83126d	0.0009999998
15	0x3a83126d	0.0009999998
16	0xba83126d	-0.0009999998
17	0x3a83126b	0.0009999996
18	0x3a83126d	0.0009999998
19	0xba83126b	-0.0009999996
20	0xba83126d	-0.0009999998
21	0xba83126b	-0.0009999996
22	0x3a83126b	0.0009999996
23	0x3a83126e	0.0009999999
24	0xba83126d	-0.0009999998
25	0xba83126d	-0.0009999998
26	0x3a831265	0.0009999989
27	0x3a83126d	0.0009999998
28	0x3a83125b	0.0009999977
29	0xba83109f	-0.000999946
30	0xba83126d	-0.0009999998
31	0xba83126b	-0.0009999996
32	0x3a83125f	0.0009999982
33	0x3a831267	0.0009999991
34	0x3a83126d	0.0009999998
35	0xba83126b	-0.0009999996
36	0x3a83126d	0.0009999998
37	0x3a83126b	0.0009999996
38	0x3a83126d	0.0009999998
39	0xba83126b	-0.0009999996
40	0xba83126d	-0.0009999998
41	0x3a83126d	0.0009999998
42	0xba83126d	-0.0009999998
43	0xba83126d	-0.0009999998
44	0x3a83126d	0.0009999998
45	0x3a83126c	0.0009999997
46	0xba83126d	-0.0009999998
47	0xba83126d	-0.0009999998
48	0x3a83126c	0.0009999997
49	0x3a83126b	0.0009999996
50	0xba83126d	-0.0009999998
51	0x3a83126d	0.0009999998
52	0xba83126d	-0.0009999998
53	0xba83126c	-0.0009999997
54	0x3a83126d	0.0009999998
55	0x3a83126a	0.0009999995
56	0x3a83126d	0.0009999998
57	0xba831260	-0.0009999983
58	0xba83126d	-0.0009999998
59	0x3a831269	0.0009999993
60	0xba83126e	-0.0009999999
61	0xba83126b	-0.0009999996
62	0x3a831267	0.0009999991
63	0x3a83126b	0.0009999996

weight f4 [256, 64]
0	0x3d020c8a	0.03175024
1	0xbca3a384	-0.019975431
2	0x3c5999bc	0.013281282
3	0xbdd39ab7	-0.10332244
4	0xbd5c9855	-0.053856213
5	0xbdeb5e3d	-0.11492584
6	0xbddd715c	-0.10812637
7	0x3dcdc3f5	0.100471415
8	0x3d9d2c01	0.07674409
9	0xbddd5053	-0.10806336
10	0xbdf7be8a	-0.12096889
11	0xbda7fbe0	-0.08202338
12	0xbe0c3172	-0.13690737
13	0x3d75ffc7	0.06005838
14	0x3d626451	0.05527145
15	0x3e00ed87	0.1259061
16	0x3cb754b0	0.02237925
17	0x3d91964f	0.07108747
18	0xbd17872d	-0.036994148
19	0xbb36f2de	-0.0027915756
20	0xbe043cc6	-0.12913808
21	0xbcfc62e2	-0.03080887
22	0x3d89c157	0.0672633
23	0xbc0f36a6	-0.008741057
24	0x3d0af83c	0.03392814
25	0x3c858115	0.016296903
26	0x3c20949a	0.009801054
27	0x3c8e071c	0.017337374
28	0xbda8b2d8	-0.08237237
29	0x3dfd3b73	0.12364855
30	0x3df8df31	0.121519454
31	0x3d9ddc04	0.0770798
32	0x3d8d256f	0.068919055
33	0x3da1bfaf	0.07897889
34	0x3df37645	0.118877925
35	0xbd7ef2df	-0.06224334
36	0x3dd38496	0.10328023
37	0x3c3d3425	0.011548077
38	0xbdd7242c	-0.10504946
39	0xbdfc0177	-0.12304967
40	0xbd64a4e1	-0.055821303
41	0x3d01ed40	0.0317204
42	0xbb49612f	-0.0030728092
43	0xbda58757	-0.08082455
44	0x3d60fd76	0.05492922
45	0x3deae090	0.11468613
46	0xbb15c60a	-0.0022853636
47	0xbc86d553	-0.016459143
48	0xbd7cf0e1	-0.061753158
49	0xbb5fc938	-0.0034147035
50	0xbe0aff29	-0.13573898
51	0x3d1ba7d5	0.038001854
52	0x3e05ffcc	0.1308586
53	0xbe04f6ea	-0.12984815
54	0x3d7cb10a	0.061692275
55	0x3e02de7a	0.1278018
56	0x3adf3ae9	0.0017031106
57	0xbd618476	-0.055057965
58	0xbd980277	-0.07422345
59	0x3d93d666	0.07218628
60	0x3e061b92	0.13096455
61	0xba881eda	-0.0010385171
62	0xbe039ec0	-0.12853527
63	0xbc262965	-0.010141705
64	0x3e0772af	0.13227342
65	0xbdac1ddf	-0.08404135
66	0xbdb19c21	-0.08672357
67	0xbcdaa7ba	-0.026691306
68	0xbcbdd990	-0.023175031
69	0xbd92cc7f	-0.07167911
70	0x3d8373e3	0.06418588
71	0x3dbbb6b5	0.09165708
72	0x3e036ef9	0.12835301
73	0xbd91d9d6	-0.07121627
74	0x3d60feb3	0.0549304
75	0xbd528a4a	-0.051401414
76	0xbc5edde6	-0.013602709
77	0xbd867de2	-0.06566979
78	0xbdc62f1c	-0.09676954
79	0xbdab8632	-0.08375205
80	0xbdc8161b	-0.09769841
81	0x3d4c608a	0.049896754
82	0x3dd8776a	0.105696514
83	0x3d8596d8	0.06522912
84	0xbdad9fcc	-0.084777445
85	0x3c92d9ad	0.017926062
86	0x3bb0c898	0.0053950064
87	0x3dca27f6	0.09870903
88	0xbe0c813e	-0.13721177
89	0xbc9b2222	-0.018937174
90	0x3e07dbc1	0.13267423
91	0x3db97fbf	0.09057569
92	0x3d5ee3fc	0.05441664
93	0xbe075ed0	-0.13219762
94	0xbcc37c94	-0.023863114
95	0xbd773b2a	-0.060359158
96	0x39d683b8	0.000409154
97	0x3ccf59e6	0.025311422
98	0x3ddd1e4b	0.107967936
99	0xbda94635	-0.08265344
100	0xbd5217ae	-0.051292114
101	0x3dc319c3	0.09526398
102	0xbdaa7f5f	-0.08325075
103	0xbe02beaa	-0.12768045
104	0x3d9712f2	0.073766604
105	0x3d8e1fdf	0.06939673
106	0xbd8aea66	-0.06782989
107	0x3cd57815	0.026058236
108	0xbe04d11c	-0.12970394
109	0xbc6afc0e	-0.014342321
110	0xbd8f4849	-0.06996209
111	0x3d393961	0.045220736
112	0xbdc41d99	-0.09575958
113	0x3c4a7e22	0.012359174
114	0x3dbdc32a	0.0926574
115	0xbc4cf1d7	-0.012508831
116	0x3d6678c9	0.056267533
117	0x3e05f772	0.13082674
118	0x3da0a83a	0.07844587
119	0xbdf4f79f	-0.119612925
120	0x3d7b27b1	0.06131715
121	0xbe0ab2d6	-0.13544783
122	0xbdfbf41d	-0.1230242
123	0x3df0eca9	0.11763889
124	0x391484cf	0.00014163855
125	0xbd06d92c	-0.032921955
126	0xbdef5bf3	-0.1168746
127	0x3dba5642	0.090984836
128	0xbde611e0	-0.11233878
129	0x3d5f088e	0.054451518
130	0xbe039d96	-0.12853083
131	0xbd535b39	-0.05160067
132	0xbdac90a1	-0.08426023
133	0x3d8ab817	0.067733936
134	0x3dff4e8e	0.12466155
135	0xbd33b9cf	-0.043878373
136	0x3d5c6bbc	0.05381368
137	0x3d831446	0.06400351
138	0xbe0067c9	-0.12539591
139	0xbdea84ad	-0.11451087
140	0x3dab287f	0.083573334
141	0x3e0644e6	0.1311222
142	0xbc86ed93	-0.016470706
143	0xbbe01368	-0.006838251
144	0x3b16c9c7	0.0023008452
145	0x3d061ba7	0.032741215
146	0x3d772ccd	0.06034546
147	0x3d7372f2	0.059435792
148	0x3dadd7f1	0.08488453
149	0xbdf52477	-0.11969846
150	0xbdb00482	-0.0859461
151	0xbce07d87	-0.027403606
152	0x3df9951b	0.12186643
153	0xbdab0251	-0.08350051
154	0x3d48dd5d	0.049039233
155	0x3dd9555e	0.106119856
156	0x3d81a509	0.06330306
157	0x3cd2c2eb	0.02572771
158	0xbd98d135	-0.07461778
159	0xbda79592	-0.08182825
160	0xbd97e1f7	-0.07416146
161	0x3dda97cd	0.10673485
162	0x3df03dbb	0.11730524
163	0x3e046704	0.12929922
164	0x3be806b7	0.0070808786
165	0x3a74a134	0.00093318825
166	0x3dd854fd	0.10563085
167	0x3ca2cb1e	0.019872244
168	0x3d607725	0.054801125
169	0xbe06e139	-0.13171853
170	0x3db8216d	0.089907505
171	0xbd8b70ec	-0.068086475
172	0xbb84466d	-0.0040367157
173	0x3dcfe435	0.10150949
174	0xbd2d3dee	-0.04229539
175	0xbe0cc9a4	-0.13748795
176	0x3dad0606	0.084484145
177	0xbd7d1478	-0.0617871
178	0x3d55a444	0.05215861
179	0x3d3934a7	0.04521623
180	0x3cc34fae	0.023841705
181	0x3e069dc8	0.13146126
182	0xbd9668a8	-0.0734418
183	0x3d9649c3	0.07338288
184	0x3d8328af	0.06404244
185	0x3c9aad1f	0.018881379
186	0x3c89f469	0.016840177
187	0xbd15ed13	-0.036603045
188	0xbd665bf3	-0.056240033
189	0xbd9fc11e	-0.07800506
190	0xbd0392ff	-0.03212261
191	0x3ced95a9	0.029002028
192	0xbdf6f950	-0.12059271
193	0x3e00d72e	0.12582085
194	0xbd868215	-0.0656778
195	0xbcfa3e18	-0.030547187
196	0xbddf5f44	-0.10906842
197	0x3d97e650	0.074169755
198	0x3c93ae21	0.018027367
199	0xbd2471b1	-0.040147487
200	0xbdada58e	-0.08478843
201	0x3cc4163b	0.023936382
202	0xbda799c5	-0.08183626
203	0xbd0f07e8	-0.03491965
204	0xbb102553	-0.0021994903
205	0x3dea97b4	0.11454716
206	0x3d8c5b4d	0.06853352
207	0x3da0e64f	0.07856428
208	0x3c8cf46c	0.017206393
209	0x3ddbcd16	0.107324764
210	0x3b88a092	0.004169532
211	0x3d3950f9	0.045243237
212	0x3da97ef4	0.082761675
213	0xbce683e2	-0.028139059
214	0xbce7d1c3	-0.028298264
215	0x3c363f23	0.011123451
216	0x3d331225	0.043718476
217	0xbda9f137	-0.08297961
218	0x3d424e69	0.04743806
219	0x3c390c36	0.011294415
220	0x3db38eaa	0.087674454
221	0xbbecbb1a	-0.0072244527
222	0xbd978504	-0.073984176
223	0xbc2d8400	-0.010590553
224	0xbcbb7f00	-0.022887707
225	0xbd60503c	-0.054764017
226	0xbb8b358b	-0.004248326
227	0x3ddda44c	0.10822353
228	0x3de7ad98	0.11312407
229	0xbc8745ae	-0.016512718
230	0xbbdf0d76	-0.0068070246
231	0xbcfe0145	-0.031006465
232	0xbde6cc2a	-0.1126941
233	0xbc716ee4	-0.014735911
234	0xbd0c79f3	-0.034295987
235	0xbd06b29d	-0.032885183
236	0x3d6921f8	0.05691716
237	0xbdc230c7	-0.0948196
238	0xbd219c57	-0.039455738
239	0xbd090667	-0.03345337
240	0xbd0b7648	-0.03404835
241	0xbde86e72	-0.11349191
242	0xbcf8841d	-0.030336434
243	0xbd060da6	-0.03272786
244	0x3d5b364a	0.05351857
245	0xbe0961e5	-0.1341625
246	0xbd1a430c	-0.037661597
247	0xbc266ee6	-0.010158276
248	0x3d98e619	0.07465763
249	0x3d07d085	0.033157844
250	0x3dcdf498	0.10056418
251	0xbdbfe72b	-0.09370264
252	0xbe09c7f2	-0.1345518
253	0xbc6447c8	-0.01393313
254	0xbdeec54b	-0.116587244
255	0xbd3ffb85	-0.046870727
