CNP-model-save-name/saved_models/model_3000.pth (torch, 736757 bytes, 50 tensors)

weight f4 [64, 11]
0	0x3c8dc5a4	0.017306156
1	0xbe0cf941	-0.13766958
2	0xbe8ae610	-0.2712865
3	0xbe1d24e7	-0.15346108
4	0x3db34835	0.08754007
5	0xbe145ef0	-0.14489341
6	0x3e1d2c9d	0.1534905
7	0xb7fa89e5	-2.9866535e-05
8	0x3e0a9be0	0.13536024
9	0x3d9bf47a	0.076149896
10	0xbe774dc4	-0.24150759
11	0xbe727fa9	-0.23681511
12	0x3dd43de8	0.1036337
13	0x3e0eff43	0.13964562
14	0xbdbfce07	-0.093654685
15	0x3ce2f9f2	0.027707074
16	0xbd9ff29a	-0.078099445
17	0xbe71f12b	-0.23627155
18	0x3e0446cd	0.12917633
19	0x3ddc74b1	0.107644446
20	0x3e6f1a5d	0.233499
21	0x3ced4c06	0.028966915
22	0xbe6dc931	-0.2322128
23	0xbe1a828e	-0.15088865
24	0xbe694196	-0.22778925
25	0x3e290541	0.1650591
26	0xbe6eed23	-0.23332648
27	0x3d7f42a8	0.062319428
28	0xbe80ca55	-0.25154367
29	0xbe1b57d2	-0.1517022
30	0xbc32ffd1	-0.010925249
31	0x3c9a7526	0.018854689
32	0xbd614f01	-0.055006985
33	0xbdfcad09	-0.12337691
34	0xbcc33574	-0.0238292
35	0xbd3b594a	-0.04573945
36	0x3e5425d0	0.2071755
37	0xbcc5a890	-0.024128228
38	0x3e6e6ecf	0.23284458
39	0x3e6b3065	0.2296768
40	0xbd229f80	-0.039702892
41	0x3e0f70cd	0.14007874
42	0xbd7d27e7	-0.061805632
43	0x3df6f81e	0.12059043
44	0x3e19bd5f	0.15013646
45	0x3e1ea804	0.1549378
46	0xbe4196b6	-0.18905148
47	0x3c53d841	0.012929977
48	0xbc662663	-0.014047238
49	0xbe672989	-0.22574438
50	0x3df6e31d	0.12055037
51	0x3e5aeffc	0.2138061
52	0xbd477187	-0.048692252
53	0x3e69fef5	0.22851165
54	0xbe18a5b8	-0.14906967
55	0x3defbcad	0.11705909
56	0xbe2d15a0	-0.1690278
57	0xbdced322	-0.10098864
58	0x3e1d4648	0.15358841
59	0x3e0c528b	0.13703363
60	0xbd4dcc7f	-0.05024385
61	0x3d54682d	0.051857162
62	0xbdfd8597	-0.12378996
63	0x3e305f13	0.17223768
64	0xbe325f4f	-0.1741917
65	0x3e8a7eab	0.27049765
66	0xbde9029e	-0.11377452
67	0x3dd3ea6d	0.103474475
68	0x3e0b569c	0.13607258
69	0xbe597ffd	-0.2124023
70	0x3e805a3e	0.2506885
71	0xbddcdd20	-0.10784364
72	0x3e244180	0.16040611
73	0x3c436a0b	0.011927138
74	0xbe6fdb87	-0.23423587
75	0xbe61803f	-0.22021578
76	0xbc9692a3	-0.018380469
77	0xbd5d8af7	-0.054087605
78	0x3e15186a	0.14560094
79	0x3df14f15	0.11782662
80	0x3e79d226	0.24396572
81	0xb980c5c9	-0.00024561424
82	0x3e529551	0.20564772
83	0xbe29cefb	-0.16582863
84	0x3d599b53	0.053126644
85	0xbe06a152	-0.13147476
86	0x3e7992e5	0.24372442
87	0x3e63939e	0.2222428
88	0x3db41eb9	0.087949224
89	0xbd944f9f	-0.07241749
90	0x3e3b61d2	0.18299034
91	0xbdc4fccd	-0.096185304
92	0xbe50d0f1	-0.20392205
93	0x3e77d1b6	0.24201092
94	0x3dc2ab0f	0.09505283
95	0x3e520962	0.20511392
96	0x3d2e4e5b	0.042555194
97	0xbe48f229	-0.19623627
98	0x3e44b000	0.19207764
99	0xbd2614af	-0.04054707
100	0xbb0ed949	-0.0021796993
101	0x3e6c6c56	0.23088202
102	0xbe58c7e4	-0.21170002
103	0xbddd1f5c	-0.10796997
104	0x3e930ae5	0.2871925
105	0x3e815cb1	0.2526603
106	0xbe19def3	-0.15026455
107	0xbd5c3be8	-0.05376807
108	0x3e0548df	0.1301608
109	0x3d7bdb9b	0.06148873
110	0x3df7d949	0.12101991
111	0x3dbb414d	0.091433145
112	0x3d92a7f7	0.07160943
113	0x3c63c99f	0.013903051
114	0x3a5c07ab	0.00083934766
115	0x3cae48f4	0.021275021
116	0x3e71fa52	0.23630646
117	0x3d948859	0.07252569
118	0xbe1d8756	-0.15383658
119	0x3dd14077	0.10217374
120	0xbd4457c1	-0.04793525
121	0x3e0767d7	0.13223206
122	0x3e5b233e	0.21400163
123	0xbd9d536f	-0.07681929
124	0x3dbfd144	0.09366086
125	0xbe0b823d	-0.136239
126	0xbe27e9d6	-0.16397795
127	0x3e8b944a	0.27261573
128	0xbd8b3f7d	-0.06799219
129	0xbde5f970	-0.11229217
130	0x3d0c0b5a	0.034190513
131	0xbb65905a	-0.0035028667
132	0xbdd9ce71	-0.10635079
133	0x3d123af4	0.035700753
134	0x3e176f74	0.1478861
135	0x3e5d3033	0.21600418
136	0x3d080117	0.033204164
137	0x3e01d9f6	0.12680802
138	0xbd3656ac	-0.04451625
139	0xbe76e8c8	-0.24112236
140	0xbdb75f2d	-0.089537
141	0x3e645ec4	0.22301775
142	0x3e14d33b	0.14533703
143	0x3e9a0b1f	0.3008661
144	0xbd616baf	-0.055034336
145	0x3d777304	0.06041242
146	0x3e68a380	0.2271862
147	0x3e59da25	0.21274622
148	0xbd80dce8	-0.062921345
149	0xbd42ed55	-0.04758962
150	0x3e7b4064	0.24536282
151	0xbdde5c52	-0.108574525
152	0x3e921b20	0.2853632
153	0x3df301dd	0.1186559
154	0x3e0a1d9f	0.13487862
155	0xbda65783	-0.0812216
156	0x3e6c1aaf	0.23057054
157	0xbd255d88	-0.0403724
158	0xbdd0b2a6	-0.101903245
159	0x3e6a2817	0.22866856
160	0xbe26c948	-0.1628772
161	0xbdbc6c05	-0.092002906
162	0xbe1f1ed8	-0.1553911
163	0x3dc8f4c6	0.09812312
164	0xbda317be	-0.07963513
165	0xbe4fdee4	-0.2029987
166	0xbe1293d5	-0.14314206
167	0xbdda6213	-0.106632374
168	0x3e4d08b0	0.20022845
169	0x3e5be9d8	0.21475923
170	0x3e68a503	0.22719197
171	0xbe8ffd29	-0.28122833
172	0xbda01bae	-0.078177795
173	0x3e5f2ac3	0.21793656
174	0xbe3d1d56	-0.18468222
175	0x3bd122e0	0.0063823313
176	0xbe858896	-0.2608077
177	0x3d7b9e26	0.06143012
178	0xbdd4b4fa	-0.10386081
179	0x3e5ce732	0.21572569
180	0x3e3b237e	0.18275258
181	0x3d2ce7f9	0.042213414
182	0xbe73ed84	-0.23821074
183	0xbdcff36e	-0.101538524
184	0x3e6212f3	0.22077541
185	0x3dd2f6c4	0.10300973
186	0xbe011c79	-0.12608518
187	0x3d63a9d7	0.055581894
188	0xbe625f5d	-0.2210669
189	0x3dc65557	0.09684246
190	0x3c470361	0.012146802
191	0xbd5e8e9a	-0.054335214
192	0xbd99a14f	-0.0750147
193	0xbe21c796	-0.15798792
194	0xbe353640	-0.17696476
195	0x3e029abe	0.12754342
196	0x3d8645ee	0.06556307
197	0x3e0248a6	0.12723026
198	0xbe197371	-0.14985444
199	0xbe37922e	-0.17926857
200	0xbca11db1	-0.019667478
201	0x3c79038a	0.015198598
202	0xbe0f2e41	-0.13982488
203	0x3d752584	0.05985023
204	0xbe34e99c	-0.1766724
205	0xbe3501e5	-0.17676504
206	0x3cf1e602	0.029528622
207	0xbd9fbbd6	-0.07799499
208	0x3d7d6e84	0.061872974
209	0x3d2d0859	0.04224429
210	0xbcf76e7f	-0.030204056
211	0x3e460316	0.19337115
212	0xbd906985	-0.07051376
213	0xbc9c694c	-0.019093178
214	0x3e3b916e	0.18317196
215	0x3e3a9f70	0.18224883
216	0x3e1964b6	0.14979824
217	0xbe9555fc	-0.29167163
218	0xbe8fabfa	-0.28060895
219	0x3e3dde6f	0.18541883
220	0x3db8a520	0.0901587
221	0xbd0b928b	-0.0340753
222	0xbe2a35af	-0.16622041
223	0xbbb6ade0	-0.0055749267
224	0x3da4bea7	0.080441765
225	0xbe562c64	-0.20915371
226	0x3dc1cbe5	0.09462718
227	0x3e7626e6	0.24038276
228	0xbd1e9e83	-0.038725387
229	0x3e6d9e08	0.23204815
230	0xbe1f3ec7	-0.15551291
231	0x3d4d2e2e	0.05009287
232	0x3e706109	0.23474516
233	0xbe82ce3b	-0.25547966
234	0xbe605e44	-0.2191096
235	0xbe773de1	-0.24144699
236	0xbe60a9b2	-0.21939734
237	0x3d651d7f	0.055936333
238	0xbe3d6fbd	-0.18499656
239	0x3da42c7c	0.08016297
240	0xbd784114	-0.06060894
241	0x3e284a34	0.16434556
242	0xbe57e709	-0.21084227
243	0x3e0e7a1f	0.13913773
244	0x3e4ae26e	0.19812939
245	0x3e894636	0.2681138
246	0xbcdd0776	-0.026981097
247	0x3e5cad8f	0.21550582
248	0x3d09d866	0.03365364
249	0x3dd8aab8	0.10579437
250	0x3e2e496e	0.17020199
251	0xbd20d13a	-0.039262034
252	0xbe308109	-0.17236723
253	0xbe63eb1e	-0.22257659
254	0xbdbe00f3	-0.09277525
255	0x3d872fe2	0.0660093

bias f4 [64]
0	0xbcc78e9b	-0.024359992
1	0x3c566439	0.013085418
2	0xbbb9c5f6	-0.0056693507
3	0x3c99a97e	0.018757578
4	0xbb1c2121	-0.0023823457
5	0x3c80faec	0.015744649
6	0x3c8cfd7a	0.01721071
7	0x3bb90e64	0.0056474674
8	0xbc8fab40	-0.017537713
9	0x3cdbaa5e	0.026814636
10	0x3d372b32	0.04471893
11	0x3c93c621	0.018038811
12	0xbcedd8ff	-0.029034136
13	0x3d0be965	0.03415813
14	0x3d28b181	0.041184906
15	0xbc95e07d	-0.01829552
16	0xbc876a0d	-0.016530061
17	0x3b947406	0.0045304326
18	0xbc6a41f3	-0.01429795
19	0xbcb365c6	-0.021899115
20	0xbc2dad5c	-0.010600414
21	0xbce8e9ed	-0.028431857
22	0x3d004528	0.031315953
23	0xbc939e52	-0.018019829
24	0x3a43de95	0.0007471827
25	0xbd12e57b	-0.03586338
26	0x3c131739	0.008977705
27	0x3c318a80	0.010836244
28	0xbb934465	-0.0044942372
29	0x3942145d	0.00018508868
30	0xbc67389c	-0.014112618
31	0xbc63a962	-0.0138953645
32	0xbc35b9de	-0.0110916775
33	0x3c867bc6	0.016416442
34	0xbbcaeb03	-0.0061925664
35	0xbd216732	-0.039405055
36	0x3cf82bb4	0.030294277
37	0xbb309a7b	-0.0026947546
38	0xbc1a4777	-0.009416453
39	0x3bd75c2e	0.006572268
40	0xbba6b5a9	-0.0050875735
41	0x3cae4c39	0.02127658
42	0xbc8ba590	-0.01704672
43	0xbd049ab4	-0.0323741
44	0x3d310355	0.04321607
45	0x3cc34e35	0.023841003
46	0xbbc07163	-0.0058728918
47	0x38bd0889	9.013812e-05
48	0xbcd3d00c	-0.02585604
49	0x3c4cc8cd	0.0124990465
50	0x3c71d4b7	0.014760188
51	0xbba8cd3e	-0.00515142
52	0xbd8c9b1d	-0.06865523
53	0xbb9e6d2e	-0.0048347926
54	0xbbc25f31	-0.005931758
55	0x3cfee734	0.031116106
56	0x3c1eb86e	0.009687526
57	0xbbfb8d19	-0.0076767323
58	0xbbb8db53	-0.00564138
59	0x3be0476c	0.0068444517
60	0xbc0f399a	-0.008741761
61	0xbd1fcda6	-0.03901448
62	0x3c558194	0.013031382
63	0x3c4c0930	0.012453362

weight f4 [64, 10]
0	0x3e2bd10b	0.16778962
1	0x3e5e1614	0.2168811
2	0xbd012aa3	-0.031534802
3	0xbcb56d92	-0.022146974
4	0x3e884e03	0.26622018
5	0xb8221bdb	-3.8649752e-05
6	0xbe778188	-0.24170506
7	0xbe82254d	-0.25419083
8	0xbdfe97bd	-0.124312855
9	0x3d1bde3e	0.038053744
10	0x3cb26f72	0.021781657
11	0x3e76b41f	0.24092148
12	0xbdc03b75	-0.093863405
13	0xbc78dfe0	-0.015190095
14	0x3e86717c	0.26258457
15	0xbde7f298	-0.11325568
16	0xbe6a2e28	-0.2286917
17	0xbd5e3430	-0.05424899
18	0x3cdd7629	0.027033882
19	0xbe32aa60	-0.17447805
20	0xbe5cbc18	-0.21556127
21	0xbe71b4c0	-0.23604107
22	0x3e4d4b0c	0.2004816
23	0xbe10071a	-0.14065209
24	0x3dd95f69	0.10613901
25	0xbdf6bb3c	-0.12047431
26	0x3e81dc17	0.25363228
27	0x3e5eb154	0.21747333
28	0xbe7af3b1	-0.24507023
29	0x3e28c5d3	0.16481714
30	0x3e9dfcd2	0.3085695
31	0x3b751ea7	0.0037402303
32	0xbe275a17	-0.1634296
33	0xbdc6a48f	-0.09699356
34	0x3e4d4eaf	0.20049547
35	0x3dabab37	0.08382266
36	0xbd83cf44	-0.06436017
37	0xbe3948d4	-0.18094188
38	0x3944eafe	0.00018779558
39	0xbe614157	-0.21997581
40	0xbe0df701	-0.13863756
41	0xbd1ae556	-0.037816368
42	0xbe1fa2d2	-0.15589455
43	0x3c00bca0	0.007857472
44	0x3d62fab1	0.05541486
45	0xbe63f42d	-0.22261114
46	0x3e2e67c6	0.17031774
47	0x3e17823a	0.14795771
48	0xbcd067c9	-0.025440114
49	0x3e719375	0.23591407
50	0x3d6ac5c3	0.057317507
51	0xbe3d23bc	-0.18470663
52	0x3d83f420	0.064430475
53	0x3c81568b	0.015788337
54	0xbe458155	-0.19287618
55	0xbe821f4e	-0.2541451
56	0x3d27ddc8	0.04098299
57	0xbe09df99	-0.13464202
58	0xbe5b6abf	-0.21427439
59	0x3eb29434	0.34878695
60	0x3d956a8a	0.07295711
61	0xbc8f9677	-0.017527802
62	0x3e991447	0.29898283
63	0xbe7aeeff	-0.24505232
64	0xbc854121	-0.016266407
65	0xbe24d5f8	-0.16097248
66	0x3d1ddbe3	0.03853978
67	0x3c014118	0.007889055
68	0xbde69be9	-0.11260206
69	0x3e12a25d	0.14319749
70	0x3e9b4b37	0.30330822
71	0x3cdda766	0.02705736
72	0x3e860f82	0.26183707
73	0x3e7ed506	0.2488595
74	0xbdb88200	-0.090091705
75	0xbe528dc4	-0.20561892
76	0xbe80dc7d	-0.2516822
77	0xbd820c31	-0.063499816
78	0xbde4f2b7	-0.11179107
79	0xbe216fe3	-0.15765338
80	0xbd136898	-0.03598842
81	0xbe236747	-0.15957366
82	0x3d6e12ad	0.05812328
83	0x3e8b3c40	0.27194405
84	0xbe1ed18c	-0.15509623
85	0x3e93b097	0.28845665
86	0xbe331ab8	-0.17490661
87	0xbe45f779	-0.19332685
88	0x3e303ab8	0.172099
89	0xbe0378d8	-0.12839067
90	0xbe2fdb63	-0.17173533
91	0x3ea44d4f	0.32090232
92	0xbdf74890	-0.12074387
93	0xbe151d26	-0.145619
94	0xbe8adf17	-0.2712333
95	0x3e4da4f2	0.20082453
96	0xbe94c8f0	-0.29059553
97	0xbd2eba99	-0.042658422
98	0x3e56bb3a	0.20969859
99	0x3dd7e431	0.10541571
100	0x3e2e1459	0.1699995
101	0x3d0909ac	0.03345649
102	0x3e43053f	0.1904497
103	0xbe59e660	-0.21279287
104	0xbe479fa7	-0.19494496
105	0x3b5f8f63	0.0034112565
106	0x3d3a9755	0.045554478
107	0x3e188546	0.1489459
108	0xbdebac96	-0.115075275
109	0xbc4d7dba	-0.012542183
110	0xbe69b034	-0.22821122
111	0x3e59c6dc	0.21267265
112	0xbd22a24e	-0.039705567
113	0xbe2acf20	-0.16680574
114	0x3e9ad5c7	0.30241224
115	0xbe5c7e68	-0.21532595
116	0x3d8a4211	0.067508824
117	0x3e86574e	0.26238483
118	0xbdaacd91	-0.0833999
119	0xbd0b8618	-0.03406343
120	0x3e6248f3	0.2209814
121	0xbe99d912	-0.30048424
122	0x3e1aaca2	0.15104917
123	0xbd11c89f	-0.035591718
124	0xbe1ce7fe	-0.15322873
125	0xbe2bad1a	-0.16765252
126	0xbdfec3cf	-0.12439691
127	0x3e809c17	0.25119087
128	0xbce470c8	-0.02788581
129	0xbcc5daf5	-0.024152258
130	0x3ba15038	0.004922893
131	0xbe8d5542	-0.2760411
132	0x3d78245c	0.06058155
133	0x3e0538b8	0.13009918
134	0x3e88a24f	0.26686332
135	0xbc91f666	-0.017817687
136	0x3d9d3cb7	0.07677596
137	0xbe4a1229	-0.1973349
138	0xbe4987b7	-0.19680677
139	0x3e6330ac	0.22186536
140	0xbd9f5fd4	-0.0778195
141	0x3d048712	0.032355376
142	0xbe5d1731	-0.21590878
143	0x3e23bea1	0.15990688
144	0xbe197b47	-0.14988433
145	0x3eae2272	0.34010655
146	0xbdd8c77d	-0.10584924
147	0x3ce6e1db	0.028183868
148	0xbe76045c	-0.240251
149	0xbd295e12	-0.041349478
150	0x3d174374	0.036929563
151	0x3e4bbef8	0.19897068
152	0xbc8bd0df	-0.017067371
153	0x3e50f943	0.20407586
154	0x3e2a5d5c	0.16637176
155	0x3de9f202	0.114231125
156	0xbeab0fcb	-0.33410487
157	0xbc1ec2b5	-0.009689976
158	0xbdf91b23	-0.12163379
159	0x3e1e5be6	0.15464744
160	0xbd923f50	-0.07140982
161	0x3c0259ac	0.00795595
162	0x3e790fc9	0.24322428
163	0xbded5136	-0.115877554
164	0xbddbf701	-0.10740472
165	0x3e0517c0	0.12997341
166	0x3e1ff44c	0.15620536
167	0xbe1a4b3b	-0.1506776
168	0xbd950912	-0.07277121
169	0x385ca038	5.2601303e-05
170	0x3e20386a	0.1564652
171	0xbe484ed3	-0.19561319
172	0x3e7fc055	0.24975713
173	0x3dca013b	0.09863516
174	0x3dac2e11	0.08407224
175	0xbe74f646	-0.23922071
176	0x3d7e9b8f	0.06216007
177	0xbb802966	-0.003911185
178	0xbe76bd35	-0.24095614
179	0x3dbb68b7	0.09150832
180	0x3e07cd29	0.13261856
181	0xbd8682d1	-0.0656792
182	0xbdb28998	-0.0871765
183	0x3b378e0c	0.002800825
184	0x3c881c97	0.016615195
185	0xbe7ee4de	-0.24891993
186	0xbe8c3990	-0.27387667
187	0x3e2e2fd1	0.17010428
188	0x3e5dd91d	0.21664853
189	0x3e1d6e8d	0.15374203
190	0xbe219ce0	-0.157825
191	0x3cb28e33	0.021796321
192	0x3c48e4ca	0.012261579
193	0xbcd0b0a3	-0.025474852
194	0x3d27dcae	0.04098194
195	0x3e799517	0.2437328
196	0xbe8843ad	-0.26614133
197	0x3e70be54	0.23510104
198	0x3dd3b747	0.10337692
199	0x3d62a448	0.055332452
200	0x3e1e43be	0.15455529
201	0x3cd6d71a	0.026225615
202	0xbe3934ea	-0.18086591
203	0x3dbedc95	0.093194164
204	0x3e857895	0.2606856
205	0xbe0f3eb5	-0.13988765
206	0xbe20c188	-0.15698826
207	0xbe624836	-0.22097859
208	0xbdf49fe5	-0.1194456
209	0xbcdf43d6	-0.027254026
210	0x3d57ea3f	0.05271363
211	0xbe0fc56d	-0.14040156
212	0xbe76fd46	-0.24120054
213	0xbc254474	-0.010087121
214	0x3e37f169	0.17963184
215	0x3b6a348d	0.003573689
216	0x3d85f56f	0.06540953
217	0xbde5a72a	-0.11213525
218	0x3e490736	0.19631657
219	0xbde6715b	-0.112520896
220	0x3e44b2a6	0.19208774
221	0xbe223492	-0.15840366
222	0x3b00250b	0.001955333
223	0xbe156332	-0.14588621
224	0xbe80feb9	-0.25194338
225	0x3e2b4c57	0.1672834
226	0xbd2f7b61	-0.042842273
227	0xbd583f6c	-0.05279486
228	0xbae4b3c4	-0.0017448594
229	0xbd1fc53f	-0.039006468
230	0xbd02f21b	-0.03196917
231	0xbe093cd5	-0.13402112
232	0xbe02548f	-0.12727569
233	0xbdf61e38	-0.120174825
234	0xbe2d6994	-0.16934806
235	0x3da4bea2	0.08044173
236	0x3dfb90c1	0.12283469
237	0x3e046123	0.1292768
238	0xbe4c44ac	-0.19948071
239	0x3dc6f92f	0.09715497
240	0x3d28461e	0.041082494
241	0x3de9b6d1	0.114118226
242	0x3e4e5ac4	0.20151812
243	0xbde9ada8	-0.114100754
244	0xbd50084c	-0.050789163
245	0x3dd418af	0.103562705
246	0x3dbe0b26	0.0927947
247	0xbcbb46bf	-0.022860883
248	0x3b7d6f42	0.003867105
249	0xbe8445ea	-0.2583459
250	0x3e8ace69	0.27110603
251	0x3bb73856	0.0055914326
252	0x3e809258	0.2511165
253	0xbdbb2e6e	-0.09139715
254	0xbca8a207	-0.020585073
255	0x3d8eaf74	0.06967059

bias f4 [64]
0	0xbcd57473	-0.026056504
1	0xbc9c0c44	-0.019048817
2	0x3d53d812	0.051719733
3	0xbb801e72	-0.0039098794
4	0xbbf15cb8	-0.0073657893
5	0x3dcc22e9	0.09967596
6	0xbcb801d4	-0.02246181
7	0xbd685995	-0.056726057
8	0xbcb94159	-0.022614168
9	0x3e015151	0.12628676
10	0xbc2e93d6	-0.010655364
11	0xbd5443ee	-0.051822595
12	0x3de85038	0.113434255
13	0x3d2c55ca	0.042074002
14	0x3df5ed8e	0.120082006
15	0xbd4a23b4	-0.049350455
16	0xbd7f99c3	-0.062402498
17	0x3acbf342	0.0015560167
18	0x39f2bff1	0.00046300844
19	0xbde2da7b	-0.11076828
20	0x3e02de93	0.12780218
21	0x3d21b5be	0.039479963
22	0x3d78cef6	0.06074425
23	0x3dcc955a	0.09989424
24	0xbd8f23fb	-0.069892846
25	0x3c4cf771	0.0125101665
26	0xbe125be4	-0.14292866
27	0x3d0d2329	0.03445736
28	0xbe188d9e	-0.14897773
29	0x3e13f8de	0.14450404
30	0xbc9b29d3	-0.018940842
31	0xbd09cfae	-0.033645324
32	0xbd9b8132	-0.075930014
33	0xbc92345c	-0.017847233
34	0x3d96d82d	0.07365451
35	0xbdffb02b	-0.12484773
36	0xbd7963d8	-0.060886234
37	0xbd497f47	-0.049193647
38	0x3c42de8b	0.011893879
39	0xbdc50e1a	-0.0962183
40	0x3de8d558	0.11368817
41	0x3d9b715b	0.0758998
42	0x3b94a98c	0.004536813
43	0x3daad831	0.083420165
44	0x3abf0a7f	0.0014575272
45	0xbe0afe8c	-0.13573664
46	0x3de477a4	0.11155632
47	0xbc9af263	-0.018914407
48	0x3d589d91	0.052884642
49	0xbcede2e0	-0.029038846
50	0xbd6a2a03	-0.05716897
51	0x3aa92944	0.0012905975
52	0xbcbbf508	-0.022943988
53	0x3d916653	0.07099595
54	0xbd5dee0a	-0.05418209
55	0x3e370f1b	0.17876856
56	0x3c9141d8	0.017731592
57	0xbc2bdcc6	-0.010489648
58	0xbd7817bd	-0.060569514
59	0xbd9201a7	-0.071292214
60	0x3d5d9d14	0.05410488
61	0xbd812105	-0.06305126
62	0x3d522501	0.05130482
63	0x3e3799ef	0.17929815

in_proj_weight f4 [192, 64]
0	0x3b790b95	0.0038001288
1	0xbc8357de	-0.01603311
2	0x3b188a4d	0.0023275793
3	0x3c7c892b	0.015413563
4	0xbb1d1ed2	-0.002397467
5	0x3d286d40	0.041119814
6	0xbac6f0be	-0.0015177948
7	0x3c53f247	0.012936181
8	0x3b749fea	0.0037326762
9	0x3b7d0cce	0.0038612369
10	0xbb4c9cfc	-0.00312215
11	0xbb3c8c4b	-0.0028770145
12	0xbb85c3af	-0.004082165
13	0x3c862ca6	0.016378712
14	0x3ccd5e74	0.025069453
15	0x3d4698a7	0.048485424
16	0x3c076e7c	0.008266088
17	0xbb2cbde7	-0.0026358308
18	0xbcf6c187	-0.030121578
19	0xbba13c7c	-0.0049205404
20	0xbbd4acef	-0.006490342
21	0xbd2045e1	-0.03912914
22	0xbd1c7cfa	-0.038205124
23	0xbc5f2508	-0.013619669
24	0x3cc4ca38	0.024022207
25	0x3b64af89	0.0034894666
26	0x3cdf5002	0.02725983
27	0xbc4a9e03	-0.0123667745
28	0x3b6c82e2	0.0036088754
29	0xbbbec197	-0.0058214176
30	0xbd46bc3c	-0.048519358
31	0x3c857ff5	0.016296366
32	0x3d30fe9d	0.04321157
33	0xbb974c68	-0.0046172626
34	0xbcad916a	-0.021187503
35	0xbc53554d	-0.012898755
36	0x3c2eee44	0.010676924
37	0x3c04fbbe	0.008116661
38	0xbc789728	-0.015172757
39	0x3d9e3019	0.07724018
40	0x3c76f28d	0.015072477
41	0xbb603e77	-0.003421692
42	0x3d4c7ecf	0.04992562
43	0xbd038ac7	-0.03211477
44	0x3c7745be	0.015092311
45	0x3cfc924f	0.030831484
46	0x3b68db7f	0.003553122
47	0xbd36b832	-0.044609256
48	0xbbacd83e	-0.0052748015
49	0x3d1c7544	0.03819777
50	0x3c8ca2fb	0.017167559
51	0x3c8e454d	0.01736703
52	0x3c7aa182	0.0152972955
53	0x3a70580c	0.00091683934
54	0xbcf25ccc	-0.029585265
55	0x3a9e2321	0.0012064913
56	0xbbd703ab	-0.0065617166
57	0x3a9c6641	0.001193233
58	0x3c3e5d6a	0.011618951
59	0xbc842cad	-0.016134584
60	0xbcc7e588	-0.024401441
61	0xbd015e31	-0.03158397
62	0xbc730d56	-0.0148347225
63	0x3cadb929	0.021206455
64	0xbb2d9def	-0.002649184
65	0xbc091e6f	-0.008369072
66	0x3b48c78c	0.0030636517
67	0xbd36c7d3	-0.04462416
68	0xbb147807	-0.002265455
69	0x3d1abcb5	0.03777762
70	0xbb5fc056	-0.003414174
71	0x3bb3cb78	0.005486902
72	0x3b9c8028	0.0047760196
73	0xb9f1563c	-0.00046031352
74	0xb9b411fb	-0.00034345672
75	0xbbe1523b	-0.0068762577
76	0xbbcad48a	-0.0061898874
77	0x3abc6582	0.0014373513
78	0x3d177f54	0.036986664
79	0xbca0d616	-0.019633334
80	0x3cab7579	0.020930039
81	0xbb78ad49	-0.0037945083
82	0xbd2f0e5b	-0.0427383
83	0xbd44aeeb	-0.048018377
84	0x3c465424	0.012105022
85	0xbcef17ca	-0.029186148
86	0x3cf27700	0.02959776
87	0xbc8f8982	-0.017521624
88	0x3b40f957	0.0029445493
89	0x3bcb6466	0.006207037
90	0xbcc243f4	-0.023714043
91	0xba5c321a	-0.00083997997
92	0xbd2a5cdf	-0.041592475
93	0x3c07eaaf	0.008295699
94	0xbc17ee1b	-0.009273077
95	0x3d092bf0	0.033489168
96	0xbd81fe43	-0.06347325
97	0xbb7e56cf	-0.0038809066
98	0x3cf967de	0.030445036
99	0x3ae6a6cc	0.0017597317
100	0x3bb37502	0.005476595
101	0x3c6ae3f2	0.014336573
102	0xbc0d7f65	-0.00863633
103	0x3d30ceaa	0.04316584
104	0x3c3a8197	0.011383436
105	0xbb72a9b1	-0.0037027413
106	0x3c4a09fd	0.012331483
107	0xbc3e7691	-0.011624948
108	0xbd6a3044	-0.057174936
109	0x3c64106a	0.013919929
110	0x3af554a1	0.0018717238
111	0xbcc2ffaf	-0.02380356
112	0xbc1222db	-0.008919443
113	0x3c23319f	0.009960561
114	0x3bbaee36	0.0057046665
115	0xbc134e46	-0.00899083
116	0x3c00c683	0.007859829
117	0x3b726c52	0.0036990833
118	0xbc9fae60	-0.019492328
119	0xbbc0346a	-0.0058656232
120	0xbc4b6c3b	-0.012415941
121	0x3abcb021	0.0014395752
122	0xbc1ab0fc	-0.00944161
123	0xbc638b10	-0.013888136
124	0xbcc40c7a	-0.02393173
125	0xba888cd9	-0.0010417952
126	0xb882a7e7	-6.230157e-05
127	0x3caf684a	0.021412034
128	0x3bc3a051	0.005970039
129	0x3d05083f	0.032478567
130	0xbc524b5c	-0.01283535
131	0xbd67666c	-0.05649416
132	0x3c68db52	0.014212446
133	0xbe0deb7c	-0.13859361
134	0xbc1d085b	-0.009584512
135	0x3c55c362	0.013047071
136	0xbce189d2	-0.027531538
137	0x3c851655	0.016246
138	0xbc0591e7	-0.008152462
139	0x3d52ab3f	0.051432844
140	0x3cc6b0a4	0.02425415
141	0x3b8d438b	0.0043110303
142	0xbe084f43	-0.13311486
143	0x3d7c77f0	0.06163782
144	0xbdd66454	-0.10468355
145	0x3ba77b7f	0.0051111574
146	0x3e10399f	0.1408448
147	0x3e118ca0	0.142138
148	0xbe0d537b	-0.13801377
149	0x3d78d34c	0.060748383
150	0xbe0f949c	-0.14021534
151	0xbe255159	-0.16144313
152	0x3cce1117	0.025154633
153	0xbd899373	-0.06717577
154	0xbb393ba1	-0.0028264301
155	0x3d80633c	0.062689275
156	0x3dfc6f06	0.123258635
157	0xbcfcec77	-0.030874474
158	0xbdb345d5	-0.08753554
159	0xbd0c84a1	-0.034306172
160	0x3dc78386	0.09741883
161	0x3ddaf57d	0.106913544
162	0xbe10e18f	-0.14148544
163	0xbd1baf28	-0.03800884
164	0xbc601842	-0.0136776585
165	0xbdd459f4	-0.1036872
166	0xbd2afd02	-0.041745193
167	0xbdb20dfb	-0.08694073
168	0x3c1a75be	0.009427486
169	0x3d495465	0.04915275
170	0xbd78b1f4	-0.060716584
171	0x3ce4aa88	0.027913347
172	0xbc9fbc4b	-0.019498965
173	0x3df09021	0.117462404
174	0xbd64352a	-0.055714764
175	0xbdebba23	-0.11510112
176	0x3d59e91e	0.053200833
177	0xbc146a1e	-0.009058503
178	0x3c2b1bf9	0.010443681
179	0xbdab152f	-0.0835365
180	0xbdac9209	-0.084262915
181	0xbd572c46	-0.052532457
182	0x3e1d7723	0.15377478
183	0x3d87a193	0.06622615
184	0x3dd79864	0.10527113
185	0xbd64f9eb	-0.055902403
186	0x3d44c3d9	0.048038337
187	0x3d79bd64	0.060971633
188	0x3e03d48e	0.12874052
189	0xbd6705ac	-0.056401893
190	0xbbc77e89	-0.006088082
191	0xbddd3fa3	-0.10803153
192	0x3c33835c	0.0109566115
193	0xbc8e0b49	-0.017339366
194	0xbb9862f1	-0.0046504666
195	0xbdce2d0f	-0.10067188
196	0x3bf523b4	0.007481063
197	0xbd92e18b	-0.07171925
198	0x3c38a0ac	0.011268776
199	0x3b6f981e	0.0036559175
200	0xbc7be9ad	-0.015375537
201	0x3c99cce8	0.018774465
202	0xbb360f3d	-0.0027780079
203	0x3cf7860b	0.030215284
204	0x3b8e2c17	0.004338752
205	0x3d0277ad	0.031852413
206	0xbdbb4053	-0.09143128
207	0x3e391d13	0.18077497
208	0xbd29e2d9	-0.041476104
209	0x3cac73ff	0.021051405
210	0x3dac1585	0.08402542
211	0x3d8f7af5	0.07005874
212	0xbdc1498f	-0.09437858
213	0xbd60fb3a	-0.05492709
214	0xbd9e3c74	-0.07726374
215	0xbe176171	-0.14783265
216	0xbc0e23d2	-0.008675532
217	0xbcac1514	-0.021006145
218	0x3dc14b67	0.0943821
219	0x3d461233	0.0483572
220	0x3db87150	0.09005988
221	0xbd4de525	-0.050267357
222	0xbdeba281	-0.115056045
223	0xbcf3117b	-0.029671421
224	0x3dd76216	0.10516755
225	0x3ca7a4ab	0.020464262
226	0xbde787d8	-0.11305207
227	0xbd257dcc	-0.040403172
228	0xbd2f6743	-0.042823087
229	0xbd1b7c79	-0.037960503
230	0xbd591c7b	-0.053005677
231	0x3db6a138	0.08917469
232	0xbc832e26	-0.016013216
233	0x3c00a73f	0.007852375
234	0xbd60c020	-0.054870725
235	0xbda21b50	-0.07915366
236	0x3c868f4a	0.016425747
237	0x3d844914	0.06459251
238	0xbba3191c	-0.0049773585
239	0xbdf952ce	-0.12173997
240	0x3cd9bada	0.026578356
241	0x3c2393b0	0.009983942
242	0x3a917a61	0.0011099094
243	0xbdb53776	-0.08848469
244	0xbdf9c42e	-0.121956214
245	0xbc5461a3	-0.0129627315
246	0x3d615fc1	0.05502296
247	0x3ac283b3	0.0014840275
248	0x3d443d6b	0.047910135
249	0xbbacae2a	-0.0052697854
250	0x3ccb8ae0	0.024846494
251	0x3cec922a	0.02887829
252	0x3cf2d477	0.029642327
253	0xbc93be35	-0.018035034
254	0xbc060846	-0.0081806835
255	0xbd9e4c5a	-0.07729407

in_proj_bias f4 [192]
0	0x3d496957	0.049172726
1	0x3d3badc4	0.045820013
2	0xbc2019c0	-0.009771764
3	0x3ddbc0c6	0.10730128
4	0x3e017613	0.12642698
5	0xbd2959a8	-0.04134527
6	0xbd778ea5	-0.06043877
7	0x3d96878c	0.07350072
8	0x3daa740f	0.08322918
9	0x3d423c41	0.047420744
10	0xbcbcdf0a	-0.023055572
11	0xbdc64e66	-0.09682922
12	0xbd981651	-0.074261315
13	0xbd3e25e6	-0.04642286
14	0x3cf72e32	0.030173395
15	0x3d72da2c	0.059290096
16	0xbdae0936	-0.084978506
17	0xbdaca411	-0.08429731
18	0x3d72c21b	0.059267145
19	0x3e486113	0.19568281
20	0xbdf895e6	-0.12137966
21	0x3d0ebdee	0.0348491
22	0xbdff59d4	-0.12468305
23	0xbe044a7a	-0.12919036
24	0xbe14a1d7	-0.14514862
25	0x3cdd1b50	0.026990563
26	0xbe15e96e	-0.14639828
27	0xbd64ec8b	-0.055889647
28	0xbe6945ca	-0.22780529
29	0xbe75e955	-0.2401479
30	0x3de25c21	0.110527284
31	0x3dc78a1d	0.0974314
32	0x3a30095f	0.00067152636
33	0x3a731b45	0.0009273778
34	0x3ca6b229	0.020348625
35	0x3bb581c6	0.005539152
36	0xbd411712	-0.047141142
37	0x3d3b12ac	0.045672104
38	0xbcdbb6ee	-0.026820626
39	0x3d8f70f7	0.07003968
40	0x3dbf956c	0.09354672
41	0x3d71b22a	0.0590078
42	0xbc0e964d	-0.008702827
43	0xbc6e8052	-0.014556961
44	0x3cacc58b	0.02109029
45	0xbd62dce6	-0.055386446
46	0x3dc148c8	0.0943771
47	0x3dcc75f0	0.09983432
48	0x3e4ef8e1	0.20212127
49	0xbdfbecf7	-0.12301057
50	0xbe288fd9	-0.16461124
51	0xbde45d7a	-0.11150642
52	0x3d6081e2	0.054811366
53	0x3e40788f	0.1879599
54	0x3e0d6014	0.13806182
55	0x3d8b2d64	0.06795767
56	0xbe8a22ba	-0.2697962
57	0x3e25bbac	0.16184872
58	0xbe2dfe54	-0.1699155
59	0xbe951d72	-0.29124027
60	0xbe408761	-0.18801643
61	0xbe29dc9a	-0.16588059
62	0xbdf85212	-0.12125029
63	0xbe8399ee	-0.25703377
64	0xb3eb193f	-1.09476325e-07
65	0xb3c53076	-9.182342e-08
66	0xb42d33e8	-1.6130764e-07
67	0x355f3615	8.3152673e-07
68	0xb58af249	-1.0352315e-06
69	0x34015152	1.2043645e-07
70	0xb4a03e44	-2.9847627e-07
71	0x34992287	2.8523593e-07
72	0x355906d8	8.084876e-07
73	0xb3c70cf8	-9.2690186e-08
74	0xb4c8b4b8	-3.7384393e-07
75	0xb3e6ca29	-1.0746982e-07
76	0xb27b43b5	-1.4625518e-08
77	0x33b092e6	8.222359e-08
78	0xb328b856	-3.92832e-08
79	0x33d9c3d1	1.0140469e-07
80	0x341a31a7	1.4360431e-07
81	0xb4a77dc8	-3.1197692e-07
82	0xb4859c55	-2.4886927e-07
83	0xb4e1eaf8	-4.2080478e-07
84	0xb47c011c	-2.3469732e-07
85	0xb3e4ac64	-1.0648435e-07
86	0x338916a8	6.383681e-08
87	0xb4ae9e15	-3.2525045e-07
88	0x341133f4	1.3523078e-07
89	0xb2d98a66	-2.5325061e-08
90	0xb45864b7	-2.0153207e-07
91	0x2f98d9ed	2.7803485e-10
92	0xb4a7b9a4	-3.1241245e-07
93	0x35016e18	4.821645e-07
94	0xb3848be7	-6.172177e-08
95	0x3277f9a9	1.4434058e-08
96	0xb4122df5	-1.3614029e-07
97	0xb4bfa782	-3.56984e-07
98	0xb45238d4	-1.9578448e-07
99	0xb4b1a52e	-3.3089003e-07
100	0x35608e48	8.365355e-07
101	0xb53790c7	-6.838349e-07
102	0xb45fc782	-2.0841074e-07
103	0xb502f5db	-4.878654e-07
104	0xb55d1643	-8.236131e-07
105	0xb540a413	-7.1764333e-07
106	0x34f71d1c	4.6028515e-07
107	0xb4a65745	-3.0983406e-07
108	0xb4e6ee44	-4.30142e-07
109	0x3513dee8	5.508614e-07
110	0xb58bf3ed	-1.0427299e-06
111	0xb5ae548c	-1.2988617e-06
112	0xb6358329	-2.7047447e-06
113	0x3563ebe8	8.490738e-07
114	0x35764279	9.173887e-07
115	0x35662cb1	8.574671e-07
116	0xb5a79e38	-1.2488517e-06
117	0xb5a11f4f	-1.2004547e-06
118	0xb5a5f0d1	-1.2363545e-06
119	0xb4ea3454	-4.362397e-07
120	0x366f693e	3.5675034e-06
121	0xb60501be	-1.9819558e-06
122	0x364eb77a	3.080319e-06
123	0x3698c066	4.552351e-06
124	0x35d4a73d	1.5843904e-06
125	0x35def493	1.6611469e-06
126	0x35d6dffa	1.6009428e-06
127	0x36791491	3.7115863e-06
128	0xbc8eef8f	-0.017448215
129	0xbcd1e2ca	-0.025620837
130	0xbc04c5b8	-0.00810378
131	0x3d1030a8	0.035202652
132	0x3bf042d0	0.0073321834
133	0x3b8200d4	0.003967384
134	0xbd12835d	-0.03576981
135	0xbcbf6978	-0.023365721
136	0x3cc471e1	0.023980083
137	0x3b243e36	0.0025061495
138	0xbc3e8d1d	-0.011630324
139	0xbce6502e	-0.028114405
140	0xbc95ed3e	-0.018301602
141	0xbc424fa3	-0.011859807
142	0x3a300624	0.0006714782
143	0xbb9b5de7	-0.0047414186
144	0xbcd3b1fa	-0.025841702
145	0x3c7e5125	0.015522276
146	0xbc7f9f51	-0.015601949
147	0x3c047e66	0.008086776
148	0xbbfd10bd	-0.0077229426
149	0x3ad04f89	0.0015892844
150	0xb91b100f	-0.00014787934
151	0x3c970649	0.018435614
152	0x3c246a97	0.010035179
153	0x3c482428	0.012215652
154	0x3ab8f5e1	0.0014111364
155	0xbae941f5	-0.0017796146
156	0xbc8d8df4	-0.017279603
157	0xbce974fa	-0.028498162
158	0xbb5c4018	-0.0033607539
159	0x3bacbdd7	0.005271654
160	0x3c4ae8d2	0.01238461
161	0xbbb43e7c	-0.005500613
162	0xbb287233	-0.0025702834
163	0x3ba984f3	0.0051733195
164	0xbc2c1a3f	-0.010504304
165	0x3c2d98e1	0.010595531
166	0xbb78f8fe	-0.0037990208
167	0xbcd8c5c4	-0.02646149
168	0xbcaef61a	-0.021357585
169	0x3ceebdd2	0.029143248
170	0x3c99889a	0.018741895
171	0x3cb15033	0.021644687
172	0x3c260017	0.010131857
173	0xbd44f59e	-0.0480858
174	0x3a1357de	0.0005620698
175	0xbc874d8e	-0.016516473
176	0x3c4a2d60	0.01233992
177	0x3c5f89cb	0.013643692
178	0x3cb67179	0.022270905
179	0xbc919ddf	-0.017775474
180	0x3c16a386	0.00919426
181	0x3b442c97	0.0029933804
182	0xbd046bbd	-0.03232931
183	0x3b89084a	0.0041818963
184	0xbc034263	-0.008011433
185	0x3c86cd03	0.01645518
186	0xbb960a3b	-0.0045788563
187	0x3bbbfe91	0.005737134
188	0x3c2630af	0.010143443
189	0xbb4ae8bc	-0.0030961474
190	0xbbb76f0f	-0.005597956
191	0x3cac88fd	0.021061415

weight f4 [64, 64]
0	0xbc2f9e9c	-0.010718968
1	0xbb1c99b3	-0.0023895323
2	0x3ddee1dd	0.10882924
3	0x3e45baa4	0.19309479
4	0x3e3a27c4	0.18179232
5	0x3e1a484a	0.15066639
6	0x3d94bbb7	0.07262366
7	0xbd80f58b	-0.062968336
8	0xbd980edf	-0.074247114
9	0x3e2e66ce	0.17031404
10	0x3e1a6ba7	0.15080129
11	0xbe2a446f	-0.16627668
12	0x3de6aaec	0.112630695
13	0x3e1ce99b	0.15323488
14	0xbce24827	-0.027622296
15	0xbdafcf6a	-0.08584483
16	0x3c96f86d	0.018429006
17	0x3d5d2d23	0.053998124
18	0x3d512bd8	0.051067203
19	0xbc70479d	-0.014665511
20	0x3e2e3380	0.17011833
21	0xbdbb3d89	-0.09142596
22	0xbe13fb11	-0.14451243
23	0x3d608282	0.054811962
24	0xbbcbaaa4	-0.0062154103
25	0xbe1c8d07	-0.15288173
26	0xbd88c5bd	-0.066783406
27	0x3d1ad46c	0.037800238
28	0xbd9589fb	-0.07301708
29	0x3dede99d	0.11616824
30	0x3d4f2402	0.05057145
31	0xbd95abd1	-0.07308162
32	0x3d93c8e3	0.072160505
33	0x3cd4fdc1	0.025999906
34	0xbccc9f49	-0.024978297
35	0x3da99c61	0.0828178
36	0xbcbf5cf3	-0.023359751
37	0x3d8f3455	0.069924034
38	0x3d031339	0.032000754
39	0x3e07f2da	0.13276234
40	0xbd688154	-0.056763962
41	0xbcd8adcd	-0.026450062
42	0xbde93c2d	-0.11388431
43	0xbdd391bf	-0.10330533
44	0xbe2ae3fe	-0.16688535
45	0xbe42a942	-0.19009879
46	0xbd144520	-0.036198735
47	0xbd235039	-0.03987143
48	0x3e134c51	0.14384581
49	0x3e3efe5b	0.18651716
50	0x3e273482	0.16328624
51	0x3e0acd7e	0.13554952
52	0x3dfbc598	0.122935474
53	0x3db35ebd	0.08758304
54	0x3e0f4316	0.13990435
55	0xbcd0466c	-0.025424205
56	0x3dac4b12	0.08412756
57	0x3d97310f	0.07382404
58	0xbde6eb8a	-0.11275394
59	0x3dbefb6c	0.09325299
60	0x3b8b8b0e	0.00425852
61	0xbccebe74	-0.0252373
62	0x3e1f9067	0.15582429
63	0xbd745a3d	-0.05965637
64	0xbdd76560	-0.105173826
65	0x3ccabbe4	0.024747796
66	0x3df6f65d	0.12058709
67	0x3e29886e	0.1655595
68	0xbd98991c	-0.07451078
69	0xbdcd1388	-0.10013491
70	0xbdb41e34	-0.08794823
71	0x3debb69c	0.11509439
72	0x3e4eb409	0.20185865
73	0xbdc709e1	-0.09718681
74	0x3e401926	0.18759593
75	0xbd8f9d5f	-0.07012438
76	0x3d3dafc8	0.046310216
77	0xbe30518e	-0.1721861
78	0x3c7f29b8	0.015573911
79	0xbd471b95	-0.04861029
80	0xbdd47970	-0.10374725
81	0x3cf2c9bd	0.029637212
82	0xba4b9354	-0.0007765789
83	0xbb8a0f83	-0.004213275
84	0xbdddea4c	-0.10835704
85	0x3d5b3525	0.05351748
86	0x3c8c4023	0.017120427
87	0x3df265d2	0.11835827
88	0xbdb49b82	-0.08818723
89	0x3deeba54	0.11656633
90	0xbcc3ddaa	-0.023909409
91	0xbc214e29	-0.009845295
92	0x3de896f6	0.113569185
93	0xbd808806	-0.062759444
94	0xbd6f4c04	-0.058422104
95	0x3dcdb891	0.10044969
96	0xbe43bf68	-0.19115984
97	0x3e08a77a	0.13345137
98	0xbcaf24c2	-0.021379832
99	0x3e13f75c	0.14449829
100	0xbb924b70	-0.0044645593
101	0x3e33a80c	0.17544574
102	0x3e16e386	0.14735231
103	0x3d07f984	0.03319694
104	0x3e1de705	0.15420158
105	0xbd4afec4	-0.04955937
106	0x3d6eb468	0.058277518
107	0x3db4dc8d	0.08831129
108	0x3e21902c	0.15777653
109	0x3c798ad3	0.015230852
110	0xbdc10c50	-0.094261765
111	0xbd93f8e5	-0.07225207
112	0x3e2ea3a1	0.17054607
113	0xbdd96ad1	-0.10616077
114	0xba51faf2	-0.0008010111
115	0xbe1a3cae	-0.1506221
116	0x3c93534a	0.017984051
117	0x3de612c5	0.11234049
118	0x3e05c5b7	0.13063703
119	0x3e3908ab	0.18069713
120	0xbdafeb8e	-0.0858985
121	0xbdb37e54	-0.087643296
122	0x3d6f40da	0.058411457
123	0xbce9a7ef	-0.02852246
124	0xbe369c12	-0.17832974
125	0xbd783e79	-0.060606454
126	0x3e1098f9	0.14120854
127	0xbc2bc31d	-0.01048353
128	0xbd2ddef0	-0.042448938
129	0xbe0833ef	-0.13301061
130	0xbc40c709	-0.011766204
131	0xbdf79a11	-0.12089933
132	0x3de3ec6b	0.111290775
133	0xbded6e09	-0.11593253
134	0x3dfbfe50	0.12304366
135	0x3db62149	0.088930674
136	0x3e05de17	0.13073002
137	0x3df8dd7a	0.12151618
138	0xbc341412	-0.010991113
139	0x3d628a3e	0.05530762
140	0x3cd46c47	0.025930537
141	0xbd8dc5e5	-0.06922511
142	0x3d17befc	0.03704737
143	0x3da404be	0.08008717
144	0x3d65b869	0.05608407
145	0xbd891335	-0.066931166
146	0xbd97ae8d	-0.0740634
147	0xbe220a07	-0.15824138
148	0xbda01b79	-0.0781774
149	0x3daef19f	0.08542179
150	0xbcbad5f9	-0.022807108
151	0xbe29b614	-0.16573364
152	0x3df49936	0.11943285
153	0xbdfb76eb	-0.12278541
154	0xbe37593b	-0.17905132
155	0xbde6c9e1	-0.11268974
156	0xbcd3136e	-0.0257661
157	0xbc532d45	-0.012889211
158	0xbd8823a6	-0.066474244
159	0xbdb0bebc	-0.0863013
160	0xbe134642	-0.1438227
161	0x3e336090	0.17517304
162	0x3d792d90	0.060834467
163	0x3de86838	0.11348003
164	0x3d5c74d8	0.05382237
165	0xbcbcb372	-0.023034785
166	0x3d98d767	0.0746296
167	0x3e290103	0.16504292
168	0x3d971723	0.0737746
169	0x37d98a60	2.5932852e-05
170	0xbe427a6d	-0.18992014
171	0x3dd2b70d	0.102888204
172	0xbb0a384c	-0.0021090684
173	0xbe088c00	-0.13334656
174	0xbd9307c6	-0.07179217
175	0x3e11da8c	0.14243525
176	0x3dd1cdb3	0.10244312
177	0x3d12a6db	0.035803657
178	0x3dfced22	0.12349917
179	0x3d63588f	0.055504378
180	0xbddd4739	-0.108046
181	0xbd5ae783	-0.053443443
182	0xbe0e2843	-0.13882546
183	0x3c8147ab	0.015781244
184	0x3d7672d6	0.06016811
185	0x3bd17f7a	0.00639337
186	0xbd969c82	-0.0735407
187	0xbd46673a	-0.04843829
188	0xbdc0e548	-0.09418732
189	0xbd1db76a	-0.038504995
190	0x3e2155f0	0.15755439
191	0x3db80686	0.08985619
192	0xbdcd08c1	-0.10011435
193	0xbd4f8b07	-0.050669696
194	0x3e548531	0.20753933
195	0xbc987b90	-0.018613607
196	0x3e05ff63	0.13085704
197	0xbe24923f	-0.16071413
198	0x3e0fbcd4	0.14036876
199	0xbde95a13	-0.113941334
200	0xbb3a2fc2	-0.0028409814
201	0xbda4f41e	-0.08054374
202	0x3db38060	0.0876472
203	0x3d4d7e97	0.050169554
204	0x3a72c2e8	0.00092606107
205	0xbe392251	-0.18079497
206	0xbc0056bb	-0.007833178
207	0x3dfc20a9	0.12310917
208	0x3e5b00a9	0.2138697
209	0xbd998592	-0.0749618
210	0x3d8cb9d0	0.068713784
211	0xbc2333fb	-0.009961124
212	0xbd9097d6	-0.070602104
213	0xbd999238	-0.07498592
214	0xbdc14be3	-0.09438302
215	0xbda8b1b9	-0.08237023
216	0x3d0ccbea	0.034374155
217	0xbb8eaea0	-0.004354313
218	0xbdcd065e	-0.1001098
219	0x3cc569b5	0.024098257
220	0xbce328cb	-0.027729413
221	0xbdc61ac3	-0.09673073
222	0xbc3aa33f	-0.01139146
223	0xbdfede72	-0.12444772
224	0xbe11450c	-0.14186496
225	0xbcd474ce	-0.025934603
226	0x3da7b9af	0.08189713
227	0x3dbfa27e	0.09357165
228	0x3e0c947c	0.13728517
229	0xbccb03e0	-0.024782121
230	0x3cbbf80f	0.022945432
231	0x3e268b21	0.16264011
232	0x3d3f0207	0.046632793
233	0xbe04165a	-0.12899151
234	0x3e110cb2	0.14164999
235	0x3c7c781b	0.015409495
236	0x3d30e614	0.04318817
237	0x3d1cba31	0.038263503
238	0x3e1fc4fd	0.15602489
239	0xbddf4faa	-0.109038666
240	0x3d836b9f	0.064170115
241	0xbceaf8c1	-0.028683068
242	0xbd4d6515	-0.050145227
243	0x3df49d6e	0.1194409
244	0xbe09d936	-0.13461766
245	0x3e0141b0	0.12622714
246	0xbe369e12	-0.17833737
247	0x3dbc48ed	0.09193597
248	0x3d3bd8de	0.045861118
249	0xbe074b6b	-0.13212363
250	0xbe266220	-0.16248369
251	0xbe324d61	-0.1741233
252	0x3c7011fd	0.014652726
253	0xbdf36fe6	-0.11886577
254	0xbd2c6f1b	-0.042098146
255	0x3c27c5c3	0.010240021

bias f4 [64]
0	0xbc14fa2f	-0.009092852
1	0xbb2a260f	-0.0025962626
2	0xbb34d7fb	-0.0027594555
3	0x3bae8dc2	0.0053269574
4	0x3b452bfa	0.0030086027
5	0x3c1c0341	0.00952226
6	0xb9e185de	-0.00043015083
7	0x3b9a3356	0.0047058268
8	0x3a9cd928	0.0011966573
9	0x3aa815e8	0.0012823911
10	0xba3c375a	-0.0007179879
11	0xbae3d04f	-0.0017380806
12	0x3b857f80	0.004074037
13	0x3b394710	0.0028271116
14	0xbc017e86	-0.007903701
15	0xbb429173	-0.0029688745
16	0xbb89e037	-0.0042076367
17	0x3b0f341d	0.002185113
18	0xb94e0bb1	-0.00019650046
19	0x3a0a6c57	0.0005280426
20	0xb9d72a8a	-0.0004103969
21	0x3b613551	0.0034364054
22	0xb9004f38	-0.00012236543
23	0xbc0558a5	-0.00813881
24	0x3c613665	0.013745879
25	0x3bbc067b	0.005738077
26	0xbbce5a92	-0.006297418
27	0xbbc5d44a	-0.0060372697
28	0x3a248733	0.000627625
29	0x3bec6f9a	0.0072154524
30	0xbaa84c2a	-0.0012840081
31	0xbc135073	-0.008991349
32	0x3acac53e	0.001547016
33	0xbbe3352b	-0.0069338284
34	0x3c1835b7	0.00929015
35	0xbc197098	-0.009365223
36	0xbacb44aa	-0.0015508134
37	0xb9bb94e5	-0.00035778355
38	0x3bf707ca	0.0075387703
39	0xbc147ace	-0.009062482
40	0x3c262c72	0.0101424325
41	0x3c1bf543	0.009518924
42	0xbb19029e	-0.0023347507
43	0xbb30f711	-0.0027002732
44	0x3bc5531c	0.0060218703
45	0xba18448e	-0.0005808555
46	0x3c24591a	0.010031009
47	0x3a1fd40f	0.0006096968
48	0x3b8acee8	0.004236091
49	0xbac3ecd7	-0.0014947903
50	0x3bc11e15	0.0058934786
51	0xbc2dbe3c	-0.010604437
52	0xba9afcb7	-0.0011824582
53	0x3c057aef	0.008146985
54	0xbb72d596	-0.0037053577
55	0x3b3e3b35	0.002902699
56	0xb93b1347	-0.00017840891
57	0xbbfdb8a3	-0.0077429577
58	0x3ac7e83f	0.001525171
59	0xbabb6452	-0.0014296866
60	0x3bd20498	0.006409239
61	0xbb0c3913	-0.0021396324
62	0x3a3646f5	0.00069533224
63	0x3c151c18	0.009100936

weight f4 [256, 64]
0	0x3d3be7f2	0.045875497
1	0x3d9c9ab0	0.07646692
2	0xbd51627b	-0.05111931
3	0xbd9a8a9b	-0.07545968
4	0x3d2332f4	0.039843515
5	0xbc9abb46	-0.018888127
6	0xbd27355f	-0.040822383
7	0x3d8b2a3b	0.06795164
8	0x3e37dd1a	0.17955437
9	0xbd694802	-0.056953438
10	0x3d195a8e	0.037439875
11	0x3dc2f313	0.09519019
12	0x3db7fb6b	0.08983501
13	0xbe3c3ed2	-0.18383339
14	0xbd8e98bc	-0.069627255
15	0x3d9c9c45	0.076469935
16	0x3d8c3b94	0.06847301
17	0xbdec2aeb	-0.115316235
18	0x3e0fb479	0.14033689
19	0x3c78145b	0.015141572
20	0x3b4aef2b	0.003096531
21	0xbdcad74d	-0.099043466
22	0xbd5cdd48	-0.053921968
23	0xbcf39102	-0.029732231
24	0xbbff3754	-0.007788578
25	0xbc8e1b29	-0.017346935
26	0x3dc4a801	0.09602357
27	0xbd6a5e9e	-0.05721914
28	0x3e074999	0.13211669
29	0xbd5e0619	-0.054205034
30	0x3cd424f6	0.02589653
31	0x3dfe1923	0.12407138
32	0xbd32bd10	-0.043637335
33	0xbe09fd8d	-0.13475628
34	0xbcc623d1	-0.024187
35	0x3d8cb519	0.06870479
36	0xbc630f8c	-0.013858687
37	0x3d1712f3	0.036883306
38	0xbda6cb1c	-0.08144209
39	0xbcd9202e	-0.026504602
40	0xb9e8a082	-0.00044370076
41	0x3da59b00	0.080862045
42	0x3cf46929	0.0298353
43	0x3de2f724	0.110822946
44	0xbd169c69	-0.036770258
45	0x3ba7a1f5	0.0051157423
46	0xbd6a1857	-0.05715212
47	0x3ace4f14	0.001574012
48	0x3ddf3ce1	0.109002836
49	0xbdad81e8	-0.08472043
50	0xbd5b5fde	-0.053558223
51	0x3d9b7560	0.07590747
52	0xbc96b573	-0.018397069
53	0xbe74d960	-0.23911047
54	0x3b77185b	0.0037703726
55	0xbe2100c5	-0.1572295
56	0x3dca4a98	0.09877509
57	0x3db48a0f	0.08815395
58	0x3da09325	0.078405656
59	0xbe0ce6b7	-0.13759886
60	0x3d75fa4a	0.060053147
61	0x3dd4c156	0.103884384
62	0x3d41b554	0.04729207
63	0x3d9f9a0b	0.07793053
64	0x3d05c779	0.032660935
65	0x3d8a37ba	0.0674891
66	0x3c9661f0	0.018357247
67	0x3d5dca87	0.054148223
68	0xbcd57d7c	-0.026060812
69	0xbd180146	-0.03711059
70	0xbe352f81	-0.17693903
71	0xbb37ae27	-0.0028027387
72	0x3dbd9f82	0.09258939
73	0xbe0aebcb	-0.1356651
74	0xbe58f04d	-0.21185417
75	0x3dbc1eea	0.09185584
76	0xbe0e7d0d	-0.1391489
77	0x3d004e33	0.031324577
78	0xbde0ad07	-0.10970502
79	0xbe188774	-0.14895421
80	0x3c6dbec1	0.014510811
81	0xbe8e32d8	-0.27773166
82	0x3cc5106e	0.024055686
83	0xbd9d0739	-0.07667393
84	0x3e128a1d	0.14310499
85	0x3da642c9	0.08118207
86	0xbdd37d2f	-0.10326611
87	0x3c781414	0.015141506
88	0x3ca419cf	0.020031838
89	0xbdb82704	-0.08991817
90	0xbdbf00dd	-0.093263365
91	0x3d3cfe73	0.0461411
92	0xbc5368ad	-0.012903375
93	0x3e38cae3	0.18046145
94	0x3d668048	0.056274682
95	0xbdc94f34	-0.0982956
96	0x3d5cb948	0.053887635
97	0xbcd28cbe	-0.025701877
98	0x3d0c6e89	0.034285102
99	0x3c10ea95	0.008844991
100	0x3d277d93	0.04089124
101	0xbe826d52	-0.2547403
102	0xbd6a0dc2	-0.057142027
103	0xbbb3b14d	-0.0054837824
104	0xbc26fb87	-0.010191805
105	0x3c42433f	0.011856853
106	0x3da7a3eb	0.08185562
107	0x3c4587b0	0.012056276
108	0xbd4751bf	-0.048661944
109	0x3ddb3344	0.107031375
110	0x3c7ea2b3	0.01554172
111	0xbdd37d11	-0.10326589
112	0xbd0af60e	-0.033926062
113	0xbe0a351e	-0.13496825
114	0x3cd17407	0.025568021
115	0xbde51f29	-0.11187584
116	0xbda8ba7f	-0.08238696
117	0xbd79c179	-0.060975526
118	0x3c283323	0.010266098
119	0xbccd0a9c	-0.025029473
120	0x3cea3e44	0.028594144
121	0xbd2c0e6b	-0.042005938
122	0xbdc08a7e	-0.09401415
123	0xbc893695	-0.01674966
124	0x3d5b1277	0.053484406
125	0x3d5d49d4	0.054025486
126	0x3b453784	0.0030092904
127	0x3d5e1a99	0.054224584
128	0x3d4b082a	0.049568333
129	0x3d897b7a	0.067130044
130	0x3d9a04bc	0.07520434
131	0x3e022f6e	0.12713405
132	0x3d28f412	0.04124839
133	0xbc73b18b	-0.0148738725
134	0xbde166c6	-0.110059306
135	0xbdfbcae3	-0.12294557
136	0x3e0a89e8	0.1352917
137	0xbd553e7a	-0.052061535
138	0xbe2382e7	-0.15967904
139	0xbd89eb69	-0.06734354
140	0xbe55d78f	-0.2088301
141	0xbd07c2bb	-0.033144694
142	0x3de0e975	0.109820284
143	0xbe4bd078	-0.19903743
144	0x3e0e747f	0.13911627
145	0xbe0f1d55	-0.13976033
146	0xbe6a6e8b	-0.22893731
147	0xbe011206	-0.12604532
148	0x3ddb2767	0.10700875
149	0x3e58fefb	0.21191017
150	0xbcef8103	-0.029236322
151	0x3e074561	0.1321006
152	0x3dc75431	0.09732855
153	0xbd9bc68f	-0.076062314
154	0x3d188dc5	0.037244577
155	0xbe443d1d	-0.19163938
156	0xbe8c6f34	-0.2742859
157	0x3e11d010	0.14239526
158	0xbdc53a00	-0.09630203
159	0x3d86ef8d	0.065886594
160	0xbdb1b843	-0.08677723
161	0x3d29e654	0.041479424
162	0x3d970677	0.0737428
163	0xbd055e82	-0.032560833
164	0x3d6fbd26	0.058529995
165	0xbd88e8de	-0.06685041
166	0x3e4220f6	0.18957886
167	0xbdab4663	-0.083630346
168	0xbc8763f9	-0.016527163
169	0x3d725dec	0.059171602
170	0x3e6efe18	0.23339117
171	0x3e017ab8	0.1264447
172	0xbdb36d59	-0.08761091
173	0xbdf8743d	-0.12131546
174	0xbdfba247	-0.12286811
175	0x3db66c7d	0.08907411
176	0xbe3ea985	-0.18619354
177	0xbe9bbcd8	-0.30417514
178	0x3e0ceb64	0.1376167
179	0xbc07e55f	-0.008294432
180	0xbd2f2941	-0.042763952
181	0x3e15a77c	0.14614671
182	0xbe0e0ae7	-0.13871346
183	0xbdcb8d2a	-0.09939034
184	0xbde52298	-0.11188239
185	0xbd078178	-0.033082455
186	0x3d058da5	0.032605786
187	0x3daea982	0.08528425
188	0xbe008194	-0.1254943
189	0x3df6ab2b	0.120443664
190	0x3e1f14ab	0.15535228
191	0x3d633ee5	0.055479903
192	0x3e14415c	0.14478058
193	0x3e67d59e	0.22640082
194	0xbe2feb43	-0.17179589
195	0x3c0a6c09	0.008448609
196	0x3d8ea506	0.069650695
197	0xbdf236c3	-0.11826851
198	0xbd4f77af	-0.05065125
199	0xbd15d5dc	-0.036580905
200	0x3e1f06a9	0.15529884
201	0xbd9f65e8	-0.07783109
202	0xbd870a46	-0.065937564
203	0x3e009e98	0.12560499
204	0xbd20aa07	-0.03922465
205	0x3d8510e2	0.06497361
206	0xbd20a00d	-0.039215136
207	0x3d800972	0.062518016
208	0x3d5e30aa	0.05424563
209	0xbe0a3de0	-0.13500166
210	0xbd9fb55a	-0.07798262
211	0x3d7fa5d4	0.062414005
212	0x3cd4c73f	0.025973914
213	0xbb29b4b2	-0.0025895056
214	0xbd9f9295	-0.0779163
215	0x3d5b3276	0.05351492
216	0xbe0804aa	-0.13283029
217	0xbdecec76	-0.11568539
218	0x3d6e91a7	0.058244374
219	0xbd546b62	-0.05186022
220	0x3b1eaecb	0.0024213071
221	0xbd405ced	-0.04696362
222	0xbd5c7cf8	-0.053830117
223	0x3e506d81	0.20354272
224	0xbd800531	-0.0625099
225	0x3da7c226	0.08191328
226	0xbd00a9d2	-0.031411953
227	0x3cbc22f9	0.022965895
228	0xbdcd0bd3	-0.10012021
229	0xbdb07b12	-0.08617224
230	0x3daac418	0.08338183
231	0xbd56f97e	-0.052484028
232	0xbd75eed6	-0.060042225
233	0x3dc1b36f	0.09458052
234	0x3e7362d1	0.23768164
235	0x3dcee9e1	0.101032026
236	0x3c681668	0.014165498
237	0xbdcdcd85	-0.10048965
238	0xbe5eeeac	-0.21770734
239	0xbb85e999	-0.004086685
240	0xbd2e3cae	-0.042538337
241	0xbdfff2a7	-0.12497454
242	0x3e9b3945	0.3031713
243	0x3bd30015	0.0064392188
244	0x3b4a848e	0.0030901763
245	0x3d038f11	0.03211886
246	0x3da30901	0.07960702
247	0xbd117314	-0.035510138
248	0xbb15fe00	-0.0022886992
249	0x3dbf4b0b	0.09340485
250	0x3dc6b12d	0.09701762
251	0xbdb3481d	-0.08753989
252	0x3d0053bf	0.031329866
253	0xbc12e132	-0.008964824
254	0xbe19c2f0	-0.15015769
255	0xbd00ceed	-0.03144734
