CNP-model-save-name/saved_models/model_8000.pth (torch, 957730 bytes, 40 tensors)

weight_ih_l0 f4 [256, 2]
000000 e5 b4 8f bc 1b bc 94 3c 17 03 12 bd ee b8 79 bd
       -0.017542312 0.018156102 -0.035647478 -0.06096738
000010 03 b4 83 bd fe 55 90 bd 9c 94 fc bd 1c 56 c0 3c
       -0.06430819 -0.07047652 -0.123330325 0.02347856
000020 cf f1 cd bc e1 7e 57 3c c7 00 66 bd 8b 23 90 3c
       -0.025139717 0.013152809 -0.056153085 0.017595073
000030 2d 47 d3 bd 4d ed 4c 3d 99 62 d3 bd df b1 93 bd
       -0.1031631 0.050030995 -0.103215404 -0.072116606
000040 ad b2 25 3d f2 5a 59 3c 70 5d 93 bd a5 47 c3 bd
       0.0404536 0.013266312 -0.07195556 -0.095351495
000050 6a bd 89 bd d2 af 86 3c 18 9b db 3c 46 a6 dd bd
       -0.06725581 0.01644126 0.026807353 -0.1082273
000060 27 72 35 3d 85 81 15 3d 3f 7a ba 3d 0f d7 98 bc
       0.044298317 0.036500473 0.09105348 -0.018657235
000070 69 ac f3 3c df 70 01 bc 4a 2f c2 bd fb c4 12 3d
       0.029745298 -0.007900446 -0.09481676 0.035832386
000080 fe 39 6d bc 59 4d 35 3d 53 58 01 b9 0a 6c 94 bd
       -0.014479158 0.044263218 -0.00012335302 -0.07247169
000090 69 e4 2b 3d ce 9a ab 3d f8 e9 f5 3c c2 28 b8 bd
       0.041965876 0.08379136 0.030018792 -0.08992149
0000a0 6f 8c fa bc 91 43 42 bc be 73 e9 3c 63 63 90 3c
       -0.030584542 -0.011856929 0.028497573 0.017625516
0000b0 70 70 77 3c 4d f5 4e 3d 95 79 b8 bd 32 c1 b6 bd
       0.015102491 0.050526906 -0.09007565 -0.08923568
0000c0 5c 54 17 3d 47 f1 41 bd 91 06 c8 bd 3c 53 a5 bd
       0.036945686 -0.04734924 -0.097668774 -0.08072516
0000d0 54 26 db bd 0d bf 92 3d de 79 86 bc af 8c ae bc
       -0.1070067 0.07165346 -0.016415533 -0.021307318
0000e0 98 bd 4a 3d a3 99 d3 3c 55 ae 8d bd ac 30 0c 3e
       0.049497217 0.025830096 -0.06918017 0.13690442
0000f0 ef 12 0d bd e8 65 9a 3d 0f fe 8f bd 43 ae 67 bd
       -0.034441885 0.07538968 -0.0703088 -0.056562673
000100 37 1a 94 bd 05 05 35 bd cd a2 63 3c b2 f0 75 3d
       -0.072315626 -0.04419424 0.013893795 0.060043998
000110 1e b4 34 3d f3 41 94 3c 05 f0 0e 3c cf 79 c4 bd
       0.044117086 0.018097853 0.008724217 -0.09593546
000120 bc d0 fc 3c da 19 fa 3c 1a b6 e8 bd 3d 9d 83 bd
       0.030861251 0.030529905 -0.11362858 -0.06426475
000130 a7 7f 8e bd a4 85 b0 bb e6 c7 70 3d 5a 29 9a bd
       -0.069579415 -0.005387025 0.058784388 -0.075274184
000140 6a 4b bc bd 9e 37 7a 3d ab ae 68 3d c4 f1 fe bd
       -0.091940716 0.061088197 0.0568072 -0.12448457
000150 77 a5 00 bc 04 e4 67 bd 46 3e af bd ec 41 37 3d
       -0.00785195 -0.056613937 -0.085567996 0.044740602
000160 eb bc 71 3c 59 fd 3d bd 95 32 4b bd 73 20 06 3d
       0.014754514 -0.04638419 -0.049608786 0.03274579
000170 4b 62 7a bd 42 52 18 bd 92 3b 68 3d de 26 21 3d
       -0.061128896 -0.037187822 0.056697436 0.039343707
000180 6b 20 b5 bc bd ed 1e 3d c1 13 04 3d 88 7b 91 bc
       -0.022110185 0.038800944 0.0322454 -0.0177591
000190 87 f5 00 be f5 71 9a bd b7 7d 76 bd 5e ef 31 3d
       -0.12593661 -0.07541267 -0.060178485 0.04344117
0001a0 1d 73 71 bc 00 21 67 bd fc 1b b7 bd a3 e5 93 3c
       -0.014736918 -0.056427956 -0.089408845 0.018053835
0001b0 f6 7a 71 bd 39 19 3e 3c 74 7e 5e bd 2a 9a b1 bd
       -0.058955155 0.011602693 -0.054319814 -0.086719826
0001c0 fa 5c 20 bd c9 d0 cd bb a9 1a 5e 3d ba 2d de bd
       -0.03915117 -0.0062809926 0.054224644 -0.108485654
0001d0 ee b4 dc bd f8 c9 ae 3c 16 d6 55 bd 18 c4 d4 bd
       -0.10776697 0.02133654 -0.05220612 -0.103889644
0001e0 53 05 2d 3d de 98 90 bd e5 3c b8 3b f8 8f 0a 3d
       0.042241406 -0.07060407 0.0056224936 0.033828706
0001f0 1d 4a d5 bd f7 f6 a6 3d 77 5c b4 3c 8a d6 64 bd
       -0.104145266 0.081525736 0.022016747 -0.055868663
000200 ef 99 82 bd 23 72 90 3d 1a aa 24 bd c5 23 1a bd
       -0.06377017 0.0705302 -0.040201284 -0.03763177
000210 d6 f3 59 bd 7a 37 4c 3b e1 26 ce bc a5 00 5c 3c
       -0.053211056 0.0031160996 -0.025165023 0.013427888
000220 30 00 81 3d ab 5a 05 3c cc fd 8a 3b e1 a4 be bc
       0.06298864 0.008139293 0.0042416807 -0.02327198
000230 60 75 36 3c 7c ae 92 3d 80 01 ba bd 4c c3 2b bd
       0.011136383 0.071621865 -0.09082317 -0.041934296
000240 1a b7 88 3d 34 61 ab bd 61 7e ca bd 12 75 23 3d
       0.06675549 -0.083681494 -0.09887386 0.03990657
000250 6d 0b 81 3c 49 63 90 3d fc 5d af bd e2 5b ee bc
       0.015752519 0.07050187 -0.08562848 -0.029096548
000260 6b a0 95 bd bc 7e 8e bc 17 fc c4 bd 1a e8 c7 bd
       -0.07305988 -0.017394416 -0.09618395 -0.09761067
000270 64 a8 ca 3d 15 f6 22 bd 59 a0 91 bd 80 40 ea bb
       0.09895399 -0.039785463 -0.07110662 -0.0071488023
000280 19 d6 ec 3c fa 07 23 bd a7 59 73 3b 3c e0 ef bd
       0.028910683 -0.03980253 0.0037132294 -0.11712691
000290 d7 d2 b3 3d f2 cb 09 3c c7 3b bb bd e5 a0 75 bc
       0.08780449 0.008410441 -0.09142261 -0.0149919735
0002a0 9b ca 77 bc 61 9c 86 bd c2 31 56 bd b3 fb ce 3b
       -0.0151239885 -0.06572796 -0.052293546 0.006316626
0002b0 93 d5 5a 3d e4 51 2c bd 29 c6 83 bd 20 2e 63 bd
       0.053426336 -0.042070284 -0.064342804 -0.05546391
0002c0 86 e3 00 bc dc 90 40 bd b4 85 93 3c ab 7e 8a bd
       -0.007866746 -0.04701315 0.01800809 -0.06762441
0002d0 30 6b 38 bd 98 44 8e 3d 08 6e 11 bd 17 a2 4a bd
       -0.045024097 0.06946677 -0.035505325 -0.049470987
0002e0 d9 3c 2a 3d 69 66 a1 bd d1 5d 5b 3d 9a 2c df bc
       0.041561935 -0.07880861 0.053556267 -0.027242947
0002f0 85 3b 13 3d 8e 63 18 3d 8a fe 2d 3c 1d a2 00 3d
       0.035945434 0.037204318 0.010619769 0.031404603
000300 31 a7 4a bd d1 4a 25 bd 53 7c ae bd 1c 11 93 3d
       -0.049475852 -0.040354554 -0.08519807 0.07180998
000310 84 2a c1 bd 10 10 47 bd 6c a0 92 3d fe a4 21 bd
       -0.09431937 -0.048599303 0.07159504 -0.03946399
000320 f5 71 37 3d 75 7e 1d bb 05 d1 74 bd a7 ec 8a bd
       0.044786412 -0.0024031673 -0.05976965 -0.06783419
000330 83 c0 c4 bc 60 14 8c ba 2c 84 d6 bc 5e c4 9a bc
       -0.024017578 -0.0010687225 -0.026186071 -0.018892463
000340 e1 eb 29 3d 53 e0 d1 3c 6f c5 8d bd a2 ed 87 bd
       0.041484717 0.025619661 -0.06922423 -0.06637122
000350 b5 66 8f bb f1 b1 b6 bc 5e 0e 3a 3c 0e 18 95 bc
       -0.0043762573 -0.022301646 0.0113559645 -0.018199947
000360 f6 8c 83 bd 9d 98 1f bd 85 19 1f bc 1f fc 38 3c
       -0.064233705 -0.038963903 -0.009710674 0.011290579
000370 f7 b6 31 3d 43 8a 64 3c 8b c6 07 3c 7f a1 e9 bb
       0.04338738 0.01394898 0.008287082 -0.0071298475
000380 4e 23 bf bd b6 fc dd bd a0 0e b3 3c 00 34 bb 3c
       -0.09332906 -0.108392164 0.02185756 0.022851944
000390 33 a4 8e 3d 9a 85 09 3d 2f aa 34 bc f8 fd 9d 3c
       0.06964912 0.033574678 -0.011026903 0.01928614
0003a0 04 06 8f 3c a5 ed 04 bd 95 b3 25 3b da 68 ba bd
       0.017458923 -0.032453198 0.0025284041 -0.0910203
0003b0 f4 6d e9 bc b2 e5 0b bd 48 20 78 3c be 14 81 bd
       -0.028494813 -0.0341546 0.015144415 -0.063027844
0003c0 4a 2b b0 3c f6 ed a6 3d 34 17 b3 3d 78 78 70 bd
       0.021505017 0.08150856 0.0874466 -0.058708638
0003d0 c7 85 4d bd 05 52 06 bd b8 d5 96 bd a5 38 d5 bd
       -0.05017641 -0.032793064 -0.07364982 -0.10411195
0003e0 d9 49 d4 3c e5 72 ae 3d c5 70 7f 3c d5 1c bc bc
       0.02591412 0.08518008 0.015590851 -0.022962967
0003f0 46 99 41 bd f8 77 93 3c e6 49 e7 3c a2 92 5b bd
       -0.047265314 0.018001541 0.02823348 -0.053606637

weight_hh_l0 f4 [256, 64]
000000 59 d8 88 bb 42 2d 3e 39 85 34 e0 b9 72 00 51 b9
       -0.0041761813 0.00018136672 -0.0004276374 -0.00019931959
000010 a7 4b 82 3a b6 26 ff 37 bb 25 22 ba de 3b 0f bb
       0.0009940759 3.0416395e-05 -0.0006185432 -0.0021855752
000020 d2 de 85 b6 bf 34 6f 3a aa 48 ad 37 17 7e ad b9
       -3.9896486e-06 0.0009124986 2.0657044e-05 -0.00033091076
000030 45 85 58 b8 73 38 ca b9 96 f8 7e 3b d9 e9 5b b8
       -5.162253e-05 -0.000385705 0.0038905493 -5.2431456e-05
000040 82 20 d3 3b 76 00 26 ba 89 1b 31 b6 e7 fe 8d b9
       0.006443084 -0.0006332466 -2.6391083e-06 -0.00027083533
000050 3e ca 13 3a 3a e2 a7 37 26 3f fa 39 bd 36 8b 3b
       0.00056377414 2.0013296e-05 0.00047730765 0.0042484687
000060 2f 70 51 38 63 24 1a 37 e3 0f 87 ba 3b 48 21 b8
       4.9933962e-05 9.187587e-06 -0.0010304417 -3.845266e-05
000070 d9 10 ab b8 ea e0 18 bc c1 0b 92 bc 6b cc 8c b7
       -8.1570535e-05 -0.009330967 -0.01782787 -1.678449e-05
000080 97 4a 07 37 30 e9 84 3a 4d e9 5d b9 b2 a2 c2 39
       8.063994e-06 0.0010140296 -0.00021163114 0.0003712378
000090 f5 4d 4a b9 7e 38 07 3b 8f b2 4e 39 81 3c 76 3c
       -0.00019293262 0.0020633037 0.00019712209 0.015029074
0000a0 f0 0f 62 3b 53 5b 53 39 58 66 1c 37 b0 ec 0f 3a
       0.0034494363 0.00020156549 9.322153e-06 0.0005490286
0000b0 03 5d 08 b8 8a b4 43 bc 05 8f 1d 39 7a 22 56 bb
       -3.251155e-05 -0.011944899 0.00015025966 -0.0032674358
0000c0 3c 77 7a 3a 69 b1 3a b9 34 49 0a bb 55 97 c3 3a
       0.00095545105 -0.00017804433 -0.0021100761 0.001492242
0000d0 13 1a d9 b7 06 fe 38 b9 e7 29 b4 35 14 74 7f 39
       -2.5880558e-05 -0.00017642239 1.342324e-06 0.00024361938
0000e0 03 93 0b bc f5 fa a9 ba 69 40 55 38 6a 01 65 ba
       -0.008518937 -0.0012968468 5.0843144e-05 -0.00087358675
0000f0 0c 59 45 3b c4 6f 2e ba 4a 1d f5 38 ab a3 e4 b6
       0.003011289 -0.00066542276 0.00011687966 -6.813983e-06
000100 fe 89 b6 39 3b e4 28 ba 23 64 f5 3a a7 58 17 b8
       0.00034816557 -0.00064427004 0.001872186 -3.608377e-05
000110 38 f7 a2 32 06 c3 cf 2f d9 d4 0d b3 9f 56 35 3a
       1.8971704e-08 3.7791653e-10 -3.3022705e-08 0.00069175096
000120 10 ee 2a b6 70 96 32 37 60 97 d4 36 a8 5d 7a b5
       -2.5470545e-06 1.0644653e-05 6.3357147e-06 -9.3268545e-07
000130 42 18 6f 30 50 f0 ef b0 e7 4f 0a ba f5 02 a9 b8
       8.6982166e-10 -1.745784e-09 -0.00052761886 -8.059099e-05
000140 a3 de c4 ba 2b dd f0 39 90 95 f2 2c 1b 38 24 39
       -0.0015019964 0.0004594115 6.8946585e-12 0.0001566116
000150 1d db 9a b6 2f 21 a5 2b 28 42 a6 b6 9a 6f 61 ba
       -4.615066e-06 1.1733165e-12 -4.954887e-06 -0.0008599699
000160 b0 6f 8e b5 92 c0 66 38 c8 06 84 b6 86 bc b7 37
       -1.061233e-06 5.501562e-05 -3.934696e-06 2.1903088e-05
000170 98 d2 da ba 77 d8 16 3b e9 77 db b9 3a 94 73 b8
       -0.0016694842 0.0023017207 -0.00041860275 -5.807376e-05
000180 d1 b2 1e 38 62 5c bf 35 27 7c ef 38 63 e4 33 37
       3.783667e-05 1.4257496e-06 0.00011419533 1.0722407e-05
000190 1a 4e b0 a8 4e f8 0b b9 d7 e9 98 37 09 8b a2 37
       -1.9573796e-14 -0.00013348574 1.8228702e-05 1.9376648e-05
0001a0 f0 ee 3d bc a5 4d ae b5 de ba 61 35 b8 07 2f b8
       -0.011592612 -1.2986608e-06 8.409096e-07 -4.173044e-05
0001b0 60 ce 7b ac ba 99 54 3c c1 22 c8 b7 22 ce 06 3c
       -3.5783806e-12 0.012976104 -2.3858041e-05 0.008227857
0001c0 1b 98 00 bb c2 2b 01 b6 56 ee 09 37 35 ef a9 39
       -0.0019621912 -1.9247968e-06 8.221328e-06 0.00032412415
0001d0 e6 27 0f b8 7c 9a aa 35 11 5f f9 37 55 58 87 37
       -3.4131015e-05 1.2710948e-06 2.9727382e-05 1.6134387e-05
0001e0 4f 42 d1 3a e3 4b b5 af bc 46 e4 ba f7 9a a1 38
       0.0015965196 -3.297763e-10 -0.00174161 7.705943e-05
0001f0 70 b3 0d 33 d0 38 8b 3b 36 c9 6d 38 b1 0c e6 3a
       3.2992318e-08 0.004248716 5.6692596e-05 0.001755139
000200 a5 44 cd b8 af a8 8c b9 7d 21 e5 3b 8a eb ee 3a
       -9.787948e-05 -0.0002682856 0.0069925175 0.0018228155
000210 93 ef aa 37 86 49 88 33 d2 ab 78 b6 8e 09 e0 ba
       2.037714e-05 6.346367e-08 -3.7054892e-06 -0.0017092691
000220 85 05 69 38 f5 1d ac 39 8f 1e a0 38 f1 61 ee b8
       5.555667e-05 0.00032828716 7.6350865e-05 -0.000113669674
000230 c5 d0 32 35 f3 db 1c b8 90 37 b6 39 60 a1 f5 b9
       6.6613967e-07 -3.7398142e-05 0.00034755142 -0.00046850275
000240 c6 dc bc 39 86 a4 95 39 2f e6 12 34 fe 05 c0 3a
       0.00036022643 0.00028542074 1.368105e-07 0.0014650223
000250 dd bc f1 37 15 e0 4a 33 44 dc 2e b8 f6 b4 21 bb
       2.8817385e-05 4.723559e-08 -4.168997e-05 -0.0024674512
000260 a7 28 80 37 75 1d 41 3a 8c 28 12 ba 53 1d 44 38
       1.527772e-05 0.0007366755 -0.00055755 4.675735e-05
000270 69 1d ba bb 69 1a ee 39 54 b3 6b bb a4 1b 8b bb
       -0.0056797755 0.00045414575 -0.0035965042 -0.0042452384
000280 34 f4 54 39 19 c5 5d 37 8d a0 f2 39 3d b8 63 39
       0.00020308868 1.3218517e-05 0.00046277457 0.00021717041
000290 79 28 a0 b5 99 3c 6e ba 7c b7 2a 3a 0b 3a 2c 3b
       -1.1932708e-06 -0.0009088009 0.00065123267 0.0026279713
0002a0 d6 60 c5 bc a9 7d 95 34 2a f6 8d 37 7b d7 aa 39
       -0.024094027 2.7844843e-07 1.6923139e-05 0.00032585472
0002b0 9d dd 81 b3 1a 32 89 3c 71 fa a7 b9 8a e5 fc 3c
       -6.047342e-08 0.016747523 -0.00032039316 0.030871172
0002c0 59 b3 89 ba ed c0 0b b8 b7 0a a0 37 73 11 e9 ba
       -0.001050572 -3.331986e-05 1.9078476e-05 -0.001778169
0002d0 b7 ae c5 b9 fe 19 cb 37 fa 30 fa 39 e7 f5 bf b9
       -0.0003770494 2.421159e-05 0.00047720206 -0.0003661357
0002e0 51 a0 af ba 7e 62 7f b8 16 0f 09 3b da 45 68 ba
       -0.0013399218 -6.0888466e-05 0.0020913533 -0.00088605064
0002f0 ca 11 93 b6 0a 7c 85 3c 05 e3 81 b7 5f c5 af 3b
       -4.3830123e-06 0.016294498 -1.5483713e-05 0.0053641046
000300 d4 51 c5 b9 ea 06 30 3a 40 fb 59 3b 22 07 84 b9
       -0.00037635735 0.00067148975 0.003326133 -0.00025182316
000310 ec 65 0c 36 a6 ae a3 32 e7 3f 0a b5 35 76 ae ba
       2.0920952e-06 1.9055118e-08 -5.1501996e-07 -0.0013310375
000320 2f b9 84 38 50 8a 92 39 58 c0 86 37 7a 28 5f b8
       6.3287436e-05 0.0002795034 1.6063612e-05 -5.320504e-05
000330 fc 1a 6c 35 b6 6e 1b ba 7b 85 f9 3a 44 c5 b3 b9
       8.795612e-07 -0.0005929278 0.0019036973 -0.00034288515
000340 2e 26 91 3b d2 ef 9e 38 57 39 87 30 37 1e 42 b9
       0.0044296 7.578697e-05 9.83884e-10 -0.00018512538
000350 6d c8 04 39 7e 10 a7 34 35 90 7e 36 1f b3 fd 3a
       0.00012663165 3.1118174e-07 3.793289e-06 0.001935575
000360 84 f3 18 36 07 ca 41 38 8d c7 c6 b9 31 05 de b8
       2.279151e-06 4.620294e-05 -0.0003791418 -0.00010586752
000370 67 53 a8 b9 0d 09 8d bb 81 13 b7 bb 29 04 ac ba
       -0.00032105597 -0.0043040575 -0.005587042 -0.0013123798
000380 6a a0 e3 37 84 be 24 36 80 ee 81 b6 b4 f7 87 38
       2.7135207e-05 2.45488e-06 -3.8722646e-06 6.48344e-05
000390 88 b6 11 b7 a0 c4 81 39 de 5f d6 39 03 70 8e 3b
       -8.685172e-06 0.00024751294 0.00040888687 0.004346849
0003a0 48 dc ea ba b6 39 00 37 c5 da d1 34 1b 41 b0 39
       -0.0017918432 7.642831e-06 3.908846e-07 0.00033617843
0003b0 b1 d5 ef b3 40 3b 1b bc 6d a3 3f b8 2c a5 42 3b
       -1.1168175e-07 -0.0094745755 -4.569015e-05 0.00297005
0003c0 26 19 2b 3b 27 3b 2a b7 50 12 b1 b7 f4 a0 53 b9
       0.002610752 -1.0146562e-05 -2.1108572e-05 -0.00020182488
0003d0 07 dc c8 b8 b3 30 c4 b8 b0 08 62 38 df 1c 5f 37
       -9.5777265e-05 -9.355079e-05 5.389069e-05 1.3298558e-05
0003e0 4b bb cc bb 3a dc 24 ba 88 4f 0d 3b a9 6c 1d ba
       -0.006247913 -0.000628892 0.0021562297 -0.00060052663
0003f0 b5 e0 c8 36 96 96 f0 3b b8 65 78 39 48 01 93 3a
       5.986624e-06 0.00734217 0.00023689016 0.0011215592

bias_ih_l0 f4 [256]
000000 42 cb 0c bd 58 7e 56 bc 94 00 34 bd a9 13 41 bd
       -0.03437353 -0.013091646 -0.043945864 -0.04713789
000010 5e 97 a6 3c 1c 39 44 bd e0 7e e1 bc 32 f5 29 bc
       0.02033585 -0.047906026 -0.027526319 -0.0103734005
000020 b6 5a 29 bc 5f f3 2d bd e1 13 a4 bc 41 82 e0 bc
       -0.010336569 -0.042468425 -0.02002901 -0.02740586
000030 e7 9f 03 bd 9c 88 1b bb 2e b5 a4 3c f1 2f 5a bc
       -0.032134917 -0.0023732549 0.020105924 -0.013317094
000040 79 8b c9 bc 7a d4 fa bc 31 bd 85 bc 1a c9 5a bd
       -0.024602639 -0.030618895 -0.016325565 -0.05341444
000050 9d 83 c4 bc 07 8d 01 bd 45 8f 5d 3a ea 45 f3 bc
       -0.02398854 -0.031628635 0.000845183 -0.029696424
000060 aa 79 81 bb 6a 8a 09 bd 95 2b 94 bc c7 59 a8 bd
       -0.003951271 -0.033579268 -0.018087188 -0.08220249
000070 0f a3 83 bc 5e f2 ea 3c d7 f5 52 3b 0c fc 0f bd
       -0.016068963 0.028680023 0.003218999 -0.03515248
000080 07 f6 14 bd 2d fb 6a bc 4f 97 40 bd 14 d8 ab bc
       -0.036367442 -0.014342112 -0.0470193 -0.020977058
000090 01 49 e8 bc 72 f5 9b bc 31 b7 2a bd 0e 20 3e 3c
       -0.028355123 -0.019037936 -0.04167861 0.011604322
0000a0 01 9f d0 b9 7c 80 ec bc d9 eb 97 bc 03 27 b4 bc
       -0.0003979132 -0.02886986 -0.018545078 -0.021991258
0000b0 d9 c7 22 bd 46 28 a1 bc 77 9f 30 bd 85 87 bd 3b
       -0.03974137 -0.019672524 -0.043120828 0.0057839775
0000c0 c5 72 30 bd 4b de 4b bc 07 6c 7b bc 7c bf 50 bc
       -0.043078203 -0.0124431355 -0.01534558 -0.012740966
0000d0 25 74 de bc c3 e3 57 bd 5d 87 b3 bc 1b df 21 bd
       -0.027154991 -0.052707445 -0.021915132 -0.03951941
0000e0 9e 0a f0 3c de f0 8d bb 74 46 87 bd 3f 2f a8 bc
       0.029301938 -0.004331692 -0.06605235 -0.020530341
0000f0 23 37 16 bc 68 0f 42 bc 37 37 8a bc ec af d2 bc
       -0.009168419 -0.011844493 -0.016872032 -0.025718652
000100 08 b9 a0 bc 40 83 84 bc 4c f1 2e bd 4f c0 22 bd
       -0.01961948 -0.016175866 -0.042710587 -0.03973418
000110 ba f1 1d 3c 9a 16 3e bd cf a4 b9 bc a9 81 ba bb
       0.009640152 -0.046408273 -0.022661595 -0.005691726
000120 11 c3 30 bc 0f 9d e7 bc bc b3 90 bc fb 8a 01 bd
       -0.010788695 -0.028273134 -0.017663829 -0.031626683
000130 fa 14 04 bd 98 e3 bb bb a1 fd 9f 3c ca 1f 72 bc
       -0.032246567 -0.0057339184 0.01953012 -0.014778087
000140 27 4f dc bc 4a 79 86 bc 5b 6d 89 bc 24 4f 69 bd
       -0.026893212 -0.016415257 -0.016775778 -0.05696024
000150 e7 63 c9 bc 26 7a e5 bc fb e2 79 b9 60 84 f8 bc
       -0.02458377 -0.028012346 -0.00023831047 -0.030336559
000160 16 2a 50 ba 70 ba 05 bd e8 58 7d bc 25 ef a4 bd
       -0.00079408416 -0.032648504 -0.015463091 -0.08053426
000170 ee 1d bb bc 41 85 bc 3c 21 48 80 b9 78 c1 0d bd
       -0.02284142 0.02301276 -0.00024467803 -0.034608334
000180 37 7c 51 bd ee 27 24 bc 46 f9 30 bd 67 48 bc bc
       -0.05114385 -0.010019286 -0.043206476 -0.022983743
000190 05 12 1c bd a7 14 03 bc ed 1b 48 bd 2c e4 21 3c
       -0.038103122 -0.008000529 -0.048854757 0.009881061
0001a0 35 82 bc 3a 4a 94 d8 bc cd 90 0f bd 7a f5 c4 bc
       0.0014382066 -0.026437897 -0.035050202 -0.024042834
0001b0 c5 20 1a bd 1b b9 a2 bc 05 d5 1b bd 7a bc d9 b9
       -0.037628908 -0.019863656 -0.038044948 -0.0004152989
0001c0 8a 64 26 bd 37 f5 67 bc f7 10 59 bc 20 e0 7b bc
       -0.040623225 -0.014157585 -0.013248674 -0.01537326
0001d0 17 68 ea bc c7 e0 4a bd a1 70 71 bc d7 46 15 bd
       -0.028614087 -0.04953077 -0.0147363255 -0.03644451
0001e0 2e f1 ee 3c fb 67 44 ba 97 f6 8d bd 05 4e 8d bc
       0.029167738 -0.0007492301 -0.06931799 -0.017249117
0001f0 22 dc 1e bc e5 2c 69 bc b8 63 a4 bc 73 30 f3 bc
       -0.009696038 -0.014231895 -0.02006708 -0.029686188
000200 46 16 c5 3b f6 bd 61 bc d2 fe 15 39 da d8 d0 3b
       0.006014618 -0.0137782 0.00014304675 0.006373507
000210 3c 2a 88 3b 8f 40 45 3c ea 9f 86 bc 03 63 af 3c
       0.0041554254 0.012039318 -0.016433675 0.021409517
000220 c4 59 5f 3c 32 0c 07 3d e8 4c 20 bc e8 b9 84 3c
       0.013632242 0.032970615 -0.009783961 0.016201928
000230 3d 06 ba 3c 87 ae e7 3b b1 9f 1b bc 4a c4 77 bb
       0.022708053 0.007070366 -0.009498523 -0.0037806206
000240 81 f3 26 bd 7d 25 8b 3a 55 09 90 bb c7 c4 51 bb
       -0.040759567 0.0010616031 -0.0043956437 -0.0032008158
000250 1b bf d4 bc 0a ee 93 3c 1e 53 08 bd 75 24 05 bd
       -0.025970032 0.018057842 -0.03328239 -0.03250547
000260 b2 2f f8 3b 63 a3 16 3b 16 b5 62 bc d4 0b 00 bc
       0.007574045 0.002298557 -0.01383712 -0.00781532
000270 8a a6 44 3c 94 8d ed 3c ce 4d 0e 3b e1 2f bb 3c
       0.012002597 0.028998174 0.0021713856 0.022849979
000280 47 5e 6a 3a a9 ae 68 bc 73 4f 2b 3d a3 1c b7 3c
       0.000894044 -0.0142017985 0.041823816 0.022352522
000290 12 11 0a 3c 72 70 10 bd d4 a9 3a bb c7 e4 f3 3a
       0.008426921 -0.035263486 -0.0028482573 0.001860761
0002a0 7b 15 fc bb 32 af 7c 3c 58 57 c4 b9 c4 97 22 bc
       -0.0076929904 0.015422629 -0.0003744911 -0.009923879
0002b0 0e ae 48 bc b2 04 8f 3c 2f 32 1d bd 3e 66 d3 3b
       -0.012248529 0.017458294 -0.038377937 0.006451397
0002c0 a6 28 ad 3a 96 ba a3 3b 87 5c 80 ba b1 c0 87 b9
       0.0013210967 0.004996608 -0.00097932 -0.00025892773
0002d0 7b 13 cb bb 3e 06 a9 3c 10 c6 a5 bb 4a c0 00 ba
       -0.0061973906 0.02063286 -0.0050590113 -0.0004911466
0002e0 88 62 05 3d e7 14 a8 3b 78 e7 31 3c f1 63 c5 bb
       0.03256467 0.005129445 0.010858409 -0.006023877
0002f0 cb 2d 81 3c a1 cd 6f bc 91 85 d3 bc dd 62 42 3c
       0.015768906 -0.014636428 -0.025820525 0.011864391
000300 ed 1e 0d bd 95 84 57 bc 78 d8 34 bd 77 ab 41 bd
       -0.03445332 -0.013154169 -0.044151753 -0.047282662
000310 22 3b a4 3c fe 2b 46 bd 07 7d e2 bc bb af 2b bc
       0.020047728 -0.048381798 -0.027647508 -0.010478909
000320 ed 83 2a bc d0 10 32 bd 16 26 a3 bc 9b 60 dc bc
       -0.01040743 -0.043473065 -0.019915622 -0.026901534
000330 57 71 03 bd 1b f5 bd ba b9 0e a9 3c e7 39 57 bc
       -0.03209051 -0.0014492603 0.020636903 -0.013136364
000340 1d 2b d4 bc d2 49 fb bc e6 d0 85 bc ec 05 5a bd
       -0.025899464 -0.030674849 -0.016334962 -0.053228304
000350 1c 47 d0 bc c7 32 02 bd cd 0d 33 3a 82 6f f4 bc
       -0.025424533 -0.031786706 0.00068303646 -0.029838327
000360 a0 9d 7d bb 5b 91 06 bd 11 aa 90 bc f5 2e a9 bd
       -0.0038698688 -0.032853466 -0.017659219 -0.082609095
000370 0a 15 85 bc 5b 05 f0 3c b8 4f 62 3b 83 03 11 bd
       -0.016245384 0.029299429 0.003453238 -0.03540374
000380 a4 8a 16 bd 3c 7f 70 bc fd d8 41 bd 1e 3f ab bc
       -0.03675331 -0.014678773 -0.047326077 -0.02090412
000390 74 8e ee bc f3 77 96 bc 7d 63 2b bd a7 da 3d 3c
       -0.029120661 -0.018367743 -0.041842926 0.011587775
0003a0 3f 70 57 ba 1a 4e ee bc 65 3d 97 bc 29 bb b1 bc
       -0.0008218325 -0.029089976 -0.018461892 -0.02169569
0003b0 9a 80 22 bd 4f bf a1 bc 1f 67 30 bd ae 2f ad 3b
       -0.039673425 -0.019744543 -0.043067094 0.005285225
0003c0 14 78 31 bd 3d 93 52 bc 27 a5 78 bc 30 50 67 bc
       -0.043327406 -0.012852487 -0.015176094 -0.014118239
0003d0 a6 cf df bc ce 26 5b bd 80 ce b6 bc f4 2d 20 bd
       -0.027320694 -0.053503804 -0.022315264 -0.039106324
0003e0 9d 1e f2 3c c4 7a 8c bb 37 fd 86 bd 26 96 a7 bc
       0.029555613 -0.0042870957 -0.06591266 -0.020457339
0003f0 d0 88 17 bc 00 b2 46 bc 06 1b 87 bc ac 4c d6 bc
       -0.009248927 -0.012127399 -0.016492378 -0.026159607

bias_hh_l0 f4 [256]
000000 42 cb 0c bd 58 7e 56 bc 94 00 34 bd a9 13 41 bd
       -0.03437353 -0.013091646 -0.043945864 -0.04713789
000010 5e 97 a6 3c 1c 39 44 bd e0 7e e1 bc 32 f5 29 bc
       0.02033585 -0.047906026 -0.027526319 -0.0103734005
000020 b6 5a 29 bc 5f f3 2d bd e1 13 a4 bc 41 82 e0 bc
       -0.010336569 -0.042468425 -0.02002901 -0.02740586
000030 e7 9f 03 bd 9c 88 1b bb 2e b5 a4 3c f1 2f 5a bc
       -0.032134917 -0.0023732549 0.020105924 -0.013317094
000040 79 8b c9 bc 7a d4 fa bc 31 bd 85 bc 1a c9 5a bd
       -0.024602639 -0.030618895 -0.016325565 -0.05341444
000050 9d 83 c4 bc 07 8d 01 bd 45 8f 5d 3a ea 45 f3 bc
       -0.02398854 -0.031628635 0.000845183 -0.029696424
000060 aa 79 81 bb 6a 8a 09 bd 95 2b 94 bc c7 59 a8 bd
       -0.003951271 -0.033579268 -0.018087188 -0.08220249
000070 0f a3 83 bc 5e f2 ea 3c d7 f5 52 3b 0c fc 0f bd
       -0.016068963 0.028680023 0.003218999 -0.03515248
000080 07 f6 14 bd 2d fb 6a bc 4f 97 40 bd 14 d8 ab bc
       -0.036367442 -0.014342112 -0.0470193 -0.020977058
000090 01 49 e8 bc 72 f5 9b bc 31 b7 2a bd 0e 20 3e 3c
       -0.028355123 -0.019037936 -0.04167861 0.011604322
0000a0 01 9f d0 b9 7c 80 ec bc d9 eb 97 bc 03 27 b4 bc
       -0.0003979132 -0.02886986 -0.018545078 -0.021991258
0000b0 d9 c7 22 bd 46 28 a1 bc 77 9f 30 bd 85 87 bd 3b
       -0.03974137 -0.019672524 -0.043120828 0.0057839775
0000c0 c5 72 30 bd 4b de 4b bc 07 6c 7b bc 7c bf 50 bc
       -0.043078203 -0.0124431355 -0.01534558 -0.012740966
0000d0 25 74 de bc c3 e3 57 bd 5d 87 b3 bc 1b df 21 bd
       -0.027154991 -0.052707445 -0.021915132 -0.03951941
0000e0 9e 0a f0 3c de f0 8d bb 74 46 87 bd 3f 2f a8 bc
       0.029301938 -0.004331692 -0.06605235 -0.020530341
0000f0 23 37 16 bc 68 0f 42 bc 37 37 8a bc ec af d2 bc
       -0.009168419 -0.011844493 -0.016872032 -0.025718652
000100 08 b9 a0 bc 40 83 84 bc 4c f1 2e bd 4f c0 22 bd
       -0.01961948 -0.016175866 -0.042710587 -0.03973418
000110 ba f1 1d 3c 9a 16 3e bd cf a4 b9 bc a9 81 ba bb
       0.009640152 -0.046408273 -0.022661595 -0.005691726
000120 11 c3 30 bc 0f 9d e7 bc bc b3 90 bc fb 8a 01 bd
       -0.010788695 -0.028273134 -0.017663829 -0.031626683
000130 fa 14 04 bd 98 e3 bb bb a1 fd 9f 3c ca 1f 72 bc
       -0.032246567 -0.0057339184 0.01953012 -0.014778087
000140 27 4f dc bc 4a 79 86 bc 5b 6d 89 bc 24 4f 69 bd
       -0.026893212 -0.016415257 -0.016775778 -0.05696024
000150 e7 63 c9 bc 26 7a e5 bc fb e2 79 b9 60 84 f8 bc
       -0.02458377 -0.028012346 -0.00023831047 -0.030336559
000160 16 2a 50 ba 70 ba 05 bd e8 58 7d bc 25 ef a4 bd
       -0.00079408416 -0.032648504 -0.015463091 -0.08053426
000170 ee 1d bb bc 41 85 bc 3c 21 48 80 b9 78 c1 0d bd
       -0.02284142 0.02301276 -0.00024467803 -0.034608334
000180 37 7c 51 bd ee 27 24 bc 46 f9 30 bd 67 48 bc bc
       -0.05114385 -0.010019286 -0.043206476 -0.022983743
000190 05 12 1c bd a7 14 03 bc ed 1b 48 bd 2c e4 21 3c
       -0.038103122 -0.008000529 -0.048854757 0.009881061
0001a0 35 82 bc 3a 4a 94 d8 bc cd 90 0f bd 7a f5 c4 bc
       0.0014382066 -0.026437897 -0.035050202 -0.024042834
0001b0 c5 20 1a bd 1b b9 a2 bc 05 d5 1b bd 7a bc d9 b9
       -0.037628908 -0.019863656 -0.038044948 -0.0004152989
0001c0 8a 64 26 bd 37 f5 67 bc f7 10 59 bc 20 e0 7b bc
       -0.040623225 -0.014157585 -0.013248674 -0.01537326
0001d0 17 68 ea bc c7 e0 4a bd a1 70 71 bc d7 46 15 bd
       -0.028614087 -0.04953077 -0.0147363255 -0.03644451
0001e0 2e f1 ee 3c fb 67 44 ba 97 f6 8d bd 05 4e 8d bc
       0.029167738 -0.0007492301 -0.06931799 -0.017249117
0001f0 22 dc 1e bc e5 2c 69 bc b8 63 a4 bc 73 30 f3 bc
       -0.009696038 -0.014231895 -0.02006708 -0.029686188
000200 46 16 c5 3b f6 bd 61 bc d2 fe 15 39 da d8 d0 3b
       0.006014618 -0.0137782 0.00014304675 0.006373507
000210 3c 2a 88 3b 8f 40 45 3c ea 9f 86 bc 03 63 af 3c
       0.0041554254 0.012039318 -0.016433675 0.021409517
000220 c4 59 5f 3c 32 0c 07 3d e8 4c 20 bc e8 b9 84 3c
       0.013632242 0.032970615 -0.009783961 0.016201928
000230 3d 06 ba 3c 87 ae e7 3b b1 9f 1b bc 4a c4 77 bb
       0.022708053 0.007070366 -0.009498523 -0.0037806206
000240 81 f3 26 bd 7d 25 8b 3a 55 09 90 bb c7 c4 51 bb
       -0.040759567 0.0010616031 -0.0043956437 -0.0032008158
000250 1b bf d4 bc 0a ee 93 3c 1e 53 08 bd 75 24 05 bd
       -0.025970032 0.018057842 -0.03328239 -0.03250547
000260 b2 2f f8 3b 63 a3 16 3b 16 b5 62 bc d4 0b 00 bc
       0.007574045 0.002298557 -0.01383712 -0.00781532
000270 8a a6 44 3c 94 8d ed 3c ce 4d 0e 3b e1 2f bb 3c
       0.012002597 0.028998174 0.0021713856 0.022849979
000280 47 5e 6a 3a a9 ae 68 bc 73 4f 2b 3d a3 1c b7 3c
       0.000894044 -0.0142017985 0.041823816 0.022352522
000290 12 11 0a 3c 72 70 10 bd d4 a9 3a bb c7 e4 f3 3a
       0.008426921 -0.035263486 -0.0028482573 0.001860761
0002a0 7b 15 fc bb 32 af 7c 3c 58 57 c4 b9 c4 97 22 bc
       -0.0076929904 0.015422629 -0.0003744911 -0.009923879
0002b0 0e ae 48 bc b2 04 8f 3c 2f 32 1d bd 3e 66 d3 3b
       -0.012248529 0.017458294 -0.038377937 0.006451397
0002c0 a6 28 ad 3a 96 ba a3 3b 87 5c 80 ba b1 c0 87 b9
       0.0013210967 0.004996608 -0.00097932 -0.00025892773
0002d0 7b 13 cb bb 3e 06 a9 3c 10 c6 a5 bb 4a c0 00 ba
       -0.0061973906 0.02063286 -0.0050590113 -0.0004911466
0002e0 88 62 05 3d e7 14 a8 3b 78 e7 31 3c f1 63 c5 bb
       0.03256467 0.005129445 0.010858409 -0.006023877
0002f0 cb 2d 81 3c a1 cd 6f bc 91 85 d3 bc dd 62 42 3c
       0.015768906 -0.014636428 -0.025820525 0.011864391
000300 ed 1e 0d bd 95 84 57 bc 78 d8 34 bd 77 ab 41 bd
       -0.03445332 -0.013154169 -0.044151753 -0.047282662
000310 22 3b a4 3c fe 2b 46 bd 07 7d e2 bc bb af 2b bc
       0.020047728 -0.048381798 -0.027647508 -0.010478909
000320 ed 83 2a bc d0 10 32 bd 16 26 a3 bc 9b 60 dc bc
       -0.01040743 -0.043473065 -0.019915622 -0.026901534
000330 57 71 03 bd 1b f5 bd ba b9 0e a9 3c e7 39 57 bc
       -0.03209051 -0.0014492603 0.020636903 -0.013136364
000340 1d 2b d4 bc d2 49 fb bc e6 d0 85 bc ec 05 5a bd
       -0.025899464 -0.030674849 -0.016334962 -0.053228304
000350 1c 47 d0 bc c7 32 02 bd cd 0d 33 3a 82 6f f4 bc
       -0.025424533 -0.031786706 0.00068303646 -0.029838327
000360 a0 9d 7d bb 5b 91 06 bd 11 aa 90 bc f5 2e a9 bd
       -0.0038698688 -0.032853466 -0.017659219 -0.082609095
000370 0a 15 85 bc 5b 05 f0 3c b8 4f 62 3b 83 03 11 bd
       -0.016245384 0.029299429 0.003453238 -0.03540374
000380 a4 8a 16 bd 3c 7f 70 bc fd d8 41 bd 1e 3f ab bc
       -0.03675331 -0.014678773 -0.047326077 -0.02090412
000390 74 8e ee bc f3 77 96 bc 7d 63 2b bd a7 da 3d 3c
       -0.029120661 -0.018367743 -0.041842926 0.011587775
0003a0 3f 70 57 ba 1a 4e ee bc 65 3d 97 bc 29 bb b1 bc
       -0.0008218325 -0.029089976 -0.018461892 -0.02169569
0003b0 9a 80 22 bd 4f bf a1 bc 1f 67 30 bd ae 2f ad 3b
       -0.039673425 -0.019744543 -0.043067094 0.005285225
0003c0 14 78 31 bd 3d 93 52 bc 27 a5 78 bc 30 50 67 bc
       -0.043327406 -0.012852487 -0.015176094 -0.014118239
0003d0 a6 cf df bc ce 26 5b bd 80 ce b6 bc f4 2d 20 bd
       -0.027320694 -0.053503804 -0.022315264 -0.039106324
0003e0 9d 1e f2 3c c4 7a 8c bb 37 fd 86 bd 26 96 a7 bc
       0.029555613 -0.0042870957 -0.06591266 -0.020457339
0003f0 d0 88 17 bc 00 b2 46 bc 06 1b 87 bc ac 4c d6 bc
       -0.009248927 -0.012127399 -0.016492378 -0.026159607

weight_ih_l0_reverse f4 [256, 2]
000000 46 61 f1 bd 18 cc e3 bd 2f 0d ec 3d b6 e6 0e 3c
       -0.117861316 -0.11122912 0.11525952 0.008721998
000010 b5 e2 ea bb 47 65 37 bd 76 dc 65 bd 32 78 a1 bd
       -0.007168139 -0.04477432 -0.05611845 -0.078842536
000020 01 f4 80 bc bd 36 2e bd 94 3b 38 39 8a 53 45 bc
       -0.01574135 -0.04253267 0.00017569802 -0.012043843
000030 63 71 98 bd 32 11 15 3c 39 cb 1e bc 39 42 9e bc
       -0.07443502 0.009098338 -0.009692007 -0.019318687
000040 44 63 64 38 53 c9 7e 3c ff 40 76 bd d5 1f d2 bd
       5.4451884e-05 0.015550929 -0.06012058 -0.10259978
000050 95 b2 8a 3d 7e 76 c0 3d 39 93 f7 3c e2 b1 e9 bc
       0.06772343 0.093976006 0.030221568 -0.028527204
000060 0b ce 5e ba 4c 22 9f bc 6d 2e 53 bd e9 b2 e2 3d
       -0.0008499331 -0.019425534 -0.051557947 0.11069281
000070 1f 77 67 bc e0 ad 86 bd 72 16 c4 bd 6b 09 00 bd
       -0.014127522 -0.06576133 -0.095745936 -0.03125898
000080 db 2c 9b bb dc dd 8a 3d 48 88 2f 3d b6 06 d4 bc
       -0.004735572 0.067805976 0.042854577 -0.025882106
000090 fe 4f d8 bc 14 97 3c 3d fd 63 5e 3c 84 95 1b 3c
       -0.02640533 0.046042517 0.013573644 0.0094960965
0000a0 de 0a 8a bd e2 0d 27 3d 7b d6 74 3c 9b ef 84 bd
       -0.06740354 0.040784724 0.014943714 -0.064910136
0000b0 37 52 0d 3c 52 b5 d5 bb 86 64 86 3d 5e 8c 67 bd
       0.008625559 -0.006521859 0.06562142 -0.05653035
0000c0 a2 15 9c bd b9 8d 86 bd 4d 0e fa 3d 2f 71 f3 3d
       -0.07621314 -0.0657 0.12209759 0.118868224
0000d0 25 f2 bc bc ba c8 51 bd 82 35 d6 3c 8f 31 63 bb
       -0.023064682 -0.05121682 0.026148561 -0.003466699
0000e0 39 8e f0 bc 9f ab 8c bd 0b b4 26 3d 28 9c ca bb
       -0.029364692 -0.068686716 0.040699046 -0.006183166
0000f0 28 0a ea 3c 38 f5 b7 3d 4f 39 2d 3d f6 27 55 3c
       0.028569296 0.08982319 0.04229098 0.013010016
000100 99 f6 28 bd 4a b7 8d 3d e8 8e 46 bd 40 d7 d1 bc
       -0.0412508 0.06919725 -0.04847613 -0.025615335
000110 d7 f2 b1 bc 66 42 9c 3c 22 23 9f 3d f4 94 25 3d
       -0.02172224 0.01907463 0.07770373 0.040425256
000120 0f 13 2b bc fb ea f5 bc 60 62 91 bc a5 6a b9 3c
       -0.010441556 -0.030019274 -0.017747104 0.02263386
000130 c2 a2 ff bc 32 03 aa 3d d8 d4 a1 3b e7 5d f2 bc
       -0.031205539 0.08301391 0.004938703 -0.029585792
000140 49 ae e0 3d ec 8d 45 bd e7 6d 26 bd 17 c4 ed 3c
       0.10970742 -0.04823105 -0.040632155 0.029024167
000150 4b 32 51 bd 4b 0d d0 3d 01 c5 c4 bd 4b 19 37 3d
       -0.051073354 0.101587854 -0.09607888 0.044701856
000160 e4 c2 20 bd 7b 42 45 bd bf 5d 39 bd c7 97 d7 bc
       -0.039248362 -0.048159104 -0.04525542 -0.02631749
000170 1d 6b 77 bd a2 96 ff bc d2 54 c8 3c 89 91 36 3c
       -0.060404886 -0.031199757 0.024454508 0.011143097
000180 5e 01 3d 3d 7e 53 90 bd 4b fe 47 bd 54 77 0b 3c
       0.046143882 -0.07047175 -0.048826497 0.008512337
000190 0a dd 0a bd 39 d5 33 bd 21 69 01 bb ac 51 0d 3d
       -0.033902206 -0.043904517 -0.00197465 0.034501716
0001a0 61 58 06 bb 9b cb 90 bd b3 49 0f 3d 5b 20 a4 3c
       -0.0020499455 -0.07070085 0.034982394 0.02003496
0001b0 12 e6 2b bd f3 5c 40 bd c2 22 95 3c 4a 08 b2 bc
       -0.04196746 -0.046963643 0.01820505 -0.021732468
0001c0 44 70 1e 3d cd b8 29 bd a4 26 2a bd 8c 05 88 3d
       0.038681284 -0.041436005 -0.041540757 0.06641683
0001d0 90 dc 38 3c 62 6d 98 bd c9 a0 db bd 1b 77 c5 bd
       0.011283055 -0.07442738 -0.10724027 -0.09641858
0001e0 60 ad 4a 3c 09 40 ab 3c 9f b1 90 3d 03 fe ac bd
       0.012370437 0.020904558 0.070651285 -0.084468864
0001f0 1e ef 5a 3b 3d 6b 76 3d 03 e9 58 3d 06 17 7e bb
       0.0033406685 0.060160864 0.052956592 -0.0038771047
000200 ca ae de bd d6 cd a0 3c dc a7 e6 3d e7 e2 1e 3d
       -0.10873182 0.0196294 0.112624854 0.03879061
000210 95 94 8e 3b a2 18 e9 bc 3f 7b 8b bc 21 11 1b 3e
       0.0043512085 -0.028454129 -0.017026542 0.15143253
000220 de 6b 37 bc 0e 48 a3 bc 22 f3 6e ba 30 05 4e bb
       -0.011195151 -0.01993182 -0.0009115209 -0.0031436197
000230 65 78 31 bc 40 08 c9 3b 9d ef 43 ba 51 d3 1b bd
       -0.010831927 0.0061350167 -0.0007474365 -0.038043324
000240 98 80 24 3c 1f af 02 bd 08 60 8f bd 2e a4 c5 3d
       0.010040425 -0.03190529 -0.070007384 0.096504554
000250 2e 5f a3 3d a5 2d bd 3b 87 80 10 3d be a7 8a bd
       0.079771385 0.0057732635 0.035278823 -0.067702755
000260 47 52 6b 3b 26 bd 11 3c 34 da 18 3d 6d 62 41 3d
       0.0035907195 0.008895194 0.03731747 0.047213007
000270 bb 76 b8 3c 64 74 e8 3c 7f 4c 88 bc db 12 63 bd
       0.022517553 0.028375812 -0.016638039 -0.055437904
000280 fc 25 46 bd df 82 f6 3d 06 3a fc 3c 3c de de bc
       -0.04837607 0.120366804 0.030789386 -0.027205579
000290 91 78 00 3d 0f dd 11 bd 6e b4 82 3b ce e3 e0 bb
       0.03136498 -0.03561121 0.003988794 -0.006863094
0002a0 0c a9 ab 3c 81 b0 b0 ba 8e 5b 5f 3d 10 15 64 3d
       0.020954631 -0.0013480337 0.054530673 0.05568415
0002b0 82 0b c9 3c d2 2e ec 3c f7 5f f0 3c ae d8 26 3d
       0.02454162 0.02883092 0.029342635 0.040733986
0002c0 52 d2 e1 bc f6 f6 a3 3d 0a 1d 94 bd 79 4f 81 3d
       -0.027566109 0.080060884 -0.07232101 0.06313986
0002d0 5e db 83 bd 10 b0 88 3d e9 ac 95 bd 20 c4 4a 3d
       -0.06438325 0.06674206 -0.073083706 0.049503446
0002e0 0f fe 2a bc 97 26 f9 bc 00 53 45 3d 37 f3 9a 3d
       -0.010436549 -0.030413909 0.048174858 0.07565921
0002f0 b5 9a 56 3d c8 e6 42 3b 49 cd 56 3c e1 c3 e2 3c
       0.052393634 0.0029739607 0.013110467 0.027681293
000300 60 5a 19 3d 3e a2 b4 bc 5a 23 6b bc 11 13 e3 bc
       0.037439704 -0.02205002 -0.01435169 -0.027719053
000310 48 d2 85 3c 6a 95 22 bd f4 cc 67 bd 3c 75 ab 3d
       0.016335621 -0.039693274 -0.056591943 0.0837197
000320 f8 ad e2 bb c4 31 1a bb 78 09 e4 bc d8 55 8c 3b
       -0.0069177113 -0.0023528198 -0.027836546 0.0042826943
000330 f4 23 59 bb 76 86 1b bd 8c d0 7f 3b 45 bd bf bc
       -0.0033133002 -0.03797003 0.0039034216 -0.02340568
000340 64 7f 9b 3d 2e 95 0e bd 52 13 0f bd 4f a6 3c 3d
       0.07592657 -0.034810238 -0.034930535 0.04605704
000350 0a 0b ad 3d ce 15 dd 3d fe bb 76 bd 61 a9 d9 3d
       0.08449371 0.107951745 -0.060237877 0.106280096
000360 f9 f6 1a bc 8e 8b d3 bb 83 4c 19 bd 35 fe 5f bd
       -0.009458297 -0.006455845 -0.037426483 -0.05468579
000370 d2 f0 47 bc f5 62 86 bc a7 20 17 bd 01 17 66 3d
       -0.012203412 -0.016404608 -0.036896374 0.056174282
000380 67 e0 82 3d 15 3d 15 3e 75 db 3c bc 46 c5 72 bd
       0.063904576 0.14574082 -0.011526932 -0.059270166
000390 d5 9b 21 bd f5 6a db bc 66 3a b2 bc 38 0e 07 bd
       -0.039455254 -0.0267844 -0.021756362 -0.032972544
0003a0 20 67 f5 bc 12 1c 24 bc 38 07 f5 bc 71 6f 87 bd
       -0.0299564 -0.010016458 -0.029910669 -0.06613053
0003b0 45 ff 8c bc 5a fa d7 3a a1 78 fa bc ce ae 09 bd
       -0.017211566 0.0016477809 -0.030575098 -0.033613972
0003c0 e4 e2 ca 3d e8 fe ce 3c 5b 2b 95 bc 16 23 b8 bd
       0.09906557 0.025268033 -0.01820915 -0.08991067
0003d0 7e a4 f0 3c 22 76 dd 3c dd f5 95 3c 9e 0b 60 bd
       0.029375311 0.02703387 0.018305713 -0.05469858
0003e0 47 da 2c bd 74 84 ec 3c 4a 58 36 bd c2 ca 0b bc
       -0.042200353 0.028871752 -0.044517793 -0.008532228
0003f0 49 ea 06 3d f1 e0 c8 3d 58 ac 54 bd 75 53 d2 3c
       0.032938275 0.09808529 -0.051922172 0.025674561

weight_hh_l0_reverse f4 [256, 64]
000000 00 9d 1c 3c 6b cd 16 bd d3 81 dc 39 bb b6 41 3b
       0.009558916 -0.036816996 0.00042058397 0.0029558379
000010 09 87 0f 36 32 f7 6b 33 60 fa 19 39 d2 aa 91 3a
       2.1387261e-06 5.4940024e-08 0.00014684489 0.001111353
000020 9b 1b 20 37 17 55 06 bc e6 e8 d3 3b da e4 9d 3a
       9.543171e-06 -0.008198998 0.0064669726 0.0012046352
000030 08 bf 88 b8 8f 2d 58 ba 04 08 00 3c f6 4e 3e ba
       -6.520568e-05 -0.0008246535 0.007814411 -0.0007259691
000040 92 51 1d 3c d0 b8 82 bb 3d e9 52 ba 54 e6 e4 b9
       0.009601967 -0.0039893165 -0.00080456195 -0.00043659157
000050 01 39 df bb 13 6d 52 bb a4 25 43 bb d2 ec 02 bb
       -0.0068122153 -0.003210847 -0.0029777074 -0.0019977582
000060 5c ab d4 bb 5d b8 7a bc da 68 b3 bb 3e 3f a9 3c
       -0.006490154 -0.015302745 -0.0054751458 0.020660039
000070 20 f9 6d 38 05 c3 13 bb 1c 0b d2 ba 49 58 0d ba
       5.673722e-05 -0.002254666 -0.0016025039 -0.00053918787
000080 d9 3d f6 bb 4d 02 32 ba ce d2 db 38 2d e8 3e bc
       -0.007514697 -0.0006790504 0.00010481999 -0.011652035
000090 5b 96 c2 36 ce 89 02 b9 8f e6 a1 3b f3 d1 30 b7
       5.799154e-06 -0.00012449102 0.004940815 -1.05393e-05
0000a0 79 5a 40 bc 14 61 91 ba b6 9d 08 ba 51 5c 42 bb
       -0.01174032 -0.0011091554 -0.0005211489 -0.0029657076
0000b0 e9 4d 13 b7 c7 24 04 ba 84 c2 54 b4 69 fd b8 b8
       -8.780023e-06 -0.00050408806 -1.9814803e-07 -8.821005e-05
0000c0 67 bc ac 3b c8 1d 4c bb c7 08 ca b8 10 81 c2 37
       0.0052714827 -0.003114568 -9.6337455e-05 2.3186702e-05
0000d0 f2 0c a6 36 db 62 ec ba 33 96 a5 37 3c c8 27 ba
       4.9486925e-06 -0.0018034832 1.9739475e-05 -0.00064003817
0000e0 36 04 68 3b 6e de fc b9 89 fc ef 39 99 d2 6a b6
       0.00354029 -0.0004823091 0.00045773786 -3.4991301e-06
0000f0 dc 24 dc 39 5f c7 c9 3b e6 67 83 bc cd 87 f1 bb
       0.00041989132 0.0061578 -0.016040754 -0.007370925
000100 2a a9 2e 3b 89 07 38 3c 03 89 6d ba 1f e3 fa 3b
       0.0026651123 0.011232265 -0.0009061249 0.0076564695
000110 7d 81 89 b7 b1 52 e5 b4 27 58 9f 39 f1 d6 77 ba
       -1.639197e-05 -4.271474e-07 0.00030392522 -0.0009454331
000120 5b 28 e6 36 4d 1d a9 3b 47 34 98 3c 9f a3 d0 39
       6.859232e-06 0.0051609636 0.018579615 0.0003979476
000130 ae f3 e7 b9 88 b1 02 bc ab 9d c9 3b 9d 72 e1 3a
       -0.0004424131 -0.007976897 0.0061528287 0.0017200295
000140 02 3f ee 3b 33 10 3e ba 25 b2 b9 b8 5d da b3 ba
       0.0072706947 -0.00072503387 -8.8546694e-05 -0.0013721694
000150 93 45 81 3c 6a 90 81 ba 26 39 6a bb 95 62 42 3c
       0.015780246 -0.0009884958 -0.003573963 0.011864324
000160 19 7c c6 bb b9 cc 58 bc f3 64 71 3a 5c 52 a4 3c
       -0.006057274 -0.013232403 0.0009208463 0.020058803
000170 9f 26 8c 39 6a 16 fc ba 6d f0 bc 3a 67 64 98 3a
       0.00026731656 -0.0019232754 0.0014414914 0.0011626602
000180 91 f3 d5 3b 1a 20 52 3b 63 ab ab 3a 8e e1 64 3b
       0.0065292795 0.003206259 0.0013097342 0.003492448
000190 20 e3 07 38 07 97 a3 b9 42 48 96 3c 9b 18 a3 37
       3.2398035e-05 -0.00031202307 0.018345002 1.9442572e-05
0001a0 0f 7b 81 ba e1 7f 4d 3a 88 1f 54 bc 66 d0 62 3c
       -0.0009878593 0.0007839185 -0.012946971 0.013843631
0001b0 7d a5 26 36 42 7b ac b8 2e 85 7f b6 a1 21 c3 ba
       2.4832254e-06 -8.224558e-05 -3.8075482e-06 -0.0014887342
0001c0 ed 52 32 bd 23 28 a1 bb ce 69 03 ba 33 0f 6f b9
       -0.043536115 -0.0049181147 -0.00050130195 -0.00022798478
0001d0 1c a8 f8 3a 35 95 86 3a e8 4b e5 37 71 12 4f ba
       0.0018970999 0.0010267856 2.7334274e-05 -0.00078991713
0001e0 f1 54 a4 bb be a9 dc 39 b1 46 4c bb 64 2f 96 b5
       -0.0050150086 0.00042088138 -0.0031170065 -1.1189663e-06
0001f0 02 72 55 3a 6a f0 69 3b dd 56 d8 3c 39 d9 a8 bb
       0.00081422937 0.0035696276 0.026408607 -0.005152848
000200 cf d8 b4 39 69 32 75 b9 c1 89 4f 3a 3f 1a 32 3b
       0.0003449381 -0.000233838 0.000791695 0.0027176288
000210 98 c3 1e b3 e7 03 ab 2f 90 50 e0 35 cc d4 46 38
       -3.6965133e-08 3.1107492e-10 1.6712747e-06 4.740506e-05
000220 c1 76 cf 31 43 63 5e ba 5f af e6 b9 6e b6 c5 37
       6.0379937e-09 -0.0008483419 -0.0004399968 2.356918e-05
000230 1d f1 f7 37 8d 1c dd 3a b9 d1 5b bb 5c ec a0 b6
       2.9556972e-05 0.0016869471 -0.0033541752 -4.7958874e-06
000240 b0 f0 fd ba 20 b7 91 b9 f0 68 b8 b5 d2 30 c2 b7
       -0.0019374099 -0.00027792994 -1.3739609e-06 -2.3149336e-05
000250 af cc 82 ba 90 b2 25 39 7b 7b ad 39 c4 fa 50 bb
       -0.0009979213 0.00015802146 0.00033089131 -0.003188775
000260 c0 e1 b2 b9 36 21 db ba 9a f2 50 b8 6b 93 97 ba
       -0.00034119003 -0.0016718272 -4.9817005e-05 -0.001156432
000270 f6 7d 76 b5 88 11 4a ba bd 72 3b 3a 93 08 4c b9
       -9.182544e-07 -0.0007708301 0.0007150581 -0.0001945815
000280 79 55 87 ba 66 ea 58 b7 76 06 7e 34 be 7d 44 3a
       -0.0010325155 -1.2929178e-05 2.3657944e-07 0.00074955437
000290 33 f8 93 b3 51 ab 16 33 f4 34 3e ba 24 d7 b1 b6
       -6.890368e-08 3.5080408e-08 -0.00072558154 -5.3000567e-06
0002a0 32 1f ad 3a bc 77 72 ba e1 09 af 39 4f 26 93 ba
       0.001320815 -0.0009249409 0.0003338596 -0.0011226627
0002b0 ff 00 15 2f 2b a5 e7 34 e3 6b 31 ae 69 d1 9a 38
       1.3551825e-10 4.3147278e-07 -4.0340963e-11 7.382298e-05
0002c0 5f 45 3c 3b 5d d7 6f 38 15 dd 0b b5 bf b4 c4 b5
       0.0028727872 5.7182613e-05 -5.210325e-07 -1.4655742e-06
0002d0 03 5b a6 b9 37 28 76 ba a0 6d 43 b1 20 45 08 b6
       -0.00031729796 -0.0009390148 -2.843855e-09 -2.0305815e-06
0002e0 f0 f8 b8 3a 3c 10 8b 36 a9 62 84 3a c9 0d 2e b2
       0.0014112275 4.1444127e-06 0.0010100204 -1.0131267e-08
0002f0 99 67 0b 38 58 da 96 37 41 0a 80 ba e6 5b 37 3a
       3.3236665e-05 1.7983068e-05 -0.0009768681 0.000699459
000300 6e 67 fb ba 8f 0a 4a 3d 2d c8 a8 bb ce 35 d9 bd
       -0.0019180605 0.049326476 -0.005150816 -0.106059656
000310 ca a7 30 bb 07 ef ee 39 16 54 8e 3b 8d 05 17 bc
       -0.0026955479 0.00045572987 0.00434352 -0.009217632
000320 64 f3 d9 ba 74 d9 0d 3d f1 f9 86 3d 55 69 76 ba
       -0.0016628322 0.034631208 0.06590641 -0.0009399851
000330 21 89 cc bb 46 7c 7a bc 82 8a d3 3c 2c 67 7e 3c
       -0.006241933 -0.015288418 0.025822882 0.015527528
000340 81 30 0a 3d ea 7f 34 bb 08 37 3f 3b 84 91 33 bc
       0.033737663 -0.0027542063 0.0029177088 -0.010959987
000350 a5 02 d5 3c 88 90 98 3b 67 a8 ee bc 19 7c 82 3c
       0.026002238 0.0046559013 -0.029133035 0.015928315
000360 b1 46 e1 bb c0 56 cf 3d 93 d6 db bb 5d e1 8c 3d
       -0.006874882 0.10123968 -0.006708929 0.06878922
000370 e1 9a a7 3a a4 ce 0f ba d9 57 ca bb 13 37 bb bb
       0.0012787246 -0.0005485809 -0.006175023 -0.0057133525
000380 36 2b 16 3d 42 3d 10 3c f2 ed e8 3b 93 97 6c 3b
       0.036662303 0.0088036675 0.0071084434 0.0036101087
000390 9c f4 a6 3a a4 c2 a3 ba 5c a6 e6 3c 6d 96 04 3b
       0.0012737694 -0.001249392 0.028155498 0.0020231262
0003a0 59 47 2f bc 0d 54 ea 3b 8b 3b 5f bd 83 50 9c 3d
       -0.010698163 0.007151133 -0.054500144 0.07632544
0003b0 af 62 58 39 98 1e 0d 39 e4 f3 8a b9 0e 70 3b 3c
       0.00020636128 0.00013458205 -0.00026503124 0.01144029
0003c0 fc 73 ab 3a 9e be 30 bc ab d3 97 bb 43 3c fb bb
       0.0013080831 -0.010787634 -0.004633387 -0.007667096
0003d0 fc 79 1c 3c b5 80 09 3c 49 a6 d6 b7 6b fd 14 bb
       0.009550568 0.008392503 -2.558822e-05 -0.0022734057
0003e0 9e bc ac bb ae c7 f7 39 70 09 b1 bb cc 0e 0d 39
       -0.0052715084 0.00047260284 -0.0054027364 0.0001345232
0003f0 7c 92 ed 3b b4 36 5f 3b 7e 80 10 3d 8c 2d 5d bc
       0.0072501283 0.0034059705 0.03527879 -0.013499629
