CNP-model-save-name/saved_models/model_2000.pth (torch, 114338 bytes, 20 tensors)

weight_ih_l0 f4 [128, 2]
000000 86 57 f2 bd dd d8 b1 3d f2 64 bf 3d b5 04 fb bd
       -0.118331 0.086839415 0.09345426 -0.12256757
000010 f7 8d 23 3e d3 5c 58 3e d9 ca d3 3c 6f 4b 00 bc
       0.15972124 0.2112916 0.025853561 -0.007830485
000020 64 47 a8 bd 88 cd 4a be 1b 81 cd ba 89 b9 53 be
       -0.08216742 -0.19804966 -0.0015678735 -0.20676245
000030 28 dc 5d bd b1 a1 50 be 6d 84 35 be c6 6f e9 bc
       -0.054165035 -0.2037418 -0.17726298 -0.02849568
000040 4a 46 7e bc 76 88 41 bd 76 6e 7e bd ed 5c e6 bc
       -0.015519688 -0.04724928 -0.062117063 -0.028120482
000050 be 42 07 be 91 15 2d be 99 af 9a 3d 39 86 9e bc
       -0.13209054 -0.16902758 0.07553024 -0.019351112
000060 c1 f8 2f 3d 76 aa 0c 3e e9 ad ad 3c fd 85 9d 3d
       0.04296184 0.137369 0.02120109 0.07691572
000070 dd 31 22 3e 00 3a ba 3c c2 64 42 be 24 cb e6 bd
       0.15839334 0.022732735 -0.18983749 -0.11269215
000080 1f d7 9d 3d 95 66 6c bd 8f 03 e5 3d 9d 67 cf bd
       0.07707047 -0.057715017 0.111823194 -0.101271845
000090 3b 79 bc bd d7 a3 10 3e 0e 3d f2 3d 0d 83 d8 bd
       -0.092028104 0.14125 0.118280515 -0.10571871
0000a0 84 34 c3 bd d2 09 b5 bc 4d 48 3a be 7c fc 57 3e
       -0.09531501 -0.02209941 -0.18191643 0.21092409
0000b0 a4 b0 ac bd 7f d0 23 be 83 5b 32 be df 99 10 3e
       -0.08432129 -0.15997504 -0.17417721 0.14121197
0000c0 34 53 79 3d ee fe b4 bd 59 1a d3 bd 16 52 84 3d
       0.060870364 -0.088376865 -0.1030776 0.06460969
0000d0 69 43 3d bc 13 66 c5 bd cd 1e 63 be b8 b7 04 be
       -0.011551716 -0.0963861 -0.22179718 -0.12960708
0000e0 84 5d f9 bb 05 99 da bd ac d2 98 bd d5 cb 36 be
       -0.007610025 -0.106737174 -0.074620575 -0.17851193
0000f0 db de fa 37 5b fd 8c bd 96 fe 27 be 7c 70 f1 3c
       2.9906098e-05 -0.06884261 -0.1640571 0.029472582
000100 ab 09 77 3c 9c 8e e5 3d 0c f3 a4 3d 8d c8 1f be
       0.015077989 0.11208841 0.0805417 -0.15603848
000110 40 a6 0e 3e 20 10 50 3d 16 7f 53 be 21 27 21 3e
       0.13930607 0.050796628 -0.20653948 0.15737583
000120 4b 51 bd 3d 6c 8c d3 bd a4 8f 8e bd 2d 0b 0e 3e
       0.09244021 -0.10329518 -0.06960991 0.1387145
000130 3c c4 80 3d 8d 5b fb 3d 1f ad 23 be 84 98 f7 3c
       0.06287429 0.12273321 -0.15984009 0.030224092
000140 53 17 14 be d2 d9 41 bd ff 99 38 be e7 1c 53 3e
       -0.14462022 -0.04732687 -0.18027495 0.20616494
000150 3d 1d 26 3e f7 96 73 bc e2 eb 85 3d ec d7 bf 3d
       0.16222091 -0.014867536 0.06539132 0.09367356
000160 d5 1e c1 3d 77 6d 12 3e 0b 01 01 3e 8f e9 8b bd
       0.09429709 0.1429957 0.12598054 -0.06831657
000170 17 10 15 bd f1 9d 28 3e a0 90 c9 3d ca d2 32 be
       -0.036392298 0.164665 0.09842038 -0.17463222
000180 84 a6 01 be f0 d9 6b 3e 39 a9 35 3e 70 44 eb bd
       -0.12661177 0.23032355 0.17740335 -0.11487663
000190 73 d1 33 3c 4e 60 97 bd 6f d8 40 3e 2d a7 12 3e
       0.01097523 -0.073914155 0.18832563 0.14321585
0001a0 d6 4f 1c be 82 6d d2 bc 12 14 56 be 6b 14 4c be
       -0.1526483 -0.025686983 -0.20906094 -0.19929664
0001b0 d9 c5 87 3c 67 2a e9 3d 59 7d 09 be 9a b7 3a 3e
       0.016573833 0.11385041 -0.13426723 0.18234101
0001c0 a3 8c ca 3d 21 28 95 3c 29 26 4e be 83 0e 0d be
       0.098901056 0.018207612 -0.20131744 -0.13775067
0001d0 c3 c9 a9 3d 79 6e 06 be d1 38 e5 b9 16 5d 22 3d
       0.08290436 -0.1312808 -0.00043720615 0.039639555
0001e0 53 e8 2a be 57 9f db 3d a3 be 9d 3d 9b f2 1a 3e
       -0.16690187 0.10723751 0.07702377 0.15131609
0001f0 4b 5e fd bc 7b b5 b0 bc 0b 52 28 3d 49 92 b0 3b
       -0.030928751 -0.021570912 0.041093867 0.0053885323
000200 5e d2 2c 3e 96 fa 39 3e 86 90 7e bd 2d 71 d7 3d
       0.16877124 0.18161997 -0.062149547 0.105196334
000210 d1 48 b5 3d 24 c4 24 3e da 09 5f 3d 43 c2 dd 3d
       0.08851779 0.16090447 0.054452755 0.10828068
000220 f1 e1 21 bd aa e2 a0 bd 81 fa e8 bd 24 f6 e7 bd
       -0.039522115 -0.07855733 -0.11375905 -0.113262445
000230 ac e9 7a bc 75 ee 16 3e 5e 6e 3a 3e 0d 26 32 be
       -0.015314501 0.14739402 0.18206164 -0.17397328
000240 cf 72 0d 3e 3e 12 91 3d 82 72 07 be 03 63 cb 3d
       0.13813327 0.070835575 -0.13227275 0.09930994
000250 ec 7d ef 3d 1e 57 29 be 25 10 1f 3e 46 73 25 3e
       0.116939396 -0.16537139 0.15533502 0.16157255
000260 65 5b b5 bd 16 b5 e3 bc 73 ae 16 3e 33 6c 26 3d
       -0.08855323 -0.02779631 0.14714985 0.04063053
000270 36 91 ee 3c 34 0c 5c 3e 77 10 5a 3e ba d3 13 3e
       0.029121976 0.2148903 0.21295343 0.14436236
000280 bd cf 4e 3e 7e 6f 50 3e d0 b1 37 be be d9 d6 3d
       0.20196433 0.20355031 -0.17938924 0.1049075
000290 93 cc db b9 c7 c5 48 3c 1f 5e 11 be 4f 97 4f be
       -0.00041923355 0.012254185 -0.1419606 -0.20272563
0002a0 1f 07 32 be 71 ba fb bd 95 8f ee 3d a8 ed cd 3d
       -0.17385529 -0.1229142 0.1164848 0.10055095
0002b0 17 9f 03 be ed 76 2e be 58 aa 16 3e 03 66 83 3b
       -0.12853657 -0.17037554 0.14713418 0.0040099635
0002c0 ea 0b 5d be ae 96 48 3e eb a3 e2 bd d3 d9 88 bd
       -0.21586576 0.1958873 -0.11066421 -0.06682172
0002d0 8c 9e 04 be 5c c0 bc 3d cc 30 ae bd 91 59 7f 3b
       -0.12951106 0.09216377 -0.08505401 0.0038963298
0002e0 33 e1 1a 3e 35 47 8a 3b 27 57 29 3e 3f bb 2a 3e
       0.15124969 0.0042199143 0.16537152 0.16672991
0002f0 02 55 e8 bd 41 6c fa 3c 46 35 0f 3d 05 95 b5 3d
       -0.11344339 0.030569198 0.034962915 0.08866314
000300 94 67 b0 bd 3a 6c 20 3e a5 59 44 be c5 4c 19 be
       -0.08613506 0.15666285 -0.19174822 -0.14970692
000310 55 5a 43 be f7 eb 01 3e e8 df 52 be 8c 08 a7 bd
       -0.19077428 0.1268767 -0.20593226 -0.08155927
000320 19 7c 09 bd b7 66 c5 bd 69 29 82 3d b6 4a e7 3d
       -0.033565614 -0.09638732 0.063555546 0.11293547
000330 e8 12 b7 3d c6 2e eb bd 16 bb 10 3e ce 5c e7 bd
       0.08939153 -0.11483531 0.14133868 -0.11296998
000340 5d 8b 40 be b2 25 5b 3c 11 ca 7b bc f0 ce 1d 3d
       -0.18803163 0.0133756865 -0.015368001 0.03852743
000350 fe f3 86 bc 3f 7a 36 be 0f ca 8f bd c9 3c 45 be
       -0.016473766 -0.1782007 -0.070209615 -0.19261469
000360 38 ff a1 3c 80 16 03 be 91 72 54 be 30 69 00 3e
       0.019775018 -0.12801552 -0.20746829 0.12540126
000370 ce 93 e5 3d 32 0e 06 3e dc ff ab bd bc fd cf 3c
       0.11209832 0.13091353 -0.08398411 0.025389545
000380 4e 27 32 3e ee 09 0f 3e 9a 29 99 bd 65 2f 64 be
       0.17397806 0.13968632 -0.07478638 -0.22283705
000390 ba 60 b4 bd 46 25 19 3d a0 96 9c 3d 37 27 0a 3e
       -0.08807512 0.037389062 0.07645917 0.13491522
0003a0 10 f0 33 be 69 c9 63 3d 5c 81 30 be b2 7b 08 be
       -0.17572045 0.055612 -0.17236847 -0.13328436
0003b0 97 a9 b1 3c 2c 16 af 3d d6 3e a0 bd 09 b9 7f 3d
       0.021687312 0.08549151 -0.07824485 0.062432323
0003c0 f7 d3 18 be 2d 8e 67 bd ed 3d 3c 3d c8 6a 19 3e
       -0.14924608 -0.056532074 0.045957495 0.1498214
0003d0 c2 3d 45 bd 1b ba f5 3b 89 d3 13 be e0 0d 64 be
       -0.0481546 0.007498992 -0.14436163 -0.22270918
0003e0 5d 67 23 3e 7a 13 eb b9 73 74 1a 3e 4c ad 17 bd
       0.15957399 -0.00044837204 0.15083484 -0.037030503
0003f0 70 48 fc 3b b5 98 f1 3d 2b f2 52 be ac b4 14 3d
       0.007699065 0.11796705 -0.20600192 0.036305115

weight_hh_l0 f4 [128, 32]
000000 ec 55 e6 3c d3 d2 1a bd fa 6b d9 3c d9 6d 00 be
       0.028117143 -0.037798714 0.026540745 -0.12541904
000010 8a 3e 61 bd db 2f fa 3c 9b 1d 0e be 9c 1f 11 bd
       -0.054991283 0.030540397 -0.13878481 -0.035430536
000020 04 42 8d 3d 9b 5e ab bd cc 16 a0 3d 76 13 a9 bc
       0.06897357 -0.08367654 0.07816848 -0.020639163
000030 05 72 d5 bb 74 eb a2 3b 56 f3 f6 bd e9 ab 2d be
       -0.0065138363 0.004971916 -0.120581314 -0.1696011
000040 71 68 11 be 71 ba a0 3b 77 a1 ff 3c 42 35 26 bd
       -0.14199997 0.004905038 0.031204922 -0.040578134
000050 39 ce 9a 3d d3 a7 1d be 8b b7 2f bd ec b0 b3 bd
       0.07558865 -0.15396051 -0.04289965 -0.087739795
000060 31 c1 8d bd 0d e8 ef 3d 48 33 7c 3d 63 8b b5 bc
       -0.06921614 0.11714182 0.061572343 -0.022161191
000070 75 52 b1 bc 50 0a 80 3d e9 94 a5 bc fe b1 85 bd
       -0.021645764 0.06251967 -0.020212607 -0.0652809
000080 d2 01 3f 3e 48 8b 42 be 4f 23 5b 3c 3a 4e 17 be
       0.18653038 -0.18998444 0.013375117 -0.14775935
000090 e0 f1 c7 bc 17 40 7d 3d 46 b5 bb 3d 61 a5 20 3e
       -0.024407327 0.0618287 0.091654345 0.15688087
0000a0 10 1a 29 3e 6e 9f 00 3d c1 f6 1b be 87 ee 14 3e
       0.16513848 0.031402044 -0.15230848 0.14544116
0000b0 e6 53 07 be d5 83 b6 bd 8f f1 68 bd 91 3d 03 3e
       -0.13215598 -0.08911864 -0.056870993 0.12816454
0000c0 4b 3b dd 3c 4d 37 a2 3d 18 f7 a4 bd cc f6 ad bd
       0.027005812 0.07920704 -0.08054942 -0.084943384
0000d0 72 00 56 bb 57 bd 93 3d ee 8c d3 bd d2 35 18 be
       -0.0032654074 0.07213848 -0.103296146 -0.14864281
0000e0 0c 14 2e 3e 91 b9 3d be 75 aa 77 bd ab 02 4f be
       0.16999835 -0.18527819 -0.060465295 -0.20215861
0000f0 bb f5 c3 3d f0 a1 2c 3e 7a 18 cc 3c 82 60 98 bd
       0.09568354 0.16858649 0.024914015 -0.074402824
000100 49 29 ca 3b c8 95 73 3d ae 59 0e be 70 c4 fc bd
       0.0061694724 0.059469014 -0.13901398 -0.12342155
000110 d8 66 74 bd b0 0b 2d be 02 c8 01 3e a7 e5 bb 3d
       -0.059668392 -0.1689899 0.12673953 0.09174662
000120 c1 95 95 bb 51 9b 1f be 18 7d 0e 3e 98 5a 01 bd
       -0.004564971 -0.15586592 0.13914907 -0.031580538
000130 08 63 d2 3d 07 dc e1 bd 5e f5 41 3e 39 7d 0b 3e
       0.10272795 -0.11028295 0.18941256 0.13621987
000140 e3 38 28 3d 1f 14 98 3d 0a 3b 5b 3d d8 e7 b9 3c
       0.041069876 0.07425713 0.0535231 0.02269356
000150 0b 75 8f bd d9 5d 80 bd 89 be 65 3c bd 4e 25 be
       -0.07004746 -0.062679 0.014022478 -0.16143318
000160 7b e1 bd bd 99 d9 2c 3d 77 7e ca 3d c5 b2 e8 bd
       -0.092715226 0.042199705 0.098874025 -0.113622226
000170 1f ec 19 be f4 47 f4 bd ab 20 24 3e 83 20 b7 3d
       -0.1503148 -0.119277865 0.16028087 0.08941748
000180 57 b6 7c bd 0a 01 19 be 04 25 f5 3d 86 d6 23 3e
       -0.06169733 -0.14941803 0.11969951 0.15999803
000190 15 43 1f be 64 79 27 be 3a 29 8f bd 0e 26 a6 bd
       -0.15552934 -0.163549 -0.06990285 -0.08112727
0001a0 15 e1 34 bd fb 89 fb 3c a4 63 b2 3d 3c cb 3b 3e
       -0.044159967 0.030705443 0.08710411 0.18339247
0001b0 9c 80 c9 3d a0 49 4e 3d 7b 19 23 bd dd 7d b0 3d
       0.098389834 0.050363183 -0.039819222 0.086177565
0001c0 7f 67 e1 bd 65 78 95 bc 00 8f 34 bd 2d f6 4e be
       -0.110060684 -0.018245885 -0.044081688 -0.20211096
0001d0 d1 42 c8 3d 82 01 36 3e 1b 0a 32 3d b0 89 d5 bd
       0.09778369 0.17774013 0.04346667 -0.104266524
0001e0 fd 90 90 3d 73 29 3e 3c 3f 87 18 bd 71 f0 8d bd
       0.07058904 0.011606562 -0.037238356 -0.06930626
0001f0 4e 08 9b bc c0 36 3f 3d 5f fd 1f 3e 47 59 fb 3d
       -0.018924858 0.046683073 0.15623997 0.12272888
000200 1d e0 57 bd ea 05 c0 3d 61 ad 14 be 39 e0 1f 3d
       -0.052703965 0.09376128 -0.14519264 0.039032195
000210 6a d5 2f 3e c8 7b 7b 3d a8 f5 71 3d f8 0c 18 be
       0.17171255 0.061397344 0.059072167 -0.14848697
000220 66 d2 9a 3d 5f 73 c0 bd d3 77 0f be 0b a2 d2 bd
       0.075596616 -0.09397005 -0.14010553 -0.102848135
000230 e2 b9 79 bd 1f d7 67 3d c2 fe 64 3d 79 13 a6 3d
       -0.060968287 0.05660164 0.05590702 0.08109183
000240 c7 da b0 bd 25 0b fb bd d2 92 a2 bb a9 2b fe 3c
       -0.086354785 -0.12257985 -0.00496135 0.031026678
000250 c7 8e c5 3d f3 6e 24 be 6a fc f8 bc 40 54 cd bd
       0.09646373 -0.16057949 -0.030393798 -0.10025835
000260 dc b9 1f be 86 68 18 3e 29 e9 a3 bc 73 5c 38 be
       -0.15598243 0.14883623 -0.02000864 -0.18004017
000270 7b 2d 7c bb 57 a2 41 3e c5 0c 88 bc 05 bf e8 bc
       -0.0038479257 0.18909584 -0.016607651 -0.028411398
000280 9e 31 99 3d 51 43 01 3e b7 c9 46 bd 01 a4 9f 3d
       0.07480167 0.12623335 -0.048532214 0.07794953
000290 3b 5c 14 3e cf e2 1f bd 76 c4 bf bd 47 5f e0 bd
       0.14488308 -0.03903466 -0.09363644 -0.10955673
0002a0 18 ab 05 be a4 56 29 be c2 77 04 be e5 78 08 be
       -0.13053548 -0.16536957 -0.12936309 -0.13327368
0002b0 1b 2a 9b 3d 77 ca 89 3c f0 ad 10 3e 76 d1 0a 3d
       0.0757639 0.016820176 0.14128852 0.033891164
0002c0 00 4b 17 3e 25 3e f9 bd f9 9c d3 3d 19 c1 59 bd
       0.14774704 -0.12170056 0.103326745 -0.053162668
0002d0 4b 61 36 be 35 06 99 3d 44 88 1e 3e 63 6e 17 3e
       -0.17810552 0.07471887 0.15481669 0.14788203
0002e0 fc 28 b0 bb 79 c6 34 be 8e 3b 93 3d 0f eb b1 3d
       -0.0053759795 -0.17653836 0.071890935 0.08687412
0002f0 fb 5a e7 3d f0 75 c9 bd ab e3 e7 3d 5c bd 01 3d
       0.1129665 -0.09836948 0.11322721 0.031674728
000300 e4 f4 c2 3d 59 a6 3e 3e 63 4e f5 3d 17 04 54 3d
       0.095193654 0.18618144 0.11977842 0.051761713
000310 71 57 1e 3e cc 34 5f bd be 7c 86 bc d8 ed 73 bd
       0.15463044 -0.05449371 -0.016416904 -0.059552997
000320 56 87 ce bd 43 b9 7e 3d cf 44 bb bd 7d b8 04 3d
       -0.10084407 0.062188398 -0.091439836 0.032402504
000330 e0 d7 0b 3c b7 c2 26 3d 54 33 90 3d f7 e8 14 3e
       0.008535355 0.04071304 0.0704104 0.14541994
000340 41 fb 3b be 3a 12 09 be b5 92 0d 3e c8 ec 0c be
       -0.18357565 -0.13385859 0.13825496 -0.137622
000350 59 a5 ce 3d 5f 6f 27 bd 6c ed 1d 3e 00 76 30 3d
       0.10090131 -0.040877696 0.154226 0.043081284
000360 22 d5 35 3e 8d 2b be 3d 55 ee f5 bd 91 bb f7 3d
       0.17757085 0.092856504 -0.12008349 0.12096322
000370 0b e6 0b be a6 ba 18 be f3 ac 0b be 48 86 81 3b
       -0.13661973 -0.1491495 -0.13640194 0.003952775
000380 d0 29 43 bd ed dc 2e 3d 38 6a 65 3c c0 e3 38 be
       -0.047647297 0.04269116 0.014002375 -0.1805563
000390 67 01 10 be 53 db 10 3e 0f 5b b8 bd 2a d1 d8 3d
       -0.14063035 0.14146166 -0.09001743 0.1058677
0003a0 6d 00 7e bd b5 91 0a be ca a6 63 3d 0e d1 07 be
       -0.062012125 -0.13532145 0.055578984 -0.13263342
0003b0 0d 7f 12 be b0 d3 93 3d ad f6 2a be 5e fc 00 3e
       -0.14306279 0.072181106 -0.16695662 0.1259627
0003c0 25 ec e0 bb 3c a8 ab bd 4d 60 87 bd 24 fa a8 3d
       -0.006864088 -0.083816975 -0.06610165 0.082508355
0003d0 1b 2c fc bd 91 3c 04 3e 30 7d fb 3d 60 9a 1a be
       -0.123131 0.12913729 0.12279737 -0.15097952
0003e0 c3 cd f2 bd 73 b0 b4 3d 72 36 0c 3e 0b 95 1e be
       -0.11855652 0.088227175 0.13692644 -0.15486543
0003f0 b5 2a d6 3d 8e d2 aa bb 36 12 e1 bd 3b 5e a6 3d
       0.104573645 -0.0052130884 -0.109898016 0.08123442

bias_ih_l0 f4 [128]
000000 6c a5 e9 bc 3d 22 52 3d 1e 2e 1b 3d 30 82 e2 3c
       -0.028521262 0.051302183 0.037885778 0.027649969
000010 00 88 9c 3c ce d9 41 3c 76 0f 34 3c e1 c8 90 3c
       0.019107819 0.011831714 0.010990014 0.017673912
000020 4c 97 0d 3c 6f b2 06 3b 88 3e c7 3c 06 b3 ef bc
       0.008642029 0.0020553132 0.02432181 -0.02926017
000030 0c 06 14 bd 5f 79 97 3c 69 9e c8 3c 9b 94 38 3d
       -0.03613858 0.018490491 0.024489598 0.045063596
000040 ab 94 9e 3c 3f e8 6c 3c e8 3c a9 3c c3 28 48 3c
       0.019358 0.014459669 0.020658925 0.01221675
000050 3f 71 5e 3c a9 f9 05 3c d4 3d 16 3a cc d1 2f bc
       0.013576805 0.008177199 0.0005731259 -0.010731172
000060 6b e2 e2 bb 35 35 de 39 05 55 5b 3a 81 c2 ed bc
       -0.006923964 0.00042382782 0.0008366856 -0.02902341
000070 47 47 3e 3c 5d 7e b9 3c 9f 82 ee 3a 5a 42 36 3d
       0.0116136735 0.022643263 0.0018196887 0.04449687
000080 85 51 64 bc c8 8c 13 3d 37 8a 19 3d 32 cb d7 3c
       -0.013935451 0.03602293 0.037485328 0.026342008
000090 e5 e5 9d 3c be 97 77 3c 03 dc 6f 3c ec e6 79 3c
       0.019274661 0.015111862 0.014639857 0.01525281
0000a0 9e 3c 5e 3c c4 09 a8 3b 7e b9 a7 3c a0 11 a7 bc
       0.013564257 0.0051281173 0.020474192 -0.020394146
0000b0 f7 ce c3 bc 2b b3 9a 3c c4 91 c5 3c 7d b9 29 3d
       -0.0239024 0.018884262 0.024117358 0.04143666
0000c0 8f f9 c3 3c 73 cd 62 3c 69 c8 a9 3c 7f e8 7c 3d
       0.02392271 0.013842928 0.020725446 0.061745163
0000d0 1d 2f 91 3c 05 6e 16 3c 8d f9 52 3b 92 64 9b bb
       0.01772266 0.009181504 0.00321922 -0.0047422135
0000e0 af c9 86 3c b2 cc f3 3b 63 ea d7 3a b0 78 cc bc
       0.016453592 0.007440173 0.0016473051 -0.024959892
0000f0 20 fd 9a 3c a8 1c cb 3c 33 0c b6 b9 e4 b6 20 3d
       0.018919528 0.024793938 -0.00034722834 0.039236918
000100 4a 1a c0 bc 0f d5 ae bd d9 dd 7e 3d 6f 46 54 3d
       -0.023450036 -0.085367315 0.06222329 0.051824983
000110 05 85 59 bd b3 d6 10 bd b0 59 2e 3d 38 ba 81 3d
       -0.053105373 -0.035361003 0.042566 0.063343465
000120 b5 de e9 3c 3c 00 28 3d f4 73 54 bd ae 92 f3 bb
       0.028548578 0.04101585 -0.051868394 -0.007433257
000130 55 be 2c 3d df f2 41 3d dc 6a 37 3d 4d 7a a5 3d
       0.042173702 0.04735076 0.044779643 0.08079968
000140 2b 52 3d 3d b3 34 4f 3d 48 5e 65 3d 56 74 02 3d
       0.04622094 0.050587367 0.055998117 0.031849228
000150 62 70 45 bd b4 cd 00 3d ef 6b f6 bc ed be d0 3b
       -0.04820288 0.031446174 -0.030080764 0.0063704164
000160 ba 81 9e 3c f6 f9 db bc d3 d0 04 bd 50 13 45 3c
       0.019348968 -0.02685259 -0.032425713 0.01202853
000170 9d 0e 09 3d 72 2d 66 3d 81 63 01 bd d5 73 8e 3d
       0.033461202 0.056195684 -0.031589035 0.06955687
000180 fc 31 f5 bc 14 05 19 3c ca 26 94 3c e9 50 60 3c
       -0.029931061 0.00933959 0.018084902 0.0136911655
000190 94 2f a0 3b 64 31 d3 3b d8 6f ea 3b d0 bb ec 3b
       0.0048884843 0.006445097 0.007154446 0.0072245374
0001a0 e2 0e 44 3b 6d bc 2c bb cb e6 c1 3b 7f 6f fb bc
       0.0029916097 -0.0026357428 0.0059174052 -0.030692814
0001b0 7b ce 14 bd bb aa 3d 3c 74 b0 73 3c 86 52 8c 3c
       -0.036329728 0.01157635 0.014873613 0.017129194
0001c0 ed 2e 54 3c 81 9c b3 3b 62 da 2f 3c 6c ab 33 3c
       0.012950641 0.005481303 0.010733219 0.010966163
0001d0 41 27 0c 3c 03 83 e6 ba 9e 55 17 bb ec 71 42 bc
       0.008554281 -0.0017586652 -0.0023091803 -0.011867981
0001e0 bb f8 fa bb 9b da cf b9 78 2b cc bb 3e ec f7 bc
       -0.0076590455 -0.0003964499 -0.006230768 -0.030264016
0001f0 d1 89 3c 3c da e4 62 3c 21 1b f8 b8 ef 62 87 3c
       0.011507467 0.013848508 -0.00011830615 0.016526667

bias_hh_l0 f4 [128]
000000 6c a5 e9 bc 3d 22 52 3d 1e 2e 1b 3d 30 82 e2 3c
       -0.028521262 0.051302183 0.037885778 0.027649969
000010 00 88 9c 3c ce d9 41 3c 76 0f 34 3c e1 c8 90 3c
       0.019107819 0.011831714 0.010990014 0.017673912
000020 4c 97 0d 3c 6f b2 06 3b 88 3e c7 3c 06 b3 ef bc
       0.008642029 0.0020553132 0.02432181 -0.02926017
000030 0c 06 14 bd 5f 79 97 3c 69 9e c8 3c 9b 94 38 3d
       -0.03613858 0.018490491 0.024489598 0.045063596
000040 ab 94 9e 3c 3f e8 6c 3c e8 3c a9 3c c3 28 48 3c
       0.019358 0.014459669 0.020658925 0.01221675
000050 3f 71 5e 3c a9 f9 05 3c d4 3d 16 3a cc d1 2f bc
       0.013576805 0.008177199 0.0005731259 -0.010731172
000060 6b e2 e2 bb 35 35 de 39 05 55 5b 3a 81 c2 ed bc
       -0.006923964 0.00042382782 0.0008366856 -0.02902341
000070 47 47 3e 3c 5d 7e b9 3c 9f 82 ee 3a 5a 42 36 3d
       0.0116136735 0.022643263 0.0018196887 0.04449687
000080 85 51 64 bc c8 8c 13 3d 37 8a 19 3d 32 cb d7 3c
       -0.013935451 0.03602293 0.037485328 0.026342008
000090 e5 e5 9d 3c be 97 77 3c 03 dc 6f 3c ec e6 79 3c
       0.019274661 0.015111862 0.014639857 0.01525281
0000a0 9e 3c 5e 3c c4 09 a8 3b 7e b9 a7 3c a0 11 a7 bc
       0.013564257 0.0051281173 0.020474192 -0.020394146
0000b0 f7 ce c3 bc 2b b3 9a 3c c4 91 c5 3c 7d b9 29 3d
       -0.0239024 0.018884262 0.024117358 0.04143666
0000c0 8f f9 c3 3c 73 cd 62 3c 69 c8 a9 3c 7f e8 7c 3d
       0.02392271 0.013842928 0.020725446 0.061745163
0000d0 1d 2f 91 3c 05 6e 16 3c 8d f9 52 3b 92 64 9b bb
       0.01772266 0.009181504 0.00321922 -0.0047422135
0000e0 af c9 86 3c b2 cc f3 3b 63 ea d7 3a b0 78 cc bc
       0.016453592 0.007440173 0.0016473051 -0.024959892
0000f0 20 fd 9a 3c a8 1c cb 3c 33 0c b6 b9 e4 b6 20 3d
       0.018919528 0.024793938 -0.00034722834 0.039236918
000100 4a 1a c0 bc 0f d5 ae bd d9 dd 7e 3d 6f 46 54 3d
       -0.023450036 -0.085367315 0.06222329 0.051824983
000110 05 85 59 bd b3 d6 10 bd b0 59 2e 3d 38 ba 81 3d
       -0.053105373 -0.035361003 0.042566 0.063343465
000120 b5 de e9 3c 3c 00 28 3d f4 73 54 bd ae 92 f3 bb
       0.028548578 0.04101585 -0.051868394 -0.007433257
000130 55 be 2c 3d df f2 41 3d dc 6a 37 3d 4d 7a a5 3d
       0.042173702 0.04735076 0.044779643 0.08079968
000140 2b 52 3d 3d b3 34 4f 3d 48 5e 65 3d 56 74 02 3d
       0.04622094 0.050587367 0.055998117 0.031849228
000150 62 70 45 bd b4 cd 00 3d ef 6b f6 bc ed be d0 3b
       -0.04820288 0.031446174 -0.030080764 0.0063704164
000160 ba 81 9e 3c f6 f9 db bc d3 d0 04 bd 50 13 45 3c
       0.019348968 -0.02685259 -0.032425713 0.01202853
000170 9d 0e 09 3d 72 2d 66 3d 81 63 01 bd d5 73 8e 3d
       0.033461202 0.056195684 -0.031589035 0.06955687
000180 fc 31 f5 bc 14 05 19 3c ca 26 94 3c e9 50 60 3c
       -0.029931061 0.00933959 0.018084902 0.0136911655
000190 94 2f a0 3b 64 31 d3 3b d8 6f ea 3b d0 bb ec 3b
       0.0048884843 0.006445097 0.007154446 0.0072245374
0001a0 e2 0e 44 3b 6d bc 2c bb cb e6 c1 3b 7f 6f fb bc
       0.0029916097 -0.0026357428 0.0059174052 -0.030692814
0001b0 7b ce 14 bd bb aa 3d 3c 74 b0 73 3c 86 52 8c 3c
       -0.036329728 0.01157635 0.014873613 0.017129194
0001c0 ed 2e 54 3c 81 9c b3 3b 62 da 2f 3c 6c ab 33 3c
       0.012950641 0.005481303 0.010733219 0.010966163
0001d0 41 27 0c 3c 03 83 e6 ba 9e 55 17 bb ec 71 42 bc
       0.008554281 -0.0017586652 -0.0023091803 -0.011867981
0001e0 bb f8 fa bb 9b da cf b9 78 2b cc bb 3e ec f7 bc
       -0.0076590455 -0.0003964499 -0.006230768 -0.030264016
0001f0 d1 89 3c 3c da e4 62 3c 21 1b f8 b8 ef 62 87 3c
       0.011507467 0.013848508 -0.00011830615 0.016526667

weight f4 [32, 32]
000000 99 72 c7 bc 9c 13 38 3e e6 da 93 3e 80 fa ee 3d
       -0.024346637 0.1797623 0.28877944 0.11668873
000010 2e 76 6f 3e 5f 59 fd bd 61 25 ef bd 1f 06 10 3e
       0.23384926 -0.12370562 -0.11677051 0.14064835
000020 fd 36 9d 3e 21 e6 1d 3e 54 5b 9e bd 47 ef 7e be
       0.30706015 0.15419818 -0.07732263 -0.24895965
000030 1e 7c 9d be a8 3a e4 3d 04 ea 33 bd bc c7 14 3e
       -0.30758756 0.11144 -0.043924347 0.14529318
000040 be a3 b6 bd 92 66 94 bd 7b cd 5b 3d 40 10 7c 3d
       -0.0891795 -0.07246126 0.05366276 0.061538935
000050 f4 5d 3a 3e eb 4b da bd 8b 00 31 3e 13 7a 9b 3e
       0.18199903 -0.106590115 0.17285363 0.30366573
000060 43 43 9e bd 31 60 2f be 1e b8 9f be 2c 00 c6 bd
       -0.07727673 -0.17126538 -0.31195158 -0.096680015
000070 7d d5 52 be 05 35 3f be a5 13 11 be 28 d8 76 3e
       -0.20589252 -0.18672569 -0.1416765 0.24105895
000080 56 0b 3d 3d 94 44 cb 3d 06 49 93 3e 2c 6c 88 3e
       0.04615339 0.099251896 0.2876665 0.2664503
000090 07 b9 db bd 2c e4 02 3d f3 58 4c 3e 7c bd 91 3e
       -0.107286505 0.031955883 0.19955806 0.28464878
0000a0 e9 8c 64 3e 63 ff 00 bc fa 46 7c be 79 09 5a be
       0.22319378 -0.007873389 -0.2463645 -0.21292676
0000b0 1f 6e 06 3d 8b 91 92 3e 9f 62 06 3e 02 64 f2 bd
       0.032819863 0.28626665 0.13123558 -0.11835481
0000c0 09 8e d3 bd dc a5 f3 bd d1 5f 9a 3e cf eb 34 3d
       -0.103298254 -0.118968695 0.30151227 0.044170197
0000d0 70 20 de bd aa e3 8f 3e 4e 09 6b 3e e3 08 91 bd
       -0.10846031 0.2810338 0.22952768 -0.07081773
0000e0 0c 27 04 3e 63 9d 25 3e 63 86 02 3e b2 e9 0f be
       0.1290552 0.1617332 0.12746577 -0.14053991
0000f0 1f 6c ae 3d 20 8d 89 be b0 ac 6d be c5 b4 71 3d
       0.08516716 -0.26865482 -0.23210406 0.059010286
000100 10 86 6c be c2 43 29 be 90 8c 89 be 2b 3c 82 be
       -0.23098016 -0.16529754 -0.26865053 -0.2543653
000110 f3 40 4d bd cf b0 81 bd f8 be ec 3d 79 0e 3e 3e
       -0.05011077 -0.06332552 0.11559862 0.18560208
000120 aa 8f 6e 3e fb 5f 88 3e 56 14 ac bc 96 2b 45 3e
       0.23296991 0.26635727 -0.02100579 0.19254908
000130 14 21 d0 bd 51 59 a0 bd bb 8d 84 bd a3 95 18 be
       -0.10162559 -0.07829536 -0.064723454 -0.14900832
000140 e8 58 1b 3e 24 83 3e bc d4 0a 31 3e d8 b1 4e 3e
       0.15170634 -0.011627946 0.17289287 0.2018503
000150 d1 36 03 be 41 88 a5 be 67 e8 e8 bd ac b0 44 be
       -0.1281388 -0.32330516 -0.11372452 -0.1920802
000160 20 02 82 3c fe 16 af 3d 95 2f 60 be ee f1 cc 3d
       0.015870154 0.08549307 -0.21893151 0.10007082
000170 f1 1d 42 be 34 17 51 3d 2e e7 49 be 33 cb bc bd
       -0.18956734 0.05104752 -0.19717094 -0.09218445
000180 10 c6 fa bd b3 bf d6 3c 5f c3 36 3c 28 3f 13 3e
       -0.12244809 0.026214456 0.011154979 0.14379561
000190 c0 b8 4c bd b2 76 91 3e 21 bf 0c 3e 0b b5 61 be
       -0.04998088 0.2841087 0.13744785 -0.22041719
0001a0 72 13 84 be f1 e6 20 be 85 7e be 3d bf 23 eb bd
       -0.25796086 -0.15713097 0.093014754 -0.114814274
0001b0 ed 31 05 bd b4 39 2b be 5b 30 2f bc 97 cb ee 3c
       -0.032518316 -0.16721231 -0.010692681 0.029149814
0001c0 82 ac 89 3e b1 16 4d be 31 ad 6c be 50 9d e7 3c
       0.26889426 -0.20028187 -0.23112942 0.028273255
0001d0 b0 65 f9 bd e7 cf 86 be 0f 6a 6a 3e 76 c7 94 3e
       -0.121775985 -0.26330492 0.2289202 0.29058427
0001e0 c8 bb b0 3d ac 38 0e be 70 c5 67 3e c4 a2 4e 3e
       0.086295664 -0.13888806 0.2263391 0.20179278
0001f0 f6 ca 59 be 60 04 8c 3e 70 5c 0f 3e d2 69 5a be
       -0.2126883 0.27347088 0.14000106 -0.2132943
000200 67 f0 16 be ae 3f 8f 3d b6 33 85 3c ac 6a 08 be
       -0.14740144 0.06994568 0.01626001 -0.13321942
000210 21 8c 1a bd 3c b9 52 be 14 5b 96 ba 87 6f 6f 3e
       -0.037731294 -0.20578474 -0.0011471235 0.23382388
000220 15 8e 02 3e 5e 90 ac 3c 13 be 9a be cf 52 f6 3c
       0.12749512 0.021064933 -0.3022314 0.030068783
000230 68 46 96 be 13 53 31 3e de 0c 95 3c d6 34 7d be
       -0.2935059 0.17316847 0.018194612 -0.24727187
000240 71 24 26 3e f1 fa 72 be 4f b8 88 be 75 d8 08 be
       0.16224839 -0.23728539 -0.26703116 -0.13363822
000250 c4 95 87 3e 2d db 7e 3e 36 7e 8b be cd b8 8b 3e
       0.2648145 0.24888296 -0.2724473 0.2728943
000260 e0 67 0c 3e 52 f5 87 be 0f 26 8f 3e e9 c8 8c 3e
       0.137115 -0.26554352 0.27958724 0.27497032
000270 c6 e3 93 3e 07 7e 1f be a9 ea bb be b9 5f 57 3e
       0.28884715 -0.1557542 -0.3670247 0.21032609
000280 da 69 28 3e 34 a3 9c 3e 19 df 64 be 74 5e 33 3e
       0.16446629 0.30593264 -0.2235073 0.175165
000290 09 7b 88 3d 43 be 36 3e bf 1b 80 be 60 ab 63 3e
       0.06664092 0.17846017 -0.2502117 0.22233343
0002a0 5f e8 2e 3e 68 26 13 bd 66 67 8c 3e 7d ca 9f bb
       0.1708083 -0.0359253 0.27422637 -0.0048764334
0002b0 33 f2 07 be 42 4c 8b 3e 7b 4a b3 3d 4f c2 7d be
       -0.13275985 0.27206618 0.087544404 -0.24781154
0002c0 42 01 94 3d 24 ab 17 bd d6 5f 2d be 8c fa a4 3d
       0.072268024 -0.037028447 -0.1693109 0.080556005
0002d0 e6 85 73 3d 50 7a f2 bd 70 67 fb 3d bd d4 71 be
       0.059453867 -0.118397355 0.122755885 -0.2361631
0002e0 53 3c f6 3a 7a 7b a7 bd 3b 5d dc bd 3a d2 4a be
       0.0018786289 -0.08177848 -0.1075997 -0.19806758
0002f0 16 ca 9b bb 66 3b 99 3e 6a ae c4 bd a4 e3 47 be
       -0.004754315 0.2992813 -0.09603579 -0.19520432
000300 25 cb de bd 63 79 86 be 01 45 aa 3d 47 83 27 bd
       -0.108785905 -0.26264486 0.08313943 -0.04089668
000310 d8 23 8e 3d a3 eb ea bd d3 6a c2 3d 63 1b f1 bd
       0.069404304 -0.114707254 0.09493031 -0.11772802
000320 08 0a e5 3d 27 39 3f be 55 1c ef bd db e9 23 be
       0.11183554 -0.18674146 -0.11675326 -0.16007178
000330 4c c6 8a be f2 c0 0a bd 29 a3 bb 3b 5b 77 02 be
       -0.27104414 -0.033875413 0.0057262373 -0.12740843
000340 06 b0 6e 3e 4e 4d 3a be 8c 6d 6d be 3e 54 63 3e
       0.23309335 -0.18193552 -0.2318632 0.22200105
000350 2e bb 8a be a4 06 54 3e 9f ee 90 3e f4 46 50 be
       -0.27095932 0.20705658 0.28307053 -0.20339566
000360 71 f2 5b 3e 73 2b 2c be 78 35 79 be 9f e6 1d be
       0.21479203 -0.1681345 -0.24336803 -0.15420006
000370 8f a6 b7 3d cb b2 8b be 9f 2c be 3d 8e af 4e be
       0.089673154 -0.27284846 0.092858545 -0.20184156
000380 69 3c de bd cf 1c 93 3d 40 44 0a bd f1 3f 42 3e
       -0.10851366 0.07183229 -0.033756495 0.18969704
000390 7d 31 06 be 73 b4 a8 bc d5 f3 07 be 90 8e e2 3d
       -0.13104816 -0.020593857 -0.13276608 0.11062348
0003a0 89 2c 69 bb f2 18 a2 bc 83 92 ce bd 7c df de bd
       -0.0035579524 -0.019787285 -0.10086539 -0.1088247
0003b0 17 d4 47 3e 63 b3 0f 3e 30 dd 9c be 13 29 08 3e
       0.195145 0.14033274 -0.30637503 0.13296919
0003c0 65 79 cf bd 58 e4 83 3e c5 7b 16 3e b2 31 f7 3d
       -0.10130576 0.2576015 0.14695652 0.120700255
0003d0 2b a1 41 bd 9f 19 3d be fc eb 0f be 43 c1 42 3e
       -0.047272842 -0.18466805 -0.14054865 0.19019036
0003e0 a8 6a 31 be b9 c7 90 3d 7e 98 ba ba b8 7b 64 3e
       -0.17325842 0.07069344 -0.001423612 0.2231282
0003f0 70 fe 06 be 27 8d ad 3d 9c 3d 89 3e 8c 84 4b be
       -0.13182998 0.08474188 0.26804817 -0.19874781

bias f4 [32]
000000 9b c0 7d b9 ca 81 3e 3d 2d ee 0f 3c 9b a5 bc bc
       -0.00024199711 0.046510495 0.008784813 -0.023028186
000010 53 a1 f3 bc 94 a8 01 bd e9 8f 08 3d f5 bf 40 3c
       -0.029740011 -0.03165491 0.03334037 0.011764516
000020 5f cf 9e bc 28 8a 4b bd b8 d5 a3 3b fc d7 23 3d
       -0.019385992 -0.049692303 0.0049998425 0.0400009
000030 54 d5 88 bc 41 15 8f bb 65 3c 16 3d 37 c0 ae bc
       -0.016703285 -0.0043665473 0.03667869 -0.02133189
000040 d6 88 7f 3d bb 50 fa bb 6f 07 ef bc 0a 3b 1a 3d
       0.062386356 -0.0076390184 -0.02917835 0.03765396
000050 93 52 08 bc fa 78 0d 3d cc 8b 15 3d 67 07 20 3d
       -0.0083204685 0.0345392 0.036510274 0.03906956
000060 34 72 3a bd 57 fc fb bc be 17 32 bd a4 88 39 bd
       -0.04551907 -0.030759973 -0.043479674 -0.045296326
000070 af f5 96 3c 61 80 4b bd f7 9b 2b bd fd d0 0c 3d
       0.018427698 -0.04968298 -0.041896787 0.034378994

weight f4 [64, 33]
000000 73 53 0a be 5e 40 30 3c d2 e3 03 3e 3b a2 9b 3c
       -0.13508396 0.010757534 0.12879875 0.018998256
000010 87 99 e6 bd e4 2c c3 bd 81 f1 2b 3c 17 4a 77 3d
       -0.11259752 -0.095300466 0.010494591 0.060373392
000020 98 81 5b 3d a1 62 db bd aa 73 29 3e b3 5a e7 bc
       0.053590387 -0.10712171 0.16548029 -0.028241491
000030 a9 78 2b bd e3 07 94 bd 95 b8 10 3e 05 c3 16 be
       -0.041863117 -0.07228067 0.14132912 -0.14722832
000040 61 6d dc bd 63 37 8b bd 64 84 c3 bd 1c e4 38 3d
       -0.1076305 -0.067976736 -0.09546736 0.045139417
000050 e5 53 0f be 2f 03 c9 3d 3b 26 37 3e a2 bc 52 3d
       -0.13996847 0.0981506 0.17885678 0.051449426
000060 9e d8 ea bd 6f 77 05 bd 00 ba 0f be 03 fa bb bd
       -0.11467098 -0.032584604 -0.14035797 -0.09178545
000070 f9 0b 92 3c 72 6d 5b bc e1 3d c6 bd 87 08 56 3d
       0.017827975 -0.013392793 -0.09679771 0.052254226
000080 ef 8d c3 3d cb e7 6f bd 13 85 2e bd ed 54 0f bc
       0.09548556 -0.058570664 -0.04260738 -0.008748275
000090 06 48 0d 3d 0a fe ba bd f8 aa 96 bb b0 ea 7d 3c
       0.034492515 -0.09130485 -0.004598018 0.015497848
0000a0 71 6a 56 bd ae c2 90 bd 1e 33 5b bd f2 76 e4 bd
       -0.052347604 -0.07068382 -0.053515546 -0.111554995
0000b0 a5 81 91 3c 52 4b a0 3d 3d b9 95 bd 65 d8 8f bd
       0.017762015 0.07826866 -0.07310722 -0.07023696
0000c0 23 f7 97 bd 93 5b 58 bd ab 78 03 be c4 f7 3a bd
       -0.074201845 -0.052821707 -0.12839 -0.045646444
0000d0 38 bf 9f bd 6e 76 e4 bb c5 f2 74 bc c3 2b 5a 3d
       -0.07800144 -0.0069721257 -0.014950459 0.05326439
0000e0 40 81 da 3b 53 d4 1c bd 6c 9d c9 3c e0 05 d4 bc
       0.00666824 -0.038288426 0.024611197 -0.025881708
0000f0 dc 1a c0 3d 8a 48 83 bc f4 85 e6 3c 4e d1 5e 3c
       0.09380123 -0.0160258 0.028140046 0.013599707
000100 f7 78 ec bb 46 36 51 3d 01 bb 16 bc 34 3c 11 bc
       -0.0072165686 0.05107715 -0.009199859 -0.008864451
000110 10 f0 bd bb e1 2d 84 3c a9 ea 03 bc 53 80 14 3c
       -0.00579644 0.016135158 -0.008051553 0.009063798
000120 6e 5c 0a bc 66 4f bc bb f7 a5 1d 3c 3f 05 c4 3b
       -0.0084448885 -0.0057467697 0.009622089 0.0059820707
000130 6e db 1c bc 16 a4 42 bc d8 b2 58 3c 26 34 23 bc
       -0.0095738005 -0.011879941 0.013226233 -0.009961164
000140 2e 14 37 3b b3 fd 74 3c f7 20 c4 3a da 7a 8d bc
       0.0027935612 0.014953065 0.0014963438 -0.017270494
000150 27 06 21 3c 62 72 6c bc 4f 1c 0b 3c bc 77 8f bc
       0.009828127 -0.014431568 0.008490636 -0.017513148
000160 8b ba 0b bc bf d6 00 bc 1d 7b 07 bc f1 8e ef 3b
       -0.008528362 -0.007863699 -0.008269099 0.007310741
000170 5c 4c 04 3c 94 5b a8 3b bd 91 0a bc ff 1c 0e 3c
       0.008074846 0.00513787 -0.008457598 0.008673905
000180 14 4d 0e 3c ea d7 f8 bb 1d a6 64 3b 44 e8 af bc
       0.008685369 -0.0075940983 0.003488905 -0.021473058
000190 b8 41 b4 bc 98 b7 9a 3a 9c a0 b5 3c c6 a2 7e bc
       -0.022003993 0.0011803983 0.022171311 -0.015541738
0001a0 75 86 b6 3c 07 94 44 3c 51 d8 a1 bc 57 ff 7d 3c
       0.022280911 0.011998183 -0.019756468 0.015502772
0001b0 13 a5 b4 3c d3 ad 9d bc e5 46 b9 bc 3e c4 b5 3c
       0.02205137 -0.019247925 -0.022616813 0.022188302
0001c0 7c 48 9a bc d6 26 b3 bc 64 f6 a4 3c 01 cc 49 bc
       -0.018833391 -0.021869104 0.02013702 -0.012316705
0001d0 91 69 b2 bc 19 4b 9d 3c f3 1a b1 bc 56 e4 11 3c
       -0.021778854 0.019200848 -0.021619296 0.008904537
0001e0 be 5f b7 bc df df af bc cc 56 a5 bc 5b c3 b5 3c
       -0.02238452 -0.021469055 -0.02018299 0.02218788
0001f0 1b 38 95 3c 87 1b ac 3c 13 e1 9b 3c 86 0e 95 bc
       0.01821523 0.02100922 0.019028222 -0.018195402
000200 b5 40 b5 3c 5c 7a a6 3c 82 22 89 bc 66 c5 cc bc
       0.022125581 0.020322017 -0.016740087 -0.02499647
000210 9e 43 c6 bc 26 bb f7 3b 23 ed c8 3d 6c 48 1c be
       -0.024202164 0.0075601516 0.09810855 -0.15262002
000220 79 2f b7 bd 13 4f 9b bc 40 2b d7 3d 05 9c 3a bd
       -0.089446016 -0.018958604 0.10506296 -0.045558948
000230 cf a9 f7 3d ae 12 6e 3d 1a cd a4 3d 46 f4 9c bd
       0.12092935 0.058123283 0.080469325 -0.07663779
000240 c7 a1 b2 3d 95 90 a4 3d e9 25 3a bd ab 8e fa bc
       0.08722263 0.08035389 -0.04544631 -0.030585608
000250 85 e3 27 bd 9b 79 d2 bc 9f 91 27 3e 36 98 d3 bc
       -0.040988464 -0.025692752 0.16364144 -0.025829416
000260 a7 8c 37 be 1c a1 5f bd b9 19 11 3e 6b 4a 31 be
       -0.17924748 -0.054597005 0.14169969 -0.17313544
000270 8c 28 2b be eb 26 20 3e 54 db a9 bd 51 68 a8 3d
       -0.16714686 0.15639846 -0.08293787 0.08223022
000280 ce 75 e2 bd 2e b7 08 be 9c 64 bf bd bb 21 d9 bc
       -0.11057626 -0.13351128 -0.093453616 -0.026505342
000290 63 fe 3b 3e 65 3f 40 9f 7d 42 1b a3 48 35 7b 97
       0.1835876 -4.071002e-20 -8.416646e-18 -8.1169725e-25
0002a0 71 b4 64 a4 a5 2d 20 1a 4a 51 97 a0 db b4 54 98
       -4.959246e-17 3.3124096e-23 -2.5634188e-19 -2.7491666e-24
0002b0 43 4e 37 1b ea fa 1f 1c 0a 01 a9 a4 b1 f2 99 1c
       1.5162693e-22 5.2932986e-22 -7.329383e-17 1.0187425e-21
0002c0 a7 96 bc ad 7f c0 34 2d 5c 23 a1 9c 63 12 59 ac
       -2.1440029e-11 1.0274558e-11 -1.0663226e-21 -3.0847761e-12
0002d0 92 fc 89 a1 22 c1 12 19 08 0c ca a6 f8 44 05 9d
       -9.350336e-19 7.587026e-24 -1.4019827e-15 -1.763806e-21
0002e0 f3 49 44 9f 87 50 03 1b 99 57 05 b0 b6 9f b4 21
       -4.1565784e-20 1.0862086e-22 -4.85096e-10 1.223955e-18
0002f0 cb 21 cc 1b ff f2 0f 2a 47 a9 49 1c 35 cb 62 9d
       3.3770807e-22 1.2785258e-13 6.6724107e-22 -3.0015907e-21
000300 6b 63 11 1c 68 7f 1a 9c 2b d6 12 2b 68 f5 57 9d
       4.810497e-22 -5.1118994e-22 5.216684e-13 -2.8581885e-21
000310 4b 8b ef 9c 1a 78 8e b1 bf fa 41 3e b6 c0 8c 3d
       -1.58517e-21 -4.146398e-09 0.18943308 0.06872694
000320 1e e4 54 3d 1d d8 4f bd 70 d5 22 3e 29 cd f2 3b
       0.051975362 -0.05074321 0.15901732 0.007409711
000330 13 f7 c3 3d f2 55 0e 3e 26 26 99 bd 76 f3 1f be
       0.0956861 0.13899973 -0.07477979 -0.15620217
000340 e6 e7 1b 3e e7 8f 03 3e c4 5c af bd 31 57 2e 3e
       0.15225181 0.12847863 -0.085626155 0.17025448
000350 90 fa 50 3b 6a 65 5a be e8 e6 19 be a6 98 5b 3e
       0.0031887628 -0.21327749 -0.1502949 0.2144495
000360 ef 2b 78 3c a6 41 a5 3d b6 09 93 bd e2 a1 33 3d
       0.015147193 0.08069162 -0.071795866 0.043855555
000370 17 ac 0d 3e fb a8 b4 3d 9c ba 92 3b f4 f6 53 be
       0.13835178 0.08821293 0.004477812 -0.20699674
000380 7b 49 4c be 8f d9 92 3c 1a 66 ab bc 33 b3 30 bc
       -0.19949906 0.017926006 -0.02092271 -0.010784912
000390 60 6c 05 3d a7 9b 82 3c 9d 3c 8b 3c 7d ed df bd
       0.032574058 0.015943361 0.016996676 -0.10933969
0003a0 c7 7b d7 ba 54 9e f1 bd 93 a4 ad 3c 20 d3 7d bd
       -0.0016440087 -0.11797777 0.02119664 -0.061968923
0003b0 e9 bf 06 3e c7 ad 3a be f1 63 2b bd d9 dc 95 bb
       0.13159145 -0.18230353 -0.04184336 -0.004573446
0003c0 45 68 42 be 0b 5c 63 3d 80 7b 25 3e 65 9a b3 bd
       -0.18985088 0.0555077 0.16160393 -0.08769683
0003d0 c1 10 2c bc 6b b5 87 bd 10 78 b1 3c 79 0d 11 3c
       -0.010502041 -0.066263996 0.021663696 0.00885331
0003e0 2a fa 86 3d 5d 75 01 3e 05 81 99 bd ca 5c c1 3d
       0.06590684 0.12642427 -0.07495312 0.09441526
0003f0 2e b6 04 3e b4 47 00 be bd f3 0b be 23 a9 3b bd
       0.12960121 -0.12527353 -0.13667198 -0.0458156

bias f4 [64]
000000 23 56 4b 3e 03 f8 3f bd fc eb 90 3a 79 ee c0 bc
       0.19857077 -0.04686738 0.0011056657 -0.023551213
000010 36 5f 79 bd de 15 b1 b6 10 08 e5 3d b3 c6 f7 3d
       -0.060881816 -5.2775567e-06 0.111831784 0.12098446
000020 8f 8c 0c 3d 82 b6 ff bc be 07 c6 3d 17 38 2a 3e
       0.034313735 -0.031214956 0.096694455 0.16622959
000030 64 6c c8 3d a4 61 fc 3d 67 03 e6 bd 50 99 35 bc
       0.09786299 0.12323311 -0.11231118 -0.011083916
000040 0e 69 20 3e 2d 2b 00 bc c2 ad 05 be 3e bc 00 ba
       0.15665075 -0.007822794 -0.13054565 -0.0004910863
000050 15 bf c7 bd 37 e6 37 3c 12 17 8b 3c 27 46 a2 bc
       -0.09753243 0.011224321 0.016978774 -0.019808842
000060 24 30 b2 3d 12 66 11 3e 9a 28 d0 bb 53 1d 3c 3c
       0.08700588 0.14199093 -0.0063524963 0.011481601
000070 c9 44 d8 bc 54 fd 13 3e 59 2e 7d bc 09 ef 20 3e
       -0.026399987 0.14452106 -0.015452945 0.15716185
000080 5f 36 9e 3d 3c 69 05 3e 97 ab b1 bc a1 6c 2e 3d
       0.07725214 0.13028425 -0.021688266 0.042584065
000090 35 67 9d bc 79 02 26 3e 94 95 31 3e 08 c1 2f 3e
       -0.019214252 0.1621188 0.17342216 0.1716348
0000a0 52 ca a1 bc fc b8 88 3c 9b 81 8c 3c f3 9f cf ba
       -0.019749794 0.01668977 0.017151644 -0.0015840515
0000b0 8e 62 d5 bb 92 78 ee bd 10 7b d5 3d 27 1d 9f b8
       -0.006511993 -0.11644091 0.10423863 -7.587141e-05
0000c0 72 04 14 3e 15 bf 10 bd 14 c6 5e bc 51 a0 35 3e
       0.14454821 -0.03533848 -0.01359703 0.17736937
0000d0 63 9e da bd 08 53 6e 3d f5 7b 0f 3e 29 5f 1c bd
       -0.10674741 0.058184654 0.1401213 -0.03817669
0000e0 90 66 bd bd 03 5e d2 bc fc 6d 1a 3d 01 50 af 3d
       -0.09248078 -0.025679594 0.037702546 0.085601814
0000f0 e9 55 ec b7 eb 4a 54 3d aa 2f 19 3e 73 6b 89 bb
       -2.8173397e-05 0.05182926 0.14959589 -0.004193717

weight f4 [64, 64]
000000 b4 8e 10 3b e6 6d 2f 3c 28 03 54 3a 07 4a 9d 3c
       0.0022057714 0.010707354 0.00080876285 0.019200338
000010 97 7d 98 3d 93 bc 88 1b ad 36 8c 3d c0 9d 70 bd
       0.07445829 2.2621176e-22 0.06846366 -0.058744192
000020 66 61 84 be f6 05 b5 3d 0c 71 00 bd a9 9d 9e 3d
       -0.2585556 0.088390276 -0.03135781 0.07744915
000030 fc 3c d1 3d b6 1a e2 bc d5 4b 77 bb 21 3a 49 3c
       0.1021671 -0.027600627 -0.0037734408 0.012281925
000040 2f bf f9 3d 3f b9 5d 3d 4e bc 4a bd f4 47 2a 9e
       0.121946685 0.054131743 -0.049495988 -9.014605e-21
000050 98 85 d1 bd 59 fb c2 3c 13 10 7d 3d f8 af 6c 3d
       -0.10230559 0.023801493 0.061782908 0.057785004
000060 33 b7 e1 3d 98 ca 93 bd 3e f4 18 21 68 62 86 3d
       0.110212706 -0.07216376 5.1822855e-19 0.06561738
000070 a1 05 ab bc 1a dc 07 3e 85 60 89 bc 6f f7 da bc
       -0.020876708 0.13267556 -0.016769657 -0.026729314
000080 07 a4 d8 bc 2f f0 18 bd 9b 62 a2 3c aa fb 8e bc
       -0.026445402 -0.037338432 0.01982241 -0.017453987
000090 1c 75 bd 3c ef 15 f9 3d 5f 9a ad bd 8a ef 65 3d
       0.023127131 0.121623866 -0.084767096 0.056136645
0000a0 87 c4 9c af b2 44 e5 3d bb 13 b2 3c 79 22 60 bb
       -2.8515876e-10 0.11194743 0.021737924 -0.0034200235
0000b0 d1 45 23 bd 25 e2 d1 bd 00 dc a2 bd 19 6e 05 80
       -0.039861504 -0.10248212 -0.07952118 -4.98673e-40
0000c0 8d 07 07 3e 91 39 09 3b 42 43 87 3c 72 59 a9 3d
       0.13186474 0.0020938853 0.016511563 0.082690135
0000d0 0b 1d c4 3c ce 39 ad 3b da 36 1c 3d 9c 76 84 3c
       0.02393963 0.005286432 0.038138248 0.016169839
0000e0 2f 05 0b bc 02 20 49 3c 8d 74 4c bd 0e 88 af 3c
       -0.008485123 0.012275698 -0.04991584 0.02142718
0000f0 fa c7 51 3b 75 8b bd bd 57 34 50 3a 65 42 ed 1b
       0.0032010064 -0.09255115 0.00079423696 3.9251267e-22
000100 62 08 bf 3c 6a 68 05 00 3e 92 05 00 5b 5d 05 80
       0.023319427 4.96634e-40 5.11639e-40 -4.92667e-40
000110 f9 53 0d 3c ba 78 05 80 2f 5c de 3c b9 72 f2 3c
       0.008625978 -5.02486e-40 0.027143566 0.02959572
000120 d9 97 75 3c 6e 21 b5 3c 26 bc b3 3c 67 81 bf 3c
       0.014989817 0.022110667 0.021940302 0.023377134
000130 46 58 ee 3c 0a c1 eb 3c 36 b8 ed 3c 7c 8d 05 00
       0.029094826 0.028778572 0.029018503 5.09933e-40
000140 fc 3f d4 3c 22 64 b7 3c 08 d9 ec 3c 20 88 05 00
       0.025909416 0.022386614 0.028912082 5.0801e-40
000150 0e 8d 05 80 26 34 eb 3c ae 12 fa 3c be c0 05 80
       -5.09778e-40 0.02871139 0.030526485 -5.2832e-40
000160 23 de ec 3c fc dd f1 3c 40 68 05 80 cd 5c b5 3c
       0.028914517 0.029524796 -4.96575e-40 0.022138977
000170 82 e4 05 80 fe b7 be 3c 96 73 05 80 96 4c ee 3c
       -5.4115e-40 0.023281094 -5.00642e-40 0.029089253
000180 c0 d7 f0 3c 61 0e b7 3c b2 d4 05 80 82 72 05 00
       0.029399753 0.022345724 -5.35478e-40 5.00255e-40
000190 b8 ba 05 80 6c 5d bd 3c ce f6 ef 3c 73 cb ee 3c
       -5.2616e-40 0.023115836 0.02929249 0.029149747
0001a0 38 5d 05 80 97 a3 af 3c 8b 91 05 80 2c d1 05 00
       -4.92618e-40 0.02144031 -5.11388e-40 5.34214e-40
0001b0 14 0e ee 3c 6c c8 bc 3c ac a4 ba 3c 21 73 05 00
       0.029059447 0.023044787 0.0227836 5.00478e-40
0001c0 b4 f6 f0 3c b2 cc 05 80 0f 5d 05 00 2b cf f1 3c
       0.029414512 -5.32608e-40 4.9256e-40 0.02951773
0001d0 40 a3 eb 3c ee 39 bd 3c f6 62 c3 3c 41 64 05 80
       0.028764367 0.023098912 0.0238509 -4.95142e-40
0001e0 59 75 05 80 c0 45 06 00 fc ca b9 3c 07 82 f1 3c
       -5.01274e-40 5.76035e-40 0.022679798 0.029480947
0001f0 6c 5a 05 80 1e e3 f2 3c 39 c2 f4 3c d6 e5 05 80
       -4.91615e-40 0.029649314 0.029877769 -5.41627e-40
000200 3b cb 9e 3d 91 7d b0 bc 6f 66 05 00 b1 5c 05 80
       0.07753607 -0.02154425 4.95924e-40 -4.92429e-40
000210 b1 8a df 3c d2 8c 05 80 72 89 a4 3d 37 e9 8b bd
       0.027287813 -5.09694e-40 0.08034028 -0.068315916
000220 fe 87 05 80 4b 8d ac bd c9 6f f6 3d ff a4 1e bd
       -5.07962e-40 -0.08425387 0.1203304 -0.03873157
000230 38 ca 51 3d e4 70 0c 3d a6 c6 06 80 f0 9b 05 80
       0.05121824 0.03428735 -6.22275e-40 -5.15117e-40
000240 0a a6 ab bd ec 02 e4 bd fc d4 4d bd 47 61 05 80
       -0.08381279 -0.1113337 -0.050251946 -4.94074e-40
000250 57 4d 8c bd db c7 6b 3c 37 46 62 bc fd 9a 8a bd
       -0.06850689 0.014390911 -0.013810686 -0.06767843
000260 79 ab 45 bd f3 da b3 3a 5f 6f 05 00 39 73 e0 bc
       -0.048259232 0.0013721868 4.9913e-40 -0.027398692
000270 2a 69 05 80 59 b3 41 bd 19 6c 05 80 84 57 6d bd
       -4.96903e-40 -0.04729018 -4.97956e-40 -0.05794479
000280 e9 22 6c 3d b9 83 8f 3d a2 70 05 80 bb 6f 0f bd
       0.05765048 0.07007546 -4.99583e-40 -0.035018664
000290 82 84 05 00 8f 28 f4 3d 4c 2c bf bd 8b 9e b8 bd
       5.06712e-40 0.119217984 -0.09334621 -0.09014615
0002a0 9c 58 05 00 07 9f 12 bd cb 5e 4a af e5 76 05 00
       4.90965e-40 -0.03579619 -1.840547e-10 5.01829e-40
0002b0 c6 87 05 80 ff 50 9b 3d 14 a1 61 bd 22 5e 05 80
       -5.07884e-40 0.07583808 -0.055085257 -4.92946e-40
0002c0 54 d8 c8 bd 46 74 05 00 a1 81 05 80 65 94 dd 3d
       -0.09806886 5.00889e-40 -5.0568e-40 0.1081932
0002d0 90 e9 87 3d d4 2e a2 3c dc 30 50 bd b6 9b b5 b1
       0.066363454 0.01979772 -0.050827846 -5.2854956e-09
0002e0 86 03 b1 bb ed 74 05 80 de 0e 19 bc 00 c7 8c bd
       -0.0054020314 -5.01123e-40 -0.0093419235 -0.06873894
0002f0 b9 74 05 80 f6 3c e2 bd 5d b6 3b 3c 28 5a 05 80
       -5.0105e-40 -0.110467836 0.011457053 -4.9152e-40
000300 aa e2 0d ba ce 2c 06 00 0f 20 06 80 98 59 05 80
       -0.0005412499 5.67086e-40 -5.62513e-40 -4.91318e-40
000310 86 12 63 36 8d 66 05 00 b0 b5 49 bc c2 5f 40 38
       3.3836418e-06 4.95966e-40 -0.012311384 4.586555e-05
000320 57 14 06 80 53 ac 05 b8 1e ef a4 b1 65 01 14 bc
       -5.5831e-40 -3.187016e-05 -4.8002127e-09 -0.009033536
000330 a0 ad 61 bb 7c d4 cd 3b 40 9e 05 80 7c 5e 05 00
       -0.0034435764 0.0062814336 -5.15947e-40 4.93072e-40
000340 f6 07 a7 b8 83 9a d0 b9 76 da dd 39 0e 73 05 00
       -7.9646634e-05 -0.00039787972 0.0004231517 5.00451e-40
000350 f1 ba 0c 2c 67 ee 6e 38 58 b5 db b8 2e 7f 05 00
       1.999897e-12 5.696565e-05 -0.00010476512 5.04801e-40
000360 19 60 32 ba 7e 66 bd b6 d7 62 05 80 c2 4c df ba
       -0.0006804481 -5.6445706e-06 -4.94635e-40 -0.0017036425
000370 70 fb 05 00 17 86 a6 3b 84 bb 05 80 b2 0f 5d 38
       5.49376e-40 0.0050819027 -5.26445e-40 5.2705123e-05
000380 bb f5 83 ba 1e 5d 05 00 4c 1a 06 00 cc 58 05 80
       -0.001006774 4.92582e-40 5.60447e-40 -4.91032e-40
000390 af 63 05 80 18 74 17 3c f3 0e c4 38 74 fb 40 bb
       -4.94937e-40 0.0092439875 9.348793e-05 -0.0029446753
0003a0 32 74 05 80 f0 5f 05 80 b8 9a 05 00 69 ab 06 00
       -5.0086e-40 -4.93593e-40 5.1468e-40 6.12503e-40
0003b0 fe 72 05 00 e7 b1 0c 3b 86 d6 74 bb c1 68 05 00
       5.00429e-40 0.0021468343 -0.0037359311 4.96756e-40
0003c0 f5 7f e3 b9 57 fa 05 80 cd 5c 05 80 c0 d4 b1 b9
       -0.0004339215 -5.48982e-40 -4.92468e-40 -0.00033918582
0003d0 f1 5d e8 a3 0a 39 0a ba dd 12 14 ba 47 5f 05 00
       -2.5193276e-17 -0.0005272782 -0.0005648563 4.93357e-40
0003e0 d4 88 05 00 74 68 05 00 16 40 c6 37 bb 9c 9f b7
       5.08262e-40 4.96648e-40 2.3633282e-05 -1.902726e-05
0003f0 ab 78 05 00 d2 88 81 39 34 77 37 33 65 6e 05 80
       5.02465e-40 0.00024706736 4.2716422e-08 -4.9878e-40

bias f4 [64]
000000 e3 b9 02 3e 8c cc ee 3c 20 62 e3 3c be 6d f3 ba
       0.12766223 0.02915027 0.02775675 -0.0018572134
000010 9e 5e f3 3c aa 34 2e ba 8d bc 31 3d 4f ad a9 3d
       0.029708203 -0.0006645421 0.043392707 0.08285009
000020 6e 52 78 3d 22 9f 40 bc ed b1 9d 3d fc 70 cd 3d
       0.060625486 -0.01175669 0.07699952 0.10031316
000030 48 42 62 3d 6b 41 79 bc 33 e4 d7 bb 18 a3 cc bd
       0.055238992 -0.015213351 -0.0065884828 -0.09992045
000040 a1 cf a1 bc 44 be ce bc 45 86 8c bd ca 9a c2 3d
       -0.019752325 -0.02523721 -0.068615474 0.0950218
000050 93 54 d8 3d b6 d2 89 bc e7 b5 49 3d db 0d 05 bc
       0.10563006 -0.016824108 0.04924574 -0.008120979
000060 ed c0 bb 3d 42 b6 fe bb 8b 45 96 3d c2 d5 31 bd
       0.09167657 -0.0077731917 0.07337483 -0.043416746
000070 ed 0e fd bd 65 bf 8f bb e7 d7 b7 bc cf e7 7f 3d
       -0.123563625 -0.0043868297 -0.022441817 0.06247693
000080 71 11 1c 3e cb 1c dd bd dd 54 96 bd cc 29 0c 3e
       0.15241028 -0.107965074 -0.07340405 0.13687819
000090 45 6d 3f bc bc 37 2e 3d 75 0d ce 3d 15 62 5c 3d
       -0.011683767 0.04253362 0.100611605 0.053804476
0000a0 71 5d 28 3e 45 bd d5 bc 49 a7 c2 bd f4 67 c9 bd
       0.16441895 -0.026091227 -0.09504563 -0.098342806
0000b0 e3 2c 85 3d cd 71 b5 3d 21 4d c4 bd 35 4c 50 bd
       0.06502702 0.088595964 -0.09585024 -0.050853927
0000c0 51 53 00 3d 6b b1 d6 bc e0 90 b2 3d 26 61 aa bd
       0.031329457 -0.026207646 0.08719039 -0.08319311
0000d0 29 90 70 3d df 42 e6 bd ce b6 c3 3d de 58 46 bc
       0.05873123 -0.112432234 0.095563516 -0.0121061485
0000e0 6e 9f 55 bb 9c e8 ae ae 7e cb 38 bd ac b1 a4 bd
       -0.0032596248 -7.9539236e-11 -0.04511594 -0.08041701
0000f0 c8 9a 4a bc 53 da e3 bd 71 23 9a 3c 26 6e 28 3e
       -0.012366004 -0.111256264 0.018815728 0.16448268

weight f4 [1, 64]
000000 27 1e f1 3d bb 00 f3 3c c9 c0 cf 3d c4 42 a8 b7
       0.11773329 0.029663434 0.10144193 -2.005825e-05
000010 02 7d a9 bd fa 0b 8f 39 55 e4 01 3e d0 73 a3 bb
       -0.082757965 0.0002728401 0.12684758 -0.004988171
000020 2d c8 e6 3d 1b 0e bf 3a 3f 57 ba b9 63 bf a7 bd
       0.11268649 0.0014576347 -0.00035541688 -0.08190801
000030 89 8a 27 3b 82 5a 7a bc 02 41 17 3c f1 42 45 bd
       0.002556475 -0.015280368 0.009231808 -0.048159543
000040 6f 00 a8 3c fc 06 80 b7 ae fc 0e bc e6 ae 59 3d
       0.02050802 -1.5262041e-05 -0.008727236 0.05314531
000050 71 50 94 3d 13 1d 3a bc 4d fd bb 3d ad 8f 7d bc
       0.072419055 -0.011359471 0.09179173 -0.0154761495
000060 f3 4d f0 3d e1 57 15 3c e8 2e 48 3d 12 cd c0 3b
       0.11733618 0.00911519 0.04887286 0.0058838213
000070 f5 83 72 bd 3d c5 b8 8a ce cb 37 3d 05 94 6d 3d
       -0.059207875 -1.7792748e-32 0.044872098 0.05800249
000080 b6 32 cd 3d 8e d5 51 bd 4a a3 ff bb 5f 03 ad 3d
       0.10019438 -0.051229052 -0.007801448 0.084479086
000090 6c 8d 80 3c f6 8c 4a 3d dd 4b a8 3d 77 f7 d7 3a
       0.015692435 0.049450837 0.08217595 0.0016476949
0000a0 46 bd 03 3e 0f 58 02 3c 18 80 e2 bd 05 c0 6e 3d
       0.12865171 0.007955565 -0.11059588 0.058288593
0000b0 af f6 86 3d b8 d4 b8 3d d2 6e ab bb d1 b4 de 3c
       0.0659002 0.09024948 -0.0052317167 0.02718583
0000c0 d7 b6 a6 bd 74 fb f2 3b 6a 0b d0 bc c8 59 97 39
       -0.08140343 0.0074152295 -0.025396068 0.00028867857
0000d0 58 89 54 3d 2d 48 42 bd be f1 e7 bc f3 83 ef 3b
       0.051888794 -0.047432113 -0.028313514 0.0073094307
0000e0 ac f0 64 3b 2e 67 05 00 25 6d 3e bb d5 2f c7 bc
       0.003493349 4.96191e-40 -0.0029056754 -0.0243148
0000f0 7c 23 a9 b8 25 a4 e2 bd 95 37 f9 3c 07 4a 09 3e
       -8.0651575e-05 -0.11066464 0.030422011 0.13407145
