CNP-model-save-name/saved_models/model_18000.pth.pth.tar (torch, 544340 bytes, 26 tensors)

_deterministic_encoder.linear_layers_list.0.weight f4 [128, 2]
-0.017053016 -0.02885744 0.58689326 0.50759494 -0.15724 0.0584412 -0.32346654 0.6289082
-0.02043578 -0.019690188 -0.59607226 0.2637592 -0.0012074349 -0.020719146 0.34301934 -0.038045
-0.022626892 -0.024952527 -0.020281592 -0.024540452 -0.046434626 0.3368105 -0.031098187 -0.031671297
-0.027732678 -0.030282855 0.4172556 -0.09947594 0.28768015 -0.058875274 0.6639198 0.4588771
-0.35529712 -0.00026971998 -0.02017623 -0.031794664 -0.026857654 -0.033500254 -0.01198465 -0.01408111
0.098603144 0.664019 -0.58114934 0.31176117 -1.1402423e-18 -2.06499e-18 -0.16634443 0.53197104
4.92499e-40 -1.6461199e-08 -0.29847154 0.0054614563 -0.123342 0.1894399 0.11856878 -0.04369181
6.9515112e-28 -1.7173626e-06 2.0173916e-06 -0.007383611 -0.025414653 -0.0285983 0.3983467 0.2420376
-0.022865582 -0.033785857 -0.019495444 -0.029636653 -0.24094898 0.01655561 -0.0023065698 -0.021820989
-0.00074818596 -0.0128147025 -0.5941646 0.25069878 -0.0033248754 -0.0039416766 -0.90418226 0.18883476
0.093162 0.24628475 -0.13380368 0.6374129 0.35497922 0.114453025 0.0021167921 -0.0028778668
-0.024352383 -0.026224405 -0.049280144 -0.019706069 -0.44777757 0.030578816 -4.90766e-40 -3.3074898e-09
0.27308655 0.4913679 0.10906841 0.20471556 0.35090545 0.6615729 -0.6377128 0.2963599
-0.013729104 -0.024841536 -0.40887317 0.49662232 -0.018214632 -0.030931957 -0.18080361 0.34222427
-0.3595708 0.590744 0.14849153 -0.030369636 -0.015613787 -0.02120269 0.5819339 -0.05852036
-0.02934413 -0.029680219 0.11202232 0.65570617 0.25897273 -0.052760407 3.166761e-26 -1.8645999e-06
0.28988975 0.6691696 -0.025536789 -0.025177583 -0.00021581745 1.1776878e-05 -0.021956528 -0.027896684
-0.5347837 0.03520305 -0.41300297 0.24189347 -9.2805415e-23 -8.629574e-05 4.90977e-40 -2.1429972e-16
-0.6745951 0.45197153 -4.4289474e-05 -0.012612717 -0.29891056 0.27619815 -0.5163361 0.104066536
-0.017071113 -0.016697463 -0.21210688 -0.012045654 -0.018779628 -0.022211138 -0.40684903 0.18763866
-0.00028776508 -0.0003128597 0.29266685 -0.064451896 -0.00016171839 -2.8648807e-05 -0.4361334 0.4060221
-0.00012538527 -0.01488094 -0.024148189 -0.02847533 -0.31422183 0.011932377 -0.01024551 -0.016751794
-0.5411152 0.31564137 0.18429849 -0.038384527 -0.52597725 0.035788175 -0.7448093 0.040622707
-0.12029442 0.5461229 0.4996928 0.49919105 -0.2665216 0.2784507 -0.29933736 0.28335336
-0.020761317 -0.019091202 -0.24941924 0.3741464 -0.007167421 -0.007872991 0.16133264 0.35548186
-0.029522007 0.45793635 -0.030260008 -0.03145963 0.016434135 0.70709014 -0.018824173 -0.020616455
-0.395067 0.5432596 -0.02498878 -0.032848217 0.25764015 0.10868221 0.03723125 0.57764536
0.35011423 -0.041351598 -0.01987561 -0.02254229 -0.1480955 0.41485298 -2.3847004e-36 -8.975517e-08
2.572157e-12 -0.00046794742 -6.983104e-11 -0.0035726265 -0.66061044 0.09194494 0.0007136766 -0.00015914888
4.90949e-40 -1.6275114e-17 -0.5897259 0.5213326 0.34944367 -0.072686374 -0.00733858 -0.021535795
0.07427453 -0.015466742 0.33856812 0.22064795 2.9165314e-16 -2.9162984e-16 -0.012515292 -0.029509317
-0.0141478805 -0.015311814 4.91965e-40 -9.300101e-07 -0.0010924783 -0.005855157 -0.22645378 0.34952304
00000000: c4b2 8bbc 7066 ecbc a33e 163f bef1 013f
00000010: 8603 21be 0a60 6f3d 689d a5be 2100 213f
00000020: f068 a7bc 514d a1bc 3198 18bf 720b 873e
00000030: cb42 9eba 33bb a9bc 3ba0 af3e 13d5 1bbd
00000040: 085c b9bc 3e69 ccbc 9525 a6bc 0f09 c9bc
00000050: 3c32 3ebd 6d72 ac3e a0c1 febc c3b9 01bd
00000060: a42f e3bc c013 f8bc 87a2 d53e 0bba cbbd
00000070: d04a 933e 3327 71bd a6f6 293f f0f1 ea3e
00000080: 81e9 b5be 3469 8db9 9f48 a5bc 1f3b 02bd
00000090: 9504 dcbc 9037 09bd 445b 44bc 75b4 66bc
000000a0: 72f0 c93d 26fd 293f 34c6 14bf 299f 9f3e
000000b0: 2345 a8a1 8f5e 18a2 3256 2abe 412f 083f
000000c0: e35c 0500 8f66 8db2 43d1 98be 04f6 b23b
000000d0: bb9a fcbd 88fc 413e 30d4 f23d 2ff6 32bd
000000e0: 5c4d 5c12 2180 e6b5 8662 0736 38f2 f1bb
000000f0: 6432 d0bc fb46 eabc 19f4 cb3e b4d8 773e
00000100: 9a50 bbbc 0a63 0abd e9b4 9fbc 91c8 f2bc
00000110: 54bb 76be a19f 873c d229 17bb eec1 b2bc
00000120: e921 44ba c2f4 51bc 2c1b 18bf 975b 803e
00000130: 27e6 59bb 2e29 81bb 7d78 67bf e65d 413e
00000140: b8cb be3d 1232 7c3e d503 09be 7e2d 233f
00000150: d6bf b53e 5966 ea3d e1b9 0a3b 989a 3cbb
00000160: a67e c7bc 90d4 d6bc fad9 49bd 9f6e a1bc
00000170: 1a43 e5be 6d80 fa3c 0e58 0580 fa49 63b1
00000180: 00d2 8b3e 9394 fb3e 425f df3d f5a0 513e
00000190: e1a9 b33e d75c 293f 2541 23bf 7cbc 973e
000001a0: 09f0 60bc 7a80 cbbc d357 d1be 4845 fe3e
000001b0: da36 95bc 0465 fdbc 9524 39be 0538 af3e
000001c0: aa19 b8be 003b 173f 2a0e 183e bec9 f8bc
000001d0: f8d0 7fbc 44b1 adbc 9ff9 143f 0cb3 6fbd
000001e0: 1a63 f0bc ee23 f3bc f56b e53d 5cdc 273f
000001f0: 1398 843e 4c1b 58bd 77cf 1c15 2a43 fab5
00000200: 6e6c 943e b34e 2b3f 8732 d1bc 3841 cebc
00000210: 0e4d 62b9 4e95 4537 2dde b3bc 9687 e4bc
00000220: 96e7 08bf 1331 103d 2075 d3be ecb2 773e
00000230: c563 e09a acf9 b4b8 a558 0500 1d12 77a5
00000240: 44b2 2cbf d068 e73e 76c3 39b8 92a5 4ebc
00000250: ce0a 99be d869 8d3e 9a2e 04bf d620 d53d
00000260: b8d8 8bbc 1ec9 88bc 8c32 59be 225b 45bc
00000270: bcd7 99bc 22f4 b5bc 844e d0be 5924 403e
00000280: 2ddf 96b9 5107 a4b9 6ed8 953e 5bff 83bd
00000290: f392 29b9 d852 f0b7 e14c dfbe 21e2 cf3e
000002a0: da79 03b9 30cf 73bc 6cd2 c5bc 1845 e9bc
000002b0: afe1 a0be 0480 433c c9dc 27bc 0f3b 89bc
000002c0: 8786 0abf bf9b a13e beb8 3c3e 1839 1dbd
000002d0: 72a6 06bf 9f96 123d d3ab 3ebf ff63 263d
000002e0: ec5c f6bd b6ce 0b3f bcd7 ff3e f895 ff3e
000002f0: 8575 88be 1791 8e3e bf42 99be b113 913e
00000300: a313 aabc 2765 9cbc c267 7fbe 1e90 bf3e
00000310: afdc eabb b8fd 00bc 6234 253e b801 b63e
00000320: 23d8 f1bc a276 ea3e d6e3 f7bc d0db 00bd
00000330: e1a0 863c dc03 353f 2735 9abc d7e3 a8bc
00000340: 3946 cabe 1013 0b3f 45b5 ccbc da8b 06bd
00000350: 69e9 833e c794 de3d cc7f 183d 91e0 133f
00000360: 2c42 b33e 4b60 29bd 2dd2 a2bc 9caa b8bc
00000370: 59a6 17be 9c67 d43e 2dde 4a84 6dbf c0b3
00000380: dcff 342c d756 f5b9 618f 99ae ba22 6abb
00000390: c41d 29bf a14d bc3d 0716 3b3a 34e1 26b9
000003a0: 9158 0500 871c 96a3 47f8 16bf 0e76 053f
000003b0: 48ea b23e 98dc 94bd 7978 f0bb d66b b0bc
000003c0: 3f1d 983d 3868 7dbc cd58 ad3e 89f1 613e
000003d0: 6820 a825 f81c a8a5 f00c 4dbc 86bd f1bc
000003e0: 83cc 67bc 67de 7abc 665b 0500 cfa5 79b5
000003f0: 7d31 8fba 9edc bfbb 80e3 67be aff4 b23e

_deterministic_encoder.linear_layers_list.0.bias f4 [128]
4.91616e-40 -0.1140141 -0.49763104 -0.37403044 -0.021594703 0.28535962 4.94883e-40 0.001759169
-1.050387e-24 4.52575e-39 -0.6208476 -0.00014742835 -4.3684845e-22 -4.9285e-40 0.28317878 0.58594984
-0.019441105 4.94542e-40 4.94357e-40 -4.93485e-40 -0.68540454 -0.6371506 -1.3371996e-20 -0.15141897
-4.97951e-40 -1.2643421e-08 -0.2762997 4.91419e-40 4.94221e-40 4.94877e-40 -1.1068516e-25 -0.5061282
4.92451e-40 -5.2842365e-19 -0.25306988 4.9475e-40 -4.94061e-40 -0.3927344 -5.333522e-07 -0.69715494
0.25643802 0.35009527 -0.6628073 3.6183803e-35 -6.5542097e-15 -5.00877e-40 0.100254245 -4.9262e-40
-0.12089797 -0.7418805 0.62978977 -0.16295835 4.92551e-40 -0.25753117 4.92608e-40 -0.6868034
-0.4579565 -0.019705938 4.9452e-40 0.3086989 -0.00050325535 -0.18774988 -0.20260431 4.94255e-40
-0.26011652 -0.0029190567 -1.9080244e-06 4.9405e-40 0.005205954 0.3239047 4.90623e-40 4.9541e-40
-0.3993443 4.91661e-40 0.49596575 0.15175135 -5.133649e-08 -0.021348143 4.90952e-40 -0.7001545
-2.2885673e-05 1.9161346e-20 -2.2093034e-11 -0.695662 4.92352e-40 4.94839e-40 4.9369e-40 -4.9354e-40
0.14393464 0.000737981 0.16442733 -0.0047974815 -0.53031206 -0.66939795 0.48997903 -0.052432727
-0.0014776073 -0.22782347 -1.0912289e-09 -0.18164459 0.41164303 -1.1614184e-10 -0.5563477 -2.429239e-13
0.25617802 4.9099e-40 0.21545228 0.40846092 -0.3122966 4.0445622e-36 -0.36284894 -4.93309e-40
4.93997e-40 4.93228e-40 -0.7627993 -0.00011377965 4.93871e-40 -0.47888416 2.7432492e-07 4.94777e-40
4.722857e-06 -0.12981588 -3.3239347e-18 4.90938e-40 -3.948455e-15 6.15183e-40 -4.92656e-40 0.4732562
00000000: 6d5a 0500 3980 e9bd 7fc9 febe eb80 bfbe
00000010: 60e7 b0bc a81a 923e 8863 0500 eb93 e63a
00000020: 1e8a a297 f347 3100 deef 1ebf ff96 1ab9
00000030: 8307 049c de5d 0580 cffc 903e cf00 163f
00000040: f442 9fbc 9562 0500 1162 0500 a35f 0580
00000050: ac76 2fbf 4d1c 23bf 0197 7c9e 930d 1bbe
00000060: 166c 0580 5b36 59b2 2777 8dbe e059 0500
00000070: b061 0500 8463 0500 8705 0996 9e91 01bf
00000080: c15c 0500 90f6 1ba1 6092 81be 2963 0500
00000090: 3e61 0580 7c14 c9be af2b 0fb5 bf78 32bf
000000a0: d84b 833e b03f b33e bdad 29bf d762 4006
000000b0: ea23 eca7 3e74 0580 1952 cd3d 395d 0580
000000c0: 5b99 f7bd e1eb 3dbf e739 213f 8ede 26be
000000d0: 085d 0500 20db 83be 315d 0500 59d2 2fbf
000000e0: 4679 eabe 596e a1bc 8562 0500 c80d 9e3e
000000f0: e5ec 03ba 8141 40be 8177 4fbe c861 0500
00000100: fe2d 85be a54d 3fbb 9c0b 00b6 3661 0500
00000110: b596 aa3b d6d6 a53e a857 0500 0065 0500
00000120: db76 ccbe 8d5a 0500 39ef fd3e b564 1b3e
00000130: 117d 5cb3 4de2 aebc 9358 0500 533d 33bf
00000140: 9cfa bfb7 4bf9 b41e 1755 c2ad e816 32bf
00000150: 7a5c 0500 6963 0500 3560 0500 ca5f 0580
00000160: 9a63 133e 1175 413a a35f 283e 3134 9dbb
00000170: 88c2 07bf aa5d 2bbf 88de fa3e b3c3 56bd
00000180: 46ac c1ba 8e4a 69be 34fa 95b0 0a01 3abe
00000190: e0c2 d23e 0b66 ffae ce6c 0ebf 06c1 88aa
000001a0: c429 833e ae58 0500 869f 5c3e ca21 d13e
000001b0: 57e5 9fbe 6209 ac04 56c7 b9be 255f 0580
000001c0: 1061 0500 eb5e 0500 d146 43bf fc9c eeb8
000001d0: b660 0500 4e30 f5be ee46 9334 3d63 0500
000001e0: 0879 9e36 74ee 04be 5a43 75a2 8958 0500
000001f0: 1242 8ea7 e1b2 0600 535d 0580 a34e f23e

_deterministic_encoder.linear_layers_list.2.weight f4 [128, 128]
-5.09635e-40 -0.018810635 -0.00026705768 -0.018676383 5.09401e-40 -0.0078818 5.82511e-40 -2.2042072e-05
5.1245e-40 -5.06667e-40 -0.012945359 -5.02737e-40 5.64495e-40 4.9223e-40 -0.00016404306 -0.017678322
5.00544e-40 -5.04718e-40 -4.9345e-40 4.99196e-40 -0.01980014 -0.009498723 5.00091e-40 -0.017157478
5.06282e-40 4.90745e-40 -0.006422047 4.9503e-40 5.21544e-40 4.99264e-40 -4.9128e-40 -0.011514676
5.1304e-40 -4.93879e-40 -0.00049480365 6.0722e-40 -5.15536e-40 -0.0054340945 5.07137e-40 -0.0081246635
-0.010820806 -0.019138962 -0.0068298387 4.95488e-40 -4.95196e-40 -5.04009e-40 -0.0004652275 -4.9463e-40
-0.017400313 -0.009057719 -0.02027887 -0.009916674 -5.61027e-40 -0.017261943 -5.55954e-40 -0.013926153
-0.017660867 -1.0111624e-16 -4.93483e-40 -5.5722456e-05 -5.07126e-40 -0.019930812 -3.51154e-10 4.95695e-40
-0.020274298 -6.12743e-40 5.00823e-40 5.37353e-40 4.93686e-40 -0.0073471433 5.06513e-40 4.95188e-40
-0.013188785 5.20016e-40 -0.012331453 -0.0022831848 5.18375e-40 5.1163e-40 5.96124e-40 -0.004013971
5.23723e-40 4.93296e-40 5.50231e-40 -0.013136117 5.028e-40 5.20215e-40 -4.97028e-40 5.34211e-40
-0.008383677 4.92304e-40 -9.445241e-09 4.9355e-40 -0.017340608 -0.018074365 -0.0104434425 -0.009495377
5.00283e-40 -0.013158943 -5.43037e-40 -0.014895441 -0.015900334 -4.94253e-40 -0.020147962 -5.00932e-40
-0.016807592 5.7955e-40 -0.0045805643 -0.018512743 -0.0003944624 5.06065e-40 -0.014473755 4.92519e-40
-5.25854e-40 -5.88478e-40 -0.00034765102 -5.02305e-40 -5.26909e-40 -0.015719756 -4.92112e-40 -4.90693e-40
4.90613e-40 -0.011174677 5.21981e-40 -4.96037e-40 -4.9558e-40 -5.13298e-40 5.07717e-40 -0.014501336
-5.17871e-40 -0.031759027 -0.031686194 -0.031759027 -6.03573e-40 -0.03174737 -5.64206e-40 -0.031559713
4.96083e-40 5.16638e-40 -0.03175569 5.03852e-40 -5.0771e-40 4.92834e-40 4.9294e-40 -0.031758986
4.94616e-40 -5.3048e-40 5.08419e-40 4.98718e-40 -0.031759616 -0.03175108 -4.99648e-40 -0.03175894
-4.91594e-40 4.908e-40 -0.031746257 6.00853e-40 -5.64379e-40 -5.0782e-40 -4.90662e-40 -0.03175476
5.1371e-40 -5.24621e-40 5.13918e-40 5.86909e-40 5.22009e-40 -0.031745728 5.08841e-40 -0.031730827
-0.031752795 -0.03175909 -0.03174547 -6.013e-40 5.06575e-40 -4.94354e-40 5.02737e-40 -5.31131e-40
-0.031758957 -0.031750288 -0.03175998 -0.03174973 -5.90202e-40 -0.031758063 -4.96582e-40 -0.031755436
-0.031758964 -4.92853e-40 -5.77359e-40 -0.031643428 -5.92568e-40 -0.031759575 4.93505e-40 -4.93184e-40
-0.03175997 5.36463e-40 -4.98672e-40 -5.04609e-40 4.9047e-40 -0.031747423 -5.96177e-40 4.97546e-40
-0.0317563 -4.9935e-40 -0.031752065 -0.03169543 -4.99881e-40 -4.91445e-40 4.98422e-40 -0.03174017
6.2617e-40 4.91412e-40 -5.10119e-40 -0.03175604 5.03041e-40 -5.44983e-40 -4.91811e-40 5.73858e-40
-0.031751417 -4.91508e-40 4.91948e-40 -4.90914e-40 -0.031758957 -0.031758994 -0.031751923 -0.031751692
-5.33124e-40 -0.031755917 5.423e-40 -0.0317568 -0.031758144 5.20909e-40 -0.03175996 -4.98914e-40
-0.031758737 5.10186e-40 -0.031742413 -0.03175902 -0.03156417 -5.0597e-40 -0.031757057 5.01212e-40
-4.96679e-40 5.1434e-40 -0.031622615 4.90966e-40 -5.0864e-40 -0.031757914 -4.94685e-40 6.00888e-40
4.93404e-40 -0.03175333 4.9982e-40 6.24208e-40 -5.00425e-40 5.25973e-40 -4.93938e-40 -0.031755596
00000000: a88c 0580 c318 9abc e003 8cb9 37ff 98bc
00000010: 018c 0500 aa22 01bc ce57 0600 fde6 b8b7
00000020: 8194 0500 6284 0580 c518 54bc 6d79 0580
00000030: 9525 0600 235c 0500 f902 2cb9 21d2 90bc
00000040: 5073 0500 f37e 0580 8a5f 0580 8e6f 0500
00000050: e733 a2bc 88a0 1bbc 0d72 0500 d78d 8cbc
00000060: 4f83 0500 ff57 0500 0970 d2bb f163 0500
00000070: daad 0500 bf6f 0500 7d59 0580 0da8 3cbc
00000080: 2696 0500 bc60 0580 b6b5 01ba af9c 0600
00000090: 1b9d 0580 7d10 b2bb b185 0500 4f1d 05bc
000000a0: c049 31bc 50c9 9cbc d7cc dfbb 3865 0500
000000b0: 6864 0580 f97c 0580 c7e9 f3b9 d462 0580
000000c0: 1a8b 8ebc d466 14bc df1f a6bc 8c79 22bc
000000d0: ea1b 0680 eb68 8dbc c60d 0680 852a 64bc
000000e0: 86ad 90bc 7e28 e9a4 a15f 0580 88b7 69b8
000000f0: a985 0580 f145 a3bc 880c c1af cc65 0500
00000100: 4916 a6bc 14ac 0680 1774 0500 ecd9 0500
00000110: 3260 0500 4ec0 f0bb f483 0500 6264 0500
00000120: c615 58bc 98a9 0500 dd09 4abc 7ca1 15bb
00000130: 05a5 0500 3792 0500 c07d 0600 a187 83bb
00000140: edb3 0500 1c5f 0500 d2fd 0500 de38 57bc
00000150: 9a79 0500 26aa 0500 8369 0580 2ad1 0500
00000160: b15b 09bc 585c 0500 9c44 22b2 d15f 0500
00000170: e40d 8ebc b110 94bc f91a 2bbc 7f92 1bbc
00000180: 9672 0500 9b98 57bc c4e9 0580 020c 74bc
00000190: 6b41 82bc c761 0580 570d a5bc 6574 0580
000001a0: 13b0 89bc 8d4f 0600 8f18 96bb 09a8 97bc
000001b0: d9cf ceb9 b482 0500 5423 6dbc f15c 0500
000001c0: deb9 0580 7068 0680 ee44 b6b9 3978 0580
000001d0: cfbc 0580 b8c6 80bc cf5b 0580 da57 0580
000001e0: a157 0500 fe15 37bc 12af 0500 c066 0580
000001f0: 7a65 0580 de96 0580 4f87 0500 0397 6dbc
00000200: 9da3 0580 c115 02bd 62c9 01bd c115 02bd
00000210: 8492 0680 8809 02bd c724 0680 c244 01bd
00000220: e166 0500 2da0 0500 4112 02bd 897c 0500
00000230: 4a87 0580 d25d 0500 1e5e 0500 b615 02bd
00000240: ca62 0500 c3c6 0580 4489 0500 396e 0500
00000250: 5f16 02bd 6c0d 02bd d170 0580 aa15 02bd
00000260: 5d5a 0580 2758 0500 5d08 02bd ef8a 0600
00000270: 4225 0680 9887 0580 c457 0580 4711 02bd
00000280: 0498 0500 6eb6 0580 9898 0500 1064 0600
00000290: 26af 0500 cf07 02bd 718a 0500 2ff8 01bd
000002a0: 380f 02bd d215 02bd 8a07 02bd 2e8c 0680
000002b0: 2084 0500 0f62 0580 6d79 0500 94c8 0580
000002c0: ae15 02bd 970c 02bd c116 02bd 010c 02bd
000002d0: 3e6d 0680 be14 02bd 4568 0580 fd11 02bd
000002e0: b015 02bd e05d 0580 7149 0680 8a9c 01bd
000002f0: d773 0680 5416 02bd b15f 0500 cc5e 0580
00000300: be16 02bd 71d7 0500 186e 0580 a57e 0580
00000310: 3b57 0500 9609 02bd e67d 0680 f56a 0500
00000320: e512 02bd fc6f 0580 740e 02bd 11d3 01bd
00000330: 7771 0580 f359 0580 666d 0500 fb01 02bd
00000340: 82d1 0600 db59 0500 018e 0580 9f12 02bd
00000350: 467a 0500 31ef 0580 f85a 0580 af3f 0600
00000360: c60d 02bd 205a 0580 5a5b 0500 7858 0580
00000370: ae15 02bd b815 02bd 4e0e 02bd 100e 02bd
00000380: 22ce 0580 7e12 02bd b6e7 0500 6b13 02bd
00000390: d414 02bd 15ac 0500 bb16 02bd c56e 0580
000003a0: 7315 02bd 318e 0500 5504 02bd bf15 02bd
000003b0: 6e49 01bd 7082 0580 b013 02bd 2d75 0500
000003c0: 8a68 0580 c599 0500 b786 01bd 9d58 0500
000003d0: e289 0580 9614 02bd fb62 0580 088b 0600
000003e0: 695f 0500 c80f 02bd 4b71 0500 0acc 0600
000003f0: fb72 0580 33ba 0500 e660 0580 2812 02bd

_deterministic_encoder.linear_layers_list.2.bias f4 [128]
4.91704e-40 -0.023078622 0.0058805738 1.0645115e-09 -0.0012417574 -0.027831636 4.93148e-40 -4.94158e-40
-6.20771e-40 4.4657674e-05 -7.798111e-33 -5.25062e-40 0.10374545 -7.945213e-19 -0.0016619691 -0.011170776
-4.3123296e-06 4.90733e-40 4.92662e-40 -0.020286119 -0.004806793 4.95024e-40 3.79327e-40 -5.3732876e-11
-0.03952227 4.92492e-40 4.91346e-40 -0.03565834 4.95023e-40 -1.7209738e-20 -4.90553e-40 4.91683e-40
-0.00037805643 4.90588e-40 -0.010308296 4.94587e-40 4.90681e-40 -0.023047842 4.93631e-40 -0.037399992
4.9121e-40 4.91591e-40 -4.91965e-40 4.94545e-40 1.3210294e-07 -0.0049735997 0.030302523 4.94447e-40
4.93582e-40 -0.0004468354 -4.92824e-40 -0.00019666555 -4.92355e-40 0.019529965 -4.2285937e-25 -0.065636784
4.90794e-40 4.92692e-40 4.94695e-40 -4.91878e-40 4.94822e-40 -4.93627e-40 4.91633e-40 -0.016899796
-4.923e-40 4.91493e-40 0.0043447968 -0.060000014 4.91339e-40 -4.90901e-40 4.94784e-40 -4.94066e-40
-2.9728538e-08 -0.033806406 0.0148872 4.9122e-40 -4.9487e-40 0.00034443144 4.91294e-40 0.0016978056
-0.00091255567 4.91608e-40 4.96498e-40 0.1264055 4.93549e-40 0.028564781 4.9098e-40 0.0703572
-0.0032171695 -0.023611387 4.94855e-40 0.005925412 -4.9091e-40 0.069351956 4.92681e-40 -4.94975e-40
0.012556224 -0.00015863418 -0.01651727 4.93153e-40 -4.9257e-40 -0.08127259 -0.005564428 0.021153325
1.7606583e-36 4.90474e-40 -4.94438e-40 -0.03728845 -0.041761797 -0.027219964 -5.0231e-40 4.91084e-40
0.04285786 -4.93347e-40 -0.0025842807 4.90858e-40 4.91884e-40 -0.0011663749 0.0052623404 9.1002636e-07
-9.544432e-06 -4.3544675e-05 4.91627e-40 4.92397e-40 4.90592e-40 -0.002839129 -1.7059257e-11 4.91498e-40
00000000: ac5a 0500 610f bdbc d4b1 c03b 2b4e 9230
00000010: 77c2 a2ba 2cff e3bc b25e 0500 8361 0580
00000020: 75c2 0680 d04e 3b38 dff5 218a a9b7 0580
00000030: 7f78 d43d 5580 6aa1 6ed6 d9ba a105 37bc
00000040: a1b2 90b6 f757 0500 575d 0500 132f a6bc
00000050: 4d82 9dbb ed63 0500 6921 0400 d751 6cae
00000060: 1be2 21bd de5c 0500 ac59 0500 7b0e 12bd
00000070: ec63 0500 988a a29e 7657 0580 9d5a 0500
00000080: e035 c6b9 8f57 0500 21e4 28bc b562 0500
00000090: d257 0500 d4ce bcbc 0b60 0500 bc30 19bd
000000a0: 4b59 0500 5b5a 0500 665b 0580 9762 0500
000000b0: 2ed8 0d34 94f9 a2bb ff3c f83c 5162 0500
000000c0: e85f 0500 3b45 eab9 cb5d 0580 0238 4eb9
000000d0: 7c5c 0580 4efd 9f3c 5fde 0297 946c 86bd
000000e0: 2258 0500 6d5d 0500 0263 0500 285b 0580
000000f0: 5d63 0500 0860 0580 795a 0500 7171 8abc
00000100: 555c 0580 155a 0500 cc5e 8e3b 93c2 75bd
00000110: a759 0500 6f58 0580 4263 0500 4161 0580
00000120: bf5d ffb2 9678 0abd 71e9 733c 5259 0500
00000130: 7f63 0580 ce94 b439 8759 0500 e788 de3a
00000140: 9338 6fba 675a 0500 0968 0500 7270 013e
00000150: d05f 0500 b000 ea3c a758 0500 7017 903d
00000160: 26d7 52bb ab6c c1bc 7463 0500 f529 c23b
00000170: 7558 0580 6608 8e3d 655d 0500 ca63 0580
00000180: 9fb8 4d3c 0a57 26b9 3a4f 87bc b65e 0500
00000190: 165d 0580 3e72 a6bd ce55 b6bb bd49 ad3c
000001a0: bec7 1504 3e57 0500 4b62 0580 c6bb 18bd
000001b0: 6b0e 2bbd 67fc debc 3c78 0580 f158 0500
000001c0: b98b 2f3d 405f 0580 095d 29bb 5058 0500
000001d0: 2c5b 0500 0ce1 98ba b66f ac3b 8948 7435
000001e0: 0621 20b7 bda3 36b8 755a 0500 9a5c 0500
000001f0: 9257 0500 ae10 3abb 080e 96ad 195a 0500

_deterministic_encoder.linear_layers_list.4.weight f4 [128, 128]
4.92555e-40 4.92038e-40 -0.024282848 -0.003961869 -5.26978e-40 0.0067938725 -5.00818e-40 5.14171e-40
-4.92855e-40 0.0082047535 -0.0012424943 -5.13615e-40 -0.054625805 6.21487e-40 -5.00301e-40 4.9114e-40
-5.77643e-40 -5.01177e-40 -5.24603e-40 0.016320338 0.021843275 4.98104e-40 -4.95461e-40 5.06609e-40
0.032705378 -5.27583e-40 -4.9068e-40 -0.03325591 -4.99774e-40 0.0027092274 4.94144e-40 -4.97856e-40
-6.08693e-40 5.16879e-40 -0.04033225 -5.4471e-40 -5.29147e-40 -5.46934e-40 -5.1983e-40 -0.00063924247
-5.10762e-40 0.0052804183 -5.14808e-40 -4.97803e-40 -0.001933718 4.92245e-40 -0.003799632 5.09155e-40
0.0033811585 -0.02343688 -5.0125e-40 0.016791863 -4.94314e-40 0.008532819 5.01336e-40 -0.018784773
-4.99469e-40 -5.61673e-40 -4.92846e-40 6.24517e-40 5.09989e-40 -5.12388e-40 -5.11346e-40 0.01167588
-5.0043e-40 4.93193e-40 -0.0039082305 -0.0028912923 -5.44756e-40 5.17958e-40 -4.94908e-40 -0.0010196557
-5.85893e-40 -0.018206561 0.01193651 -4.92436e-40 6.1793e-40 0.008219762 -5.81322e-40 0.027518244
-5.94282e-40 -5.30624e-40 -0.0019342994 -0.0030485343 -5.05375e-40 -0.019142091 -4.9476e-40 0.033614285
5.0666e-40 4.98987e-40 5.50025e-40 -0.025613366 5.23491e-40 -0.044150993 -5.29378e-40 -4.94039e-40
0.016813286 -0.013022202 0.027484277 -5.1071e-40 1.9111386e-07 0.019125972 -5.02555e-40 -0.015640553
-0.0006300986 5.05883e-40 -4.92342e-40 -0.0014956853 -0.0038725743 -4.91271e-40 -5.0515e-40 4.95517e-40
-0.028030183 4.91623e-40 -0.0021657026 4.93631e-40 -5.36043e-40 0.016127517 -0.033017967 -0.02432438
4.93578e-40 5.90405e-40 4.9351e-40 4.99186e-40 5.09648e-40 5.13659e-40 -4.90889e-40 -1.863059e-12
-5.82836e-40 -5.04218e-40 0.049380172 -0.050055824 -4.98247e-40 0.028320773 -0.0007300763 0.0017917062
-0.0058577247 -0.03976217 0.07019802 -4.92998e-40 -0.025436109 0.01119149 -0.0025399853 -4.91197e-40
4.91158e-40 -0.0054795654 4.94527e-40 -0.03492705 -0.09974653 0.0003834722 2.5631876e-05 4.9574e-40
-0.08073755 -0.0122903 0.0038707203 -0.030213576 -7.676855e-18 -0.016402535 -0.00042069086 -0.008687657
-1.5503984e-23 -0.0062746587 0.06359681 -2.6188705e-05 -0.00096546265 4.90617e-40 5.9107306e-06 -0.11264392
-4.99134e-40 -0.043353118 0.0010141404 -0.002943564 -0.04929825 -4.94172e-40 -0.0871526 -4.93973e-40
-0.016666789 -0.03146266 0.00505251 -0.090235636 4.94395e-40 0.047769334 5.4424e-40 0.043771137
-1.0363712e-09 -0.0028634863 0.009828213 -0.00031408312 0.002757328 5.20423e-40 4.8442847e-11 0.04221838
0.00861673 -5.3864438e-05 -0.012543122 0.036655705 -0.0072701126 -0.010628133 -0.00053289294 -0.06539233
-0.006554009 -0.09466381 -0.004741871 -4.94947e-40 -0.000718609 -0.009175011 0.00038098017 0.0065431236
-4.92967e-40 4.93285e-40 -0.06316144 0.07447835 0.0026055742 -0.04502652 4.91626e-40 -0.019135471
-0.0037927562 4.90711e-40 -1.2161065e-13 0.03901484 1.8922118e-23 -0.035927918 3.578586e-13 -0.0012036306
0.03310539 0.054683357 -0.03767791 0.0031052348 0.016734108 -0.10079322 4.90791e-40 0.0096501745
0.005876638 -0.011210803 -2.1510947e-19 -0.052303623 -0.0131105725 -5.62949e-40 -4.91035e-40 3.0273745e-07
-0.037303217 5.12549e-40 -0.061822493 0.00178575 5.19936e-40 0.016371256 -0.010536805 -0.017906347
-0.0049176533 -4.95094e-40 0.000568667 4.93505e-40 -1.0595121e-12 -0.008064083 -0.017957928 0.011485897
00000000: 0b5d 0500 9a5b 0500 d3ec c6bc 91d2 81bb
00000010: 00bd 0580 229f de3b 1474 0580 4d99 0500
00000020: e15d 0580 3b6d 063c 31db a2ba c097 0580
00000030: 4fbf 5fbd 74c4 0600 a372 0580 1959 0500
00000040: 3c4a 0680 1475 0580 61b6 0580 3bb2 853c
00000050: abf0 b23c 836c 0500 2565 0580 3884 0500
00000060: 13f6 053d b0be 0580 d157 0580 5937 08bd
00000070: 2b71 0580 4b8d 313b 7961 0500 d26b 0580
00000080: caa0 0680 d9a0 0500 6e33 25bd 6eee 0580
00000090: 0cc3 0580 a1f4 0580 13a9 0580 d692 27ba
000000a0: cc8f 0580 5c07 ad3b 139b 0580 ac6b 0580
000000b0: cf74 fdba 2e5c 0500 3f03 79bb 518b 0500
000000c0: 6d96 5d3b b3fe bfbc 4875 0580 178f 893c
000000d0: f261 0580 3dcd 0b3c 8575 0500 86e2 99bc
000000e0: 5170 0580 b71d 0680 db5d 0580 e6cc 0600
000000f0: a48d 0500 5494 0580 6d91 0580 314c 3f3c
00000100: ff72 0580 d25e 0500 9d10 80bb d67b 3dbb
00000110: 8fee 0580 dba3 0500 9a63 0580 f8a5 85ba
00000120: 3b61 0680 ed25 95bc 5a91 433c b65c 0580
00000130: 8aba 0600 2eac 063c 7d54 0680 f16d e13c
00000140: 9e78 0680 2ac7 0580 5188 fdba ebc9 47bb
00000150: c880 0580 e0cf 9cbc 3163 0580 22af 093d
00000160: 5d84 0500 f96e 0500 3ffd 0500 1fd3 d1bc
00000170: 48b3 0500 acd7 34bd b1c3 0580 2e61 0580
00000180: 04bc 893c 135b 55bc b526 e13c a78f 0580
00000190: fa34 4d34 12ae 9c3c eb78 0580 9e20 80bc
000001a0: 342d 25ba 3282 0500 735c 0580 df0a c4ba
000001b0: 04cb 7dbb 7759 0580 2780 0580 4d65 0500
000001c0: 8e9f e5bc 725a 0500 76ee 0dbb 0b60 0500
000001d0: 45d6 0580 db1d 843c d93d 07bd ec43 c7bc
000001e0: e55f 0500 cf6d 0600 b55f 0500 876f 0500
000001f0: b18c 0500 df97 0500 6658 0580 e319 03ac
00000200: b658 0680 8e7d 0580 dd42 4a3d 5607 4dbd
00000210: e96c 0580 f700 e83c 9762 3fba afd7 ea3a
00000220: 28f2 bfbb a8dd 22bd fbc3 8f3d 475e 0580
00000230: 635f d0bc 835c 373c e275 26bb 4259 0580
00000240: 2659 0500 ed8d b3bb 8a62 0500 ab0f 0fbd
00000250: e947 ccbd c40c c939 0904 d737 ec65 0500
00000260: bb59 a5bd 415d 49bc e9ab 7d3b 7682 f7bc
00000270: ec9c 0da3 9c5e 86bc 2c90 dcb9 ad56 0ebc
00000280: 01f2 9599 a79b cdbb 0b3f 823d d1af dbb7
00000290: 1a17 7dba a457 0500 ca54 c636 dbb1 e6bd
000002a0: 626f 0580 0a93 31bd e8ec 843a cfe8 40bb
000002b0: f6ec 49bd 8d61 0580 107d b2bd ff60 0580
000002c0: ca88 88bc fdde 00bd 878f a53b 76cd b8bd
000002d0: 2c62 0500 c7a9 433d 1fed 0500 5d49 333d
000002e0: 1270 8eb0 54a9 3bbb 8306 213c 86ab a4b9
000002f0: 4ab4 343b baaa 0500 cc0d 552e 2eed 2c3d
00000300: 2f2d 0d3c 80ec 61b8 ab81 4dbc 4b24 163d
00000310: 203a eebb 9f21 2ebc d7b1 0bba 6aec 85bd
00000320: 03c3 d6bb 1adf c1bd b261 9bbb b663 0580
00000330: 0961 3cba c952 16bc 4bbe c739 b367 d63b
00000340: 315e 0580 145f 0500 c95a 81bd 1b88 983d
00000350: 48c2 2a3b ba6d 38bd 745a 0500 fec1 9cbc
00000360: e48f 78bb e757 0500 e2eb 08aa 06ce 1f3d
00000370: e500 b719 2729 13bd dc74 c92a 24c3 9dba
00000380: 8499 073d a8fb 5f3d 2754 1abd 3281 4b3b
00000390: f815 893c ad6c cebd 2058 0500 c41b 1e3c
000003a0: d090 c03b 84ad 37bc d9f4 7da0 533c 56bd
000003b0: bacd 56bc 4621 0680 ce58 0580 eb87 a234
000003c0: 42cb 18bd c794 0500 9539 7dbd d40f ea3a
000003d0: 5fa9 0500 031d 863c 90a2 2cbc 55b0 92bc
000003e0: 4424 a1bb 1f64 0580 9912 153a b15f 0500
000003f0: f21c 95ab 371f 04bc 811c 93bc 582f 3c3c

_deterministic_encoder.linear_layers_list.4.bias f4 [128]
4.93484e-40 0.00072739454 0.026732855 4.92062e-40 4.93975e-40 4.94992e-40 -4.93278e-40 4.93379e-40
-0.00013109639 4.91566e-40 -4.93717e-40 4.951e-40 5.271218e-34 0.014002245 -0.009137216 -4.92887e-40
4.94892e-40 -4.90974e-40 -1.7669701e-17 0.02829663 -0.0025911967 -2.4269868e-25 4.94612e-40 0.08545785
0.02982858 -5.90361e-40 -4.95442e-40 -4.98715e-40 -4.0681332e-22 -6.4182956e-15 2.4764525e-22 4.91623e-40
4.94877e-40 -7.597047e-37 -0.004604293 -4.91468e-40 -7.081549e-05 -0.014697751 -8.548479e-22 -4.93952e-40
-0.0055814967 -3.834975e-07 -0.029202761 -0.0040149726 4.94688e-40 3.9121585e-19 0.02083736 0.013501667
-0.013822792 0.12554431 -7.1528884e-26 -4.91077e-40 -0.008035777 0.044077996 0.029997153 0.11798586
-0.0034438705 -0.07207216 0.10246058 4.90543e-40 0.033441175 0.10219773 0.05459721 3.7980925e-12
4.91399e-40 4.95066e-40 -1.35693e-08 -5.654466e-12 4.9085e-40 0.07828823 -0.0002261104 9.586207e-10
4.95006e-40 0.06833587 -4.91994e-40 0.08302488 5.48137e-38 4.94353e-40 -4.91175e-40 4.91484e-40
-0.016239554 -0.0083058765 0.04529409 0.08903994 1.8666101e-16 -9.859677e-09 0.00031840565 0.05271168
4.93172e-40 4.93048e-40 4.93467e-40 -1.1334092e-30 1.7564681e-09 -2.3692416e-29 0.01569517 0.040633142
-0.0197082 -4.93195e-40 0.024154894 4.94489e-40 -0.02024675 4.92198e-40 -4.90533e-40 4.93927e-40
0.00058828486 0.02075877 -0.007455357 0.0703142 0.13995486 4.92237e-40 0.016038148 0.030251794
4.93635e-40 -2.090128e-13 -5.05174e-40 -0.0017490438 -1.7088954e-10 -0.0057246266 -0.026173014 -0.007894634
-1.6721113e-16 -4.92147e-40 -4.91428e-40 -4.91818e-40 0.003956256 0.0037174423 0.058265388 -1.1751913e-15
00000000: a25f 0500 9fae 3e3a dcfe da3c ab5b 0500
00000010: 0061 0500 d663 0500 0f5f 0580 575f 0500
00000020: eb76 09b9 495a 0500 4860 0580 2364 0500
00000030: 902a 2f08 ac69 653c 43b4 15bc f85d 0580
00000040: 8f63 0500 a358 0580 67f9 a2a3 56ce e73c
00000050: 11d1 29bb 2439 9696 c762 0500 8604 af3d
00000060: 115b f43c b06d 0680 1765 0580 376e 0580
00000070: 50e7 f59b 543e e7a7 3fb1 951b 725a 0500
00000080: 8463 0500 ce41 8183 9cdf 96bb 035a 0580
00000090: c782 94b8 d6ce 70bc 542e 819c f060 0580
000000a0: fde4 b6bb 7fe3 cdb4 a13a efbc 0890 83bb
000000b0: fd62 0500 deee e620 1cb3 aa3c 1936 5d3c
000000c0: fe78 62bc b08e 003e d118 b195 ec58 0580
000000d0: 7ea8 03bc 218b 343d 97bc f53c 92a2 f13d
000000e0: 8fb2 61bb 929a 93bd dad6 d13d 6f57 0500
000000f0: 9df9 083d 0b4d d13d 53a1 5f3d 2da2 852c
00000100: d259 0500 0b64 0500 6a1e 69b2 e7f2 c6ac
00000110: 4a58 0500 9455 a03d 0c18 6db9 78c0 8330
00000120: e063 0500 adf3 8b3d 7b5b 0580 f308 aa3d
00000130: 9337 9501 0e62 0500 3259 0580 0f5a 0500
00000140: d008 85bc 5f15 08bc 4c86 393d 925a b63d
00000150: 9b34 5725 5163 29b2 afef a639 34e8 573d
00000160: c35e 0500 6b5e 0500 965f 0500 fae7 b78d
00000170: 3a68 f130 0745 f08f 2893 803c f06e 263d
00000180: 1773 a1bc d45e 0580 7ce0 c53c 6f62 0500
00000190: 83dc a5bc 0c5c 0500 6857 0580 de60 0500
000001a0: 2137 1a3a 4c0e aa3c 114c f4bb e400 903d
000001b0: 5450 0f3e 285c 0500 6f62 833c 9cd2 f73c
000001c0: 0e60 0500 d753 6baa 3880 0580 2c40 e5ba
000001d0: 21e5 3baf a695 bbbb ca68 d6bc 7f58 01bc
000001e0: 04c8 40a5 e85b 0580 e759 0580 fd5a 0580
000001f0: 7ba3 813b 55a0 733b b0a7 6e3d e85c a9a6

_deterministic_encoder.linear_layers_list.6.weight f4 [128, 128]
-2.0220854e-05 0.029296853 0.018077154 -0.0024897773 0.004759564 -0.01592402 0.0029050468 4.94405e-40
0.07362245 0.011051124 -0.013038258 0.0028684721 -0.026963424 -0.039771106 -0.10858219 0.018354647
0.0026593597 -3.299917e-05 0.03844792 0.06162137 -0.0003725026 0.030767059 -4.94071e-40 0.043738686
0.06377173 0.0034958585 -5.58304e-40 4.91699e-40 -0.049092866 0.024035603 0.009487147 -4.94616e-40
-0.018958295 7.545415e-31 -0.02053357 0.051506385 0.04728235 4.94441e-40 -0.0625995 0.036472138
-0.06421767 -0.035820816 0.028454622 -0.008263218 -4.92558e-40 0.0059852563 0.010019181 -0.031457376
-0.019327782 0.010572843 -1.5047197e-28 0.0074934317 -0.031248737 -0.07929458 0.09644812 0.06505477
-0.00069877465 -0.04121145 -0.03274084 4.93037e-40 -0.10852582 -0.05157699 -0.005716011 -0.036135163
0.000116105 0.0043855277 0.07601248 -0.066170745 0.003048175 -0.014447743 0.037655357 -0.103946306
-0.009305543 0.05196071 -0.0009850657 -0.049974546 5.45165e-40 0.0026016328 -0.0013613122 0.0028443239
0.08311678 -0.07094944 -0.032005984 -0.067966625 0.032980237 0.027729696 -0.013578561 0.062286
-0.02747438 -0.008249298 0.012333722 0.0033137272 -0.0021017236 -0.027641734 -0.043304414 -0.09125191
0.06674708 -0.0011945145 0.056177385 0.016977085 -0.033138018 0.0024724386 -4.814076e-14 -4.94036e-40
0.019937191 0.06526819 -0.060133886 -0.06785107 0.0021644377 -0.00027136155 -0.055405688 -0.08180231
0.0043404815 5.32697e-40 5.00077e-40 0.01593584 0.0785116 0.0058090873 -0.03198515 0.026199788
0.03676945 -1.1798542e-07 -0.032814022 -4.92743e-40 0.024941437 0.048855223 0.023357615 -0.0494923
1.567019e-16 -0.055625226 -0.018443774 -3.9522974e-14 4.7357862e-05 0.058971994 -1.8791114e-05 4.91092e-40
-0.016721033 0.053741056 -1.0049794e-05 1.9381279e-16 -0.008342936 0.04061191 -0.016969437 0.0058838134
1.5353391e-16 0.00059630786 5.0337e-40 0.028715651 2.7455097e-14 -0.023088655 -4.94871e-40 -0.08111194
-0.0037283006 -0.00011755923 5.18852e-40 4.93902e-40 -0.009595625 5.27282e-40 0.0053437683 -4.91674e-40
4.9931e-40 -4.98641e-40 0.0002519014 0.03152556 0.06679835 5.00555e-40 -0.07358452 0.020181188
0.040368196 -5.40638e-40 -4.91529e-40 0.051172722 -4.9294e-40 -0.026348166 -0.101999804 -0.0024894527
-4.91793e-40 0.025615772 4.96612e-40 -1.0223995e-05 4.98739e-40 -0.019409897 -0.02969052 -0.010402946
0.02072341 0.046965204 -0.040997792 -4.91999e-40 -0.0719624 -0.056192987 0.021407034 0.042485412
1.4581234e-05 5.436451e-07 0.008736078 0.007356657 1.9505039e-16 0.0136456285 0.00016476926 0.047011387
-4.992322e-08 0.029737988 -0.00054838 0.0045331037 -4.94343e-40 1.0396534e-14 0.0017128615 2.3907404e-16
-0.010338711 -0.05593953 -0.07409152 -0.016787507 -0.027429422 -5.02186e-40 -0.0017000082 -0.005708238
-0.0072380165 -3.7699798e-34 4.4221077e-05 -0.0053110295 -0.08170622 5.64065e-40 -0.083480656 -0.033002768
-0.013490659 -0.00026475507 -0.08212441 5.57965e-40 5.04585e-40 1.7128932e-15 4.95318e-40 4.93265e-40
0.040326416 0.036924727 -0.056890402 0.010868294 0.016338767 -0.00039750137 0.05967304 -0.10703906
0.02678006 -4.9592e-40 4.93809e-40 1.3994746e-30 -0.055784013 -5.09334e-40 -4.94657e-40 5.0039e-40
-0.03859887 2.3501524e-28 0.0575436 -4.93711e-40 -0.01447245 -0.07759872 0.058527153 0.04979593
00000000: f49f a9b7 f4ff ef3c 8a16 943c 882b 23bb
00000010: 1ef6 9b3b 1773 82bc 9962 3e3b 3362 0500
00000020: 5ec7 963d c60f 353c 6b9e 55bc fafc 3b3b
00000030: 66e2 dcbc 07e7 22bd 5760 debd 7c5c 963c
00000040: a748 2e3b 9768 0ab8 917b 1d3d b166 7c3d
00000050: 744c c3b9 330b fc3c 4561 0580 5627 333d
00000060: c19a 823d c61a 653b 5314 0680 a85a 0500
00000070: 9a15 49bd 50e6 c43c fb6f 1b3c ca62 0580
00000080: 6d4e 9bbc dbdc 740d 0436 a8bc 5cf8 523d
00000090: 23ab 413d 4d62 0500 2b34 80bd cf63 153d
000000a0: 8e84 83bd d9b8 12bd ab19 e93c 7362 07bc
000000b0: 0d5d 0580 f81f c43b 7e27 243c 73d9 00bd
000000c0: 4c55 9ebc b839 2d3c f2be 3e91 768b f53b
000000d0: 5afd ffbc 3265 a2bd 9886 c53d 6f3b 853d
000000e0: f92d 37ba 56cd 28bd 421b 06bd 635e 0500
000000f0: c942 debd 6542 53bd 604d bbbb 7702 14bd
00000100: 667d f338 79b4 8f3b 6eac 9b3d 8784 87bd
00000110: e4c3 473b 3ab6 6cbc 813c 1a3d cde1 d4bd
00000120: 4776 18bc c1d4 543d 521d 81ba 1cb2 4cbd
00000130: b3ef 0500 2880 2a3b 0f6e b2ba d667 3a3b
00000140: 2139 aa3d f14d 91bd b518 03bd 1632 8bbd
00000150: 4916 073d 6329 e33c 9d78 5ebc 9b1f 7f3d
00000160: f311 e1bc 1028 07bc 6113 4a3c 1e2b 593b
00000170: 12bd 09bb eb70 e2bc f85f 31bd 48e2 babd
00000180: b1b2 883d 4191 9cba 421a 663d 8713 8b3c
00000190: bbbb 07bd a308 223b 84ce 58a9 2c61 0580
000001a0: 5253 a33c 54ab 853d f34e 76bd 80f5 8abd
000001b0: 3dd9 0d3b 8845 8eb9 13f1 62bd f887 a7bd
000001c0: 993a 8e3b f1cc 0500 0372 0500 e18b 823c
000001d0: b1ca a03d 285a be3b dc02 03bd f0a0 d63c
000001e0: 909b 163d 2c5f fdb3 ff67 06bd 915d 0580
000001f0: fc51 cc3c 6a1c 483d 7858 bf3c 70b8 4abd
00000200: 3daa 3425 47d7 63bd 6617 97bc e3fe 31a9
00000210: 1ea2 4638 9e8c 713d 9ca1 9db7 f758 0500
00000220: 8cfa 88bc 951f 5c3d 899b 28b7 7073 5f25
00000230: cfb0 08bc ad58 263d 7d03 8bbc 01cd c03b
00000240: 3603 3125 8b51 1c3a 317b 0500 163d eb3c
00000250: 254b f728 6b24 bdbc 8063 0580 041e a6bd
00000260: 8156 74bb 228a f6b8 59a6 0500 cc60 0500
00000270: f836 1dbc d9bd 0500 c71a af3b 965a 0580
00000280: e06f 0500 026e 0580 a211 8439 f220 013d
00000290: 93cd 883d 5873 0500 7bb3 96bd 0553 a53c
000002a0: 1f59 253d 14e3 0580 2f5a 0580 7d9a 513d
000002b0: 1e5e 0580 1cd8 d7bc 46e5 d0bd 1626 23bb
000002c0: eb5a 0580 2bd8 d13c 5a68 0500 b987 2bb7
000002d0: 486e 0500 8101 9fbc 8939 f3bc 1e71 2abc
000002e0: 24c4 a93c 965e 403d 4ded 27bd 7e5b 0580
000002f0: 0661 93bd 9e2a 66bd ce5d af3c 2f05 2e3d
00000300: eca1 7437 02ef 1135 c421 0f3c 1d10 f13b
00000310: b7e0 6025 ea91 5f3c e9c5 2c39 038f 403d
00000320: 296b 56b3 159d f33c 29c1 0fba 6e8a 943b
00000330: 0762 0580 8d49 3b28 1882 e03a 1ad1 8925
00000340: b263 29bc d920 65bd 4bbd 97bd f485 89bc
00000350: abb3 e0bc e477 0580 cfd2 deba 2c0c bbbb
00000360: e22c edbb e28e fa87 057a 3938 2508 aebb
00000370: 9755 a7bd 6224 0600 e8f7 aabd e92d 07bd
00000380: ed07 5dbc d3ce 8ab9 d830 a8bd 6113 0600
00000390: 947e 0500 9bda f626 bf64 0500 065f 0500
000003a0: 502d 253d 623e 173d e905 69bd ee10 323c
000003b0: e1d8 853c bb67 d0b9 b86b 743d 4b37 dbbd
000003c0: db61 db3c 6c66 0580 8a60 0500 e713 e30d
000003d0: c77d 64bd d18b 0580 e762 0580 e272 0500
000003e0: d919 1ebd 67f5 9411 d7b2 6b3d 4460 0580
000003f0: db1d 6dbc 14ec 9ebd 2bba 6f3d d1f6 4b3d

_deterministic_encoder.linear_layers_list.6.bias f4 [128]
0.15869044 -5.4853087e-15 0.12372549 0.022901013 -0.017867217 0.19519103 -2.556236e-11 0.124715194
-8.761185e-21 4.6484604e-19 -0.010553341 0.049993545 4.9358e-40 -0.0031432312 4.92591e-40 -0.00042878758
0.19862252 -0.004326198 -0.023014884 4.90876e-40 0.0003328379 0.005415918 0.032134008 2.0669625e-06
0.0286186 0.009226028 0.19307165 -6.0320556e-20 4.923e-40 -0.0005239881 0.0732973 4.91462e-40
4.92289e-40 -5.8111e-40 0.13648437 0.20145237 -0.0007863963 4.92643e-40 0.07744861 -0.020807497
-0.00016939713 -4.93195e-40 -6.49808e-05 1.5264649e-10 -6.11279e-40 -0.0002733609 4.92425e-40 4.93654e-40
6.8348876e-38 -0.025439147 -0.00024464107 4.93181e-40 0.18220903 -0.0010719709 4.93069e-40 0.1187027
-5.46576e-40 4.92678e-40 -2.2133398e-05 -0.008217791 4.9155e-40 -2.662281e-20 -5.644366e-14 0.00544708
0.105518766 4.94709e-40 0.01871658 -6.5554225e-08 -4.93055e-40 4.92793e-40 -1.5070849e-29 0.09519616
0.06925921 -1.08507464e-07 -5.238573e-19 1.6703469e-06 0.10607882 -4.917e-40 -1.6775367e-06 0.025183849
0.19370884 -0.0020266029 0.15070063 4.92594e-40 0.14777952 -1.9102401e-05 6.4507866e-19 5.31873e-40
-1.0463954e-05 -0.012377554 5.8076226e-16 0.016322248 4.92334e-40 4.90774e-40 -0.0035750454 -1.2272546e-23
4.93096e-40 -4.92785e-40 4.93396e-40 4.91044e-40 2.8326363e-12 -1.2319042e-06 2.646695e-08 -0.024787622
-1.2277584e-08 4.90822e-40 0.047747806 -4.7862464e-08 -4.92461e-40 -4.91239e-40 4.94332e-40 -2.801587e-07
1.4333617e-17 -4.92338e-40 4.93734e-40 0.09213859 0.09502658 4.94772e-40 0.07137831 0.07446663
-0.019814428 -6.035433e-08 -0.008239776 0.1257013 4.91119e-40 -0.021021588 -4.92279e-40 -3.4343507e-06
00000000: bf7f 223e 0ba1 c5a7 ca63 fd3d e89a bb3c
00000010: 455e 92bc 28e0 473e 51d9 e0ad ae6a ff3d
00000020: 7e7e 259e c632 0921 ece7 2cbc 08c6 4c3d
00000030: e65f 0500 abfe 4dbb 255d 0500 e5ce e0b9
00000040: b463 4b3e c7c2 8dbb b689 bcbc 5d58 0500
00000050: bf80 ae39 0378 b13b f39e 033d 25b6 0a36
00000060: 8e71 ea3c c428 173c 93b4 453e 8a6d 8e9f
00000070: 555c 0500 3f5c 09ba e51c 963d ff59 0500
00000080: 4d5c 0500 e653 0680 8fc2 0b3e 8849 4e3e
00000090: 2a26 4eba 4a5d 0500 609d 9e3d 7c74 aabc
000000a0: 32a0 31b9 d45e 0580 4d46 88b8 2bd6 272f
000000b0: ffa7 0680 e151 8fb9 ae5c 0500 1b60 0500
000000c0: 3710 ba01 c265 d0bc 2b43 80b9 ca5e 0500
000000d0: 0195 3a3e 6081 8cba 7a5e 0500 671a f33d
000000e0: a2f3 0580 635d 0500 1cab b9b7 eaa3 06bc
000000f0: 3e5a 0500 0172 fb9e 1c33 7ea9 6b7d b23b
00000100: 391a d83d 0c63 0500 8353 993c d1c6 8cb3
00000110: 705e 0580 b55d 0500 29d6 988f 34f6 c23d
00000120: c6d7 8d3d 9c04 e9b3 8a9d 1aa1 af30 e035
00000130: da3f d93d a95a 0580 b927 e1b5 5c4e ce3c
00000140: 9c5b 463e c1d0 04bb 4451 1a3e 275d 0500
00000150: 8453 173e 183e a0b7 c464 3e21 a5ca 0500
00000160: 578e 2fb7 39cb 4abc b164 2726 3cb6 853c
00000170: 6d5c 0500 1458 0500 4f4b 6abb b462 6d99
00000180: 8d5e 0500 af5d 0580 635f 0500 d558 0500
00000190: 3d54 472c e857 a5b5 7059 e332 690f cbbc
000001a0: 63ed 52b2 3658 0500 3493 433d 5691 4db3
000001b0: c85c 0580 6059 0580 ff61 0500 b868 96b4
000001c0: 4c34 8423 705c 0580 5460 0500 28b3 bc3d
000001d0: 4c9d c23d 3963 0500 cb2e 923d f681 983d
000001e0: de51 a2bc 259c 81b3 2000 07bc d7b7 003e
000001f0: 0a59 0500 7735 acbc 465c 0580 b279 66b6

_deterministic_encoder.linear_layers_list.8.weight f4 [128, 128]
0.025705485 0.051908538 -0.008596058 -0.031664185 0.016669553 0.0074819634 0.03331282 -0.09499524
-0.004114262 0.011099052 -6.9392894e-34 -0.025634194 2.994571e-06 -6.22186e-40 0.023850959 -5.59762e-07
0.043287266 -0.007949265 -0.030642226 -0.010898193 -0.099593796 0.050782725 0.031647757 -0.011418817
0.010786551 -0.0056332266 -0.013886259 5.12093e-40 -6.9583853e-06 0.026869357 -0.08075077 3.059221e-06
4.7672647e-06 3.7242414e-17 0.05893552 -0.009155867 6.10162e-40 4.93293e-40 0.058382727 -0.027435629
4.93358e-40 4.9136e-40 -0.06946635 -0.021510374 0.00044341336 5.60823e-40 1.4268864e-11 4.95068e-40
-0.0067379717 0.0025485079 -0.0008374768 -5.6507e-40 -0.005389864 -0.09718926 -1.8562108e-06 -0.059882674
5.0712e-40 -8.816712e-05 -0.008288067 -0.04743309 0.00041248312 1.1768228e-08 -0.050674785 0.026730994
-0.060716733 -0.0007456919 -0.09023363 -0.034399763 0.023597317 -2.8840711e-06 0.0014278808 0.052029848
-0.053692717 -0.0475192 0.0020698148 -0.015658697 -0.008394835 -0.0017284858 -0.09002243 0.008758013
0.045436118 0.03455727 0.05990406 0.00066110096 -0.1034764 4.2333173e-08 0.055654686 4.4646127e-20
0.0450054 -0.07756841 -0.07185809 -0.0731772 -4.91347e-40 1.9251079e-06 -0.09462899 -0.0065701115
4.92496e-40 -4.91197e-40 -0.0005283858 -4.94221e-40 -0.042207558 -0.02231342 0.03518607 -0.0054102605
-4.92125e-40 4.94794e-40 0.029984027 0.028410997 4.90806e-40 0.0013046558 -7.153413e-06 -3.175387e-05
-0.0808902 -4.94562e-40 -1.6924274e-06 0.039993785 0.030064004 0.00052239996 0.024733597 0.045299355
-0.04108747 -0.0033957302 -0.040581573 -0.030198172 2.0529618e-27 0.016948937 -4.92325e-40 0.019912358
0.023396818 0.030937582 -0.060737345 0.007356876 0.021144597 0.0049699503 -0.06378571 -0.027576037
-0.0021114335 -0.018322272 -1.0275898e-09 0.0013752904 -0.0001249877 5.91446e-40 0.0040493226 -3.7510843e-05
-0.048323445 -0.0044522583 -0.031756155 -0.027086537 -0.033219185 -0.044760317 0.05922198 -0.06776368
-0.04615145 -0.08514642 -0.06608724 -4.96367e-40 0.00020417002 0.020697258 0.015253308 -0.0001290064
-0.00016148492 -1.14163175e-11 0.05873218 -0.033434678 4.9744e-40 -2.7096906e-27 -0.10012911 0.008164198
6.28907e-40 -4.90492e-40 -0.03225531 0.0152426455 -0.001466753 6.08082e-40 -5.6407387e-08 4.91882e-40
0.009859219 0.02978629 -0.0056850393 -5.6265e-40 -0.019299934 -0.052663676 4.2015796e-05 -0.02667238
-5.23633e-40 1.1213793e-08 -0.011652704 0.0065209307 -0.0015745442 8.51311e-09 0.024856422 0.023970699
-0.085014485 0.002637326 -0.034071766 -0.0106196 0.009120927 8.2239865e-05 -0.055800416 -0.035432037
-0.07322872 0.0017275094 -0.0017764549 0.025685446 0.054335304 0.0047995215 -0.015195623 0.04151356
0.043199364 0.04705358 0.035252914 0.00089479354 0.03791361 -2.1771283e-21 0.050747547 2.1256519e-29
0.05048298 -0.021371119 -0.043658648 -0.019109933 4.93351e-40 -0.00011026971 0.016416987 0.0012291879
-4.93026e-40 4.93677e-40 0.0018388871 -4.93186e-40 0.028395154 0.061941944 -0.03237668 -0.012732037
-4.94035e-40 -4.9248e-40 0.065247655 -0.008933949 -4.9159e-40 0.016396653 0.00021596147 -0.00048604168
0.0134150805 4.92423e-40 4.8321173e-05 0.0787319 0.025662065 -0.0013842689 -0.046748478 -0.07616395
0.0009547394 -0.0028835717 -0.021763861 0.052568816 -1.914358e-16 0.019956555 4.90691e-40 -0.008168062
00000000: 4f94 d23c 0c9e 543d 7bd6 0cbc 4eb2 01bd
00000010: 968e 883c 422b f53b 0673 083d dd8c c2bd
00000020: eed0 86bb ccd8 353c f298 6688 cdfe d1bc
00000030: 57f6 4836 67c6 0680 1663 c33c 8d42 16b5
00000040: fd4d 313d a23d 02bc 6805 fbbc 568e 32bc
00000050: d5f7 cbbd 8c01 503d 14a1 013d fd15 3bbc
00000060: 13ba 303c ee96 b8bb 3183 63bc 8293 0500
00000070: 137c e9b6 201d dc3c a960 a5bd 044d 4d36
00000080: 7ef6 9f36 15c0 2b24 5f66 713d 7d02 16bc
00000090: e2a4 0600 1a5f 0500 ba22 6f3d afc0 e0bc
000000a0: 485f 0500 b659 0500 6044 8ebd 8636 b0bc
000000b0: ef79 e839 591b 0600 4005 7b2d 0c64 0500
000000c0: 34ca dcbb de04 273b 1e8a 5bba 2f27 0680
000000d0: 759d b0bb 2a0b c7bd eb22 f9b5 8947 75bd
000000e0: a585 0500 5de6 b8b8 acca 07bc 3349 42bd
000000f0: 8c42 d839 372d 4a32 5d90 4fbd f5fa da3c
00000100: 1cb2 78bd 897a 43ba 69cc b8bd c4e6 0cbd
00000110: 294f c13c f78b 41b6 bb27 bb3a 401d 553d
00000120: e5ec 5bbd 7ea3 42bd bba5 073b ab46 80bc
00000130: 7d8a 09bc 5c8e e2ba ae5d b8bd c57d 0f3c
00000140: 391b 3a3d ed8b 0d3d f65d 753d bc4d 2d3a
00000150: 6feb d3bd d1d1 3533 2bf6 633d dbd5 521f
00000160: 9557 383d 30dc 9ebd 562a 93bd eedd 95bd
00000170: ad59 0580 1a31 0136 d8cc c1bd 174a d7bb
00000180: e15c 0500 4259 0580 5f83 0aba b061 0580
00000190: d5e1 2cbd a2ca b6bc 451f 103d 8e48 b1bb
000001a0: d85b 0580 4963 0500 10a1 f53c 2ebe e83c
000001b0: 2b58 0500 fc00 ab3a 5a07 f0b6 752f 05b8
000001c0: c3a9 a5bd a362 0580 5d27 e3b5 86d0 233d
000001d0: c948 f63c abf1 083a 1d9e ca3c d18b 393d
000001e0: 564b 28bd e68a 5ebb dd38 26bd 2862 f7bc
000001f0: 03a7 2213 7fd8 8a3c 675c 0580 3e1f a33c
00000200: afaa bf3c d070 fd3c b9c7 78bd f311 f13b
00000210: 6f37 ad3c f7da a23b 15a2 82bd 24e7 e1bc
00000220: fa5f 0abb 9718 96bc 1a3b 8db0 1743 b43a
00000230: 210f 03b9 b670 0600 2eb0 843b f654 1db8
00000240: ceee 45bd 40e4 91bb be12 02bd 96e4 ddbc
00000250: d710 08bd 9856 37bd bf92 723d afc7 8abd
00000260: 4e09 3dbd 3f61 aebd bf58 87bd ab67 0580
00000270: 7916 5639 4c8d a93c 03e9 793c e445 07b9
00000280: 4754 29b9 86d6 48ad 2891 703d cdf2 08bd
00000290: a96a 0500 0eaf 5693 7e10 cdbd 21c3 053c
000002a0: 23d9 0600 4b57 0580 251e 04bd 4abc 793c
000002b0: 1040 c0ba 169f 0600 9444 72b3 2b5b 0500
000002c0: 9088 213c 6102 f43c 9149 babb 7020 0680
000002d0: e51a 9ebc deb5 57bd 1e3a 3038 0980 dabc
000002e0: adb3 0580 c8a6 4032 fcea 3ebc 88ad d53b
000002f0: f060 ceba 0e41 1232 b29f cb3c 335e c43c
00000300: 131c aebd fdd6 2c3b d68e 0bbd d5fd 2dbc
00000310: f16f 153c 3178 ac38 fa8e 64bd 2f21 11bd
00000320: f0f8 95bd 996d e23a efd7 e8ba 496a d23c
00000330: b28e 5e3d 4e45 9d3b 10f7 78bc 1f0a 2a3d
00000340: d1f1 303d 41bb 403d 5c65 103d 9490 6a3a
00000350: 4d4b 1b3d c97f 249d a9dc 4f3d 1491 d70f
00000360: 3ec7 4e3d 7c12 afbc 69d3 32bd 6f8c 9cbc
00000370: 435f 0500 9a40 e7b8 eb7c 863c b41c a13a
00000380: 5b5e 0580 2c60 0500 d006 f13a cd5e 0580
00000390: f49c e83c d6b6 7d3d 699d 04bd 099a 50bc
000003a0: 2b61 0580 d55c 0580 90a0 853d b35f 12bc
000003b0: 5a5a 0580 4652 863c b773 6239 69d3 feb9
000003c0: edca 5b3c ad5c 0500 77ac 4a38 313e a13d
000003d0: 4039 d23c 5b70 b5ba 557b 3fbd d8fb 9bbd
000003e0: 7a47 7a3a 4efa 3cbb 204a b2bc 6652 573d
000003f0: e0b5 5ca5 ee7b a33c d957 0500 56d3 05bc

_deterministic_encoder.linear_layers_list.8.bias f4 [128]
0.029582141 0.034118205 0.037025165 -0.034800947 0.06899309 0.016857367 -0.08496171 -0.13375817
0.20581228 0.16384009 -0.10452198 0.1814615 0.019933857 0.1962925 -0.14910017 -0.005813554
0.015112829 0.21110152 0.07374585 -0.031087361 0.0010104163 -0.0065873545 0.09096979 0.074874364
0.021924034 0.03515283 0.038701974 -0.18393031 -0.14398187 -0.036032934 0.05556772 -0.2508098
0.095439285 0.10320966 -0.058541495 -0.029744666 -0.17520465 -0.054051742 0.23313832 -0.0696606
-0.092472576 0.049547564 0.012263487 0.119778655 -0.0372913 0.052552063 -0.01033247 -0.22601661
0.036857337 -0.052328594 0.008232169 -0.0075745806 -0.13779968 0.18554007 -0.03476947 -0.0077521214
0.017040588 0.047520056 -0.05027596 0.043921724 0.07099257 -0.1829795 -0.13857427 0.058086045
-0.0761308 0.05045134 0.08398611 0.06329387 0.10473239 -0.033847596 0.0046572206 -0.010614217
-0.1336086 -0.054388776 0.045606237 -0.034282845 0.12469805 0.12483629 -0.0025773656 -0.049489472
-0.13413586 0.008578445 0.07413046 0.044475306 -0.024705034 -0.056305833 -0.013561825 -0.058712605
0.07925635 0.05791071 -0.0066468026 0.1701728 0.05784718 0.05328686 -0.26526874 0.0073507763
-0.14007612 0.0041812416 -0.015123965 0.116827965 0.12318213 -0.01813153 0.10833428 -0.036747456
-0.03776533 0.12252693 0.12887989 -0.08800478 0.007542024 0.04417916 -0.018566156 -0.036806077
-0.007870895 0.075542785 -0.06897749 0.07367813 0.22024961 0.033467967 -0.05711068 0.004181006
0.01718052 -0.050427478 -0.26068193 0.03353758 -0.1530587 0.0051382375 0.048562445 -0.019213801
00000000: 3f56 f23c 88bf 0b3d b3a7 173d 708b 0ebd
00000010: 404c 8d3d 7618 8a3c 6800 aebd e7f7 08be
00000020: 74c0 523e b2c5 273e 9f0f d6bd 0bd1 393e
00000030: 544c a33c e700 493e b7ad 18be a07f bebb
00000040: cd9b 773c ff2a 583e 1008 973d ecaa febc
00000050: f26f 843a bcda d7bb 5f4e ba3d bb57 993d
00000060: 089a b33c 6afc 0f3d f685 1e3d 3a58 3cbe
00000070: fc6f 13be 4597 13bd fa9a 633d 246a 80be
00000080: ac75 c33d 965f d33d 35c9 6fbd 16ab f3bc
00000090: d968 33be 5c65 5dbd d0bb 6e3e 37aa 8ebd
000000a0: 4362 bdbd 63f2 4a3d cbec 483c 834e f53d
000000b0: c3be 18bd d540 573d 8549 29bc e670 67be
000000c0: b8f7 163d 8256 56bd 38e0 063c 3034 f8bb
000000d0: 5c1b 0dbe 37fe 3d3e 6f6a 0ebd 8205 febb
000000e0: b498 8b3c 64a4 423d 2aee 4dbd 44e7 333d
000000f0: 8d64 913d fa5e 3bbe 6ae6 0dbe a2eb 6d3d
00000100: 77ea 9bbd 10a6 4e3d e900 ac3d 37a0 813d
00000110: ef7d d63d c7a3 0abd 999b 983b 41e7 2dbc
00000120: b1d0 08be c4c6 5ebd 9bcd 3a3d 2b6c 0cbd
00000130: b161 ff3d 2baa ff3d 05e9 28bb 79b5 4abd
00000140: e95a 09be 9b8c 0c3c b6d1 973d bd2b 363d
00000150: 3662 cabc f2a0 66bd 6b32 5ebc a17c 70bd
00000160: 2751 a23d c833 6d3d 6ccd d9bb c741 2e3e
00000170: 2af1 6c3d 5343 5a3d 4ed1 87be c8de f03b
00000180: 1d70 0fbe cc02 893b 82ca 77bc 8043 ef3d
00000190: ea46 fc3d 9388 94bc 5dde dd3d 8084 16bd
000001a0: d2af 1abd 66ef fa3d 17f9 033e da3b b4bd
000001b0: 1523 f73b 35f5 343d 0d18 98bc f8c1 16bd
000001c0: edf4 00bc 2db6 9a3d 1244 8dbd 8fe4 963d
000001d0: 1d89 613e b515 093d e3ec 69bd d200 893b
000001e0: 29be 8c3c 0b8d 4ebd 1a78 85be b45e 093d
000001f0: 6bbb 1cbe a95e a83b 6ae9 463d 4366 9dbc
