CNP-model-save-name/saved_models/model_6000.pth.pth.tar (torch, 108202 bytes, 20 tensors)

_deterministic_encoder.lstm.weight_ih_l0 f4 [128, 2]
00000000: 03d6 6bbe 9959 34bd 1511 1e3d ebef 43be
00000010: 04ae e73d 15a7 113e 3034 8bbd 42a8 d2bd
00000020: 81d7 0abe 4687 8cbe f0d7 d3bd e7e7 98be
00000030: 8d74 fdbd ead1 8cbe 8382 6ebe 894f e5bd
00000040: 4f8e ffbd e45b 0abe c06f 0ebe 6a04 d1bd
00000050: 718a 3fbe f2b0 70be 540c 54bd ae2d e9bd
00000060: a3c6 88bd 4b48 6bbd 6ce6 69bd 1d0b 84bc
00000070: a787 983d 2b70 6bbd a983 7abe f42e 37be
00000080: 92f5 87bc 135c 18be 9091 1a3d 11a6 3fbe
00000090: 4a3d 21be b4cd 8e3d d31f df3b 9ff9 78be
000000a0: 9edc 0cbe be92 a8bd 417e 78be bc47 cd3d
000000b0: b3c8 29be a905 78be bc65 73be 16fa 423c
000000c0: f5a3 41be ad74 88be 0a4e 2abe c7f9 f3bc
000000d0: a74b 96bd eada 38be 4eaa 83be 43c8 5ebe
000000e0: 115d 22be cfbc 60be 2eaa 21be 641c 8dbe
000000f0: 86e5 cc3b 6602 8cbd 0cd6 5bbe 276c 2dbd
00000100: 71da 09bd 3895 3b3d 754e c63c 7bb4 61be
00000110: a908 a63d d3b7 ebbc 4af6 92be ad1d 8c3d
00000120: 5ad7 113d f8e6 38be 8227 21be a9b0 3f3d
00000130: 7aa4 d73a a815 313d 9da8 5bbe ffc0 f9bc
00000140: e9fa 3abe f918 aebd 896e 5dbe 50a5 0b3e
00000150: 9815 f13d f658 a8bd 032f 42bd 72b7 0abd
00000160: 27b4 113d ed78 1c3d 31e4 453d 2956 12be
00000170: dcd4 ecbd a6d3 963d 722d 1a3d 3acc 77be
00000180: 3c8d 59be 9abf 093e ab52 023e 4d47 40be
00000190: 964f 3fbd 75c5 08be d60c 663e bd0d 543e
000001a0: bf55 59be 33a7 ccbd f85a 71be b481 62be
000001b0: 8150 76bd 9971 d83c 749c 39be e02e a83d
000001c0: 0da3 c9bc cbcb debd 30e3 90be 3dd3 6abe
000001d0: 501c 283c 5a7d 4bbe 2b95 d2bd e5fb bdbd
000001e0: 87f9 5abe d6d0 75b9 0498 91bc e799 323d
000001f0: 7df9 04be 2703 e1bd d9d9 4bbc 5e24 89bd
00000200: 5fe4 e93d b08a 513e 87a2 69bd 4ca5 f73d
00000210: 9a03 b23d e851 0b3e 8698 d1bb 5e4e 3c3d
00000220: a1e3 09bd 94f5 35bd afed f1bc bac6 32bd
00000230: 2197 10bd a6c2 d53d 8384 2b3e d575 45be
00000240: 426b d83c 38bc 463d ebbf 27be 1b8b 7c3d
00000250: 195c df3d 414c 15be a790 cb3d 8bd9 0d3e
00000260: a33f 9dba 7a01 34bd 86e9 b43d aeb2 a2bc
00000270: fa0d 84ba 6d28 333e f525 4d3e fb4f 023e
00000280: f87c c93d cf46 fb3d b27e 30be c0d9 883d
00000290: 2267 ecbc 92ef a8bc 764a 88bd af61 6bbe
000002a0: 370f 1ebe 1ea6 bebd a730 cd3c b6ec e93c
000002b0: 2c5f aabd 04e9 fcbd f827 a43d 1ae4 2dbc
000002c0: 9ffa 53be 8779 0c3e 9284 9abd 3493 e0bc
000002d0: 9df6 c6bd 35e4 fd3d fd3c 12bd 252a 2f3d
000002e0: 94d9 ba3c 1992 88bc 66a7 ea3d 55f5 dd3d
000002f0: 51ef efbd 88a9 893c 6ef6 1a3d 7b18 963d
00000300: 152e 44be 121e 8e3c 0828 72be 75e6 4dbe
00000310: 00b5 58be 8b74 703d c7cd 8ebe d1eb 38be
00000320: a85d 5bbd e41c 0ebe b42f 07bd 87bb 943c
00000330: 726b 303d ff09 25be 650f c93d 1e50 19be
00000340: 9809 88be 4678 95bd a408 95bd c22c f0bc
00000350: ed05 38bd 929f 59be 34be 27be 68ee 84be
00000360: 3894 d1bc 0d2a 49be 70d6 86be e448 283d
00000370: 4662 333d f185 7e3d bf1a 02be dfdf 2bbc
00000380: f283 ae3d 5337 763d 7723 c4bd b948 84be
00000390: 537a ffbd aa93 dfbb 9a41 0abd 2e65 cd3c
000003a0: 2f3c 4abe 8e40 c13c c589 67be edda 34be
000003b0: 1cf6 64bd e03c 7a3c 7f3d 1bbe dad3 32bd
000003c0: 329f 9ebe ba96 7cbe f7f5 40bc 140d 903d
000003d0: 43f5 c1bd a3c4 63bd 6693 4dbe 0235 8dbe
000003e0: 78b0 5bbd d3fd 05be 4b65 9c3d a856 c4bd
000003f0: c679 9c3c 4fde 093e 5c1a 77be 212b f1bc
-0.23030858 -0.04403076 0.03859051 -0.1913449 0.11312488 0.14223893 -0.06797063 -0.10285999
-0.1355877 -0.27446955 -0.10343921 -0.29864427 -0.12375746 -0.27503902 -0.23291974 -0.11196811
-0.12478315 -0.13511616 -0.13909817 -0.1020592 -0.18705155 -0.23505 -0.05176957 -0.11385666
-0.06678512 -0.05744199 -0.057104513 -0.01611858 0.07447749 -0.05748002 -0.24464287 -0.17889005
-0.01659659 -0.14878874 0.037736475 -0.18715693 -0.15746036 0.069728285 0.0068092137 -0.24313973
-0.13756034 -0.08231114 -0.24266912 0.10023448 -0.16580467 -0.24220909 -0.23769277 0.011900445
-0.18910201 -0.26651517 -0.16631332 -0.029782189 -0.07338648 -0.18052259 -0.2571587 -0.21756081
-0.15855815 -0.21947025 -0.15787575 -0.27560723 0.0062529473 -0.06836395 -0.21468371 -0.04233947
-0.033655588 0.045796603 0.024207333 -0.22041504 0.081071205 -0.028774178 -0.2870353 0.06841598
0.035605766 -0.18056858 -0.15737727 0.046799336 0.0016452216 0.043233544 -0.2145104 -0.030487536
-0.18259777 -0.08500857 -0.21624197 0.1363728 0.11771697 -0.08220093 -0.047408115 -0.033866353
0.035572197 0.03820126 0.048313323 -0.1429068 -0.11564037 0.073645875 0.037640996 -0.24199
-0.21245283 0.13451996 0.12726848 -0.18777199 -0.04670676 -0.13356574 0.22465834 0.20708366
-0.21224116 -0.09992828 -0.23569858 -0.2211979 -0.06013537 0.026421355 -0.18126088 0.08212066
-0.024613881 -0.10878714 -0.2829833 -0.22932144 0.0102606565 -0.19872037 -0.10282358 -0.09276561
-0.2138425 -0.00023442818 -0.017772682 0.043603804 -0.12985797 -0.109869294 -0.012442076 -0.066963896
0.114205115 0.20463061 -0.057039764 0.12092075 0.08692093 0.13605464 -0.006396356 0.045973174
-0.03366435 -0.044423655 -0.029532282 -0.04364655 -0.035300378 0.10437517 0.16749768 -0.1928323
0.026418332 0.048519343 -0.16381805 0.0616561 0.10906238 -0.1457987 0.099396996 0.13852517
-0.0011997115 -0.04394672 0.088336036 -0.019860592 -0.0010074966 0.1749589 0.2003401 0.12725823
0.09838289 0.12269365 -0.1723583 0.066821575 -0.028857771 -0.020622049 -0.06654827 -0.22986482
-0.15435492 -0.09309028 0.025047613 0.028555255 -0.08318934 -0.12349132 0.08015436 -0.010613466
-0.20701073 0.13718234 -0.07544817 -0.027413942 -0.097150065 0.12397043 -0.035702694 0.0427648
0.022808827 -0.016671227 0.1145771 0.10837809 -0.11715568 0.016804472 0.03783267 0.07328888
-0.19158204 0.017348323 -0.23648083 -0.20107444 -0.21162796 0.058704894 -0.2789137 -0.18058707
-0.053556114 -0.13878208 -0.033004478 0.018155826 0.043071218 -0.16117094 0.098173894 -0.14971969
-0.2656982 -0.07298331 -0.07277039 -0.029318217 -0.044927526 -0.21252277 -0.1638115 -0.2596314
-0.025583372 -0.19644947 -0.26335478 0.04108514 0.043794893 0.062139455 -0.12705515 -0.010490387
0.0852126 0.060111355 -0.09577077 -0.25836733 -0.12474503 -0.006823023 -0.03375397 0.02507266
-0.1974952 0.023590352 -0.22611149 -0.17661639 -0.05589877 0.015273303 -0.15160178 -0.04365907
-0.3098083 -0.24666873 -0.011777393 0.070337445 -0.09470608 -0.05560745 -0.2007576 -0.27579504
-0.05363509 -0.13085108 0.076365076 -0.09586841 0.019101035 0.1346371 -0.24131149 -0.02943951

_deterministic_encoder.lstm.weight_hh_l0 f4 [128, 32]
00000000: 9195 8eba d13c a73d fba7 b9bd ce71 d9bd
00000010: 79a7 413d c45d 1a3d c023 91bd 0276 bcbd
00000020: 4713 f8ba 92d5 7ebc 20f9 f53d 312d 28bb
00000030: 614d 38bb 191b 55bc d7a6 05be cb2f 5cbe
00000040: 36bd 95bd 7995 46bd 3df4 17bd e3eb 09bc
00000050: b201 cd3d dff9 6cbb cf68 173d 7bed 20bb
00000060: c5e9 5138 30a1 943c c3ef 803d 67af 6c3a
00000070: 461d 61bb 0948 42bd 39df 473c e8a4 18be
00000080: ca2f ca3d 2f58 11be da11 4abd 1fdd 4abe
00000090: 4691 f93c 664e f33d 432e c13c dd20 d63d
000000a0: 6811 ea3d 0393 b4bc f4ce c1bd 69d9 cf3d
000000b0: 63b8 ffbd 9983 00be 3695 fdbd ac5c a13d
000000c0: 7521 16bd 1bf9 e13c 5c5f 05be 04bd ebbd
000000d0: c669 833d aa8d 813d e67a fabc 92ba 0cbe
000000e0: f549 c83d f324 d8bd 267e 60bc 5547 0cbe
000000f0: 464b 243d 7975 d33d fb8c ec3d 80a3 f9bd
00000100: 64fd 5cbd 9384 c83d f3a7 48be 59f1 2dbe
00000110: e8c0 1dbc f43e ddbd eb66 873d 92e4 343d
00000120: 69fc fbbc b2cf 32be e214 3b3e 0631 68bd
00000130: 3584 8d3d dabb 15be e9e7 fd3d 63b7 bf3d
00000140: 17d9 9bbc 496c 0e3d 83dc ab3b 9b11 bcbc
00000150: f428 b8bb d0eb 79bd 10b6 9b3d 90cc 29be
00000160: 0ec8 cdbd 6d4b ea3d 7b38 123e aa90 98bd
00000170: a5f5 37be 38f0 30be 8f42 8b3e b921 3d3d
00000180: 1204 d8bc e428 abbd 6c89 333d 214c c23d
00000190: 77ff afbd e02c bebd 9667 eebd 5dab 0cbe
000001a0: b71d 51bd 6b27 e0b9 430a 133e a81c d63d
000001b0: b676 413d d73d db3b 61fd d9bd 23e5 af3c
000001c0: da63 1cbe 61ac 74bd b28b b6bd 0cb3 1ebe
000001d0: ae99 263e 0118 0d3e d464 cc3d d290 b9bd
000001e0: 080e 2a3d c396 783d d662 8d3c 1131 dfbc
000001f0: 882b 28bd 90df b9bc b8d5 3f3e d0c2 663d
00000200: 0ec6 8dbd 6cca 173e f0d7 5fbe 3418 c5bc
00000210: 8e9c 693e bc0e f83d 075f 7bbc ba4f 4dbe
00000220: 325b 0d3d b491 02be 01e3 8dbd c2f1 b4bd
00000230: 397b 93bd bc69 be3b 8343 d8bc a446 a03c
00000240: d616 19be eb77 2fbe 46f3 7fbd 5ffa f1bb
00000250: 1ee6 2e3e 846b 0cbe 5937 3d3d 4693 c2bd
00000260: d04e 21be 637a 493e 3d7b 053d 2787 d5bd
00000270: a8f7 08bd 51d3 e23d 09c3 ba3d f85c b8bd
00000280: 2f80 ba3b 7031 393e 668f f1bd 4815 a63c
00000290: f713 383e 4b55 4f3c 2076 fcbd 6b9e 1bbe
000002a0: dc70 ccbd 951b 14be fe18 4dbd c00f 67bd
000002b0: 919a 123d c5f2 9dbc 9264 6c3d 94b0 0cbd
000002c0: 4124 9a3d f815 15be 05b0 3b3d 368f 43bd
000002d0: a4b0 adbd ab23 513d 7a51 3c3e 20bd a83d
000002e0: 057d 75bc 5e1b b6bd f7af d13d 756a 363d
000002f0: b736 823d 2e90 1abe ff11 b93d 3398 1bbd
00000300: 8194 b53b 21bf 743e 6ee0 273d ee61 f0ba
00000310: 6762 4a3e 6b28 38bb 2f5c 8fbd 5565 dfbd
00000320: f6b4 c2bd 95f9 bd3c ede2 9cbc 4613 d03b
00000330: 268e 0cbc 4de7 293c 0105 9fbb 4bd3 983d
00000340: 3e2b 59be c4a4 26be 58f9 9f3d be9e e4bd
00000350: 94c8 263e b89d 10bd 93f4 483e 7819 943c
00000360: 6ece d13d 254e eb3d 4a6f 88bd f43f 9b3d
00000370: c0c4 01be 33ce 4dbe 14c1 30bb ccc1 7dbd
00000380: 5ccf a9bd 764d d13d 6949 90bd 4293 77be
00000390: 3154 82bd 5f86 4e3e 6ad8 26be c44c 193d
000003a0: 10dc aebd d328 38be 29d4 003e fc3a d8bd
000003b0: 919f 06be 0136 8d3c f462 7ebe b62e 6a3d
000003c0: 9fd1 afbd c0fd 10be 0b42 04be 4813 743d
000003d0: 1cd5 fdbc 0c16 b13d 4afc 4b3e 968a 05be
000003e0: 795a 04be 69bc 1c3e 1d5b 3d3e f9c7 a5bd
000003f0: 8485 0b3d c252 a9bd fc40 c43c 0632 423c
-0.0010878314 0.08165897 -0.09065243 -0.1061741 0.047278855 0.037687078 -0.07086897 -0.09202196
-0.0018926644 -0.015553849 0.120104074 -0.0025661702 -0.0028122293 -0.013006949 -0.13051926 -0.21502607
-0.0731148 -0.048482392 -0.03709816 -0.008418056 0.10010089 -0.0036159677 0.036965188 -0.0024555612
5.0047198e-05 0.018143266 0.06295731 0.00090288225 -0.0034349724 -0.04743198 0.0121992165 -0.14906657
0.09872396 -0.14193796 -0.04933343 -0.19810914 0.03046478 0.11880188 0.02358163 0.10455487
0.11429101 -0.022042757 -0.09463301 0.101488896 -0.12486341 -0.125502 -0.12381975 0.07879004
-0.036653 0.027584603 -0.13024658 -0.11510661 0.06416659 0.063258484 -0.03057618 -0.13743046
0.09779731 -0.105539225 -0.013701951 -0.13699086 0.04011085 0.103251405 0.115503274 -0.12189388
-0.05395259 0.097909115 -0.19595318 -0.16986598 -0.009628512 -0.10803023 0.06611427 0.044163294
-0.030760007 -0.17462042 0.18269685 -0.056687377 0.06909982 -0.14622441 0.12397749 0.0936115
-0.019024415 0.034771238 0.005244793 -0.022957614 -0.0056201164 -0.061015904 0.07603085 -0.1658194
-0.10047923 0.114401676 0.14279358 -0.074494675 -0.179648 -0.17279136 0.27199218 0.04617474
-0.026369128 -0.08357409 0.043832228 0.09487177 -0.08593648 -0.09285903 -0.11640851 -0.13737245
-0.05105373 -0.00042753978 0.14359383 0.104546845 0.047232352 0.0066907215 -0.10644031 0.021471566
-0.15272465 -0.059734706 -0.089133635 -0.15497988 0.16269562 0.13778688 0.09980169 -0.090608254
0.041517287 0.060690653 0.017259043 -0.027245076 -0.04105714 -0.02268961 0.18733871 0.05633813
-0.069225416 0.14823312 -0.21859717 -0.024059393 0.22813627 0.12112185 -0.0153424805 -0.20049945
0.0345108 -0.12750894 -0.06928063 -0.08835174 -0.07201237 0.0058109444 -0.02639938 0.019564934
-0.14950117 -0.17135589 -0.062487863 -0.007384583 0.1707997 -0.13712889 0.04619536 -0.095007464
-0.15752721 0.19675593 0.032588232 -0.10426169 -0.03343931 0.11075462 0.09119231 -0.090021074
0.00569155 0.18085265 -0.11794929 0.02027382 0.17976366 0.012654613 -0.12327218 -0.1519715
-0.09982464 -0.14463647 -0.050072663 -0.056411505 0.035791937 -0.0192808 0.0577131 -0.034348086
0.07526446 -0.14559162 0.045822162 -0.047744 -0.08480957 0.051059406 0.18390456 0.08239198
-0.01498342 -0.088919386 0.10238641 0.04453512 0.06358092 -0.15094063 0.090366356 -0.037986945
0.0055413847 0.23901035 0.040985517 -0.0018339732 0.197641 -0.0028100263 -0.070000045 -0.109079994
-0.09507172 0.023190299 -0.019151175 0.006349954 -0.008578813 0.010370088 -0.0048528914 0.07462176
-0.21207902 -0.1627379 0.078112304 -0.1116309 0.16287452 -0.035306662 0.19624548 0.01807855
0.102444515 0.11489514 -0.06661852 0.075805575 -0.1267271 -0.2009819 -0.0026970552 -0.061952397
-0.08291504 0.102198526 -0.07045252 -0.24177268 -0.063637145 0.20168446 -0.16293493 0.037426725
-0.08538067 -0.17984323 0.12580933 -0.105581254 -0.13146807 0.017237665 -0.24842435 0.057173453
-0.08584904 -0.14159298 -0.12915818 0.0595887 -0.030985408 0.08646783 0.1992046 -0.13041148
-0.12925138 0.15306248 0.18491788 -0.080947824 0.034062877 -0.08267738 0.023956768 0.011852747

_deterministic_encoder.lstm.bias_ih_l0 f4 [128]
00000000: 8b66 38be fb69 f53c 5670 b13c a99f bbbc
00000010: 520c a0bc 12d4 65bd 5178 49bd a063 b9bc
00000020: 83f0 cbbd 74af 6abd f98b 2bbb fb5b 2bbe
00000030: a534 40be 1397 51bd a2b0 74bc 74bd 873c
00000040: 404b 7bbd 4306 53bd 9d19 02bd 96d0 ecbd
00000050: 46dc e5bc 4810 b1bd 76fa 7cbd afb4 f2bd
00000060: f600 44be 2908 90bd d670 55bd 30d1 3cbe
00000070: d2c5 16be 33a7 1dbd 87f1 02bd 2068 d53c
00000080: 5526 85bd bb5d 5c3c 84ba 383c d1e3 90bc
00000090: 7839 a4bc 7105 2dbd 5750 2bbd 4447 40bc
000000a0: 57a0 12bd 1138 19bd a549 8ebb e928 08be
000000b0: cd3b cfbd 00b9 39bd f71b 9ebc c936 3c3c
000000c0: 741c 37bd 5218 20bd 9a86 d1bc 34a2 113e
000000d0: 21d1 08bd f291 3dbd 4287 66bd 2602 b0bd
000000e0: e7cf d5bd c910 8ebd 4254 31bd 0eaf 19be
000000f0: f5c5 8abd 1364 22bd 16b3 a4bd 762d 973c
00000100: 5b6b 21bd de3d f7bd 7afa c33d 88ef 473d
00000110: 4909 8dbd bbd8 4bbc 11a3 073d 6432 b13d
00000120: 10f1 1d3c ed79 013d 61e6 a7bd 0680 4ebd
00000130: 4e4e 3d3d 5e53 663c d615 733d bcd5 e13d
00000140: c41a 89ba 2b9b 4a3d 5026 433d 2d8c 743d
00000150: 82aa 42bd 2265 75bc 41ce a4bc 9f2c 84bc
00000160: 57a1 873c 0f2a efbc 2d57 0cbd c0e4 753c
00000170: 64cc 883c ff33 483d f4cb 08bd 75f0 e43d
00000180: 21d5 37be c6bb c8bc 039f 4abc bc02 20bd
00000190: d458 06bd a807 6cbd af83 4ebd 009f 0fbd
000001a0: 33be b0bd 081a 6bbd 49e4 ddbc 15cf 28be
000001b0: 46d0 37be ba86 61bd 9e9d e4bc 62fb 9dbc
000001c0: a8d2 7abd ed8a 6fbd 12ec 22bd d3a4 ebbd
000001d0: acfd 0bbd f6af 98bd c894 7cbd 08c7 e6bd
000001e0: 629d 47be faf4 89bd 3eb4 6dbd 356f 33be
000001f0: 7f72 0dbe e732 3abd 67c3 0dbd 8611 98bc
-0.18007867 0.029957762 0.021660011 -0.02290328 -0.019537125 -0.05611045 -0.04918701 -0.022630513
-0.09957983 -0.05729623 -0.002617596 -0.16734307 -0.18770082 -0.051169466 -0.014934691 0.01656983
-0.06135106 -0.051519644 -0.031762708 -0.11563222 -0.028059136 -0.086456835 -0.061762296 -0.11850869
-0.19140992 -0.070328064 -0.05210956 -0.18439174 -0.147239 -0.03848953 -0.03196862 0.026050627
-0.06501452 0.013450081 0.011274938 -0.017686756 -0.020046934 -0.042241517 -0.041824665 -0.011735741
-0.035797443 -0.037406985 -0.004342275 -0.13296856 -0.10118828 -0.045342445 -0.019300444 0.011487671
-0.04470487 -0.039085694 -0.025576878 0.14222032 -0.033402566 -0.046281762 -0.056281336 -0.0859416
-0.10440045 -0.06936795 -0.043293245 -0.15008184 -0.067760386 -0.03964622 -0.080419704 0.018454295
-0.039409023 -0.12072347 0.09569259 0.04881242 -0.06886537 -0.012441809 0.033114497 0.086521894
0.009639993 0.031610418 -0.08198238 -0.05041506 0.046217255 0.014057962 0.059346996 0.11027095
-0.0010460247 0.049464386 0.04764396 0.059703995 -0.04752589 -0.014977725 -0.02011788 -0.016134558
0.016556425 -0.02919486 -0.034262825 0.0150081515 0.016699024 0.048877712 -0.03339763 0.11178676
-0.17952396 -0.0245036 -0.012367013 -0.039065108 -0.032799557 -0.05762449 -0.050418552 -0.035063744
-0.086300276 -0.057397872 -0.027086394 -0.16485246 -0.17950544 -0.055060126 -0.027907189 -0.019284908
-0.061236054 -0.0584821 -0.039775915 -0.11506047 -0.034177467 -0.07455437 -0.061665326 -0.11268431
-0.1949363 -0.06736179 -0.05803322 -0.17522891 -0.13813208 -0.0454587 -0.03461018 -0.018563043

_deterministic_encoder.lstm.bias_hh_l0 f4 [128]
00000000: 8b66 38be fb69 f53c 5670 b13c a99f bbbc
00000010: 520c a0bc 12d4 65bd 5178 49bd a063 b9bc
00000020: 83f0 cbbd 74af 6abd f98b 2bbb fb5b 2bbe
00000030: a534 40be 1397 51bd a2b0 74bc 74bd 873c
00000040: 404b 7bbd 4306 53bd 9d19 02bd 96d0 ecbd
00000050: 46dc e5bc 4810 b1bd 76fa 7cbd afb4 f2bd
00000060: f600 44be 2908 90bd d670 55bd 30d1 3cbe
00000070: d2c5 16be 33a7 1dbd 87f1 02bd 2068 d53c
00000080: 5526 85bd bb5d 5c3c 84ba 383c d1e3 90bc
00000090: 7839 a4bc 7105 2dbd 5750 2bbd 4447 40bc
000000a0: 57a0 12bd 1138 19bd a549 8ebb e928 08be
000000b0: cd3b cfbd 00b9 39bd f71b 9ebc c936 3c3c
000000c0: 741c 37bd 5218 20bd 9a86 d1bc 34a2 113e
000000d0: 21d1 08bd f291 3dbd 4287 66bd 2602 b0bd
000000e0: e7cf d5bd c910 8ebd 4254 31bd 0eaf 19be
000000f0: f5c5 8abd 1364 22bd 16b3 a4bd 762d 973c
00000100: 5b6b 21bd de3d f7bd 7afa c33d 88ef 473d
00000110: 4909 8dbd bbd8 4bbc 11a3 073d 6432 b13d
00000120: 10f1 1d3c ed79 013d 61e6 a7bd 0680 4ebd
00000130: 4e4e 3d3d 5e53 663c d615 733d bcd5 e13d
00000140: c41a 89ba 2b9b 4a3d 5026 433d 2d8c 743d
00000150: 82aa 42bd 2265 75bc 41ce a4bc 9f2c 84bc
00000160: 57a1 873c 0f2a efbc 2d57 0cbd c0e4 753c
00000170: 64cc 883c ff33 483d f4cb 08bd 75f0 e43d
00000180: 21d5 37be c6bb c8bc 039f 4abc bc02 20bd
00000190: d458 06bd a807 6cbd af83 4ebd 009f 0fbd
000001a0: 33be b0bd 081a 6bbd 49e4 ddbc 15cf 28be
000001b0: 46d0 37be ba86 61bd 9e9d e4bc 62fb 9dbc
000001c0: a8d2 7abd ed8a 6fbd 12ec 22bd d3a4 ebbd
000001d0: acfd 0bbd f6af 98bd c894 7cbd 08c7 e6bd
000001e0: 629d 47be faf4 89bd 3eb4 6dbd 356f 33be
000001f0: 7f72 0dbe e732 3abd 67c3 0dbd 8611 98bc
-0.18007867 0.029957762 0.021660011 -0.02290328 -0.019537125 -0.05611045 -0.04918701 -0.022630513
-0.09957983 -0.05729623 -0.002617596 -0.16734307 -0.18770082 -0.051169466 -0.014934691 0.01656983
-0.06135106 -0.051519644 -0.031762708 -0.11563222 -0.028059136 -0.086456835 -0.061762296 -0.11850869
-0.19140992 -0.070328064 -0.05210956 -0.18439174 -0.147239 -0.03848953 -0.03196862 0.026050627
-0.06501452 0.013450081 0.011274938 -0.017686756 -0.020046934 -0.042241517 -0.041824665 -0.011735741
-0.035797443 -0.037406985 -0.004342275 -0.13296856 -0.10118828 -0.045342445 -0.019300444 0.011487671
-0.04470487 -0.039085694 -0.025576878 0.14222032 -0.033402566 -0.046281762 -0.056281336 -0.0859416
-0.10440045 -0.06936795 -0.043293245 -0.15008184 -0.067760386 -0.03964622 -0.080419704 0.018454295
-0.039409023 -0.12072347 0.09569259 0.04881242 -0.06886537 -0.012441809 0.033114497 0.086521894
0.009639993 0.031610418 -0.08198238 -0.05041506 0.046217255 0.014057962 0.059346996 0.11027095
-0.0010460247 0.049464386 0.04764396 0.059703995 -0.04752589 -0.014977725 -0.02011788 -0.016134558
0.016556425 -0.02919486 -0.034262825 0.0150081515 0.016699024 0.048877712 -0.03339763 0.11178676
-0.17952396 -0.0245036 -0.012367013 -0.039065108 -0.032799557 -0.05762449 -0.050418552 -0.035063744
-0.086300276 -0.057397872 -0.027086394 -0.16485246 -0.17950544 -0.055060126 -0.027907189 -0.019284908
-0.061236054 -0.0584821 -0.039775915 -0.11506047 -0.034177467 -0.07455437 -0.061665326 -0.11268431
-0.1949363 -0.06736179 -0.05803322 -0.17522891 -0.13813208 -0.0454587 -0.03461018 -0.018563043

_deterministic_encoder.fc.weight f4 [32, 32]
00000000: 24b0 44bd 23d8 5e3e f833 7b3e 5d82 aa3d
00000010: 543a 883e 974c aabd 099b 17be 9cb4 cd3d
00000020: d02e 7a3e 430c f63d 5a71 35bd bdd9 7fbe
00000030: 6ed9 87be 337f 3f3d 4778 aabd b205 de3d
00000040: 920c 07be 7059 e7bd 4885 be3c 0bd4 f13d
00000050: bb34 603e a648 15be ecd2 5a3e 0c5b 683e
00000060: f398 93bd 4d59 1dbe bfb9 8dbe db54 dfbd
00000070: 4bba 4fbe 98a1 6ebe d445 d0bd f12d 513e
00000080: 427b c73d 71bb c33d 84b2 8f3e a588 823e
00000090: 5e03 d5bd 961e 223d 9051 333e e182 933e
000000a0: 57b5 6a3e 1253 2dbd 3ffd 73be 2648 1fbe
000000b0: 4272 0abc 0260 903e dee5 fb3d 5277 dbbd
000000c0: 2b8f dbbd 05c8 08be 38f1 913e ed0c 673c
000000d0: 0c9f d3bd 273c 933e c0b3 723e 913b 98bd
000000e0: 1926 843d daf7 363e 7d60 063e c16d f0bd
000000f0: 7fe2 b23d f994 85be 2579 84be 799d 7a3d
00000100: 89ff 4cbd 4daa 24be f7ed 81be bff1 78be
00000110: 0a15 46bd 3f81 8fbd bf16 e63d 25a2 313e
00000120: e306 493e 3fe2 7c3e 281f 8dbc 9732 3a3e
00000130: 5606 debd e257 8abd 4bcd 41bd 8ed5 13be
00000140: 52b4 2b3e cb8a 24bc 7072 273e d75c fbbc
00000150: 01c6 08be 5730 91be d3e8 e8bd 2b2c 41be
00000160: 5c1a 4c3d 6b04 8f3d e70d 56be a1a9 ca3d
00000170: 32ca 30be c7df 693d fcde 17be c10f abbd
00000180: 4a5a 78be 6538 0fbc e96c 943c e858 1b3e
00000190: 0d81 94bd 19b7 883e c2fb 183e e92a 2fbe
000001a0: e36c 6ebe 9b23 07be 871e 913d 2c7e 1fbe
000001b0: c9a9 5cbd 37de 11be ea65 23bc 8eaf 583d
000001c0: 3102 8c3e 38a6 34be 8f67 4fbe d0f4 3a3e
000001d0: 9555 09be 17a2 83be d123 553e 8a5e ac3e
000001e0: 3f47 f7bc 5c79 e9bd d93e 493e 7adc 263e
000001f0: da46 0cbe 5a36 983e 57ef c53d 9e2d 4fbe
00000200: 8e7d 92be 4dc4 373d fed5 be3c 9684 ecbd
00000210: cc57 4bbd 8836 4dbe 0264 7c3b d1db 743e
00000220: 2e1a b33d ad02 543d f8f8 a2be 15b2 f7bc
00000230: 4af5 8ebe 6a3d 2c3e 5a96 863c b66b 6cbe
00000240: f775 0e3e 3350 50be 05e8 7abe 0f12 203d
00000250: f565 843e e839 583e 6240 89be c88c 423e
00000260: 6b5e 333e 434b 61be bfe0 883e 372c 733e
00000270: ae71 8a3e 781e 15be 6fc1 48be 5639 693e
00000280: ccd7 cd3d 83cb 9b3e f067 5ebe e448 3f3e
00000290: 3c06 7e3d dad5 323e 4c80 69be 1a27 643e
000002a0: e6ec 283e d524 213c f559 873e 0f9c 81bd
000002b0: ddfe 8cbd 17b0 813e 4888 b83d 531e 82be
000002c0: 8542 883d a139 c7bc 96bb 15be cf8a 103e
000002d0: d335 653d 127d f9bd 4880 f53d b828 5fbe
000002e0: 9304 3c3d 1711 cbbd e923 eabd 05c7 39be
000002f0: deeb be3a fb61 933e 8ce1 13bd dedc 46be
00000300: 152b 933b 72b0 6fbe b74b 963d 4a50 38bd
00000310: 39f7 b33d b6fb c7bd 9087 9e3d c4c9 1dbe
00000320: 1780 b93d 33ba 05be 6e33 cdbd 123a b6bd
00000330: c4d4 70be f9a4 77bd 6104 853b 907b 0ebe
00000340: 8678 533e bfa0 39be fe00 6dbe 379e 743d
00000350: 88f1 7abe a65c 243e b213 943e 0994 3ebe
00000360: fcfd 743e 3a69 05be 0803 4abe 59fa d4bc
00000370: 5daa 223d 7414 93be 1677 5e3e 2a5a 51be
00000380: 7938 dd3d e5a3 cf3d fe78 44bd 4b98 263e
00000390: 5cf0 dbbd 2d57 6ebc 8508 1bbe 0402 ac3d
000003a0: 06a2 a0bb 3f2f adbd 6863 93bd f805 82bc
000003b0: bcd7 123e 3c64 eb3d 47c7 9dbe 1628 f33d
000003c0: b585 aabd 9197 563e 934e e23d d9ed 5abd
000003d0: 6d09 1ebd 1aeb 51be 558d 02be db18 113e
000003e0: adc4 35be 0053 3d3d 103c 613c cbc9 bf3d
000003f0: 63f5 d7bd cb55 a43d 9e01 063e 24ba 5fbe
-0.048019543 0.21762137 0.24531543 0.08325646 0.26607 -0.083153896 -0.14805235 0.10044214
0.2443192 0.120140575 -0.044297554 -0.24985404 -0.26533073 0.046752166 -0.08323722 0.1084093
-0.13188389 -0.11296356 0.023256913 0.11808022 0.21895115 -0.14578494 0.21369523 0.22690982
-0.07206907 -0.15366097 -0.27680776 -0.10904857 -0.20285909 -0.2330383 -0.10169569 0.20427682
0.097403064 0.09557236 0.28065884 0.25494877 -0.10401033 0.03957995 0.17511582 0.2881079
0.22920738 -0.04231555 -0.23827074 -0.15554866 -0.008450093 0.28198248 0.12299703 -0.10716118
-0.107206665 -0.13357551 0.28504348 0.014102203 -0.1033307 0.2875683 0.23701382 -0.074332364
0.06452579 0.17867985 0.13122745 -0.11739684 0.08734607 -0.2609022 -0.25873676 0.061185334
-0.050048385 -0.1608059 -0.25376865 -0.24310969 -0.04835991 -0.070070736 0.11234807 0.1734701
0.19631533 0.24695681 -0.01722677 0.18183361 -0.10841052 -0.067550436 -0.047314923 -0.14436933
0.16768005 -0.010042856 0.16352248 -0.030683918 -0.13356782 -0.28357193 -0.11372533 -0.18864505
0.049829826 0.069832645 -0.20903741 0.098956354 -0.17264631 0.057098176 -0.14831156 -0.08352614
-0.24253193 -0.008741473 0.018118339 0.15170634 -0.07251177 0.26702192 0.14939788 -0.17106213
-0.23283724 -0.13197176 0.07085901 -0.15575475 -0.053872857 -0.14244924 -0.009973029 0.052901797
0.27345422 -0.17641532 -0.20254348 0.18257451 -0.13411553 -0.25709602 0.20814444 0.33665878
-0.03018534 -0.114001006 0.1965288 0.16295043 -0.13698903 0.29728967 0.09664791 -0.20232245
-0.28611416 0.04486494 0.023295399 -0.11548726 -0.049644276 -0.20040333 0.0038511758 0.23911978
0.08745228 0.051760364 -0.31830573 -0.030236283 -0.27921516 0.16820303 0.016429115 -0.23087963
0.13912188 -0.20343094 -0.24502571 0.039079722 0.25859037 0.2111584 -0.26806933 0.18999016
0.17516486 -0.22001366 0.26733968 0.23747335 0.27039856 -0.14562404 -0.19605039 0.22775778
0.100509256 0.30428705 -0.21719337 0.1868015 0.062017664 0.1746439 -0.22802848 0.22280541
0.1649662 0.009835442 0.2643582 -0.06328594 -0.06884549 0.25329658 0.090103686 -0.2541376
0.066533126 -0.024319472 -0.1462234 0.14115451 0.055959534 -0.121820584 0.11987358 -0.21792877
0.0459028 -0.09915369 -0.114326306 -0.18142326 0.0014566144 0.2878569 -0.03610377 -0.19420192
0.0044912198 -0.23407152 0.0733866 -0.044998445 0.08787388 -0.09764807 0.077407 -0.15408999
0.09057634 -0.1305931 -0.10019575 -0.08897795 -0.23518664 -0.060460065 0.00405936 -0.13914323
0.20651445 -0.18127726 -0.2314491 0.059721198 -0.245062 0.16050968 0.28921276 -0.18611158
0.23925012 -0.13028422 -0.19727719 -0.025998281 0.039713252 -0.28726542 0.21725115 -0.20444551
0.10801787 0.10138682 -0.04796695 0.16269033 -0.10739204 -0.0145471515 -0.15139969 0.08398822
-0.004902127 -0.08456277 -0.071966946 -0.015871987 0.14340109 0.114937276 -0.308161 0.1187288
-0.08326284 0.20956255 0.11050143 -0.053449485 -0.038583208 -0.2049984 -0.12749226 0.14169638
-0.17750807 0.046221733 0.01374723 0.09364661 -0.10544851 0.08024176 0.13086554 -0.21848351

_deterministic_encoder.fc.bias f4 [32]
00000000: 230a a6bc 666f b93d 0c15 b23c f892 5dbc
00000010: ec4f 98bc b52f 86bd 3bf9 153d 48d3 c43c
00000020: e323 44bd 9f40 95bd af55 4d3d 6c1d bc3d
00000030: 2f14 7dbd e773 5f3c fb1d a23d 6900 62bd
00000040: 6807 873d 8099 8e3d bfe6 9abd b67f 543c
00000050: 6cfd 09bb 9352 aa3d 2e65 243c 3a5c 773d
00000060: f9e6 97bd f802 94bd 3e6b 2ebd 9aa4 d8bd
00000070: 0d10 9b3d 1409 87b8 d40d e6bb 6631 9d3d
-0.020268505 0.09054451 0.021738552 -0.01352381 -0.018592797 -0.06552068 0.036614638 0.024026528
-0.047885787 -0.07287716 0.050130542 0.09185299 -0.061786827 0.013638473 0.079158746 -0.055176172
0.065932095 0.069628716 -0.075635426 0.012969902 -0.0021055592 0.08316531 0.010033889 0.06039069
-0.074171014 -0.07227129 -0.042582743 -0.1057827 0.07571421 -6.4389926e-05 -0.0070206914 0.07675438

_evidential_decoder.linear_layers_list.0.weight f4 [64, 33]
00000000: 7c3b 05be ee83 babb 360f e33d ddfc 8d3c
00000010: 46fb e6bd 3454 9abd 251a a6bb d8b5 413d
00000020: daf9 3c3d e117 cbbd 9a5c 1a3e 348b 28bd
00000030: eeab 00bd 287e 8bbd d11c 053e 8f63 24be
00000040: a0d3 cdbd 892e 9dbd 4e29 9fbd a386 553d
00000050: afbd 06be 306c b33d 1aa4 293e 53e8 103d
00000060: a34d e9bd 63fb bebc 057e 05be d306 b4bd
00000070: b90e 9e3b 4e7d 2ebc 9756 05be 9d5c 213d
00000080: ae5f 2c3e a3ee 6bb7 89e1 4fba 91a8 f3a6
00000090: f4b6 e439 0073 2bba ea2a 05b6 aaa9 a225
000000a0: 01a1 29b6 6c8b 22b7 c065 efba f2ce 2db9
000000b0: 064e 7a3a cb00 873b cdc7 09b7 a871 ecbb
000000c0: 79f9 9fba cb74 efb8 d47e 84bb 6761 b6b8
000000d0: 0b93 0ebb 8635 d1b0 d2c1 f4ba ee25 753a
000000e0: f1d9 d533 5f49 2fbb 03a5 6c2f 47ad 99b8
000000f0: 2f98 0b39 77ca 92b5 b9cd bc3a c802 be38
00000100: f89a 16b4 0e50 003d 51ff edbb 85b9 e3bb
00000110: c927 e9ba 969a 573c d689 a1bb 9fa2 e53b
00000120: 8a6e 4cbb 3e2d 80bb b2e7 923b 242e 973b
00000130: aee5 c0bb 1da4 24bc 4429 393c 452d ddbb
00000140: 67c2 163b 67d7 3f3c 1edb 9e38 e6a9 70bc
00000150: 310e c73b beca 29bc 93a5 3c3b 33f4 76bc
00000160: 50fb d2bb 62a2 a6bb 1219 dabb c501 163b
00000170: 48e7 b53b 27f5 693b a9a2 9fbb b675 e43b
00000180: 14e1 bc3b 35a7 a4bb 3603 303b f9b6 19bb
00000190: c7fc 8fbb 185f 0500 371b 983b 2668 6db7
000001a0: c356 a13b 0a64 5130 80a1 bfb9 19db 3e36
000001b0: fa9d a03b 5e2f 94b9 f579 f6bb 20e0 d93b
000001c0: d9d8 02b9 5c77 c6bb 4d19 cd3a 7e43 b4ad
000001d0: feca 9dbb 493c 0f3a dd52 2dbb effb 0d2a
000001e0: b25b f9bb b8e7 5bbb c6d8 18ba 3b39 bb3b
000001f0: 6b00 1737 4ffb dd3a 314f 113a a659 10b9
00000200: 6870 bb3b 48d7 ad3a bc89 e3b8 d0bb 18bc
00000210: 0b3e 2b3c 387a 4b3c ce77 843d 3aba fcbd
00000220: cdd1 95bc 4ebd 82bc 0c01 a13c afb8 8a3c
00000230: 3153 a03d 5165 9a3d 47ac 993d 6065 a5bd
00000240: 3c2c a63d a404 5a3d 5293 2bbd cb3c dcbc
00000250: ef02 3fbd 5342 9fbc c22b 0c3e f902 24bd
00000260: ffd6 05be cc48 6cbd f5fc f93d eb67 a6bd
00000270: ed17 11be 3530 133e 86c3 90bd a9ce 693d
00000280: dc6e c3bd 7e14 c7bd 7571 56bd b033 4e3c
00000290: 584a 1a3f b77a 9b8b 6119 50bb b557 0f84
000002a0: 87cc 4937 2514 0205 1dd5 b03b 87a9 4985
000002b0: 32ed 3f9e f328 ff32 068a 533b 5f3e 55ba
000002c0: 3dae 08bc c9cf c73b f329 a384 5c9a 96bb
000002d0: 3d05 7139 b9f2 5084 e34f 97bb 1aca 9c3a
000002e0: 71fe 41b6 329f 4121 ba9b a8bb c890 36b0
000002f0: 5cab 2189 3644 803b 9444 c335 6c8b 3038
00000300: f6bf 4b3a b879 9dbb 452c 9039 1c61 0737
00000310: 5f8b 2bb9 858a 1ebc e3f4 353e 25f1 f63d
00000320: b642 593d 1fb2 93bd 14bc 143e ec8f 6abd
00000330: 6b58 a63d 1ed8 1c3e db60 c0bd cab3 50be
00000340: ca13 583e 77ce 3a3e 8b47 08be 5e72 173e
00000350: 2230 6b3d eb67 6dbe b848 03be 43cd 833e
00000360: 74de 29bd 1aa2 cc3d 5e4c 5dbd 0382 bc3d
00000370: 8c79 2f3e 2e03 af3d 6ac2 1dbd fe02 81be
00000380: 4717 6fbe f09e b4bc 3173 233d 4fad 5cbd
00000390: 250e 943c 3459 8a3d 86a6 1fbd 2c85 dbbd
000003a0: e9dc 203d 0858 cbbd ce2e 48bd e597 96bd
000003b0: 2bf6 a63d 4083 3ebe 37d6 e33b 7388 51bc
000003c0: af9f 7dbe dfa1 c73d 3568 543e 4b59 02be
000003d0: 4d68 a8bd e5c8 d5bc 5c1b a03b ffd9 67ba
000003e0: 3fe6 d13d b57d c43d 3d3c 54bc be9c bc3d
000003f0: c2f5 3b3e e7b1 36bd 6909 d1bd fd87 c2bd
-0.13010973 -0.005691997 0.11086886 0.017332489 -0.11278395 -0.07535592 -0.0050690346 0.04729256
0.046136715 -0.09916664 0.15074387 -0.04114838 -0.031413965 -0.06811172 0.12999274 -0.16053604
-0.1005013 -0.076748915 -0.0777155 0.052130353 -0.13158296 0.087608695 0.16566506 0.03537781
-0.11391761 -0.02331323 -0.13036354 -0.08790364 0.0048235324 -0.010649992 -0.13021313 0.039394964
0.16833374 -1.40626535e-05 -0.00079300307 -1.6907202e-15 0.0004362386 -0.00065402687 -1.9843524e-06 2.821749e-16
-2.527668e-06 -9.688414e-06 -0.0018264577 -0.00016575659 0.00095483696 0.0041199676 -8.212356e-06 -0.0072156973
-0.0012205086 -0.000114181625 -0.0040434394 -8.696579e-05 -0.0021755125 -1.5221964e-09 -0.0018673486 0.000935166
9.958229e-08 -0.0026746613 2.1522699e-10 -7.327884e-05 0.00013312766 -1.0936773e-06 0.0014404572 9.060424e-05
-1.4026216e-07 0.031326346 -0.007263102 -0.006949606 -0.0017788346 0.013159415 -0.0049297614 0.0070079113
-0.0031193816 -0.0039116433 0.0044831866 0.0046136547 -0.005886755 -0.010048893 0.011301342 -0.0067497813
0.0023004056 0.011709071 7.574841e-05 -0.014688944 0.00607469 -0.010363279 0.0028785213 -0.01507287
-0.00643865 -0.0050852755 -0.0066558206 0.0022889238 0.0055512525 0.00356991 -0.0048716855 0.00697204
0.005764136 -0.0050248154 0.0026857383 -0.0023455007 -0.004394147 4.9329e-40 0.004641916 -1.415055e-05
0.004923673 7.617592e-10 -0.00036550686 2.8439738e-06 0.004901645 -0.0002826405 -0.0075218626 0.0066490322
-0.00012478548 -0.006056709 0.0015647799 -2.0493603e-11 -0.0048154583 0.0005464 -0.0026447095 1.2610723e-13
-0.007609808 -0.0033554863 -0.00058306416 0.0057136095 9.000399e-06 0.0016935858 0.00055431115 -0.00013766307
0.005720187 0.0013263011 -0.000108498585 -0.009322122 0.010451804 0.012419276 0.064681634 -0.123402074
-0.018288517 -0.015959408 0.01965382 0.016933767 0.078283675 0.07538856 0.075035624 -0.08075976
0.08113906 0.053227082 -0.041888542 -0.026884457 -0.046633657 -0.019440806 0.13688567 -0.040041897
-0.13070296 -0.057686612 0.12206451 -0.081252895 -0.14169283 0.14373858 -0.07068543 0.057081852
-0.09542629 -0.097207054 -0.052354295 0.012585565 0.6026969 -5.988847e-32 -0.0031753408 -1.6849842e-36
1.2028154e-05 6.1162706e-36 0.005396499 -9.482112e-36 -1.0160507e-20 2.9704529e-08 0.0032278313 -0.0008134599
-0.008342323 0.006097768 -3.835964e-36 -0.004596038 0.00022985502 -2.4561735e-36 -0.0046176775 0.0011962086
-2.8907345e-06 6.5601637e-19 -0.005145517 -6.641696e-10 -1.9460243e-33 0.0039143814 1.4548591e-06 4.2091517e-05
0.000777244 -0.00480577 0.00027498804 8.069237e-06 -0.0001635975 -0.00967658 0.17769198 0.120577134
0.053042136 -0.07211708 0.14524871 -0.05726616 0.08122333 0.15316817 -0.09393474 -0.20381084
0.21101299 0.18242823 -0.13308541 0.14789721 0.05741895 -0.23184173 -0.12820709 0.2574254
-0.041471913 0.09991856 -0.054027908 0.09204485 0.1713621 0.08545528 -0.038515486 -0.25197595
-0.23348723 -0.022048444 0.039904777 -0.053876217 0.01807315 0.067552954 -0.03897717 -0.1071876
0.039273176 -0.099289 -0.04887276 -0.0735319 0.081524216 -0.18604755 0.0069530266 -0.01278888
-0.24767946 0.09747671 0.20742877 -0.12729375 -0.08223019 -0.02609677 0.004886074 -0.00088444346
0.10248994 0.09594289 -0.012953815 0.09209584 0.18355468 -0.044603255 -0.10206873 -0.09498594

_evidential_decoder.linear_layers_list.0.bias f4 [64]
00000000: b7c8 373e 5013 12bd 586f 803a c3b2 5fbc
00000010: e671 ffbd a3d7 a4bc ce4b 473e 1cbc 593e
00000020: d782 f63d 2e3e b4bd b977 0a3d 37f1 bb3d
00000030: a34c 193e 0bd5 513e cd7e 40bd 742e 0dbb
00000040: f2c1 ed3d 9fcd 4abd 33f2 94bc b61e 87a7
00000050: f332 c3bd c9c4 9a3d 2288 b13d 93d6 9fbc
00000060: 5ab4 d23d dd47 2c3e 5c81 19a1 064a 5ebd
00000070: 6edc bebb 302c 0d3e e81c 9abb 9e32 1b3e
00000080: 42b4 003e 335a ce3d 5200 e8bb eb9c af3c
00000090: a8f8 6ebc 186f d73d 3110 7f3e 6e32 033e
000000a0: f8fa 14b8 9eef 19bd 30d6 b83b ee50 2aa2
000000b0: 9290 9b3d cb42 e0bd cca7 103e 1ded 03b2
000000c0: e837 a23e 01a7 71b9 793b d4bb 7a73 683e
000000d0: 33b9 88bc 6e3e 4d3d 4497 233e 44b9 60bb
000000e0: 0321 66bd b94e b6bc a635 86bc 9616 1e3e
000000f0: 51b0 8cbc 95ec 053e fd6e 7f3e ea7a ca9b
0.1794766 -0.03566295 0.0009798808 -0.01365346 -0.12472896 -0.020122355 0.19462511 0.21263164
0.120366745 -0.08800922 0.033805583 0.091768675 0.14970641 0.20491426 -0.046995927 -0.002154258
0.11609258 -0.0495125 -0.018181896 -3.7503324e-15 -0.09531202 0.07557065 0.086685434 -0.019511497
0.102883056 0.16824289 -5.200962e-19 -0.054269813 -0.005824617 0.13786387 -0.004703153 0.15156028
0.12568763 0.10075798 -0.0070801163 0.021437129 -0.014585651 0.10519236 0.2490852 0.12812206
-3.5519683e-05 -0.037582032 0.0056407675 -2.308214e-18 0.07595934 -0.1095024 0.1412651 -7.679117e-09
0.31683278 -0.00023045765 -0.0064768163 0.22700301 -0.016689872 0.050108366 0.15975672 -0.0034290114
-0.056183826 -0.022254335 -0.016383003 0.15438303 -0.017173918 0.1307853 0.24944682 -3.3497528e-22

_evidential_decoder.transform_gamma.1.weight f4 [64, 64]
00000000: e312 08bd 1631 4738 bd73 3a3a a706 f33b
00000010: db95 c63d 4f45 2abc 8fdf 4c3d a6ab bcbd
00000020: 33f4 f5be 0cb8 b4bb 6117 0abe 2bdf 6d3d
00000030: 0ad2 413e 9971 33bd 8c2a 923d 2afe 403b
00000040: 6a27 cf3d 598a a23a 1a23 89bd 1565 0580
00000050: 4917 ccbd cc40 c53d 6a57 303e ea0a 493a
00000060: 5b3b bb3d 7e81 603d 217f 0500 b806 b2bc
00000070: 1aad c3b9 fcb5 d63d cf0f 93ba 4ca4 03bd
00000080: f6f9 1ebd 54e4 8fbd f0ee 173b 8c30 19bd
00000090: 8035 6c3c 61cb bb3d 8489 fbbd fe17 273d
000000a0: 5d66 0580 6455 6f3c 2fa1 433b 1f0a 9daa
000000b0: 94e2 e8bd b7d3 07be 43ae cfbd 07d5 0bab
000000c0: 69ea c03d cfb0 2d15 aa51 413b ab17 673d
000000d0: d739 47bc c6df cebc 7cd4 4c3b aa2a 8035
000000e0: 525f 1cb7 c52c 1c3c fab3 09be 0f1a d83b
000000f0: 8392 c2bc 0c9d d1bd 9da7 5cbd c05a 0500
00000100: 155a ad3c 6a68 0500 3e92 0500 5b5d 0580
00000110: 26ec 8bbf 112f c9bc c6b6 7e3d 839b 433e
00000120: f23d 32bf 5cdc 9cbe 8951 92be ef96 0e3d
00000130: 6e87 fb3e 379e bf3d 1b47 6e3e 7c8d 0500
00000140: a4b7 2f3d 6164 a0bd 910d 3e3e 2088 0500
00000150: 0e8d 0580 789f de3e db24 093f bec0 0580
00000160: b605 7b3d 64e0 d83e 4068 0580 53bf 9bbe
00000170: 82e4 0580 0e2c 863c 9673 0580 714f 903d
00000180: 7405 1e3e 3e8f 61bd b2d4 0580 f0da d33c
00000190: b8ba 0580 ae60 173c efd1 c03d 2c09 823d
000001a0: 385d 0580 b0ce afbe 8fee 6bbc 2cd1 0500
000001b0: aa44 8e3e 0b7a 9ebc 5545 063c 7862 b7ac
000001c0: e912 f13d b2cc 0580 0f5d 0500 94ee 163e
000001d0: 41fa 413e 4110 3f3b 0e02 ce3c 4164 0580
000001e0: 5975 0580 c045 0600 ae20 4bbe 583d 303e
000001f0: 61c5 803a 1a83 5f3e b8e9 573e d6e5 0580
00000200: 2c21 943d 8522 4fb8 6f66 0500 b15c 0580
00000210: 0565 ab3c d28c 0580 da1c 9a3d 53de 68bd
00000220: fe87 0580 b448 8abd 83aa a53d aaf4 11bd
00000230: eb78 3e3d 929f 013d a6c6 0680 f09b 0580
00000240: 2708 98bd 2648 b7bd 28ed 1abd 4761 0580
00000250: bf60 b4bc 9e52 3d3c d3df 22bc 12d6 c1b9
00000260: 3375 31bd 21ee 833a 5f6f 0500 4361 bfbc
00000270: 2a69 0580 a20a 31bd 196c 0580 2043 46bd
00000280: 546e 4e3d 9d2d 583c a270 0580 df65 b7b2
00000290: 8284 0500 55dc e23d 0432 a0bd ebdb a6bd
000002a0: 9c58 0500 8cec 3abc 4f65 0580 e576 0500
000002b0: c687 0580 bd00 803d 4fdc 4bbd 225e 0580
000002c0: 0441 b2bd 4674 0500 a181 0580 9d5a bf3d
000002d0: 93b0 403c 2864 923c 0e08 36bd 3f5c 0580
000002e0: 46c0 4ab6 ed74 0580 cc4d e3bb d072 4ebd
000002f0: b974 0580 e024 aabd b816 0e3c 285a 0580
00000300: 1c81 39a0 ce2c 0600 0f20 0680 9859 0580
00000310: 3963 0500 8d66 0500 d6d5 2fac c361 0500
00000320: 5714 0680 4aa0 0500 8c65 0500 8f68 92a7
00000330: f7cc 819e 5bc1 1027 409e 0580 7c5e 0500
00000340: f6b8 9c96 2b44 8007 4358 0500 0e73 0500
00000350: 3e5c 0580 fb5a 0580 175f 0580 2e7f 0500
00000360: 22e0 9ba0 fd5e 0580 d762 0580 afaf 7c8d
00000370: 70fb 0500 9ea0 0421 84bb 0580 3158 0580
00000380: cdc3 9596 1e5d 0500 4c1a 0600 cc58 0580
00000390: af63 0580 cc95 ac26 6561 0500 dd69 0b9f
000003a0: 3274 0580 f05f 0580 b89a 0500 69ab 0600
000003b0: fe72 0500 bef4 0715 27ab 2aa1 c168 0500
000003c0: 12b2 3c9c 57fa 0580 cd5c 0580 fadf 0800
000003d0: 475b 0500 8b28 459f f815 db91 475f 0500
000003e0: d488 0500 7468 0500 d557 0500 955f 0580
000003f0: ab78 0500 7c5e 0500 3465 0580 656e 0580
-0.033221137 4.7491012e-05 0.0007112583 0.0074165645 0.096965514 -0.010392501 0.05001789 -0.09212427
-0.48037872 -0.005515104 -0.13485481 0.058074158 0.1892778 -0.043809507 0.071370214 0.0029448369
0.101149395 0.001240085 -0.06696148 -4.95439e-40 -0.09965379 0.096315 0.17220846 0.0007669168
0.091421805 0.054810993 5.04783e-40 -0.02173172 -0.0003732227 0.104839295 -0.0011219921 -0.032139108
-0.0388126 -0.07025972 0.002318319 -0.037399814 0.014417052 0.09169651 -0.122820884 0.040794365
-4.95899e-40 0.014607761 0.0029850712 -2.7895825e-13 -0.11371341 -0.13264357 -0.1014066 -4.9678355e-13
0.0941971 3.507655e-26 0.0029498138 0.056419056 -0.012159786 -0.025253188 0.003125458 9.54916e-07
-9.320518e-06 0.009532158 -0.13447562 0.0065949033 -0.023751503 -0.102350324 -0.053870786 4.91732e-40
0.021161119 4.96634e-40 5.11639e-40 -4.92667e-40 -1.0931442 -0.024558576 0.062186025 0.19102292
-0.6962577 -0.3063687 -0.2857783 0.03481191 0.49126762 0.09356349 0.23269312 5.09933e-40
0.042899743 -0.07831646 0.18559863 5.0801e-40 -5.09778e-40 0.4348104 0.5357186 -5.2832e-40
0.061284743 0.42358696 -4.96575e-40 -0.30419406 -5.4115e-40 0.016378429 -5.00642e-40 0.07046402
0.15431768 -0.055068247 -5.35478e-40 0.025861233 -5.2616e-40 0.009239359 0.09415042 0.06349406
-4.92618e-40 -0.34337378 -0.0144001385 5.34214e-40 0.27786762 -0.019345304 0.008195241 -5.212105e-12
0.11771185 -5.32608e-40 4.9256e-40 0.14739448 0.1894312 0.0029153975 0.025147464 -4.95142e-40
-5.01274e-40 5.76035e-40 -0.19836685 0.17210901 0.0009824448 0.21827355 0.2108525 -5.41627e-40
0.072328895 -4.9384795e-05 4.95924e-40 -4.92429e-40 0.020922193 -5.09694e-40 0.07525034 -0.05685265
-5.07962e-40 -0.06752148 0.08089163 -0.03563372 0.046502035 0.03164632 -6.22275e-40 -5.15117e-40
-0.0742343 -0.08949308 -0.037823826 -4.94074e-40 -0.022018788 0.011555342 -0.009941059 -0.00036971323
-0.04332466 0.0010065475 4.9913e-40 -0.023361808 -4.96903e-40 -0.04322303 -4.97956e-40 -0.04840386
0.050398186 0.013194469 -4.99583e-40 -2.135033e-08 5.06712e-40 0.11077181 -0.0782204 -0.08147415
4.90965e-40 -0.011408936 -4.9552e-40 5.01829e-40 -5.07884e-40 0.06250141 -0.04977065 -4.92946e-40
-0.08703807 5.00889e-40 -5.0568e-40 0.09343455 0.011760849 0.017870024 -0.044441275 -4.92269e-40
-3.0212263e-06 -5.01123e-40 -0.0069367643 -0.050402462 -5.0105e-40 -0.083078146 0.008672409 -4.9152e-40
-1.5712828e-19 5.67086e-40 -5.62513e-40 -4.91318e-40 4.94772e-40 4.95966e-40 -2.4987699e-12 4.94248e-40
-5.5831e-40 5.16678e-40 4.95606e-40 -4.0636503e-15 -1.3743178e-20 2.0088833e-15 -5.15947e-40 4.93072e-40
-2.5319886e-25 1.9299365e-34 4.9084e-40 5.00451e-40 -4.92268e-40 -4.91815e-40 -4.93289e-40 5.04801e-40
-2.640634e-19 -4.93253e-40 -4.94635e-40 -7.7864967e-31 5.49376e-40 4.4935915e-19 -5.26445e-40 -4.90815e-40
-2.4195816e-25 4.92582e-40 5.60447e-40 -4.91032e-40 -4.94937e-40 1.19755e-15 4.94116e-40 -2.9521963e-20
-5.0086e-40 -4.93593e-40 5.1468e-40 6.12503e-40 5.00429e-40 2.74561e-26 -5.782476e-19 4.96756e-40
-6.2434133e-22 -5.48982e-40 -4.92468e-40 8.15032e-40 4.91922e-40 -4.174991e-20 -3.4565647e-28 4.93357e-40
5.08262e-40 4.96648e-40 4.90686e-40 -4.93466e-40 5.02465e-40 4.93072e-40 -4.95482e-40 -4.9878e-40

_evidential_decoder.transform_gamma.1.bias f4 [64]
00000000: 4422 b83d 4eb8 953d be1b dc3c d29b 39a6
00000010: eb95 e23c f418 7dab 7e05 e73c de87 643d
00000020: ec6e 203d eae8 0bbb 58bd 0d3e 280a c53d
00000030: 0a9b 9f3c 48a7 35bc 6da5 c6ba 33cd 2dbd
00000040: 4494 0cbc c1af eaba a127 df3c 03ad 083e
00000050: 88a6 a73d 1616 0fbc be5e ba3c b0dc 9fb5
00000060: a742 6b3d f0f9 a9bb 496d 593d 41b7 16bc
00000070: 340c 7cbd 1fd3 bca7 db2c 223d 33bd 733d
00000080: df56 0b3e 7fca 48bd 1037 92bd 89f7 d13d
00000090: e170 20ba 5402 773d 89a2 843d d479 123d
000000a0: 4992 123e 29cf 92bc 5c2b 15bd 01a3 9fbd
000000b0: 03ca fd3d e028 cc3d fb2c 4abd ef14 10bd
000000c0: 24ab e73c a5a7 7f3c 4a3e 9e3d f40f 62bd
000000d0: 8643 b23c 6ee8 4abd df98 713d 654d d9ba
000000e0: 6ba4 ffba 795b d3bc a9a8 3bbd c050 2abc
000000f0: 0b6b a099 b209 56bd 0c0d febb fb41 0b3e
0.08990911 0.07310544 0.026868697 -6.4395945e-16 0.027659377 -8.9918285e-13 0.028200861 0.055793636
0.039168283 -0.0021348544 0.1384176 0.09621078 0.019483108 -0.011087246 -0.0015155502 -0.04243202
-0.008580271 -0.0017905162 0.027240576 0.13347249 0.0818606 -0.008733293 0.022750255 -1.1910652e-06
0.05743661 -0.0051872656 0.053082738 -0.009198965 -0.061535075 -5.240938e-15 0.03959356 0.059506606
0.13607357 -0.04902124 -0.071394086 0.10252292 -0.0006120336 0.060304955 0.064763136 0.035760716
0.14313616 -0.017921047 -0.036418304 -0.077947624 0.12392046 0.09968734 -0.049359303 -0.035176214
0.028279848 0.015603934 0.077267244 -0.055190995 0.021760713 -0.04953807 0.05898368 -0.0016578852
-0.0019503956 -0.025800453 -0.045815144 -0.010395229 -1.6586847e-23 -0.05225534 -0.00775302 0.13599388

_evidential_decoder.transform_gamma.3.weight f4 [1, 64]
00000000: 4484 9e3d d4d4 df3e f8b5 c83d 849c 0600
00000010: 1d3c 60bd 5692 12a8 013f 8f3e 04a6 e1bb
00000020: 0323 6f3d f655 b13a 90e3 f83e 5cfc 9ebd
00000030: 337e b0bc c27f 76bc 5795 0d3c c3ed cabd
00000040: 834c a13c 0360 0580 31c2 93be babd ed3e
00000050: 22e2 813d 7324 0dbc e060 b43d db38 42bc
00000060: 07c0 8c3d ce47 123c 5041 783c d82e 9239
00000070: 675c 05be 2ca2 0500 74d2 e13e 587d 643d
00000080: 5179 673d bd16 dcbd 5319 ffbb 55c1 0e3d
00000090: 5042 713c 3dc0 8d3e 7854 073d 0c9d ba3a
000000a0: 4869 b03d 2f10 e13b 06b4 20be 2ca4 673b
000000b0: 1408 d13e ee49 ef3c 2301 319e 362d 8239
000000c0: 0313 10bd 4be5 573e d77a babc ac8c 8939
000000d0: aa49 b73c 44dc e3bd 1cc2 c9bb d05f 0500
000000e0: efe5 603b d19c 08bd 827b 823c 7bc8 c1bd
000000f0: 18c0 5a06 14b4 2cbe 4ebb 103c 06a6 fd3d
0.077400714 0.43717062 0.09800333 6.0716e-40 -0.05474483 -8.13636e-15 0.27977756 -0.0068862457
0.058383 0.0013529647 0.48611116 -0.077629775 -0.021544551 -0.015045108 0.008641562 -0.09908631
0.019689804 -4.9362e-40 -0.28859094 0.46433812 0.063419595 -0.008614647 0.0880754 -0.011854376
0.06872564 0.008928252 0.01515229 0.0002788219 -0.1302353 5.17354e-40 0.44105875 0.0557836
0.05651218 -0.107465245 -0.0077850013 0.034852345 0.014725283 0.2768573 0.03303954 0.0014237477
0.08613831 0.0068683843 -0.15693673 0.0035345657 0.40826476 0.029210057 -9.370537e-21 0.00024829217
-0.03517438 0.21083562 -0.022763653 0.00026235485 0.022373993 -0.11125997 -0.006157173 4.93549e-40
0.0034316739 -0.033352677 0.015928034 -0.09462067 4.114237e-35 -0.1686557 0.008833719 0.12385182

_evidential_decoder.transform_v.1.weight f4 [64, 64]
00000000: ca14 7aa8 295f 0500 ea7f 0580 ea6b 0580
00000010: 955b 0580 ea66 0500 2d28 8cad aa77 cd8f
00000020: df71 0580 2c02 8197 7e5f 0580 8474 69ac
00000030: 0f93 218d 8435 77aa e259 0500 c4d5 0500
00000040: 3fe8 76a7 c867 b58b 3758 0500 885c 0580
00000050: 17d8 0500 17b6 c405 8659 0580 077c 0580
00000060: f052 2ca6 bc58 0500 c449 0600 0df2 b49c
00000070: 096b 0580 875e 9eaa cf74 0580 5b91 039c
00000080: cfd4 dd98 b965 0500 3b57 0580 ee86 0580
00000090: 3f16 0600 c2e0 5cac bcaf 0a9a ce11 83a9
000000a0: 4869 0500 dd61 0580 c464 0580 0f87 0580
000000b0: 1e65 0580 6a1f 4b9c d5e0 8aa5 95d8 0600
000000c0: 6d7d aea1 5e5e 0580 8a6a 0580 e66b 9a90
000000d0: d466 0580 4f8c bca2 edec 52a0 316c 0580
000000e0: 955e 0500 c183 0500 2953 b299 e664 0580
000000f0: 0069 0580 fa8d 0480 4857 0500 2055 0600
00000100: 04e5 cabc 185a 0580 f620 a32c db5c 0580
00000110: 2dd0 4ebe ba62 b904 0a1f 3a3e 4aa5 a83d
00000120: 3103 753e b98f 143e 2557 423e 0daf 5b3d
00000130: a51c 6abd 5cbf cd3d a133 20be 935f 0500
00000140: d8a4 8b3b 38b2 6f3d 2e4d f2bb f16d 0580
00000150: c497 dc3a 6441 1bbe 562c 30be eeaa 0898
00000160: 9568 fcbc a705 00be 6b7d 0580 9036 303d
00000170: 4977 0500 0dde b13d d35f 0500 1d68 5c3b
00000180: 883c b63c 28b7 cd3d e76e 0500 cf14 a12f
00000190: e55e 0580 6217 523d f8c5 fa3d d3f4 ed3c
000001a0: 03ba 0600 169a c33d e839 e4ba 0e60 0580
000001b0: 890c 2dbc 09a2 e93d ba01 073e 9e0f 5827
000001c0: b39f 433e b159 0500 d866 0580 8b31 333e
000001d0: 4523 433d 3498 d03b 2c05 2dbc a275 0580
000001e0: 7262 0580 8747 cc24 9b6a ff3d 8674 d43c
000001f0: fd9d 6db9 ea1e 423c a5af b33d 5643 0600
00000200: 8e2e 0f3c 4969 0500 67d2 0680 8f5c 0500
00000210: 6bd2 38be db59 4604 149e 2b3d b8ff e23d
00000220: e6ba 513e f7dc d93c d5ae da3d 9089 c83c
00000230: 8f41 3dbd b8fd c93d 5fc3 a3bd b071 0500
00000240: 6e3a 5c3d 7554 89bc bcf8 923c e09f 0500
00000250: f4b5 b137 c3a4 40bd 6da0 0cbe 32c9 f017
00000260: 6234 983d 24c5 bebd 506d 0500 15fa ea3d
00000270: e369 0580 4ca1 e03d 4c75 0500 e413 2b3d
00000280: a081 5d3c 7a3c 453c bcad 0580 6627 0b29
00000290: b166 0500 1708 a1bc b69e 6a3d 744b 093d
000002a0: 38bf 0580 ebca 7a3d 53d9 dfb8 cf7f 0500
000002b0: de67 77bc 4394 bebc 672f 113d f3d9 9825
000002c0: f236 da3d df73 0500 c581 0500 12aa 543d
000002d0: 7c23 b63c 0d18 2a3d 7e44 b73d 4b79 0580
000002e0: 7b67 0580 d864 0500 c4f8 ed3a 12cb 0a3d
000002f0: c9a7 b1b4 caf1 4c3d 9f2e a13c a8a1 0500
00000300: 91e7 0f3e 7fbd 0680 a857 0580 386a c184
00000310: 5a43 cb3e 6ba7 60b2 5107 71bd ec0a 5abd
00000320: d9ce 38bc 3cca 923e c138 8c3e 6950 b03c
00000330: c7cc 3fbf 2806 a2bc 9a80 7bbf 3260 0500
00000340: 7e4a a6bb 3720 a73d 36ba 66be 9eb5 0580
00000350: 706c 92bc 7c7e 4bbf ca90 59bf dc3b 299a
00000360: 9bbf 83bd 94b5 82bf 3573 0500 1098 d83d
00000370: 456d 0500 8b51 4e3e d95e 0500 7054 b43d
00000380: 58ff 59be 9f73 ae3e 9465 0500 ccfd 95bb
00000390: cb5e 0500 8c6f 763c f0c0 01bd 1655 7b3d
000003a0: ff3e 0600 73fc 0b3f d67a 50bb 2c78 0500
000003b0: a94d 62bf f18e a2bc 87ac 5e3e 0120 cca9
000003c0: 4e7f 0fbd ce79 0580 f35f 0500 91fc 28bd
000003d0: 3611 9cbe 907a 283e 4828 1d3e f558 0580
000003e0: 2e5c 0580 59a9 fc32 fc18 b93d d435 83be
000003f0: 5189 d4bc bd0e 87be a700 413c 2e94 0500
-1.3882296e-14 4.93315e-40 -5.05064e-40 -4.9789e-40 -4.92031e-40 4.96096e-40 -1.5933999e-11 -2.0260654e-29
-5.00027e-40 -8.336978e-25 -4.93434e-40 -3.317597e-12 -4.978897e-31 -2.1956574e-13 4.91421e-40 5.35862e-40
-3.4265259e-15 -6.9874817e-32 4.90823e-40 -4.92371e-40 5.36696e-40 1.849864e-35 -4.91292e-40 -5.0367e-40
-5.978689e-16 4.9101e-40 5.77475e-40 -1.1973969e-21 -4.97574e-40 -2.813203e-13 -5.0108e-40 -4.353213e-22
-5.7342043e-24 4.95669e-40 -4.9047e-40 -5.07581e-40 5.58993e-40 -3.1388646e-12 -2.8679688e-23 -5.820657e-14
4.96945e-40 -4.94284e-40 -4.95325e-40 -5.07627e-40 -4.95451e-40 -6.7207667e-22 -2.4091536e-16 6.28708e-40
-1.1823899e-18 -4.9303e-40 -4.97396e-40 -6.0908534e-29 -4.96065e-40 -5.110606e-18 -1.7866084e-19 -4.97989e-40
4.93107e-40 5.06442e-40 -1.8438357e-23 -4.95373e-40 -4.96844e-40 -4.18274e-40 4.90488e-40 5.8155e-40
-0.024767406 -4.91497e-40 4.636398e-12 -4.92488e-40 -0.201966 4.3583957e-36 0.18175903 0.082346514
0.23926999 0.14507951 0.18978556 0.05363374 -0.057156224 0.100462645 -0.15644695 4.93463e-40
0.0042615943 0.058519572 -0.0073944544 -4.98617e-40 0.0016829898 -0.15161663 -0.17204413 -1.7663885e-24
-0.030811587 -0.12502156 -5.04169e-40 0.043020785 5.01969e-40 0.08684931 4.93553e-40 0.0033631392
0.02224566 0.100447 4.98962e-40 2.9300515e-10 -4.93219e-40 0.05129183 0.12244791 0.029047405
6.17741e-40 0.09550874 -0.0017412277 -4.93635e-40 -0.010562071 0.11407859 0.13184252 2.9984488e-15
0.19103889 4.91353e-40 -4.96071e-40 0.17499368 0.047641058 0.0063658003 -0.010560315 -5.01376e-40
-4.94493e-40 8.859207e-17 0.12471505 0.025934469 -0.00022660937 0.011848191 0.08773736 5.75169e-40
0.008739127 4.96947e-40 -6.26491e-40 4.92381e-40 -0.18049018 2.3316048e-36 0.041898802 0.11083931
0.20481452 0.026594622 0.10677878 0.024479657 -0.0462051 0.09862846 -0.079962485 4.99961e-40
0.05376666 -0.016763905 0.017940871 5.1653e-40 2.1184773e-05 -0.04703213 -0.13733073 1.5560425e-24
0.07431866 -0.09314945 4.98391e-40 0.114734806 -4.97162e-40 0.10968265 5.01256e-40 0.041767016
0.013519675 0.0120383445 -5.21502e-40 3.0898373e-14 4.96016e-40 -0.019657178 0.057280265 0.033519223
-5.27774e-40 0.061228674 -0.000106739484 5.05027e-40 -0.015100447 -0.023264056 0.035445597 2.6515485e-16
0.10655011 5.00744e-40 5.0573e-40 0.051920004 0.022233717 0.041526843 0.08948611 -5.02689e-40
-4.96299e-40 4.95353e-40 0.0018155803 0.03388507 -3.30909e-07 0.050035276 0.019675551 5.17169e-40
0.1405318 -6.18991e-40 -4.90623e-40 -4.547163e-36 0.39699823 -1.30765825e-08 -0.058844868 -0.053233072
-0.011279785 0.28669918 0.2738705 0.021522718 -0.7492184 -0.019778326 -0.98243105 4.93686e-40
-0.005074798 0.08160441 -0.22531971 -5.2433e-40 -0.017873973 -0.79489875 -0.84986556 -3.4996735e-23
-0.0643303 -1.0211663 5.00506e-40 0.105758786 4.98376e-40 0.20148294 4.93202e-40 0.08805168
-0.21288812 0.34072587 4.95617e-40 -0.004577374 4.93183e-40 0.015041243 -0.03167814 0.06136044
5.73612e-40 0.5468208 -0.0031811497 5.02287e-40 -0.8839975 -0.01984355 0.21745501 -9.064972e-14
-0.035033517 -5.02873e-40 4.93598e-40 -0.04125649 -0.3048188 0.16453004 0.15347397 -4.91089e-40
-4.92245e-40 2.9413671e-08 0.090379685 -0.25627005 -0.025944384 -0.26378432 0.011779941 5.12334e-40
