CNP-model-save-name/saved_models/model_14000.pth (torch, 551172 bytes, 26 tensors)

weight f4 [128, 2]
0	0x3c1d1966	0.009588575
1	0x3dd1aae0	0.1023767
2	0xbb1b251d	-0.0023673244
3	0x3b10c1ad	0.0022088096
4	0x8005644e	-4.9516e-40
5	0x8004b938	-4.33786e-40
6	0x3bcf9ed3	0.006336072
7	0x3d77b698	0.06047687
8	0xbcf70370	-0.030153006
9	0x3e9450fe	0.28968042
10	0x3a252296	0.0006299404
11	0x3b2660ce	0.002538729
12	0x80057692	-5.01712e-40
13	0x00055e7a	4.93069e-40
14	0x3ba9e97d	0.0051853047
15	0x3b24ff8e	0.0025176737
16	0x000566e1	4.96083e-40
17	0x80055789	-4.90579e-40
18	0x80055cdf	-4.92493e-40
19	0x80055c43	-4.92275e-40
20	0x0005850f	5.0691e-40
21	0x00055b10	4.91845e-40
22	0x800578a7	-5.0246e-40
23	0x8005687b	-4.96658e-40
24	0x3c1364b6	0.008996179
25	0x3dc75739	0.09733433
26	0x8005a902	-5.19806e-40
27	0x80059c63	-5.15278e-40
28	0x031a36d2	4.5319463e-37
29	0x839471e3	-8.724805e-37
30	0x00055efe	4.93254e-40
31	0x80056e33	-4.9871e-40
32	0xb96783e5	-0.00022079011
33	0xbb080d3d	-0.0020759844
34	0x80056b06	-4.9757e-40
35	0x8003b84e	-3.41623e-40
36	0xb176ad98	-3.5896388e-09
37	0xb435b532	-1.6922857e-07
38	0xb8585b8a	-5.1583665e-05
39	0xbb1c930c	-0.0023891358
40	0x3c1c7a57	0.0095506525
41	0x3d4ae98a	0.049539126
42	0x3d15c398	0.036563486
43	0xbd4028a0	-0.046913743
44	0x3dcdbc1d	0.100456454
45	0xbd354942	-0.044259317
46	0x3c07b382	0.008282544
47	0x3d25d7c9	0.040488992
48	0x3b8dcbe6	0.004327285
49	0xbc2944d4	-0.010331351
50	0x800567da	-4.96432e-40
51	0x800559f2	-4.91444e-40
52	0x80046d90	-4.06646e-40
53	0x80057894	-5.02433e-40
54	0xba5ce630	-0.00084266346
55	0x3c97f79b	0.018550685
56	0x2374d392	1.3272068e-17
57	0x233222a9	9.656739e-18
58	0xbd8930ad	-0.06698737
59	0x3d7a4db3	0.061109256
60	0x39af743d	0.00033465205
61	0xbbecb77c	-0.0072240215
62	0x800573a6	-5.00664e-40
63	0x8005695c	-4.96973e-40
64	0x9527cea5	-3.3888395e-26
65	0x989f2d9f	-4.1146602e-24
66	0x3bc6e5fd	0.006069897
67	0xbd382914	-0.04496105
68	0xb58e054e	-1.0581368e-06
69	0xb838e7df	-4.4084965e-05
70	0x3c2142a6	0.00984255
71	0xbd0dc403	-0.03461076
72	0x3c01c637	0.007920793
73	0xbcfd8c6e	-0.030950751
74	0xbcb3e4b8	-0.021959648
75	0x3d27a631	0.040929977
76	0x80058461	-5.06666e-40
77	0x80067390	-5.92469e-40
78	0x80055bee	-4.92156e-40
79	0x80056ce8	-4.98246e-40
80	0x3dec971f	0.115522616
81	0xbce01145	-0.027351985
82	0x8005a815	-5.19474e-40
83	0x80055775	-4.90551e-40
84	0x3d9b95c5	0.07596926
85	0xbcd1e9dc	-0.025624208
86	0x38d1adca	9.998267e-05
87	0x3d1a9327	0.03773799
88	0x3beeb01f	0.007284179
89	0x3b0e02d4	0.0021669166
90	0x3b1ef65d	0.002425573
91	0x3b4986eb	0.0030750583
92	0x0005b29a	5.23248e-40
93	0x000581f8	5.05801e-40
94	0x3d96b429	0.073585816
95	0xbe53dcb4	-0.2068966
96	0x800575ef	-5.01484e-40
97	0x80057f92	-5.04941e-40
98	0x3d67b0d3	0.056565117
99	0x3cc70995	0.024296561
100	0x8005667e	-4.95945e-40
101	0x8005614f	-4.94085e-40
102	0x3dbdef9f	0.0927422
103	0x3e0b5bcd	0.13609238
104	0x3d51981a	0.051170446
105	0x3e1d79c3	0.1537848
106	0xbc873ba1	-0.016507925
107	0x3e1b6ce6	0.1517826
108	0x3dfb2204	0.12262347
109	0x3dcc1ec0	0.099668026
110	0xbc50612a	-0.012718478
111	0x3be73285	0.007055583
112	0x00056c8e	4.9812e-40
113	0x80055980	-4.91284e-40
114	0x3b859a73	0.0040772497
115	0xbb9c2ea1	-0.004766301
116	0x3d9ade33	0.075619124
117	0x3b909b53	0.0044130473
118	0x800564e4	-4.9537e-40
119	0x00055e3b	4.92981e-40
120	0x3e0cce98	0.13750684
121	0xbdb4af3a	-0.08822484
122	0xbc84b91b	-0.016201546
123	0x3e79627e	0.24353978
124	0xbd511c45	-0.05105235
125	0x3d6e5167	0.0581831
126	0xbda31f3e	-0.07964943
127	0x3de7ed92	0.1132461
128	0x3abed10b	0.0014558149
129	0xbd171ac2	-0.036890753
130	0x00056056	4.93736e-40
131	0x800561cc	-4.9426e-40
132	0x3bbb5aad	0.0057175965
133	0xbd494279	-0.04913566
134	0x3c9da410	0.01924327
135	0xbde4bd44	-0.11168912
136	0x3ce557a7	0.027995897
137	0x3d8ea9e6	0.06965999
138	0x3e35fba3	0.17771773
139	0x3e7d7e6a	0.24755254
140	0xbca4c2d2	-0.020112429
141	0x3c271e7d	0.01020014
142	0x3c8af2ee	0.016961541
143	0xbd986d6f	-0.07442748
144	0x3dc05122	0.09390475
145	0x3e5f53d3	0.2180932
146	0xbd29dff1	-0.041473333
147	0x3e4967de	0.19668528
148	0x80055eca	-4.93181e-40
149	0x80055f42	-4.9335e-40
150	0xba0ed864	-0.0005449115
151	0xbd2393f7	-0.039936032
152	0x3cc9c26a	0.024628837
153	0xbb67eb10	-0.003538791
154	0x3b650cbb	0.0034950215
155	0xbe1eb6f6	-0.15499482
156	0xbd209c24	-0.039211407
157	0xbcee0431	-0.029054733
158	0xbbe11287	-0.0068686637
159	0x3cccb563	0.024988836
160	0x80055dad	-4.92782e-40
161	0x80055849	-4.90848e-40
162	0x800572ac	-5.00314e-40
163	0x800567cd	-4.96414e-40
164	0x39cedb7d	0.00039454913
165	0xbbaec070	-0.005332999
166	0x00059cfd	5.15494e-40
167	0x00061c63	5.61196e-40
168	0x00055ef2	4.93237e-40
169	0x8005685b	-4.96613e-40
170	0x8005645e	-4.95182e-40
171	0x80015282	-1.21434e-40
172	0x3badebe8	0.005307663
173	0x3d1bbe70	0.038023412
174	0xbb8f404f	-0.00437168
175	0x3d337c7c	0.04381989
176	0x3b5cea90	0.0033709146
177	0x3bfa634c	0.0076412316
178	0x3da5c8ec	0.080949634
179	0x3db9a8fe	0.09065436
180	0x8005621a	-4.9437e-40
181	0x800559b4	-4.91357e-40
182	0x8005798e	-5.02783e-40
183	0x8005593d	-4.9119e-40
184	0xbb3e8853	-0.0029072955
185	0xbd0df743	-0.034659635
186	0x800571c8	-4.99995e-40
187	0x80055e45	-4.92995e-40
188	0x3d56a7e5	0.05240621
189	0x3d6f2007	0.058380153
190	0x3c23fd5e	0.010009138
191	0x3c346c74	0.011012185
192	0xb599e407	-1.1465753e-06
193	0xb7954916	-1.7796217e-05
194	0xbc4dbbd1	-0.012556986
195	0xbd4831e8	-0.04887572
196	0xaf9197e1	-2.6483263e-10
197	0xb078f0ef	-9.056426e-10
198	0x800566d0	-4.9606e-40
199	0x80056869	-4.96633e-40
200	0x80056c4f	-4.98031e-40
201	0x00055bab	4.92062e-40
202	0x80055e00	-4.92898e-40
203	0x80056a03	-4.97207e-40
204	0xba088429	-0.00052076817
205	0x3c3623f0	0.011116967
206	0x80056908	-4.96856e-40
207	0x000560d3	4.93911e-40
208	0xb0c67577	-1.4439782e-09
209	0xb380efcc	-6.004083e-08
210	0x3b5e82d4	0.0033952491
211	0x3a6e3e8f	0.00090883014
212	0x00059254	5.1167e-40
213	0x80056c9e	-4.98142e-40
214	0xbb1ef234	-0.002425325
215	0x3c860756	0.01636092
216	0xbd705072	-0.05867047
217	0x3dec0a74	0.11525431
218	0xbb21f969	-0.002471531
219	0x3cd841cd	0.026398564
220	0x3bcc7f69	0.0062407744
221	0x3ba596f6	0.0050533963
222	0x3b01ae86	0.0019787862
223	0x3b8ac160	0.004234478
224	0xbcd9f174	-0.026604392
225	0xbbaa47f2	-0.005196565
226	0x3b1be021	0.0023784714
227	0x3ab42696	0.001374441
228	0x00055bf9	4.92171e-40
229	0x80056d18	-4.98313e-40
230	0xbad80a56	-0.0016482573
231	0xbc43f6d2	-0.011960702
232	0x00056866	4.96629e-40
233	0x80055d18	-4.92573e-40
234	0x800558ac	-4.90987e-40
235	0x80055ad5	-4.91762e-40
236	0x3ae62d00	0.0017561018
237	0x3bd80068	0.0065918453
238	0x800572e1	-5.00388e-40
239	0x80056682	-4.9595e-40
240	0x80055bb5	-4.92076e-40
241	0x80055e4e	-4.93008e-40
242	0xbc6cc52b	-0.014451305
243	0xbc846924	-0.016163416
244	0xb5169b6d	-5.610553e-07
245	0xb7bbe35f	-2.2398015e-05
246	0xbc5f2ee0	-0.013622016
247	0xbb1aacc2	-0.0023601507
248	0xbd55e99d	-0.052224744
249	0x3d02376d	0.03179114
250	0x0005690f	4.96865e-40
251	0x80062fc2	-5.68145e-40
252	0xbc9a8fc8	-0.018867388
253	0x3b99d253	0.004694262
254	0x3ab4d182	0.0013795348
255	0xbb37485d	-0.0027966716

bias f4 [128]
0	0xbdd1dc1d	-0.102470614
1	0x3d2acece	0.04170113
2	0x80055fbf	-4.93525e-40
3	0x3d423c71	0.047420923
4	0xbe46ffe8	-0.19433558
5	0xbbe4eea7	-0.0069864574
6	0x80055dd4	-4.92837e-40
7	0x3ce9df19	0.028548764
8	0x91abe694	-2.7121148e-28
9	0x80055f96	-4.93467e-40
10	0x8d4e06a7	-6.348666e-31
11	0x800557da	-4.90693e-40
12	0x3ea4264f	0.32060477
13	0x0005889e	5.08186e-40
14	0x81f73e8b	-9.0823215e-38
15	0x80055d9d	-4.9276e-40
16	0x3cf55b4c	0.02995076
17	0x80056422	-4.95098e-40
18	0x391a18f5	0.00014695882
19	0x3cbe0fdc	0.023200922
20	0x3c2739b8	0.010206632
21	0x3e4ffd6a	0.20311514
22	0xbc723cdc	-0.014785018
23	0xbd249476	-0.040180646
24	0x3c033b0a	0.0080096815
25	0x80056497	-4.95262e-40
26	0x800578de	-5.02536e-40
27	0xbc0feaf1	-0.008784042
28	0x2e660ea5	5.2308952e-11
29	0x3e69c6fc	0.22829813
30	0x3d870a73	0.0659379
31	0x80055c11	-4.92205e-40
32	0x234e4187	1.1181158e-17
33	0x3df388f6	0.118913576
34	0x3af4e05c	0.0018682587
35	0x3e07709a	0.13226548
36	0x3d2ef4cd	0.04271393
37	0x3dd2233a	0.10260625
38	0x800574c6	-5.01068e-40
39	0x80056470	-4.95208e-40
40	0x3eb8944d	0.36050645
41	0x8005a6bf	-5.18995e-40
42	0x3d4bf667	0.049795534
43	0x3ddfb78b	0.1092368
44	0x3d96e07e	0.07367037
45	0xbc967281	-0.018365147
46	0x80057d99	-5.04233e-40
47	0x3e6085a8	0.21925986
48	0x800681d6	-5.9759e-40
49	0x3dab1a40	0.08354616
50	0x80055c6e	-4.92335e-40
51	0x3e884139	0.2661226
52	0xbba5b9bc	-0.0050575417
53	0xbdcf4da3	-0.1012223
54	0x3e009771	0.1255777
55	0x3dfbb0eb	0.12289604
56	0x80055734	-4.9046e-40
57	0x3e8f6e26	0.28013724
58	0x3e2f1998	0.17099607
59	0x80056477	-4.95217e-40
60	0x3c9512b0	0.018197387
61	0xbe34e211	-0.17664362
62	0x3e524988	0.20535862
63	0x3e1ffd79	0.15624036
64	0x3d999bd4	0.07500425
65	0x00055d11	4.92563e-40
66	0x3da6e3f5	0.08148948
67	0x3e655a50	0.22397733
68	0x3ddce631	0.10786093
69	0x3c3fc244	0.011704031
70	0x3ddcacb2	0.107751265
71	0x3e146e5a	0.14495221
72	0x3eaaf530	0.33390188
73	0x3e63070c	0.22170657
74	0x80055e79	-4.93068e-40
75	0x3df71eaf	0.12066399
76	0xbcd47c9d	-0.025938326
77	0x3e55b530	0.20869899
78	0x3e5035a6	0.20332965
79	0x3d041859	0.032249782
80	0x8005606d	-4.93769e-40
81	0x800557f0	-4.90724e-40
82	0x3d36e99a	0.044656374
83	0x000591cf	5.11484e-40
84	0x8001b285	-1.55876e-40
85	0x80035875	-3.07239e-40
86	0x3d9c68ef	0.07637202
87	0x3b19a86c	0.0023446335
88	0xbc63c1c2	-0.013901176
89	0x3e8535a5	0.2601749
90	0x80055f47	-4.93357e-40
91	0x80056cfa	-4.98271e-40
92	0x3da29493	0.079384945
93	0x800565d2	-4.95704e-40
94	0x3ea395fd	0.3195037
95	0x3d671d62	0.056424506
96	0x39d9f070	0.00041568605
97	0x3e197cfb	0.14989083
98	0x360d5034	2.1057322e-06
99	0x8004e74a	-4.50313e-40
100	0x800563f1	-4.9503e-40
101	0x80055bc5	-4.92098e-40
102	0x3c8dd4d7	0.017313404
103	0x80055938	-4.91183e-40
104	0x3951b3a1	0.0001999871
105	0x3c3619cc	0.011114549
106	0x847e9fac	-2.9930874e-36
107	0x3cba395a	0.022732425
108	0x3df08ff0	0.11746204
109	0x3d5c0c6b	0.05372278
110	0x3d8fc549	0.07020051
111	0xbc007269	-0.0078397775
112	0x3dad1549	0.084513254
113	0x3ca2996d	0.01984855
114	0x80056849	-4.96588e-40
115	0x3d5ebdad	0.054380108
116	0x800557b5	-4.90641e-40
117	0x80055938	-4.91183e-40
118	0xbb875a4c	-0.0041306373
119	0x800564e2	-4.95367e-40
120	0x80055b28	-4.91878e-40
121	0x3e287aa0	0.16453028
122	0x3aba0a11	0.0014193674
123	0x3dcc61a2	0.099795595
124	0x3e0f08c7	0.13968192
125	0x800557f1	-4.90725e-40
126	0x3d446514	0.047947958
127	0x3be18d77	0.006883319

weight f4 [128, 128]
0	0x073e4e1b	1.4316964e-34
1	0x8aad2e98	-1.667682e-32
2	0x8005cf4d	-5.33543e-40
3	0x0ac272c6	1.8724693e-32
4	0x880404e8	-3.9728072e-34
5	0x80066d89	-5.90307e-40
6	0x00057381	5.00612e-40
7	0x89c36bad	-4.70458e-33
8	0x8005f37a	-5.4652e-40
9	0x000581ef	5.05789e-40
10	0x8005fe11	-5.5032e-40
11	0x80061bc0	-5.60968e-40
12	0x8a4fdac6	-1.0007834e-32
13	0x8005b6f4	-5.24809e-40
14	0x00065495	5.81355e-40
15	0x8005d178	-5.34321e-40
16	0x092ab480	2.0547876e-33
17	0x80055af4	-4.91805e-40
18	0x081e83a7	4.770115e-34
19	0x8a20326a	-7.7132016e-33
20	0x0a63da11	1.0970666e-32
21	0x8b011e90	-2.486749e-32
22	0x08dcb39a	1.32829925e-33
23	0x88a220a8	-9.757698e-34
24	0x09128d5a	1.7640574e-33
25	0x0005a1ea	5.17261e-40
26	0x800565f9	-4.95758e-40
27	0x08851ca0	8.011376e-34
28	0x00243149	3.323758e-39
29	0x0ab9bbbd	1.7885471e-32
30	0x0ae82ac2	2.2356871e-32
31	0x0006bc9f	6.18677e-40
32	0x00063fa7	5.73847e-40
33	0x8a8eb6c4	-1.3742851e-32
34	0x097ad5a1	3.0193103e-33
35	0x0b3380b8	3.4570983e-32
36	0x8a9a9c95	-1.488856e-32
37	0x8acf6c17	-1.9974034e-32
38	0x000576c3	5.01781e-40
39	0x80069286	-6.03576e-40
40	0x8bb7db81	-7.081931e-32
41	0x0005a7fd	5.1944e-40
42	0x0ac25df6	1.8716865e-32
43	0x8acd7205	-1.9783671e-32
44	0x09d8a15f	5.215186e-33
45	0x80067ec3	-5.96487e-40
46	0x0006788d	5.94258e-40
47	0x8807b931	-4.0842776e-34
48	0x8005e063	-5.39672e-40
49	0x8b3cd3fa	-3.6366956e-32
50	0x00062184	5.63036e-40
51	0x0baf5e90	6.754983e-32
52	0x09bfe571	4.6197343e-33
53	0x87c2cb8a	-2.9309505e-34
54	0x8b3cedcc	-3.638638e-32
55	0x0ace37b8	1.9858037e-32
56	0x80055909	-4.91117e-40
57	0x0b00f425	2.4835577e-32
58	0x0b44ad6a	3.787869e-32
59	0x0006034e	5.52198e-40
60	0x8a66e91a	-1.1117939e-32
61	0x88a2fd99	-9.809641e-34
62	0x8a2b1acd	-8.238391e-33
63	0x0b4a1ae3	3.8924012e-32
64	0x09bf62b0	4.6074383e-33
65	0x000586f0	5.07584e-40
66	0x89314156	-2.133632e-33
67	0x0a9c1272	1.5029192e-32
68	0x0ae01960	2.157996e-32
69	0x0b039c76	2.534739e-32
70	0x09274acc	2.0137063e-33
71	0x0b3d7123	3.648519e-32
72	0x0bdd08b7	8.5139216e-32
73	0x8bbfc3c3	-7.3865073e-32
74	0x00060a55	5.5472e-40
75	0x0b26108b	3.1982883e-32
76	0x0006c68e	6.22241e-40
77	0x8b1d508c	-3.0297697e-32
78	0x8ba3610b	-6.293133e-32
79	0x0ab06802	1.6987307e-32
80	0x8005b0a9	-5.22551e-40
81	0x0005834f	5.06282e-40
82	0x89f87286	-5.9811526e-33
83	0x8006a125	-6.08821e-40
84	0x80056fc9	-4.99278e-40
85	0x0005e2cd	5.40538e-40
86	0x883ec363	-5.740572e-34
87	0x8a31e563	-8.565383e-33
88	0x8027b7d3	-3.647528e-39
89	0x0bc6a432	7.651388e-32
90	0x0005a227	5.17347e-40
91	0x800623b8	-5.63826e-40
92	0x0b504255	4.0109246e-32
93	0x80069991	-6.06102e-40
94	0x8af9ff51	-2.4073867e-32
95	0x0adcf579	2.1277566e-32
96	0x084e2612	6.203562e-34
97	0x8a0c797e	-6.763605e-33
98	0x05fc04e5	2.3699764e-35
99	0x8005d940	-5.37112e-40
100	0x00056d29	4.98337e-40
101	0x0005cc9c	5.32577e-40
102	0x8a6d545a	-1.1427e-32
103	0x0006333d	5.69394e-40
104	0x0846a01d	5.977167e-34
105	0x09c68669	4.7793165e-33
106	0x80060417	-5.5248e-40
107	0x0a40e6a3	9.287842e-33
108	0x0acec975	1.9912858e-32
109	0x8b050d51	-2.5624886e-32
110	0x8b0c945f	-2.707464e-32
111	0x04ef2dea	5.6230795e-36
112	0x8ae7d4cd	-2.2324538e-32
113	0x8a6ca87a	-1.13946736e-32
114	0x00058560	5.07023e-40
115	0x8a93a591	-1.4217864e-32
116	0x0005d3ff	5.35227e-40
117	0x0005a09d	5.16795e-40
118	0x08997113	9.234936e-34
119	0x00055f38	4.93336e-40
120	0x800573e2	-5.00748e-40
121	0x0a6bff20	1.1362822e-32
122	0x873126a5	-1.3327357e-34
123	0x8a86863a	-1.2954221e-32
124	0x0b17a326	2.920428e-32
125	0x80058825	-5.08017e-40
126	0x87f0e633	-3.6246485e-34
127	0x06299f1f	3.190227e-35
128	0x9421dc06	-8.171815e-27
129	0xa91765c4	-3.3617003e-14
130	0x8006864a	-5.99187e-40
131	0xa966d714	-5.125681e-14
132	0x9791e3ff	-9.42796e-25
133	0x80055a65	-4.91605e-40
134	0x8005704a	-4.99459e-40
135	0xa8de7ecb	-2.4701939e-14
136	0x80066447	-5.86986e-40
137	0x8006852f	-5.9879e-40
138	0x8005ce6f	-5.33232e-40
139	0x0005683c	4.9657e-40
140	0xaaa69f87	-2.9598218e-13
141	0x8006dd4c	-6.304e-40
142	0x800664e4	-5.87206e-40
143	0x00059b49	5.14883e-40
144	0xa7144be8	-2.0580275e-15
145	0x0005b240	5.23122e-40
146	0x259d3a88	2.727482e-16
147	0x291d7c9b	3.496908e-14
148	0xa842f43d	-1.0822124e-14
149	0xaa5fbeb1	-1.9872538e-13
150	0x972b8fa2	-5.543437e-25
151	0x1771b762	7.810276e-25
152	0x284e4b8e	1.14516805e-14
153	0x000578a4	5.02455e-40
154	0x00064ebb	5.79256e-40
155	0x1fa029bd	6.7831686e-20
156	0x998624d5	-1.3870152e-23
157	0xaa804aec	-2.2789355e-13
158	0xa986052c	-5.9516926e-14
159	0x80058cf8	-5.09748e-40
160	0x8ff2ab5a	-2.3929045e-29
161	0xa9c033fd	-8.5355314e-14
162	0x278e902e	3.9569237e-15
163	0xaa1142a5	-1.2901709e-13
164	0x2968fb33	5.173223e-14
165	0xa9e415e9	-1.0129035e-13
166	0x8005fe51	-5.50409e-40
167	0x8006b1f6	-6.14853e-40
168	0xaac2a4e6	-3.4575744e-13
169	0x80060d25	-5.55728e-40
170	0xa802d86c	-7.263379e-15
171	0xa9a074d6	-7.125695e-14
172	0xa9a01bad	-7.1102283e-14
173	0x8005926a	-5.11701e-40
174	0x00067c8e	5.95695e-40
175	0x27f3f3ee	6.7710518e-15
176	0x0005689c	4.96704e-40
177	0xa9b8a42f	-8.199723e-14
178	0x800577be	-5.02133e-40
179	0xaa83180e	-2.3286966e-13
180	0xa7f9bea0	-6.931806e-15
181	0x183f592a	2.4731188e-24
182	0xaa13c3e1	-1.3124182e-13
183	0xaa09d546	-1.2242038e-13
184	0x8005d69c	-5.36165e-40
185	0xaa99eff2	-2.7344755e-13
186	0xaa400410	-1.7054435e-13
187	0x8005593e	-4.91192e-40
188	0x2908ac6f	3.034763e-14
189	0x185e5eab	2.8740623e-24
190	0xaa685296	-2.0634392e-13
191	0xaa1d513e	-1.3972588e-13
192	0x290d38fd	3.135772e-14
193	0x0005d322	5.34918e-40
194	0x282b8710	9.521694e-15
195	0xaa539b76	-1.8794501e-13
196	0xa9f66dcb	-1.09436406e-13
197	0xa9062d8d	-2.9793486e-14
198	0xa9c84fbf	-8.895618e-14
199	0xaa12f8e0	-1.3053751e-13
200	0xaaa34254	-2.900064e-13
201	0xaa76ad81	-2.1909385e-13
202	0x0005a863	5.19583e-40
203	0xa9bd418d	-8.404657e-14
204	0x0b8921d9	5.282141e-32
205	0x2a26f0a2	1.4827248e-13
206	0xaa283ab7	-1.4941768e-13
207	0xa87ca8e0	-1.4025429e-14
208	0x000559d5	4.91403e-40
209	0x00060e4f	5.56146e-40
210	0xa948507b	-4.4478727e-14
211	0x800567ff	-4.96484e-40
212	0x00055be4	4.92142e-40
213	0x00057dbf	5.04287e-40
214	0xa9b18f56	-7.885244e-14
215	0x27e50c56	6.3573643e-15
216	0x8f19479b	-7.557273e-30
217	0xaa88161e	-2.41738e-13
218	0x0005600d	4.93634e-40
219	0x8005891d	-5.08364e-40
220	0x29231ec6	3.6219962e-14
221	0x00068227	5.97703e-40
222	0xaaa4d7fd	-2.9282124e-13
223	0xa98151e6	-5.742958e-14
224	0x2566b61b	2.001102e-16
225	0xa90cb534	-3.1243413e-14
226	0x2296f642	4.0918317e-18
227	0x80056bc1	-4.97832e-40
228	0x80056251	-4.94447e-40
229	0x8005f92e	-5.48566e-40
230	0xa85be4bc	-1.2206541e-14
231	0x0005bdfd	5.27332e-40
232	0x253041d1	1.5287866e-16
233	0xa75ce583	-3.0655552e-15
234	0x00062c4a	5.66901e-40
235	0xa8473273	-1.10576585e-14
236	0xa9ff6c4f	-1.13430634e-13
237	0xa97919ee	-5.5311597e-14
238	0xa99dd0a7	-7.008396e-14
239	0x935ea4ba	-2.8101556e-27
240	0x2a1625ad	1.3335748e-13
241	0xa7c347de	-5.420129e-15
242	0x0005b80a	5.25198e-40
243	0xa8e760e7	-2.5688177e-14
244	0x80057b92	-5.03506e-40
245	0x80063287	-5.69139e-40
246	0xa0c1fd58	-3.286312e-19
247	0x000590f9	5.11184e-40
248	0x800584ac	-5.06771e-40
249	0xaa20a397	-1.4267611e-13
250	0x2768e7e7	3.2322182e-15
251	0xa8fd0bc9	-2.8093754e-14
252	0xa981e402	-5.768304e-14
253	0x8006591e	-5.82982e-40
254	0x29ea217c	1.0397496e-13
255	0x282de200	9.652435e-15

bias f4 [128]
0	0x8c503393	-1.6039257e-31
1	0xab7001db	-8.5267703e-13
2	0xba5b1192	-0.0008356805
3	0xbd0ca254	-0.034334496
4	0xb36645d4	-5.3614556e-08
5	0x80056a5c	-4.97332e-40
6	0x800098e6	-5.485e-41
7	0x3cb36746	0.02189983
8	0x0f797fe7	1.2301281e-29
9	0xbb09efdb	-0.0021047506
10	0x11d304e0	3.3292935e-28
11	0x3c8fe959	0.017567324
12	0xbd8701e6	-0.06592159
13	0xb8c062ab	-9.173652e-05
14	0xbcd73b5a	-0.026273418
15	0x396a107e	0.00022322123
16	0x27c48034	5.4539926e-15
17	0x379176df	1.73407e-05
18	0x3219d9c1	8.955284e-09
19	0xbc1edc9a	-0.00969615
20	0x9e9105f5	-1.5354936e-20
21	0x00041cbd	3.77651e-40
22	0xbccb419f	-0.024811564
23	0x80055cbc	-4.92444e-40
24	0x86e26fdf	-8.517613e-35
25	0xa10ea007	-4.8323266e-19
26	0xbd289871	-0.041161004
27	0xb59fd309	-1.1907842e-06
28	0xb8082fa2	-3.246929e-05
29	0x8c9ab6c2	-2.383745e-31
30	0x8005600e	-4.93635e-40
31	0x8e0199bb	-1.5974496e-30
32	0xbd1263ba	-0.035739638
33	0xadf5ed42	-2.7958639e-11
34	0xb5d4d3c8	-1.5856867e-06
35	0x800560c5	-4.93892e-40
36	0x3ba83eef	0.0051344554
37	0xbbc2cd81	-0.005944908
38	0x8a218d0e	-7.7783975e-33
39	0x3b9d3bdc	0.0047983956
40	0xba08374d	-0.0005196229
41	0xaff277b9	-4.4104612e-10
42	0xb82e7f68	-4.160349e-05
43	0xbd43b67c	-0.047781453
44	0xa68d2dfc	-9.796304e-16
45	0xab1a03b6	-5.471694e-13
46	0xb52240db	-6.044408e-07
47	0x800126ec	-1.05798e-40
48	0x3b2ec9c7	0.0026670562
49	0xa191007d	-9.825711e-19
50	0xab23a5a9	-5.813913e-13
51	0x90b5a2c8	-7.1642716e-29
52	0xb01584cd	-5.4394605e-10
53	0xbbd06efd	-0.006360887
54	0xbbac404f	-0.0052566896
55	0xbb408990	-0.0029378869
56	0xbc89df74	-0.016830184
57	0x3d2b7166	0.041856192
58	0x081e0451	4.755147e-34
59	0x3beaa316	0.0071605546
60	0x8005592d	-4.91168e-40
61	0xbc9d5adc	-0.019208364
62	0x3c2ef7b8	0.010679178
63	0xacd3d1f0	-6.0202884e-12
64	0xb0b9231f	-1.3470504e-09
65	0xbc8e2920	-0.017353594
66	0x3a80e9ba	0.0009835281
67	0xbb10e947	-0.00221117
68	0x9dae8d87	-4.6203752e-21
69	0xbb1b382f	-0.002368461
70	0x800574b0	-5.01037e-40
71	0x9ac976e9	-8.332376e-23
72	0x132710df	2.1086681e-27
73	0x800568b9	-4.96745e-40
74	0x3801a8fe	3.0913383e-05
75	0x3cb16fb8	0.021659717
76	0xb8e32bab	-0.00010832337
77	0xbb04fe0a	-0.002029302
78	0xa8ff43dd	-2.8340118e-14
79	0x8f677ad8	-1.1412838e-29
80	0xbbef32b2	-0.0072997445
81	0x800564c0	-4.9532e-40
82	0xb5bb33ac	-1.3947624e-06
83	0x906967df	-4.6031167e-29
84	0x27f0f7fb	6.6882242e-15
85	0x0005626e	4.94487e-40
86	0xbd5034a5	-0.050831456
87	0x3ca9b10c	0.020714305
88	0x959ec310	-6.4123446e-26
89	0xbcede930	-0.029041857
90	0x80056396	-4.94902e-40
91	0x3bc64fe1	0.006052003
92	0xba077a0e	-0.0005168029
93	0x97990073	-9.887507e-25
94	0x3bd2c130	0.006431721
95	0x161d6149	1.2713057e-25
96	0x3c8580eb	0.016296824
97	0x3ca35ace	0.01994076
98	0x0000cb2d	7.2886e-41
99	0x0001bbac	1.5916e-40
100	0x94069c1d	-6.796059e-27
101	0xbc99a950	-0.018757492
102	0xbd254874	-0.0403523
103	0xb99b521d	-0.00029625083
104	0xbb50d5a9	-0.0031865633
105	0x3d212a0e	0.039346747
106	0x3be81bef	0.007083408
107	0xb3060e48	-3.1212295e-08
108	0xadfe8727	-2.8936476e-11
109	0xbb50e044	-0.0031871954
110	0x3bd08064	0.0063629616
111	0x3cbaadf8	0.022788033
112	0xba0978d7	-0.0005244142
113	0xbd3fa36f	-0.04678672
114	0xbcd39955	-0.02582995
115	0xad8ccd91	-1.6007447e-11
116	0xa420bba8	-3.485342e-17
117	0xb618d5be	-2.277418e-06
118	0xb5024c91	-4.854019e-07
119	0xbb0431da	-0.0020171315
120	0xbc4464ca	-0.011986921
121	0xaccdd13c	-5.84968e-12
122	0xbcd88fc1	-0.026435735
123	0xafd3e03e	-3.854001e-10
124	0x8c86c82c	-2.0766443e-31
125	0xbcee4432	-0.029085252
126	0xa7737b6a	-3.3789927e-15
127	0x80055c80	-4.9236e-40

weight f4 [128, 128]
0	0x80066361	-5.86663e-40
1	0x8006a166	-6.08912e-40
2	0x00055efb	4.9325e-40
3	0x00055c88	4.92371e-40
4	0x8005e175	-5.40056e-40
5	0x80069bec	-6.06947e-40
6	0x00055ccb	4.92465e-40
7	0x000561df	4.94287e-40
8	0x0005979d	5.13566e-40
9	0x80055839	-4.90826e-40
10	0x80055c8a	-4.92374e-40
11	0x00055dd8	4.92842e-40
12	0x00056320	4.94737e-40
13	0x0006d5e5	6.27744e-40
14	0x00055c68	4.92327e-40
15	0x8005b030	-5.22382e-40
16	0x00056dd6	4.98579e-40
17	0x800561fe	-4.9433e-40
18	0x80055bcc	-4.92108e-40
19	0x80056356	-4.94813e-40
20	0x0005d8bb	5.36926e-40
21	0x00068277	5.97815e-40
22	0x0005604c	4.93722e-40
23	0x00058829	5.08023e-40
24	0x80055767	-4.90532e-40
25	0x00055fca	4.9354e-40
26	0x00055c4e	4.9229e-40
27	0x0005a1ae	5.17177e-40
28	0x00056069	4.93763e-40
29	0x00057fc5	5.05013e-40
30	0x8005c90d	-5.31301e-40
31	0x8005cb6d	-5.32153e-40
32	0x0005634d	4.948e-40
33	0x00055bea	4.9215e-40
34	0x80057d8f	-5.0422e-40
35	0x000586b8	5.07505e-40
36	0x00055a49	4.91566e-40
37	0x000563f6	4.95037e-40
38	0x80057905	-5.02591e-40
39	0x00055d9a	4.92755e-40
40	0x00057565	5.01291e-40
41	0x8005659c	-4.95628e-40
42	0x000680ff	5.97288e-40
43	0x00055c6f	4.92336e-40
44	0x80056989	-4.97036e-40
45	0x00055b1e	4.91864e-40
46	0x80058531	-5.06958e-40
47	0x000576b7	5.01764e-40
48	0x00056403	4.95055e-40
49	0x00057ea2	5.04605e-40
50	0x00059d13	5.15525e-40
51	0x8005beea	-5.27665e-40
52	0x80058472	-5.0669e-40
53	0x00056735	4.96201e-40
54	0x0005da7e	5.37558e-40
55	0x8005663c	-4.95852e-40
56	0x00055a15	4.91493e-40
57	0x8001a24b	-1.50055e-40
58	0x0005727f	5.00251e-40
59	0x00055b59	4.91947e-40
60	0x800631fd	-5.68945e-40
61	0x0005611a	4.94011e-40
62	0x00056014	4.93644e-40
63	0x0005581b	4.90784e-40
64	0x8005f9fe	-5.48858e-40
65	0x00055ad9	4.91767e-40
66	0x800559eb	-4.91434e-40
67	0x000557a8	4.90623e-40
68	0x80057c6e	-5.03814e-40
69	0x800557e4	-4.90707e-40
70	0x00056758	4.9625e-40
71	0x00056fee	4.9933e-40
72	0x80055c93	-4.92387e-40
73	0x00058bdc	5.0935e-40
74	0x0005594a	4.91208e-40
75	0x000562c8	4.94614e-40
76	0x8005606c	-4.93767e-40
77	0x00056084	4.93801e-40
78	0x00056be2	4.97879e-40
79	0x00055aee	4.91797e-40
80	0x00055777	4.90554e-40
81	0x8005c1ae	-5.28657e-40
82	0x80056170	-4.94131e-40
83	0x00056e4f	4.98749e-40
84	0x800557d5	-4.90686e-40
85	0x0005add1	5.21531e-40
86	0x00055bfb	4.92174e-40
87	0x000690fe	6.03026e-40
88	0x8005c9c2	-5.31555e-40
89	0x000560ee	4.9395e-40
90	0x00064503	5.7577e-40
91	0x000562e2	4.9465e-40
92	0x800671d5	-5.91848e-40
93	0x00057e0f	5.04399e-40
94	0x00055f3f	4.93345e-40
95	0x0006be37	6.19249e-40
96	0x0005587a	4.90917e-40
97	0x00055ac2	4.91735e-40
98	0x800563cf	-4.94982e-40
99	0x00057997	5.02796e-40
100	0x00058e4d	5.10225e-40
101	0x00056099	4.9383e-40
102	0x0005576b	4.90537e-40
103	0x0005c7f6	5.3091e-40
104	0x80055e88	-4.93089e-40
105	0x00055a41	4.91554e-40
106	0x0005623a	4.94415e-40
107	0x0005659b	4.95627e-40
108	0x00056cd6	4.9822e-40
109	0x8005628f	-4.94534e-40
110	0x0005642c	4.95112e-40
111	0x00055833	4.90817e-40
112	0x00055abf	4.91731e-40
113	0x000561f8	4.94322e-40
114	0x00055bdc	4.9213e-40
115	0x800558e1	-4.91061e-40
116	0x80055a1c	-4.91503e-40
117	0x000570d0	4.99647e-40
118	0x00055870	4.90903e-40
119	0x000561f1	4.94312e-40
120	0x00056441	4.95142e-40
121	0x8006240a	-5.63941e-40
122	0x000558aa	4.90984e-40
123	0x80056332	-4.94762e-40
124	0x80056c81	-4.98101e-40
125	0x0005632f	4.94758e-40
126	0x00068b3b	6.0096e-40
127	0x80057d79	-5.04189e-40
128	0x00055a10	4.91486e-40
129	0x80055f29	-4.93315e-40
130	0x3a38fb0d	0.00070564525
131	0xbb0f2ad6	-0.00218456
132	0x8005603e	-4.93703e-40
133	0x000559c1	4.91375e-40
134	0x000565b9	4.95669e-40
135	0xba8da49e	-0.0010806506
136	0x00055a96	4.91674e-40
137	0x3285e2c5	1.558636e-08
138	0x80056258	-4.94457e-40
139	0x3c900e47	0.017584933
140	0xbccf36e3	-0.025294727
141	0x30ddcd82	1.6138275e-09
142	0xb9eb2168	-0.00044847582
143	0xb38186e0	-6.031564e-08
144	0x000573b5	5.00685e-40
145	0xb6912a3e	-4.3262544e-06
146	0x1af3d93c	1.00853405e-22
147	0xbab83ce9	-0.0014056239
148	0x80055b83	-4.92006e-40
149	0x0005622c	4.94395e-40
150	0xbc019088	-0.007907994
151	0x80055e46	-4.92996e-40
152	0x0005a667	5.18871e-40
153	0x00056076	4.93781e-40
154	0x3ca63162	0.02028722
155	0x800563b3	-4.94943e-40
156	0x0005584f	4.90857e-40
157	0x00056429	4.95108e-40
158	0x000561ae	4.94218e-40
159	0x0005626d	4.94486e-40
160	0x3c4171ad	0.011806888
161	0x8005693c	-4.96928e-40
162	0x0005697a	4.97015e-40
163	0x00055a13	4.9149e-40
164	0xbb170179	-0.002304165
165	0xb9c01ec2	-0.0003664401
166	0x00055e59	4.93023e-40
167	0x3bf8a7ab	0.007588347
168	0x00055dab	4.92779e-40
169	0x80055b19	-4.91857e-40
170	0x00056361	4.94828e-40
171	0x3cd03e51	0.02542034
172	0x00055dea	4.92867e-40
173	0x000561ca	4.94258e-40
174	0x80056141	-4.94066e-40
175	0x80055b74	-4.91985e-40
176	0x3a382eb7	0.0007026004
177	0x800574fe	-5.01146e-40
178	0x09e754d6	5.5691006e-33
179	0x80055e5a	-4.93024e-40
180	0x800576d4	-5.01805e-40
181	0x382db24f	4.1412477e-05
182	0x00056238	4.94412e-40
183	0x3b96ac08	0.0045981444
184	0xb9b7e79b	-0.0003507704
185	0x3c8553db	0.016275337
186	0x00055fb5	4.9351e-40
187	0x3cae5818	0.02128224
188	0x0005591d	4.91145e-40
189	0xbbb38f20	-0.0054797083
190	0x3a4f5f83	0.00079106557
191	0x1b3422d1	1.4900501e-22
192	0x0002023e	1.84475e-40
193	0x395ca78d	0.00021043252
194	0xba12bb82	-0.0005597399
195	0xbbde0066	-0.00677495
196	0x80058e95	-5.10326e-40
197	0x00055b19	4.91857e-40
198	0x00055bce	4.92111e-40
199	0x9f5b9d11	-4.6504976e-20
200	0x000557a6	4.9062e-40
201	0x80055a9c	-4.91682e-40
202	0x2e5050ad	4.736538e-11
203	0x3acc7109	0.0015597652
204	0x39a87ca3	0.0003213632
205	0xbb010a33	-0.0019689917
206	0xa43cd36b	-4.094508e-17
207	0x80055d89	-4.92732e-40
208	0xbbd1d398	-0.006403398
209	0x80055c92	-4.92385e-40
210	0x24862966	5.818337e-17
211	0x8ba38314	-6.298254e-32
212	0x0005581e	4.90788e-40
213	0x000563c9	4.94974e-40
214	0xbc3e13db	-0.011601414
215	0x3b0dd90a	0.0021644258
216	0x04a5c6e1	3.8973955e-36
217	0x3d31182f	0.043235954
218	0x000561c0	4.94244e-40
219	0xbd15f9df	-0.03661525
220	0x0005581f	4.9079e-40
221	0x000567b9	4.96386e-40
222	0x3adaf30e	0.0016704516
223	0x00055881	4.90927e-40
224	0x3b865b4c	0.004100239
225	0x3c513134	0.012768079
226	0x80055a2d	-4.91526e-40
227	0x0005577f	4.90565e-40
228	0x800562a7	-4.94567e-40
229	0x3b034b20	0.0020033792
230	0x3c2a71e8	0.010403134
231	0x0005690c	4.96861e-40
232	0x3983f4ec	0.00025168748
233	0x3d267559	0.040639255
234	0x3c4cd681	0.012502314
235	0x80056169	-4.94122e-40
236	0x2c06c985	1.9154411e-12
237	0xbb56122b	-0.0032664638
238	0xbb94766d	-0.004530719
239	0xb985cdf5	-0.00025521187
240	0x80055804	-4.90752e-40
241	0x3c4b822a	0.01242117
242	0xbb6c92c8	-0.003609823
243	0x800557e8	-4.90712e-40
244	0x000557bd	4.90652e-40
245	0x800651d6	-5.8037e-40
246	0x00055bee	4.92156e-40
247	0x3b9dc8f1	0.004815214
248	0x3c4b2794	0.012399573
249	0x80056888	-4.96676e-40
250	0x3a3b3014	0.0007140648
251	0x80055fbf	-4.93525e-40
252	0x00055aff	4.91821e-40
253	0x3c6f4d74	0.014605869
254	0x8005664c	-4.95875e-40
255	0x80055753	-4.90504e-40

bias f4 [128]
0	0x00006bab	3.8624e-41
1	0xbd654350	-0.055972397
2	0xbbaf978e	-0.005358643
3	0x3dbf443d	0.09339187
4	0x3d74b9e2	0.059747584
5	0x80064e58	-5.79117e-40
6	0x99958e1d	-1.5463638e-23
7	0xbc9b4964	-0.018955894
8	0x3da6b0fd	0.081392266
9	0x00037344	3.16856e-40
10	0xbc5260aa	-0.012840429
11	0xbccaf4dd	-0.024774963
12	0xb12ed3da	-2.5440756e-09
13	0xbb764195	-0.003757571
14	0x9aebdfe4	-9.7555437e-23
15	0xbab09e89	-0.0013474982
16	0x8db80ee8	-1.1343464e-30
17	0xbabd10c1	-0.0014424549
18	0x80055d25	-4.92591e-40
19	0x80055f22	-4.93305e-40
20	0x88876cb2	-8.150571e-34
21	0x89fea83c	-6.1306483e-33
22	0xbb3a5fc5	-0.002843843
23	0xbbe2e5ff	-0.0069243903
24	0xb27b93bc	-1.4643714e-08
25	0x3c191bf7	0.009345046
26	0xac99a91b	-4.367296e-12
27	0xbd279757	-0.040915813
28	0x800562d9	-4.94637e-40
29	0x3d110ae9	0.035410795
30	0x800695a0	-6.04688e-40
31	0xbc11241c	-0.008858707
32	0x3dabcf6c	0.08389172
33	0xb93cb0ab	-0.00017994891
34	0xbc0fd44a	-0.008778641
35	0x8f8eee0f	-1.4093978e-29
36	0xb54fef76	-7.746197e-07
37	0xb50e7306	-5.3066503e-07
38	0x0004be23	4.3555e-40
39	0xb4d190d4	-3.903466e-07
40	0xbae9ece4	-0.0017847088
41	0x3c7a62c6	0.0152823385
42	0xbccc138b	-0.024911663
43	0xb9d01d98	-0.000396949
44	0x3db6b14d	0.08920536
45	0xa4a15132	-6.996017e-17
46	0x8e200a1c	-1.972639e-30
47	0x950f1882	-2.8897953e-26
48	0xa9a5688a	-7.3456066e-14
49	0x3ce81152	0.028328571
50	0x0003b48c	3.40275e-40
51	0xb9671ede	-0.00022041376
52	0xba834037	-0.0010013644
53	0x829e9f47	-2.3307434e-37
54	0xb7a5b68d	-1.975454e-05
55	0xbb241101	-0.002503455
56	0x80055a93	-4.9167e-40
57	0x806c529a	-9.947865e-39
58	0xac3acea3	-2.6546896e-12
59	0xbc79f1d6	-0.015255412
60	0x93f190b7	-6.0979653e-27
61	0x80055f98	-4.9347e-40
62	0x3ba249b7	0.004952635
63	0x8e8cf372	-3.4747094e-30
64	0xbd15b0f7	-0.03654572
65	0x3d13a2e5	0.03604402
66	0xbb6a8ef2	-0.0035790768
67	0x8ea274af	-4.0048446e-30
68	0xb115215d	-2.1701319e-09
69	0x3d847461	0.0646751
70	0xb785b283	-1.5937962e-05
71	0xa7410a0a	-2.6789573e-15
72	0x9c356779	-6.002161e-22
73	0x3dd6f306	0.10495572
74	0x9af41111	-1.0094361e-22
75	0xba1c2cf0	-0.0005957624
76	0xb7f478aa	-2.9143255e-05
77	0x0503d28b	6.198261e-36
78	0x8004e14e	-4.48166e-40
79	0xb7101c42	-8.589648e-06
80	0xb230917c	-1.0277628e-08
81	0xbcee3535	-0.029078105
82	0xa7455ce6	-2.7389602e-15
83	0x3d9a673c	0.07539222
84	0xbd0efd22	-0.034909375
85	0x97b367b0	-1.1593778e-24
86	0xa986f78b	-5.993737e-14
87	0x887b3145	-7.559048e-34
88	0xbbb6f8d1	-0.0055838604
89	0xbc1d0bc9	-0.009585329
90	0xb5ba9644	-1.3901813e-06
91	0xbb086616	-0.00208128
92	0xb4ae20ec	-3.243398e-07
93	0x3d02126f	0.03175586
94	0xbb809496	-0.003923963
95	0xb944b306	-0.00018758708
96	0xa662aaca	-7.8640963e-16
97	0xba648d39	-0.00087185536
98	0xbba03613	-0.0048892586
99	0x3d0dbfc3	0.034606706
100	0xbb31e214	-0.002714281
101	0x3c25261c	0.010079887
102	0xbb8e815a	-0.004348916
103	0xad43665c	-1.1107195e-11
104	0x80309f1a	-4.465179e-39
105	0x80055b04	-4.91828e-40
106	0xb8f856e1	-0.00011841744
107	0x81ef1d5f	-8.783688e-38
108	0xbcebe0cb	-0.028793713
109	0x3d11edcd	0.035627175
110	0xbb3dc512	-0.0028956574
111	0x906a5d37	-4.6220173e-29
112	0xaf8233d5	-2.368369e-10
113	0xacc31f1c	-5.545687e-12
114	0x3ba064d1	0.0048948308
115	0x9aa086af	-6.639204e-23
116	0xb383c3f0	-6.135804e-08
117	0x9dfbfc3f	-6.6699963e-21
118	0xa423a38a	-3.5483514e-17
119	0x93590280	-2.7390483e-27
120	0x8005590a	-4.91119e-40
121	0xac9bb98c	-4.425965e-12
122	0xbd14cb5c	-0.03632675
123	0xba4fe340	-0.0007930286
124	0xaf0a12cc	-1.2557705e-10
125	0x93ed5ee0	-5.9920765e-27
126	0x2264031a	3.0901404e-18
127	0xbc5db9ab	-0.013533036

weight f4 [128, 128]
0	0x0005e788	5.42235e-40
1	0x800562ce	-4.94622e-40
2	0x80055937	-4.91182e-40
3	0xb42496f3	-1.5328605e-07
4	0xad346782	-1.0254799e-11
5	0x0005fc8f	5.49778e-40
6	0x0005aa69	5.20309e-40
7	0x00056b35	4.97636e-40
8	0xb3b4ce41	-8.4194205e-08
9	0x80055bf5	-4.92165e-40
10	0x80055f02	-4.9326e-40
11	0x8005e09a	-5.3975e-40
12	0x0005c391	5.29333e-40
13	0x8005845c	-5.06659e-40
14	0x0006c21d	6.20648e-40
15	0x00057876	5.02391e-40
16	0x0005629b	4.9455e-40
17	0x00059e6c	5.16009e-40
18	0x000580d1	5.05388e-40
19	0x80055d06	-4.92548e-40
20	0x0005fd8d	5.50134e-40
21	0x8005aadc	-5.2047e-40
22	0x00055dd0	4.92831e-40
23	0x0005681a	4.96522e-40
24	0x8006c1d0	-6.2054e-40
25	0x800581cc	-5.0574e-40
26	0x000579aa	5.02822e-40
27	0x00055ea9	4.93135e-40
28	0x000630b3	5.68483e-40
29	0xa6c76e15	-1.3838237e-15
30	0x8005a859	-5.19569e-40
31	0x00055dc5	4.92816e-40
32	0xaffc2467	-4.5864398e-10
33	0x80066c05	-5.89763e-40
34	0x0005aaa3	5.2039e-40
35	0x800564d0	-4.95342e-40
36	0x000573cd	5.00719e-40
37	0x0006cfb7	6.25527e-40
38	0x0005e83e	5.4249e-40
39	0x8005647e	-4.95227e-40
40	0x80062f4d	-5.67981e-40
41	0x8005cbe5	-5.32321e-40
42	0x0005593a	4.91186e-40
43	0x0005f1c3	5.45905e-40
44	0xb46b8767	-2.193534e-07
45	0x00063ea5	5.73486e-40
46	0x00057bdf	5.03614e-40
47	0x0005886b	5.08115e-40
48	0x8005ae05	-5.21604e-40
49	0x8005c36a	-5.29279e-40
50	0x80058fa5	-5.10707e-40
51	0x80056126	-4.94028e-40
52	0x0005584c	4.90852e-40
53	0x80056e35	-4.98712e-40
54	0x00057281	5.00254e-40
55	0x0005e21e	5.40293e-40
56	0x8005b062	-5.22452e-40
57	0x8006045b	-5.52575e-40
58	0x800588ce	-5.08254e-40
59	0x0005640b	4.95066e-40
60	0x80055e69	-4.93045e-40
61	0x000573cc	5.00718e-40
62	0x0005ad1e	5.2128e-40
63	0x00057dd8	5.04322e-40
64	0x8005710a	-4.99728e-40
65	0x93bafdd7	-4.7203306e-27
66	0x00057605	5.01515e-40
67	0x000563ae	4.94936e-40
68	0x00055f5e	4.93389e-40
69	0xb0a987e7	-1.2334994e-09
70	0x80056a0d	-4.97221e-40
71	0x0005bb88	5.26451e-40
72	0x00056eee	4.98972e-40
73	0xb520d4bf	-5.991423e-07
74	0x800652ba	-5.8069e-40
75	0x80057c2e	-5.03725e-40
76	0x000559d2	4.91399e-40
77	0x80056e05	-4.98645e-40
78	0x00062956	5.65842e-40
79	0x00058dcb	5.10043e-40
80	0x0005e48f	5.41169e-40
81	0x00055dd7	4.92841e-40
82	0x00056708	4.96138e-40
83	0xb0cc9449	-1.4885099e-09
84	0x0005631e	4.94734e-40
85	0x00057ae9	5.0327e-40
86	0x0005bd63	5.27117e-40
87	0x0005b7a1	5.25051e-40
88	0x80055c27	-4.92236e-40
89	0x80056c03	-4.97925e-40
90	0x0005613c	4.94059e-40
91	0x80059023	-5.10884e-40
92	0x00057341	5.00523e-40
93	0x0005e5db	5.41634e-40
94	0x0005d598	5.358e-40
95	0x00056130	4.94042e-40
96	0x00065591	5.81708e-40
97	0x000629ba	5.65982e-40
98	0x000561ca	4.94258e-40
99	0xa8788601	-1.3795823e-14
100	0x00055b5a	4.91948e-40
101	0x0005b0d1	5.22607e-40
102	0x00055d7e	4.92716e-40
103	0x0005d98a	5.37216e-40
104	0x0005716e	4.99868e-40
105	0x80057494	-5.00998e-40
106	0x0005c6d2	5.30501e-40
107	0x00056fb1	4.99245e-40
108	0x00056286	4.94521e-40
109	0xa622fb85	-5.6545913e-16
110	0x80055c91	-4.92384e-40
111	0x80061be1	-5.61014e-40
112	0x0005ba93	5.26108e-40
113	0x800573fc	-5.00785e-40
114	0x00056a25	4.97255e-40
115	0x000583e2	5.06488e-40
116	0x800671bc	-5.91813e-40
117	0x0005ae92	5.21802e-40
118	0x8005b8eb	-5.25514e-40
119	0x8006923b	-6.0347e-40
120	0x00056bde	4.97873e-40
121	0x0005723b	5.00156e-40
122	0x80055c4e	-4.9229e-40
123	0x000587fb	5.07958e-40
124	0x00063404	5.69673e-40
125	0x80057bf0	-5.03638e-40
126	0x800563f2	-4.95031e-40
127	0x80055758	-4.9051e-40
128	0x80055971	-4.91263e-40
129	0x3c87c0be	0.016571399
130	0xb794e016	-1.7747323e-05
131	0xbc8194dc	-0.015818052
132	0x3caf4a8d	0.021397853
133	0x80055850	-4.90858e-40
134	0x80055997	-4.91316e-40
135	0xbc8b0f4f	-0.016975073
136	0x3ce0bb6d	0.027433122
137	0x00056480	4.9523e-40
138	0x3b925211	0.0044653495
139	0xbce3b2ff	-0.027795313
140	0xa9f8d9cd	-1.1051195e-13
141	0x2ab28c3b	3.1716456e-13
142	0x0005726a	5.00222e-40
143	0x328e7c53	1.6587512e-08
144	0x00055b3f	4.9191e-40
145	0x000560e4	4.93935e-40
146	0x0005643f	4.95139e-40
147	0x80056278	-4.94501e-40
148	0x80055a6b	-4.91613e-40
149	0x00056419	4.95086e-40
150	0x36e0189a	6.678584e-06
151	0xb8221c5f	-3.8650232e-05
152	0x8c9d96c8	-2.4280428e-31
153	0x80055ad4	-4.9176e-40
154	0x00056251	4.94447e-40
155	0xbafb5e9f	-0.001917798
156	0x80055b82	-4.92004e-40
157	0xb8d63fd5	-0.00010216205
158	0x00055a06	4.91472e-40
159	0x3b787a9e	0.0037914882
160	0xbc6d9cb6	-0.014502695
161	0x000563d4	4.94989e-40
162	0x00056719	4.96162e-40
163	0x80055bfd	-4.92177e-40
164	0x00055c57	4.92303e-40
165	0xab052759	-4.73057e-13
166	0x800559af	-4.9135e-40
167	0x0005664a	4.95872e-40
168	0x3ba15da3	0.0049244924
169	0x39b82748	0.00035124482
170	0x3b28c485	0.00257519
171	0x800558da	-4.91051e-40
172	0x3c8706bd	0.016482705
173	0x00057f34	5.0481e-40
174	0x80055892	-4.9095e-40
175	0x80055ae3	-4.91781e-40
176	0x9347e535	-2.5230339e-27
177	0x3ab02615	0.0013439084
178	0x00055f2a	4.93316e-40
179	0x3a5b7d98	0.0008372902
180	0x00055923	4.91154e-40
181	0x800662e9	-5.86495e-40
182	0x00056d5f	4.98412e-40
183	0x00056694	4.95976e-40
184	0x8005618e	-4.94174e-40
185	0x00056bcd	4.97849e-40
186	0x800563f3	-4.95033e-40
187	0xbc098346	-0.008393114
188	0x80055c29	-4.92238e-40
189	0x80055c72	-4.9234e-40
190	0xbb3591f6	-0.0027705408
191	0x00055d04	4.92545e-40
192	0x3cbb20b1	0.022842737
193	0x3cb3c70b	0.021945497
194	0x36c29b68	5.799742e-06
195	0x80055ffd	-4.93612e-40
196	0x04bee7de	4.488172e-36
197	0xb9ec6659	-0.00045089683
198	0x000565a6	4.95642e-40
199	0x80059c58	-5.15263e-40
200	0x80055fef	-4.93592e-40
201	0x3bd52f63	0.006505893
202	0x000559c2	4.91377e-40
203	0x000562a8	4.94569e-40
204	0xb022197d	-5.897148e-10
205	0x80056430	-4.95118e-40
206	0x000564fe	4.95407e-40
207	0x362a4f24	2.537804e-06
208	0x00055a7f	4.91641e-40
209	0xbc5545f5	-0.013017167
210	0x00055fc2	4.93529e-40
211	0x3b8c02ad	0.00427278
212	0x3c4ff2b7	0.012692145
213	0x80055ec2	-4.9317e-40
214	0x80057609	-5.0152e-40
215	0x8005632d	-4.94755e-40
216	0xba37f401	-0.00070172554
217	0x80057496	-5.01e-40
218	0x33972b61	7.039376e-08
219	0x80055908	-4.91116e-40
220	0xb3a87777	-7.84484e-08
221	0x3c45c27a	0.012070293
222	0x3b08a099	0.0020847677
223	0xb7596320	-1.2957287e-05
224	0x00059115	5.11223e-40
225	0x80056363	-4.94831e-40
226	0xb92b5aff	-0.0001634173
227	0xbcf446fe	-0.029819008
228	0x3bcea8fe	0.0063067665
229	0x3a0ef002	0.0005452634
230	0x39e81940	0.000442693
231	0x800559a0	-4.91329e-40
232	0x00055e2d	4.92961e-40
233	0x00056226	4.94387e-40
234	0x00058e23	5.10167e-40
235	0x0006c068	6.20035e-40
236	0x3c6ae636	0.014337113
237	0x3b25ca13	0.0025297448
238	0x3cbe68c1	0.02324331
239	0x8005595e	-4.91236e-40
240	0xa57efaab	-2.2115918e-16
241	0x800580fa	-5.05446e-40
242	0xbc1a483e	-0.009416638
243	0x8005586a	-4.90894e-40
244	0x800559ce	-4.91393e-40
245	0x000563e6	4.95014e-40
246	0x000557c2	4.90659e-40
247	0x80055efa	-4.93249e-40
248	0x800558dc	-4.91054e-40
249	0x80055ba6	-4.92055e-40
250	0x3abeba9f	0.0014551467
251	0x368807ae	4.05401e-06
252	0x00055744	4.90482e-40
253	0x80055f8e	-4.93456e-40
254	0x800561fa	-4.94325e-40
255	0x3a4cee61	0.00078175036

bias f4 [128]
0	0xbc0fbd0a	-0.008773098
1	0xbc95788c	-0.018245958
2	0xbaa1de3d	-0.0012349557
3	0xbca131e7	-0.019677116
4	0x3d1e622c	0.038667843
5	0xb6127d89	-2.1828766e-06
6	0xba692aea	-0.00088946393
7	0xbcfc135a	-0.030770946
8	0x94149605	-7.501677e-27
9	0x3ba6a88f	0.0050860117
10	0x3c9af91d	0.018917615
11	0xbce1df4a	-0.027572293
12	0xb878c10c	-5.9307597e-05
13	0xbca05822	-0.019573275
14	0xa51d01bf	-1.3618171e-16
15	0xb54a1e08	-7.5294565e-07
16	0x9c00713a	-4.249799e-22
17	0xbc47a5ae	-0.012185497
18	0xbb903528	-0.004400868
19	0xbc970d71	-0.018439027
20	0xaa162626	-1.3335912e-13
21	0x3bf55ec3	0.007488103
22	0xbcabaa73	-0.0209553
23	0x3c42aa82	0.011881473
24	0xa4389d61	-4.0031945e-17
25	0xbb2b6ac3	-0.0026156164
26	0xb85bf32c	-5.244014e-05
27	0xbce8402f	-0.028350918
28	0xbce5005c	-0.027954273
29	0xbbde761e	-0.006788983
30	0xbcec8c3d	-0.028875465
31	0xb98a4b4e	-0.00026377517
32	0xbb89cb95	-0.004205177
33	0xb945d6d5	-0.00018867415
34	0xbb1749a5	-0.0023084667
35	0x3d3edb89	0.046596084
36	0xbba33546	-0.004980716
37	0xbcbb2bcf	-0.022848038
38	0xbb964638	-0.0045860074
39	0xa84ea8dc	-1.1471913e-14
40	0xb9f0ba3e	-0.00045915128
41	0xbccdeac5	-0.02513636
42	0x3c83b7d0	0.01607886
43	0xb55b01b3	-8.158633e-07
44	0xbccf0a60	-0.025273502
45	0x3c991445	0.018686423
46	0xbbe02433	-0.006840253
47	0xbae9d73e	-0.0017840636
48	0xb9cbe27f	-0.0003888793
49	0xbccef7c8	-0.025264636
50	0xb9eed654	-0.00045554584
51	0xbce38b85	-0.027776489
52	0x3b9d41c8	0.0047991015
53	0xbcde700d	-0.02715304
54	0x3cfb74c1	0.030695321
55	0x3c0699b6	0.0082153585
56	0xb6b6e513	-5.4506904e-06
57	0xbba83791	-0.005133577
58	0xbb76e5af	-0.0037673523
59	0xbd000173	-0.031251382
60	0xbc98d3a4	-0.018655606
61	0x3cc4f775	0.024043778
62	0xbd0fb20e	-0.035081916
63	0x3b8dfc90	0.0043330863
64	0xbbe51f3c	-0.006992249
65	0xbc6637ca	-0.014051387
66	0x97fe1ee9	-1.6422168e-24
67	0xb790dbee	-1.726855e-05
68	0xbcf20d92	-0.029547486
69	0xbb912850	-0.0044298545
70	0x3ad52e90	0.0016264487
71	0xbc0af2cc	-0.008480739
72	0xb1300bfb	-2.561818e-09
73	0xbc1494bb	-0.009068663
74	0xbb1c0aa0	-0.0023810044
75	0xbb0b135e	-0.002122126
76	0xbcee7255	-0.029107252
77	0xbc392b4a	-0.011301825
78	0xbb840eca	-0.0040300833
79	0xbb4ab757	-0.0030932033
80	0xbb864daf	-0.004098616
81	0xbcda3da1	-0.026640715
82	0xbc916e8b	-0.017752906
83	0xbc07076d	-0.008241517
84	0xb9c00428	-0.0003662419
85	0xb9e431f2	-0.0004352476
86	0x3aeadbae	0.0017918253
87	0xb74de6bb	-1.2272673e-05
88	0xbc0a68f4	-0.008447874
89	0x3ce6f711	0.028193982
90	0xba35eb4f	-0.0006939666
91	0xb65b8a0b	-3.2713895e-06
92	0xb701891f	-7.720925e-06
93	0xbc7d8252	-0.015472965
94	0xb848cb43	-4.7873018e-05
95	0xbc4d9802	-0.0125484485
96	0xb87a0589	-5.96098e-05
97	0xbc8b93da	-0.017038275
98	0xbbca508f	-0.006174154
99	0x3cd10abb	0.025517812
100	0xbd1ecb7c	-0.038768277
101	0xab00ecfe	-4.580363e-13
102	0x3b628df3	0.0034569472
103	0x9b78e0cb	-2.0586714e-22
104	0xbc103afc	-0.0088031255
105	0xa386ae22	-1.4602057e-17
106	0xbbf4127f	-0.007448494
107	0xbcf8969e	-0.030345257
108	0xbc8f494a	-0.017491002
109	0xbcfbadbc	-0.030722491
110	0xb1027a2d	-1.8986939e-09
111	0xbcfe0e16	-0.031012576
112	0xb90481c9	-0.0001263685
113	0xbc05173b	-0.008123214
114	0x3a33a743	0.0006853232
115	0xbc6b9cda	-0.014380658
116	0xbc9ddb66	-0.019269656
117	0x3ce080b4	0.02740512
118	0x3b8bc4ee	0.004265419
119	0xbcea2b79	-0.028585183
120	0xbc4f2ae5	-0.012644504
121	0xbcee83e6	-0.029115628
122	0x3cd47bc8	0.02593793
123	0x9bb4a09a	-2.9882288e-22
124	0xbb01228c	-0.001970443
125	0xbd0be6ec	-0.03415577
126	0x3c23a267	0.00998745
127	0x3b49ffbc	0.0030822596

weight f4 [128, 128]
0	0xbc0192cf	-0.007908537
1	0xbc7acdee	-0.0153078865
2	0xb0be1da5	-1.3832745e-09
3	0x3a140cc3	0.00056476536
4	0x3d8b8b71	0.06813706
5	0x00055fde	4.93568e-40
6	0xb8e6f6f2	-0.00011013252
7	0x3d9c4227	0.07629805
8	0x0cb02580	2.7139663e-31
9	0x3c88b31a	0.016686965
10	0x3a9146f4	0.0011083768
11	0xb795a938	-1.7840983e-05
12	0x3a036420	0.0005012173
13	0x80057551	-5.01263e-40
14	0x80055cef	-4.92516e-40
15	0x80056068	-4.93762e-40
16	0x80055aa7	-4.91697e-40
17	0x3c791251	0.015202121
18	0xbc3ab6cf	-0.011396124
19	0x2da84c24	1.9133202e-11
20	0x800560fd	-4.9397e-40
21	0x396bca59	0.00022486727
22	0x80057c1d	-5.03701e-40
23	0xbc3cb047	-0.011516637
24	0x208eeb31	2.4211372e-19
25	0x0c4e50ac	1.5893939e-31
26	0x000d8812	1.242674e-39
27	0xafb9a720	-3.3770053e-10
28	0x3c536a7b	0.012903805
29	0x39751b43	0.00023375177
30	0x959b5000	-6.273022e-26
31	0x288fa3e5	1.5947267e-14
32	0x3d1b561c	0.037923917
33	0x80055f6d	-4.9341e-40
34	0xba18d1d4	-0.00058296067
35	0x3d106491	0.035252158
36	0xbca98d2f	-0.020697204
37	0xaaba1d36	-3.3060506e-13
38	0x34a4eb24	3.0718468e-07
39	0x1b26e113	1.3803924e-22
40	0xa3f5c459	-2.664611e-17
41	0x3c3dfa5f	0.011595338
42	0xbbfbf547	-0.0076891514
43	0x140b1ee4	7.023799e-27
44	0x00055d15	4.92569e-40
45	0x3d9bd901	0.076097496
46	0x00056163	4.94113e-40
47	0x80056441	-4.95142e-40
48	0x80055e11	-4.92922e-40
49	0xadadcec3	-1.9759644e-11
50	0x3b55d5ee	0.0032628733
51	0x3a0b996a	0.00053252897
52	0x39a5b551	0.00031606344
53	0xbb0e0d66	-0.0021675467
54	0x3cb9d8f5	0.022686461
55	0xbc63930d	-0.01389004
56	0xa50c358f	-1.2161211e-16
57	0x1b51f7d2	1.736815e-22
58	0xba9c8325	-0.001194094
59	0xba80006b	-0.000976575
60	0x3bc2bb4f	0.005942739
61	0x3d6f2e02	0.058393486
62	0x3d0d8967	0.034554865
63	0x3c88127b	0.016610375
64	0x3991794c	0.00027746928
65	0x3d9216cc	0.071332544
66	0x00055caf	4.92426e-40
67	0x8005603a	-4.93697e-40
68	0xb45051de	-1.9401293e-07
69	0x3828f778	4.0284795e-05
70	0x3b90766c	0.0044086482
71	0x3cc328b9	0.023823129
72	0x80055e82	-4.9308e-40
73	0x3d8441ae	0.0645784
74	0x80056123	-4.94024e-40
75	0x000562fd	4.94688e-40
76	0x387449e0	5.8242935e-05
77	0xbb4b8883	-0.003105671
78	0x39b3b03b	0.00034272842
79	0x155a733d	4.4115656e-26
80	0x39c26c3d	0.00037083207
81	0xbc15f56b	-0.0091527505
82	0xb99ec360	-0.00030281674
83	0xb69b295b	-4.6241744e-06
84	0x80056308	-4.94703e-40
85	0xaef3f1b8	-1.10932985e-10
86	0xbb458590	-0.0030139424
87	0xa30ac32b	-7.5223234e-18
88	0x3935f928	0.00017354323
89	0x3d87b5d0	0.06626475
90	0x30926ed0	1.0654393e-09
91	0xb4f7a30a	-4.6125962e-07
92	0x00055b72	4.91982e-40
93	0x800562e6	-4.94656e-40
94	0x8005607f	-4.93794e-40
95	0x2d7e97e1	1.4471952e-11
96	0x00056200	4.94333e-40
97	0xb8c16719	-9.2221606e-05
98	0x8e15e1b2	-1.8474336e-30
99	0x3da52bb6	0.08064978
100	0x3c1949f7	0.0093560135
101	0x8005e0da	-5.39839e-40
102	0xb96c1071	-0.00022512839
103	0x000561b6	4.9423e-40
104	0x374cafb5	1.22002575e-05
105	0x80055c30	-4.92248e-40
106	0x3a897108	0.0010485956
107	0x3c04f97d	0.008116123
108	0xb5ad00b2	-1.2889707e-06
109	0x388e0966	6.772838e-05
110	0x8005443e	-4.83658e-40
111	0x3b3ffdc3	0.002929554
112	0xba4ca0d8	-0.000780595
113	0xab953ea3	-1.0604472e-12
114	0xb83293ee	-4.2576277e-05
115	0x11e620d0	3.6307824e-28
116	0x28e07dec	2.4923606e-14
117	0x3d122afe	0.03568553
118	0x3b76631f	0.0037595702
119	0x3d1bfffe	0.03808593
120	0x3c45cf6e	0.012073381
121	0xb0df5dc2	-1.6252033e-09
122	0x3dcf4f67	0.10122567
123	0x800560bb	-4.93878e-40
124	0x35e99238	1.7402408e-06
125	0x3bf35aec	0.00742661
126	0xbaeecbc5	-0.0018218687
127	0xbbc312d9	-0.0059531746
128	0xa534aa92	-1.5670303e-16
129	0xb637cfae	-2.739001e-06
130	0x000557ad	4.9063e-40
131	0x80055749	-4.9049e-40
132	0xbccd88ee	-0.025089707
133	0x000563ad	4.94934e-40
134	0x19a9e6a2	1.7567342e-23
135	0xbb3ed739	-0.0029119982
136	0x0b1c6b33	3.0125155e-32
137	0xbb63b1fe	-0.0034743543
138	0xb8d58e04	-0.00010183084
139	0x80055969	-4.91252e-40
140	0x06e470ee	8.5930003e-35
141	0x00058b86	5.09229e-40
142	0x000557b9	4.90646e-40
143	0x000559c7	4.91384e-40
144	0x00055a8a	4.91657e-40
145	0x2e862c1d	6.1014506e-11
146	0x3b58b79c	0.0033068424
147	0x800557c4	-4.90662e-40
148	0x80055a94	-4.91671e-40
149	0xb67517ef	-3.6521776e-06
150	0x8005b692	-5.24671e-40
151	0xbb06af66	-0.0020551323
152	0x9d9e7c3d	-4.195071e-21
153	0x80055a91	-4.91667e-40
154	0x80055e5f	-4.93031e-40
155	0x00055ff4	4.93599e-40
156	0x8c867943	-2.071895e-31
157	0x80041dd6	-3.78045e-40
158	0x945d6f3e	-1.1179587e-26
159	0x00055e6d	4.93051e-40
160	0xbaf88837	-0.0018961494
161	0x00055b79	4.91992e-40
162	0x2bae7fff	1.239897e-12
163	0xbc92dc97	-0.017927451
164	0xbc9fdbc1	-0.019513967
165	0x000558e1	4.91061e-40
166	0x800562a4	-4.94563e-40
167	0x19feb24b	2.6334996e-23
168	0x00056146	4.94073e-40
169	0x352facbe	6.5443953e-07
170	0xb1cef229	-6.0229195e-09
171	0x800560d9	-4.9392e-40
172	0x00055f60	4.93392e-40
173	0xbdd70b98	-0.10500258
174	0x0005577f	4.90565e-40
175	0x00055c91	4.92384e-40
176	0x00055cf5	4.92524e-40
177	0x087214eb	7.2848815e-34
178	0xb499cb1c	-2.8646252e-07
179	0x2662221b	7.845572e-16
180	0xb9ba33cf	-0.00035515285
181	0xb4d27e07	-3.9207245e-07
182	0xbca4e3ff	-0.020128248
183	0xbb576ccc	-0.0032871244
184	0x00056439	4.9513e-40
185	0x00055ec3	4.93172e-40
186	0xb5b1298c	-1.3199619e-06
187	0x393b9c73	0.00017891992
188	0xaddb490e	-2.492986e-11
189	0xbabaa785	-0.0014240599
190	0x363492e5	2.6907594e-06
191	0x2f1354e9	1.3399738e-10
192	0x277e4d60	3.5291526e-15
193	0xb91df611	-0.00015064354
194	0x800561b4	-4.94227e-40
195	0x00055b19	4.91857e-40
196	0x1636e52d	1.4774158e-25
197	0xa42d834f	-3.7624618e-17
198	0xbc03eb2f	-0.008051678
199	0x3a94198e	0.001129912
200	0x800560e3	-4.93934e-40
201	0xbb9a8e11	-0.0047166427
202	0x0006bc9b	6.18672e-40
203	0x80057867	-5.0237e-40
204	0x00055f2f	4.93323e-40
205	0xa8f9ace3	-2.7719531e-14
206	0x11cacb30	3.1995205e-28
207	0x00055f33	4.93329e-40
208	0x9b83588d	-2.1729357e-22
209	0xb3307f52	-4.109399e-08
210	0x00055e11	4.92922e-40
211	0x80055f9e	-4.93478e-40
212	0x00055ebe	4.93165e-40
213	0x00055db9	4.92799e-40
214	0xb5cc2927	-1.5211161e-06
215	0x8005622a	-4.94392e-40
216	0x12929e23	9.252879e-28
217	0xbd23891f	-0.03992569
218	0x800561f8	-4.94322e-40
219	0x3326ebd9	3.886439e-08
220	0x800559d6	-4.91405e-40
221	0x00055938	4.91183e-40
222	0x800559f3	-4.91445e-40
223	0x80055c5e	-4.92313e-40
224	0x80055739	-4.90467e-40
225	0x942b3213	-8.643169e-27
226	0x00055df9	4.92889e-40
227	0x3c738278	0.014862649
228	0xb349a796	-4.6951378e-08
229	0x80055b51	-4.91936e-40
230	0xb4168baa	-1.4020648e-07
231	0x00055a71	4.91622e-40
232	0x800608dd	-5.54193e-40
233	0x8005582d	-4.90809e-40
234	0xac4fede1	-2.9548519e-12
235	0x36f501e8	7.301791e-06
236	0x037c7c28	7.419867e-37
237	0x1039ef71	3.6669276e-29
238	0x00056389	4.94884e-40
239	0x04039719	1.5468357e-36
240	0x38ba43a1	8.881768e-05
241	0x00056186	4.94162e-40
242	0x0f842a51	1.3032505e-29
243	0x800579a6	-5.02817e-40
244	0x80055e39	-4.92978e-40
245	0x3cabb9f8	0.0209627
246	0xaebdab21	-8.6251235e-11
247	0x3ba2d026	0.004968661
248	0x2c05a6df	1.8993069e-12
249	0x00056072	4.93776e-40
250	0xbb1e704c	-0.002417582
251	0x80056487	-4.9524e-40
252	0x00055a0c	4.9148e-40
253	0x32978430	1.7638826e-08
254	0x26b8d34f	1.282484e-15
255	0x376a3b9c	1.3961366e-05
