CNP-model-save-name/saved_models/model_6000.pth (torch, 800290 bytes, 52 tensors)

weight f4 [64, 5]
-0.28556862 0.110681415 0.2641359 -0.26927292 -0.01069054 0.108468674 -0.21362521 -0.24780366
-0.17142445 0.013704831 0.05013685 -0.068869114 0.17062677 0.119446844 -0.118600465 0.26494825
0.03339336 0.18174388 -0.023420386 -0.29723674 -0.04704349 -0.08340123 -0.12208378 0.19038577
-0.14235817 0.26045817 0.117577635 0.24299264 -0.020330694 0.21958685 0.13779525 -0.023434727
0.0051643676 -0.27538687 -0.085578635 0.2710051 -0.011020049 0.20515671 0.20259368 0.12765783
-0.03718983 -0.01865111 0.14216454 0.19070812 0.1035646 -0.067243084 0.21959533 0.16545494
0.08277844 -0.051617958 0.07639048 -0.19175136 -0.05897906 -0.1434069 -0.27186894 0.10116804
-0.20162238 -0.08062407 -0.24735868 0.24593277 0.16422509 -0.2576357 -0.10899644 -0.23743784
0.27702713 0.10060015 -0.20048864 -0.062024865 -0.12478281 0.0897885 -0.2818142 -0.3269038
0.007844612 -0.36078197 -0.21009786 0.104088895 0.09742279 -0.23331416 -0.09449283 -0.08493916
-0.31504172 0.13972026 0.2765638 -0.035895612 -0.08069527 0.023894416 -0.29244322 0.06522904
-0.3276117 -0.01687366 -0.19592644 -0.13190863 -0.07543176 -0.048243303 0.08626052 -0.021584695
0.18618625 0.27929327 0.051971495 -0.23595099 0.09501842 -0.02227995 -0.36739728 0.08807318
0.29164824 0.2519979 0.110646516 0.26291847 0.23722371 -0.14971133 -0.29786125 0.04847112
-0.09097679 0.14908637 -0.34923372 0.18487807 -0.07574331 -0.2504347 -0.073898725 0.09160799
0.22881886 -0.117286436 0.21609734 -0.19851887 0.081474 0.1859103 -0.15231077 0.082556926
-0.0679695 0.005611081 -0.13648713 -0.060825355 0.19052583 0.26459748 0.24771102 -0.1658809
-0.20834756 0.23752242 -0.034943696 0.21615936 0.02634288 -0.015850404 -0.108355306 -0.315322
0.102622025 -0.14353828 0.25584376 -0.1652339 -0.20189598 -0.25899032 -0.1357688 0.12947436
-0.13508824 0.19145499 -0.16747323 -0.06972663 -0.1780491 -0.21064444 0.17440324 -0.1858104
-0.08443768 -0.071546346 -0.22148839 -0.26976708 -0.22485241 -0.11786629 -0.27061808 0.040514372
-0.030683637 0.28095803 0.28662318 0.039884776 -0.13808382 -0.11362886 0.31612742 0.08981864
0.06090896 -0.12871698 0.20797116 -0.19876114 0.1613918 -0.0011030622 0.2848731 0.206713
0.31824514 0.11590426 0.1875528 0.20609137 0.07152141 -0.060830384 0.07249447 -0.2563195
-0.07828406 -0.0040186895 0.08762984 -0.07432252 0.32457674 -0.086757734 -0.14007933 -0.23758078
0.023126595 0.088669874 -0.026490694 0.16802706 0.24314374 -0.17684786 -0.20636432 0.12850352
-0.04372065 -0.21625532 -0.08186193 -0.054032095 -0.12415058 -0.1284517 -0.2830363 -0.020556495
-0.08622608 0.19246815 -0.15243006 -0.22676219 0.015717443 -0.24269734 -0.21488775 -0.0663472
0.0033674822 0.008181456 -0.28457487 -0.1198787 -0.1297305 0.27516603 -0.02738084 0.28136116
-0.1267209 -0.21141389 -0.1392803 -0.20722559 0.028958298 0.1273485 0.20165902 -0.07087706
-0.18341173 0.07092412 0.038929854 0.013823019 -0.09091067 -0.067152575 -0.18253389 -0.238811
0.04357194 0.19478244 0.15847586 0.0988085 -0.027670482 0.096634604 0.33890682 0.26881117
00000000: 0d36 92be f0ac e23d d23c 873e 24de 89be
00000010: 6027 2fbc d324 de3d 91c0 5abe 3ec0 7dbe
00000020: e489 2fbe 3a8a 603c 4c5c 4d3d 400b 8dbd
00000030: c9b8 2e3e 8ca0 f43d cde4 f2bd 4ca7 873e
00000040: 7ac7 083d 111b 3a3e 1cdc bfbc 6a2f 98be
00000050: adb0 40bd 44ce aabd 1007 fabd 7df4 423e
00000060: 57c6 11be c65a 853e 8bcc f03d 10d3 783e
00000070: 8e8c a6bc 60db 603e 331a 0d3e 2ffa bfbc
00000080: db39 a93b 82ff 8cbe da43 afbd 2ec1 8a3e
00000090: 708d 34bc 9a14 523e b874 4f3e bcb8 023e
000000a0: 5d54 18bd 36ca 98bc 9593 113e fd48 433e
000000b0: ad19 d43d beb6 89bd 99dd 603e 056d 293e
000000c0: be87 a93d 5a6d 53bd 9d72 9c3d 785a 44be
000000d0: 0794 71bd 42d9 12be 6832 8bbe 3031 cf3d
000000e0: 1976 4ebe 3b1e a5bd 984b 7dbe cdd5 7b3e
000000f0: 9f2a 283e d4e8 83be 8739 dfbd e822 73be
00000100: 80d6 8d3e 7407 ce3d e54c 4dbe c90d 7ebd
00000110: 218e ffbd 08e3 b73d f349 90be ef5f a7be
00000120: b086 003c 6ab8 b8be e523 57be 8f2c d53d
00000130: 9a85 c73d e8e9 6ebe 7585 c1bd 95f4 adbd
00000140: 264d a1be d412 0f3e c599 8d3e 4707 13bd
00000150: 9043 a5bd 39be c33c 1ebb 95be ce96 853d
00000160: b9bc a7be a13a 8abc f1a0 48be 0e13 07be
00000170: f77b 9abd c59a 45bd 5ba9 b03d 63d2 b0bc
00000180: 9ca7 3e3e 87ff 8e3e 10e0 543d 239d 71be
00000190: 0499 c23d 7184 b6bc 7f1b bcbe b65f b43d
000001a0: eb52 953e de05 813e a49a e23d 409d 863e
000001b0: c6ea 723e ed4d 19be 4581 98be a789 463d
000001c0: 0a52 babd 19aa 183e c3ce b2be ad50 3d3e
000001d0: 4f1f 9bbd fa38 80be 3758 97bd f89c bb3d
000001e0: 7e4f 6a3e df33 f0bd 9f48 5d3e 8848 4bbe
000001f0: d7db a63d 455f 3e3e 5bf7 1bbe 9b13 a93d
00000200: 9833 8bbd 29dd b73b 48c3 0bbe 0224 79bd
00000210: 3419 433e 5279 873e f5a7 7d3e afdc 29be
00000220: 1059 55be 1439 733e 1f21 0fbd e158 5d3e
00000230: 06cd d73c b5d8 81bc 63e9 ddbd e371 a1be
00000240: 7f2b d23d b3fb 12be f4fd 823e 1333 29be
00000250: d2bd 4ebe 619a 84be fa06 0bbe ed94 043e
00000260: 9254 0abe c70c 443e 1a7e 2bbe d6cc 8ebd
00000270: 8152 36be 2db3 57be c396 323e 1545 3ebe
00000280: aaed acbd e486 92bd dacd 62be e91e 8abe
00000290: b63f 66be e263 f1bd 748e 8abe 66f2 253d
000002a0: 405c fbbc bbd9 8f3e 46c0 923e 385e 233d
000002b0: d865 0dbe 3fb6 e8bd 74db a13e d6f2 b73d
000002c0: ac7b 793d 62ce 03be 64f6 543e 0a88 4bbe
000002d0: e443 253e a094 90ba e3da 913e 93ac 533e
000002e0: 07f1 a23e 365f ed3d d70d 403e 9e09 533e
000002f0: d179 923d 4829 79bd fb77 943d 4f3c 83be
00000300: 6553 a0bd 36af 83bb 4677 b33d 6836 98bd
00000310: ec2e a63e 0aae b1bd f570 0fbe 6048 73be
00000320: fc73 bd3c 8d98 b53d 0303 d9bc 490f 2c3e
00000330: acfa 783e 9b17 35be 2b51 53be 6d96 033e
00000340: 6d14 33bd 0972 5dbe 3aa7 a7bd c250 5dbd
00000350: a942 febd d888 03be 22ea 90be 1866 a8bc
00000360: 4d97 b0bd 5f16 453e a016 1cbe 5934 68be
00000370: dec1 803c a785 78be 890b 5cbe 0ae1 87bd
00000380: fab0 5c3b 830b 063c ccb3 91be f782 f5bd
00000390: 12d8 04be 90e2 8c3e c94d e0bc 920e 903e
000003a0: 20c3 01be e27c 58be 7f9f 0ebe f232 54be
000003b0: f439 ed3c a567 023e b47f 4e3e fe27 91bd
000003c0: 49d0 3bbe aa40 913d e974 1f3d f279 623c
000003d0: 602f babd 4a87 89bd 2aea 3abe df8a 74be
000003e0: 7e78 323d 0c75 473e 7f47 223e 1c5c ca3d
000003f0: 35ad e2bc 5de8 c53d 3285 ad3e 9ea1 893e

bias f4 [64]
0.02794775 -0.0024032518 0.0747386 0.11072051 0.03639445 -0.07118647 0.04033011 -0.08738752
0.045199767 -0.06547246 0.09164085 0.06005518 0.014919286 -0.03347595 0.016107079 -0.06450945
-8.200536e-05 0.03972174 0.0722919 -0.0759378 -0.016516007 -0.088255264 -0.018062323 0.059107047
-0.05461691 -0.063637 -0.06946385 0.039553933 -0.08709098 0.11048512 0.025177114 0.0799978
0.02176864 0.013096905 -0.03881096 -0.051666826 -0.004996226 0.06383891 0.0014928911 0.043240547
0.009916227 -0.017584601 0.05655628 0.052934863 0.084801644 -0.056200936 0.06907895 -0.010141824
-0.0013287192 0.04374719 -0.11788516 -0.05184529 0.012262395 -0.0424396 0.047707234 -0.09685716
0.018618759 -0.022261558 0.02534399 -0.0013449301 0.035647854 0.03225508 0.0534393 0.037276402
00000000: aef2 e43c e07f 1dbb 8d10 993d 6fc1 e23d
00000010: 5912 153d 36ca 91bd 2f31 253d 3af8 b2bd
00000020: 6423 393d 6d16 86bd 33ae bb3d 6cfc 753d
00000030: 0570 743c 141e 09bd fef2 833c 881d 84bd
00000040: 4bfa abb8 43b3 223d c70d 943d 4785 9bbd
00000050: 944c 87bc 2dbf b4bd 70f7 93bc 3b1a 723d
00000060: fbb5 5fbd 1e54 82bd 1043 8ebd 4e03 223d
00000070: c15c b2bd 0646 e23d 3c40 ce3c e3d5 a33d
00000080: 2654 b23c 6794 563c 3ef8 1ebd 98a0 53bd
00000090: 62b7 a3bb f9bd 823d 1dad c33a 001d 313d
000000a0: ac77 223c 950d 90bc 8fa7 673d 3ad2 583d
000000b0: 7cac ad3d f432 66bd 4479 8d3d e529 26bc
000000c0: 6b28 aeba 4130 333d c66d f1bd ba5b 54bd
000000d0: 36e8 483c 25d5 2dbd a968 433d 0c5d c6bd
000000e0: 5e86 983c df5d b6bc 339e cf3c 5e48 b0ba
000000f0: 7c03 123d e71d 043d 2be3 5a3d 24af 183d

weight f4 [64, 4]
-0.016670348 -0.19858202 0.12627889 0.025033657 0.13751432 0.19131611 0.014744482 0.013999077
-0.09920762 -0.09210731 -0.14892803 0.09106005 -0.057015292 -0.14330055 -0.28581393 -0.08335875
-0.2125601 0.24211131 -0.27844238 0.17498758 0.20427695 -0.106751725 -0.05034037 0.19737649
0.12629646 -0.09739785 -0.12628156 0.053467955 0.030691722 0.009681311 -0.024500284 0.1714565
0.29335773 -0.14463772 -0.18119138 -0.21339822 0.01638423 0.26493758 -0.1342656 0.0026337758
0.25288135 0.07239221 -0.2912013 -0.1310341 -0.04105146 -0.18943207 0.07388887 -0.0820234
0.15803719 -0.27467343 0.112553336 -0.046022184 0.23680915 -0.020297766 0.18111426 -0.08002213
-0.034221563 -0.15406354 0.07296037 -0.003583085 0.21460661 0.07773143 -0.22125304 0.19535762
0.10153159 -0.25255695 0.1677105 -0.09378203 0.12537667 -0.19137369 -0.06468018 0.0044897683
-0.19729683 -0.19188198 0.036031026 -0.08794278 0.094863355 0.20991383 0.12570244 0.2456671
0.15491256 0.054022923 0.26107764 -0.3045184 0.12806407 -0.014713662 -0.2882575 0.30202836
0.050769623 -0.10507039 -0.047539763 0.11113629 -0.10192431 0.17216317 0.16303943 -0.25396642
-0.024361065 -0.09397452 -0.27903646 0.3480536 -0.013522594 -0.19587278 -0.14228684 0.282196
-0.106067695 -0.18535103 -0.018138748 0.22287239 -0.014161318 -0.015311192 0.017181626 -0.19677286
-0.012306585 -0.03253547 0.12815687 0.17861557 -0.13602066 -0.21757966 -0.18991208 -0.24961242
-0.12167771 0.26701662 0.121981986 -0.23550496 0.20752986 -0.29059952 -0.14736047 -0.041010242
0.070197895 0.20323205 -0.37506428 0.23557544 0.19747283 -0.26905352 0.13514933 -0.09191583
0.055112634 0.2066826 0.28503272 -0.3102342 -0.27583465 -0.26257557 0.24921647 0.34185314
0.045901794 -0.15590464 0.043932736 0.03221509 -0.02284928 0.2099847 -0.22581398 -0.28083724
0.116003804 -0.1410112 0.14037688 0.038132664 0.1672834 -0.21772698 0.10893554 0.109030455
0.116815425 -0.2525912 0.09745993 -0.26186684 0.2330731 0.1745781 -0.07281572 -0.035081703
-0.014390778 0.28052837 -0.33272716 0.07823627 0.22031125 -0.18337302 0.2624236 -0.29142097
-0.047666058 0.0051115453 0.16318035 -0.20216703 -0.023864964 -0.26244864 0.3528368 -0.055013184
0.1293551 0.17490993 -0.1703929 -0.18807356 0.12331757 0.075001076 -0.11839922 -0.09273128
0.27469018 0.108789206 0.017584883 -0.2398869 0.2052162 0.19085191 0.035039105 -0.092535086
-0.08559608 0.016128806 0.017153203 0.127578 -0.32576457 0.09564673 0.121620305 0.29101688
-0.12471178 -0.27677885 0.18309344 0.033830844 -0.08925775 0.14764015 -0.04071164 0.15556146
-0.30436668 0.1373207 0.13355342 -0.29297101 -0.25362182 0.18341446 0.22298886 0.20029272
-0.13372019 0.2166485 -0.122139715 -0.04356942 -0.026501834 0.28208408 -0.23002553 0.01055807
-0.26946986 0.12520766 -0.19052604 0.27234706 0.13056032 0.046846747 -0.06302275 -0.025113877
-0.026318312 0.19646081 -0.16771008 0.10679847 0.13148573 0.25493044 0.14599977 -0.37794855
-0.052784085 -0.06021338 -0.23052794 0.062242504 0.0596993 0.15994193 0.07529791 -0.22853132
00000000: 4190 88bc 1659 4bbe 414f 013e 6213 cd3c
00000010: 8ed0 0c3e 5fe8 433e d792 713c 625c 653c
00000020: 5d2d cbbd c2a2 bcbd 9780 18be b17d ba3d
00000030: de88 69bd 61bd 12be 3456 92be feb7 aabd
00000040: 5ba9 59be 07ec 773e 0090 8ebe f22f 333e
00000050: fa2d 513e a6a0 dabd b431 4ebd 101d 4a3e
00000060: dc53 013e 8678 c7bd f44f 01be 3701 5b3d
00000070: 356d fb3c 5d9e 1e3c d2b4 c8bc 4b92 2f3e
00000080: fc32 963e e91b 14be 3c8a 39be 1085 5abe
00000090: 3938 863c e6a5 873e ec7c 09be 6d9b 2c3b
000000a0: aa79 813e 5e42 943d 5618 95be ce2d 06be
000000b0: 9325 28bd 7bfa 41be 0c53 973d e2fb a7bd
000000c0: 80d4 213e ffa1 8cbe 5d82 e63d c281 3cbd
000000d0: 197e 723e 8047 a6bc 0476 393e a4e2 a3bd
000000e0: e92b 0cbd d5c2 1dbe 3f6c 953d 31d2 6abb
000000f0: d6c1 5b3e a831 9f3d 2890 62be d40b 483e
00000100: cbef cf3d 254f 81be 4dbc 2b3e cb10 c0bd
00000110: be62 003e 77f7 43be 0b77 84bd e81e 933b
00000120: 2e08 4abe b67c 44be 4595 133d 581b b4bd
00000130: b847 c23d a7f3 563e 24b8 003e 2890 7b3e
00000140: 66a1 1e3e 2447 5d3d f8ab 853e d6e9 9bbe
00000150: 3a23 033e 9211 71bc 7d96 93be 76a3 9a3e
00000160: cff3 4f3d 252f d7bd 0eb9 42bd 6c9b e33d
00000170: b1bd d0bd 8b4b 303e cff3 263e e307 82be
00000180: db90 c7bc b775 c0bd dedd 8ebe 1534 b23e
00000190: df8d 5dbc e092 48be a4b3 11be fe7b 903e
000001a0: 053a d9bd a9cc 3dbe b697 94bc a938 643e
000001b0: df04 68bc cbdb 7abc 7bc0 8c3c d37e 49be
000001c0: 8fa1 49bc ea43 05bd 8e3b 033e 00e7 363e
000001d0: 0049 0bbe 34cd 5ebe 5078 42be 669a 7fbe
000001e0: 2a32 f9bd 67b6 883e b1d1 f93d 3628 71be
000001f0: b582 543e 76c9 94be aae5 16be 5bfa 27bd
00000200: eac3 8f3d 101c 503e 6d08 c0be b03a 713e
00000210: 5136 4a3e 62c1 89be 9664 0a3e 5e3e bcbd
00000220: c9bd 613d 9aa4 533e cfef 913e 04d7 9ebe
00000230: 333a 8dbe 4e70 86be 9a32 7f3e 6007 af3e
00000240: 8503 3c3d 77a5 1fbe d0f2 333d f8f3 033d
00000250: 6a2e bbbc 3b06 573e c83b 67be e6c9 8fbe
00000260: 6793 ed3d 3d65 10be f5be 0f3e ff30 1c3d
00000270: 574c 2b3e d2f3 5ebe 9919 df3d 5c4b df3d
00000280: ed3c ef3d a253 81be 1299 c73d 6913 86be
00000290: b7aa 6e3e 9ac4 323e 6920 95bd d5b1 0fbd
000002a0: 4cc7 6bbc 6aa1 8f3e 375b aabe 563a a03d
000002b0: 4699 613e 23c6 3bbe 635c 863e 2135 95be
000002c0: 7c3d 43bd c07e a73b c018 273e e004 4fbe
000002d0: 7580 c3bc ab5f 86be 06a7 b43e 8155 61bd
000002e0: aa75 043e 971b 333e 7a7b 2ebe 5b96 40be
000002f0: ec8d fc3d 2a9a 993d 4a7b f2bd e6e9 bdbd
00000300: 31a4 8c3e e0cc de3d 2c0e 903c e9a4 75be
00000310: 3224 523e af6e 433e 2a85 0f3d 0983 bdbd
00000320: ff4c afbd 8f20 843c e084 8c3c cfa3 023e
00000330: 9dca a6be 6fe2 c33d 1114 f93d 2a00 953e
00000340: e468 ffbd f5b5 8dbe d97c 3b3e 3692 0a3d
00000350: c4cc b6bd fb2e 173e 40c1 26bd 814b 1f3e
00000360: f3d5 9bbe cc9d 0c3e 3ac2 083e 4c00 96be
00000370: b8da 81be 00d1 3b3e 3157 643e 8919 4d3e
00000380: f2ed 08be 1bd9 5d3e 6324 fabd d975 32bd
00000390: 601a d9bc 536d 903e d08b 6bbe c1fb 2c3c
000003a0: f4f7 89be 7036 003e 4219 43be 1371 8b3e
000003b0: 9bb1 053e 60e2 3f3d 1212 81bd 9ebb cdbc
000003c0: 8099 d7bc 062d 493e 31bc 2bbe 28b9 da3d
000003d0: 32a4 063e 3e86 823e f780 153e 7982 c1be
000003e0: 2034 58bd 4ea2 76bd 840f 6cbe fff1 7e3d
000003f0: 4187 743d d1c7 233e ca35 9a3d 1d04 6abe

bias f4 [64]
-0.029113024 -0.14301436 0.12486146 0.16175158 -0.019319482 -0.07730498 0.113407634 -0.11705877
0.08392708 -0.083358675 0.114132434 0.12643306 0.07453643 -0.055786178 0.09079431 -0.108935945
0.00066686136 0.10477942 0.11507405 -0.14085391 -0.0034385584 -0.067748696 -0.009310833 0.022899946
0.039606344 0.070259355 -0.073111854 0.0626231 -0.12813431 0.15029018 -0.052827828 0.08715491
0.044817314 -0.024382865 -0.13186164 -0.041879337 0.0124118095 0.11718383 0.017464003 -0.044309273
0.03240123 -0.08531695 0.0405828 0.0051148 0.074089095 -0.020896826 0.058831125 0.04725421
-0.11550166 0.013873595 -0.06567507 -0.025527157 0.09555782 -0.07795332 0.046889156 -0.08610032
0.06253748 -0.022884829 0.06041016 -0.05496813 -0.07126456 0.0170477 0.15290107 -0.045162328
00000000: 707e eebc 5b72 12be 5db7 ff3d 35a2 253e
00000010: e443 9ebc 1352 9ebd 4342 e83d 82bc efbd
00000020: f6e1 ab3d f4b7 aabd 44be e93d ab77 013e
00000030: 8ea6 983d 0c80 64bd 5ef2 b93d cf19 dfbd
00000040: 4fd0 2e3a 9896 d63d f2ab eb3d 023c 10be
00000050: 7059 61bb d4bf 8abd 778c 18bc ab98 bb3c
00000060: 433a 223d 23e4 8f3d abbb 95bd 8a40 803d
00000070: a435 03be abe5 193e fe61 58bd 467e b23d
00000080: 5c92 373d 93be c7bc bd06 07be ab89 2bbd
00000090: e75a 4b3c 13fe ef3d ab10 8f3c a47d 35bd
000000a0: 27b7 043d a7ba aebd 263a 263d 0d9a a73b
000000b0: 06bc 973d d22f abbc e8f8 703d a18d 413d
000000c0: 228c ecbd 134e 633c a780 86bd 541e d1bc
000000d0: d1b3 c33d fea5 9fbd d80e 403d 5d55 b0bd
000000e0: a613 803d f778 bbbc a570 773d 4326 61bd
000000f0: 27f3 91bd 9ea7 8b3c 1992 1c3e 22fc 38bd

in_proj_weight f4 [192, 64]
-0.37540662 0.5159733 -0.28020608 -0.7319618 -0.2290231 0.1929484 0.44262862 -0.048069436
-0.54438627 0.0641376 0.16659665 -0.17949757 0.14380719 0.60130584 0.3345825 0.30258653
-0.34401459 0.16630585 -0.59364986 0.77904755 0.47191876 -0.061507523 0.08137205 0.14236298
0.013377879 0.15415002 -0.63639414 -0.46502414 0.3664555 -0.84928024 -0.059447665 -0.45737708
0.66374475 -0.33276156 0.089185864 0.115470335 -0.43557662 -0.5266201 0.55937964 0.2833358
-0.72343194 0.4799656 0.38322973 0.059112094 0.2203791 0.0103080245 0.076818034 0.18264031
-0.023087012 0.727871 -0.17513232 0.47556564 -0.14310642 0.30064517 -0.5096426 0.5360891
0.02982443 0.010475116 0.16033454 -0.03293858 0.019722708 0.56963885 -0.35756132 -0.019170329
0.33480465 -0.532974 0.31244424 0.633468 0.29600772 -0.28167042 -0.46905875 0.035754666
0.3943867 -0.07024104 -0.2875049 0.19445968 -0.23330007 -0.60621446 -0.31128162 -0.37223402
0.27844244 -0.24857895 0.5834619 -0.6530658 -0.49623513 -0.0067744316 -0.117188215 -0.0657128
-0.009898146 -0.15052216 0.6045863 0.41525415 -0.3439451 0.6922481 0.13277048 0.3166948
-0.63402516 0.2130546 -0.106243335 0.020697055 0.3908034 0.5051933 -0.5343578 -0.361281
0.5807618 -0.49281728 -0.3556824 -0.16941705 -0.17711999 0.010109179 -0.15124546 -0.23677644
-0.08921475 -0.7269605 0.22949386 -0.3128926 0.19783916 -0.23009196 0.5752954 -0.37002528
0.053415976 0.0040342268 -0.03507297 -0.047823355 -0.00036966338 -0.56552255 0.3417354 -0.014848994
0.3553895 -0.5194841 0.3216867 0.56426245 0.36671647 -0.3387281 -0.5025734 0.023501357
0.2715324 -0.07800972 -0.38769242 0.2043721 -0.31020448 -0.6437934 -0.28676426 -0.43382147
0.2595697 -0.31349957 0.59114605 -0.5844726 -0.4730537 -0.072952405 -0.13694873 -0.018723346
-0.008811523 -0.15356582 0.6317791 0.39579433 -0.30208522 0.7190177 0.19413713 0.266099
-0.6424798 0.13219523 -0.11973497 0.13567689 0.33931056 0.46132165 -0.5824012 -0.40324107
0.5869188 -0.5538297 -0.34077975 -0.25817448 -0.15535215 0.026977032 -0.2114228 -0.292173
-0.19191885 -0.6475586 0.26963323 -0.20616771 0.24627349 -0.18302111 0.59972316 -0.28860897
0.107347295 0.015855372 0.07713919 -0.104218125 0.018906087 -0.58499134 0.35324317 -0.042667788
0.3730763 -0.5475719 0.2963274 0.6836243 0.2420175 -0.24266839 -0.4498528 0.040250182
0.4691261 -0.06729889 -0.2312371 0.18356742 -0.18793052 -0.53525925 -0.317095 -0.32351655
0.31569478 -0.20593151 0.56261265 -0.76695853 -0.46782717 0.020142743 -0.096393995 -0.10419358
-0.012707178 -0.15220524 0.6100911 0.4497906 -0.33418092 0.7751836 0.09575892 0.3923857
-0.6022999 0.27069068 -0.09806403 -0.0463193 0.38854584 0.52286863 -0.5701374 -0.318514
0.6488358 -0.4493698 -0.37432164 -0.11265658 -0.19654584 -0.0012695014 -0.109501235 -0.21006548
-0.030497078 -0.6770672 0.20101933 -0.38240328 0.16886283 -0.26130483 0.53314924 -0.4399967
0.010072274 -0.0029101635 -0.09442924 -0.005904491 -0.0096020475 -0.57178175 0.3461797 0.003969179
00000000: 4c35 c0be d416 043f 2c77 8fbe d961 3bbf
00000010: 0885 6abe 4494 453e 38a0 e23e 75e4 44bd
00000020: e65c 0bbf 935a 833d 5098 2a3e 36ce 37be
00000030: 3142 133e 2eef 193f 664e ab3e 9fec 9a3e
00000040: ae22 b0be 154c 2a3e 70f9 17bf a96f 473f
00000050: 569f f13e 50ef 7bbd 64a6 a63d 9ac7 113e
00000060: e42e 5b3c 81d9 1d3e baea 22bf a517 eebe
00000070: 0ea0 bb3e 6e6a 59bf 657f 73bd 542d eabe
00000080: 2deb 293f b95f aabe 14a7 b63d b67b ec3d
00000090: e603 dfbe 93d0 06bf 8133 0f3f 6411 913e
000000a0: d632 39bf 0dbe f53e b036 c43e 861f 723d
000000b0: 0fab 613e fde2 283c c652 9d3d 1006 3b3e
000000c0: f920 bdbc c155 3a3f e355 33be 577d f33e
000000d0: 7d8a 12be 2aee 993e f077 02bf 233d 093f
000000e0: 5d52 f43c d29f 2b3c bd2e 243e 9bea 06bd
000000f0: 8491 a13c dad3 113f 4712 b7be 180b 9dbc
00000100: 846b ab3e fc70 08bf b1f8 9f3e f52a 223f
00000110: 538e 973e 1b37 90be 7828 f0be 7c73 123d
00000120: 0eed c93e 89da 8fbd d833 93be 7020 473e
00000130: 37e6 6ebe df30 1bbf 4e60 9fbe 7595 bebe
00000140: 0290 8e3e 7b8b 7ebe c25d 153f 522f 27bf
00000150: 8812 febe 0dfc ddbb 6000 f0bd 6f94 86bd
00000160: d52b 22bc 7b22 1abe 2bc6 1a3f 319c d43e
00000170: 9219 b0be 2c37 313f fcf4 073e d225 a23e
00000180: 794f 22bf fc2a 5a3e 1b96 d9bd df8c a93c
00000190: 6217 c83e 5954 013f accb 08bf d3f9 b8be
000001a0: ceac 143f 8c52 fcbe 011c b6be aa7b 2dbe
000001b0: f15e 35be f8a0 253c 17e0 1abe 8675 72be
000001c0: 39b6 b6bd 151a 3abf 7000 6b3e 7533 a0be
000001d0: 5996 4a3e 3a9d 6bbe 8f46 133f f473 bdbe
000001e0: b6ca 5a3d 8c31 843b ada8 0fbd 6ce2 43bd
000001f0: 61cf c1b9 16c6 10bf f1f7 ae3e 3249 73bc
00000200: 9df5 b53e e9fc 04bf 1fb4 a43e 8173 103f
00000210: 43c2 bb3e c56d adbe a6a8 00bf eb85 c03c
00000220: 4b06 8b3e 8fc3 9fbd 9f7f c6be eb46 513e
00000230: 1fd3 9ebe a5cf 24bf c4d2 92be d91d debe
00000240: 52e6 843e 0483 a0be 5955 173f ff9f 15bf
00000250: 1834 f2be 1268 95bd 4a3c 0cbe b461 99bc
00000260: 355e 10bc 5c40 1dbe 46bc 213f 8ea5 ca3e
00000270: eaaa 9abe 8b11 383f e2cb 463e 213e 883e
00000280: 8e79 24bf 305e 073e 9c37 f5bd e2ee 0a3e
00000290: 1dba ad3e 5a32 ec3e 3f18 15bf 9d75 cebe
000002a0: 4f40 163f c9c7 0dbf af7a aebe 722f 84be
000002b0: a214 1fbe f0fe dc3c 387f 58be b397 95be
000002c0: 6086 44be 67c6 25bf 5e0d 8a3e a11d 53be
000002d0: 1e2f 7c3e e369 3bbe 7587 193f 8ec4 93be
000002e0: e6d8 db3d 20e3 813c 27fb 9d3d 5070 d5bd
000002f0: f0e0 9a3c fec1 15bf 4adc b43e 6bc4 2ebd
00000300: db03 bf3e ac2d 0cbf 3ab8 973e 0102 2f3f
00000310: 6fd3 773e 107e 78be 1b53 e6be 60dd 243d
00000320: 4c31 f03e 00d4 89bd 6bc9 6cbe 19f9 3b3e
00000330: dc70 40be c006 09bf 475a a2be f6a3 a5be
00000340: bfa2 a13e b6df 52be 6207 103f 6557 44bf
00000350: 0b87 efbe 6502 a53c 376a c5bd 7263 d5bd
00000360: c431 50bc b1db 1bbe ee2e 1c3f f44a e63e
00000370: c319 abbe 6f72 463f 411d c43d c7e6 c83e
00000380: 5430 1abf f897 8a3e cbd5 c8bd 4eb9 3dbd
00000390: 7bef c63e b8da 053f 86f4 11bf 4414 a3be
000003a0: 1a1a 263f cc13 e6be 16a7 bfbe 7eb8 e6bd
000003b0: 5043 49be 6665 a6ba 2f42 e0bd 681b 57be
000003c0: 02d5 f9bc 4754 2dbf 03d8 4d3e 5dca c3be
000003d0: 61ea 2c3e bfc9 85be 787c 083f 3f47 e1be
000003e0: 2e06 253c 71b8 3ebb 1e64 c1bd 767a c1bb
000003f0: e851 1dbc 4a60 12bf 773e b13e e30f 823b

in_proj_bias f4 [192]
0.97351706 -0.84518814 -0.801717 -0.899575 -0.8898282 -1.0053269 0.91486394 0.98840374
-1.0409455 0.9416227 0.95737326 0.9044468 0.92032796 0.962541 0.97900784 1.0138028
-0.1040325 0.0686357 0.12125912 -0.07975603 0.09969408 -0.09092433 0.102388486 -0.09160714
0.10869035 0.0725008 0.09115891 -0.09107821 0.10961727 -0.07433376 0.100598566 -0.08334142
0.81044185 -0.81749284 -0.8184512 -0.81510967 -0.8169362 0.80371845 -0.8211036 0.8231068
-0.8283358 0.8248915 -0.8204058 0.8114877 0.81912273 -0.82072604 -0.8331026 0.81742936
1.0132251 0.99798733 -0.99872106 1.0185766 1.065177 1.0205948 0.9647779 -1.0068647
0.9907847 0.9835264 -1.0061506 -1.0172358 0.9973025 -1.0228828 -1.0414498 -1.0230554
1.5337746e-05 2.2992264e-05 5.272058e-05 3.392579e-05 5.3627293e-05 -9.476384e-05 1.4378339e-05 -7.809614e-05
-2.0746818e-06 -0.000101795995 -5.6332086e-05 -2.1112558e-06 5.6559238e-05 -4.691197e-05 5.5007927e-06 -5.059052e-05
1.5476683e-06 -1.4198745e-06 -1.5142781e-06 8.449548e-07 -2.1881226e-06 1.5857235e-06 -2.2283546e-06 7.652523e-07
-2.411133e-06 -1.5864559e-06 -1.4485186e-06 2.507769e-06 -2.1964374e-06 1.4446722e-06 -2.8584805e-06 7.073589e-07
1.12230855e-05 1.0952259e-05 3.6569368e-06 1.150648e-06 -5.1486936e-06 -3.3997644e-06 -1.2868465e-05 1.0329194e-05
1.6683164e-07 9.117525e-07 6.7724877e-06 1.535284e-05 6.1551436e-06 3.3642461e-06 1.708269e-06 6.034977e-06
2.7996368e-05 1.516042e-05 -2.9590185e-05 6.6313005e-05 3.357256e-05 3.9415587e-05 2.4478427e-06 -1.7445733e-05
4.0995736e-05 -3.7144953e-06 -4.794849e-05 1.6047177e-05 1.45795175e-05 -1.2878771e-05 -1.0908978e-05 6.4062365e-06
-0.048882294 0.033001583 0.060251437 -0.04936346 0.05338284 -0.039653853 0.011302108 -0.07894255
0.054279163 -0.094829746 0.05264876 0.04154804 -0.051111747 0.044330955 0.029276561 0.051289074
-0.05245018 -0.08465956 -0.021518292 -0.095504366 0.068433754 0.06703655 0.038524717 -0.054301616
-0.031237137 -0.09300601 -0.060125183 -0.056686822 0.06290052 0.00045617932 0.079024784 0.082146786
0.07993627 -0.013267739 -0.08035017 0.06415868 -0.02686787 -0.048666902 -0.039713603 -0.049356766
-0.019332636 0.08029615 -0.079578415 0.028641205 0.026406331 0.09255499 -0.047836404 0.047908496
-0.018253569 -0.005549085 -0.03469144 -0.036495686 -0.10872752 0.075215444 -0.07372082 -0.07888258
0.02774098 -0.07963988 -0.07023545 0.048721097 -0.04097721 0.08407832 0.042784926 0.02461764
00000000: 6a38 793f 405e 58bf 533d 4dbf 8c4a 66bf
00000010: c8cb 63bf 8dae 80bf 8634 6a3f 0708 7d3f
00000020: b43d 85bf 2f0e 713f 6a16 753f d389 673f
00000030: 9d9a 6b3f 1669 763f 42a0 7a3f 4ac4 813f
00000040: fe0e d5bd e090 8c3d b456 f83d 2157 a3bd
00000050: 692c cc3d 8936 babd 0eb1 d13d 869c bbbd
00000060: 0c99 de3d 4d7b 943d 86b1 ba3d 3687 babd
00000070: 057f e03d 4c3c 98bd 9f06 ce3d e8ae aabd
00000080: 1e79 4f3f 3647 51bf 0586 51bf 07ab 50bf
00000090: bb22 51bf 7ec0 4d3f d833 52bf 21b7 523f
000000a0: d10d 54bf 172c 533f 1d06 52bf a8bd 4f3f
000000b0: 07b2 513f 1a1b 52bf 3646 55bf 0d43 513f
000000c0: 5cb1 813f 197c 7f3f 2fac 7fbf b860 823f
000000d0: b857 883f daa2 823f affb 763f f1e0 80bf
000000e0: 11a4 7d3f 63c8 7b3f 8bc9 80bf c834 82bf
000000f0: 374f 7f3f d3ed 82bf 3a4e 85bf 7bf3 82bf
00000100: 8fa9 8037 83df c037 4b20 5d38 8a4b 0e38
00000110: deed 6038 f3bb c6b8 7f3a 7137 8cc7 a3b8
00000120: c33a 0bb6 4f7b d5b8 1e46 6cb8 19af 0db6
00000130: 053a 6d38 58c3 44b8 7393 b836 2831 54b8
00000140: 7ab9 cf35 8492 beb5 333e cbb5 dad0 6235
00000150: a9d7 12b6 0bd5 d435 d78a 15b6 bd6b 4d35
00000160: f3ce 21b6 36ee d4b5 b86a c2b5 254b 2836
00000170: 8266 13b6 8fe6 c135 52d4 3fb6 55e1 3d35
00000180: c94a 3c37 98bf 3737 b269 7536 f76f 9a35
00000190: f1c2 acb6 8227 64b6 a3e5 57b7 8d4b 2d37
000001a0: 5522 3334 28bf 7435 3a3f e336 f9c9 8037
000001b0: 4888 ce36 4fc5 6136 ad47 e535 0f80 ca36
000001c0: bed9 ea37 8259 7e37 7038 f8b7 8611 8b38
000001d0: 43d0 0c38 2a52 2538 9e45 2436 6d58 92b7
000001e0: d6f2 2b38 8b46 79b6 4d1c 49b8 0d9d 8637
000001f0: 8d9a 7437 e611 58b7 b405 37b7 27f5 d636
00000200: cd38 48bd ab2c 073d 36ca 763d 5731 4abd
00000210: f7a7 5a3d 146c 22bd 7a2c 393c a2ac a1bd
00000220: d453 5e3d 1936 c2bd 3aa6 573d 472e 2a3d
00000230: 8d5a 51bd 6094 353d 66d5 ef3c 7e14 523d
00000240: 00d6 56bd fe61 adbd 2147 b0bc cb97 c3bd
00000250: ff26 8c3d 754a 893d 18cc 1d3d 5f6b 5ebd
00000260: 06e5 ffbc ef79 bebd d345 76bd 7130 68bd
00000270: fdd1 803d 5a2b ef39 bfd7 a13d 933c a83d
00000280: a1b5 a33d ee60 59bc a18e a4bd a065 833d
00000290: 021a dcbc f256 47bd bbaa 22bd 522a 4abd
000002a0: 7a5f 9ebc 4f72 a43d 02fa a2bd f6a0 ea3c
000002b0: 1752 d83c 788d bd3d 1bf0 43bd b33b 443d
000002c0: 8288 95bc 19d5 b5bb 9d18 0ebd 807c 15bd
000002d0: 89ac debd 8e0a 9a3d f1fa 96bd 318d a1bd
000002e0: 0d41 e33c 3c1a a3bd 9bd7 8fbd c68f 473d
000002f0: b8d7 27bd 4131 ac3d 3f3f 2f3d efaa c93c

weight f4 [64, 64]
0.105016574 0.12966241 0.015048189 -0.14945684 0.024550052 0.077600725 -0.19635943 0.035225682
0.17654254 0.18804483 -0.2022556 -0.19705825 0.12819529 0.024717513 0.038910683 -0.22923815
0.100858785 -0.077067174 -0.18560562 0.15635572 -0.0745961 0.003389317 0.1273971 0.07365281
0.08963985 0.09165121 -0.13761555 0.04727759 -0.037359703 0.0948368 -0.068356164 -0.15197176
-0.17926337 -0.14191715 0.30700582 -0.16913103 0.03419742 0.0014885055 0.0871937 -0.09082531
0.07152934 -0.11044644 -0.13597801 0.08495333 0.014586819 0.063275754 0.16690843 -0.13871372
-0.024318272 0.019186443 -0.12524498 0.104775585 -0.20551981 0.1152377 -0.21070008 0.032998886
0.049735326 -0.10389569 0.011429818 -0.112406336 0.017300071 -0.036181644 0.04543206 0.191511
-0.026035292 -0.030595446 -0.06823177 -0.0862619 -0.07075907 0.005951445 0.13641 0.21787699
-0.25630066 0.053319495 -0.021496167 -0.12670048 0.09728163 -0.08821802 0.044870477 0.05618827
0.15559202 -0.13625132 0.2089215 -0.0147068035 -0.08171233 -0.15880156 0.17679757 -0.13591665
0.063224435 0.06104812 -0.051463135 0.16822931 -0.09185406 0.07669078 0.05502592 -0.1651149
0.046522312 0.02183697 0.044301875 -0.12479822 0.07895443 0.08170168 -0.178313 0.07824804
-0.11760446 0.076268055 -0.10976969 -0.06877792 0.13857153 -0.16500881 -0.22660673 -0.06896173
-0.16853794 0.15801688 -0.1626592 -0.13708279 0.0936589 -0.16250046 -0.06632982 -0.038882922
-0.021782417 0.11571455 0.068234816 -0.11044424 0.18864484 -0.13231614 0.16985431 -0.14050354
-0.16319163 0.17948037 0.18802926 -0.107657105 0.15426923 -0.104693525 -0.19035356 -0.07237316
0.12809838 -0.14049132 -0.028088713 0.09329204 -0.07782258 0.0064580855 -0.092249155 0.17672944
-0.016146123 -0.09515563 -0.14751273 0.1624268 -0.04072305 -0.059701867 0.14767663 0.1449675
-0.07018642 -0.044577133 0.0742255 0.11807043 0.013561401 -0.079453744 -0.13483843 -0.021006087
0.15459825 -0.02863739 -0.0373823 -0.17526275 -0.06944821 -0.06062059 0.028213145 -0.14410603
-0.12210228 -0.1287952 -0.13779417 0.064621665 -0.16407567 0.033142645 -0.08059052 0.08771508
-0.16892861 -0.143931 -0.22402391 0.08010074 -0.09325378 0.0030513734 0.1303158 -0.09228675
-0.04076922 -0.19354375 0.06551197 0.010270246 -0.04292293 0.17199542 0.16620652 -0.1805017
0.06308023 0.037542436 0.2953258 0.17000112 -0.18794055 0.053041272 -0.33818787 0.024133455
0.11822459 0.13622802 -0.12770417 -0.22302933 0.048809126 0.08510906 -0.032030456 -0.023101555
0.023902759 0.02781811 -0.027262969 -0.09851476 -0.02972779 0.0062439176 -0.16480736 -0.051112305
-0.12695023 0.1155879 0.018719207 -0.11985441 0.13520949 -0.09812306 0.0697113 -0.012160238
-0.12276891 0.10350678 -0.087175526 -0.14104651 -0.08704787 0.14527898 0.13725172 0.0411019
0.101524234 0.20294367 0.12767348 0.1273605 0.16099878 0.102756225 0.03969454 0.049750946
0.024309857 0.09820457 -0.10044802 -0.16951893 -0.28005302 0.019854104 -0.15485063 -0.08891791
0.17332543 -0.15634163 -0.116762035 0.21652794 -0.023554552 -0.056184575 0.09843605 0.10364431
00000000: ee12 d73d 39c6 043e ae8c 763c 370b 19be
00000010: 311d c93c 21ed 9e3d 7212 49be ce48 103d
00000020: 91c7 343e d38e 403e 181c 4fbe a3c9 49be
00000030: a045 033e 627c ca3c cf60 1f3d 68bd 6abe
00000040: 0d8f ce3d 65d5 9dbd 660f 3ebe b71b 203e
00000050: d7c5 98bd 4e1f 5e3b 6374 023e 49d7 963d
00000060: 1995 b73d a1b3 bb3d 17eb 0cbe 25a6 413d
00000070: 7d06 19bd cc39 c23d 51fe 8bbd 7c9e 1bbe
00000080: d190 37be bb52 11be de2f 9d3e af30 2dbe
00000090: 9812 0c3d f519 c33a 9c92 b23d 9f02 babd
000000a0: fa7d 923d be31 e2bd d23d 0bbe 03fc ad3d
000000b0: 8efd 6e3c b896 813d 0bea 2a3e f80a 0ebe
000000c0: 1d37 c7bc e32c 9d3c 3840 00be 9594 d63d
000000d0: c973 52be be01 ec3d c3c1 57be d729 073d
000000e0: 45b7 4b3d 43c7 d4bd 2244 3b3c 4b35 e6bd
000000f0: e1b8 8d3c 3433 14bd f816 3a3d 761b 443e
00000100: f747 d5bc 4da3 fabc 19bd 8bbd 14aa b0bd
00000110: 22ea 90bd 5704 c33b 10af 0b3e 251b 5f3e
00000120: d739 83be 8b65 5a3d bb18 b0bc c5bd 01be
00000130: 973b c73d a6ab b4bd 1bca 373d ac25 663d
00000140: 8453 1f3e 7785 0bbe 85ef 553e cef4 70bc
00000150: cb58 a7bd e09c 22be 6c0a 353e bc2d 0bbe
00000160: d07b 813d 980d 7a3d 02cb 52bd 4e44 2c3e
00000170: fb1d bcbd 0e10 9d3d dc62 613d e113 29be
00000180: 2e8e 3e3d 72e3 b23c e275 353d 3696 ffbd
00000190: dcb2 a13d 3653 a73d af97 36be 8240 a03d
000001a0: 9bda f0bd 6d32 9c3d eece e0bd 70db 8cbd
000001b0: b2e5 0d3e 12f8 28be 980b 68be cf3b 8dbd
000001c0: 3695 2cbe 2dcf 213e 2290 26be 6e5f 0cbe
000001d0: 3dd0 bf3d 8566 26be eed7 87bd b343 1fbd
000001e0: 0a71 b2bc c0fb ec3d b2be 8b3d 9730 e2bd
000001f0: 1d2c 413e e27d 07be 4aee 2d3e 29e0 0fbe
00000200: b51b 27be b4c9 373e be8a 403e 547b dcbd
00000210: c1f8 1d3e 8f69 d6bd 0bec 42be 6138 94bd
00000220: 392c 033e f5dc 0fbe 4d1a e6bc e60f bf3d
00000230: 7261 9fbd 599e d33b 20ed bcbd 90f8 343e
00000240: e044 84bc f4e0 c2bd 940d 17be 3653 263e
00000250: 36cd 26bd f289 74bd 8b38 173e 5c72 143e
00000260: e6bd 8fbd 8396 36bd 8a03 983d e9ce f13d
00000270: a330 5e3c a5b8 a2bd 1613 0abe f514 acbc
00000280: 014f 1e3e f698 eabc 2f1e 19bd 1478 33be
00000290: dd3a 8ebd 4c4d 78bd 411f e73c 8890 13be
000002a0: c310 fabd e4e2 03be ea19 0dbe 5d58 843d
000002b0: 7403 28be 95c0 073d a40c a5bd f7a3 b33d
000002c0: 9ffb 2cbe a662 13be 8666 65be db0b a43d
000002d0: d6fb bebd 8df9 473b 8171 053e d600 bdbd
000002e0: a0fd 26bd 5530 46be 242b 863d 8944 283c
000002f0: f4cf 2fbd 911f 303e 0b32 2a3e 70d5 38be
00000300: 3530 813d 19c6 193d f134 973e c614 2e3e
00000310: 7d73 40be ce41 593d f626 adbe 86b3 c53c
00000320: bc1f f23d 5c7f 0b3e e2c4 02be cd61 64be
00000330: 14ec 473d a94d ae3d 5e32 03bd 793f bdbc
00000340: b8cf c33c cee2 e33c 9756 dfbc 1bc2 c9bd
00000350: b287 f3bc c799 cc3b 43c3 28be 235b 51bd
00000360: 3eff 01be 59b9 ec3d 0659 993c 3b76 f5bd
00000370: 5b74 0a3e bef4 c8bd ccc4 8e3d bc3b 47bc
00000380: 446e fbbd 5dfb d33d 1589 b2bd 7f6e 10be
00000390: 2746 b2bd 03c4 143e b78b 0c3e 775a 283d
000003a0: f0eb cf3d 77d0 4f3e d6bc 023e ca6a 023e
000003b0: dddc 243e db71 d23d be96 223d a6c7 4b3d
000003c0: 7725 c73c 7a1f c93d b1b7 cdbd 5f96 2dbe
000003d0: 1c63 8fbe 13a5 a23c 2a91 1ebe 981a b6bd
000003e0: 397c 313e 0518 20be ef20 efbd 80b9 5d3e
000003f0: 7af5 c0bc cc21 66bd d798 c93d 7843 d43d

bias f4 [64]
-0.029759126 -0.028312437 0.031981263 0.046375275 0.008705719 -0.016069558 0.031592995 -0.030835215
0.008444021 -0.044272356 0.012265812 0.046604466 0.046696693 -0.009455508 0.040618323 -0.041077606
-0.03096492 0.031901363 0.02911886 -0.027191626 -0.019628393 -0.027889615 -0.026933674 0.039457656
-0.027458297 0.018363355 -0.04059318 0.023790643 -0.029615315 0.026678339 -0.031121843 0.009440205
0.04975061 -0.008161386 -0.019517273 -0.00090131187 0.0063259862 0.022714145 0.017312473 0.03128331
-0.021307344 0.019963946 0.009832594 -0.011629775 0.03967983 -0.021999907 -0.041255992 -0.023546409
-0.031108819 0.029689053 -0.019601211 -0.000412476 0.017900003 0.0035090584 -0.016610902 -0.004082322
0.024006337 -0.017071148 0.034438502 -0.032769654 -0.020892197 0.01365277 0.032520674 0.023433622
00000000: 69c9 f3bc 7cef e7bc c9fe 023d 00f4 3d3d
00000010: 6fa2 0e3c 4ea4 83bc a867 013d 229a fcbc
00000020: cb58 0a3c ee56 35bd 8bf6 483c 53e4 3e3d
00000030: 0845 3f3d 46eb 1abc 665f 263d fe40 28bd
00000040: 25aa fdbc 01ab 023d ad8a ee3c f9c0 debc
00000050: b9cb a0bc c378 e4bc 02a4 dcbc 5a9e 213d
00000060: 39f0 e0bc bf6e 963c 0945 26bd 98e4 c23c
00000070: d19b f2bc 888c da3c 3cf3 febc 17ab 1a3c
00000080: 4cc7 4b3d 55b7 05bc b0e2 9fbc 0446 6cba
00000090: 384a cf3b 0413 ba3c e3d2 8d3c ee22 003d
000000a0: bd8c aebc 6e8b a33c e318 213c d08a 3ebc
000000b0: 5187 223d 2639 b4bc 0bfc 28bd 66e4 c0bc
000000c0: ecd7 febc 7536 f33c b892 a0bc 9741 d8b9
000000d0: 07a3 923c 3bf8 653b 9613 88bc 00c5 85bb
000000e0: f0a8 c43c cbd8 8bbc 630f 0d3d 7939 06bd
000000f0: 1d26 abbc deaf 5f3c 6634 053d def7 bf3c

weight f4 [256, 64]
0.098958 -0.027856844 0.023452096 0.09387169 0.037947837 -0.055681903 0.0024271423 -0.048670717
0.09146674 -0.026751628 0.07322735 -0.023752155 -0.055833448 -0.030544043 0.029869474 0.060801096
0.051203966 0.0017078198 -0.000909032 0.047570877 0.034849036 -0.056365818 0.0935407 0.06013526
0.00574869 -0.08281057 0.021925697 -0.07847084 -0.031238686 0.016527627 0.078749485 0.017256843
0.03750906 0.015287432 -0.0044801445 -0.049800307 -0.0061697126 -0.019355189 0.0167478 -0.06068135
0.041525573 -0.037804786 0.060445767 -0.0044347784 0.027938657 -0.0150655145 0.029199699 0.008409573
0.065022305 -0.08743161 -0.054066766 -0.03354212 -0.09565535 0.022774357 -0.0068654707 0.03948241
-0.00707592 -0.037184976 0.015082754 -0.03280029 0.05308566 -0.06536736 0.010919284 0.048312012
-0.016967498 -0.15104963 0.10826309 0.051611885 -0.029337566 -0.11753988 -0.08957486 -0.0248476
-0.0677994 -0.101391025 -0.16199999 0.049137875 0.09751336 -0.34369504 0.13381577 -0.079000056
0.048405975 0.042224206 0.27328485 -0.12867782 -0.055625845 -0.13218918 -0.052634317 -0.07162798
-0.23744603 0.02757931 0.0003676198 0.14823182 -0.029769784 0.23268367 0.1443848 0.017177418
-0.15925358 -0.0139409825 -0.002581417 0.025494773 -0.0011423164 0.048679955 -0.14585355 -0.19165176
0.03633258 -0.30146545 -0.1559691 0.029130572 0.02443205 0.38131237 0.046981905 0.043372683
-0.0095954975 -0.0452229 0.14834012 0.06808871 0.13284373 -0.13450424 0.35924685 0.05712655
-0.25538483 0.053624388 0.060864847 0.054324724 0.22197568 0.08813958 -0.03021733 -0.2054766
0.07600414 0.08318593 0.06912451 0.12868974 0.0068942164 0.029540034 -0.023723867 -0.0713986
-0.070421234 -0.037517652 -0.005030559 -0.0030368033 0.05529474 -0.15969463 0.09184857 0.038382802
-0.04358498 -0.050782327 0.1398129 0.01775715 -0.010795342 0.06391876 0.047985505 0.06041489
0.06575732 -0.0596884 0.031178838 0.0049737073 0.023337835 0.021847507 0.0065569277 0.027973382
-0.01860246 0.12298023 -0.108922 0.030409599 -0.016063554 0.019874878 0.04237658 -0.008129462
0.094296135 -0.033869375 -0.038148597 -0.035148744 0.045590885 -0.025976166 0.07064284 0.0080047
-0.07682567 -0.056209873 -0.03703008 -0.110807195 -0.0660094 0.07513657 0.12954506 -0.024882155
-0.04576276 -0.0039114393 0.029255806 -0.0584404 -0.04164954 0.027768051 0.016767751 0.035701793
0.0019816735 0.021438371 0.040581897 -0.07184682 0.057652242 0.02990231 -0.119269654 -0.21067333
-0.056084253 -0.16061601 -0.16719806 0.1496049 0.06403708 -0.08347953 0.19549347 -0.11036672
0.009746404 0.0059098196 0.08046889 0.026661044 -0.063812695 0.0402246 0.22341971 -0.060104262
0.12832859 -0.0057659647 0.03326666 -0.1244836 0.03201488 0.15739518 0.057190716 -0.01154579
0.11335648 0.09070244 -0.050644293 0.12968019 0.0333632 0.020432275 0.011702812 -0.20290804
0.027353091 -0.14160658 0.110970125 -0.20618114 -0.050982937 0.1783063 -0.007967261 0.06610548
0.041237466 -0.032775026 0.15370649 -0.02773396 -0.0975029 0.03657387 0.16022816 0.020277962
-0.17263286 -0.1935176 -0.08859861 0.100583635 -0.083472796 0.028901517 0.10182075 -0.04517666
00000000: 7eaa ca3d 0934 e4bc 9c1e c03c cd3f c03d
00000010: 316f 1b3d b512 64bd b110 1f3b f25a 47bd
00000020: ea52 bb3d 3b26 dbbc 39f8 953d e193 c2bc
00000030: 9db1 64bd 8037 fabc d4b0 f43c 920a 793d
00000040: 40bb 513d ecd8 df3a 1b4c 6eba aed9 423d
00000050: ddbd 0e3d d8df 66bd 4492 bf3d 6450 763d
00000060: 825f bc3b 9798 a9bd 859d b33c 52b5 a0bd
00000070: 46e8 ffbc f264 873c 6947 a13d 395e 8d3c
00000080: 1aa3 193d 2378 7a3c 2dce 92bb 68fb 4bbd
00000090: 4d2b cabb c68e 9ebc af32 893c 028d 78bd
000000a0: b816 2a3d 31d9 1abd fb95 773d 9e51 91bb
000000b0: 9cdf e43c 59d5 76bc 3534 ef3c 4ec8 093c
000000c0: 6a2a 853d 580f b3bd 1d75 5dbd 7663 09bd
000000d0: f4e6 c3bd 4a91 ba3c bef7 e0bb 4fb8 213d
000000e0: 1edd e7bb 464f 18bd a81d 773c 9959 06bd
000000f0: 5970 593d 53df 85bd cce6 323c d1e2 453d
00000100: 6cff 8abc c1ac 1abe 0ab9 dd3d fc66 533d
00000110: 5655 f0bc c0b8 f0bd 0673 b7bd 328d cbbc
00000120: 69da 8abd 19a6 cfbd 53e3 25be cc44 493d
00000130: 16b5 c73d ccf8 afbe 0007 093e c8ca a1bd
00000140: 5845 463d 4af3 2c3d feeb 8b3e 1ec4 03be
00000150: edd7 63bd 9a5c 07be 1597 57bd b1b1 92bd
00000160: 0d25 73be 01ee e13c 18bd c039 15ca 173e
00000170: c3df f3bc a144 6e3e 9cd9 133e a8b7 8c3c
00000180: 5f13 23be b868 64bc fe2c 29bb 6ada d03c
00000190: c7b9 95ba a264 473d a25a 15be 5c40 44be
000001a0: 79d1 143d ae59 9abe 5db6 1fbe 3da3 ee3c
000001b0: b925 c83c 603b c33e 1970 403d 8ea7 313d
000001c0: 6f36 1dbc a63b 39bd 79e6 173e 1872 8b3d
000001d0: 3008 083e 7bbb 09be 34ef b73e 87fd 693d
000001e0: cdc1 82be 3fa5 5b3d 6b4d 793d 9a83 5e3d
000001f0: 984d 633e 8682 b43d 568a f7bc 7568 52be
00000200: 0fa8 9b3d 635d aa3d 2791 8d3d 3ec7 033e
00000210: e1e8 e13b f1fd f13c 8e58 c2bc 6e39 92bd
00000220: 0239 90bd 1cac 19bd 63d7 a4bb 1b05 47bb
00000230: bd7c 623d fd86 23be 1a1b bc3d 4937 1d3d
00000240: 2a86 32bd 2101 50bd 1d2b 0f3e 7177 913c
00000250: f2de 30bc d7e7 823d 738c 443d 9b75 773d
00000260: c6ab 863d d37b 74bd c36a ff3c 7bfa a23b
00000270: fd2e bf3c 8bf9 b23c 7fdb d63b 6f28 e53c
00000280: 3064 98bc 0fdd fb3d 7f12 dfbd 8d1d f93c
00000290: b797 83bc a4d0 a23c 1193 2d3d 6f31 05bc
000002a0: 551e c13d 9dba 0abd b441 1cbd 21f8 0fbd
000002b0: 82bd 3a3d f8cb d4bc 31ad 903d 2526 033c
000002c0: c756 9dbd 533c 66bd daac 17bd e2ee e2bd
000002d0: f02f 87bd 34e1 993d 76a7 043e a9d5 cbbc
000002e0: bb71 3bbd 882b 80bb dfa9 ef3c 335f 6fbd
000002f0: b598 2abd d379 e33c 865c 893c 0b3c 123d
00000300: f7de 013b 869f af3c 3439 263d 6d24 93bd
00000310: c224 6c3d b0f5 f43c a643 f4bd c0ba 57be
00000320: 9ab8 65bd 8678 24be f835 2bbe 0732 193e
00000330: df25 833d 51f7 aabd 712f 483e f207 e2bd
00000340: 62af 1f3c 29a7 c13b e0cc a43d 4368 da3c
00000350: 3bb0 82bd 8dc2 243d 23c8 643e e32f 76bd
00000360: 9268 033e 6bf0 bcbb 9f42 083d 42f1 febd
00000370: 0922 033d 342c 213e d040 6a3d 8e2a 3dbc
00000380: 7127 e83d 33c2 b93d 6470 4fbd e2ca 043e
00000390: daa7 083d 9661 a73c 27bd 3f3c 20c7 4fbe
000003a0: 9713 e03c 5101 11be 4e44 e33d 2621 53be
000003b0: 7cd3 50bd ed95 363e 1d89 02bc 4f62 873d
000003c0: 9ee8 283d 1b3f 06bd 3c65 1d3e 5432 e3bc
000003d0: 9aaf c7bd 7bce 153d da12 243e f81d a63c
000003e0: abc6 30be 7a29 46be 3073 b5bd cbfe cd3d
000003f0: c9f3 aabd e0c2 ec3c 6687 d03d 290b 39bd

bias f4 [256]
-0.019946689 -0.08225454 -0.049725983 -0.03832724 -0.017845983 0.0006161721 -0.031086834 -0.0019887665
-0.04722112 -0.028166266 -0.06577421 -0.029621363 -0.03966501 -0.040032785 -0.049282357 -0.023684515
-0.04162455 -0.00967147 -0.03282157 -0.08231603 -0.021989424 0.007310922 -0.013730876 -0.04790594
-0.025954893 0.0252402 -0.02414051 -0.05113934 -0.025149202 -0.01443984 -0.035449557 -0.035061255
-0.04201877 -0.022664849 -0.022128588 -0.061826468 -0.016392749 -0.04942416 -0.050644312 -0.010186972
-0.029445816 -0.02107883 -0.06473022 -0.037638858 -0.025938258 -0.023892473 -0.04461637 -0.05538928
-0.033894956 -0.02013866 -0.048501976 -0.031017117 -0.011367734 -0.035820927 0.013903165 -0.067281164
-0.04939957 -0.06289292 -0.04350998 -0.03263279 -0.013656009 -0.049200606 -0.068950675 -0.05492814
0.00029995324 -0.009075043 -0.05714565 -0.02367875 -0.051919915 -0.04731845 -0.025844548 -0.026369
-0.06415925 0.002162274 -0.023453608 -0.034415267 -0.04679189 -0.043485843 -0.028535979 -0.00893002
-0.009195646 -0.03449996 -0.0751093 -0.05093846 -0.056622285 -0.049299214 -0.05572766 -0.037022892
-0.037366472 -0.047799632 -0.047989953 -0.0152968895 -0.041765627 -0.043862835 -0.04912584 -0.042091426
-0.015448279 -0.046471037 -0.044762347 -0.018188564 -0.02354911 -0.036751576 -0.05110193 -0.042657956
-0.031272817 -0.045522187 -0.022127155 0.012427811 -0.02417314 -0.051391557 -0.024885897 -0.026089894
-0.05802993 -0.022619491 -0.0075466996 -0.027976887 -0.012357924 -0.00457112 -0.018280573 -0.005800231
-0.05222429 -0.00950436 -0.031646453 -0.03575196 -0.011566892 -0.04843034 -0.039889507 -0.043008734
-0.07334489 -0.006286993 -0.04134866 -0.072568975 -0.014120355 -0.050711915 -0.026070457 -0.011934703
-0.016673008 -0.026759535 -0.037263595 -0.068868734 -0.027964853 -0.04703476 -0.08415035 -0.043451205
-0.025363613 -0.019052237 -0.02614161 -0.07622805 -0.049342554 -0.03629809 -0.034570623 -0.06248216
-0.06909075 -0.03691636 -0.025250573 -0.030955454 -0.04955616 -0.004645963 -0.024443224 -0.045487918
-0.05332845 -0.011741814 -0.03377565 -0.040792156 -0.036058664 -0.020562539 -0.053976916 -0.032240257
-0.031681713 0.0011816719 -0.05731104 -0.037581816 -0.042418685 -0.042273022 -0.03577817 -0.037340496
-0.06574114 -0.010307373 -0.08875298 -0.009947556 -0.038053125 -0.025158823 -0.041597094 -0.049821842
-0.015911575 -0.033241488 -0.024823172 -0.017452084 -0.021959197 -0.027152773 -0.027558738 -0.027959751
-0.047018413 -0.028794922 -0.03216028 -0.035390567 -0.032632332 -0.04565722 -0.029366286 -0.015805768
-0.044194043 -0.037677567 -0.038031183 -0.01450444 -0.022421094 -0.06108153 -0.05549283 -0.00381226
-0.032065798 -0.021783588 -0.060083926 -0.053794384 0.005174376 -0.028088452 -0.02927229 -0.040985905
-0.04129967 -0.051819585 -0.020137217 -0.021353228 -0.033357967 -0.08619677 -0.04748805 -0.010371604
-0.05497344 -0.04815116 -0.036799 -0.029362775 -0.038698114 -0.03376705 -0.05384526 -0.014868615
-0.03967703 -0.0375619 -0.07555448 0.0131798135 -0.04870611 -0.062221594 -0.028161976 -0.021800956
-0.027988907 -0.07370704 -0.047660768 -0.029785614 -0.055756398 -0.039077803 -0.053108923 -0.03646566
-0.043060765 -0.02811518 -0.056692317 -0.05454173 -0.022630267 -0.056767702 -0.03897961 -0.04579894
00000000: 3d67 a3bc 1175 a8bd 79ad 4bbd 06fd 1cbd
00000010: bd31 92bc 9c86 213a d1a9 febc f755 02bb
00000020: ef6a 41bd f1bc e6bc a1b4 86bd 80a8 f2bc
00000030: c777 22bd 6bf9 23bd 4cdc 49bd 0706 c2bc
00000040: 817e 2abd 1675 1ebc e96f 06bd 4f95 a8bd
00000050: 2a23 b4bc 7590 ef3b 78f7 60bc 0539 44bd
00000060: 5b9f d4bc 89c4 ce3c 52c2 c5bc 7c77 51bd
00000070: b305 cebc 1495 6cbc 8e33 11bd 649c 0fbd
00000080: e01b 2cbd a2ab b9bc 0347 b5bc c03d 7dbd
00000090: 164a 86bc fd70 4abd 6970 4fbd 42e7 26bc
000000a0: 5a38 f1bc 83ad acbc 4791 84bd 342b 1abd
000000b0: 787c d4bc 26ba c3bc a8bf 36bd dfdf 62bd
000000c0: 70d5 0abd d5f9 a4bc 02aa 46bd 9c17 febc
000000d0: bb3f 3abc f7b8 12bd 1aca 633c b5ca 89bd
000000e0: 3457 4abd 01ce 80bd 8537 32bd f6a9 05bd
000000f0: 74bd 5fbc 9386 49bd 0336 8dbd 54fc 60bd
00000100: 0b43 9d39 7daf 14bc 8f11 6abd f0f9 c1bc
00000110: faa9 54bd fed0 41bd f2b7 d3bc cd03 d8bc
00000120: ed65 83bd f0b4 0d3b c821 c0bc 06f7 0cbd
00000130: daa8 3fbd 361e 32bd 49c4 e9bc 384f 12bc
00000140: 56a9 16bc d44f 0dbd e8d2 99bd d9a4 50bd
00000150: c5ec 67bd f9ed 49bd b042 64bd 51a5 17bd
00000160: 960d 19bd 8cc9 43bd 1d91 44bd ce9f 7abc
00000170: 6f12 2bbd 84a9 33bd 2d38 49bd 0f68 2cbd
00000180: c71a 7dbc 6a58 3ebd b958 37bd 2f00 95bc
00000190: 10ea c0bc d288 16bd 4250 51bd 1cba 2ebd
000001a0: ed17 00bd 7975 3abd 0244 b5bc 049e 4b3c
000001b0: c006 c6bc f47f 52bd 82dd cbbc 79ba d5bc
000001c0: cbb0 6dbd 834c b9bc 4e4a f7bb c92f e5bc
000001d0: e478 4abc 55c9 95bb 24c1 95bc dd0f bebb
000001e0: 23e9 55bd 2db8 1bbc b69f 01bd a670 12bd
000001f0: 1083 3dbc e45e 46bd 2e63 23bd ed29 30bd
00000200: d835 96bd 1f03 cebb 365d 29bd 0b9f 94bd
00000210: 1059 67bc 4cb7 4fbd b691 d5bc c689 43bc
00000220: d595 88bc d036 dbbc b6a1 18bd 0d0b 8dbd
00000230: 8c16 e5bc 85a7 40bd 0557 acbd e4f9 31bd
00000240: 5ac7 cfbc 7013 9cbc ee26 d6bc 741d 9cbd
00000250: 6b1b 4abd 4ead 14bd ed99 0dbd 4bed 7fbd
00000260: 737f 8dbd 9c35 17bd 4ada cebc 4b96 fdbc
00000270: 66fb 4abd 2a3d 98bb 283d c8bc 8a51 3abd
00000280: ef6e 5abd bd60 40bc 5658 0abd ad15 27bd
00000290: 40b2 13bd c572 a8bc e616 5dbd 5c0e 04bd
000002a0: afc4 01bd 54e2 9a3a fbbe 6abd 64ef 19bd
000002b0: 37bf 2dbd 7a26 2dbd 218c 12bd 59f2 18bd
000002c0: 4aa3 86bd 41e0 28bc 1fc4 b5bd 13fb 22bc
000002d0: 98dd 1bbd e019 cebc b761 2abd fd11 4cbd
000002e0: fe58 82bc 3a28 08bd f759 cbbc acf7 8ebc
000002f0: c6e3 b3bc 7e6f debc ddc2 e1bc d90b e5bc
00000300: 6196 40bd 54e3 ebbc 7fba 03bd b3f5 10bd
00000310: 7ba9 05bd 1103 3bbd 9191 f0bc 197b 81bc
00000320: d004 35bd cb53 1abd 96c6 1bbd 08a4 6dbc
00000330: 71ac b7bc a030 7abd 734c 63bd 1cd7 79bb
00000340: 6d57 03bd 7f73 b2bc 901a 76bd 8057 5cbd
00000350: d08d a93b c119 e6bc 71cc efbc d6e0 27bd
00000360: d829 29bd c640 54bd cef6 a4bc f7ec aebc
00000370: 5da2 08bd ef87 b0bd d482 42bd a9ed 29bc
00000380: d42b 61bd 273a 45bd 8cba 16bd 348a f0bc
00000390: ea81 1ebd 514f 0abd d98c 5cbd 7e9b 73bc
000003a0: 6284 22bd 82da 19bd 4fbc 9abd 25f0 573c
000003b0: 0f80 47bd 12dc 7ebd f2b3 e6bc eb97 b2bc
000003c0: fe48 e5bc b7f3 96bd f037 43bd f600 f4bc
000003d0: d260 64bd 0c10 20bd be88 59bd 045d 15bd
000003e0: 7c60 30bd ce51 e6bc 3436 68bd 2667 5fbd
000003f0: 1c63 b9bc 4085 68bd 15a9 1fbd ab97 3bbd
