CNP-model-save-name/saved_models/model_1000.pth (torch, 736757 bytes, 50 tensors)

weight f4 [64, 11]
00000000: 64e0 aa3d c3da f7bd a129 c63d 3117 e1bd
00000010: 6f18 e1bd f944 513e 8411 5b3e 6a27 513e
00000020: c0d4 273e 6042 0c3e a2a4 c83d 2140 9f3d
00000030: 1359 88bd 2d53 323e 3276 19bd 6770 173e
00000040: de2b 493d 2fc1 a4bd 8feb 31be bc20 383b
00000050: a9f1 30be bbd1 80be 6b0e c53d fd7d 6bbe
00000060: 7996 003e 3e0b 073e 8fc3 423e c3f6 8bbe
00000070: 7a1b e33d 5bae 313e afd0 9c3d 88e1 c4bd
00000080: ea4a 943d 5cde b0bc 19a0 80bc 90b3 22be
00000090: 763e bb3d 8f88 2a3e 664b 0fbe e85b 713e
000000a0: e7ac beba 7f17 c0bc ed87 bfbd be6d 69be
000000b0: c86a 353e 167a 94bd 53c4 86be b111 8a3e
000000c0: cc71 1b3e 084f 633e d7fe f9bd d704 fbbd
000000d0: 3129 f23d 76fa 20be 4a7b 43bd cd66 353e
000000e0: 7745 c538 f64f 74be 96d2 613c 7e5e a6bd
000000f0: ea98 4dbe 4dc1 3ebe c0a3 6c3d 35dd 863e
00000100: 16a9 8bbe 84d3 6f3e 8311 74be 0887 50be
00000110: b441 f1bd fbfc ec3d 8057 613e 0e92 04be
00000120: b58f 613e 4b99 6a3e b9d2 83be 865a 6e3e
00000130: 83e4 bf3d 0be3 583e d6c6 133e 8c4e 69bd
00000140: 7588 8d3e df8a 4fbe 2f6f d13d 8d82 43be
00000150: ebbb 973d bd8e d3bd 923e 943d 00fa 993e
00000160: c5f5 b9bd cb49 46bd 81a0 863e eaeb 0cbe
00000170: 949e 383e 38ef 2c3e 4404 2b3e 153c 09bd
00000180: b0cf 073d 91c8 993e c23e 85bd e77e 80bc
00000190: 7158 dfbd 462e b73d dade 373e 0bb6 5fbe
000001a0: b7d9 70bd 9646 83bd dc6f ac3d bcac 9ebd
000001b0: 303e 19be a959 3a3e 0a75 4b3e ab8a 233e
000001c0: db8b edbd b4c6 613e 3ee9 733e 34a8 373e
000001d0: c19b 263d b382 18be 6a2d 02be 9ca3 433e
000001e0: 5fd6 39be 3619 843e 7fbc 443d 12fd 2f3e
000001f0: 61ed 013e fdb7 e43d 20af 773d 469d 043e
00000200: 4763 65be 59fc 533e f617 68be 1b73 26bd
00000210: a369 1c3d 0a86 86bd 3eb1 163e ca46 69be
00000220: bf37 2c3e 7c00 223e 920e 81be 3db3 493e
00000230: 0ee7 283e 05bf 36be a95a 743e bf0b d2bc
00000240: 7f19 9bbc 5338 94bd 2192 813e 2d3d 0b3e
00000250: 96b6 4d3e 891f d0bd 6a1b 283e 21e4 89be
00000260: e497 783e c65a df3c 688f c63d 926f 823e
00000270: 1163 253c 77c3 7bbe ee3d 723d 00aa 0abe
00000280: d3e1 97bd a203 b4ba 9b3b 2bbe 9d0a 623e
00000290: 891d be3c 4a07 32be 7284 87be d6e0 a13d
000002a0: a96d 893d 4aa9 94bd 5061 15be 18bd a13d
000002b0: 9777 a8bd 67ea 143e 872d 26be 5729 2e3e
000002c0: 1d21 6c3e 2693 1b3d 4102 b4bd 405d 5b3e
000002d0: 942c 14be 1d8e 743e ad3c 443e 4f3b 82be
000002e0: af3d 97bb 5f73 81be b5c3 45be d395 72be
000002f0: cfbf 833d 147b cb3d 3a45 17be 375a 563e
00000300: a7fa 3e3e 8302 bc3d e227 38bb 878e 65be
00000310: 7de2 8dbd eaa7 893e 6f24 0d3d 5135 adbd
00000320: 45e4 2bbe d748 43bc 599a 44be f7f5 543e
00000330: 49b4 5fbe e236 813d e327 95be 4a5c 6b3e
00000340: 1c14 d9bd 42c5 403c 7300 213e 1744 99be
00000350: b5ec 613e 1baf 173d 1d30 a13d 4562 63be
00000360: e3da 98be d0eb 83be 2598 d0bd efea 8abe
00000370: c794 3cbd 6640 c4bd 0a33 8dbd ec72 76be
00000380: 5f71 52bc 2309 823e dccb 8e3e 9546 82be
00000390: cc68 863c a9f1 2ebe 7267 793e afa6 80be
000003a0: 7927 f83d c6e7 bbbd 28ab 803e 9830 8ebe
000003b0: ad0c 6bbe 62c7 193e b6f4 573e 5acf 473e
000003c0: 6809 833e 3f49 d9ba 00e4 2d3e 1520 6b3e
000003d0: 7b6d 493e 829d 0bbd bf0c 2bbd dae9 3cbe
000003e0: e116 64be eb1b 43be cc53 10be eac1 883d
000003f0: 3a7a cfbd e20a 893e 5a34 653e f639 e7bc
0.0834358 -0.12102272 0.09675909 -0.109907515 -0.109909885 0.20436467 0.213934 0.20425192
0.16389751 0.13697195 0.09797026 0.077759035 -0.066576146 0.17414542 -0.037466235 0.14788972
0.0491141 -0.08044659 -0.17375015 0.0028095683 -0.17279686 -0.25160012 0.09621891 -0.2299728
0.12557401 0.13187882 0.19019912 -0.27336702 0.11089225 0.17351668 0.07656991 -0.09613329
0.07240851 -0.021590404 -0.01570134 -0.1588881 0.09142773 0.16653655 -0.13993606 0.23570216
-0.0014547379 -0.023448704 -0.09352098 -0.2279577 0.17716515 -0.072498485 -0.26321658 0.26966622
0.15180129 0.22198117 -0.1220681 -0.122567825 0.11824263 -0.15720543 -0.047725 0.17714997
9.406631e-05 -0.23858628 0.013783118 -0.08123492 -0.20077863 -0.18628426 0.05777335 0.26340643
-0.2727744 0.2342053 -0.23834805 -0.2036401 -0.1178011 0.1157169 0.22006035 -0.1294634
0.22027476 0.22910039 -0.25746706 0.2327672 0.09369757 0.2118036 0.14431319 -0.056959674
0.2764317 -0.20267819 0.10226285 -0.1909277 0.074088894 -0.103299595 0.07238497 0.30073547
-0.0908008 -0.04841022 0.2629433 -0.13761869 0.18029243 0.1688813 0.16700846 -0.033504564
0.03315705 0.30035833 -0.06506111 -0.015685512 -0.10905541 0.08944373 0.17956105 -0.21846788
-0.05880138 -0.064099476 0.08419773 -0.0774779 -0.14965129 0.18198265 0.19868866 0.15970866
-0.11598941 0.22048455 0.23819444 0.17935258 0.040675882 -0.14893608 -0.12712637 0.19105381
-0.18148182 0.25800484 0.048031326 0.17186382 0.12688209 0.111679055 0.060469747 0.1295062
-0.22401153 0.20701732 -0.2266539 -0.040637117 0.03818668 -0.06568535 0.1471605 -0.2278091
0.1681814 0.15820497 -0.2520643 0.1969728 0.1649439 -0.17846306 0.23862709 -0.025640367
-0.018933056 -0.072373055 0.253068 0.13597555 0.20089182 -0.10162265 0.16416708 -0.2693186
0.24276692 0.027264964 0.09695321 0.25475746 0.01009442 -0.24586283 0.059141092 -0.13541412
-0.074161194 -0.0013733993 -0.16721956 0.22074361 0.023207443 -0.17385593 -0.26468235 0.07904212
0.06710369 -0.07258852 -0.14587903 0.07897395 -0.08225935 0.14542542 -0.16228305 0.17007957
0.23059507 0.03798213 -0.087894924 0.21422291 -0.1447013 0.23882337 0.19163771 -0.25435874
-0.0046155076 -0.25283334 -0.19312938 -0.23689966 0.06433069 0.09935585 -0.14772502 0.20932852
0.18650304 0.091801666 -0.0028099944 -0.22417651 -0.06927965 0.2688592 0.034458574 -0.08457435
-0.16786297 -0.011919222 -0.19199504 0.20796953 -0.21846117 0.06309296 -0.29131994 0.22984424
-0.10599539 0.01176578 0.15722828 -0.2993476 0.22062953 0.037032228 0.07870505 -0.22205456
-0.29854497 -0.25765848 -0.10185269 -0.27132365 -0.046040323 -0.095825955 -0.068945006 -0.24067277
-0.012844413 0.25397596 0.27889907 -0.25444475 0.016407393 -0.17084374 0.24355868 -0.2512717
0.12116904 -0.09175067 0.25130582 -0.2777145 -0.22954054 0.15017465 0.21089444 0.19512692
0.25593114 -0.0016577615 0.16981506 0.22961457 0.1967067 -0.034085758 -0.041760202 -0.18448582
-0.22274353 -0.19053619 -0.14094466 0.06677611 -0.10130735 0.26766115 0.22383252 -0.02822588

bias f4 [64]
00000000: 5af1 8d3c c0c4 3fbb 4191 aabc 8cde b93c
00000010: a06b 5e3b c579 71bb 1a1f 7c3c 855b 293d
00000020: f75c a73c ba38 90bb a377 ab3c dc7f 0e3b
00000030: 1d68 56bc 2801 953b 192e 31bb 6cae 2ebc
00000040: b4de 043c 0c36 c13b 1e04 f4bc d3ed c4bc
00000050: a202 df3b 16fd 78bc 4518 9ebb de30 9b3c
00000060: 9e25 803c d220 fdba 6fa7 a73b be3b 06bd
00000070: ab88 4fbc f027 e0bc bf9a 13bd 969f 6bbc
00000080: 81d3 cf3b 20b6 e0bb ec72 bdbb d7d9 70bc
00000090: c451 e33b ddb1 9bbb 7e1a d13b c70f 8bbc
000000a0: a654 ab3b 94e0 36bb 040a 123c bb99 393a
000000b0: 031e 373c 7b15 b63b 594d 3c3c 07d2 11bd
000000c0: 356a eebc 1878 ec3b b0f2 01bd 2032 da3b
000000d0: a4fd 29bc 857f ec3b fbc1 90bb ec99 ddba
000000e0: fdaf 5dbc 061a 9a3c dbd9 f33b 5bda d7bc
000000f0: 4a38 3dbb 14c7 99bc befc 75bc 25b2 bc3c
0.017327 -0.002926156 -0.020821216 0.022689126 0.0033938661 -0.0036846262 0.015388275 0.041347045
0.020430071 -0.0044012936 0.02093107 0.002174369 -0.013086346 0.004547257 -0.0027035533 -0.010661703
0.008109737 0.0058963355 -0.02978712 -0.024039185 0.006805734 -0.015197059 -0.0048246705 0.0189442
0.015642937 -0.0019312149 0.005116395 -0.03277182 -0.0126668615 -0.027362794 -0.03603625 -0.01438131
0.006342352 -0.0068576485 -0.005781522 -0.014700375 0.0069372375 -0.0047514276 0.006381332 -0.016975297
0.0052285967 -0.0027904855 0.008913521 0.00070800976 0.011176589 0.00555676 0.0114930505 -0.03560069
-0.029103378 0.0072164647 -0.031725585 0.0066588074 -0.010375414 0.00721735 -0.0044176555 -0.0016906834
-0.013530728 0.018811237 0.007441742 -0.026349237 -0.0028872662 -0.018771686 -0.015013872 0.023034165

weight f4 [64, 10]
00000000: 10b3 723e 1875 723e 5c05 acbd 3420 3cbe
00000010: 30d7 1dbe e711 633e e087 2ebe 5c11 46be
00000020: a26d 2b3e f9c1 92bd 7f65 ea3d c723 ba3d
00000030: c6e2 d23d a9d5 c13d dcb0 913e 727c 88bd
00000040: a6b8 27bc 1322 3bbc 4bba 90be 43b7 79be
00000050: ecb7 c93d 69eb 83bd 4b54 04be 1c33 e23d
00000060: 46a3 46be 8b84 863e 667d 6bbd 1a53 ff3d
00000070: 81b0 cdbd f4ce 93bd 765c 90bc 9ce3 bdbd
00000080: 2b50 2f3d 6c5f 873d 628a 343e 4040 2fbe
00000090: af94 383e bfe6 e13c 7d4c 9dbe 46c9 423e
000000a0: 8436 923e 80fb 89be 55bc 39be c710 47be
000000b0: da05 8b3d aa52 bc3d 48fa 04bd 43d1 14be
000000c0: 7292 8abe 15bd fb3d 9d46 51be dce4 a1bc
000000d0: fe35 20be f96c 043e 69e5 653e 020a a03c
000000e0: 059a 74bd 7ed9 83be f83f 3b3e 5511 313d
000000f0: e501 8abd c7d0 623e 4f96 0fbd 0358 3e3e
00000100: 8d59 00be 766a abb8 6d90 cbbd e85c 4ebe
00000110: 9169 bcbd 0323 6f3e 8404 04be d686 043e
00000120: 57c4 6d3c 6647 c63d 0197 83be 74a6 0c3e
00000130: bb1d 8c3e a0ca de3d 321f 4dbe 9301 3c3e
00000140: e849 22be e56e 833d 2d88 6a3d 1727 03be
00000150: eca8 853e d2c5 64be f0de 5c3e c9f0 7d3d
00000160: 43fd 0bbe 2e70 c83d 1fce 8dbc 5880 14bd
00000170: 1627 763c 0e6e fbbd a371 cc3d 91e2 943c
00000180: 8b78 903e d863 80be bdd0 51bd a7ec 233d
00000190: 4eee 253e c52e 803e 43ad 0e3e 9b13 ca3d
000001a0: ef31 4dbe e05f 403e ccf2 98bc 38cd 40be
000001b0: 92fc 4e3e 6fcb 913c 688b 073e 54f0 47be
000001c0: a57c 28be 5da7 41be 5940 08bd 8cbc a03d
000001d0: 8d64 f3bd b443 bdbd 6921 21be 97f6 c1bd
000001e0: 6b0c cb3c fcc0 303e 0947 093e ddd2 4a3e
000001f0: 58dc 973d 8dd4 0abe 4c1e 6a3e b351 19be
00000200: 23ed 21be ae2a 2dbe 02d0 5cbd c27d 2cbe
00000210: 3cdd 70be 4363 c33d 8c89 143e 0520 ab3d
00000220: 4cf0 3c3e f152 163e b6f7 3d3e 5e08 053e
00000230: 39c9 303e 1a44 fa3c e380 023e 729b 28be
00000240: 7647 5abe 0a74 e4bd fa1b 843d d856 b5bd
00000250: 9ceb 08be 5d25 ee3d a2b6 493e ea9d 083e
00000260: a672 8bbe 519f bc3d 2357 19be 7915 533e
00000270: 157e e63d b36e 493e e2c6 62be ad13 84bd
00000280: e12f 48be ae20 943e effb 92bd 1d48 373e
00000290: 8e9f 803e 4b0a b9bd dd4c 3d3e 929b e7bd
000002a0: a43a 78be 3d2a 76be 5e1e 893d e95e 3d3e
000002b0: 4c80 623e 9473 32be daef 5ebe d43d 4a3e
000002c0: 0681 3a3e 3bef abbd d993 103e 2021 753d
000002d0: 9c5c 993c 4e4f 15bd b6b0 143e c473 93be
000002e0: 2dd8 3bbe dc64 873e 154e 773e a71e a1bc
000002f0: 4b6f 073e 1305 6cbe 7506 3abd 77f5 83bc
00000300: 7e7c 03be acf9 46be b8a2 a9bd d967 3e3d
00000310: b899 403e e165 38be 3bc5 f23c 2ed4 0c3c
00000320: 1d78 2f3e 6d0e 77be 0c20 293e e619 5dbe
00000330: 4adf f8bc 8fa7 55bd c9bd 1ebe 27cd feba
00000340: d826 10be a4d6 693e b734 843e f134 883d
00000350: d24c 5b3e 1846 3f3c 27e7 373e e4c0 f7bd
00000360: 36a1 03be 95dd 86be f158 2e3d 4bd8 8bbe
00000370: c7ba 21be 5613 0ebe cd82 0d3e 60a1 a43d
00000380: 9f69 413e 5d06 61be 6f1d 13be b27e 9e3c
00000390: 3a0d febd 1189 803e 6da5 44bd 7ce4 913d
000003a0: bdd4 87bd 2908 043e e578 10be c309 6cbc
000003b0: eb2f 4abd ac02 353e 2e71 5bbe 47a1 b73d
000003c0: a80f a63e 3f3e 6dbe 3df7 a03e de99 47be
000003d0: 6f6f 7abe 692a 48bd 7dfe 91be e802 8e3e
000003e0: aad1 88be fd14 ad3b 8796 6b3d ed82 6cbd
000003f0: e4fc 24be fc8c 03be 221d cf3d 3d26 f4bd
0.2370112 0.2367748 -0.0839946 -0.1837166 -0.15414119 0.22174798 -0.1704402 -0.1934256
0.1674104 -0.071659036 0.1144514 0.09088855 0.1029716 0.094645806 0.28455245 -0.06664361
-0.010236895 -0.011421698 -0.2826713 -0.24386315 0.098495334 -0.06441385 -0.1292278 0.110449046
-0.19398221 0.26272997 -0.057492636 0.12467022 -0.10043431 -0.072172076 -0.017622214 -0.09271929
0.042801064 0.06609997 0.17630914 -0.17114353 0.18025468 0.027575849 -0.30722418 0.19022092
0.28557217 -0.26949692 -0.18138249 -0.19439994 0.067882255 0.091954544 -0.03246525 -0.14532952
-0.27064854 0.12291924 -0.20437093 -0.019762449 -0.15645596 0.12932195 0.22450794 0.019536022
-0.059717197 -0.2575187 0.18286121 0.04322942 -0.067386426 0.22149955 -0.035055455 0.18588261
-0.12534161 -8.173745e-05 -0.099396564 -0.20152628 -0.09199823 0.233532 -0.12892348 0.12942061
0.014512143 0.09681587 -0.25701144 0.13735372 0.27366433 0.108784914 -0.20031431 0.18359976
-0.15848505 0.06417636 0.057258774 -0.1280788 0.2610544 -0.22341087 0.21569419 0.06199721
-0.1367083 0.097870216 -0.0173102 -0.03625521 0.015023967 -0.12276851 0.09982612 0.018174442
0.28216967 -0.25076175 -0.05122446 0.04002061 0.16204187 0.25035682 0.13933282 0.09867021
-0.2003858 0.18786573 -0.018670462 -0.18828285 0.20213535 0.0177972 0.13236773 -0.19525272
-0.16453798 -0.189115 -0.03326449 0.078484625 -0.11884413 -0.09241429 -0.15735401 -0.094708614
0.024786195 0.17261118 0.13406004 0.19807 0.07415074 -0.13557644 0.2286312 -0.14972572
-0.15813117 -0.16910812 -0.05390931 -0.16844848 -0.23521894 0.09540417 0.14505595 0.083557166
0.18451041 0.14680077 0.18551525 0.12991473 0.1726426 0.030550051 0.12744479 -0.16465548
-0.21316323 -0.11154945 0.064506486 -0.08854455 -0.13371128 0.1162822 0.19698575 0.1334149
-0.27235907 0.09210075 -0.14974646 0.2061366 0.11254517 0.19671135 -0.2214618 -0.06449065
-0.19549514 0.28931183 -0.07176959 0.17898603 0.2512173 -0.09035166 0.18486352 -0.113089696
-0.2424112 -0.2403955 0.06695245 0.18493237 0.22119254 -0.17426902 -0.21771184 0.19750148
0.18213281 -0.08395239 0.141189 0.059846044 0.018720917 -0.036452584 0.14520535 -0.2879926
-0.18344183 0.26444137 0.2415088 -0.019667936 0.13226049 -0.2304881 -0.045416314 -0.016108258
-0.12840459 -0.1943118 -0.08282989 0.046485756 0.18808639 -0.18007614 0.029635062 0.008595509
0.17135663 -0.24126597 0.16516131 -0.2159191 -0.03037991 -0.05216175 -0.15502085 -0.0019439802
-0.14077318 0.22835785 0.25821468 0.06650723 0.21416023 0.0116744265 0.17959271 -0.12097338
-0.12854466 -0.2634093 0.04256529 -0.27313456 -0.15793906 -0.13874564 0.13819428 0.08038592
0.18887947 -0.21975084 -0.14366697 0.019347522 -0.124048665 0.25104573 -0.048009325 0.07123658
-0.066323735 0.12893738 -0.14108618 -0.014406624 -0.049362104 0.176768 -0.21429893 0.08966308
0.3243382 -0.23168276 0.31438628 -0.1949229 -0.24456571 -0.04886857 -0.28514472 0.27736592
-0.2672246 0.005282043 0.0575166 -0.057742048 -0.16112095 -0.1284675 0.101129785 -0.11921356

bias f4 [64]
00000000: ccfa 99bc 2cf8 84bc e99f 233c 1e3e dc3c
00000010: 6982 2c3d 9049 013d 93b5 c8bc 39c6 78bc
00000020: 49ce 913c 6c8b e43c 12ff 31bd cd28 8b3d
00000030: 9724 42bd a790 4abc 6072 3e3d cd6c 4e3c
00000040: 5795 e0bb 7dbe 0ebd dd77 8d39 3e01 283d
00000050: 0b10 353d 5884 e1bc 787d 4b3c 185e d5ba
00000060: 1154 7cb9 42d0 153d 915e 8c3d dc6a c3bc
00000070: 1c04 43bd 6bea 523d 9e1c 04bd 35aa bb3c
00000080: b0e0 6d3d ec9b 1e3d b423 413d 0539 a43a
00000090: 4e7a 7dbc a07c 87bd 9950 163d 89a2 993c
000000a0: 90c6 c23c 4409 973c e509 bdbb ce4d 41bd
000000b0: ca6d f33b a35e 95bb ef97 36bd fa08 aa3b
000000c0: 3c03 853b b7e8 3ebc 2167 bdb9 bedd d3bc
000000d0: ae19 e6bc 2be5 91bd 3afa febc 8691 8dbc
000000e0: d1ba 02bd 7a8f 06bd 5668 98bc 30fd 4ebc
000000f0: 115c 2e3c 2696 3b3d 7ff5 0c3d 22cc fbbc
-0.018796347 -0.016231619 0.009986856 0.026885089 0.042116556 0.031564295 -0.024500644 -0.015183979
0.01779856 0.027898513 -0.043456145 0.067948915 -0.047398176 -0.012363589 0.046495795 0.012599182
-0.00685374 -0.034849633 0.0002698292 0.04101681 0.044204753 -0.027528927 0.012420051 -0.0016278652
-0.0002406391 0.036575563 0.068539746 -0.023854665 -0.04761134 0.05149309 -0.032253854 0.02290831
0.058075607 0.038722917 0.04715319 0.00125292 -0.015471054 -0.06615567 0.036697958 0.01875426
0.023776323 0.018437035 -0.005769002 -0.04719334 0.0074288594 -0.0045584007 -0.04457849 0.0051890584
0.0040592235 -0.011652163 -0.00036125726 -0.02586257 -0.028088417 -0.071237884 -0.031125177 -0.017281305
-0.031916443 -0.032851674 -0.018604439 -0.012633607 0.0106420675 0.04579749 0.03441381 -0.030736987

in_proj_weight f4 [192, 64]
00000000: 9249 133e fcc0 333e 9b71 d73d 2ad6 ad3d
00000010: a167 b43d 2266 cbbd bddc ac3d 3b1d dc3d
00000020: f4b7 e6bd 0c66 a33d 4d34 333e d54d 183d
00000030: 1527 153e 57fd 323d 92ca 443e 3bec 8a3d
00000040: 96db a3bc 6494 093e aa1a 943c 3712 edbb
00000050: 1de6 3c3d 02e1 083e a1e5 afbc c3ff 373d
00000060: 8ce1 ad3c 9220 07be fd36 1dbe 7228 8a3d
00000070: b08e 483d 4a87 9cbc 3afc b43c 73d8 6c3d
00000080: 2ef7 80bc 8313 82bd 7dab b7bd 0f01 aa3d
00000090: 9cb5 443d 49b6 543c b512 53be bcf4 17be
000000a0: 4066 f93b 7893 d93d 05db a13d 29df 013e
000000b0: c5df ea3c 1eba aa3d a6f1 8abc 6a8f debd
000000c0: 352e bc3d 6d2c 133e 08dc 46be 59cd 453d
000000d0: 6bec 8e3d 0b61 303e 3292 19be 085d debd
000000e0: d711 103e 72a1 3c3d 38ff ab3d c74a c1bb
000000f0: f108 013e f17f b4bd f0b1 bfbd 2b89 433e
00000100: 8957 103e 34b0 4f3e 913b bc3d 2d47 6f3d
00000110: 97ee af3d ef09 11be 36be b03d abf8 a93d
00000120: 7877 9dbd 32f5 453d 83cd 933d 4cfd cdbc
00000130: 2b9d 133e 44ac dcbc ac99 2f3e e3ac 043e
00000140: 42d8 263d 39fb 853d a1bd 273d 01f7 b2bc
00000150: 2f7b 4b3d 41c1 093e ff69 b3bd 11cf d13c
00000160: a77e b83d e47a e8bd af3f d0bd 7e50 883d
00000170: 5af1 873d cfba 25be 654b 733d a522 4c3c
00000180: ef09 05be 33d8 afbd 1ae5 e6bc bbf7 ae3d
00000190: 2d7f 7c3c c777 e83b 425f 2dbe b541 27be
000001a0: a2bf 2ebd 5506 b43d e8b4 323d b84d 5b3d
000001b0: e19d 2a3d 8c86 e93c 5038 853d be22 44bd
000001c0: 0d85 ca3d b678 013e 70b3 46be aa00 8b3d
000001d0: 7cd6 d13d e65c d33d dbda 08be 00ba a7bd
000001e0: 70bf 1d3e 3028 b33d 7a21 6b3d 0a76 933d
000001f0: 2ae5 0b3e af85 11bd cca5 f9bd 2580 283e
00000200: 1c71 24be df69 11be e858 b8bd 8a64 bdbd
00000210: 411c 17bb 9ba5 1b3e c370 cebd b02e 4abd
00000220: 0edb b63d 916e 68bd 4ae5 32be 5f23 84bc
00000230: 6c44 34be e624 2f3c 5799 38be aa09 debd
00000240: a11c 783b b868 19bc 2d52 0abd 5094 9f3d
00000250: ea5c dcbc 037e 44be e16f 053e f2fc 80bc
00000260: 0f07 e5bd 72ca 9d3d e1bd be3d b148 aebd
00000270: d3cd c9bd ba9a 4a3e 2adb 023c e8ce 92ba
00000280: 40cb 3f3d 6a4f df3d 31ee 183e 8ff1 d9bd
00000290: 94da b83c 875b acbd b39e 363e 9e48 2a3e
000002a0: 7316 03bd 4c79 c3bd 09cf 2fbd 146d eabd
000002b0: 58bc 6fbd c4d3 9fbd 83e8 aebc dc16 473d
000002c0: 65f9 b2bd ef04 1abe a20c 643e 4a23 73bd
000002d0: a996 abbd 9b29 83bd 72d9 663d 983a fc3d
000002e0: 0646 19be d7a5 94bd 055d a6bd 5add 46bd
000002f0: 275f f8bd e2e4 a53b 7b99 8a3d 69c9 85bd
00000300: 0773 20be 9f22 1abe 8935 d8bd 41ec 09bd
00000310: 5d48 c5bd 8362 233e 4ef7 7ebd 6f09 17bd
00000320: 43a9 f53d 88d7 42bd 57c6 eebc e845 673d
00000330: a87e c3bd 828f e33d f283 3ebe 431c e7bd
00000340: 821e abbc ede1 ffbc ffde 2bbd a96f 513d
00000350: e4bb 62bd 5bb6 3dbe 409d b83d 86f9 e6bc
00000360: 9f28 a6bd 2cf6 8e3d fcf9 ec3d 69b3 cabd
00000370: 5cf7 97bd d690 b43c 78e3 95bd dc3c bf3c
00000380: 2762 953d dc35 8e3d 3a03 8ebd 6348 cbbd
00000390: cc2d 1a3d da17 b4bd bad6 1a3e 7fe0 1a3e
000003a0: 12f2 cbbd 1aa8 3fbd be03 283c 99ec a8bd
000003b0: a260 d0bd 88e4 24bd 91ab bbbd 3159 83bc
000003c0: d042 21be 663f d7bd 985b 5d3e a241 24bc
000003d0: ca6e f9bd 0a30 a5bd df9a 0d3e ff3b d13d
000003e0: 074c 03be f234 90bd d716 ab3d 0f2a ebbd
000003f0: 0277 20be 4f04 23bd c2f9 913d b4f2 8cbd
0.14383534 0.17554086 0.105197154 0.08488114 0.08808828 -0.0993159 0.0844054 0.10747763
-0.11265555 0.07978448 0.1750042 0.0371836 0.1456569 0.043698635 0.192179 0.06783339
-0.020002168 0.13435513 0.01807912 -0.0072348374 0.04611789 0.13367084 -0.0214718 0.044921648
0.021225713 -0.13196018 -0.15353008 0.067459956 0.048964202 -0.01910748 0.022092927 0.05782361
-0.015742864 -0.06351378 -0.08968256 0.08300983 0.04802476 0.012982913 -0.20612605 -0.14839453
0.007611066 0.106238306 0.07903103 0.12682785 0.028671155 0.0833628 -0.01696093 -0.10867198
0.09188501 0.14372416 -0.19419873 0.048291538 0.06978687 0.17224519 -0.14997175 -0.10857588
0.14069305 0.046052404 0.083982885 -0.0058988067 0.12601067 -0.088134654 -0.09360111 0.19095294
0.14095892 0.2028206 0.09191049 0.058417488 0.08590429 -0.14163946 0.0863003 0.08299383
-0.076888025 0.04832954 0.072169326 -0.025145195 0.14415424 -0.026937611 0.17148465 0.12956576
0.040733583 0.065420575 0.04095233 -0.021846296 0.049678024 0.13452627 -0.087604515 0.025611432
0.09008532 -0.113515645 -0.10168397 0.06655978 0.06637831 -0.16184543 0.059398074 0.012459432
-0.1299207 -0.085861586 -0.028185416 0.085433446 0.01541118 0.0070943567 -0.16930869 -0.16333659
-0.042663224 0.0879027 0.043629557 0.053540915 0.04165447 0.02850654 0.065048814 -0.047884695
0.09888659 0.12643704 -0.19404387 0.06787236 0.10245988 0.10320453 -0.13364737 -0.081897736
0.15405059 0.087478995 0.057404973 0.072002485 0.13661638 -0.03552788 -0.12189826 0.16455133
-0.16058773 -0.14200543 -0.090013325 -0.09247692 -0.0023057612 0.15199892 -0.10080101 -0.04936093
0.089285 -0.05674607 -0.1747028 -0.016130148 -0.17604226 0.01068995 -0.18027245 -0.10841687
0.003785886 -0.009363346 -0.033769775 0.0779196 -0.026899774 -0.19188695 0.1303096 -0.015745614
-0.11182987 0.07704629 0.0931356 -0.085099585 -0.09853711 0.19785586 0.007986823 -0.0011200579
0.046824694 0.10903819 0.14934613 -0.10641777 0.022565164 -0.08415895 0.17833976 0.16629264
-0.03200383 -0.0954462 -0.042922053 -0.11446586 -0.058529228 -0.07804063 -0.021351105 0.048605785
-0.087389745 -0.15040945 0.22270444 -0.059359826 -0.083783455 -0.0640442 0.056359716 0.12315863
-0.14968118 -0.07258194 -0.08123211 -0.04855094 -0.12127524 0.0050626853 0.06767555 -0.065325566
-0.1566888 -0.1505227 -0.10557086 -0.033672575 -0.09632943 0.15955548 -0.062247567 -0.03687423
0.11995175 -0.047568828 -0.02914731 0.056463152 -0.09545642 0.11111356 -0.1860502 -0.11284687
-0.02088857 -0.03123566 -0.041960713 0.051131878 -0.055354968 -0.18526594 0.09014368 -0.028195154
-0.081132166 0.06980547 0.11571118 -0.09897501 -0.07420227 0.02204172 -0.07318777 0.02334445
0.07294112 0.069438666 -0.06934209 -0.09925916 0.03764133 -0.08793612 0.15120974 0.15124701
-0.099582806 -0.046791174 0.010254798 -0.082482524 -0.10174681 -0.040257007 -0.09163583 -0.01603374
-0.15748143 -0.10510139 0.21616971 -0.010025414 -0.121793345 -0.08065803 0.1382861 0.102165215
-0.12821971 -0.070413485 0.08353966 -0.114826314 -0.15670398 -0.03979903 0.07127716 -0.068822294

in_proj_bias f4 [192]
00000000: 4ee4 6e3d bb84 8f3d d7a0 8cbd 1a05 a93b
00000010: 043b 8cbd 227b 06bd 2194 ae3d b750 2bbd
00000020: f93e adbd f412 5dbd 53bc b13d d2b1 74bd
00000030: 454c 73bd 7e6d 993d 5a68 95bd eafc a5bd
00000040: 9ee1 b3bd f90b c3bd fda7 ca3d 9a36 933c
00000050: 5f62 d13d 032c c2bd 51b1 c2bd 2c46 cf3d
00000060: a53c f33d e27b f33d 47e2 023e 6980 c0bd
00000070: 127c d3bd 2f44 eb3d d8ae cb3d c41d c23d
00000080: 8b4c 12be 6fa4 0ebe b219 19be e3ac 0b3e
00000090: 515f 09be b0db 0ebe dddc 103e 7356 1bbe
000000a0: 872b 16be d99d 14be 733c 183e 5368 18be
000000b0: a4ad 10be 5b26 103e 8dd9 183e 18dd 163e
000000c0: 1bb4 9a3e da89 86be d053 433e d512 96be
000000d0: db88 70be 872b 863e 87ed 8b3e c4dc 0d3e
000000e0: 820d 583e 1584 19be 50d2 00be 8dd9 10be
000000f0: c777 19be d674 b93d 8b6f 60be 9ab2 ea3d
00000100: bcc1 30b6 1b21 3bb6 78e6 f535 90c1 4335
00000110: 274f 7b36 be24 c735 a7fe 9ab6 c6b0 0c36
00000120: 94b9 8136 be34 2036 004a 86b6 1add 6336
00000130: 798f 2a36 2ef1 15b6 a177 4636 85cc 8936
00000140: 906c 3bb7 baa4 37b7 396d 4e37 b3a9 9936
00000150: ea60 3937 17b8 17b7 1971 56b7 2b5c 1337
00000160: a834 3a37 afe9 6937 1c2d 7337 2f33 8cb7
00000170: 31b1 26b7 56d6 8c37 27b6 4c37 acf8 5e37
00000180: bf35 75b7 8036 69b7 11df 77b7 4cb4 5837
00000190: 9ec6 29b7 eed0 23b7 0a4e 4a37 66ac 41b7
000001a0: 3f79 80b7 3dfc 56b7 ae0c 6c37 5bfa 56b7
000001b0: 2caa 25b7 dd20 5337 9ce3 5937 ef34 7537
000001c0: dbff 7537 3709 8eb7 b90a 1637 c9ac 0d35
000001d0: 9cc8 05b7 7361 4436 fcd3 a537 a854 ff36
000001e0: 3d4e 3337 dc85 f3b6 335a d4b6 8dfe e2b6
000001f0: 9143 67b5 ed45 8b36 9936 bab7 da5b 9336
00000200: 7773 13bc c0f0 a83c 323d 733c 7d8e 8ebc
00000210: ef70 79bc 295c 4d3c 36fb adbb 865a de3c
00000220: 6e1d 61bc 51d7 013c 87b1 d83a 8166 1dbd
00000230: f8ae efbc ead8 803c 34ad cabc c3cf e9bb
00000240: 4f56 f43a 68a6 20bc 8a08 b13c 7cdc c4bc
00000250: a0ff d7bc aae0 79bb 873c b3ba c2b9 38bd
00000260: 6469 b63c 4aa1 f9bc 4e0a e3bc 9884 853c
00000270: 1d8f ffbc 8bd6 65bb 7106 bfbc 1538 8e3c
00000280: 2976 033c c7a7 19bc 2881 0d3d 1046 b53b
00000290: 27b0 50bc c363 d5bc eb75 ecbb be51 dab9
000002a0: 17d2 e43c 6c09 dcbb 7301 66ba 2469 8bbd
000002b0: 31e6 3f3a ed10 bb3c c239 a3bc 28d2 d93c
000002c0: 4358 8bba 034f ca3c 9015 40bd 5e0d ab3a
000002d0: ae33 8cbb f038 0abd e3a7 243d 4e8d bdbc
000002e0: 560c bfbb de22 923c 8ff4 af3c b293 d7bb
000002f0: 3283 783c 1a73 4dbd 20b7 0d3d b465 08bd
0.058323197 0.07007738 -0.06866615 0.005158079 -0.06847194 -0.032832272 0.08524347 -0.041825023
-0.08459277 -0.053973153 0.08678498 -0.059739895 -0.05939891 0.07491587 -0.07295294 -0.0810488
-0.087832674 -0.09523768 0.098953225 0.017970372 0.10223841 -0.09481051 -0.09506477 0.10120806
0.118768014 0.11888863 0.1278163 -0.09399492 -0.10326399 0.11487614 0.09945458 0.094783336
-0.14287011 -0.13929914 -0.14951208 0.1364017 -0.13415267 -0.13950992 0.14146753 -0.15169697
-0.14665042 -0.14513339 0.1486681 -0.14883547 -0.14128739 0.14077131 0.14926739 0.14732778
0.30215535 -0.26277047 0.1907494 -0.29311243 -0.23489706 0.26205084 0.27329656 0.13853747
0.21098903 -0.14991792 -0.12580228 -0.14145489 -0.14987098 0.09055488 -0.2191755 0.11459847
-2.6338812e-06 -2.7884441e-06 1.8320998e-06 7.292483e-07 3.7447987e-06 1.4837349e-06 -4.619203e-06 2.0964521e-06
3.8661037e-06 2.3872558e-06 -4.002126e-06 3.3954334e-06 2.5415486e-06 -2.2343115e-06 2.9573932e-06 4.1067274e-06
-1.1171345e-05 -1.0946003e-05 1.2303987e-05 4.579511e-06 1.1049424e-05 -9.043163e-06 -1.2781727e-05 8.783342e-06
1.1098724e-05 1.3942291e-05 1.44944315e-05 -1.6713135e-05 -9.935627e-06 1.6789108e-05 1.2201758e-05 1.329013e-05
-1.4615652e-05 -1.39005715e-05 -1.4774284e-05 1.2916582e-05 -1.0119429e-05 -9.764202e-06 1.2058308e-05 -1.1543836e-05
-1.5315249e-05 -1.2814123e-05 1.4069648e-05 -1.2813684e-05 -9.874388e-06 1.2584232e-05 1.2987202e-05 1.46154625e-05
1.4662709e-05 -1.693201e-05 8.943193e-06 5.277803e-07 -7.974126e-06 2.9262999e-06 1.9768246e-05 7.6094475e-06
1.0687448e-05 -7.2575476e-06 -6.328593e-06 -6.7649585e-06 -8.615253e-07 4.1506632e-06 -2.2198352e-05 4.3916343e-06
-0.008999697 0.020622611 0.014846133 -0.017401928 -0.015224679 0.01253418 -0.0053094877 0.027142774
-0.013739927 0.007924871 0.00165324 -0.038427833 -0.029258236 0.015728433 -0.024740793 -0.007135363
0.0018641445 -0.009805299 0.021610517 -0.024030916 -0.026367009 -0.0038128295 -0.0013674655 -0.045099027
0.022267051 -0.030472416 -0.027714875 0.016298577 -0.031196171 -0.0035070505 -0.023318501 0.017360726
0.008023777 -0.00937838 0.034547 0.0055320337 -0.0127373105 -0.026048547 -0.0072162054 -0.00041641103
0.02793221 -0.0067149904 -0.00087740197 -0.06807163 0.0007320373 0.02283522 -0.019925002 0.026589468
-0.0010631162 0.024695879 -0.046895564 0.0013050248 -0.0042786216 -0.033745706 0.04019917 -0.023138668
-0.005830328 0.017838892 0.02147892 -0.006578886 0.015167998 -0.050158598 0.03459847 -0.033300117

weight f4 [64, 64]
00000000: 201d 58be c7eb 023e 8c61 aabd 0355 f73c
00000010: 8fd9 ae3c b99a 053e 17ab 163e bdd0 b1bd
00000020: fbe7 04be d11a 0f3e 0001 ee3d 03a1 19bc
00000030: 9b4a c3bd 5f52 3dbe a0a1 153e 69a4 e2bc
00000040: 55b4 3d3e 6447 8f3d 8637 d3bd 71ae 4bbd
00000050: 1721 1bbe 9819 cb3d dc9c f43d 50a8 b1bd
00000060: 8eb5 ef3d 874b 3fbe aff5 083e 7c70 babd
00000070: c2b7 0a3e 9801 803d dd35 0d3e ac30 edbc
00000080: c80d 473e 9bdf 1b3e a364 d83d 6fad 87bd
00000090: 6012 0f3e db06 5a3e 9521 47bd a4fb 00bd
000000a0: 41cc 7bbc 03b8 893d 3d81 a8bd 865d 4fbe
000000b0: 2ff5 4dbe 532f 2d3e 6573 0e3e 7f0e 073d
000000c0: a3c0 7f3e 1080 5cbe 6233 ccbc ea76 273e
000000d0: 2dea 373d 6843 6ebd 3deb 143e 4212 1dbd
000000e0: fa72 d23d a599 a5bd 7cf3 6cbd c757 bc3d
000000f0: a758 48be 1a13 5fbe 8746 17be 7df0 20bc
00000100: 30f4 533d faab 1d3e 14ef 23be d67e c43a
00000110: e1f5 48bd 496d bbbc b7c7 ffbb 13ae 2e3d
00000120: 87b7 2a3b 1266 483d 72ef 333e 9100 28bd
00000130: 2ec7 563e dd66 273e d9ec 8dbd ab69 c6bc
00000140: 2875 5e3e ecfc 29be 0f47 d13d 18f8 eb3d
00000150: 95e7 59bd a09a 78bc 6cad 433e a03c 213d
00000160: 2488 243d 788b d1bd 278c 393d 48cd fc3c
00000170: 375f f5bd dc48 ccbd 6656 903d d582 ecbd
00000180: 7409 a13d 235b 2c3e 7648 20be a073 c9bd
00000190: 4781 79bd 3b31 d23b 767e 0a3e 26fb a9bd
000001a0: 6f37 f5bc ef7c a8bc 7a8c 5cbe bf04 d63d
000001b0: f657 eb3d 832e 3bbd 04bf b23d ae58 383e
000001c0: 0de6 1cbe aa5d dfbd 72d6 123d 66da 4c3e
000001d0: dbc8 e83d db66 0c3e ed4b 98bd af87 903d
000001e0: ba5f 1bbe f2e5 2fbe 86d1 233d 81d2 2f3e
000001f0: b172 463d 101e 3ebe fd41 a8bd 25f5 3dbe
00000200: a421 2bbe 67e6 033e cad9 263d c2d4 dc3c
00000210: 64ce 49be 3943 163e 8f0a dabd 99cc 913d
00000220: f00a 10be b8ae ce3d 4a38 943d 933f 2b3d
00000230: 060e a6bd 7913 35be 3ee2 84bc b84d 073e
00000240: 5e84 21be 533c 553e 3f30 043e 03c9 2e3e
00000250: 4554 643e 22da 543d 6211 123e d62f cd3b
00000260: dde7 993d 83fd c3bd 58ee 70bd 84b1 11be
00000270: d906 aebd e397 1ebe 1f7b c23d 6553 2fbe
00000280: 59ef 2a3e 2c1f 51bc fb77 403e 5eb6 023b
00000290: 34c5 9a3d 1b57 c53d 186b c8bd 3814 97bc
000002a0: 05f6 e23d 471c 453c 96d0 9dbd ea7b ee3b
000002b0: 5d91 5e3e a7d5 2f3e bb20 f4bc ecd3 923a
000002c0: 8225 eeba 4f30 f7bd 7eb1 0f3e 628a bcbb
000002d0: cc11 45bd 5f17 413e f712 333e e4c6 a53d
000002e0: 9e14 813c 0cd2 c0bd c3b8 fabd 162d aabd
000002f0: e176 0fbe 164a 52be 209f 80bc e07d 2f3e
00000300: 345a ea3b d337 1ebd d0b8 1fbe 5b06 11bd
00000310: 8bae d83d 9ef3 2cbe 98fb 9aba 194e d83d
00000320: 3e4e 3e3e b309 763a 6c13 bcbd 54f5 c43c
00000330: 88d7 a33b fe48 4ebd b22d 17be e32e 2fbe
00000340: c018 da3d a61d 0a3d 8335 b13d c644 06be
00000350: 58cb 163d f9c0 3c3d 2098 e5bd 417d b23d
00000360: 824c 53bd 0a6e 39be 34e4 abbc bd58 e23d
00000370: b016 3abe 17bb d23d aa5f f5bd 8ba6 81bd
00000380: 9de1 ed3d 5668 233e 5cb5 1a3e fc2d e83d
00000390: fc13 f73d 0bb5 a9bd 3a55 55be ce5d 2bbc
000003a0: 043e 013e 0d03 f23d 5f80 16be 9b20 163d
000003b0: 4acd c93d 3453 82bd 0796 d73d 0d54 2cbd
000003c0: a042 4c3d b1e0 e0bd 789b 07be ca33 0dbe
000003d0: 5d5a 553d 7c4e 29be 4c21 16be c5a7 efbd
000003e0: 0b40 6c3d 7ce8 2cbc 4117 9c3d cd0b 943d
000003f0: 3268 08bd 9644 a7bd 43b7 1c3e 1feb 15be
-0.2110486 0.12785254 -0.08319387 0.030191904 0.021343974 0.13047303 0.14713703 -0.08682392
-0.12979119 0.13975073 0.116212845 -0.009376767 -0.09535714 -0.18488453 0.14612436 -0.027666287
0.18525822 0.069960386 -0.10313325 -0.049726907 -0.15149342 0.09916991 0.11943981 -0.08674681
0.11704551 -0.18681155 0.13374971 -0.09103486 0.1354666 0.06250304 0.13790078 -0.028953873
0.19438851 0.15222017 0.1056607 -0.06624877 0.13971853 0.21291678 -0.04861601 -0.031489983
-0.015368522 0.067245506 -0.08227775 -0.2025052 -0.20113061 0.16912584 0.13911207 0.03297281
0.24975829 -0.21533227 -0.024926845 0.16353956 0.04490106 -0.058169752 0.14542861 -0.03834749
0.10275836 -0.08085946 -0.057849392 0.0919643 -0.19565068 -0.2178463 -0.14772998 -0.009822962
0.051746547 0.15397635 -0.1600917 0.0014991413 -0.049062613 -0.02287926 -0.0078057903 0.04264648
0.0026049332 0.048925467 0.1757181 -0.041016165 0.20974419 0.16347833 -0.06929941 -0.024220308
0.21724379 -0.16600388 0.102186315 0.115219295 -0.05319937 -0.015173584 0.19109124 0.039364457
0.040168896 -0.1023168 0.045299675 0.030859604 -0.119810514 -0.09974834 0.07047729 -0.11548392
0.07863131 0.16831641 -0.15652642 -0.09836507 -0.060914304 0.00641456 0.13524804 -0.08299856
-0.02993366 -0.020567385 -0.21537963 0.10450124 0.114913866 -0.045698654 0.087278396 0.18002579
-0.15322132 -0.10906537 0.035849042 0.20005187 0.11366435 0.13711111 -0.07436357 0.070571296
-0.15173236 -0.17177561 0.03999474 0.17170145 0.048449222 -0.18566155 -0.08215711 -0.18550546
-0.16712052 0.1288086 0.040735044 0.02695692 -0.19707638 0.14674081 -0.10646545 0.07119102
-0.14066672 0.10091919 0.07237299 0.041808676 -0.081081435 -0.1768321 -0.016221162 0.13213241
-0.1577315 0.20823793 0.1290903 0.17068867 0.22297771 0.05196584 0.14264444 0.006261806
0.075149275 -0.09569838 -0.058821052 -0.14227873 -0.084974 -0.15487628 0.0949614 -0.17121656
0.16692866 -0.01276378 0.18795769 0.0019945125 0.07557145 0.09635755 -0.097860515 -0.018442258
0.11082081 0.012030668 -0.077058 0.0072779553 0.21735139 0.17171346 -0.029800763 0.0011202074
-0.0018169137 -0.12069761 0.14032552 -0.005753801 -0.048112676 0.18856572 0.17487703 0.08094576
0.015756901 -0.09415063 -0.12242272 -0.08309381 -0.14010192 -0.20536074 -0.015700877 0.17137861
0.0071518663 -0.038627457 -0.15597844 -0.03540645 0.105801664 -0.16889808 -0.0011824248 0.10561771
0.18584535 0.00093856006 -0.09183392 0.024042763 0.0050000586 -0.05036258 -0.14763525 -0.1710773
0.10649252 0.03371968 0.08652785 -0.13112172 0.036815017 0.04608247 -0.11210656 0.087152965
-0.051586635 -0.18108383 -0.02098284 0.11052082 -0.18172717 0.10289591 -0.11981137 -0.06330594
0.11615298 0.1595777 0.15108246 0.11336896 0.120643586 -0.08286484 -0.20833293 -0.0104593765
0.12621313 0.11816988 -0.14697407 0.03665219 0.09853609 -0.06363526 0.10526662 -0.042072345
0.049868226 -0.109803565 -0.132429 -0.13789287 0.05208813 -0.16533846 -0.14661139 -0.117019214
0.057678264 -0.0105534755 0.07621623 0.07228813 -0.033302493 -0.081673786 0.15304284 -0.14640473

bias f4 [64]
00000000: 0d1f ae3c e3a7 82ba 8376 0bbd aae9 f63c
00000010: b772 063d 51a7 03ba 197d c7bb adac 1abd
00000020: 1afb b63c 8111 e53c fe87 b4bc 13b8 153d
00000030: 47c1 15bd a9c9 7c3c e202 083d 4260 363c
00000040: 09f1 cebc 7609 d7bc 8d8c fdbb 86e0 763b
00000050: 2578 d23c 877a dfbc 2107 2cbb 8ed4 843b
00000060: 8780 9cbc 13ba 733c 4480 483d e308 56bc
00000070: d4a8 02bd 4928 683c d006 acbc 3e00 723c
00000080: 7174 f83c 7e96 153d 34e8 8b3c e0e4 dbba
00000090: ef84 98bc fc2f 2cbd e87a 383c 6d34 b1bb
000000a0: 36d9 113b f6f9 c23c 5c02 5a3c 8581 f8bc
000000b0: 1b84 b33b 4663 d43b 9278 33bc cccc aebc
000000c0: c7f5 0bbd 2802 08bc 3766 8dbc 2326 6d3c
000000d0: 6aea 88bc bf6c 39bd 5484 6f3c 0bf2 a3bc
000000e0: b5d9 02bd 47f9 babc 0a93 8cbb e20c c8bb
000000f0: eb5b a23b 919f fa3c 70fd 3c3c 9036 cbbc
0.02125504 -0.0009968247 -0.03404857 0.030140717 0.032824244 -0.00050221855 -0.006087911 -0.037762333
0.022336531 0.027962448 -0.022037502 0.0365525 -0.036561277 0.015428939 0.033205874 0.011131348
-0.025261419 -0.026249629 -0.007737702 0.0037670447 0.025692055 -0.027280105 -0.0026249366 0.004053659
-0.019104255 0.0148759065 0.04895045 -0.013063642 -0.03189929 0.014169761 -0.020999342 0.014770566
0.030328961 0.036520474 0.017078497 -0.0016776584 -0.018618075 -0.04203795 0.011259772 -0.005407861
0.0022254712 0.023800831 0.013306227 -0.030335197 0.0054783947 0.006481561 -0.010954039 -0.02133789
-0.03416994 -0.008301295 -0.017260654 0.0144744245 -0.01671334 -0.045269724 0.014618952 -0.020012876
-0.031945903 -0.022823943 -0.0042899894 -0.0061050514 0.004954805 0.030593665 0.011535034 -0.02480629

weight f4 [256, 64]
00000000: a81c ec3d 418c 95bd 0d81 c8bc 42b0 87bd
00000010: d335 073e 6297 d23b 85e3 d03d ee08 edbd
00000020: c1f1 023d df9d 01be f183 0abd 272c 28bd
00000030: 1b52 b03d 9f7c 633a 53ba ae3d 6ee9 3fbb
00000040: a82a 0cbe 1590 fabd f18d ab3d a424 b9bc
00000050: 4329 fc3d 99ca 013e aa21 acbd 6dfd cabd
00000060: d004 93bd e24b db3d cce8 cfbb d8da 673d
00000070: db19 df3d fff1 94bd 457c 453d ff70 50bd
00000080: 63f2 9b3c 8827 f4bd 58f4 d03d a965 f43d
00000090: 8b71 08be eb40 2dbe 81a7 06be a711 ce3d
000000a0: b748 1b3d d617 703d fde0 6fbc 62db c6bd
000000b0: 0f6b af3d f758 063d 7989 bcbd 493e 563c
000000c0: 707f 623d dc2b 1b3d 82ab 06be c768 fc3d
000000d0: 5a17 0c3d 8f02 0abe 4204 85ba 1af6 b23a
000000e0: 3060 f23d 31c9 fa3d 238f ccbb c570 3b3c
000000f0: 8ff2 113e d201 ca3a 14ea a5bd 8a9d 043d
00000100: 8ffa 943d 8215 e73d bf9f 9dbd e3e7 f63d
00000110: fa15 873d c5d1 f93d 7945 2c3c f1b0 003e
00000120: 9121 aabd e573 413d 3e2d f0bc 3e09 b9bd
00000130: 7a2c 553d 3207 73bd 59e4 ce3a 9fc5 babd
00000140: 6655 913d 675e bebd cdd8 ea3d ffd4 1c3d
00000150: 93b6 ca3c 3a07 a9bd 6753 edbc 914b cfbd
00000160: b3fd 2ebd d86d 35bd 854f 933b 7efb 4d3c
00000170: 6ce3 e9bd b57a cebd 07b5 373d 0bb0 3fbd
00000180: cb67 e73c 57f2 843c f7b0 df3d 080b 913c
00000190: 89d9 f7bc e295 843d fec2 9fbd 0b20 f93d
000001a0: 1231 a3bd 08a8 973d 5933 2bbe f2c4 a13d
000001b0: ff0b 8fbd d7c0 433d 6026 c7bd be41 83bd
000001c0: 9075 483d 14da 95bd 33c6 b2bd baec b3bd
000001d0: 73ea a5bd f0ac 8c3c b33c 6ebd 03bd 8ebd
000001e0: 3362 8cbd 00c1 8dbd 7f4a 7cbd 6057 083b
000001f0: c07c b1bc 653d 35bd 4fa1 6b3d f89a 513d
00000200: 712e f1bd bccf a93d 91ed 91bd 8be7 21bc
00000210: 3a77 85bd f4ac 573c 68ad b03d fea2 c3bd
00000220: 5d56 c23d f849 65bd ac69 c73c 0dda 913d
00000230: bd8d 1fbe 7e23 cb3d 8b74 d83d bf4c 9f3d
00000240: 9a51 9a3d 9854 2abd ae2c e8bd 9e25 85bc
00000250: c34c a0bd f8c1 bbbd 3e07 c63d 293a e5bd
00000260: cbf3 d63d 3759 3dbd 38d1 bd3d 4e7a d23d
00000270: fdf7 3b3d 38e3 e13d 5b6d f6bd e268 a0bd
00000280: dec3 b4bd a84f aabd 18c8 043e bc00 3cbb
00000290: 53db 39bd 3266 763d cc4e 013e 4cfc af3c
000002a0: b092 1dbd 47f3 4f3d d66c 35bd 6ea3 1ebe
000002b0: a271 a4bd bc69 8abd dd28 52bd aa2f 083e
000002c0: 0a33 fabc 64e8 bc3d ee13 f33d bc5c c0bd
000002d0: af5c 1d3c dece 6ebc bac4 a7bb 91a5 5fbd
000002e0: fddc 1cbe 138d 27be a5fd 9f3d 7db4 e5bd
000002f0: b1ff 593d 782e e33d 112a 4fbd 1cee 0fbe
00000300: 008a 5abd f8e7 c13d 78ca 14be 9230 e3bb
00000310: 2ad6 69bd 233a 1b3d 838c 613c a8ad 0dbe
00000320: 944a 053c 30a1 b0bd 9e73 af3d 5ae3 6dbd
00000330: bbb0 183d c7ab 06be 3f19 7ebd bada 88bc
00000340: db49 733d 1845 4dbd f89c c93c c47c b13c
00000350: 5cac d13d 9def a3bd fda1 ce3d 7eb3 e2bd
00000360: 3067 993d 251d 6fbd eaa7 b53d 3f95 02bd
00000370: 78fb 893c d045 30bd 8e5f 32bc de36 bbbc
00000380: e007 133d 852e 3d3d ea04 dbbd d6c2 9d3d
00000390: bd45 43bd 9688 26bd df61 053d 3b56 20bc
000003a0: f4b6 f03d 3d43 b6bd 862c 4fbc 26ca d8bd
000003b0: f7a0 19bd 0ff6 cdbd 5dff ddbd 9020 413c
000003c0: a409 8dbc 743b 843d 2467 b4bd d178 f7bd
000003d0: 1c4c 01be 7b6d 473d c314 f2bd 7f78 b33c
000003e0: 5950 a43d 7240 b4bd 3c4f 80bc db3f fdbd
000003f0: 0499 023e 0de1 46ba 526c f83d 9083 6d3d
0.11528903 -0.07302142 -0.024475599 -0.066254154 0.13204126 0.0064267376 0.10199646 -0.11573969
0.031968836 -0.1265788 -0.033817235 -0.041057732 0.086094104 0.0008677933 0.08531632 -0.0029283422
-0.13688147 -0.12234513 0.083766825 -0.02260048 0.123125575 0.12674941 -0.084048584 -0.099116184
-0.07178652 0.10707833 -0.00634489 0.05660519 0.108936034 -0.072727196 0.048214216 -0.05088901
0.019036477 -0.119216025 0.10202855 0.11933453 -0.13324563 -0.16919295 -0.13149835 0.10061961
0.037911143 0.05861648 -0.014641044 -0.09709813 0.08565342 0.032799687 -0.09205908 0.013076373
0.055297315 0.037883624 -0.13151363 0.12324672 0.034201957 -0.13477539 -0.0010148364 0.0013653666
0.118347526 0.122454055 -0.006242649 0.011440461 0.14252685 0.001541192 -0.081012875 0.032376803
0.07274353 0.11283399 -0.07696485 0.12055948 0.065959886 0.121982135 0.01051461 0.12567498
-0.083071835 0.047229666 -0.029318448 -0.09034966 0.05204437 -0.059333034 0.0015784606 -0.091197245
0.070963666 -0.092953496 0.11467133 0.038289066 0.024745261 -0.082533315 -0.028970433 -0.10121835
-0.042722415 -0.04429421 0.0044955635 0.012572167 -0.114203304 -0.10081998 0.044850376 -0.046798747
0.028247735 0.016228838 0.10922425 0.017705455 -0.030255096 0.064739004 -0.07800864 0.12164315
-0.07968344 0.07405096 -0.16718806 0.078988925 -0.0698471 0.04779133 -0.09724116 -0.06409024
0.04894024 -0.07316986 -0.0872921 -0.087853864 -0.08101358 0.017172307 -0.058163356 -0.06969645
-0.068546675 -0.069215775 -0.061594483 0.0020804033 -0.02166593 -0.044248004 0.057526883 0.05117318
-0.11776436 0.08291575 -0.0712539 -0.009881864 -0.06516881 0.013163794 0.086268246 -0.09552573
0.09489129 -0.055978745 0.02434238 0.07121668 -0.15581413 0.09918879 0.10569104 0.0777831
0.075350955 -0.04158458 -0.11336647 -0.016253289 -0.07827141 -0.09167856 0.0966935 -0.11192734
0.104957186 -0.04622766 0.09268421 0.10277234 0.045890797 0.11029667 -0.12032577 -0.07832505
-0.08826421 -0.083159745 0.12966955 -0.002868696 -0.04537518 0.060156055 0.12627715 0.02148261
-0.03846997 0.050769117 -0.044293247 -0.15492031 -0.08029486 -0.067584485 -0.0513085 0.13299432
-0.030541915 0.092240125 0.11869036 -0.09392688 0.009604617 -0.014575688 -0.005119887 -0.054601256
-0.15318675 -0.1636241 0.07812051 -0.11216066 0.053222362 0.110928476 -0.050577227 -0.14055675
-0.053354263 0.09468073 -0.1453036 -0.0069332803 -0.05708901 0.03789724 0.013766411 -0.13835776
0.008135457 -0.08624494 0.08566974 -0.058078147 0.03727792 -0.13151465 -0.062035795 -0.01670586
0.059396606 -0.05011472 0.024610981 0.021665938 0.10237953 -0.08004687 0.100894906 -0.11069392
0.074903846 -0.058377404 0.08869918 -0.031880613 0.016843542 -0.04303533 -0.01088704 -0.022853311
0.035896182 0.046186943 -0.10694297 0.07703178 -0.04767393 -0.040657602 0.03256404 -0.009786184
0.117536455 -0.088995434 -0.012644893 -0.10585432 -0.037507024 -0.100566976 -0.10839722 0.011787549
-0.017216511 0.06456652 -0.08808735 -0.12083591 -0.1262669 0.048688393 -0.11820366 0.021908043
0.080231376 -0.088013545 -0.015662782 -0.12365695 0.12753683 -0.0007586636 0.121300355 0.057986796

bias f4 [256]
00000000: 7858 89bc 58a8 85bb 0d07 22bb aa12 88bc
00000010: 10a5 9abc 7786 d7bc 17b3 7cbc 898f 06bd
00000020: 92dd 60bc 6317 4fbc c86e a1bc 8bba f4bb
00000030: 8c0c 57bc b3f4 c93b 0bcd 83bc b7f6 03bd
00000040: 850a 14ba 470d 953c 42b8 b33c 1502 f3bb
00000050: a15a 8dbc 31d3 6ebc 3cec 07bc 5e90 0bbc
00000060: 388a babb 663f f9b9 45e4 46bc acb3 57bc
00000070: 2b34 84bc 34b5 453c 2be9 cbbc cef8 ebbc
00000080: f805 dfbc 700b afbc 5a9e cebc 91e4 73bc
00000090: 0c22 80bb 1d2a 24bc 2fcd fdbc f727 b8bc
000000a0: b2ac 963c ce27 65bc 1f46 9d3c a70e 68bc
000000b0: 74bc 90bc 57b7 ebbc 1ad0 2bbd 8bd5 12bd
000000c0: ce94 163c 6d90 f9bc 46e0 b23b 417f 29bc
000000d0: 8424 9ebb 28c8 a4bc 393b 24bc 0920 ae3c
000000e0: a27e 68bc bf0f bcbb bb5e 7d3c da34 d1bc
000000f0: 2bb0 b8bc fa4d 85bb 9630 efbc 0529 5cbc
00000100: dfc8 90ba 5386 c4bc 6e10 63bd 69b1 cfbb
00000110: 3887 2dbc 0f15 61bc a590 1bbd 4c46 6dbc
00000120: d0b3 dfbc 3252 8cbc d978 ddbb 7c78 b8bc
00000130: 4d84 59bc ced7 14bd 30f6 5cbc 494f e83b
00000140: 6fa2 e3bc 0526 a33c 6e27 62bc 5676 943b
00000150: 5d45 0dbd 5640 c4bc 05bd 07bc 609a 93bc
00000160: 1eeb acbc 7906 09bd 7c2f 2abc 4e9f 383c
00000170: 6929 d7bb 346c d0bb 2e2a 09bc 7774 ccbc
00000180: 199f a9bc fc28 753c 8efa 25bc 229d 82bc
00000190: 2682 963b 5d12 edbc 19e6 51bc e3e2 ab39
000001a0: f6a1 d2bc 2556 41bd 9fb3 5bbc 19f6 04bd
000001b0: b630 9bbb c7a8 16bc ccf5 23bc a30a 123c
000001c0: 6481 7ebc ff79 07bd 14ea 2abd aed0 de3a
000001d0: 3a4c 74bb 65ba b1bc 5685 38bc 132e d6bc
000001e0: d948 4ebb 2b94 93bc 0199 b6bc fc39 9ebc
000001f0: 08a9 c2bc 153d 86bc d83e 4c3c b89c bdbc
00000200: c2d1 9dbc d8cd 6ebc a264 66bb 9cdb 7b3b
00000210: 03c8 80bc 3b53 4b3c c955 dfbc ca25 adbc
00000220: e7c9 1a3c 50e6 1a3b 3d0a dbbc de12 70bc
00000230: a029 a1bb 2fb3 883c 69ec b0bc 0c3a a4bb
00000240: a7ce 6c3c 0e2e d1bc 38f3 01bd f059 11bc
00000250: 90df 813c 05cb 01bc dc7b 14bc 8f34 84bc
00000260: 9af9 0abd 7d48 8abb 1f58 09bc 6a9a b2bc
00000270: c26c f5bc 3f78 89bc f174 de3b 71d2 a73b
00000280: b42f 5e3b c21f 9fbc 9a67 1cbc 2d05 13bd
00000290: 98b2 babc 9ca3 d93b 21fd 71bc 73e6 283c
000002a0: 5d88 acbc 4658 9bbb 0b4d b9bc e2a8 82bc
000002b0: d140 943c d377 34b9 520a 2ebc e7b2 c2bc
000002c0: 5571 34bc 83ed 86bc 8e5c bab9 7d41 143b
000002d0: 74c2 9dbc 8c80 17bc 7f1a e03b c0da d539
000002e0: 1a7f 3cbd cf83 8abc b129 1ebb e025 16bd
000002f0: e5d4 b6bc 6af6 01bc fdca a9bc 54e6 cabc
00000300: 0708 f5bc ff6c f9bc cd8b 3b3c 8cec aa3a
00000310: 6bd5 38bc 1ef9 d7bb b118 cfbc 470d e2bc
00000320: 43f4 fdbc 4eb4 87bb 4290 16bb 38b7 f63c
00000330: 7184 c53a 2061 8cbc ff36 85bc 34e8 bfbc
00000340: 4e38 4bbc 7684 233a 6c26 d9bb 6390 04bc
00000350: 59ed 7fbc 7787 debb a403 65bc 2b7c f5bb
00000360: f07e 44bc a854 d1ba 84f1 bcbc 2f45 483c
00000370: 9a25 08bd 4c79 fcba cb36 9dbc 9f23 8b3c
00000380: 71ce d2bc 6566 a7bc d8c3 2f3c 49fb 96bc
00000390: 0a5a 863b 4630 90bc 9dc5 86bc 5449 aabc
000003a0: e4cc 0d3d 261f a6bc e069 b4bb 4ff2 e3bb
000003b0: a4d6 473a 574f 3dbc 2ff3 8cbc 03f7 79bc
000003c0: 3599 75bc 4f35 483b f254 92bc 1fc3 a4ba
000003d0: b587 09bc 99e8 95bc 53b4 c43c ed82 00bd
000003e0: 8749 45bc 9351 30bc 44a3 45bd a7c9 02bc
000003f0: 73f4 debc 8db0 33ba 6cb8 75bc 051c f23b
-0.016765818 -0.004078906 -0.002472344 -0.016610462 -0.018877536 -0.026309235 -0.015423558 -0.03285173
-0.0137247015 -0.012639853 -0.019706145 -0.0074685267 -0.01312555 0.0061632036 -0.016088983 -0.032217707
-0.00056473195 0.018194808 0.021938447 -0.0074160197 -0.01725513 -0.014576719 -0.008296069 -0.008518307
-0.0056927465 -0.00047540216 -0.012139385 -0.013165396 -0.016138157 0.012067128 -0.024891457 -0.028805163
-0.027224526 -0.021367759 -0.025221992 -0.014886037 -0.0039103087 -0.010019806 -0.030981628 -0.022479994
0.018392894 -0.013986541 0.019198475 -0.01416365 -0.017667986 -0.028773947 -0.041946508 -0.03584818
0.009190751 -0.030464375 0.0054588644 -0.010345281 -0.0048261303 -0.020114973 -0.010023885 0.02125551
-0.014190348 -0.005739182 0.01546448 -0.025537897 -0.022544941 -0.0040681334 -0.029197972 -0.013437514
-0.0011046192 -0.023989832 -0.05543559 -0.0063382876 -0.010591321 -0.013737931 -0.03797974 -0.014482092
-0.027307421 -0.017129038 -0.006758791 -0.022518389 -0.013276172 -0.03633862 -0.01348643 0.0070895297
-0.027787415 0.01991559 -0.013803346 0.0045307083 -0.034489978 -0.023956459 -0.008284812 -0.018017948
-0.021108206 -0.03345344 -0.010387298 0.01126845 -0.006566216 -0.006360555 -0.008371873 -0.024957879
-0.020705746 0.014963385 -0.010130538 -0.015944067 0.0045931516 -0.02893942 -0.012811207 0.00032784705
-0.025711995 -0.047201294 -0.013409524 -0.03246126 -0.0047360314 -0.009195513 -0.010007333 0.008913669
-0.015533779 -0.03307533 -0.04172714 0.0016999447 -0.003727688 -0.021695325 -0.0112622585 -0.026145017
-0.0031476526 -0.018014988 -0.022289755 -0.019314758 -0.023762241 -0.016386548 0.012466155 -0.023146018
-0.01926506 -0.014575444 -0.0035155197 0.0038430458 -0.015720373 0.01240998 -0.027262585 -0.021136183
0.009447551 0.0023635812 -0.02673828 -0.014652936 -0.004918292 0.016687004 -0.021597104 -0.0050118025
0.014453567 -0.025534656 -0.031726092 -0.00887154 0.015853673 -0.007921939 -0.0090627335 -0.016138343
-0.033929445 -0.004220067 -0.008382826 -0.021802146 -0.029959086 -0.01678097 0.006788843 0.005121522
0.0033902945 -0.019424323 -0.009546185 -0.035893608 -0.022790238 0.006641818 -0.014769823 0.01030885
-0.021061117 -0.0047407476 -0.022619745 -0.01594967 0.018097313 -0.00017210776 -0.010622578 -0.023766948
-0.011013349 -0.016470676 -0.00035545643 0.0022622042 -0.019257762 -0.009246957 0.006839096 0.00040789507
-0.04601965 -0.016908554 -0.0024133737 -0.036657214 -0.022318313 -0.007932285 -0.020726675 -0.024768032
-0.029911054 -0.030447481 0.011446905 0.0013040467 -0.011281352 -0.0065909764 -0.025280328 -0.027594222
-0.031000262 -0.004141367 -0.0022974168 0.030116662 0.0015069378 -0.017136157 -0.016261576 -0.023426153
-0.012403561 0.0006237695 -0.0066268947 -0.008091065 -0.015620553 -0.006791051 -0.013977919 -0.0074916086
-0.011993155 -0.0015970664 -0.023064382 0.012223526 -0.033238985 -0.0019262224 -0.019191166 0.016984759
-0.025733205 -0.020434568 0.010727845 -0.018430369 0.004100089 -0.017601144 -0.016451651 -0.020786919
0.034619227 -0.020278525 -0.0055057853 -0.0069563757 0.00076232315 -0.011554561 -0.017205803 -0.015256646
-0.014990141 0.0030549353 -0.01786277 -0.0012570358 -0.0083941715 -0.018299388 0.024011767 -0.03137486
-0.012041456 -0.010761636 -0.048251405 -0.007982648 -0.027216172 -0.0006854616 -0.014997583 0.007388594
