CNP-model-save-name/saved_models/model_4000.pth (torch, 738914 bytes, 50 tensors)

weight f4 [64, 16]
-0.21055958 0.2356201 0.045438495 0.11219689 0.19944917 -0.06098086 -0.19859064 -0.031346895
-0.112083256 -0.12639225 0.079725884 0.23862626 0.09433289 -0.049678978 0.07150864 -0.066426754
-0.13391815 0.025973026 0.14265582 0.14038153 -0.05936505 -0.16943514 0.03766888 0.14963418
0.12423811 -0.11700368 -0.18299475 0.056092862 0.23739728 -0.19446841 -0.115085535 0.022523994
-0.08748077 0.031776763 -0.14287248 -0.19029626 0.028370114 -0.24059814 0.07174303 0.16859235
-0.08483001 -0.2385725 -0.18250886 0.07531796 0.00024970018 0.09680447 -0.17323802 0.08311173
0.12288087 -0.20062724 0.007697272 0.15456879 0.18067098 0.11343105 0.21905193 0.22594763
-0.23018816 0.06506325 -0.06322821 0.089449085 -0.118559435 -0.05159005 -0.06170026 0.16793872
0.20634198 0.12290762 -0.094697 -0.0990358 0.19154893 -0.08151485 0.11881605 -0.17690404
-0.21431023 0.07403536 0.15590273 -0.123845294 -0.1945608 0.12159011 0.14317435 -0.23616649
0.05468914 0.13596976 0.1776881 -0.11391115 0.042786065 -0.009810462 0.08651752 -0.06795572
0.13704409 -0.012066969 0.21780154 -0.24138945 0.21725386 0.113351464 -0.12088767 -0.0042977715
-0.2273974 -0.21139094 -0.10748259 0.07698164 -0.09652343 -0.011675123 -0.11079472 0.21678945
-0.1360611 -0.15206182 0.14207625 0.20318575 -0.0407724 0.07423634 -0.05111295 -0.24127628
0.08256468 0.040324066 -0.10328163 -0.14268833 -0.091656305 -0.030828262 0.23848805 -0.10225566
-0.1886332 0.17088337 0.08369156 0.092812 -0.17013931 0.09472284 -0.087963164 0.10457949
-0.20960227 0.25019413 0.2058993 -0.04605951 0.056092497 0.15359494 0.096505366 -0.037662573
0.09447092 -0.17248304 -0.16165663 0.23820145 0.0018437683 -0.16540179 0.067644 0.16736524
-0.129777 0.12144633 -0.02917186 -0.11220077 -0.049117476 -0.009526005 0.018417992 0.05572546
0.12333563 -0.1086001 -0.18202855 -0.032819472 -0.09208893 -0.00015082577 -0.21688098 -0.04201026
-0.18982148 -0.056294575 0.06558551 -0.06474809 -0.054781966 -0.1841998 0.18624997 -0.17997918
0.18220541 -0.1327849 0.058829866 0.18734242 0.071856596 -0.009350778 0.07741981 0.14651775
-0.009329498 0.18838212 0.13136858 0.13465907 -0.11242958 -0.2007413 0.12387121 -0.10291905
-0.2455983 -0.00991445 -0.22855106 0.1209133 -0.19163118 -0.05665963 -0.027681174 0.24697152
-0.18986386 -0.07943272 -0.068941616 -0.011416661 0.0004213813 0.04913004 0.17412539 -0.0033195568
0.19398968 0.22573224 -0.19773445 0.12917502 -0.24120618 -0.022426268 -0.099902324 0.09070048
-0.22100855 -0.227291 0.10336682 -0.0947233 0.21856703 -0.06321642 0.17032793 -0.19986069
-0.018434672 -0.1693303 0.009571748 0.09685338 -0.095479 -0.09391305 0.05125759 -0.27453932
-0.07628468 -0.091100626 -0.004111023 -0.13257042 0.1271952 -0.08810836 -0.2625159 -0.25510225
0.10720071 0.08348325 0.033088762 0.19427358 -0.050591543 0.07528915 -0.027838862 -0.2301508
-0.108005546 -0.22615178 -0.1898948 0.15097354 0.15036088 0.018858753 -0.23386833 -0.11773291
0.02317158 -0.21280411 -0.20600595 -0.07555292 -0.2211323 -0.22197422 -0.01939205 -0.16706935
00000000: ee9c 57be 6546 713e b71d 3a3d 7cc7 e53d
00000010: 673c 4c3e 11c7 79bd 585b 4bbe 9a65 00bd
00000020: e88b e5bd f86c 01be 5347 a33d 715a 743e
00000030: 9a31 c13d 2f7c 4bbd 1f73 923d c00a 88bd
00000040: d721 09be 62c5 d43c 5e14 123e 2dc0 0f3e
00000050: c428 73bd 6880 2dbe af4a 1a3d b439 193e
00000060: 8d70 fe3d a09f efbd fa62 3bbe a1c1 653d
00000070: 4618 733e ba22 47be f7b1 ebbd 3d84 b83c
00000080: 1e29 b3bd 5a28 023d 2a4d 12be 06dd 42be
00000090: 7168 e83c 5c5f 76be 02ee 923d 79a3 2c3e
000000a0: 5bbb adbd 594c 74be 9ae3 3abe 4d40 9a3d
000000b0: 31ea 8239 6c41 c63d 4f65 31be 7c36 aa3d
000000c0: f7a8 fb3d 3a71 4dbe 6639 fc3b 4847 1e3e
000000d0: d001 393e 8a4e e83d 264f 603e d15e 673e
000000e0: 72b6 6bbe e23f 853d cb7d 81bd 1531 b73d
000000f0: 4acf f2bd 1750 53bd 69b9 7cbd 21f8 2b3e
00000100: 504b 533e feb6 fb3d 80f0 c1bd 48d3 cabd
00000110: 6725 443e 42f1 a6bd d455 f33d 5526 35be
00000120: 2474 5bbe da9f 973d f7a4 1f3e 9aa2 fdbd
00000130: f23a 47be 3c04 f93d 4c9c 123e a1d5 71be
00000140: b801 603d a83b 0b3e dff3 353e 404a e9bd
00000150: 7140 2f3d 0fbc 20bc 1930 b13d 5e2c 8bbd
00000160: 4955 0c3e 89b4 45bc 5e07 5f3e cc2e 77be
00000170: cc77 5e3e d024 e83d f493 f7bd 52d4 8cbb
00000180: ddda 68be de76 58be d51f dcbd 8da8 9d3d
00000190: 13ae c5bd 0449 3fbc 58e8 e2bd 0efe 5d3e
000001a0: 9a53 0bbe 18b6 1bbe 707c 113e ed0f 503e
000001b0: f600 27bd 3909 983d d05b 51bd 2111 77be
000001c0: ac17 a93d d92a 253d 5285 d3bd e41c 12be
000001d0: 4db6 bbbd 8d8b fcbc 3636 743e 6a6b d1bd
000001e0: 1029 41be 0dfc 2e3e 7b66 ab3d 3814 be3d
000001f0: 0039 2ebe 0cfe c13d 0826 b4bd c62d d63d
00000200: faa1 56be 7219 803e 44d7 523e e6a8 3cbd
00000210: 3fc1 653d fe47 1d3e 9ba4 c53d 1244 1abd
00000220: f879 c13d 659f 30be 5189 25be 15eb 733e
00000230: 99aa f13a 165f 29be f088 8a3d cb61 2b3e
00000240: 43e4 04be dab8 f83d d3f9 eebc 84c9 e5bd
00000250: 682f 49bd f612 1cbc 54e1 963c 6140 643d
00000260: 6497 fc3d bb69 debd b165 3abe b66d 06bd
00000270: 1f99 bcbd fc26 1eb9 0c16 5ebe f312 2cbd
00000280: 9060 42be 2495 66bd b251 863d a69a 84bd
00000290: 0e63 60bd df9e 3cbe 50b8 3e3e 764c 38be
000002a0: 0e94 3a3e c4f8 07be 96f7 703d b1d6 3f3e
000002b0: 8d29 933d 0134 19bc 478e 9e3d c008 163e
000002c0: c0da 18bc 3ee7 403e 7c85 063e 11e4 093e
000002d0: 7b41 e6bd 218f 4dbe 30b0 fd3d 39c7 d2bd
000002e0: 1f7e 7bbe 3870 22bc 4a09 6abe 64a1 f73d
000002f0: f73a 44be ee13 68bd a1c3 e2bc 1ae6 7c3e
00000300: ac6b 42be 9fad a2bd 4331 8dbd f20c 3bbc
00000310: d7ec dc39 953c 493d ed4d 323e ec8c 59bb
00000320: 3ba5 463e 5a26 673e e67a 4abe 7546 043e
00000330: c1fe 76be 4bb7 b7bc 9799 ccbd 2cc1 b93d
00000340: 1150 62be f9be 68be fcb1 d33d 4afe c1bd
00000350: 09d0 5f3e 9c77 81bd 726a 2e3e 48a8 4cbe
00000360: 4f04 97bc ec64 2dbe d2d2 1c3c 115b c63d
00000370: 7e8a c3bd 7c55 c0bd 7bf3 513d 6b90 8cbe
00000380: 243b 9cbd f792 babd c3b5 86bb 8ac0 07be
00000390: 753f 023e 2872 b4bd 7c68 86be c39c 82be
000003a0: 0c8c db3d 44f9 aa3d 1588 073d a7ef 463e
000003b0: 1439 4fbd 3331 9a3d 530e e4bc a7ac 6bbe
000003c0: 0332 ddbd 5594 67be c873 42be cf98 1a3e
000003d0: 34f8 193e ac7d 9a3c 2e7b 6fbe f41d f1bd
000003e0: 53d2 bd3c 52e9 59be 39f3 52be 7dbb 9abd
000003f0: 8170 62be 364d 63be 14dc 9ebc 3a14 2bbe

bias f4 [64]
0.0016270223 0.0050790166 0.000214092 -0.008183733 -0.0083966395 0.008479332 -0.00034238733 -0.016511839
-0.0053524296 0.012278807 -0.0017070551 0.0013651742 0.013662319 -0.022231238 -0.0103345 -0.006328821
0.007669902 0.032905687 -0.01569615 0.005492657 -0.014997804 -0.0034492956 -0.009170478 -0.010468918
0.010685723 -0.00047968645 -0.020336073 -0.010549414 -0.0062812516 0.01345202 -0.0147496965 -0.012728473
0.008588079 0.007837908 0.01707974 -0.005702049 0.0034561206 -0.022028493 -0.0068794745 -0.024296964
-0.010312313 0.00040437203 -0.0030539038 -0.025681105 0.018972162 -0.013451305 0.021311842 -0.015706852
-0.010874917 -0.002532214 0.011632882 0.018207569 0.00377768 -0.009762949 0.026786052 -0.012343091
-0.007991136 0.016072772 0.0009752474 0.011669672 0.008556938 0.00324399 -0.012565674 0.00206063
00000000: cf41 d53a e16d a63b e27d 6039 1015 06bc
00000010: 0f92 09bc e5ec 0a3c 7382 b3b9 d643 87bc
00000020: 6f63 afbb 0d2d 493c 44bf dfba a5ef b23a
00000030: ebd7 5f3c 491e b6bc 0952 29bc 0062 cfbb
00000040: cd53 fb3b 1dc8 063d 3695 80bc bffb b33b
00000050: 59b9 75bc 940d 62bb c63f 16bc d385 2bbc
00000060: 2c13 2f3c 6d7e fbb9 d697 a6bc 73d7 2cbc
00000070: f5d2 cdbb dc65 5c3c b6a8 71bc 168b 50bc
00000080: 04b5 0c3c 926a 003c d0ea 8b3c 41d8 babb
00000090: 1580 623b 1975 b4bc 376d e1bb 6d0a c7bc
000000a0: faf4 28bc e501 d439 0124 48bb 2e61 d2bc
000000b0: 826b 9b3c dd62 5cbc 2c96 ae3c a8ab 80bc
000000c0: b52c 32bc 80f3 25bb d897 3e3c 0a28 953c
000000d0: f492 773b c7f4 1fbc 6c6e db3c ad3a 4abc
000000e0: 41ed 02bc 0cab 833c bfa7 7f3a 2732 3f3c
000000f0: 6632 0c3c 1f99 543b 42e0 4dbc a20b 073b

weight f4 [64, 15]
-0.06394691 0.1147497 -0.11134446 0.15983003 0.22280064 0.015662849 0.15304564 0.08308329
-0.23974898 0.19103847 -0.034276456 -0.17060696 0.08485105 -0.1613138 -0.08930451 -0.07900088
-0.24197851 -0.26174152 -0.13334762 0.06483901 -0.16879317 0.16481566 0.17106473 -0.20134616
0.12733541 -0.0020077736 0.01796704 0.15906295 0.012990477 0.1517247 -0.029727068 -0.21328154
0.24365251 -0.19896488 -0.27963248 -0.115583956 0.0073341704 0.27802712 0.25596976 0.05629393
-0.17598434 -0.15617555 0.20895055 0.26370522 -0.18127303 0.047981013 -0.1671957 0.15033577
0.019540006 -0.19579437 0.21163845 -0.10462803 -0.14847676 0.19996779 0.26854348 -0.23297125
0.22872548 -0.011245828 -0.07085279 -0.2798272 -0.10329068 0.057868406 -0.04600598 -0.19085407
0.20345776 -0.21697474 0.049576923 -0.14021179 -0.012543295 0.29664737 -0.11593213 -0.057413105
-0.022044608 -0.22432795 0.28241947 -0.13992424 0.22190884 -0.15552741 0.058566533 -0.20466499
-0.0019380266 0.11976795 0.19265637 0.2742149 -0.25440523 0.26435643 -0.22967936 -0.20423904
0.083500706 -0.078507125 0.0438784 0.20007604 0.091084264 -0.14125201 0.011894094 0.30128706
0.13710028 -0.14385426 -0.23873438 -0.08806475 -0.049866896 -0.25256214 0.32221264 -0.15694577
0.10638333 0.25008294 -0.22405845 0.22808576 -0.19161466 -0.21148448 -0.03859053 -0.10718132
0.017510582 0.26339328 0.31720665 0.0938985 -0.2784129 0.15087257 0.009492047 0.12651321
0.06527813 0.09620529 0.061068796 -0.25886896 -0.22758533 0.08007481 0.07832217 -0.098042525
-0.04077121 0.32163692 0.25592896 0.060074206 -0.34319174 0.32341588 -0.16832644 -0.044755872
-0.25358507 0.07806004 0.13387118 -0.2768967 0.18219057 0.031181851 -0.23388499 0.2575439
-0.30419752 -0.09001376 -0.26298976 0.2804619 0.17393957 0.22537482 0.06366997 0.0368937
0.052176554 -0.11213396 0.2179137 -0.33436155 -0.20405902 0.27361667 -0.08143704 -0.07424959
0.13059208 -0.069092795 -0.09283996 0.030769529 0.35256678 -0.16366518 0.19743803 0.07818683
-0.18334924 0.02066456 0.044674866 -0.19681656 -0.14811674 -0.15394162 0.1692031 -0.09537131
-0.05010349 0.3223101 0.15709884 -0.20413542 -0.22892852 0.08279762 -0.18363826 0.12321343
-0.2393702 -0.043720733 0.2292696 0.22848098 0.0043673366 0.0059999856 -0.24102408 0.09448824
0.17458226 -0.1519813 0.22083017 0.209101 0.11304773 -0.24642047 0.2281419 0.20535257
-0.31244564 0.19667648 -0.13583054 -0.119887546 0.2114468 0.08037029 0.20766555 0.12419511
-0.31787083 -0.23707967 -0.24215542 0.242483 0.14816102 0.22457854 0.2547232 0.022339463
-0.01108967 -0.22034211 -0.13827604 0.21036693 0.1648281 -0.20731385 -0.22898985 -0.10542564
-0.2585734 -0.26585993 -0.046003018 0.0058605555 0.013114374 -0.054797214 0.23496377 0.1985452
-0.083739534 0.09382346 0.27919888 -0.12144772 0.09642165 -0.093669415 -0.25529134 -0.124119736
0.123475574 0.10147805 -0.19610675 0.094563484 -0.14511238 0.010432527 -0.18117881 0.1686465
-0.12901157 -0.29906937 -0.063601755 0.23723696 -0.14525019 0.10562502 0.251367 0.115047
00000000: 99f6 82bd e401 eb3d 9008 e4bd 7caa 233e
00000010: da25 643e 604f 803c ffb7 1c3e 9227 aa3d
00000020: c280 75be 979f 433e 7865 0cbd 97b3 2ebe
00000030: 63c6 ad3d 722f 25be 48e5 b6bd 37cb a1bd
00000040: 37c9 77be fc02 86be 478c 08be 51ca 843d
00000050: 1ed8 2cbe 70c5 283e 982b 2f3e b02d 4ebe
00000060: 3764 023e da94 03bb 9d2f 933c 66e1 223e
00000070: 02d6 543c b85d 1b3e 2e86 f3bc 7a66 5abe
00000080: 0b80 793e 73bd 4bbe fd2b 8fbe 48b7 ecbd
00000090: 7b53 f03b 9259 8e3e 780e 833e 7794 663d
000000a0: 3d35 34be 7cec 1fbe 22f7 553e 5f04 873e
000000b0: a39f 39be bd87 443d 5935 2bbe 9ff1 193e
000000c0: 5d12 a03c 527e 48be c0b7 583e 3847 d6bd
000000d0: 4b0a 18be 5bc4 4c3e 887e 893e 0490 6ebe
000000e0: 0337 6a3e 6c40 38bc 441b 91bd 8345 8fbe
000000f0: 108a d3bd 6c07 6d3d c470 3cbd 406f 43be
00000100: 3b57 503e a02e 5ebe 2c11 4b3d ae93 0fbe
00000110: 6482 4dbc 2ae2 973e d36d edbd 012a 6bbd
00000120: e596 b4bc 3ab6 65be 4999 903e 4d48 0fbe
00000130: 123c 633e 9442 1fbe 76e3 6f3d b393 51be
00000140: 6205 feba e648 f53d b647 453e e565 8c3e
00000150: 6741 82be ba59 873e 1131 6bbe 0a24 51be
00000160: 6b02 ab3d 58c8 a0bd d6b9 333d bce0 4c3e
00000170: 638a ba3d 5ea4 10be 72df 423c 4c42 9a3e
00000180: 0464 0c3e 884e 13be c976 74be 4b5b b4bd
00000190: 3b41 4cbd d34f 81be 0ef9 a43e 64b6 20be
000001a0: 81df d93d df0a 803e 946f 65be 508f 693e
000001b0: a236 44be 638f 58be 1b11 1ebd e181 dbbd
000001c0: 5a72 8f3c 7cdb 863e e968 a23e db4d c03d
000001d0: 238c 8ebe 577e 1a3e 8884 1b3c ae8c 013e
000001e0: 8ab0 853d 4707 c53d 4623 7a3d 798a 84be
000001f0: 210c 69be 43fe a33d 6067 a03d 85ca c8bd
00000200: b6ff 26bd 98ad a43e 1f09 833e 5f10 763d
00000210: d4b6 afbe c496 a53e c45d 2cbe ef51 37bd
00000220: e7d5 81be f1dd 9f3d 8715 093e 67c5 8dbe
00000230: 2a90 3a3e 1571 ff3c 8c7f 6fbe cbdc 833e
00000240: c7bf 9bbe 2259 b8bd 98a6 86be b498 8f3e
00000250: 371d 323e a8c8 663e 6765 823d d91d 173d
00000260: 15b7 553d 7da6 e5bd c524 5f3e 7031 abbe
00000270: d9f4 50be 7c17 8c3e 76c8 a6bd 2b10 98bd
00000280: eeb9 053e 8680 8dbd e022 bebd 6110 fc3c
00000290: a283 b43e d897 27be 322d 4a3e 6b20 a03d
000002a0: e7bf 3bbe b948 a93c fefc 363d 488a 49be
000002b0: eaab 17be dfa2 1dbe 9443 2d3e 0952 c3bd
000002c0: 5139 4dbd d405 a53e 85de 203e e008 51be
000002d0: 3d6c 6abe cc91 a93d ab0b 3cbe 5357 fc3d
000002e0: 761d 75be 8314 33bd a6c5 6a3e ebf6 693e
000002f0: e01b 8f3b 879b c43b 04cf 76be 0d83 c13d
00000300: b1c5 323e fca0 1bbe 4e21 623e 931e 563e
00000310: 9185 e73d a655 7cbe 089e 693e f247 523e
00000320: e0f8 9fbe 8f65 493e 2917 0bbe 9a87 f5bd
00000330: 8385 583e 2e99 a43d 47a6 543e 015a fe3d
00000340: f7bf a2be 03c5 72be 97f7 77be 774d 783e
00000350: 86b7 173e ebf7 653e 146b 823e 4001 b73c
00000360: 72b1 35bc 5da1 61be 3c98 0dbe 6e6a 573e
00000370: b3c8 283e 154a 54be 517c 6abe 66e9 d7bd
00000380: bc63 84be cb1e 88be a96d 3cbd e709 c03b
00000390: acdd 563c 0b73 60bd 589a 703e 6f4f 4b3e
000003a0: a27f abbd 8426 c03d 28f3 8e3e 95b9 f8bd
000003b0: b778 c53d c0d5 bfbd 8cb5 82be 7d32 febd
000003c0: c3e0 fc3d b9d3 cf3d 35d0 48be 80aa c13d
000003d0: 5798 14be 31ed 2a3c f086 39be abb1 2c3e
000003e0: 9c1b 04be 9f1f 99be a341 82bd 3fee 723e
000003f0: 77bc 14be ee51 d83d 2db3 803e c39d eb3d

bias f4 [64]
-0.0076474873 0.08694423 0.06148532 -1.9820516e-05 0.016572755 -0.023059977 0.053622324 -0.10417841
0.009183906 0.018162325 -0.007717965 0.02410856 0.049718942 -0.06110338 -0.0027694295 0.034707725
-0.009073464 -0.012146519 0.003986408 0.08867866 -0.006578274 0.029953044 -0.018060658 0.014742145
0.046098914 -0.041089524 -0.0315708 0.0062412466 0.01957573 0.02018105 -0.06326733 -0.043345828
-0.00097600446 -0.036083374 0.024841174 -0.0042718705 0.025557803 0.010035925 -0.05990752 -0.09567687
0.020580962 -0.09147613 0.013580609 -0.012488001 0.040474143 -0.036593553 -0.053466912 0.069992214
0.0495623 0.033165023 0.03107022 -0.016487043 -0.030874312 -0.039428394 0.04654644 0.06643346
0.010272019 -0.0148535315 0.013839038 -0.011841506 0.061290197 0.0069026635 -0.010245006 -0.037218202
00000000: c697 fabb d10f b23d 08d8 7b3d 3c44 a6b7
00000010: 96c3 873c 47e8 bcbc 15a3 5b3d 7d5b d5bd
00000020: 1878 163c 28c9 943c fce6 fcbb 517f c53c
00000030: 17a6 4b3d 8a47 7abd 517f 35bb b029 0e3d
00000040: dea8 14bc 3102 47bc 6aa0 823b 289d b53d
00000050: 908e d7bb 1660 f53c f2f3 93bc 0a89 713c
00000060: 37d2 3c3d 7d4d 28bd 6250 01bd 5f83 cc3b
00000070: 485d a03c bb52 a53c 4d92 81bd 658b 31bd
00000080: 8dda 7fba 29cc 13bd b87f cb3c 0cfb 8bbb
00000090: 995e d13c b86d 243c 9661 75bd 3cf2 c3bd
000000a0: 6899 a83c d657 bbbd 3481 5e3c 799a 4cbc
000000b0: 37c8 253d 1fe3 15bd 1f00 5bbd 1458 8f3d
000000c0: d701 4b3d 0cd8 073d f986 fe3c d60f 87bc
000000d0: 20ec fcbc ab7f 21bd 7ba7 3e3d 440e 883d
000000e0: f84b 283c 3a5c 73bc 22bd 623c e002 42bc
000000f0: 6e0b 7b3d bd2f e23b abda 27bc 1d72 18bd

in_proj_weight f4 [192, 64]
-0.033899307 0.062336996 0.018052733 0.022879144 0.060810212 0.021057572 -0.023931177 0.0001681413
0.031283163 0.024739789 -0.030300304 0.04108579 0.009688408 -0.046453774 -0.020142855 0.03772906
0.003502892 -0.029274937 -0.0035732142 0.01700259 0.005130941 -0.015187551 -0.022348601 0.091257215
0.023793222 0.0032534434 -0.05170961 0.0041876384 0.013729883 -0.0062071183 -0.008991323 -0.09106415
0.0038513916 -0.010703771 0.031733587 -0.007889285 0.022083463 0.02360187 -0.054878607 -0.08836005
0.01197421 0.027018404 -0.058744553 0.004523584 0.014670317 0.008143973 -0.020441905 0.019282892
0.009916118 0.047877945 0.023550877 0.010318981 -0.04758128 0.015091367 0.0062358533 0.04106386
0.014536892 -0.0531674 -0.0045881053 -0.017385453 0.029320842 0.013677746 0.018677644 -0.044677332
-0.026937883 0.04089743 0.014997651 0.021125209 0.058433607 0.012831332 -0.036856927 -0.0017493035
0.024780607 0.01827257 -0.027157743 0.032398947 0.0074790563 -0.07834469 -0.011812887 0.033129103
0.0030839872 -0.013243834 -0.005942137 0.0121351965 0.017525718 -0.013033923 -0.013335955 0.044083934
0.0153524475 -0.012179982 -0.04170288 0.0037234153 0.013713286 -0.008177906 -0.009990071 -0.052243575
-9.008289e-05 -0.004971803 0.026268993 -0.002178071 0.023419213 0.013164258 -0.04030223 -0.110770404
0.00907894 0.023379369 -0.041434962 0.004572368 0.0007372329 0.0076595643 -0.018412674 0.014331274
0.009690816 0.039978825 0.08738314 0.009562453 -0.03295907 0.015310831 0.001014148 0.044688653
0.02484311 -0.034533747 -0.009838292 -0.018259257 0.019964825 0.04252308 0.016964648 -0.032979943
-0.025342556 0.076838695 0.02187523 0.031090263 0.0385284 0.012708017 -0.051338665 0.0026670578
0.0331343 0.022239005 -0.03790418 0.038658496 0.010212289 -0.07021424 -0.010302398 0.04893837
-0.00092374225 -0.012585763 0.0014854826 0.008428927 0.019361993 -0.01910258 -0.009711321 0.08358541
0.016932506 0.011175319 -0.12654601 0.004083495 0.018113332 -0.028375447 -0.017892735 -0.091088355
-0.0029400417 -0.0023017575 0.05652569 0.00016708228 0.03582546 0.03728861 -0.02076783 -0.13214238
0.008331431 0.031778768 -0.06195925 0.0075647943 -0.006136245 0.0103687635 -0.028054096 0.01732208
0.008007699 0.058970127 0.09855323 0.01168134 -0.04926411 0.012246315 0.016194537 0.030420225
0.043452173 -0.057609916 0.0002448594 -0.02896001 0.015999869 0.03974926 0.023991851 -0.036503796
-0.024451178 0.03587121 0.014319337 0.020855151 0.017608287 0.014440097 -0.032153465 -0.0017460997
0.022520313 0.016951373 -0.027228255 0.035407312 0.0077657104 -0.06837438 -0.00833768 0.034488454
0.0028478294 -0.02045727 -0.008376145 0.014091882 0.017697489 -0.013453885 -0.013738822 0.07599111
0.013232765 -0.010633164 -0.08350294 0.0039801183 0.01372104 -0.015938021 -0.01364598 -0.0472669
-0.0012416957 -0.004724051 0.041176517 -0.00059022056 0.023609536 0.023459379 -0.01925692 -0.105129614
0.01014912 0.022843005 -0.048294254 0.004346798 -0.0065994347 0.0079600075 -0.018686555 0.014322119
0.005391265 0.05794816 0.068337776 0.009688861 -0.039791435 0.0043979357 0.011800058 0.021933716
0.04636951 -0.019317161 0.0006089837 -0.018485561 0.016024368 0.014057278 0.01687679 -0.036538508
00000000: 00da 0abd 1455 7f3d 53e3 933c 0b6d bb3c
00000010: 2114 793d ee80 ac3c 510b c4bc 164f 3039
00000020: c622 003d 19ab ca3c 5838 f8bc 9349 283d
00000030: 21bc 1e3c 5046 3ebd a102 a5bc c989 1a3d
00000040: c790 653b fed1 efbc 962c 6abb 0449 8b3c
00000050: 7421 a83b 35d5 78bc 6a14 b7bc 10e5 ba3d
00000060: 01ea c23c b937 553b 75cd 53bd 7538 893b
00000070: 4ef3 603c 1565 cbbb 5850 13bc d77f babd
00000080: a167 7c3b df5e 2fbc 14fb 013d 0f42 01bc
00000090: 61e8 b43c b558 c13c 64c8 60bd 1df6 b4bd
000000a0: 7a2f 443c b355 dd3c 219e 70bd 933a 943b
000000b0: c55b 703c 4c6e 053c c875 a7bc 28f7 9d3c
000000c0: 3777 223c aa1b 443d c5ed c03c f110 293c
000000d0: 97e4 42bd c841 773c 2156 cc3b 9432 283d
000000e0: 252c 6e3c 0fc6 59bd d157 96bb f06b 8ebc
000000f0: 4332 f03c a018 603c dc01 993c 94ff 36bd
00000100: d6ac dcbc 1084 273d b5b8 753c c60e ad3c
00000110: 1458 6f3d 823a 523c 4af7 16bd e348 e5ba
00000120: b300 cb3c 5bb0 953c ea79 debc c2b4 043d
00000130: df12 f53b 2e73 a0bd d78a 41bc 62b2 073d
00000140: b81c 4a3b aafc 58bc 42b6 c2bb b4d2 463c
00000150: 1892 8f3c 3c8c 55bc 0d7f 5abc 5b91 343d
00000160: d588 7b3c 8c8e 47bc a4d0 2abd 8b04 743b
00000170: b1ad 603c a0fc 05bc 65ad 23bc 5cfd 55bd
00000180: e2ea bcb8 82ea a2bb 1232 d73c f8bd 0ebb
00000190: a6d9 bf3c e6ae 573c f313 25bd 98db e2bd
000001a0: d6bf 143c 1786 bf3c b5b7 29bd ced3 953b
000001b0: dd42 413a 15fd fa3b 2dd6 96bc b8cd 6a3c
000001c0: 3ac6 1e3c d6c0 233d eff5 b23d d6ab 1c3c
000001d0: 1700 07bd 48da 7a3c 29ed 843a 730b 373d
000001e0: c783 cb3c 4273 0dbd ca30 21bc 7094 95bc
000001f0: 468d a33c ae2c 2e3d 72f9 8a3c fa15 07bd
00000200: 319b cfbc 9b5d 9d3d af33 b33c 02b1 fe3c
00000210: f5cf 1d3d 4935 503c 7e48 52bd cec9 2e3b
00000220: d5b7 073d 932e b63c 6a41 1bbd 5f58 1e3d
00000230: 7251 273c 7ccc 8fbd 64cb 28bc 9a73 483d
00000240: 4b27 72ba 8434 4ebc 86b4 c23a 7b19 0a3c
00000250: 0b9d 9e3c 047d 9cbc 3c1c 1fbc d42e ab3d
00000260: 0ab6 8a3c af18 373c 4795 01be d7ce 853b
00000270: 6962 943c a073 e8bc c993 92bc 888c babd
00000280: b7ad 40bb 15d9 16bb 7b87 673d cf32 2f39
00000290: b8bd 123d f1bb 183d 4c21 aabc 5550 07be
000002a0: 8e80 083c 742a 023d fcc8 7dbd 18e2 f73b
000002b0: 8e12 c9bb bfe1 293c b4d1 e5bc 09e7 8d3c
000002c0: b932 033c a98a 713d 47d6 c93d 1763 3f3c
000002d0: 2ac9 49bd c5a4 483c 68aa 843c d633 f93c
000002e0: e8fa 313d 60f8 6bbd 7960 8039 8b3d edbc
000002f0: 2812 833c 1fd0 223d 8f8a c43c 0185 15bd
00000300: d64d c8bc b1ed 123d a79b 6a3c 6cd8 aa3c
00000310: 413f 903c 2896 6c3c 5ab3 03bd 62dd e4ba
00000320: 857c b83c 9bdd 8a3c ca0d dfbc 4207 113d
00000330: 8077 fe3b de07 8cbd c49a 08bc c443 0d3d
00000340: a6a2 3a3b 0196 a7bc 193c 09bc a3e1 663c
00000350: 53fa 903c af6d 5cbc cc18 61bc 3aa1 9b3d
00000360: 3dce 583c b936 2ebc 9703 abbd a76b 823b
00000370: 37ce 603c 7490 82bc 6393 5fbc f09a 41bd
00000380: 65c0 a2ba 36cc 9abb b5a8 283d 08b9 1aba
00000390: c968 c13c e22d c03c b0c0 9dbc 324e d7bd
000003a0: 7f48 263c 4121 bb3c 32d0 45bd 966f 8e3b
000003b0: 1240 d8bb b16a 023c 8c14 99bc 52a7 6a3c
000003c0: 35a9 b03b 0d5b 6d3d adf4 8b3d 07be 1e3c
000003d0: 58fc 22bd 8f1c 903b 0855 413c 56ae b33c
000003e0: f5ed 3d3d 063f 9ebc 34a4 1f3a 086f 97bc
000003f0: 8945 833c 7f50 663c 3241 8a3c 67a9 15bd

in_proj_bias f4 [192]
-0.062363792 -0.073807046 -0.13794293 -0.072604105 0.08717689 0.057008337 -0.08687937 -0.084894344
0.114419095 -0.15990141 0.09990792 -0.09315394 0.10340403 0.07893093 -0.08963529 -0.13870104
0.08457666 0.09729558 -0.089596786 0.079256386 -0.082903676 0.067485556 -0.10768258 0.019905236
-0.080626205 -0.08734294 0.078837916 0.07549272 -0.098809525 -0.0665466 0.102492735 0.1041599
0.056236427 0.027652666 0.06553978 0.049060855 0.07376431 -0.05334067 0.0069517065 -0.022916352
-0.055269774 0.07109656 -0.11549515 -0.010959331 -0.04450184 -0.085910246 0.08876154 0.021299263
-0.02154421 -0.0021333334 -0.006324196 0.010934351 -0.027287722 0.021111844 -0.03501722 0.0034751573
0.0020951545 -0.0028733243 0.024913045 0.0053728586 -0.007003483 0.0031136512 0.0009711949 0.0012933635
8.179242e-08 2.3978555e-07 -9.9374944e-08 1.7938113e-07 -2.2129785e-07 1.2615739e-07 3.498251e-07 4.836191e-08
-2.7638174e-08 3.1412125e-07 -3.6600676e-07 -1.3599507e-07 -1.18712116e-07 -3.3535332e-07 9.3157844e-08 2.4074572e-07
-2.4280567e-07 -6.59385e-07 5.4530415e-07 -5.5863393e-07 4.1608408e-07 -3.5873532e-07 4.912142e-07 -4.741211e-08
4.0195525e-07 4.668634e-07 -3.4239912e-07 -5.354e-07 7.075314e-07 1.8297118e-07 -5.254898e-07 -4.9450887e-07
-4.1903956e-08 -3.381268e-08 -5.9030246e-08 -9.84829e-08 -1.5178779e-07 -2.1402563e-08 -8.919858e-09 1.7915143e-08
1.12387646e-07 -1.10642844e-07 2.3754932e-08 1.9219536e-08 8.486593e-08 6.46374e-08 -7.75785e-08 -2.9680743e-08
3.8894584e-08 -1.553221e-10 7.495008e-09 -1.4794448e-08 4.0160735e-08 -4.278995e-08 -1.4318349e-08 -5.4683644e-09
-2.6683136e-09 6.6731753e-09 -5.3530293e-08 -8.69796e-09 9.659841e-10 -3.4387617e-09 8.442596e-11 -2.3456548e-09
0.009923148 0.00039774372 -0.017393751 -0.020071283 -0.016944503 0.021690754 -0.00019960658 -0.03708942
-0.020357277 0.0059585115 0.019535935 0.005798826 0.022270324 0.031258326 0.0012364602 -0.010441038
-0.042740434 -0.025468582 0.009117169 0.021914046 -0.020757893 0.019080898 0.026340883 -0.0027570014
-0.016376475 -0.0030507613 0.029979417 0.010992976 0.0013168994 0.008847342 -0.0015604375 -0.009705746
1.9567544e-05 -0.04334023 0.016390314 0.009006368 -0.020494452 -0.017124318 0.028776852 -0.04663095
-0.047754277 -0.006684894 -0.015440209 0.004772681 0.025681617 0.0037979102 -0.0123594925 0.0035787164
-0.031202555 0.023855332 -0.02400518 0.022910554 0.0015642835 0.0016272168 0.035518125 0.009258079
-0.025300195 -0.02930651 0.0013247996 0.014405082 0.02242407 0.0038179762 0.012394309 -0.010645731
00000000: 2d71 7fbd 2628 97bd e940 0dbe 76b1 94bd
00000010: cc89 b23d 9381 693d d0ed b1bd 16dd adbd
00000020: 8f54 ea3d 32bd 23be 869c cc3d 7ec7 bebd
00000030: 7ec5 d33d 8aa6 a13d b592 b7bd a507 0ebe
00000040: 8736 ad3d e842 c73d 857e b7bd 2c51 a23d
00000050: 67c9 a9bd de35 8a3d af88 dcbd 4e10 a33c
00000060: 5a1f a5bd dbe0 b2bd c675 a13d ed9b 9a3d
00000070: a65c cabd 9549 88bd b6e7 d13d c951 d53d
00000080: 2b58 663d d887 e23c b839 863d 09f4 483d
00000090: be11 973d bf7b 5abd 24cb e33b 13bb bbbc
000000a0: 8f62 62bd 139b 913d b988 ecbd c48e 33bc
000000b0: 9047 36bd b6f1 afbd 9cc8 b53d cb7b ae3c
000000c0: 7c7d b0bc 65cf 0bbb 333b cfbb fe25 333c
000000d0: 808a dfbc bff2 ac3c 376e 0fbd 77bf 633b
000000e0: dc4e 093b 624e 3cbb 7116 cc3c ce0e b03b
000000f0: 797d e5bb 660e 4c3b c997 7e3a 1486 a93a
00000100: dca5 af33 e0bb 8034 f467 d5b3 e99b 4034
00000110: e49d 6db4 e175 0734 98cf bb34 7bb6 4f33
00000120: fd68 edb2 7fa4 a834 967f c4b4 0a06 12b4
00000130: adee feb3 9c0a b4b4 110e c833 d73f 8134
00000140: f55a 82b4 9800 31b5 0461 1235 08f5 15b5
00000150: 2962 df34 3598 c0b4 fcdb 0335 2ba2 4bb3
00000160: 4fcc d734 38a5 fa34 fad2 b7b4 68b8 0fb5
00000170: 30ed 3d35 bc76 4434 620f 0db5 64be 04b5
00000180: e3f9 33b3 6f39 11b3 7188 7db3 8c7d d3b3
00000190: 1cfb 22b4 bcd8 b7b2 f33d 19b2 d1e3 9932
000001a0: c359 f133 8c9a edb3 a60d cc32 3518 a532
000001b0: 8a3f b633 c9ce 8a33 3b99 a6b3 a5f4 feb2
000001c0: 0c0d 2733 49c7 2aaf 65c3 0032 ac2a 7eb2
000001d0: 327d 2c33 0cc8 37b3 c4fc 75b2 3ee4 bbb1
000001e0: 785d 37b1 df49 e531 2ee9 65b3 086e 15b2
000001f0: 8bc3 8430 564f 6cb1 97a7 b92e 3231 21b1
00000200: b394 223c 4288 d039 577d 8ebc 886c a4bc
00000210: 33cf 8abc cfb0 b13c 7c4d 51b9 13eb 17bd
00000220: 4ec4 a6bc 9e3f c33b d309 a03c 1404 be3b
00000230: 4170 b63c bb08 003d b810 a23a e310 2bbc
00000240: 9810 2fbd 7da3 d0bc 2e60 153c 1685 b33c
00000250: 750c aabc 8b4f 9c3c d6c8 d73c cfae 34bb
00000260: f527 86bc 48ef 47bb 6597 f53c e21b 343c
00000270: d09b ac3a 71f4 103c 9887 ccba d904 1fbc
00000280: fb24 a437 8685 31bd fb44 863c 728f 133c
00000290: fbe3 a7bc 4c48 8cbc 6fbd eb3c 1800 3fbd
000002a0: fd99 43bd f50c dbbb eef8 7cbc 2664 9c3b
000002b0: 4162 d23c 5ce6 783b 787f 4abc e688 6a3b
000002c0: 809c ffbc 426c c33c 83a6 c4bc eaae bb3c
000002d0: a508 cd3a 5648 d53a 747b 113d 33af 173c
000002e0: 5b42 cfbc 3514 f0bc e6a4 ad3a 4b03 6c3c
000002f0: afb2 b73c 0337 7a3b 8011 4b3c 6f6b 2ebc

weight f4 [64, 64]
0.03595528 0.035760805 -0.0901457 0.14166665 0.05495867 -0.012204194 0.001951948 -0.039946064
-0.015560406 0.028678041 -0.03804755 0.09690977 -0.11708501 0.1527718 0.0028993639 0.009295941
0.0069514965 -0.04986349 0.100672014 0.02554105 0.0033574924 0.021792809 -0.085167654 -0.093371026
-0.03711997 0.043961838 -0.16297674 0.1066423 -0.046825964 0.06350573 0.15041146 -0.11935134
-0.1522603 0.0646563 0.05417033 -0.017140491 0.09128847 -0.10491514 0.15760498 -0.075911954
-0.06629421 0.13605319 0.019653121 -0.03958765 -0.16985092 0.031141285 -0.054490615 -0.17116992
0.005077825 -0.0068906285 -0.07027845 0.019539267 0.08594459 -0.0154278455 -0.15451436 0.013372342
0.014450886 -0.07874895 -0.103234135 -0.03474049 -0.09616951 0.1429557 -0.021507692 0.14311887
0.08883329 0.15571268 0.07183944 0.12795608 -0.16012146 0.08411638 -0.11067093 -0.116582416
-0.054663885 -0.043943148 -0.10296302 0.010634493 -0.0710244 0.0944511 -0.02976373 -0.030841773
-0.04640329 -0.010424932 -0.05186523 -0.07955119 -0.01107005 -0.08246779 0.13239881 0.11178708
0.032842148 -0.093998045 -0.100878656 0.14337078 0.14293389 -0.00011113054 0.055443864 -0.129546
-0.06135717 0.03632784 0.0638767 0.047267128 -0.007827457 -0.029887592 0.03479732 0.020240175
-0.08991655 0.07354398 0.015403853 0.16875046 0.022421313 0.103650615 0.08115001 0.024730098
-0.058756486 -0.11999436 -0.059002783 0.024840632 -0.064798854 0.0931529 0.04455368 -0.05165441
0.023492858 -0.009459682 -0.025474263 0.030732619 0.042147156 0.083352484 0.09383622 0.060866475
0.056342036 -0.006385838 -0.16348372 -0.008491884 -0.14111911 0.022051489 -0.00050057704 -0.10070653
0.1785434 -0.13003303 -0.018599018 -0.21218632 -0.11904752 -0.09390001 0.042396832 0.021909948
-0.052640337 0.08282972 0.15959759 0.130619 0.06883114 0.06369384 -0.20097941 0.072006404
-0.07601089 0.1071212 0.016178431 -0.19171819 -0.13915116 0.1457892 -0.18928988 -0.11498822
-0.030487146 -0.15937532 0.10479653 0.05715702 -0.058732606 -0.1594042 -0.090066455 -0.08173391
0.037181273 0.08136975 -0.014003927 -0.043107238 0.015236001 0.019820914 -0.09476652 0.01618307
0.08337022 -0.12610845 0.108882934 0.085908175 0.06372744 -0.1219552 -0.066657 0.10864483
-0.04668554 0.1882204 0.06424174 0.067598455 0.021223329 -0.087326884 0.1708015 -0.15576077
-0.092320465 -0.082546785 0.12358882 -0.060964428 -0.047750857 -0.069504485 -0.13113634 -0.1839716
-0.077434376 0.012381576 0.1812829 0.020965777 -0.20346683 -0.14638275 -0.1383917 -0.11205984
0.037760608 -0.013858801 0.14674214 -0.1540442 0.051303346 -0.08816162 -0.16884941 0.019154118
0.017840788 -0.17055325 -0.12997495 -0.07001821 -0.09111312 -0.039904494 0.024122085 0.06314516
-0.09015415 0.080628715 -0.14266194 -0.052914154 0.011935343 -0.08703795 0.116040446 0.14001448
0.08917243 0.14689758 0.07924475 0.020139778 -0.03905383 0.027294824 -0.07481612 0.14418338
-0.043881558 -0.010583278 -0.15956686 -0.057447422 0.048616752 -0.04602546 -0.10318236 -0.0031112721
0.0071433913 0.11570629 0.008606608 0.17212476 0.1324731 0.0037935348 -0.13687651 -0.08610707
00000000: d845 133d ec79 123d 4f9e b8bd 1011 113e
00000010: 581c 613d 1af4 47bc 82d8 ff3a 7c9e 23bd
00000020: 13f1 7ebc 36ee ea3c bfd7 1bbd a178 c63d
00000030: 44ca efbd 3670 1c3e 4103 3e3b 014e 183c
00000040: 61c9 e33b a93d 4cbd 212d ce3d 773b d13c
00000050: 6009 5c3b d586 b23c 616c aebd 4f39 bfbd
00000060: 1c0b 18bd 5411 343d 60e3 26be 4767 da3d
00000070: 95cc 3fbd 4b0f 823d 7605 1a3e 7a6e f4bd
00000080: 20ea 1bbe 866a 843d b5e1 5d3d 376a 8cbc
00000090: 73f5 ba3d c0dd d6bd 3363 213e ba77 9bbd
000000a0: 42c5 87bd 8751 0b3e 95ff a03c a926 22bd
000000b0: 66ed 2dbe 021c ff3c 8d31 5fbd 2b47 2fbe
000000c0: e263 a63b c8ca e1bb 26ee 8fbd d010 a03c
000000d0: b803 b03d 13c5 7cbc 0339 1ebe ab17 5b3c
000000e0: 69c3 6c3c 2147 a1bd 6b6c d3bd 0b4c 0ebd
000000f0: 85f4 c4bd fb62 123e e630 b0bc c18d 123e
00000100: 3aee b53d 2573 1f3e 8e20 933d eb06 033e
00000110: e1f6 23be 3545 ac3d 71a7 e2bd c3c2 eebd
00000120: 3de7 5fbd bbfd 33bd 47de d2bd 4c3c 2e3c
00000130: 3e75 91bd 946f c13d 11d3 f3bc e3a7 fcbc
00000140: 6011 3ebd 56cd 2abc a370 54bd bceb a2bd
00000150: 285f 35bc dfe4 a8bd 8e93 073e a0f0 e43d
00000160: 7d85 063d 0c82 c0bd 7899 cebd cacf 123e
00000170: 435d 123e c10e e9b8 1b19 633d b5a7 04be
00000180: a851 7bbd 80cc 143d cad1 823d 2d9b 413d
00000190: bc3e 00bc d3d6 f4bc a287 0e3d b9ce a53c
000001a0: 2b26 b8bd 3a9e 963d 7160 7c3c eccc 2c3e
000001b0: e7ac b73c c646 d43d fa31 a63d c696 ca3c
000001c0: a4aa 70bd 9abf f5bd e7ac 71bd 957e cb3c
000001d0: 43b5 84bd f3c6 be3d eb7d 363d 9393 53bd
000001e0: 1874 c03c c8fc 1abc 67af d0bc f9c2 fb3c
000001f0: 7fa2 2c3d b5b4 aa3d 342d c03d 204f 793d
00000200: e8c6 663d 4b40 d1bb 4768 27be 8b21 0bbc
00000210: 8781 10be 53a5 b43c 2839 03ba 3a3f cebd
00000220: 15d4 363e 6127 05be f85c 98bc 5f47 59be
00000230: 30cf f3bd a64e c0bd 4da8 2d3d 7e7c b33c
00000240: 659d 57bd a1a2 a93d 8d6d 233e fdc0 053e
00000250: 57f7 8c3d ea71 823d 8ccd 4dbe 1878 933d
00000260: 99ab 9bbd 5c62 db3d a188 843c c651 44be
00000270: a47d 0ebe c449 153e 35d5 41be f27e ebbd
00000280: 2ec0 f9bc 4933 23be 909f d63d 7b1d 6a3d
00000290: 9a91 70bd db3a 23be c374 b8bd 1c64 a7bd
000002a0: 644b 183d 2fa5 a63d ba70 65bc 3791 30bd
000002b0: 6ca0 793c 785f a23c f314 c2bd 5c92 843c
000002c0: 02be aa3d 9322 01be 04fe de3d a0f0 af3d
000002d0: 8883 823d a6c3 f9bd 7783 88bd 2e81 de3d
000002e0: 5639 3fbd d9bc 403e 2c91 833d 0f71 8a3d
000002f0: 8cdc ad3c 70d8 b2bd 97e6 2e3e c07f 1fbe
00000300: 8312 bdbd 4a0e a9bd 231c fd3d d6b5 79bd
00000310: 6796 43bd 5e58 8ebd 9b48 06be 0d63 3cbe
00000320: ea95 9ebd 18dc 4a3c 39a2 393e 6cc0 ab3c
00000330: 9c59 50be 5ce5 15be 8eb6 0dbe a17f e5bd
00000340: deaa 1a3d 0610 63bc 9243 163e c3bd 1dbe
00000350: 7523 523d 148e b4bd dce6 2cbe 19e9 9c3c
00000360: d826 923c 83a5 2ebe 2718 05be b565 8fbd
00000370: 8499 babd e572 23bd ae9b c53c 4052 813d
00000380: bda2 b8bd ab20 a53d f915 12be 83bc 58bd
00000390: 758c 433c f440 b2bd 9da6 ed3d f55f 0f3e
000003a0: 09a0 b63d 526c 163e 124b a23d 2dfc a43c
000003b0: e9f6 1fbd 6599 df3c 3239 99bd cfa4 133e
000003c0: 26bd 33bd 7c65 2dbc 7f65 23be fd4d 6bbd
000003d0: 5c22 473d 3185 3cbd 4651 d3bd 7ce6 4bbb
000003e0: 1c13 ea3b 6bf7 ec3d bb02 0d3c 7941 303e
000003f0: 07a7 073e f49c 783b 5b29 0cbe e758 b0bd

bias f4 [64]
0.0017192637 0.0026577339 -0.0009353236 -0.0041876934 0.0015550345 0.0026844093 0.0003305114 0.0036156306
0.0006555752 -0.0020853183 -0.0055101668 -0.00066930876 -0.00036942321 -0.007634142 0.0062397947 0.0020056295
0.00045426376 0.00047237653 0.006440537 0.008809911 0.0007778842 -0.0014543474 -0.00043604392 -0.00040470992
-0.0045261523 -0.001975805 0.004680243 -0.004938282 0.0061809197 0.0023156384 -0.00092491147 -0.0027752183
-0.00059066346 0.0034116271 -0.0025369565 0.0019271453 0.004199212 -0.0013368503 0.0033445805 0.0034350879
0.001309301 -0.004560288 0.007399087 -0.0016769423 0.002787896 -0.0010035225 -0.0027562487 0.0037642287
-0.003545161 -0.0042993645 -0.0008396674 -0.0028653627 -0.0024243814 -0.0021220318 0.0039061795 -0.003502165
0.00078581326 0.00039285296 -0.0006677083 0.0013394152 0.0009890021 -0.0025590134 -0.0019660764 0.00080871466
00000000: eb58 e13a 602d 2e3b 8130 75ba eb38 89bb
00000010: 4dd2 cb3a eaec 2f3b 7d48 ad39 37f4 6c3b
00000020: e8da 2b3a d6a9 08bb a18e b4bb 8d74 2fba
00000030: 25af c1b9 d327 fabb 3177 cc3b e170 033b
00000040: 402a ee39 4ea9 f739 240b d33b 7257 103c
00000050: edea 4b3a cd9f beba d39c e4b9 3f2f d4b9
00000060: 1e50 94bb 827c 01bb b95c 993b 50d1 a1bb
00000070: 5089 ca3b f7c1 173b c275 72ba 70e0 35bb
00000080: c1d6 1aba 9b95 5f3b 1143 26bb 4498 fc3a
00000090: 8b99 893b 4139 afba c030 5b3b 361f 613b
000000a0: da9c ab3a 786e 95bb 0a74 f23b d9cc dbba
000000b0: 22b5 363b a188 83ba 2ea2 34bb 47b1 763b
000000c0: ef55 68bb afe1 8cbb 201d 5cba cfc8 3bbb
000000d0: 5fe2 1ebb c911 0bbb d1fe 7f3b 9484 65bb
000000e0: 09ff 4d3a d5f7 cd39 2509 2fba 518f af3a
000000f0: 67a1 813a 1fb5 27bb 4ad9 00bb ecff 533a

weight f4 [256, 64]
-0.08534 0.15605032 -0.009317625 -0.17263691 -0.034782004 -0.01785789 0.049203593 -0.16605553
0.030653222 0.088714525 0.0874401 0.08349152 0.13028958 -0.020121666 0.080993086 -0.0070981877
0.02184664 -0.20355067 -0.026186254 -0.14751446 -0.06627726 -0.08733747 -0.07082796 -0.043467354
0.11440177 -0.023175107 -0.049927004 -0.010341063 0.16240421 -0.14774184 0.00438394 -0.06836962
0.0105404835 -0.105908155 -0.05036642 0.03009182 0.09134829 0.14504714 -0.10117942 0.08818542
0.034124374 0.14374726 -0.084805444 -0.21522741 -0.11055294 0.055292327 -0.04501582 0.028594412
0.18010952 -0.04524043 0.06896857 -0.026629083 0.044488057 0.028243365 0.024023164 0.04223004
-0.016702441 0.060679734 0.09680053 0.1174355 0.051927395 -0.053460248 -0.01912792 0.07410979
0.062135793 -0.03911042 -0.027328523 0.11996576 -0.056113098 0.09356869 -0.042015024 -0.09557815
-0.042437434 0.1885335 -0.09988547 0.16500266 -0.11448191 -0.09921569 0.09223762 -0.06216535
-0.112060286 -0.06419414 0.010011714 -0.046559088 -0.005686304 0.14272971 -0.06595927 -0.042743567
0.09041495 0.08034028 -0.006604459 -0.050461087 0.110624716 0.091232836 -0.12939236 0.08168674
-0.06888501 -0.0862769 -0.020488344 0.026587186 0.05557925 0.123048194 -0.11159696 0.13199787
-0.16303398 0.14117782 -0.11114447 -0.22633715 0.11505093 0.1596409 0.099881425 -0.1751995
0.027687589 -0.12433001 0.14775145 0.0014055268 -0.10799478 -0.121956654 0.09104269 0.018869253
-0.05943028 0.016879162 0.032476738 -0.0046778317 0.011744056 -0.016250119 0.09139335 0.028406851
0.10364096 0.08526098 -0.04949457 0.12503324 -0.07788848 -0.0025814157 0.080499575 -0.07060522
0.004270777 -0.008661242 -0.26157472 0.17112663 -0.095910594 0.043830287 0.009635245 0.17774473
-0.17456424 -0.128829 -0.09430003 -0.23806757 0.09590582 0.14630839 0.11421142 0.08437998
0.18345234 0.09356178 -0.13658963 -0.008846502 0.09568612 -0.23996867 -0.17698085 -0.07290045
-0.13696088 -0.13785343 0.009127937 -0.09601289 0.0064564324 0.09632226 0.09842646 -0.0059723696
-0.11620639 0.083196804 0.08806061 0.07503373 0.05867765 0.2223746 0.008478779 -0.18546464
0.048505515 -0.033820283 -0.017802289 0.01147583 -0.35282105 -0.014057284 0.0725933 0.032363325
-0.04429337 -0.2714269 0.06726108 -0.22347794 0.23209044 0.10405387 0.09682125 0.0816596
0.03930632 -0.06519287 -0.098718755 -0.045891758 0.014905389 0.06444519 -0.02811247 -0.059457064
-0.15902723 0.053524576 0.09627582 -0.0023268086 0.117585644 -0.08130811 0.051202554 0.0056255795
0.013954351 -0.051807687 -0.05158465 -0.14266905 -0.054960392 0.027209327 -0.11334011 -0.06892341
0.077193156 0.01571758 0.00081864605 -0.008559233 0.034307502 -0.11084973 -0.036519952 -0.0028637697
0.1374625 -0.015650997 -0.006885477 0.17141253 -0.14255133 0.018347602 0.07902939 0.11185639
-0.044539105 0.1566051 -0.07395432 0.12142017 -0.042304344 0.022492299 0.044789117 -0.026369112
-0.05040537 0.14968897 0.17478181 0.18296266 -0.07894028 -0.028098943 -0.12104871 0.010132579
0.015078398 -0.05598777 -0.013291922 0.14388552 -0.025270585 0.032516398 -0.1310446 0.14866035
00000000: bdc6 aebd a8cb 1f3e f4a8 18bc bbc7 30be
00000010: 9377 0ebd b64a 92bc b589 493d 760a 2abe
00000020: 771c fb3c f6af b53d cc13 b33d 9afd aa3d
00000030: a26a 053e 31d6 a4bc b4df a53d ea97 e8bb
00000040: baf7 b23c 966f 50be 8e84 d6bc 080e 17be
00000050: 5fbc 87bd fddd b2bd 400e 91bd d30a 32bd
00000060: 7a4b ea3d b9d9 bdbc 4280 4cbd 906d 29bc
00000070: 4a4d 263e a349 17be 27a7 8f3b 5f05 8cbd
00000080: feb1 2c3c 60e6 d8bd 054d 4ebd 1f83 f63c
00000090: d014 bb3d 3d87 143e 2837 cfbd 8f9a b43d
000000a0: 00c6 0b3d 7b32 133e 7aae adbd 9364 5cbe
000000b0: 9469 e2bd 357a 623d 8262 38bd d43e ea3c
000000c0: a16e 383e 074e 39bd 653f 8d3d 3c25 dabc
000000d0: 1c39 363d a15e e73c 3acc c43c 68f9 2c3d
000000e0: 8fd3 88bc 508b 783d 5b3f c63d 0682 f03d
000000f0: d2b1 543d 22f9 5abd 28b2 9cbc e0c6 973d
00000100: 1a82 7e3d 3f32 20bd 11e0 dfbc 9cb0 f53d
00000110: d9d6 65bd f1a0 bf3d f217 2cbd 7abe c3bd
00000120: e0d2 2dbd ed0e 413e c190 ccbd 75f6 283e
00000130: 7e75 eabd 9831 cbbd 14e7 bc3d 18a1 7ebd
00000140: dd7f e5bd 3878 83bd 2c08 243c beb4 3ebd
00000150: 2d54 babb bd27 123e a715 87bd e113 2fbd
00000160: 792b b93d 7289 a43d 386a d8bb 49b0 4ebd
00000170: 368f e23d 48d8 ba3d 6e7f 04be 614b a73d
00000180: 9613 8dbd f1b1 b0bd 2cd7 a7bc 5fcd d93c
00000190: 11a7 633d b100 fc3d f28c e4bd 732a 073e
000001a0: 61f2 26be eb90 103e b69f e3bd edc4 67be
000001b0: d29f eb3d e778 233e a28e cc3d 7f67 33be
000001c0: 15d1 e23c bba0 febd 284c 173e a739 b83a
000001d0: 5e2c ddbd 69c4 f9bd 9774 ba3d b193 9a3c
000001e0: 2a6d 73bd 2b46 8a3c 5406 053d 7f48 99bb
000001f0: 246a 403c f81e 85bc 702c bb3d 7cb5 e83c
00000200: b641 d43d 4f9d ae3d d1ba 4abd b708 003e
00000210: ff83 9fbd f82c 29bb f6dc a43d 7899 90bd
00000220: e0f1 8b3b e2e7 0dbc 1fed 85be d23b 2f3e
00000230: c66c c4bd 6387 333d 26dd 1d3c b702 363e
00000240: f8c0 32be c0eb 03be 6020 c1bd fcc7 73be
00000250: 456a c43d ded1 153e ade7 e93d 69cf ac3d
00000260: eeda 3b3e 529d bf3d 27de 0bbe ebf0 10bc
00000270: 16f7 c33d 59ba 75be 783a 35be d54c 95bd
00000280: 793f 0cbe 7329 0dbe 588d 153c 68a2 c4bd
00000290: 7b90 d33b 9b44 c53d d093 c93d deb3 c3bb
000002a0: 9efd edbd 1663 aa3d 1f59 b43d 49ab 993d
000002b0: fa57 703d 2bb6 633e 94ea 0a3c 71ea 3dbe
000002c0: b8ad 463d 2387 0abd 1bd6 91bc 1f05 3c3c
000002d0: f6a4 b4be 8650 66bc ccab 943d 688f 043d
000002e0: f76c 35bd 77f8 8abe 2dc0 893d 67d7 64be
000002f0: 1ea9 6d3e 321a d53d 384a c63d 263d a73d
00000300: aaff 203d d783 85bd 0f2d cabd fff8 3bbd
00000310: bc35 743c d7fb 833d 1f4c e6bc 4089 73bd
00000320: 09d8 22be 963c 5b3d 422c c53d 5f7d 18bb
00000330: bed0 f03d de84 a6bd c5b9 513d c856 b83b
00000340: caa0 643c 4c34 54bd 6d4a 53bd d617 12be
00000350: 261e 61bd 18e6 de3c dc1e e8bd b727 8dbd
00000360: 7217 9e3d 28c2 803c 689a 563a 063c 0cbc
00000370: 0686 0c3d 2f05 e3bd f295 15bd 15ae 3bbb
00000380: f8c2 0c3e 8536 80bc 919f e1bb c486 2f3e
00000390: faf8 11be b64d 963c 29da a13d f714 e53d
000003a0: a36e 36bd 165d 203e 5d75 97bd 23ab f83d
000003b0: 5247 2dbd c541 b83c cb74 373d 0904 d8bc
000003c0: dc75 4ebd 1148 193e 01fa 323e 905a 3b3e
000003d0: 71ab a1bd c12f e6bc 63e8 f7bd 1e03 263c
000003e0: 630b 773c 6f53 65bd 5dc6 59bc ba56 133e
000003f0: 4204 cfbc ea2f 053d 8e30 06be 6b3a 183e

bias f4 [256]
-0.07152393 -0.034045417 -0.06507944 -0.073240004 -0.06095251 -0.032260362 -0.027553478 -0.03244901
-0.06175205 -0.023514194 -0.05645575 -0.04419527 -0.034740843 -0.08098869 -0.061599635 -0.048693504
-0.03319516 -0.09152277 -0.033925068 -0.057032194 -0.014171801 -0.07492086 -0.048657596 -0.053796224
-0.07499324 -0.0447246 -0.016753498 -0.047006004 -0.06863718 -0.045247465 -0.051789578 -0.018266022
-0.10700749 -0.039319947 -0.0308378 -0.04572997 -0.07814804 -0.07184055 -0.023250561 -0.031730995
-0.03269869 -0.08044695 -0.04554762 -0.08258436 -0.03937077 -0.07323459 -0.04654341 -0.065356776
-0.034309432 -0.027916534 -0.06029109 -0.034510847 -0.09421226 -0.034630295 -0.021366648 -0.044764105
-0.04027583 -0.045076713 -0.049329832 -0.027125865 -0.06488202 -0.0372285 -0.042173073 -0.050680637
-0.04741669 -0.09187355 -0.07052328 -0.037405822 -0.03584618 -0.05196697 -0.04470297 -0.017640853
-0.021488987 -0.07441246 -0.019863155 -0.038591377 -0.028803451 0.021484107 -0.043410875 -0.02147678
-0.06941934 -0.043423936 -0.026947472 -0.064569764 -0.044690955 -0.06232158 -0.03750138 -0.037029233
-0.02841727 -0.06577961 -0.037563413 -0.02870126 -0.031316534 -0.05307005 -0.031551007 -0.059581984
-0.06822373 -0.045749266 -0.036687866 -0.025142122 -0.026423663 -0.042319957 -0.06725986 -0.06070418
-0.020395478 -0.05436519 -0.050062668 -0.058457285 -0.019873235 -0.059339505 -0.022314616 -0.04394603
-0.07262158 -0.044648774 -0.019921627 -0.10973518 -0.034625452 -0.066524975 -0.07797956 -0.01539408
-0.033437923 -0.03277858 -0.05137975 -0.06547773 -0.025620932 -0.07731921 -0.040965866 -0.04978089
-0.0165793 -0.041202996 -0.0319585 -0.056525487 -0.03627933 -0.031652525 -0.04220613 -0.022608783
-0.07294708 -0.0075199273 -0.031191915 -0.038011428 -0.06632465 -0.023060976 -0.03625002 -0.04328928
-0.05547076 -0.05985304 -0.037639637 -0.053328052 -0.04258332 -0.032116003 -0.029169805 -0.046159733
-0.04698524 -0.039982475 -0.030578004 -0.031476777 -0.021009967 -0.030850759 -0.056344435 -0.034453828
-0.034592867 -0.059430446 -0.030684918 -0.05392614 -0.03655674 -0.030143647 -0.042526226 0.0068453797
-0.0631834 -0.005509177 -0.035996493 -0.04789757 -0.040813316 -0.03313538 -0.040257417 -0.038336206
-0.030823326 -0.032033123 -0.03834544 -0.06712913 -0.04619653 -0.034914993 -0.05098849 -0.043978974
-0.022455974 -0.0034142358 -0.049875613 -0.05835442 -0.008229558 -0.01332016 -0.009105289 -0.03880819
-0.057992186 -0.04360605 -0.030614737 -0.088213906 -0.058356438 -0.03757584 0.004350724 -0.044557862
-0.04319149 -0.0638833 -0.06361395 -0.034594152 -0.06592363 -0.040507298 -0.05873606 -0.047242552
-0.0110662 -0.04398868 -0.036305618 -0.064303435 -0.039076906 -0.039388727 -0.052366287 -0.027091332
-0.027792616 -0.03141109 -0.05909653 -0.068043746 -0.04025692 -0.11139864 -0.048261706 -0.031354565
-0.061385166 -0.0060550245 -0.082644515 -0.018983532 -0.009673586 -0.019546187 -0.052062213 -0.0360713
-0.086458504 -0.015641727 -0.05075677 -0.038579326 -0.09668723 -0.069117375 -0.07788253 -0.04358259
-0.031308025 -0.03508538 -0.039326 -0.025051063 -0.075402126 -0.04625816 -0.030960599 -0.046825137
-0.024380993 -0.06062192 -0.035994526 -0.06486831 -0.065191634 -0.04075823 -0.047530077 -0.04444413
00000000: 237b 92bd 3573 0bbd 5f48 85bd dbfe 95bd
00000010: 57a9 79bd 7123 04bd d5b7 e1bc 41e9 04bd
00000020: b8ef 7cbd d7a0 c0bc 253e 67bd 1906 35bd
00000030: 6a4c 0ebd 66dd a5bd e64f 7cbd d772 47bd
00000040: a6f7 07bd 4a70 bbbd 03f5 0abd 979a 69bd
00000050: d730 68bc 1c70 99bd 304d 47bd 6e59 5cbd
00000060: 0e96 99bd 2431 37bd a23e 89bc 5e89 40bd
00000070: a691 8cbd 6855 39bd 4f21 54bd a0a2 95bc
00000080: be26 dbbd f40d 21bd 8e9f fcbc 594f 3bbd
00000090: 140c a0bd 2321 93bd f677 bebc 5cf8 01bd
000000a0: 10ef 05bd 5fc1 a4bd 2490 3abd fd21 a9bd
000000b0: 3f43 21bd 04fc 95bd 4da4 3ebd c6d9 85bd
000000c0: 0c88 0cbd 37b1 e4bc caf3 76bd 3f5b 0dbd
000000d0: 5bf2 c0bd 7fd8 0dbd 1c09 afbc 915a 37bd
000000e0: 45f8 24bd 5ca2 38bd 140e 4abd 1037 debc
000000f0: dde0 84bd e97c 18bd acbd 2cbd 8096 4fbd
00000100: 0138 42bd 3328 bcbd 826e 90bd d936 19bd
00000110: 72d3 12bd 51db 54bd 761a 37bd 8d83 90bc
00000120: ac09 b0bc 8f65 98bd 0eb8 a2bc fe11 1ebd
00000130: 37f5 ebbc 70ff af3c 9acf 31bd 12f0 afbc
00000140: ba2b 8ebd 4cdd 31bd f2c0 dcbc 273d 84bd
00000150: dd0d 37bd ea44 7fbd 0c9b 19bd f7ab 17bd
00000160: 56cb e8bc 76b7 86bd 18dc 19bd e81e ebbc
00000170: c445 00bd fb5f 59bd a13b 01bd 3d0c 74bd
00000180: e2b8 8bbd 9563 3bbd 0446 16bd daf6 cdbc
00000190: 7076 d8bc b157 2dbd 8abf 89bd f2a4 78bd
000001a0: 6b14 a7bc 09ae 5ebd 830e 4dbd e870 6fbd
000001b0: 32cd a2bc fb0d 73bd 24cd b6bc c100 34bd
000001c0: 9fba 94bd a2e1 36bd ae32 a3bc d7bc e0bd
000001d0: 6bd3 0dbd 3f3e 88bd bfb3 9fbd 7437 7cbc
000001e0: 34f6 08bd d542 06bd 9373 52bd 3019 86bd
000001f0: fde2 d1bc 8959 9ebd d3cb 27bd 0ce7 4bbd
00000200: 50d1 87bc 79c4 28bd ebe6 02bd 4587 67bd
00000210: a299 14bd 14a6 01bd 56e0 2cbd 0e36 b9bc
00000220: 4765 95bd b969 f6bb 3086 ffbc dfb1 1bbd
00000230: 38d5 87bd 5fea bcbc e77a 14bd 1a50 31bd
00000240: 4f35 63bd 7628 75bd 052c 1abd 846e 5abd
00000250: d96b 2ebd 128c 03bd 84f5 eebc fd11 3dbd
00000260: 9873 40bd aac4 23bd b97e fabc cbed 00bd
00000270: 181d acbc bbba fcbc 6cc9 66bd 751f 0dbd
00000280: 40b1 0dbd 576d 73bd f05e fbbc a8e1 5cbd
00000290: 85bc 15bd cfef f6bc fb2f 2ebd 354f e03b
000002a0: 4c66 81bd 5486 b4bb 0f71 13bd 3e30 44bd
000002b0: dd2b 27bd f7b8 07bd f6e4 24bd 6d06 1dbd
000002c0: 3381 fcbc 2a35 03bd 1c10 1dbd ff7a 89bd
000002d0: 9338 3dbd 0603 0fbd 4fd9 50bd 4c23 34bd
000002e0: 97f5 b7bc 5fc1 5fbb 5f4a 4cbd 0b05 6fbd
000002f0: 45d5 06bc cd3c 5abc 5a2e 15bc 56f5 1ebd
00000300: 3789 6dbd 429c 32bd c2cb fabc 7ea9 b4bd
00000310: 2907 6fbd 20e9 19bd 8590 8e3b 4e82 36bd
00000320: 8fe9 30bd 3fd5 82bd 0848 82bd 99b2 0dbd
00000330: f802 87bd fbea 25bd 3995 70bd 6881 41bd
00000340: 024f 35bc 792d 34bd 33b5 14bd 85b1 83bd
00000350: 1b0f 20bd 1356 21bd 087e 56bd a4ee ddbc
00000360: 57ad e3bc eaa8 00bd 340f 72bd 855a 8bbd
00000370: 71e4 24bd f824 e4bd 11ae 45bd a56d 00bd
00000380: 036f 7bbd 3a69 c6bb 8741 a9bd 5a83 9bbc
00000390: f67d 1ebc 531f a0bc 303f 55bd 80bf 13bd
000003a0: 2811 b1bd 1423 80bc 55e6 4fbd 5b05 1ebd
000003b0: f403 c6bd 698d 8dbd e080 9fbd a883 32bd
000003c0: d83c 00bd b0b5 0fbd 4d14 21bd e337 cdbc
000003d0: 6e6c 9abd 3279 3dbd 15a1 fdbc b7cb 3fbd
000003e0: a6ba c7bc b14e 78bd ff6e 13bd add9 84bd
000003f0: 3183 85bd 1af2 26bd e6ae 42bd 0c0b 36bd
