CNP-model-save-name/saved_models/model_12000.pth (torch, 114363 bytes, 20 tensors)

weight_ih_l0 f4 [128, 2]
000000 cc d2 cf be a2 10 e5 be f1 47 9e be 10 a1 ce bd
       -0.40590513 -0.44739252 -0.30914262 -0.10089314
000010 0d 8e 8d be 79 2a 0b bf 2b d4 ae be c1 20 cf be
       -0.2764744 -0.54361683 -0.34146246 -0.40454677
000020 7a 5c b6 be d1 65 7c be 73 59 98 be 4a c4 c0 be
       -0.3561743 -0.24648215 -0.29755744 -0.37649757
000030 a4 3f aa be f4 b3 aa be fe 1a d4 be b4 c9 d9 be
       -0.3325168 -0.33340418 -0.41426843 -0.425367
000040 9d b2 a9 be c9 0c b6 be 0c 35 9e be a8 37 a5 be
       -0.33144084 -0.3555663 -0.30899847 -0.32269025
000050 9b b1 a9 be 42 7a b8 be 22 ad 7f be 13 3e b7 be
       -0.33143315 -0.36030775 -0.24968389 -0.35789546
000060 57 2a b3 be 19 00 c6 be 08 d4 22 be 7b 21 8d be
       -0.3499324 -0.3867195 -0.15901196 -0.27564606
000070 74 87 aa be 8f 3b 86 be 94 20 02 bf bb 11 b8 be
       -0.33306468 -0.26217315 -0.5083096 -0.35951027
000080 44 12 08 be 3c 33 49 be 06 d1 91 be 8f 88 ec be
       -0.13288218 -0.1964845 -0.28479785 -0.46197936
000090 42 e0 0a be 98 d2 8e be fd ed 7b be 13 d3 b2 be
       -0.1356211 -0.27895045 -0.24602504 -0.34926662
0000a0 fe 95 4a be 3d 9c 94 be fc 1b 83 be af c1 35 be
       -0.1978378 -0.2902545 -0.25607288 -0.17749666
0000b0 ae a4 ae be ea 2b b7 be 45 f2 e3 be 32 c5 b5 be
       -0.34110016 -0.3577569 -0.44520774 -0.3550201
0000c0 bc 4d a7 be 3e a8 88 be e1 eb e6 be c6 6e ea be
       -0.32676494 -0.2669086 -0.45101836 -0.45787638
0000d0 44 fa 83 be f0 5f a4 be 92 16 1f be 83 77 4e be
       -0.25776875 -0.32104445 -0.15535954 -0.20162778
0000e0 3f ed 79 be c2 6d a8 be a7 50 d8 be 4c 45 96 be
       -0.24406908 -0.3289624 -0.42249033 -0.29349744
0000f0 d7 86 e9 be 0d 6f 9e be 7a 1f 7c be a6 78 57 be
       -0.45610687 -0.309441 -0.24621382 -0.21042117
000100 78 4c 8c be 17 3d 4d be 39 54 c3 bd 0c 2d af be
       -0.2740209 -0.20042835 -0.095375486 -0.34214056
000110 f3 bb 0f be 07 51 d1 bd ee 6c 23 be b1 03 1b be
       -0.1403654 -0.10220533 -0.15959522 -0.15138127
000120 85 c3 f9 bd d2 a6 95 be f0 3a 82 be a9 ae 00 be
       -0.121954955 -0.29228836 -0.2543559 -0.12566628
000130 8a 6d 04 be 3a 7f 85 be f8 68 25 be 9f d5 b3 bd
       -0.12932411 -0.2607363 -0.16153324 -0.08780979
000140 82 23 cb bd 92 6a f4 bd b3 1b 59 be 91 94 5b be
       -0.09918882 -0.11934389 -0.21201973 -0.21443392
000150 2d fd a0 be f4 bc ae bd a1 50 08 be 9b 66 0d be
       -0.31443158 -0.08532134 -0.13312007 -0.13808672
000160 cc 90 fb bd 49 13 64 be d6 c1 25 be 76 66 3f be
       -0.12283477 -0.22272982 -0.16187224 -0.1869143
000170 37 03 88 be 7c fa 39 be dd 06 16 be 31 c9 99 be
       -0.26564953 -0.18161958 -0.14651056 -0.3003631
000180 d1 39 48 be 23 c9 8b be 7f bb 45 be f0 b8 81 be
       -0.19553305 -0.27301893 -0.19309805 -0.2533641
000190 a8 de 6a be 0c 7d 44 bd d2 8b 1d be 5f b1 a4 be
       -0.22936499 -0.047970816 -0.15385368 -0.32166573
0001a0 1b 33 c9 bd 3f ad 07 be 86 fe 46 be aa 59 44 be
       -0.09824201 -0.13249682 -0.1943303 -0.19174829
0001b0 72 54 22 be 87 3a 18 be 86 49 f3 bd 46 c1 1a be
       -0.15852526 -0.14866076 -0.11879258 -0.1511279
0001c0 bd 65 c1 bd a9 b8 55 be 03 e5 53 be 02 44 a1 be
       -0.09443233 -0.20871224 -0.2069283 -0.31497198
0001d0 66 12 f8 bd 68 66 01 be c1 3b 5e bd 1d a8 5d 3c
       -0.12112884 -0.12636721 -0.054256205 0.013528851
0001e0 b2 53 f3 bc 4b 87 17 be 3d 5f ed bd b3 07 25 be
       -0.029702995 -0.14797704 -0.11590431 -0.16116218
0001f0 55 50 1c be c4 bd 0d be 3c cf af bd 21 28 9d bd
       -0.15265019 -0.13841921 -0.08584449 -0.076736696
000200 50 e7 e0 bd 49 d8 73 3c bb 1e e0 bb af ab 43 bd
       -0.10981619 0.014883109 -0.006839601 -0.047771152
000210 bd 40 d7 3d d1 cf f4 bd 36 4a d7 3c fc d8 ad bd
       0.10510395 -0.119537 0.026280504 -0.08488652
000220 8c 91 8c 3b f8 7e c4 3d 7b 5f d9 3d 11 88 30 be
       0.0042898115 0.0959453 0.106139146 -0.17239405
000230 f6 d5 d2 3d 8b 12 b6 bd d0 b2 0b 3d be ff 03 3d
       0.10294716 -0.088902555 0.034106076 0.032226317
000240 82 fd 60 bc fb 11 2f bc 14 c9 28 3d 44 9c 86 3c
       -0.013732316 -0.010685439 0.041207388 0.016431935
000250 54 88 69 bd e3 70 2a 3e c3 bc e7 3c 26 d3 66 bb
       -0.05701478 0.16644625 0.02828825 -0.003522107
000260 db d0 19 3c 6e 02 b0 3d 7c 72 d1 bc 01 7c 35 bb
       0.009388174 0.085942134 -0.025567286 -0.002769232
000270 0e ab b7 bd 03 e1 f9 3d 02 21 91 bd bf ed 53 bd
       -0.08968173 0.12201121 -0.07086374 -0.051740404
000280 a5 78 67 3d 90 cf 7c 3d 05 08 03 3d 3e 87 a6 3d
       0.05651154 0.061721385 0.03199007 0.08131264
000290 d4 77 ff 3d c0 57 25 be f6 1d a8 bd aa 2b c4 3b
       0.12474027 -0.16146755 -0.082088396 0.0059866505
0002a0 61 df 74 3c 7a a6 08 3b 4f fe c1 bd c0 b1 c6 3d
       0.014945836 0.002085118 -0.09472334 0.09701872
0002b0 55 eb 7d bc 5c db 07 3d 5b 65 85 3c f6 df 1d 3d
       -0.015498002 0.03316818 0.016283682 0.038543664
0002c0 ce bd 83 bc 08 34 c8 bb 93 6c bf 3c fa 58 af bc
       -0.016081717 -0.0061097182 0.023367202 -0.021404732
0002d0 3a f9 a4 bb ea 5a 0d bc 0e e0 93 3c e8 be 0e be
       -0.005034593 -0.008627633 0.018051174 -0.13940012
0002e0 8d 26 91 bd 4a dd 4e 3e 43 09 17 3d 5d 4f a5 bd
       -0.07087431 0.20201603 0.036874067 -0.08071778
0002f0 d1 d1 6d 3d 5d f4 96 3d 4d 80 d7 ba da f2 2e 3d
       0.058061425 0.07370827 -0.0016441435 0.04271207
000300 ef 85 83 be a5 ec c6 be c0 32 91 be a5 1d 7c be
       -0.2568812 -0.3885242 -0.28359032 -0.24620683
000310 e3 7d 87 be 1e 1f f2 be 79 0f c2 be b4 6d d9 be
       -0.2646323 -0.47289366 -0.3790243 -0.4246651
000320 e4 08 d5 be c4 7e 20 be 0e b2 be be 70 f6 ac be
       -0.41608346 -0.15673357 -0.3724522 -0.33781767
000330 82 9c 7e be 21 3e af be e6 4d ad be 6a e2 a5 be
       -0.2486439 -0.34227088 -0.33848494 -0.32399303
000340 ab d9 59 be 86 02 85 be 31 c9 b1 be 16 23 eb be
       -0.2127444 -0.25978488 -0.3472381 -0.45925206
000350 5b 71 01 be 28 a9 47 be 71 e4 8b be 39 83 c1 be
       -0.12640898 -0.19498122 -0.27322724 -0.37795427
000360 f8 99 bf be 02 71 98 be 14 55 97 be a2 d1 50 be
       -0.37422156 -0.29773718 -0.29557097 -0.20392469
000370 82 c3 24 be b5 cc 60 be 35 1b cd be 9f b4 e7 be
       -0.16090205 -0.2195309 -0.4005982 -0.4525499
000380 bf a1 96 be 30 8e 7b be c1 d8 8f be 1c 09 d8 be
       -0.29420277 -0.24565959 -0.28095058 -0.4219445
000390 cc a4 0b be 82 0a 46 be 49 37 65 be 7c da 57 be
       -0.13637084 -0.19339946 -0.22384371 -0.21079439
0003a0 90 98 98 be 1e b0 96 be 7e b4 96 be be 0c 7d be
       -0.29803896 -0.29431242 -0.2943458 -0.24711892
0003b0 d0 6f 9f be 6b 1f df be ec 9c b3 be 6d aa b2 be
       -0.31139994 -0.43578658 -0.3508066 -0.3489565
0003c0 dc 37 81 be 6a 03 82 be 3c bc 9a be 75 d9 44 be
       -0.2523793 -0.2539323 -0.30221736 -0.19223578
0003d0 9a 5e 8e be 6b 94 ad be fe 95 62 be 7b 4b 52 be
       -0.2780655 -0.33902296 -0.2212753 -0.20536606
0003e0 ab f4 52 be 05 4c 8a be 11 2a c4 be 27 86 a7 be
       -0.20601146 -0.27011123 -0.38313344 -0.32719538
0003f0 0b b5 cd be 6c f4 56 be c8 09 ba be 39 9a cd be
       -0.40177187 -0.20991677 -0.36335588 -0.40156725

weight_hh_l0 f4 [128, 32]
000000 17 5c 1d bc 10 bd 85 3a 32 4b 14 3b 73 c0 54 b9
       -0.009604475 0.001020344 0.0022627828 -0.00020289588
000010 af f0 00 bc 06 d2 bc 3b dd 24 c8 3b 66 2f cd 38
       -0.007869883 0.0057623414 0.00610791 9.7839904e-05
000020 1a 3d 45 ba a2 18 0f b7 91 e8 20 bc e5 24 4d b9
       -0.00075240585 -8.5291995e-06 -0.009821073 -0.00019564068
000030 7f 81 07 3b ef ff 1e 3b 8b 1c bd bb ed 36 67 ba
       0.002067655 0.0024261435 -0.005771225 -0.0008820135
000040 09 ce 8e bb fc 5e 26 3b 6d 59 e9 3b 5b 50 ce bb
       -0.0043580574 0.0025386205 0.007121256 -0.0062962
000050 50 ab 17 3a 28 cf b7 bb f2 27 2f 3a d4 3d 2e bb
       0.00057857204 -0.0056094117 0.00066816725 -0.0026587145
000060 73 49 4f ba df 86 22 3b 5d 76 a0 b9 b3 b6 71 3e
       -0.0007907368 0.0024799628 -0.00030605766 0.2360485
000070 38 fa b8 bb 08 02 85 3a af b5 39 bc 3c 0b 35 bc
       -0.005645063 0.00101477 -0.011334821 -0.011050042
000080 4d d1 84 39 53 f8 2d bc 15 8a 1e bb 46 bf 8d ba
       0.00025332943 -0.010618287 -0.002419119 -0.001081445
000090 b1 e6 ab bb 8c 16 1e bb f5 1f ea ba 38 d3 3f 3a
       -0.0052460064 -0.0024122326 -0.0017862307 0.0007317546
0000a0 a8 bc da b8 50 94 4e 3a 57 03 2e 3c 57 e9 1f ba
       -0.0001043019 0.00078803767 0.0106209135 -0.0006100139
0000b0 19 b8 95 3a 40 c3 86 3c 7f 99 3c 3b ef 72 a5 39
       0.0011422663 0.016450524 0.0028778014 0.00031556885
0000c0 a3 5b 02 bb 5e 9f 3f 3a a9 fa a2 bb 9a 49 11 b9
       -0.0019891046 0.00073098193 -0.0049737287 -0.00013855696
0000d0 70 b1 c7 b9 7b af 22 bb f9 11 e1 39 e0 73 23 3c
       -0.0003808844 -0.0024823833 0.00042928735 0.009976357
0000e0 fe b3 e0 3a 1c 4e 26 bb d7 d0 4a b7 99 00 23 3d
       0.0017143486 -0.0025376147 -1.2088763e-05 0.03979549
0000f0 01 01 b6 3b de 00 33 ba f2 a9 c7 bc c2 77 bb bc
       0.005554319 -0.00068284373 -0.024373028 -0.022884253
000100 3a 48 9b b9 1d b8 9c 38 b0 a1 33 3b a9 37 af 3a
       -0.00029617717 7.4729534e-05 0.0027409606 0.0013368028
000110 6e d1 a1 ba 8d dc 1e 3b bc 51 4c 3b e4 96 38 3a
       -0.001234574 0.0024240345 0.0031176647 0.00070415274
000120 6a 33 ba b9 05 3b dc 39 df 3f 44 bb a5 fe 8a 3a
       -0.0003551499 0.00042005643 -0.0029945297 0.0010604454
000130 af 0a b8 ba 30 dc 03 b9 39 df c8 ba 12 da 9a 38
       -0.001404127 -0.0001257516 -0.0015325315 7.383911e-05
000140 77 a6 91 3a 72 7d 12 b9 f0 04 e0 3a 69 dd c7 ba
       0.0011112232 -0.00013970377 0.0017091315 -0.001524848
000150 e9 a4 75 3a b7 04 e7 ba 8b 17 43 ba 4c 34 1c b9
       0.0009370582 -0.0017625307 -0.0007442168 -0.00014896801
000160 ac 8f 37 b8 a8 fd 4d 3a b7 c0 07 ba 25 81 d0 3d
       -4.3764405e-05 0.0007857927 -0.0005178558 0.10180882
000170 59 94 2a bb 8c 50 f7 3a fe 43 f7 ba aa 4f 80 ba
       -0.0026028363 0.0018868609 -0.0018864868 -0.0009789367
000180 46 c8 22 39 bb 72 9e 39 4f 1d b3 39 10 3b c6 b7
       0.00015524132 0.0003022159 0.00034163377 -2.3630942e-05
000190 05 ff e7 ba 89 c6 aa 39 78 f3 05 3a fb 54 a4 b7
       -0.0017699903 0.00032572847 0.0005109827 -1.9589896e-05
0001a0 49 48 e9 b8 f2 36 ef b9 68 88 03 bb f7 fc d6 39
       -0.0001112377 -0.0004562657 -0.0020070318 0.00041005734
0001b0 8c f8 22 37 67 77 88 39 fb fb df 39 99 5c 67 39
       9.713822e-06 0.00026028903 0.00042721615 0.00022064372
0001c0 38 71 d2 ba ac e7 24 b8 75 c0 62 38 56 a4 56 b9
       -0.001605547 -3.931641e-05 5.406184e-05 -0.0002046985
0001d0 ea e7 fc b8 ef 86 2a b7 17 47 9f b9 c5 04 26 b8
       -0.00012059494 -1.0164206e-05 -0.0003037981 -3.9581926e-05
0001e0 ba f2 e9 38 2e 04 10 3a 89 c1 21 b8 d6 e1 37 3d
       0.00011155517 0.0005493787 -3.8565635e-05 0.04489311
0001f0 08 e2 ea ba 1a 73 15 3a c9 57 a9 ba 4b e2 89 ba
       -0.0017920146 0.00057010504 -0.0012919839 -0.0010519711
000200 70 53 90 ba c5 1d c3 ba c0 99 ee 38 aa bb ef b9
       -0.0011011194 -0.0014886191 0.000113773625 -0.00045725453
000210 e9 de 86 b9 15 8f 77 ba 5f d7 a3 38 cc 6e 1d 3a
       -0.00025724553 -0.0009443623 7.812562e-05 0.0006005585
000220 c5 ba 35 b9 b9 74 82 b9 f3 d4 67 3b 22 b3 ed b8
       -0.00017331082 -0.00024882497 0.003537473 -0.00011334407
000230 ff ab 0f 39 cc 22 4b 39 65 68 35 3b 96 fc 82 ba
       0.00013701616 0.00019372551 0.0027680632 -0.0009993489
000240 b3 84 ae b9 f1 a8 80 3a 19 33 8d bb f2 7f 99 ba
       -0.00033286735 0.0009815973 -0.00430907 -0.0011711104
000250 45 93 e5 38 ce 56 c3 3a 2c 62 3a b7 6d 32 89 3a
       0.00010947002 0.0014903189 -1.1109321e-05 0.0010467299
000260 fc ff 4d 38 4b ce a6 39 9a b7 87 b9 3f 0c 0a 3e
       4.9114213e-05 0.00031815688 -0.00025886 0.13481234
000270 1e 20 b5 3b 69 4c 8e 39 37 7a 0c 38 66 dd aa ba
       0.0055275103 0.0002714128 3.3492423e-05 -0.0013035953
000280 96 e6 bc 3b 13 97 a8 3b b4 f6 80 3a f5 fe 09 ba
       0.0057647927 0.0051449626 0.0009839148 -0.0005264127
000290 d8 cd 7e bc 0f ab d2 3b 5f 20 78 3b 6a d4 b0 ba
       -0.015552007 0.006429083 0.0037861092 -0.0013491039
0002a0 da e6 66 bb b3 e1 48 bb e6 85 c9 bc 76 45 25 3a
       -0.0035232813 -0.0030652105 -0.02459998 0.0006304601
0002b0 bd 06 99 39 5f 96 00 3b 65 b2 91 bb 97 dd f1 3b
       0.00029187454 0.0019620878 -0.004446315 0.007381152
0002c0 00 b7 54 bc 32 76 01 bb 0b 87 51 3c 4e 9e d0 3a
       -0.012983084 -0.0019754288 0.012788544 0.0015916319
0002d0 a9 32 88 3b de 64 b5 bb cf f7 a8 ba b0 83 80 bb
       0.00415643 -0.005535706 -0.0012891236 -0.0039219484
0002e0 dc a1 a1 39 21 4a 20 3b 93 a6 90 3a 2b 24 08 3e
       0.00030828908 0.0024458247 0.0011035971 0.13295047
0002f0 fd 89 cd bc 29 d2 95 3b 75 dd 82 bc e2 bd e7 bb
       -0.025090212 0.004572172 -0.01597474 -0.0070721963
000300 9c 8e ee b8 96 3e 1b 3b 75 74 61 3b 53 c0 02 3b
       -0.000113752874 0.0023688427 0.003440169 0.001995106
000310 8e e2 bb bb 86 d6 b7 3b d6 bf 83 3b 4d 2e 59 ba
       -0.0057337945 0.00561029 0.0040206714 -0.00082847924
000320 08 5c 0e ba 61 33 71 ba 9d 40 30 bc 63 46 8a 39
       -0.0005430584 -0.00092010765 -0.0107575925 0.00026373853
000330 29 dc ed ba 1f 39 43 39 49 c5 99 bb 97 4d b0 3a
       -0.0018147278 0.00018617928 -0.0046927077 0.0013450858
000340 83 90 6e bb c9 33 f3 ba 1d 43 e8 3b 03 fa 44 ba
       -0.0036402054 -0.0018554862 0.0070880787 -0.0007514061
000350 93 6b 35 3a c5 b9 5d bb 0e 71 a0 ba 40 fe 0d bb
       0.0006920632 -0.003383265 -0.0012240724 -0.0021666437
000360 81 83 c4 39 27 da b2 3a 01 7e dc 39 4b af b4 3d
       0.0003748201 0.0013645337 0.0004205555 0.08822497
000370 f6 ac 37 bc 18 87 52 3b 6d c3 c0 bb 82 11 17 bb
       -0.011210671 0.003212398 -0.0058826716 -0.0023051207
000380 34 9c ba 35 84 e8 15 ba 93 1e e8 b9 2c b3 cb b9
       1.3903541e-06 -0.00057185465 -0.00044273268 -0.0003885267
000390 d3 5f 04 39 e5 4d 69 ba df 02 e1 b9 5b 4a 17 39
       0.00012624198 -0.0008899852 -0.00042917483 0.00014428182
0003a0 f1 a5 92 b8 62 d6 09 b9 87 ea cf 3a 44 e9 4b 39
       -6.9927315e-05 -0.00013145202 0.0015862741 0.00019446487
0003b0 da 21 f5 39 13 0d 57 39 36 47 a5 3a 26 6d 9a b9
       0.00046755263 0.00020508868 0.0012609723 -0.0002945449
0003c0 85 ae 39 3a 70 99 14 3a a3 08 19 bb 2c 45 d5 b8
       0.00070831954 0.0005668616 -0.0023351095 -0.00010169516
0003d0 22 0e 07 b8 51 94 75 3a 4c 4a 34 37 01 4e 82 39
       -3.219967e-05 0.0009368109 1.0746135e-05 0.0002485365
0003e0 b3 dd d4 b8 f2 81 dd 38 58 e6 ac b8 8c b5 2a 3d
       -0.000101502425 0.000105623054 -8.244504e-05 0.041677043
0003f0 da e2 01 3b 23 f6 a0 b9 e5 27 2b b9 fd 6a 4f b9
       0.0019819052 -0.00030700964 -0.00016322693 -0.00019780915

bias_ih_l0 f4 [128]
000000 ef 49 ba be 3c 99 85 be c4 55 ee be 7b 78 fc be
       -0.36384532 -0.2609347 -0.4654981 -0.4931067
000010 fb 59 a2 be 69 b8 e6 be 94 c7 ca be c7 27 e8 be
       -0.31709275 -0.4506257 -0.3960539 -0.45342848
000020 98 cc 0d bf 85 8c ff be 54 0d 5f be e9 b9 f2 be
       -0.5539031 -0.49911895 -0.21782428 -0.47407463
000030 bd 99 fb be 76 d7 5a be 9e 2b bf be 32 24 c4 be
       -0.4914073 -0.21371254 -0.37337965 -0.38308865
000040 7b d6 d0 be 74 58 e2 be 76 18 95 be 70 b3 d2 be
       -0.40788636 -0.4420811 -0.29120225 -0.41152525
000050 31 78 e9 be 27 b7 d7 be 77 98 0b bf 66 72 aa be
       -0.4559951 -0.42131922 -0.5452952 -0.33290404
000060 f8 b1 e2 be c0 95 bb be 32 5f 01 bf ce bd c0 bd
       -0.44276404 -0.36637688 -0.5053588 -0.09411202
000070 1a 15 7d be 99 17 07 bf f6 19 8d be 58 74 8b be
       -0.24715081 -0.5277038 -0.2755887 -0.272372
000080 17 ce 7c be 7c 76 37 be 72 9c 68 be eb 60 80 be
       -0.24687992 -0.17916292 -0.22715929 -0.25073943
000090 8c ba 83 be 03 93 93 be 86 05 74 be 5f e4 48 be
       -0.2572826 -0.288231 -0.23830232 -0.19618367
0000a0 b1 17 81 be 45 f3 9d be ab 1e ef bd e7 49 8f be
       -0.25213388 -0.30849662 -0.11675771 -0.2798607
0000b0 d9 d1 a1 be dc f5 34 be b2 1b 96 be 2a a5 1e be
       -0.31605414 -0.17671913 -0.29318005 -0.15492693
0000c0 48 4d 97 be c9 6f 90 be cf 90 19 be 68 d6 8d be
       -0.29551148 -0.28210285 -0.14996646 -0.2770264
0000d0 ff 97 51 be ec 02 40 be 1e fa 91 be 5e 78 7c be
       -0.20468138 -0.18751115 -0.28511137 -0.24655291
0000e0 a3 b4 7c be 86 65 7b be 71 07 82 be 7c bb ce bd
       -0.24678282 -0.24550447 -0.25396302 -0.100943536
0000f0 72 91 d9 bd ad 14 8b be 63 44 4a be 53 22 58 be
       -0.106234446 -0.27164212 -0.1975265 -0.21106844
000100 34 9a b5 3c 08 1d 5c 3c d8 c9 ef 3b f5 5e 36 3c
       0.022168256 0.013434656 0.007317763 0.011131038
000110 45 6f 89 bc aa a3 aa 3c 4c f6 5f 39 c8 28 43 bc
       -0.01677669 0.020829994 0.0002135869 -0.0119115785
000120 12 a7 44 3b 8c 31 7a bc 40 87 de bc 71 91 9b bb
       0.0030006808 -0.015270602 -0.027164102 -0.0047475626
000130 2f c8 a9 bc ac 4e d4 3b a2 25 6c bc 03 73 e2 3c
       -0.020725338 0.006479105 -0.014413269 0.027642732
000140 87 d5 af bc f1 e0 e1 bc 99 4a 9a 3c 6e 6f 7d 3c
       -0.021464122 -0.02757308 0.018834399 0.015468461
000150 b4 c2 64 bb 5e 7b 85 bb 2e 45 c5 bb b1 03 4d bc
       -0.0034906091 -0.0040735444 -0.0060202098 -0.012513087
000160 96 6e d3 3b 43 d3 2f 3b e0 a6 c2 ba c4 09 06 bd
       0.006452392 0.0026828803 -0.0014850758 -0.032724157
000170 68 0f 21 bd 56 46 4b 3c c5 8b e7 bc e4 be cb bb
       -0.039321333 0.012406906 -0.02826489 -0.0062178243
000180 f3 49 b9 be 2b a3 83 be 51 19 ef be e6 80 fa be
       -0.3618923 -0.25710425 -0.46699002 -0.48926467
000190 53 ab a1 be 6b be e7 be 90 b2 cb be c1 02 e7 be
       -0.31576023 -0.45262465 -0.3978467 -0.4511929
0001a0 db 0f 0c bf db 1e fd be 8d 9e 59 be bf 98 f1 be
       -0.54711694 -0.49437603 -0.21251889 -0.4718685
0001b0 5f 95 fb be 59 95 5c be 53 5a bb be d0 ac c1 be
       -0.491374 -0.21541347 -0.3659235 -0.37827158
0001c0 a3 0d ce be 1d 3a e1 be e6 b9 95 be 39 0a d2 be
       -0.4024478 -0.4398965 -0.29243392 -0.41023424
0001d0 4a 2f ea be bc cb d6 be 35 80 0b bf 8e c6 a6 be
       -0.45739204 -0.41952312 -0.54492503 -0.3257336
0001e0 be c1 e2 be 0c 41 be be a9 c5 00 bf 16 9a d3 bd
       -0.4428844 -0.37159002 -0.50301605 -0.10332124
0001f0 87 0d 7c be 11 f1 06 bf d9 43 8c be 9d 40 8b be
       -0.24614535 -0.5271159 -0.27395514 -0.27197734

bias_hh_l0 f4 [128]
000000 ef 49 ba be 3c 99 85 be c4 55 ee be 7b 78 fc be
       -0.36384532 -0.2609347 -0.4654981 -0.4931067
000010 fb 59 a2 be 69 b8 e6 be 94 c7 ca be c7 27 e8 be
       -0.31709275 -0.4506257 -0.3960539 -0.45342848
000020 98 cc 0d bf 85 8c ff be 54 0d 5f be e9 b9 f2 be
       -0.5539031 -0.49911895 -0.21782428 -0.47407463
000030 bd 99 fb be 76 d7 5a be 9e 2b bf be 32 24 c4 be
       -0.4914073 -0.21371254 -0.37337965 -0.38308865
000040 7b d6 d0 be 74 58 e2 be 76 18 95 be 70 b3 d2 be
       -0.40788636 -0.4420811 -0.29120225 -0.41152525
000050 31 78 e9 be 27 b7 d7 be 77 98 0b bf 66 72 aa be
       -0.4559951 -0.42131922 -0.5452952 -0.33290404
000060 f8 b1 e2 be c0 95 bb be 32 5f 01 bf ce bd c0 bd
       -0.44276404 -0.36637688 -0.5053588 -0.09411202
000070 1a 15 7d be 99 17 07 bf f6 19 8d be 58 74 8b be
       -0.24715081 -0.5277038 -0.2755887 -0.272372
000080 17 ce 7c be 7c 76 37 be 72 9c 68 be eb 60 80 be
       -0.24687992 -0.17916292 -0.22715929 -0.25073943
000090 8c ba 83 be 03 93 93 be 86 05 74 be 5f e4 48 be
       -0.2572826 -0.288231 -0.23830232 -0.19618367
0000a0 b1 17 81 be 45 f3 9d be ab 1e ef bd e7 49 8f be
       -0.25213388 -0.30849662 -0.11675771 -0.2798607
0000b0 d9 d1 a1 be dc f5 34 be b2 1b 96 be 2a a5 1e be
       -0.31605414 -0.17671913 -0.29318005 -0.15492693
0000c0 48 4d 97 be c9 6f 90 be cf 90 19 be 68 d6 8d be
       -0.29551148 -0.28210285 -0.14996646 -0.2770264
0000d0 ff 97 51 be ec 02 40 be 1e fa 91 be 5e 78 7c be
       -0.20468138 -0.18751115 -0.28511137 -0.24655291
0000e0 a3 b4 7c be 86 65 7b be 71 07 82 be 7c bb ce bd
       -0.24678282 -0.24550447 -0.25396302 -0.100943536
0000f0 72 91 d9 bd ad 14 8b be 63 44 4a be 53 22 58 be
       -0.106234446 -0.27164212 -0.1975265 -0.21106844
000100 34 9a b5 3c 08 1d 5c 3c d8 c9 ef 3b f5 5e 36 3c
       0.022168256 0.013434656 0.007317763 0.011131038
000110 45 6f 89 bc aa a3 aa 3c 4c f6 5f 39 c8 28 43 bc
       -0.01677669 0.020829994 0.0002135869 -0.0119115785
000120 12 a7 44 3b 8c 31 7a bc 40 87 de bc 71 91 9b bb
       0.0030006808 -0.015270602 -0.027164102 -0.0047475626
000130 2f c8 a9 bc ac 4e d4 3b a2 25 6c bc 03 73 e2 3c
       -0.020725338 0.006479105 -0.014413269 0.027642732
000140 87 d5 af bc f1 e0 e1 bc 99 4a 9a 3c 6e 6f 7d 3c
       -0.021464122 -0.02757308 0.018834399 0.015468461
000150 b4 c2 64 bb 5e 7b 85 bb 2e 45 c5 bb b1 03 4d bc
       -0.0034906091 -0.0040735444 -0.0060202098 -0.012513087
000160 96 6e d3 3b 43 d3 2f 3b e0 a6 c2 ba c4 09 06 bd
       0.006452392 0.0026828803 -0.0014850758 -0.032724157
000170 68 0f 21 bd 56 46 4b 3c c5 8b e7 bc e4 be cb bb
       -0.039321333 0.012406906 -0.02826489 -0.0062178243
000180 f3 49 b9 be 2b a3 83 be 51 19 ef be e6 80 fa be
       -0.3618923 -0.25710425 -0.46699002 -0.48926467
000190 53 ab a1 be 6b be e7 be 90 b2 cb be c1 02 e7 be
       -0.31576023 -0.45262465 -0.3978467 -0.4511929
0001a0 db 0f 0c bf db 1e fd be 8d 9e 59 be bf 98 f1 be
       -0.54711694 -0.49437603 -0.21251889 -0.4718685
0001b0 5f 95 fb be 59 95 5c be 53 5a bb be d0 ac c1 be
       -0.491374 -0.21541347 -0.3659235 -0.37827158
0001c0 a3 0d ce be 1d 3a e1 be e6 b9 95 be 39 0a d2 be
       -0.4024478 -0.4398965 -0.29243392 -0.41023424
0001d0 4a 2f ea be bc cb d6 be 35 80 0b bf 8e c6 a6 be
       -0.45739204 -0.41952312 -0.54492503 -0.3257336
0001e0 be c1 e2 be 0c 41 be be a9 c5 00 bf 16 9a d3 bd
       -0.4428844 -0.37159002 -0.50301605 -0.10332124
0001f0 87 0d 7c be 11 f1 06 bf d9 43 8c be 9d 40 8b be
       -0.24614535 -0.5271159 -0.27395514 -0.27197734

weight f4 [32, 32]
000000 76 96 b0 3c dd d6 9d 3e 37 b6 84 be 31 c5 d5 3d
       0.02155612 0.3082799 -0.2592027 0.10438002
000010 8c f8 81 bd a2 9b 88 bd d6 a9 5f be f9 0b 4e bd
       -0.06346235 -0.066703096 -0.21842131 -0.050304387
000020 43 17 42 3e 13 ae 0a be 01 84 57 3e 56 e4 66 be
       0.18954186 -0.13542967 0.21046449 -0.22548041
000030 cc 10 df 3d d3 0b 6e be 21 ed 65 bc f8 b4 3a be
       0.108918756 -0.23246698 -0.014033587 -0.18233097
000040 b2 51 f1 bd e9 12 08 3e e0 a9 2d 3e 5f 37 5c be
       -0.1178316 0.13288464 0.16959333 -0.21505497
000050 d1 b5 a4 3d d6 56 15 be f3 d6 d1 bc 14 20 86 be
       0.08042491 -0.14583907 -0.025615191 -0.2619635
000060 d1 2b 2a bd fa 16 7f be 8e 08 c3 3d 62 14 66 3e
       -0.041545693 -0.24911109 0.09523116 0.22468713
000070 6a 5f 19 3e bd c8 1e 3d a1 04 08 3e a9 04 1a be
       0.14977804 0.038765658 0.13283016 -0.1504084
000080 60 d1 b9 3c 90 bb a1 3e 1a 32 51 bd cc fc 24 3e
       0.022682846 0.3158841 -0.05107317 0.1611206
000090 0e 3f 59 3e 96 16 ea 3d f4 66 17 be 6c e9 16 be
       0.2121546 0.11430089 -0.14785367 -0.14737481
0000a0 7a f5 a8 3c 24 c2 67 3e 46 ab b6 3d 34 ff a8 3d
       0.020624865 0.22632653 0.089193866 0.08251801
0000b0 b0 36 87 bd f5 25 9b 3d 1a df 95 be 3b 9e 22 3e
       -0.06602228 0.07575599 -0.29271775 0.15880673
0000c0 a4 38 5c 3e d7 a7 45 be a9 cc 0b 3d 03 dc 41 3e
       0.21505982 -0.19302307 0.034130726 0.18931584
0000d0 28 a0 78 bc 44 75 d6 b8 35 2b 9f 3d ee fa 61 be
       -0.015174903 -0.000102261576 0.07771913 -0.22068378
0000e0 08 50 22 be 33 4a cb bd e4 4e c8 3d 68 19 0d be
       -0.15850842 -0.09926262 0.09780672 -0.13779223
0000f0 1a b0 a7 bd 59 eb f4 bd 41 a4 a0 3e cc 3d 8b bd
       -0.081878856 -0.119589515 0.31375316 -0.06798896
000100 35 57 81 bd e7 e5 4f be 5f 0f 98 3c 94 f2 00 be
       -0.063154615 -0.20302545 0.018562017 -0.12592536
000110 8d e3 ac bd 8c 2f 98 3d 5f a1 6d be ac 33 1f 3e
       -0.08441839 0.07430944 -0.2320609 0.15547055
000120 5a 00 e0 3d d5 30 74 be f0 fb 80 3c 25 25 26 be
       0.10937567 -0.23846753 0.015745133 -0.16225107
000130 93 e8 b8 3d 2d c0 7e 3e 4f 98 bc bd 87 f1 72 be
       0.09028735 0.24877997 -0.09208738 -0.23724948
000140 0a b5 79 be 70 9a c3 3d 6a d0 bc 3d 59 5c 1d be
       -0.24385467 0.09550941 0.09219439 -0.15367259
000150 90 81 41 3d 74 1d 5f 3e b8 96 99 bd 6d c3 02 be
       0.0472427 0.21788579 -0.074994504 -0.12769862
000160 04 ac 85 3d 3f 58 1f 3e 80 61 1c 3e 1c 89 9d 3c
       0.0652695 0.15561007 0.15271568 0.019230418
000170 ef 53 72 bc a6 dc 25 be 52 58 2a 3d e9 d3 a7 be
       -0.014790519 -0.16197452 0.041588135 -0.32778862
000180 6d b6 a9 3d cb df ac be 27 be 03 3d 78 6e a8 bd
       0.08286748 -0.3376449 0.032163765 -0.08224195
000190 cd 01 01 3e 76 50 0b 3e 21 ab ff bd 34 11 d4 bd
       0.12598343 0.13604912 -0.12483812 -0.10354844
0001a0 2a 5d 8c 3d a1 ca 8d bd c8 46 3f bc fa 23 d2 bd
       0.06853707 -0.06923414 -0.01167459 -0.10260768
0001b0 ba cd b8 bd cb ad dd bd fd 41 a4 bd 56 58 d7 bd
       -0.09023614 -0.10824164 -0.08020399 -0.105148956
0001c0 f8 d8 79 3d e7 18 97 bd f6 12 bd bd 56 d9 1e be
       0.060997933 -0.073777966 -0.09232132 -0.15512595
0001d0 87 a1 e7 3d f6 9a 75 bd 62 f8 80 3e ca 84 88 be
       0.11310106 -0.059962235 0.251895 -0.2666381
0001e0 8d c4 03 bd 22 95 65 3e 29 d4 2e bc 41 c7 f4 bd
       -0.032169867 0.22420171 -0.0106707 -0.11952067
0001f0 3d c6 21 bd 22 20 63 be 2a de 06 be cc 43 89 bd
       -0.039495695 -0.22180226 -0.13170686 -0.06702384
000200 b9 69 93 be 09 3a 31 3e 62 23 c8 3d 85 78 fe bd
       -0.28791597 0.17307295 0.09772374 -0.12425331
000210 43 0e e8 3d 1a 1d fb 3c 61 fc 87 bd 37 e9 f4 bd
       0.11330845 0.030653525 -0.06639934 -0.11958545
000220 1c 8e 39 3d 90 50 70 be b8 1b 67 3c 1f 2a 88 be
       0.04530154 -0.23468232 0.01410573 -0.26594636
000230 ad ad 76 bd 8d 6d 9e 3e b4 6c 39 be 40 ee ee 3d
       -0.060224224 0.30942956 -0.18107873 0.11666536
000240 4b 25 6b 3e f7 53 19 be 00 a1 06 be e8 59 79 be
       0.22963445 -0.14973436 -0.13147354 -0.24350703
000250 de 04 79 3d 44 0a 1e 3e 90 67 5c 3c c9 01 fc bb
       0.060795657 0.15433604 0.013452426 -0.0076906425
000260 91 df b5 3d 39 e4 0f 3d ec 43 b8 bd 3a a5 af 3e
       0.088805325 0.03512976 -0.0899733 0.34305745
000270 df be a4 3d 1f b5 44 be b9 22 3d be 3f 4a 83 be
       0.08044218 -0.19209717 -0.18470277 -0.25642583
000280 b0 93 56 be a3 62 62 bd a6 45 f9 bd 3d 22 f8 bc
       -0.20954776 -0.05526985 -0.121714875 -0.030289764
000290 bc 7f 01 bd 29 bb 37 be 59 39 33 be be 9f 26 3d
       -0.031615958 -0.1794249 -0.17502345 0.040679686
0002a0 9c a1 12 3e 50 14 e7 bd 69 af b2 3d cd 56 c8 bd
       0.14319462 -0.11283171 0.08724863 -0.09782181
0002b0 06 03 0a 3e 23 68 59 3e ea 7c 59 be 1f e5 78 3d
       0.13477716 0.21231131 -0.21239057 0.060765382
0002c0 74 a0 47 3e 84 d4 9c bd 71 64 41 bc 82 14 7d 3e
       0.19494802 -0.07657722 -0.011803732 0.24714854
0002d0 9a b8 19 3e ba 31 26 3e 75 ad ab bc de d3 41 be
       0.15011826 0.16229907 -0.020956734 -0.18928477
0002e0 26 e0 a5 3d 43 a4 87 be 01 e9 87 bc e1 4b 9e 3d
       0.080993935 -0.2649251 -0.016590597 0.077293165
0002f0 79 d8 11 be e8 97 40 3d d3 db 57 3e 9b 14 13 3e
       -0.14242734 0.04701987 0.2107995 0.14363329
000300 e6 d3 08 be 8f ad 17 3e a0 fb 94 3d 3c 43 cd 3d
       -0.13362083 0.14812301 0.07274556 0.100225896
000310 8f 81 4a 3e 04 d7 a2 3d a9 ab d3 bd 64 1c 2a be
       0.19775985 0.07951167 -0.10335476 -0.16612393
000320 c5 f6 22 3e fe fa b2 3d 2c df 33 3e c1 50 44 3e
       0.15914448 0.08739279 0.17565602 0.1917143
000330 f0 ba 58 bc f9 0a 80 3e 2b 1b 39 3e 2b 50 6e 3e
       -0.013228163 0.2500837 0.1807677 0.23272769
000340 36 87 b7 bd f0 f2 2a be 5c 50 16 3e db 0a 12 bd
       -0.08961336 -0.16694236 0.14679092 -0.035654884
000350 a0 dd ec bd 53 9b e4 bd 04 34 5c be 0b 9a dc bc
       -0.11565709 -0.11162438 -0.21504217 -0.026928922
000360 e0 ce 9b bd 60 e9 68 3e 23 62 9e bd 29 3a 4a bd
       -0.07607818 0.22745275 -0.07733562 -0.049371872
000370 f4 05 35 be 0d 7d 3e 3c 53 dd 40 3e 35 a6 53 3e
       -0.17678052 0.011626494 0.18834428 0.20668872
000380 6f 87 0f be a1 92 2e 3c 11 2a 20 be a1 f1 a9 bd
       -0.14016508 0.010655076 -0.15641047 -0.0829804
000390 1a 28 55 be 3d 6b 57 3e 8c 45 64 3d 9e 73 b0 bd
       -0.20816079 0.21037002 0.055730388 -0.08615802
0003a0 0a de 50 be 7b 9a 3b bd c4 07 44 3d cf da c3 3d
       -0.20397201 -0.04580162 0.04785897 0.09563219
0003b0 15 d8 4c be d5 a3 cd bd 81 0e 45 bd f0 a6 11 3d
       -0.20004304 -0.10041014 -0.048109535 0.035559595
0003c0 ab 9d 81 3e 9c d7 6e be 62 a6 7f bd 39 e7 8d be
       0.25315604 -0.23324436 -0.062414534 -0.2771547
0003d0 a9 59 1b 3e ca ff 3d bd 25 00 30 3e 57 d9 e4 3c
       0.15170921 -0.046386518 0.17187555 0.027935667
0003e0 57 e1 3a be f8 2a 43 be 5f 19 23 bd e6 4e 11 be
       -0.18250023 -0.1905936 -0.039819118 -0.14190254
0003f0 ae d9 48 3a cf 11 5a 3e 93 e0 39 3d e9 2f e7 3d
       0.00076618313 0.21295856 0.045380186 0.11288435

bias f4 [32]
000000 2e a1 fe 3b 6c 52 fc 3d 71 42 09 3a 4e 34 b6 bb
       0.007770679 0.12320408 0.0005236036 -0.0055604344
000010 06 fd 60 3c de 1d c4 3a df 18 45 ba 22 db 9e bb
       0.0137322005 0.0014962514 -0.00075186597 -0.0048479
000020 94 82 1a bc 72 e2 57 bb 84 9c d5 bd e0 d0 35 bb
       -0.009430546 -0.0032941368 -0.104302436 -0.0027742907
000030 8f da 4c bc da ec 2c bb 8f 7f 83 bc 8a f3 13 bc
       -0.01250328 -0.0026386292 -0.016052036 -0.009030232
000040 6e 79 93 bd 3f d4 bb bd 5d 9e b7 3d 8c af 05 bd
       -0.07200895 -0.09171342 0.08965752 -0.032638118
000050 0b 97 b3 3d 33 1e a3 bd b0 02 92 bd 10 33 0e 3c
       0.087690435 -0.079647444 -0.07129419 0.008679166
000060 ab f8 83 bd 06 73 1f 3b 7f 5a f8 bb 60 bc 0b bb
       -0.06443914 0.0024330034 -0.0075791474 -0.0021321997
000070 f0 ff 09 bc c3 fe b0 3d 0d 86 b7 3b cb e0 2f 3b
       -0.008422837 0.08642342 0.005600697 0.0026836868

weight f4 [64, 33]
000000 4e 86 4f ba 1f ab 32 be 1a a5 aa 3c 19 b9 a8 3c
       -0.00079164363 -0.1744809 0.02083068 0.020596074
000010 df 5f df 3c 83 5d cc 3b 0c c7 36 bc d3 59 52 3c
       0.027267395 0.0062367334 -0.011155855 0.012838799
000020 c3 8d 77 3c 8b 33 46 bd c9 8b 83 3c 69 a9 2a 3c
       0.015109482 -0.048389 0.016057866 0.010416367
000030 e0 09 19 bc bd fb 25 3d ce 5a ee 3c fe 8f 87 3c
       -0.009340733 0.04052328 0.029096033 0.016548153
000040 31 e9 df 3d d8 97 19 bc bc c2 34 3e b5 33 d1 bd
       0.109331496 -0.009374581 0.1765241 -0.102149405
000050 a7 28 5b bd 91 c1 23 3d fc 19 f2 3d e9 e3 ed bc
       -0.053505566 0.03997952 0.118213624 -0.02903934
000060 48 73 1d be cf 42 da 3d 50 10 33 bd b9 a8 0a bc
       -0.15376008 0.10657274 -0.04371673 -0.008463078
000070 a1 3d 62 3b a7 93 a9 bd 28 b1 d4 3b e0 86 d5 3c
       0.0034521597 -0.082801156 0.0064908452 0.02606529
000080 e5 ff a8 be d7 68 c8 3d f3 1e b9 bc 09 cb 2c be
       -0.33007732 0.097856216 -0.022597766 -0.16874327
000090 15 67 05 be 73 15 0c 3e 11 3b b1 3d 05 52 2a bc
       -0.13027604 0.13680057 0.08653844 -0.010395532
0000a0 17 6c fc bb 87 71 0e 3e ad 6d b6 3d 1c 28 15 be
       -0.007703315 0.13910495 0.08907638 -0.14566082
0000b0 06 d8 dd bd 13 62 e3 bd 03 d9 a9 bd 55 b1 f9 bc
       -0.10832219 -0.111026905 -0.08293345 -0.030480066
0000c0 c0 93 85 bd 86 f6 b1 3b 39 f4 1a be a6 f5 39 bc
       -0.06522322 0.005430999 -0.15132226 -0.011350071
0000d0 d6 7c a3 bd ea bb b7 bc 89 3a 91 bd f6 00 95 bd
       -0.07982795 -0.022428472 -0.07091243 -0.07275574
0000e0 19 3c 96 bc a1 13 83 bd 42 d3 95 bd e4 c6 af 3c
       -0.018339204 -0.06400228 -0.07315685 0.021457143
0000f0 10 85 c9 3d af cd 46 bd 00 cb aa 3d 94 ff e4 bc
       0.09839833 -0.048536 0.083395004 -0.0279539
000100 4b e1 9b bd a8 a2 d9 3e 44 62 05 80 2e b3 e1 b8
       -0.076113306 0.4250691 -4.94429e-40 -0.00010762211
000110 4f b6 fd ae 32 5f 05 00 05 9a 25 a8 ce 19 c2 87
       -1.15374925e-10 4.93327e-40 -9.192738e-15 -2.9205042e-34
000120 83 a6 d8 2e 90 a5 b3 1e 20 08 8f b6 6a 5b 05 80
       9.852121e-11 1.9020837e-20 -4.262678e-06 -4.9197e-40
000130 af 16 8c 39 38 c3 61 94 53 00 06 1d 0d 60 05 80
       0.0002671978 -1.1398097e-26 1.773492e-21 -4.93634e-40
000140 62 e0 a3 36 dd 62 05 80 11 ce 69 36 34 d5 97 39
       4.8839e-06 -4.94643e-40 3.4839652e-06 0.00028959813
000150 2c b1 fa b7 b9 4f 0e 36 13 e4 1a ba f8 ea af 39
       -2.9884824e-05 2.1206054e-06 -0.00059086195 0.00033553666
000160 62 2d cf 38 3c e6 a8 23 15 9b 2f 38 95 ff 47 2f
       9.8789824e-05 1.8312105e-17 4.1867683e-05 1.8189746e-10
000170 44 9f 2e b3 b1 ed 13 96 82 5c 05 80 ed 10 8c b9
       -4.0657383e-08 -1.1949568e-25 -4.92363e-40 -0.00026715492
000180 e3 49 6d 04 94 57 05 00 24 6e 7f bb 19 5e 05 00
       2.7893143e-36 4.90595e-40 -0.003897556 4.92933e-40
000190 85 56 2f b7 47 04 d8 aa 3a 63 05 80 85 d1 5a a5
       -1.0450957e-05 -3.8372276e-13 -4.94773e-40 -1.8979474e-16
0001a0 11 5b 05 00 bb 88 c4 28 01 45 33 17 8a 72 4f b5
       4.91846e-40 2.1819669e-14 5.7925115e-25 -7.7280185e-07
0001b0 57 59 05 80 1f 40 2a 38 a1 8f 78 97 3c cb fa 1b
       -4.91227e-40 4.0590876e-05 -8.0314407e-25 4.1490368e-22
0001c0 a9 5e 05 00 eb 01 96 34 1b 5e 05 80 50 d8 0a 34
       4.93135e-40 2.7941073e-07 -4.92936e-40 1.2930946e-07
0001d0 95 db 41 38 54 5a ee b5 5a f3 33 34 77 48 2b b9
       4.6219287e-05 -1.7758671e-06 1.6759205e-07 -0.00016334826
0001e0 17 b8 76 38 80 0a 4f 37 57 04 53 20 85 94 a8 36
       5.8822417e-05 1.2340606e-05 1.7873831e-19 5.02408e-06
0001f0 ac 90 c9 29 d6 4a a7 b0 b2 b6 8c 87 35 5c 05 00
       8.95129e-14 -1.2172119e-09 -2.1172237e-34 4.92255e-40
000200 be df 61 b8 af c7 b3 15 91 5d 05 00 30 41 c3 bb
       -5.3852556e-05 7.261257e-26 4.92743e-40 -0.0059586987
000210 4b c7 72 3d c5 e1 aa 3c 9d 6d 84 bd c9 ae d3 3d
       0.05927209 0.020859608 -0.064662196 0.10336072
000220 a3 7a a9 bd ce c3 bc bd 46 60 86 3d 02 ff 19 3e
       -0.08275344 -0.09217034 0.065613315 0.15038684
000230 dd c7 bf bd 15 aa f2 bc 69 1c c0 3d f9 7f 93 3d
       -0.09364293 -0.029622117 0.09380419 0.07202143
000240 d7 76 a6 3d 8b c6 55 3b 43 7d ac 3b 55 98 8d 3d
       0.08128136 0.0032619562 0.005263956 0.06913821
000250 18 90 91 3d 9c 8d 0d 3d b3 dc 6a 3d e3 ee 02 bd
       0.07107562 0.034558877 0.05733938 -0.0319661
000260 a0 fd 25 be 09 a8 a4 3d 6a a2 7e bb b3 9a e8 3d
       -0.16210032 0.08039863 -0.003885413 0.113576315
000270 d1 31 1a 3d b1 36 e9 bc 61 c8 67 bd a1 5f 3d 3d
       0.037645165 -0.028468462 -0.05658758 0.046233777
000280 f0 70 89 3d 38 55 7c be 13 92 c1 3d 6f b7 6e bd
       0.06710994 -0.24641883 0.094516896 -0.058280405
000290 93 eb 08 3c 21 17 61 a6 a9 91 64 bc 65 91 0e b8
       0.0083569465 -7.80939e-16 -0.013950744 -3.3990847e-05
0002a0 be be f9 32 9b 62 16 b9 99 b6 9b b0 65 88 0b 38
       2.9074155e-08 -0.00014341848 -1.1329632e-09 3.326721e-05
0002b0 bd 23 2e 2b 80 77 c0 22 01 35 c3 18 39 a7 6b 3c
       6.1866815e-13 5.216823e-18 5.045984e-24 0.014383131
0002c0 c9 12 10 00 b5 41 3d 9a 4c 50 30 b1 de e5 91 3b
       1.476107e-39 -3.9137362e-23 -2.5657014e-09 0.004452451
0002d0 70 e1 df 9f 48 31 2f 3c 6b 43 62 3c 33 3a 4e bc
       -9.481713e-20 0.010692902 0.013810019 -0.012587118
0002e0 4e 0a ea 3b 78 72 6d bc 0d 8d 63 3c 7d 9d 3e 3c
       0.0071423417 -0.0144926235 0.01388861 0.011634228
0002f0 98 66 08 b5 c7 02 31 3c 70 35 98 3b a5 84 81 b5
       -5.081324e-07 0.010803885 0.004645042 -9.649854e-07
000300 ad 17 c1 0b 36 ea 4c 1f 43 33 5e bc 7b cd 91 31
       7.437652e-32 4.3392415e-20 -0.013562026 4.243416e-09
000310 3f 7f 2d 20 94 3e 8e bb 0d 59 05 80 7f ca b6 af
       1.4695772e-19 -0.004340956 -4.91123e-40 -3.324949e-10
000320 8b f6 8f ac d6 e4 b6 20 ed e2 55 0c 08 60 05 00
       -4.091676e-12 3.098343e-19 1.6477211e-31 4.93627e-40
000330 d9 6e cc 29 1a ef b4 84 cc a3 e2 b6 5d 16 06 80
       9.078649e-14 -4.2537377e-36 -6.7543933e-06 -5.59035e-40
000340 14 60 8c 34 45 5d 05 00 f3 dd 87 2d 27 15 04 80
       2.6146938e-07 4.92636e-40 1.5446288e-11 -3.7493e-40
000350 39 ec 17 31 d3 61 05 00 12 25 c9 22 6c d5 0e b4
       2.210767e-09 4.9427e-40 5.452041e-18 -1.3302423e-07
000360 75 f8 39 b3 c9 f0 d9 33 3e 6d 04 37 dd c6 1d b4
       -4.329964e-08 1.01486485e-07 7.893248e-06 -1.469411e-07
000370 7d 4e c6 b5 a3 be d5 34 0a b9 94 35 da 40 c0 29
       -1.4774993e-06 3.9813048e-07 1.1080713e-06 8.537763e-14
000380 78 0e b2 b3 9f 27 39 83 14 65 db 83 13 91 13 36
       -8.291403e-08 -5.4412097e-37 -1.28948695e-36 2.1989151e-06
000390 78 92 aa 29 e1 60 05 80 1e 60 3c b9 b8 6f 4a 3c
       7.574925e-14 -4.93931e-40 -0.00017964884 0.012355737
0003a0 34 6b 06 3d d4 c6 49 bd 2d e5 95 3b 2a 2f 8d bd
       0.03281708 -0.049261883 0.004574439 -0.068937615
0003b0 44 70 cb bd b2 bc a5 bd 53 4e de 3d aa 44 ef 3c
       -0.09933522 -0.080926314 0.10854783 0.029207546
0003c0 c5 f4 7b 3d 41 8c 5d bd f5 bc 1e 3e b7 8c f8 3d
       0.061512727 -0.054088835 0.15501769 0.12136214
0003d0 96 e9 fd bd 36 6b 84 bd 7e 9d 90 bc 19 f4 2a be
       -0.123980686 -0.06465761 -0.017653223 -0.16694678
0003e0 8c 5e 57 3d 49 3d 0c 3e 07 b5 98 bd c9 24 b6 3d
       0.0525804 0.13695253 -0.07456403 0.08893735
0003f0 a0 f2 51 bb 82 7e 85 bd 1f 92 97 bd e6 b0 0f be
       -0.0032035485 -0.0651827 -0.07400917 -0.14032325

bias f4 [64]
000000 19 0b 13 3e 48 de 0f bd d6 08 44 bc 51 97 26 bc
       0.14359702 -0.035124093 -0.011964997 -0.010167913
000010 d7 b2 1c 3d cb 04 9d bc cd 11 32 bc fa b2 1c bd
       0.038256492 -0.019167325 -0.010868502 -0.038256623
000020 55 96 85 bb bd 6b 16 3e b0 b8 c1 bd 71 65 7f bc
       -0.004076759 0.14689536 -0.094590545 -0.01558815
000030 39 3f 0a be bc be 1e 3e bf 98 0a 3e c1 56 44 3e
       -0.1350068 0.15502447 0.1353483 0.19173719
000040 8c 92 63 bc d8 87 a7 3d 65 b3 57 3e e3 25 98 bd
       -0.01388992 0.08180207 0.21064527 -0.07429101
000050 db 6d b7 3d eb 3a 76 b8 9d f6 34 a4 e9 58 fb 3d
       0.089565 -5.8705842e-05 -3.9240168e-17 0.12272818
000060 da f9 e5 bb a9 a6 1f bc 67 0b 11 bd 40 f9 12 3e
       -0.00701831 -0.009744325 -0.035411265 0.14352894
000070 82 4e 45 3e ec bf 62 3d cd a0 89 bb 68 3c 88 b8
       0.1926823 0.055358812 -0.004200077 -6.496237e-05
000080 e5 93 00 3e e1 9b 37 3e fe 85 eb 3d 3a b0 83 3b
       0.12556417 0.17930557 0.11500166 0.0040188106
000090 ca d0 07 bc 8d 94 9f 3d b7 6a f9 bc c6 d0 1e 3e
       -0.008289525 0.07792006 -0.030446393 0.15509328
0000a0 12 a7 6c bc ef d8 1d 3e 1a 38 04 3e 1c ad 13 bd
       -0.01444413 0.15414785 0.12912026 -0.03605376
0000b0 9c be 90 3d 0a ab cd 3d 7f 57 fb bc f9 f5 ec bc
       0.07067606 0.10042389 -0.03068137 -0.028925883
0000c0 af 34 b9 3d c6 af fc bc 80 73 9b 3d e4 e0 c7 3d
       0.09043252 -0.030845534 0.07590389 0.09759691
0000d0 04 af b8 bd 8b 56 a7 bd 14 12 f7 3d e5 fd e7 bc
       -0.090177566 -0.08170804 0.12063995 -0.028319309
0000e0 e4 12 ba bb a8 a2 f2 bc 3a 0f ed 3d c3 e1 a2 3d
       -0.0056785215 -0.029618576 0.1157517 0.07953217
0000f0 e5 30 37 a0 5f a7 a0 bd c2 bb 5b 3d 9e c5 12 3e
       -1.5516881e-19 -0.078444235 0.053645857 0.14333197

weight f4 [64, 64]
000000 f8 b2 c1 bf 2a 77 ed 3d 1e fd b9 b3 d6 37 19 ad
       -1.5132742 0.11594994 -8.6607756e-08 -8.709441e-12
000010 7c c4 8c 3d bf 03 07 ba 66 a8 05 80 25 6c c1 3d
       0.06873414 -0.00051503995 -5.19587e-40 0.09444455
000020 05 44 4e 3e 70 47 3f bf 82 4c 78 3e 06 fb ff 36
       0.20143135 -0.7471838 0.24247935 7.628815e-06
000030 0e 32 ff 3c c9 25 a2 aa 1b e2 55 3d b3 98 a2 c0
       0.031151798 -2.88032e-13 0.052217584 -5.08114
000040 8c 2d 91 bc 97 c3 1f bf e6 55 54 bf 39 3b 26 3e
       -0.017721914 -0.6240782 -0.8294357 0.16233529
000050 9e 69 1c 3c 4b 61 05 00 62 fa 3c 25 4b a1 28 3e
       0.0095466655 4.9408e-40 1.6391234e-16 0.16467778
000060 fd 7e 10 90 97 f4 84 bc 6b 7b 3e 3d fc 32 f9 be
       -2.849682e-29 -0.01622991 0.04650442 -0.4867171
000070 af 09 21 3f 4b ce 3c 3d 27 58 05 00 b5 e5 05 80
       0.629054 0.046095174 4.908e-40 -5.41581e-40
000080 b1 51 2d 3d 44 90 aa 3d 51 ad da 3e 84 21 36 b5
       0.042314235 0.08328298 0.42710355 -6.7849055e-07
000090 64 5e 05 80 3e 11 f8 3d 03 fd 05 80 68 22 1e c0
       -4.93038e-40 0.12112664 -5.49941e-40 -2.47085
0000a0 50 ca 00 af 7d c2 1d bd f5 70 c9 3d b6 e6 93 bc
       -1.1713408e-10 -0.038515557 0.09835998 -0.018054347
0000b0 fb 9a 3e 3e dd eb 12 3e fc 50 d4 bb 32 0f f8 ad
       0.18613808 0.14347787 -0.0064793807 -2.8201084e-11
0000c0 0b 21 c0 3d fd b4 32 bd 5d f1 18 3a 74 32 f2 3c
       0.093813024 -0.043629635 0.0005834306 0.029565074
0000d0 fc 16 24 3e b4 c8 e9 3d 34 5d 25 3f 1e 2c 02 38
       0.16024393 0.11415234 0.6459534 3.1035503e-05
0000e0 25 a4 05 80 8e d7 96 33 83 60 05 00 d2 53 e6 3d
       -5.18061e-40 7.0241285e-08 4.938e-40 0.11246456
0000f0 6d 8f 05 00 61 fd 54 bc 62 8d 8b bf d1 82 bd ba
       5.10629e-40 -0.012999863 -1.0902522 -0.0014458542
000100 6c 61 30 bc 7f 38 c4 bd 67 5b 22 39 f2 a8 2f 38
       -0.010765415 -0.09581088 0.00015483574 4.1880594e-05
000110 5e ad f4 3d fe fb 01 bc a3 4d a3 36 f4 db 29 3d
       0.1194713 -0.007933615 4.8668167e-06 0.04146953
000120 b5 96 ad 3d 60 bb 2c 3e 42 60 c7 3e 0b b4 c9 ba
       0.08476011 0.16868353 0.38940626 -0.001538874
000130 81 6b 10 3f 1f 16 e5 3d c5 8a 03 be 9f 36 8c 3e
       0.5641404 0.1118586 -0.12845905 0.27385423
000140 5d dc 11 bc 56 de 04 3e db c8 da 3e a4 39 2b 3c
       -0.008902636 0.1297544 0.42731366 0.010450754
000150 d2 5d a1 3c 62 63 05 00 84 31 98 a4 98 76 fa bc
       0.019698057 4.9483e-40 -6.6003375e-17 -0.030574128
000160 87 bb 9c b4 a2 d8 10 3c a8 b0 0b bd 8d 21 8a 3c
       -2.9193708e-07 0.008840712 -0.03410402 0.016861701
000170 cb c0 93 bd b2 d8 15 bc c2 e9 03 ba 43 03 67 9f
       -0.07214507 -0.0091459025 -0.0005032086 -4.891885e-20
000180 7e f5 8e bd a6 87 39 3d aa df b6 bc 2a 1a 2c bb
       -0.06980418 0.04529538 -0.022323448 -0.0026260712
000190 4d 4e 29 12 53 06 8d bd 46 06 bf 30 d7 28 b9 3d
       5.342351e-28 -0.06885972 1.3898862e-09 0.09040993
0001a0 0e 9a bd 39 21 75 c4 bd 89 9b fa bd f8 1f 8f 3c
       0.0003616367 -0.09592653 -0.12236697 0.017471299
0001b0 4f 4a d6 bc 2f 2b 22 bd fb 57 09 3c cf a1 11 32
       -0.02615848 -0.039591964 0.008382793 8.476902e-09
0001c0 48 c1 da bd 18 09 00 3d 79 97 38 bc c7 43 0f 3c
       -0.10681397 0.031258672 -0.011266583 0.008744187
0001d0 8c f4 ee 3d b0 48 72 bd 9b 16 28 be a3 b5 61 3c
       0.11667737 -0.05915135 -0.16414873 0.013776216
0001e0 a6 ee fc b4 40 52 0e b4 db 42 b7 bf 42 5a da bc
       -4.7112297e-07 -1.3254703e-07 -1.4317278 -0.026654366
0001f0 31 92 05 00 a7 dc 93 3c 6d 6a 91 3c c3 1e 42 bf
       5.11621e-40 0.018049551 0.017750943 -0.7582819
000200 29 45 aa 91 6c 98 67 9b 0b 5a 05 00 3a ee 05 80
       -2.6863894e-28 -1.9157122e-22 4.91479e-40 -5.44637e-40
000210 6e 5d 05 00 5c 58 05 00 a3 93 05 00 21 64 7b 90
       4.92694e-40 4.90875e-40 5.1214e-40 -4.9578158e-29
000220 4e 4b 02 8d f1 5b 05 00 1b 20 06 00 eb 93 05 00
       -4.0149988e-31 4.9216e-40 5.6253e-40 5.1224e-40
000230 eb 5d 05 80 8e 94 05 80 76 86 cf a1 68 21 2f 8d
       -4.92869e-40 -5.12469e-40 -1.4062457e-18 -5.396625e-31
000240 ad 5d 05 80 4f 59 05 00 c0 63 05 00 fc f0 1f 00
       -4.92782e-40 4.91215e-40 4.94961e-40 2.933349e-39
000250 09 74 50 a6 e8 0e 06 00 ed 78 05 00 b0 ab 2c 9b
       -7.2321754e-16 5.5636e-40 5.02557e-40 -1.4282982e-22
000260 3e 62 05 80 a1 57 05 00 a1 85 05 80 72 5b 05 00
       -4.9442e-40 4.90613e-40 -5.07114e-40 4.91982e-40
000270 5e 5b 05 00 cb 6b 1a 80 66 5d 05 80 e0 7e 05 80
       4.91954e-40 -2.426392e-39 -4.92683e-40 -5.04692e-40
000280 99 d2 d9 97 22 40 63 9a e9 42 31 05 4d 77 05 80
       -1.4076459e-24 -4.6994306e-23 8.3347895e-36 -5.01975e-40
000290 1b 81 05 00 44 5b bc a3 18 67 05 00 77 05 53 03
       5.05492e-40 -2.0421653e-17 4.9616e-40 6.20136e-37
0002a0 63 a1 05 80 1e 83 44 91 af da 9b a7 56 69 05 00
       -5.17072e-40 -1.5502077e-28 -4.325824e-15 4.96965e-40
0002b0 f2 5e 05 00 aa 5f 05 00 e8 6b 05 80 27 7f 05 00
       4.93237e-40 4.93495e-40 -4.97887e-40 5.04791e-40
0002c0 27 bd cf a5 a2 61 05 80 38 98 a8 a0 73 59 82 93
       -3.603695e-16 -4.94202e-40 -2.8561037e-19 -3.2904817e-27
0002d0 8c 9d 95 9c ad 5b 05 00 45 bf 9b 9f 9f 71 05 00
       -9.900718e-22 4.92065e-40 -6.596148e-20 4.99937e-40
0002e0 32 83 05 80 46 71 05 80 bc 60 05 00 57 5d 05 00
       -5.06241e-40 -4.99812e-40 4.93879e-40 4.92662e-40
0002f0 74 5b 05 80 d2 9e 06 80 9f 6b 7a 9e 53 62 05 00
       -4.91985e-40 -6.07987e-40 -1.3257145e-20 4.9445e-40
000300 28 89 4d bd e7 15 80 bd 89 61 05 00 fa c9 05 00
       -0.05017963 -0.062541775 4.94167e-40 5.31633e-40
000310 23 34 a9 bb db 73 06 00 ae 2f 06 00 90 19 eb b9
       -0.005163686 5.92574e-40 5.68117e-40 -0.00044841738
000320 26 e7 a2 bc 20 69 1e 3c ac 41 99 bd 71 90 05 80
       -0.01988561 0.009668618 -0.07483229 -5.10993e-40
000330 89 d0 ae bd fb be 46 3c 56 f4 88 bd fd b8 3c bd
       -0.08535869 0.012130494 -0.066872284 -0.046074856
000340 84 ae f3 11 f8 08 8f 3b e7 ac 87 3c 8c 54 4d bd
       3.8446194e-28 0.004365083 0.016561938 -0.05012946
000350 88 0b 3c 3c 01 59 05 00 0b f1 f5 21 a7 87 78 bc
       0.011477359 4.91106e-40 1.6665649e-18 -0.015169061
000360 60 9a 2d 34 fe 42 50 bc a5 5e 05 00 2b 34 5f bc
       1.6168042e-07 -0.012711285 4.9313e-40 -0.013623278
000370 36 ee 96 3c f5 43 43 bc f3 79 05 00 23 63 05 80
       0.018424135 -0.011918058 5.02925e-40 -4.94741e-40
000380 1d 7c c5 3b 03 4f a5 3c aa 76 e4 3b d5 86 4b 3a
       0.0060267583 0.020179277 0.0069721537 0.0007763927
000390 9d e0 a5 1b 8d 3f c0 3c 85 5a 05 00 ad 46 fd 3a
       2.7442113e-22 0.023467803 4.9165e-40 0.0019323431
0003a0 28 a6 05 00 0f f1 ff bb 0a 39 09 bd 46 6f 05 00
       5.18783e-40 -0.007810719 -0.033501662 4.99095e-40
0003b0 cc 7a d4 bc 28 31 a0 bc af 84 05 80 72 f5 05 00
       -0.02593746 -0.01955469 -5.06775e-40 5.47227e-40
0003c0 ea 3b c6 bc e2 b7 05 80 41 b8 8b 3c 26 eb af 3c
       -0.024198491 -5.25142e-40 0.017055633 0.021474432
0003d0 97 24 74 3b 6a b6 7b bd 32 16 45 bd 64 b5 05 80
       0.0037253255 -0.06145326 -0.04811687 -5.24248e-40
0003e0 30 95 05 00 e3 02 9b b4 c8 3c 42 bd ca e5 7d 3b
       5.12696e-40 -2.88731e-07 -0.047421247 0.0038741701
0003f0 07 b4 05 00 50 f7 b3 25 03 c1 89 bc 97 1b c0 bc
       5.23759e-40 3.1219136e-16 -0.016815668 -0.023450656

bias f4 [64]
000000 ae 65 0c 3e 3c ba 92 3d 9f cb 2d b4 e5 19 3d 3d
       0.13710663 0.07164428 -1.6185957e-07 0.046167273
000010 49 0d 98 3d 83 50 f2 3b 66 ba 0c 3d d1 fa 02 3e
       0.07424409 0.0073948517 0.03435745 0.12790991
000020 d6 26 00 3d a6 ff 96 bc 63 4d c7 3c ef 86 54 3d
       0.031287037 -0.01843245 0.024328893 0.051886495
000030 26 54 b6 3c 1d 0b 01 bd 16 96 b6 ab bc e7 00 a3
       0.022256922 -0.03150474 -1.2973535e-12 -6.9879656e-18
000040 d3 02 0b a6 86 95 3c b7 fc 8c e9 b7 38 14 fc bb
       -4.822914e-16 -1.1240487e-05 -2.7841415e-05 -0.00769284
000050 a1 f1 af 3d 3f ac 38 b9 c7 89 80 3d 9c 39 c0 3d
       0.08591009 -0.00017611774 0.06276279 0.09385988
000060 33 64 06 bd ae 80 67 a9 f0 41 0d 3c 39 34 de bb
       -0.0328104 -5.1403916e-14 0.008621678 -0.006781128
000070 da d7 28 bc b1 51 20 35 25 21 65 3b 6c 87 96 3d
       -0.010305369 5.972352e-07 0.0034962383 0.073500484
000080 ed e2 fd b0 b9 0f b5 3d 8d 3b 7f ba 43 32 39 3e
       -1.8472669e-09 0.088408895 -0.0009736352 0.1808558
000090 e5 e2 6a 3d fd 83 c7 3d 3e 2e 6a b5 47 04 e8 3d
       0.05734529 0.09741972 -8.7239084e-07 0.11328941
0000a0 94 cb 89 8d c8 c1 f2 9b 8c b3 f0 ba 57 89 da b0
       -8.4922865e-31 -4.016077e-22 -0.0018364056 -1.5900622e-09
0000b0 01 7b c9 3d 93 9a 08 bd be 15 4c 3d 54 79 87 a9
       0.09837914 -0.03335054 0.049825422 -6.0162514e-14
0000c0 a5 5e e9 3c e6 8a a6 3d 38 83 b9 3d 75 97 c7 8c
       0.028487513 0.081319615 0.09058231 -3.075196e-31
0000d0 be 29 87 bd df 26 57 bc 57 54 e5 3d 0e 08 d9 3c
       -0.065997586 -0.013131826 0.11197727 0.026493099
0000e0 72 cf 24 b9 e7 ca 3b 3c 23 4e 50 bc 81 3c 6a 3b
       -0.00015717538 0.01146195 -0.012713942 0.003574163
0000f0 4d 94 1b bc aa 17 c4 bc 70 74 03 3b 8a ae b6 b7
       -0.009495807 -0.023937065 0.0020058416 -2.1777367e-05

weight f4 [1, 64]
000000 60 ef f1 be f9 f3 8a 3e fb 89 5f bb d5 fa 25 bc
       -0.4725294 0.2713926 -0.0034109342 -0.010130604
000010 6c ad af 3e 1e d8 db 3e 26 d8 c7 bc 29 18 3f 3f
       0.34311998 0.42938322 -0.02439506 0.7464624
000020 72 90 cb be 95 53 06 bc 40 e5 9d 3f 4d d8 3c 3f
       -0.3975864 -0.008198638 1.2335587 0.7376755
000030 f4 18 c6 3d d9 31 a1 bc 3c 90 6b 38 f0 1a 04 b8
       0.09672728 -0.01967709 5.6162695e-05 -3.149634e-05
000040 3d 58 05 00 89 c8 40 ac 2f 9a a5 3a 9c 09 1c 3c
       4.90831e-40 -2.739616e-12 0.0012634451 0.009523775
000050 28 9b 7d 3e c5 0e 10 bc 7c cb 96 3e 3d 0c 55 be
       0.24766219 -0.008792584 0.2945212 -0.2080545
000060 f3 72 c5 3c 07 18 c4 b8 51 59 56 bd a0 50 f8 b0
       0.024102664 -9.350484e-05 -0.052331273 -1.806729e-09
000070 dd a3 2b bd 0d f0 ff 3e ea d4 13 bc 93 01 e1 3e
       -0.04190432 0.49987832 -0.009022931 0.43946514
000080 fa aa 4f bb a3 af 51 3e 56 72 bb bb 97 8f 39 3f
       -0.0031687603 0.20477156 -0.005720417 0.72484726
000090 23 a1 53 bc ce 4b c8 be 1e 63 05 00 fd af b6 3e
       -0.012916836 -0.39120334 4.94734e-40 0.35681143
0000a0 95 62 7b b3 69 5c 37 b9 bc 63 05 00 a7 91 1e 3b
       -5.853015e-08 -0.00017486665 4.94955e-40 0.0024195702
0000b0 ff a6 43 3e 10 9c 8d 3e 8e a0 af 3d 57 79 de 35
       0.19106673 0.2765813 0.08575545 1.6575603e-06
0000c0 41 84 1e bc e6 86 eb bc 06 c5 0f 3f 15 68 06 38
       -0.0096750865 -0.028750848 0.5616001 3.2045024e-05
0000d0 46 90 81 3f cd fc 32 3b 47 d6 44 3e db 1c 09 bd
       1.0122154 0.0027311326 0.19222365 -0.033474784
0000e0 dd ce 10 bc c7 b4 37 3f 95 b9 45 bc 26 fa cd bc
       -0.008838383 0.7176022 -0.012068172 -0.025143694
0000f0 69 1a 38 3b 33 68 49 3d 11 8f 05 bc b1 27 0f bc
       0.0028091914 0.049171638 -0.0081517855 -0.0087374905
