CNP-model-save-name/saved_models/model_1000.pth.pth.tar (torch, 727538 bytes, 50 tensors)

_deterministic_encoder.input_projection.weight f4 [64, 11]
00000000: 15e2 b7bd e878 93be b491 cf3d 5d1d fcbd
00000010: c93e 6c3e 5ec9 6a3d c043 0d3e 87bf 673e
00000020: 6c42 8dbd 5486 2f3d 27f4 91be f158 d9bd
00000030: eea0 23bd a277 a13d 4603 133e dbbe ebbd
00000040: 267c 33bd 155e 1e3e 5a0a 5cbe 73b2 88be
00000050: c38a a13c 859b 78bd c63f 4bbe 5483 1f3e
00000060: 8db8 313e feb4 cd3d ec95 5dbe e304 62be
00000070: c1b2 11bd 92d6 59bd d1fc 55be 32cc cabd
00000080: 40e1 a2bd ba30 023e 3c78 863e c868 133c
00000090: c153 91ba be72 4e3e 6607 16bd 5e4e 8cbe
000000a0: 4eb1 8abe 75e4 73be 3b59 523e 851d 61be
000000b0: 6a32 663e 5b22 2bbe 7f7f c0bd 2f77 533e
000000c0: 3180 883e 3ed4 913e 472b 893d 37a2 38bd
000000d0: 1556 833e 574b 2b3d 1460 0abe d0ea 033e
000000e0: e51a 3f3e 53eb 503e 1304 4c3e e61a ef3d
000000f0: d911 febd 422f 58be 029c 23be 1761 1fbe
00000100: 8da4 a3bd fd13 843d dbc8 553d 0289 693e
00000110: 8df4 e43d 4455 363e cbcd e03d 7b10 ea3c
00000120: bbd5 cf3d e752 30be 6771 843e 626e ae3d
00000130: 80f4 2b3e 127a 653e 149b 36be 7dcf a33d
00000140: f736 5c3e c6f0 3c3e 2c77 363d df57 343e
00000150: cec5 7cbd 38f0 7bbe 422c 12bd 5055 60be
00000160: 4b3e 343e 3f38 76be 5b5f c9bd 8f1a eabc
00000170: a05a 8f3e dc92 83be 44fe 75be 3304 50bd
00000180: 6b1b 7dbe 13a2 2b3e 277c 7a3e 3258 f73d
00000190: 60aa 1ebe 4e80 27be a554 64be 26e9 8fbe
000001a0: ed4a 3c3e 8441 71be 8bb9 8dbe ea65 3c3d
000001b0: b7cd 11be 81ab 753e 7c2b bc3d 03a3 ac3d
000001c0: 896a 5c3e 330a 243e 1dbf 183e 7c9d ab3d
000001d0: 24c6 da3c ccfb 503e 66f2 d73d 9517 6d3e
000001e0: 6ca1 22bd c694 483e 2501 90be 2c9e 8dbe
000001f0: b2da 353e 5404 36be 10d6 d53d 2814 223e
00000200: 034d 7d3e 52d6 95bd cc1a 6bbe e1ef 9c3c
00000210: 4a25 50be 0a9b 31be 1aa3 9dbd 8a00 01be
00000220: 9e5a ed3d d448 81be f811 383e 3c9f cdb9
00000230: e843 81bd 0949 a9bd 27cc 7bbe 954c 89be
00000240: 22ba d4bc 045c cebd 95a7 87be 13f4 323e
00000250: 09ee f93d 2cf5 043e 419d 90bd 14cc 2bbe
00000260: c33d 37bd 3e15 393e 2c95 223e e8f1 32be
00000270: da36 8abe 040c 1bbd 7a5a 72be caa1 003e
00000280: 764e 863c 434d 703e b15b 373d b5d1 6abe
00000290: 164e 5d3e 09d5 7e3e 5474 04be f3f1 5a3e
000002a0: cf14 8bbe aff6 593e 75d3 65be a9e3 06be
000002b0: 274f 2b3d 3492 10be 0ed3 2dbe 6ecb 8dbe
000002c0: 776f 09be ef6e dabc 3b6a 623e b1af 6fbe
000002d0: f030 64be 9a74 a2bc cfef 543e 8124 6cbe
000002e0: cf45 813e cc76 5cbe 5347 5b3e 6811 24be
000002f0: 97f7 303e b474 8ebd 4721 6ebe 057e bcbc
00000300: 9e02 8ebe e40d 3fbe 16a1 803e 64f5 47be
00000310: 05f5 963d ed69 6e3e 3b6b 5bbe aca4 043e
00000320: 2db8 5d3d 0851 573d 8b19 05be 96e4 40be
00000330: 4705 8b3e 4a66 8ebd 18d1 b63d 1ed2 bc3d
00000340: d4a2 83be dcf7 62be 531e 513e a674 093d
00000350: 4482 1bbe ddaf c0bd e399 6c3d 2214 b53c
00000360: 1ac3 81be 0fa8 07be 2d7f 51be f912 0cbd
00000370: 5ac7 cc3d accd 04bd 3238 813e 5328 28be
00000380: 7da5 42be 621d 793e bfaf c6bc 623b 2fbc
00000390: 6d65 73bd fce5 e5bc e025 8a3c a3cf 48be
000003a0: 52fc 823d 1152 4bbe 927d 2fbc 8498 81bd
000003b0: 4198 873e 5a0e f53d d015 65bd a30c 90bd
000003c0: 13cb f03c 7c5c 673e 6937 823d 4219 473e
000003d0: 6196 89bc 26c8 50be 2daa 8f3e 7a62 ed3d
000003e0: 9cfa 4abd 736d 2ebe e69c 213d 48ce 27bd
000003f0: c2b0 3fbe 599d 993d 16ec 113e edb5 7fbe
-0.089786686 -0.28803182 0.101352125 -0.12310288 0.23070826 0.057320945 0.13795376 0.22631656
-0.068974346 0.042852715 -0.28506586 -0.10612667 -0.039948396 0.07884146 0.14356717 -0.11511012
-0.04381957 0.15465577 -0.21488324 -0.26698646 0.019719487 -0.06069519 -0.19848546 0.15577441
0.17355557 0.10044287 -0.21639222 -0.22072177 -0.035570864 -0.053183146 -0.20897223 -0.099022284
-0.07953119 0.127139 0.26263607 0.00899715 -0.0011087583 0.20160958 -0.03662815 -0.2740354
-0.27088398 -0.23817618 0.20541851 -0.21983917 0.22480169 -0.16712324 -0.09399318 0.20650934
0.26660302 0.2848224 0.066977076 -0.045076575 0.25651613 0.041819897 -0.13513213 0.12882543
0.18662603 0.20402269 0.19923429 0.11675052 -0.12405748 -0.21111777 -0.15977481 -0.1556438
-0.0799037 0.06449125 0.052193504 0.2280617 0.11179457 0.17805964 0.10976752 0.028572312
0.10148188 -0.17219125 0.2586777 0.085171476 0.16792488 0.22409847 -0.17832595 0.079985596
0.21505342 0.18451223 0.044547245 0.17611645 -0.06171208 -0.24603355 -0.03568674 -0.21907544
0.17601888 -0.24044894 -0.09832641 -0.028577117 0.2799883 -0.25697982 -0.24022776 -0.050785255
-0.2471749 0.16761045 0.24461423 0.12077369 -0.1549468 -0.16357538 -0.22297914 -0.28107566
0.18387957 -0.23560148 -0.2768062 0.04599563 -0.1423863 0.23991205 0.091879815 0.084295295
0.21525015 0.16019516 0.14916654 0.08379647 0.026705809 0.20408553 0.10544281 0.23153527
-0.039704725 0.19588003 -0.28125873 -0.27659738 0.17759207 -0.17775089 0.1044122 0.15828001
0.24736409 -0.07316269 -0.22959441 0.019157352 -0.20326725 -0.17344299 -0.07697125 -0.12597862
0.115895495 -0.25250876 0.17975605 -0.00039219286 -0.0631178 -0.082658835 -0.24589597 -0.2681624
-0.025967661 -0.10076144 -0.26495042 0.1747592 0.12203605 0.1298415 -0.07061244 -0.16777068
-0.044736635 0.1807451 0.15877217 -0.17475092 -0.26994973 -0.037853256 -0.23667327 0.12561718
0.016394835 0.23466973 0.044765178 -0.2293156 0.21611819 0.24885954 -0.12935 0.21381359
-0.27164313 0.21285509 -0.22443946 -0.13172783 0.041823532 -0.14118272 -0.16975042 -0.27694267
-0.13421427 -0.026664225 0.22110836 -0.23406865 -0.22284293 -0.01983099 0.20794605 -0.230608
0.25248572 -0.21529692 0.21413927 -0.16022265 0.17281948 -0.06955853 -0.23254882 -0.02300931
-0.27736372 -0.18657643 0.251229 -0.19527203 0.073709525 0.23282595 -0.21427624 0.12953442
0.05413072 0.05256751 -0.12998025 -0.18837199 0.27152464 -0.06953104 0.089266 0.09219764
-0.25710166 -0.22164863 0.20421724 0.03355851 -0.15186411 -0.09408543 0.057763945 0.022104327
-0.25344163 -0.13247703 -0.2045867 -0.03419778 0.09998961 -0.032422706 0.25238186 -0.16421632
-0.19008441 0.24327615 -0.024253724 -0.01069531 -0.0594229 -0.028063767 0.016863763 -0.19610457
0.063957825 -0.19855525 -0.010711091 -0.06327918 0.26483348 0.11965628 -0.055929005 -0.0703366
0.029393708 0.22593874 0.06358225 0.19443229 -0.016795339 -0.2038885 0.2805952 0.115910485
-0.049555406 -0.17033939 0.03945627 -0.04096821 -0.18719772 0.07500715 0.14250216 -0.24971743

_deterministic_encoder.input_projection.bias f4 [64]
00000000: 7d88 c6bb 7982 bbbb 9052 f8bb 502b b3bb
00000010: 36f4 4c3b 749b 1cbc 23d3 daba 725a 0e3c
00000020: 51bc a53b cd3c 7bbc f8d3 04bc 34d0 b1ba
00000030: 5518 c7bb c52c 08bc e75b 97bb 5b74 a6b9
00000040: cd6d 903c d0a5 4bbb bf03 0fbc a751 80bb
00000050: acaa e3ba a7aa 183c d092 0f3c 88d2 a7bc
00000060: c142 583c 7117 30bc 719e a93b 51de 853b
00000070: cce0 da3b d36e 91ba 6ef0 40bc 645f 60bc
00000080: 74d4 883b 3a24 f6bb 04de fd3a c71f e8ba
00000090: 779e c7b8 3ddc 4bbb aaf8 e33b e2a3 f93b
000000a0: 7941 093c c14c 663b 0609 9dbc c97d 36bb
000000b0: 6aeb 0dba 6c3f 33bc c246 5dbb 0734 f13b
000000c0: 64c3 77bb 52ac 72bc 40e7 a53c b95e 1f3c
000000d0: babd 1e39 e52a b8bb 4126 853b f5c3 f93b
000000e0: 01c6 53bc 27e8 113b 78cf 173b 8f4b 5c3b
000000f0: 425e eebb 5083 4ebc 3094 c43b d0df 39bc
-0.006058751 -0.0057223407 -0.0075782016 -0.0054678097 0.003127349 -0.009558547 -0.0016695004 0.008688556
0.0050578495 -0.01533432 -0.008107178 -0.0013566078 -0.0060758987 -0.008311455 -0.00461911 -0.0003174868
0.017630482 -0.0031074174 -0.0087289205 -0.0039159837 -0.001736959 0.00931803 0.00876303 -0.020486131
0.013199509 -0.010747776 0.0051763584 0.00408534 0.00667963 -0.001109565 -0.011776073 -0.013694618
0.004175717 -0.0075116428 0.0019368534 -0.0017709666 -9.518576e-05 -0.0031106614 0.0069571333 0.0076184133
0.008377426 0.0035140964 -0.019169342 -0.002784597 -0.00054138026 -0.010940414 -0.0033764099 0.0073609385
-0.003780567 -0.014811592 0.02025187 0.0097271735 0.00015138733 -0.005620348 0.004063398 0.007622237
-0.012925626 0.0022263618 0.0023164432 0.0033614372 -0.00727442 -0.0126045495 0.0059991106 -0.011344865

_deterministic_encoder.output_projection.weight f4 [64, 10]
00000000: a6a6 253d f893 14be d29c eb3d 91ec 493e
00000010: 70ec dc3c 2810 7c3e 97a8 bcbd 46e7 fa3d
00000020: 0c41 5b3e f3c4 18be 4e86 73be b5a5 323e
00000030: 5b0b c23b 9666 f43d 5998 313e 649b f6bb
00000040: f0e5 5b3e edab 0ebe 9798 c63d 66bd 73be
00000050: 0cb1 80bd 3081 0f3e cc7b f9bb 1fcf 86be
00000060: d6d1 10be e22c 44be a009 683e 5ca4 4ebe
00000070: bf81 dbbd 4d68 983e 0704 0e3e e655 9d3d
00000080: 62e6 7f3e 5cb5 1e3e bb3b fe3d 8501 7a3d
00000090: 9837 54be 9bc0 52bd cb0f fb3d 3aa5 cabb
000000a0: c332 883c fc02 123d 9933 943e eefb 2ebd
000000b0: 0bde edbd 80ab 843e 2be8 a2be b14d eabd
000000c0: e065 63bd 54cd 603e 3b20 d23d a8e6 5e3e
000000d0: b7a1 2d3a 3b68 0d3c 40e1 3fbe 037e c6bb
000000e0: 7bcb 823e 6adb 683e 69b3 a8bc 0d20 3abe
000000f0: ca48 b4bd fdcb 17bd 4a8b 5f3e 8cf5 8bbe
00000100: 4cc0 403e 02fc 8a3b 9a3b 0c3c 691e 6bbe
00000110: b6f1 74be b123 cf3c f569 203e 3588 5abe
00000120: b88b 273e 078d 6c3e cbd2 7abe 9dd7 f83d
00000130: f27e 593d 6b5c 5a3d a766 7abd fbb7 7d3e
00000140: eb68 e03d 4657 3ebd 926b 803e 47ce c53d
00000150: e069 50be 51f7 943d 1cee 373d 5931 04be
00000160: 0d0d 48bd 8f79 11be b602 4dbd 8f44 143e
00000170: 6de8 563e c089 01bd ca8d 69be 5f36 843e
00000180: 0ea4 25be 1168 2b3c b209 a13d 4fc2 873e
00000190: e60f 35bd 76a4 bcbd 05e2 25bd fa51 403d
000001a0: 9d27 eebb 1e84 173e ba0a 06be bc7f 35be
000001b0: f6ae 0cbe a389 673e 3c85 093e 9e99 7f3e
000001c0: 045e 50bd 1bc2 4d3e b7c1 21be bb4a 86bd
000001d0: df0a 303e e9b6 13be 805a 393e b234 6dbe
000001e0: 826f 9cbe 9ecd ca3b f438 fcbd 5be5 3abe
000001f0: 4553 aabd 3f4b 9d3e dd1f 77be 1508 2e3e
00000200: 306c b43d 2b18 3e3e 67ba b5bd 628b 1abe
00000210: 3b73 cb3b a6fd 83be fd92 e0bd 4989 cbbd
00000220: 750b 8e3e ef6c 90bc 3ad6 213e afaa f4bd
00000230: 9fcc 983c 3d80 2bbe 71c9 11be f9f6 b63d
00000240: 0aca 02be bc88 963d a33d 1bbd 42a6 103e
00000250: a085 45be 1a03 92bd 5f69 d33d 8d14 23be
00000260: 41e5 123d deb5 8bbe 1b31 18be d710 853e
00000270: 1da4 5f3e 1161 533e c9a9 e83d 8ea4 fe3d
00000280: f61d 2d3e d07c eb3d c0b8 723c 9f89 a13d
00000290: 0bd9 b53d 123f c73d df0d edbd 8689 503e
000002a0: e1c7 073e 2990 dbbd d32e ee3d 5790 4cbe
000002b0: d166 803e 9689 a8bb e0f8 62be f29f 82be
000002c0: 81f0 80be f129 a73e 6089 243e 6fac c1bd
000002d0: e094 4e3d 9060 abbd 6b5d 03be e4e2 c33d
000002e0: 9ff0 573e b609 39bd 04e4 6a3d ec7d 5cbe
000002f0: 4301 3b3e 5429 c9bd 4e78 3fbe 7a10 4b3d
00000300: 8d56 a9bd 1a54 cd3c bb31 45be 2893 45bd
00000310: b1cd 103e 7b01 823e efa7 513d 446b 29be
00000320: 70d4 043e 928c 9bbc 6c4b 7ebc 0959 2c3e
00000330: 8858 ba3d 95b1 f7bd 648c 7ebe 2e7a f93d
00000340: ac87 5a3d 32dc 38bb c729 0b3d 98b7 1cbe
00000350: f8ab 773d ea97 25bd 02dc 7dbd 051e 763e
00000360: a25a 983d db2d 603e 6197 42be 9129 33be
00000370: 8954 f53b 310a 38be 8a9c a13d 4a3e 663e
00000380: dd67 a4bd 5ffc 923d e492 553e a275 713e
00000390: 6d49 d5bd 2eb3 55be 45c8 01be 30ef 443d
000003a0: a141 adbd ec71 56be 7906 a2bc 3489 fe3d
000003b0: 3177 023e 099b ffbd 26c2 6c3e e350 00bd
000003c0: 6d40 e83d 2338 f6bd ac9e 383e 6c6a 67be
000003d0: 5977 62be 7ea7 71be dd47 773e 8f5c 6e3e
000003e0: e3eb 1cbe 54e8 493e 3730 7fbd 8c14 993e
000003f0: 5aed a0bd de73 093e d16a a3bd 0743 c53d
0.04044213 -0.1450957 0.115045205 0.19719149 0.026968211 0.24615538 -0.092118435 0.12251143
0.21411532 -0.1491888 -0.23781702 0.17446025 0.005921764 0.11933629 0.17343272 -0.007525848
0.21474433 -0.13932772 0.09697073 -0.23802719 -0.06283769 0.14014125 -0.0076136347 -0.26329896
-0.14142546 -0.19157746 0.22659922 -0.20179886 -0.107181065 0.29767075 0.13868724 0.076823995
0.24990228 0.1549887 0.124137364 0.061036605 -0.20724332 -0.051453214 0.12258872 -0.0061842473
0.016625768 0.035647377 0.28945616 -0.042720728 -0.11614617 0.25912094 -0.31817755 -0.114406
-0.055517077 0.21953326 0.10260054 0.21767676 0.00066235237 0.0086308075 -0.1873827 -0.0060575022
0.25545868 0.2273995 -0.020593362 -0.18176289 -0.08802946 -0.037059773 0.21830478 -0.27335775
0.18823355 0.0042414675 0.008559132 -0.2296082 -0.2392033 0.025285574 0.1566542 -0.21341021
0.16361892 0.23100673 -0.24494474 0.121505 0.05309958 0.053310793 -0.061133053 0.24777214
0.109575115 -0.04646995 0.2508207 0.09658485 -0.20352888 0.07273734 0.044904813 -0.1290945
-0.04884057 -0.14206527 -0.050051413 0.14479278 0.20987101 -0.03162551 -0.22807994 0.25822732
-0.16175863 0.010461823 0.07863177 0.26515433 -0.044204615 -0.09211056 -0.040498752 0.04695318
-0.007267906 0.14796492 -0.1309003 -0.17724508 -0.13738617 0.22611098 0.13429731 0.24960944
-0.05087091 0.20093577 -0.15796553 -0.065572225 0.17191647 -0.14425243 0.1810093 -0.23164633
-0.30553824 0.0061890623 -0.123155504 -0.18251555 -0.08316664 0.3072147 -0.24133249 0.1699527
0.08809698 0.18563907 -0.08873444 -0.15092233 0.006208805 -0.25779456 -0.10965536 -0.099382944
0.27743116 -0.017630069 0.15804377 -0.11946618 0.018652258 -0.16748138 -0.14237 0.08933825
-0.12772384 0.07350299 -0.03790058 0.14125922 -0.19289255 -0.07129498 0.10322832 -0.15925808
0.035863165 -0.2728719 -0.14862482 0.2598941 0.21839948 0.20642497 0.11360509 0.1243373
0.1690596 0.114984155 0.014814556 0.07887577 0.08879288 0.097288266 -0.11574911 0.20364961
0.13259842 -0.10720856 0.11630025 -0.19976936 0.25078443 -0.0051433546 -0.22165251 -0.25512654
-0.2518349 0.32649186 0.1606803 -0.09456717 0.050434947 -0.08368027 -0.12828605 0.0956476
0.21087883 -0.045175277 0.05734636 -0.2153241 0.182622 -0.09822336 -0.18698236 0.04957626
-0.082684614 0.025064517 -0.19257252 -0.048236042 0.14140965 0.25391755 0.051185545 -0.16544825
0.12971663 -0.018987928 -0.015520912 0.16830839 0.09098917 -0.12094418 -0.24858242 0.12181507
0.053352043 -0.0028207419 0.03397539 -0.1530441 0.060466737 -0.04042808 -0.061977394 0.24034889
0.07439162 0.21892492 -0.19003059 -0.17496325 0.007486884 -0.17972638 0.078911856 0.22484699
-0.08027623 0.07177042 0.20856816 0.2358003 -0.104143955 -0.20869133 -0.12674053 0.04807967
-0.08459783 -0.20941895 -0.019778477 0.12428513 0.1274078 -0.124807425 0.23120937 -0.03132714
0.11340413 -0.12022426 0.18029279 -0.2259919 -0.2211584 -0.2359905 0.24148507 0.23277496
-0.15324359 0.19717532 -0.06230184 0.2989849 -0.07857771 0.13423106 -0.07979358 0.09631925

_deterministic_encoder.output_projection.bias f4 [64]
00000000: 4e5b 71bc 65bd 24bd 6b5f 203d ce7d 59bd
00000010: 3096 53bc 6218 57bd 0f16 1c3d 703e 2ebd
00000020: b05b d4bb 11c6 733b 4334 7c3c a8a3 e4bc
00000030: e9d8 313d 7dc6 223d ca1b 133d 0f99 85bb
00000040: 9cbd 4bbd 2729 b8ba 4fb6 27bc 2fd3 a1bc
00000050: 8f8a 18bd 709c ce3c ae07 39bd e357 3abb
00000060: 30ce 043d 355e 5ebc 09a8 97bc 8837 dfbc
00000070: 2c3c 403c 1e0f 29bc ce7f ad3c 1c6a 04bd
00000080: f47c 31bd 64f5 03bd d4cb 16bd d48c 84bc
00000090: 82c3 7bbc 6821 e2bc 6b6a 1f3d 80be 32bd
000000a0: 8d19 753c 3d6f 5b3d 3636 44bd cb3e d03c
000000b0: 3c05 153b fa4c debc 2e25 2d3b b65c 723c
000000c0: cb70 e93b 2cdb 23bd 4834 28bd a052 193d
000000d0: 34a3 903d b36b 6b3d cadc 033d 3fd3 a1bc
000000e0: 933e 473d e999 233d 790c a33c 374b 14bc
000000f0: 1de1 17bd 708c 46bd 01a1 3bbc 14f2 2d3d
-0.014731241 -0.040219683 0.039153498 -0.053098492 -0.012914225 -0.052513488 0.038106974 -0.042540014
-0.0064806566 0.0037196914 0.01539332 -0.027910069 0.043419752 0.039740074 0.035915174 -0.004077084
-0.049741372 -0.001405035 -0.010236337 -0.01975402 -0.037241515 0.02522108 -0.04517334 -0.0028433732
0.0324232 -0.013572265 -0.018512743 -0.027248159 0.011733096 -0.010318546 0.021179106 -0.032327756
-0.043332055 -0.032216445 -0.03681548 -0.016180433 -0.015366437 -0.02760382 0.038919847 -0.043638706
0.014959705 0.053572882 -0.047903262 0.025420567 0.0022738716 -0.027136315 0.0026419866 0.014792612
0.0071240417 -0.04000394 -0.041065484 0.037432313 0.070623785 0.057475757 0.032192983 -0.01975405
0.04864366 0.039941702 0.019903408 -0.009051136 -0.03707992 -0.048473775 -0.011451961 0.04246719

_deterministic_encoder.transformer_encoder.layers.0.self_attn.in_proj_weight f4 [192, 64]
00000000: 273d a6bc b6eb 1cbd af32 173d a149 26be
00000010: b366 cebd 79bc 3dbe 18ab 5c3d c641 b9bd
00000020: e6d3 97be 8498 463c d187 3abc 62f6 16bd
00000030: 9c3a 1f3e 4d92 2d3e 1e95 9b3d b6de 433d
00000040: 150b 00be c199 6b3d f64e 093e 898c 3a3c
00000050: 85b1 cabd 2a30 b13d 28a5 82bd 361f 663e
00000060: cee0 4d3d cc19 28be eeb2 b6bd 1de0 6fbe
00000070: 2f2a f6bd 522a 0abc 498f 273c d43a d4bd
00000080: eea2 f5bd 89bd 313e 9fb4 70be ee41 563e
00000090: 53d3 1ebe 2ca7 45be 42d3 283e df1e 403e
000000a0: 0d9c 29bd 0e55 a2bd ebdb 0bbe 3434 8d3e
000000b0: 14da 6bbe a57a 1cbd e8b5 2bbd a902 8dbd
000000c0: 0933 0f3c ad5e dcbd f99c 56bd 37fa cc3d
000000d0: 6b7c 39bd 00e8 533d 78a7 e83d 224b 723d
000000e0: 5b18 0dbd bfed 13be 1de9 3e3e a2b3 103d
000000f0: d1c8 f2bd 37af 3bbd d6a5 a9bc ea2f ca3d
00000100: 0c75 213e 879e cd3d 3ad7 b5bd 50a8 613e
00000110: 96e8 763e a748 3a3d 3d3d e0bd 2280 113e
00000120: e2e2 3a3e bd00 953c 3874 72bd 4390 323e
00000130: 74b6 09be 4e92 77be d449 b9bc 2243 82bd
00000140: ce1f 283e c997 08be a46c 23be f470 4fbd
00000150: 3218 023e c387 1cbe 8810 c23d 00e3 38be
00000160: 0d14 07be 190e 4e3e b6df 163e 3435 be3d
00000170: c0f4 903d e336 ca3c fc29 c7bd cf5a 493e
00000180: 3b52 2d3e 4dda 03be 1424 ad3e 6cf5 14be
00000190: 9ee9 573e 6117 223e 1d6b c8bd 254f 6abe
000001a0: ffa4 ba3d f1ac 04be e895 e13d 6cf9 b1be
000001b0: 0343 8d3e e6d8 8a3e 7c8d 723d c148 74bc
000001c0: 3b4c e13a b979 463c 36d1 b03d 445a f0bd
000001d0: 3465 9a3d 6778 6ebc b07d 20be 130b 073d
000001e0: 1c53 b03c a7c2 923d 9e03 6fbe b89e 46be
000001f0: 0c75 963d 613c 623e 290c 233e b5c1 2abd
00000200: cbe8 b0bc b5ef 1f3e e2fd 9bbb 1329 603e
00000210: 4114 dd3d 92b4 573e a2b3 02be debe a53d
00000220: 571a 713e 0812 4b3b 46ce dfbc 599b 1d3e
00000230: abe5 47be 1412 8bbd d1be 4fbe 6c6c 88bd
00000240: 4732 203e a8b1 dbbd a7ff ebbd 6998 21bd
00000250: f45a db3d 0a0e eabd 4fbb 603d d210 1fbe
00000260: 9c65 b3bd 3a34 523e b404 83bb 87ab 5d3e
00000270: d016 0b3e 409f 8e3d bc58 a6bd 4a2c ce3c
00000280: a44c 4b3e b861 ebbd c30d 943e a95e 68bd
00000290: 7743 253e 31bc 263e 7ff2 5ebe 91cf 64be
000002a0: c454 f13d 8d53 8bbd 04aa 2e3e 034b a4be
000002b0: fdec 143e 90e1 063e 836b f2bc 2a8e 8f3c
000002c0: 2646 a83c 247f 4e3e 8faa e93c af51 02be
000002d0: a7be 663c 73f8 25be 9832 30be 43f6 243d
000002e0: bee7 ee3d d420 163e 542f 82be 596b 7fbd
000002f0: a114 b53d a777 053e e7b1 233e b73b c7bd
00000300: f00d 05bc 9e5a 443e 8762 a6bc 8b6b 2e3d
00000310: ceaa 2c3e eabb 403e c95c e83c 5246 683d
00000320: 4230 1b3e d30a d13d c20e 8dbd 021d 4b3d
00000330: 1724 0fbe 6325 8fbd efa9 24bd 65e4 b6bc
00000340: 6441 13bd 621e 12be 9033 82bd 5128 43be
00000350: eb83 a43d 316d e9bd a56f 8d3d 729b 28be
00000360: d311 f1bc 502c 7b3e 6cc7 c03d bd30 973d
00000370: cbe5 213e 0f3a ea3c 7848 6dbe a63c fb3d
00000380: 67f4 083e 410a 96bd c606 a73e 644f 11be
00000390: 2ca4 0dbd bdf8 d83d e45e 98bd c2ea 81be
000003a0: 62be 033d f024 58bd c9e0 2e3d 452a 20be
000003b0: c304 3d3e ecbd 1c3e 69d1 97bd 58d4 b23d
000003c0: 74f3 143c fc3d 943d 50bb c93d 56a9 b6bd
000003d0: 8778 b93d 6727 49be c613 cebd f0c7 0cbd
000003e0: dfd4 393e 10eb f83d 1d13 45be fa3c 98bd
000003f0: 5589 063e 598b 9d3d 91b6 013d d6d3 ccbd
-0.020292832 -0.03831073 0.03691357 -0.16239025 -0.10078182 -0.18528928 0.053874105 -0.090457484
-0.29653853 0.0121213235 -0.01138492 -0.036856063 0.15549701 0.1695034 0.07596801 0.047819816
-0.12504227 0.057519678 0.13409027 0.011386045 -0.098971404 0.08651765 -0.06379157 0.22472844
0.05026322 -0.1641609 -0.08920847 -0.23425336 -0.12019765 -0.0084329415 0.010227033 -0.10362783
-0.11993967 0.17357458 -0.23506401 0.20923588 -0.15510301 -0.19302052 0.16486838 0.18761776
-0.041408587 -0.07926379 -0.13658111 0.2757889 -0.23032409 -0.0382029 -0.041921526 -0.06885273
0.008740195 -0.107602455 -0.052395795 0.10008662 -0.04528467 0.051734924 0.11360067 0.059153683
-0.034447055 -0.14446162 0.18643613 0.03532756 -0.11854709 -0.045821395 -0.02070896 0.0987242
0.15767306 0.10040002 -0.08878942 0.22036862 0.24112162 0.045479443 -0.1094918 0.14209035
0.18250611 0.018188829 -0.059192866 0.17437844 -0.13448507 -0.24176905 -0.022618212 -0.06360461
0.16418383 -0.13339151 -0.15959412 -0.05064483 0.12704542 -0.15286164 0.09475809 -0.18055344
-0.13191243 0.20122565 0.14733776 0.092874914 0.07077932 0.024684375 -0.09724805 0.19663547
0.169259 -0.12876244 0.33816588 -0.14546746 0.21085212 0.15829231 -0.09786055 -0.22881754
0.09113502 -0.12956597 0.110149205 -0.34760606 0.27590188 0.27118605 0.05921696 -0.014909924
0.0017188856 0.012113982 0.08633654 -0.11735967 0.07538834 -0.014555073 -0.15672946 0.032969546
0.021524005 0.07166033 -0.23341224 -0.19396484 0.07346544 0.22093345 0.15922607 -0.04168864
-0.02159538 0.15618785 -0.00476049 0.21890669 0.10794879 0.21064976 -0.12763837 0.08093046
0.23545204 0.003098609 -0.027320039 0.15391292 -0.19521205 -0.067905575 -0.20287634 -0.06661305
0.1564418 -0.107272446 -0.11523371 -0.03945199 0.10710707 -0.11428459 0.05486613 -0.1553376
-0.08759615 0.20527735 -0.0039983634 0.21647464 0.13582921 0.06963968 -0.081223935 0.025167603
0.19853455 -0.11493248 0.2891675 -0.0567309 0.16139017 0.16282727 -0.21772192 -0.22344805
0.11783746 -0.068030454 0.17057043 -0.3208848 0.14543529 0.13171983 -0.029592281 0.017523844
0.020541262 0.20165688 0.028523711 -0.12726472 0.014083541 -0.16208057 -0.172068 0.040273916
0.11665295 0.1466096 -0.25426733 -0.062358234 0.08841825 0.13033925 0.15985833 -0.097281866
-0.008120999 0.19175193 -0.020310653 0.04258303 0.16862032 0.18821684 0.028364556 0.056707688
0.15155128 0.10207143 -0.068875805 0.04958821 -0.13978611 -0.06989553 -0.040201124 -0.022325704
-0.035951033 -0.14269403 -0.06357491 -0.19058348 0.08032974 -0.1139778 0.0690606 -0.16465548
-0.029427445 0.24528623 0.09413037 0.07382343 0.15810315 0.028592138 -0.23172176 0.12267427
0.13374482 -0.073261745 0.32622355 -0.14190441 -0.034580395 0.10594318 -0.07439974 -0.25374418
0.032163985 -0.0527696 0.04269484 -0.15641125 0.18458848 0.15306824 -0.07412989 0.087319076
0.009091247 0.07238385 0.0985018 -0.08919017 0.09056192 -0.19643937 -0.10062365 -0.034370363
0.1814761 0.121542096 -0.19245572 -0.07433505 0.13138326 0.07692594 0.03166825 -0.10001342

_deterministic_encoder.transformer_encoder.layers.0.self_attn.in_proj_bias f4 [192]
00000000: d893 e5bd ec4f 043e 0aac f03d 7fe9 ff3d
00000010: df49 063e dca3 fe3d e816 f6bd 2de3 f3bd
00000020: e2b1 103e 4b85 f2bd f1d0 00be 89c0 d8bd
00000030: 1956 fdbd 97ec e5bd e9fc 043e c220 fcbd
00000040: dd37 433e 4d99 33be 8dc8 1b3e f250 34be
00000050: 10fc e63d 46be 393e 5ddb 04be af77 0abe
00000060: 7fa3 b7bd 6f76 cd3d 016a 2fbe 6479 2dbe
00000070: cefa e8bd 5c46 5f3d 8efa dfbd 82d7 47be
00000080: 97e3 94bd e485 af3d a930 203e 316d a63d
00000090: 6740 fe3d 25c4 c2bd a776 833d 4b35 db3d
000000a0: e5d1 253e e363 1e3e 0e7e d73d 5351 12bd
000000b0: a73b 053e a439 943d 5091 febd 128f d23d
000000c0: b87f 22be edbf 15be af01 303e b326 2dbe
000000d0: ee2a 0abe 0380 26be 627b 34be 9945 1c3e
000000e0: 16fa 303e b0b8 2c3e ffde 193e 29d6 29be
000000f0: a60a 083e 9623 1dbe 68df 30be 83b9 2c3e
00000100: 6a8f ee36 81c9 89b6 8c4e efb6 3ae5 8db6
00000110: d707 f2b6 cea9 98b6 228b 0d37 527e 0937
00000120: 39d7 fab6 869f ae36 ac1b 4837 174e e936
00000130: fa46 8636 893b bd36 f266 6ab6 c537 c036
00000140: 0822 2137 750d e3b6 98a6 a236 45ae 60b6
00000150: 2a00 0935 4692 3437 8382 31b5 6000 0eb6
00000160: f037 beb4 4152 fc35 94d3 9fb6 2427 4db7
00000170: 96a5 02b5 adfa cb33 8f9b 92b6 84df e5b6
00000180: 4574 5eb6 92c3 1836 71af 9d36 cea2 5e36
00000190: ffeb ec35 4b30 60b6 582b de35 88a6 4336
000001a0: 5e83 fd36 9cae ea36 546b 1736 22da b4b6
000001b0: c7ba 5436 5887 7e36 0f30 f3b6 b171 2e36
000001c0: a486 61b6 bf60 43b4 b17c 2136 98b7 86b5
000001d0: a3b7 98b4 2896 e0b5 bdb3 02b5 fe1d 5a36
000001e0: d717 d635 9f2e a235 7d52 2035 1ec1 0db6
000001f0: 8447 67b4 5da1 29b5 ff50 8835 0edb 9a35
00000200: 236b bf3c a925 48bc 0936 5a3b 61c3 c7bc
00000210: 08a1 e83c 53f6 0fbd de90 343d fe67 08bc
00000220: 7f91 15bd 99b3 b2bc f5d3 afbc 5ff1 fdbc
00000230: f8f6 acbc 11b1 a73c 362d d23c 2201 6d3c
00000240: 913e bc3b e9bc 2a3c 6120 6f3c f0f2 acbc
00000250: 28eb ee3c dcfc b8bc 6b60 bb3c 0b0f a23c
00000260: ef1a 9cbb ed94 d3bc 5904 ec3b 85db ad3b
00000270: 2cbf dc3c 20d7 8bbb bfd5 04bc e186 853c
00000280: 306b a7bb bd30 5fbc 3525 f63b ffe2 8a3c
00000290: e86a 343d ff98 0f3c f9d9 66bb ffe7 a4bc
000002a0: 3c37 343b 9a40 0c3d b59a aabc 998d a83c
000002b0: ede0 12bd 08cf 6b3c de1b 453c 7329 cebc
000002c0: 1bbf f2bc a33d 19bc 7a47 00bd 0dca abbc
000002d0: 2b40 5f3c 43e6 d13b 27b5 b8bc 3427 16bd
000002e0: 728b 9e3c d161 1b3c 7cc3 a03c c1a7 003d
000002f0: d05d 82bc 6cfc 18bc 3d01 c53c c8f3 e9bc
-0.112098396 0.12921113 0.11751564 0.12495708 0.13114117 0.124335974 -0.12016088 -0.11908565
0.14130357 -0.1184183 -0.12579705 -0.10583598 -0.123699374 -0.112267666 0.12987103 -0.123109356
0.19064279 -0.17538948 0.15213223 -0.17609003 0.11278546 0.1813899 -0.12974305 -0.13522218
-0.08966731 0.10032355 -0.17130281 -0.16940838 -0.11375962 0.05451046 -0.109364614 -0.19515803
-0.07269972 0.085704595 0.15643562 0.08126295 0.124146275 -0.09510068 0.064191155 0.10703524
0.1619335 0.15467791 0.1052209 -0.035722088 0.13011037 0.072375566 -0.1243006 0.10281195
-0.15869033 -0.14623995 0.17188142 -0.16909294 -0.13492939 -0.1625977 -0.17625192 0.15260924
0.172829 0.16867328 0.15026473 -0.16585602 0.13285312 -0.15345606 -0.17272723 0.16867642
7.1096483e-06 -4.1063763e-06 -7.131899e-06 -4.228813e-06 -7.2130747e-06 -4.549721e-06 8.436649e-06 8.195248e-06
-7.475636e-06 5.204175e-06 1.1927372e-05 6.953032e-06 4.001774e-06 5.6395697e-06 -3.492864e-06 5.7285383e-06
9.604271e-06 -6.766694e-06 4.8473703e-06 -3.348004e-06 5.1036716e-07 1.0762893e-05 -6.612756e-07 -2.1159867e-06
-3.5430958e-07 1.8799402e-06 -4.7632e-06 -1.2228065e-05 -4.8669733e-07 9.498522e-08 -4.3692485e-06 -6.8507525e-06
-3.3148256e-06 2.2763602e-06 4.6993887e-06 3.3175343e-06 1.7652054e-06 -3.3406711e-06 1.6552904e-06 2.9154198e-06
7.5552807e-06 6.9940706e-06 2.2563227e-06 -5.389812e-06 3.169918e-06 3.792773e-06 -7.247559e-06 2.5994198e-06
-3.3605984e-06 -1.8195986e-07 2.406345e-06 -1.0037211e-06 -2.844582e-07 -1.6733002e-06 -4.869033e-07 3.250199e-06
1.5951181e-06 1.2083509e-06 5.972468e-07 -2.1123046e-06 -2.1539569e-07 -6.319222e-07 1.0156363e-06 1.1537647e-06
0.023366516 -0.01221601 0.0033296368 -0.024385156 0.028397098 -0.035147022 0.04408347 -0.008325575
-0.03651571 -0.021814154 -0.021463374 -0.030998884 -0.021113858 0.020470174 0.025656324 0.014465602
0.005744763 0.010421016 0.014595122 -0.021111935 0.029164866 -0.02258151 0.022873124 0.019782564
-0.004763953 -0.02582785 0.0072026667 0.00530571 0.026946627 -0.0042675883 -0.008107602 0.016299667
-0.0051092133 -0.01362246 0.0075117596 0.016953943 0.044047266 0.008764504 -0.0035225137 -0.020130156
0.0027498743 0.034241296 -0.020825723 0.020575332 -0.035859037 0.014392622 0.01203057 -0.025166249
-0.029632142 -0.009353074 -0.031318165 -0.020970369 0.013626139 0.006405623 -0.022547318 -0.03665848
0.019353602 0.0094837705 0.019624464 0.031409983 -0.015913874 -0.009337526 0.024048442 -0.028558627

_deterministic_encoder.transformer_encoder.layers.0.self_attn.out_proj.weight f4 [64, 64]
00000000: e9ce dabd 0602 03be e44c 3bbe 889f 28bd
00000010: 4ed7 21be bd71 b8bd b45e 0e3e d40c f5bd
00000020: 65a5 06be 0a56 6abe 6a58 3c3e f18a 8f3d
00000030: ee43 15be aa02 15bd c50b 3e3e 2a7b 363e
00000040: c0ea 1fbe b491 bcbd baec debd 6e8a 31be
00000050: 10c0 eb3c c6af b43d 5ff6 533e 8de1 163e
00000060: 7e86 b1bd b24e d1bd 7cb9 abbd ce5e 013b
00000070: b84c 4abe a54a e83d 88a1 1bbd a80b 403e
00000080: 3abe 2abe aad1 bfbd da22 e0bd 0a62 d83d
00000090: 357c 1abe 3004 c8bc 3e0d 9d3d e87e f839
000000a0: 0701 49bd 1f30 883c 4315 e4bd daab 103c
000000b0: a7b1 2bbe c2ba da3d bbe9 59bd fdbe b1bd
000000c0: 8292 5f3e 70f5 30be 8345 bdbd e40d 27bb
000000d0: 807c 31be 8bfe d33d 2060 fe3d 527a 0fbe
000000e0: 802a af3d 192c 22be de48 91bd fbf1 b2bd
000000f0: a7ad b03c 4b73 363e e1e3 07bc 607d 45bd
00000100: 5270 0a3e 4650 cabd a570 e53c bdac 023e
00000110: cf50 dfbd 7b33 b8bd 1772 60bb f3f5 2e3e
00000120: 2b4f b8bd d906 113e 6d15 163e e215 503e
00000130: 7c3d 80bc 2507 37bd 33d2 04be 9cfe 0a3e
00000140: 515d 22be b0bf c63d ed5a 183e b7b1 ea3d
00000150: 90d8 783d bc32 c63d ce45 a8bd 390c 2d3e
00000160: 9b13 57bd 9587 293e d9bf 3bbe 776a 62bc
00000170: 28f9 0b3e 88c2 fa3b c8cf 2f3e a024 b03d
00000180: 2422 a1bd 3658 13be 37f1 23bd 10f5 db3d
00000190: a09c 25bc 6ae5 0ebe 8a75 413e 4d9f 0cbd
000001a0: fa7a 89bc 6c1b 33be 2be7 71be 5eeb f13d
000001b0: 9a2e de3d d0b0 123c 5996 cd3b c8fa d53b
000001c0: a4c0 023e 78b8 c13c b389 293e 03b1 aebd
000001d0: a84a 09be 2016 ac3d 64a3 f5bd 02e9 e6bb
000001e0: 8205 5cbe 820e 293e 2df1 37ba 325e c83d
000001f0: 34ef 87bd f724 233e 905d a33d 4470 693d
00000200: d4d9 8ebc e979 493e 28c9 1bbe 1cc7 8f3c
00000210: aaa2 433d a1fa 3e3e 4049 99bc e07f 8b3d
00000220: b8ca 80bd 2699 1cbe 80f8 013e b01e d43c
00000230: 2513 bbbd 5adb a2bd 6b27 edbc c8a9 06bd
00000240: 1158 573b ddf0 7fbd adf7 3c3d 3289 24bc
00000250: 8d11 293e b377 763d 9ed5 063e b5fd 293e
00000260: 8c45 973d 9bf8 e83d 8692 353e e138 ba3d
00000270: 6316 8ebd 5063 89bd addc 2d3e c31c 403d
00000280: 9860 763c f837 13be 0f2a 223e 601a 3c3e
00000290: d84b 8abd 886d bdbd ec00 51bd f51d 01bd
000002a0: f0b0 0d3c 2c8b b23a 9f66 ecbc 4b9f 92bd
000002b0: 1795 cabd f652 253e d3ea 8bbd 4e6c 1dbd
000002c0: 67aa 213e 4e86 753b 3cdc 16be 0242 b6bc
000002d0: 11e2 463e d6c5 c73d 5560 72bd df4d 1fbe
000002e0: 4247 05be b6ec bf3d 7bff a13c ea94 d13c
000002f0: b49e f0bd 9245 743d 1120 2a3e 3717 913d
00000300: 48fd cf3d 57ae 0b3d ed84 05be 8b3f 3e3e
00000310: 69ef 0bbe 9f66 ca3d 5e2a 4f3e c664 dcbd
00000320: e94d 803d ff6c 203e 83ae 05be 9d14 0c3d
00000330: 0689 08be b300 0ebd b392 093d d376 1fbe
00000340: 92d0 953d 6741 c7bd 19c8 36be e3af 89bd
00000350: 7389 133e af27 2abe b49e 3ebe 9a0c 70bd
00000360: 84f2 b7bd 242e bb3d 6ae9 bbbd b572 e4bd
00000370: 8fd1 a7bd 5243 c7bc cdcc e83d 0f0f 2ebe
00000380: 7567 043d b017 8dbb 8019 293c f9cf 05be
00000390: 1d21 083e 5421 eb3d 61f4 ad3d 8dde 08be
000003a0: d77e a63d 1536 413d 20a2 e73d ff52 e1bd
000003b0: 9156 1c3e c24d e0bd b3f3 c5bd a90f 553d
000003c0: 8f41 203d c5ac 45be afa3 92bd 70b3 6abd
000003d0: a47f 4d3e 07a9 33bc c16b 51bd f4da 52bb
000003e0: 9fa4 20be 46b7 483c 0886 4b3d bbd7 433c
000003f0: aaa0 16be 548b ab3d 31d9 99bd 5364 303d
-0.10683996 -0.1279374 -0.1829105 -0.041167766 -0.15804788 -0.09006069 0.13903314 -0.119653374
-0.1314903 -0.22884384 0.18393102 0.07008923 -0.14576694 -0.036379494 0.18559177 0.17820421
-0.15616894 -0.09207478 -0.10884996 -0.17337963 0.028778106 0.088225886 0.20699452 0.14734478
-0.086682305 -0.10220088 -0.08384988 0.0019740346 -0.19755828 0.11342362 -0.037995845 0.18754447
-0.16674128 -0.09366162 -0.109441474 0.105655745 -0.15086444 -0.02441606 0.07668541 0.000473968
-0.049073245 0.016624508 -0.11136868 0.008830035 -0.16766988 0.106801525 -0.05320142 -0.08679006
0.21833232 -0.17281127 -0.09241774 -0.0025490457 -0.17332649 0.103512846 0.12420678 -0.14011505
0.08553028 -0.15837134 -0.070939764 -0.0873756 0.021567179 0.17817418 -0.008294077 -0.04821527
0.1351941 -0.09878592 0.028007815 0.12761207 -0.10904085 -0.08994194 -0.003424769 0.1708601
-0.08999475 0.14162768 0.14656611 0.20320848 -0.015654318 -0.044684548 -0.1297081 0.13573688
-0.1585591 0.0970453 0.14878435 0.11459678 0.060753405 0.096776456 -0.08216439 0.16899194
-0.05250893 0.16555627 -0.18334903 -0.0138193285 0.13669264 0.0076525845 0.17169106 0.08600736
-0.0786784 -0.14389119 -0.040024962 0.10740101 -0.010108143 -0.13954702 0.18892494 -0.03433161
-0.016782273 -0.1749093 -0.2362334 0.11812471 0.10848732 0.008953288 0.0062740264 0.0065301396
0.12768799 0.023647532 0.16556434 -0.08529856 -0.13407385 0.084026575 -0.11994055 -0.0070468197
-0.21486476 0.1650944 -0.0007016834 0.09783591 -0.06637421 0.1593207 0.0797683 0.05699183
-0.017437853 0.19675411 -0.15213454 0.017550997 0.04776255 0.18650295 -0.018711686 0.068114996
-0.062886655 -0.15292796 0.12692451 0.02589354 -0.09134511 -0.07951994 -0.02894946 -0.03287676
0.0032858888 -0.062485565 0.04613464 -0.010042476 0.16510601 0.060172748 0.13167426 0.16600688
0.07386312 0.11375543 0.17731676 0.0909288 -0.06937864 -0.067083955 0.16978712 0.04690243
0.015037678 -0.14376819 0.15836357 0.18369436 -0.06752747 -0.09249407 -0.05102627 -0.03152271
0.008648142 0.0013621799 -0.028857527 -0.07159289 -0.09891718 0.16144928 -0.068318985 -0.038433366
0.1578766 0.0037464085 -0.1473245 -0.022248272 0.19422175 0.09754531 -0.0591739 -0.15557049
-0.13015464 0.09371321 0.019775143 0.025583703 -0.1174902 0.05963666 0.16613795 0.07084506
0.101557314 0.03410181 -0.13038988 0.18578927 -0.13665546 0.09882855 0.20231006 -0.107614085
0.0626486 0.15666579 -0.13054852 0.034199346 -0.1333352 -0.034668636 0.03358717 -0.15572672
0.07315172 -0.097292714 -0.17849769 -0.06723001 0.14407901 -0.166167 -0.18615228 -0.058605768
-0.08981803 0.0913966 -0.091753796 -0.11154691 -0.08194267 -0.024324093 0.11367188 -0.16997932
0.032325227 -0.0043058023 0.010321021 -0.13067617 0.13293882 0.11480966 0.08493877 -0.13366146
0.081296615 0.047170717 0.1131022 -0.110021584 0.15267397 -0.10952331 -0.096656226 0.052016888
0.03912502 -0.19304188 -0.071601264 -0.05730003 0.20068222 -0.010965592 -0.051128153 -0.0032173963
-0.15687798 0.012250727 0.04968837 0.01195329 -0.14709726 0.08376184 -0.07512129 0.043064427

_deterministic_encoder.transformer_encoder.layers.0.self_attn.out_proj.bias f4 [64]
00000000: ae7f 02bc b04e ccbc 6052 6a3c 609a f1bc
00000010: 3a7f b5ba 3def cf3b 1bd0 bb3c 4883 8e3b
00000020: 2511 e0bb 5a4a b23c 8f6a a93c a700 e5bc
00000030: 3503 da3c 48e3 3d3c 2ad2 fcbb c38d 36bc
00000040: 383f 15bc fed5 23bc dd25 913b 5443 8cbc
00000050: e825 27bb 9431 4c3c 43b1 f5bc 8b8c 43bb
00000060: f7fd b63c c9db 3a3c ee4b e7bb 0cb3 b7bc
00000070: 2544 c73c 2bf2 a9bc 6af3 d43c 41fd acbc
00000080: 477f dabc 49cb 5ebc 378d 93bc f68e 7abc
00000090: f94f 5e3c a7c7 68bc c9f0 b73c 3318 5abc
000000a0: 72c1 f2ba fe32 e73c 0c1e 17bd 4b8c 8c3c
000000b0: b735 71bc f8e6 c1bc 1bf9 e53c 50cc 7d3c
000000c0: a878 9cbb bb01 f43b dc09 143d af1d c53c
000000d0: 4ff5 183d e7e9 ba3c 8c52 a33c 2171 95bb
000000e0: 4f13 863c 5952 183d 0cfb 583c 3e41 8ebc
000000f0: 25fa 0fbd 607a d7bc 4bb3 54bc f062 b539
-0.0079650115 -0.024939865 0.014301866 -0.029492557 -0.001384712 0.006345658 0.02292638 0.004349146
-0.0068379813 0.02176397 0.020680694 -0.027954413 0.026612857 0.011589833 -0.007715483 -0.011142197
-0.009109311 -0.00999975 0.0044295625 -0.017121948 -0.0025504772 0.012462992 -0.029991752 -0.0029838409
0.022337897 0.01140494 -0.007058612 -0.022424243 0.024324486 -0.020745357 0.025994975 -0.021116855
-0.026672019 -0.013598272 -0.018011672 -0.015292874 0.013568872 -0.014207757 0.022453682 -0.013311434
-0.0018520786 0.028222557 -0.03689389 0.01715674 -0.014722279 -0.023669705 0.028072884 0.015490606
-0.0047751255 0.0074464954 0.036142215 0.024062006 0.03734332 0.022816611 0.019936822 -0.004560605
0.016366629 0.037187908 0.013243448 -0.017365094 -0.035150666 -0.02630347 -0.0129822 0.00034596724

_deterministic_encoder.transformer_encoder.layers.0.linear1.weight f4 [256, 64]
00000000: 2cfc c1bd f00e 273d aaf2 7bbd ccc2 9cbd
00000010: 12bf fd3d d24d 163d 3616 aebc 3d51 e03c
00000020: b98b 9dbd 46bf d63c 9e29 f5bd 0fe1 cbbd
00000030: a25a 89bd e724 e6bd 8bb2 e63b d7df e03b
00000040: d55f 22bc 3e14 ca3d a07b febd 7ec0 dcbd
00000050: a2ae 92bd e282 fc3c fbe4 65bc a06d 3b3d
00000060: 7463 e5bd b864 033e da0a dfbd 29ce e63d
00000070: 9a97 87bd 5841 17bd 5b1f 48bd bcdb 883d
00000080: 6386 8bbd 3ee2 f4bd 16eb 8e3a e0f9 c43d
00000090: 6a31 a33d 6d2e a9bd 5caa a63d dab6 553d
000000a0: dad4 59bd 9ddb b33b cd85 13bd 3b66 af3d
000000b0: 8396 9ebd ed9d 8dbd bae5 c43b 8fb8 d13d
000000c0: 2c95 d9bc 84cb b6bc 761a 6f3d 89c8 1dbe
000000d0: 55be 243e 7169 80bd cd9f b6bc 71eb a8bc
000000e0: 8f30 20bc 5d11 d2bd 6488 c43d 4742 4a3b
000000f0: 24a0 d73d d8b6 983d 03a0 2bbd 9f5a 4b3e
00000100: 36a3 afbd d9b1 d73d 6434 073e c756 1ebe
00000110: ff1b 40bd e566 81bd 932d c7bd 7e25 953b
00000120: 74dd 83bd 3ece c5bc 2816 abbd 64eb 50bd
00000130: 96d0 203e fa2d 693d 464a 223d c7db a43c
00000140: 69f3 c23c 1f82 3e3d 6412 263d a8ed b8bd
00000150: a3a4 06bd 5301 25bd 3083 49bd 1791 7abd
00000160: e654 573d 253a d4bc 4c98 fcba 02d7 ad3d
00000170: 07c2 f63d 39d2 c13c 4a7b 313d 53da c8bc
00000180: 296a 573d 6419 2ebd 5ec5 19be 59a1 b5bd
00000190: ce7a 233c 6856 683d 4170 523c 53e2 fdbd
000001a0: 8c70 ddbc 1a19 abbd 7697 14be 94ef 113d
000001b0: 6d45 0c3e 0169 adbd 8917 9ebc 2a17 f3bd
000001c0: dc76 dbbd b4f0 87bd 7d52 803d e68d 2ebd
000001d0: 2d4f f2bc ccb0 6e3d 952c 883d ed4c 95bc
000001e0: 5863 643d 9e4e a8bd e8ed 8e3d 4c52 dcbd
000001f0: 5ba3 283d 6c4c 96bd 8101 babd da9c 80bd
00000200: d99e 52bb 6ca0 db3b 30ab 5dbc 86cf d63c
00000210: 33cd 18be 5dc2 0dbe 96fe 9cbd e462 333d
00000220: 2a8e f53c 8d01 c0bc 1a76 6fbd fa26 c93d
00000230: be36 bc3d adf8 653d 3169 133d 5135 a1bc
00000240: 335e 9cbb 1fb3 f6bc c4a4 da3c c561 2cbc
00000250: fe60 d93d 3fc8 ddbc 79e5 bc3d 0b9d fc3d
00000260: 449b 57bd 4010 a8bd 12af 26bc b115 d33d
00000270: a6f8 8a3d df10 df3d fc0a 9ebb 0244 933d
00000280: e911 f2bc fcd5 ee3d 92d7 1e3d 9232 ce3d
00000290: b62d 5b3d 35e4 5cbc 6b2b 61bd e514 423c
000002a0: 45f1 3bbc 6b56 b8bd 83f8 583d b9fd 9ebd
000002b0: d233 9abd d08a e83d a688 71bc 2b08 fcbd
000002c0: 9ee9 2dbd 9b0a eb3b 9149 68bd f962 6abd
000002d0: a480 dbbd aff0 813d 6190 04be 7e70 bf3d
000002e0: cd93 323d e490 bebd bab2 0c3d 49d2 8ebc
000002f0: 51c6 e03c 241d 03be 450a fc3c aa77 2c3d
00000300: c8f7 bb3d e9a0 4f3e 7dcb f83c ac81 433d
00000310: a3fc 463c 16dc d2bd 527b c13d 7c81 efbc
00000320: f9bd e33d fe26 f0bc 8c68 5dbd 1f0f 19bd
00000330: 461e 04be 79b8 b9bd d8ee dc3d 819f 1bbd
00000340: e1d7 77bd c762 b3bd 819a 463d 0ac1 793d
00000350: 1b31 d43d 85ce 62bd f690 163e c1e4 babd
00000360: fb33 8c3d f381 53bd 0b1a 69bc 4caa 693d
00000370: d74f e9bd 41dc f83d df6a 433d 7b11 b43d
00000380: 511a 833d 9e08 06bd 0e67 e4bb e70c c3bd
00000390: 8658 01be dde6 b93d 8c4d cbbd 0a75 16be
000003a0: 928e f8bc 621f 04be 497c 343d 50ba 07bd
000003b0: b45d 0a3e a614 e4bd 939b a5bd d1e3 473d
000003c0: 3a88 a83d 081d e8bd ee79 1cbd 4b31 12be
000003d0: 22a0 87bd 24a8 403d c58b f2bd 9d45 20bd
000003e0: 7704 2ebe 8560 cdbd 4e7f 15be 23ce f1bc
000003f0: a7a4 f63d e6bd 62bc 1c1a 503e 9681 d3bd
-0.09471926 0.04078573 -0.06151072 -0.07654342 0.123899594 0.03669531 -0.021250825 0.027382487
-0.076926656 0.026214253 -0.119708285 -0.09955036 -0.0670674 -0.11237507 0.007040327 0.0068626213
-0.009910543 0.09867142 -0.12425923 -0.107789025 -0.07162215 0.030824129 -0.014031644 0.045758843
-0.1120061 0.1283139 -0.10890742 0.11269791 -0.066207126 -0.03692755 -0.048858028 0.06682536
-0.068127416 -0.11957215 0.0010903801 0.096179724 0.07968409 -0.08260808 0.08137962 0.052176334
-0.053181507 0.0054888264 -0.036016274 0.08564421 -0.077435516 -0.069148876 0.006008831 0.1024028
-0.026560389 -0.02231384 0.058374844 -0.1540853 0.16088231 -0.06270111 -0.022292996 -0.02062008
-0.009777202 -0.10257218 0.09596327 0.0030862258 0.10528591 0.0745675 -0.041900646 0.19858788
-0.08576052 0.105319686 0.13203579 -0.1546279 -0.0469017 -0.06318454 -0.097254895 0.0045515886
-0.06438723 -0.024146196 -0.08353835 -0.051005736 0.15704569 0.056928612 0.039621614 0.02012433
0.023797708 0.046510812 0.040544882 -0.09029704 -0.032871854 -0.040284466 -0.049197376 -0.061173525
0.0525712 -0.025906632 -0.0019271462 0.08488275 0.120487265 0.023659812 0.04333047 -0.024518168
0.052591477 -0.042504683 -0.15016696 -0.08868665 0.009978009 0.05672303 0.012844146 -0.123966835
-0.027031206 -0.08354397 -0.14510903 0.03562887 0.13698359 -0.084672935 -0.019298332 -0.118696526
-0.1071603 -0.06637707 0.062657334 -0.042615794 -0.02957877 0.058274075 0.06649128 -0.018225158
0.055758804 -0.0821812 0.06978971 -0.107578844 0.041171413 -0.07338795 -0.09082318 -0.06279917
-0.0032138138 0.0067024734 -0.013529584 0.026222002 -0.14922027 -0.13843675 -0.07665746 0.04379548
0.029975016 -0.02343824 -0.05846224 0.09821887 0.09190129 0.05614536 0.03598899 -0.019678744
-0.0047719716 -0.030114708 0.026689894 -0.010521357 0.10614203 -0.027073024 0.09223456 0.12334641
-0.052638307 -0.082062244 -0.010173576 0.10306872 0.06785707 0.1089189 -0.004823087 0.07190706
-0.029549556 0.11661908 0.038779803 0.10068239 0.05351039 -0.013482143 -0.054973047 0.011845802
-0.011471097 -0.09000858 0.052971374 -0.077632375 -0.07529415 0.113546014 -0.014742052 -0.123062454
-0.042459123 0.007172895 -0.056710783 -0.057223294 -0.107178956 0.06344735 -0.12945701 0.09347628
0.043597985 -0.093049794 0.034350134 -0.017434256 0.027438315 -0.12804085 0.030766616 0.042106308
0.0917812 0.20276226 0.030370468 0.047731087 0.012145194 -0.10295884 0.094473496 -0.029236548
0.11120219 -0.029315468 -0.05405478 -0.037367936 -0.12902173 -0.090683885 0.10787743 -0.03799391
-0.060508613 -0.08759075 0.04848719 0.060975112 0.103609286 -0.055372734 0.14703736 -0.091256626
0.06845852 -0.0516376 -0.0142274005 0.057047173 -0.11392181 0.12151385 0.047709342 0.08792397
0.06401504 -0.03272306 -0.006970293 -0.09523945 -0.12631425 0.09077237 -0.099269 -0.14693084
-0.03034142 -0.12902597 0.04406384 -0.033136666 0.13512307 -0.11136751 -0.08086314 0.048801247
0.08229108 -0.11333662 -0.03820222 -0.14276616 -0.0662234 0.04703535 -0.11843065 -0.03912889
-0.1699389 -0.10028175 -0.14599344 -0.029517239 0.12043124 -0.013839221 0.2032246 -0.10327451

_deterministic_encoder.transformer_encoder.layers.0.linear1.bias f4 [256]
00000000: dbba b2bc 9080 bfbc 8aa0 2ebd f2ad 7e3a
00000010: 1427 b1bc 717a 94bc f909 82bc 4673 8e39
00000020: bce9 a1bc 2ce6 2939 55ee 75bc a15e e2bc
00000030: 562e 78bc 03bd a9bc ef99 cdbc 2ac1 8ebc
00000040: f10a ffbc ca47 b1bc a798 37bc 5809 4abc
00000050: 2467 93bc a6a8 8bbc 9c03 92bc b763 3ebc
00000060: 98e8 b5bc 4e05 10bc f05b b4bc 1eba ecbc
00000070: 42f4 0bbc 3e75 b0bc 1a11 55bc 5f8a 9dbc
00000080: e5c1 bfbc 948a 2cbc c640 b3bc 4c98 4bbb
00000090: 16c7 5bbc 23b7 7ebc 1c99 a1bc dc02 f9bc
000000a0: 071d 76ba 9ea3 7cbc 2e8b 90bc eea2 203b
000000b0: 1970 a4bc 66ac a7bb 00c5 69bc aa25 8b3a
000000c0: 1945 203a ba1c e1bc cea9 7fbc 56f9 c83b
000000d0: 274c c6bc b3fa 43bc 1767 cbbc d81a 45bd
000000e0: c4cc c6bc 3c9c 9fbc fccf efbb a7a6 3e3b
000000f0: 4c90 1fbc dba3 833c 8800 efbc c746 4abc
00000100: 0d8d 1bbc ac5b 9cbc 6560 f7bb 0b17 1abc
00000110: cc46 89bc 65b5 1e3c 77db e5bc b1cc 15bd
00000120: 2abf 7abc 4b81 94bc e60f 80bc 9ec3 46ba
00000130: 6f24 3c3b f211 37bc 3392 23bc 03f0 f5bc
00000140: 1581 e5bb dd29 d7bc 4801 21bc 7bec c8bc
00000150: f5db 20bc 86c6 b53b 8ab7 33bd 4e60 3abd
00000160: b367 32bc 88da 69bc f0df 6e3c b1bf c63a
00000170: 91fb 20bd 8872 94bc 7f27 2a3c 9f22 58bb
00000180: 14ca 8d3b 5d5b ecbc abab b1bc 35bd 7fbc
00000190: 52be 793a 7718 2fbd 95be 05bc 4eed 05bc
000001a0: 2f10 82bb 55b4 a73a 65bd 323a 1ce4 64bc
000001b0: da31 55bc 88a1 0cbb e4ec bfbc 41aa ccbb
000001c0: 1fd9 84bc 04fe 40bc 8d74 c9bc d184 9fbc
000001d0: fc35 b5bc 26db 353b 5306 b5ba ca33 f53a
000001e0: c345 d0ba c926 ed3a 3243 b8bc ed99 9fbc
000001f0: c032 0bbd 8a31 87bc ab8c 0ebd f409 a9bc
00000200: b980 463c 11b8 98bc e7e3 a3bc 515b 0abc
00000210: 2e6c 40bc 4d8f dfbc 9667 1ebd 6de9 8bbb
00000220: 9c84 db3b 543a 04bd a84c 44bc 340a 0b3b
00000230: e4bd 1bbd c629 8fbb 7739 baba f9c2 2dbd
00000240: c469 58bc e814 b5bc 2709 ce3b 5e9d 5ebc
00000250: eba3 943b 9bb0 90bc 155d 85bc deb8 94bb
00000260: f801 51bc 2a23 82bc 3507 9bbc 01ed 45bc
00000270: 7629 1cbc 50bd 52bd b0e1 38bc 9a39 bcbc
00000280: aedf b4bb 5fa4 18bc e116 46bc 7959 adbc
00000290: 6a0f 44bc da82 77bc c9fa 32ba 0d79 1ebd
000002a0: 3539 a13b acbd 3dbc ca08 93bb 47e2 9dbc
000002b0: 6b08 a0bc 249c 0abc c3c4 22bc 08ca 16bd
000002c0: 839e 9839 860a 15bb 1bb3 033a ca10 4abc
000002d0: 2625 96bc 9209 8ebc ad51 b7bc e1d0 89bc
000002e0: 2c77 52bc 8be4 80bb 2a71 48bc 79a9 6fbc
000002f0: b457 b3bb f95c 8fbc 7d53 54bc c659 873b
00000300: ebac 92bc b814 cfbc 42d8 fcbb 0776 bebc
00000310: 04e2 2c3b 7160 05bc 4e20 edbb 46f1 cbbc
00000320: 5d1b 3cbc e073 913b a6f2 fcbb 469c a139
00000330: bf4a 00bd 03e9 adbc d3d6 93bb 9270 e6bc
00000340: c32c db3a b966 5abc 1696 15bb 4ad6 ccbc
00000350: dd27 dbbb 3052 50bc 81c4 cabb 5c24 d1bc
00000360: cef1 c9bc 3a1f 39bc d263 ffbc 5564 a1bb
00000370: 8a03 6abc 9054 12bc d4b2 7f3c c4b2 6fbc
00000380: e2fc 1cbc 56c1 0ebc 4e46 ffba 1d75 01bd
00000390: 8a75 223c cea8 12bc f360 8cbc 6565 8dbc
000003a0: 752f 8d39 3b99 8abc d78a 763b 2245 253b
000003b0: eb02 933b 76d3 18bd 3a50 ebbc 2299 d9bb
000003c0: 092c e4bc 6945 a7bc 960a 9a3b a20c 2bbc
000003d0: fbca c6bc f236 67bd 50bd e1bc 52d3 4d3b
000003e0: f1fe 36bc e469 bdbb 4610 50bc 304f 9fbc
000003f0: 5361 07bc 73ae 54bc 434b a0bb c805 22bc
-0.021817615 -0.023376733 -0.04263357 0.0009715251 -0.02162508 -0.01812479 -0.015873896 0.00027170236
-0.019764774 0.00016202842 -0.015010436 -0.027633013 -0.015147766 -0.02072001 -0.025097815 -0.017426092
-0.031133147 -0.021640677 -0.011205829 -0.012331329 -0.017993517 -0.017048191 -0.017823987 -0.011620454
-0.022205636 -0.008790327 -0.022016495 -0.028897341 -0.008542122 -0.02154028 -0.013004566 -0.01923102
-0.023407886 -0.0105310865 -0.021881472 -0.0031066118 -0.013414165 -0.015546593 -0.019726329 -0.030396871
-0.00093884807 -0.015419869 -0.017644491 0.0024511176 -0.020072984 -0.005116987 -0.01426816 0.0010616083
0.0006113812 -0.027479518 -0.015604449 0.006133239 -0.024206234 -0.011961627 -0.02482943 -0.048121303
-0.024267562 -0.019483678 -0.007318495 0.0029091032 -0.009738993 0.016069343 -0.029175058 -0.012345976
-0.009494078 -0.019086681 -0.007549333 -0.009404908 -0.016757391 0.0096868025 -0.02805875 -0.036572162
-0.015304366 -0.018128058 -0.015632581 -0.000758225 0.002870824 -0.011173712 -0.009983587 -0.030021673
-0.007003913 -0.02626508 -0.009826966 -0.024526825 -0.009818067 0.0055473475 -0.04387621 -0.045502
-0.010888982 -0.014273293 0.014579758 0.001516333 -0.039302412 -0.018121019 0.010385393 -0.003297962
0.004327068 -0.02885216 -0.021688303 -0.015609075 0.0009526956 -0.04274794 -0.008163114 -0.008174254
-0.0039692144 0.0012794832 0.0006818383 -0.013970401 -0.013012374 -0.0021458585 -0.023428388 -0.006245882
-0.016216813 -0.011779312 -0.024591709 -0.019472511 -0.022120468 0.002774903 -0.0013811089 0.0018707451
-0.0015889931 0.0018093224 -0.022492979 -0.019482577 -0.033983946 -0.016503114 -0.03480212 -0.020634629
0.012115651 -0.018642457 -0.020006133 -0.008444623 -0.011744542 -0.02729001 -0.038673006 -0.00426977
0.006699158 -0.03228219 -0.011981167 0.0021215798 -0.03802289 -0.0043689935 -0.00142078 -0.04242227
-0.01320881 -0.022104695 0.006287712 -0.013587324 0.004536142 -0.017662337 -0.016279737 -0.0045386394
-0.012756817 -0.015885908 -0.018924335 -0.012080432 -0.009531369 -0.051450074 -0.011284277 -0.022976685
-0.0055198288 -0.009316533 -0.012090416 -0.021160828 -0.011966566 -0.015106881 -0.0006827531 -0.03868966
0.0049201497 -0.011580866 -0.0044871317 -0.019272937 -0.019535264 -0.008460078 -0.009934607 -0.036813766
0.000291098 -0.0022741868 0.0005023942 -0.012333104 -0.01832826 -0.017338548 -0.022377813 -0.016823234
-0.012845796 -0.0039334944 -0.012234012 -0.014627808 -0.0054731015 -0.017500388 -0.012959358 0.004130575
-0.01790472 -0.025278434 -0.0077162096 -0.02324964 0.0026379833 -0.008140669 -0.007236517 -0.024895322
-0.011481133 0.004438862 -0.0077193556 0.00030824746 -0.031321283 -0.021229273 -0.004511693 -0.02812985
0.0016721714 -0.013330155 -0.0022825054 -0.025004525 -0.0066881017 -0.0127149075 -0.006187976 -0.025530033
-0.024651434 -0.011298949 -0.031175528 -0.0049252906 -0.01428307 -0.008931294 0.015606601 -0.014630023
-0.009581776 -0.008713087 -0.0019475908 -0.03160583 0.009915719 -0.008951379 -0.017136073 -0.017260263
0.00026928974 -0.01691877 0.0037619376 0.0025218208 0.004486432 -0.03731104 -0.028724778 -0.0066405693
-0.027853029 -0.02041884 0.004700969 -0.010440024 -0.02426671 -0.056448884 -0.027556092 0.0031406474
-0.011169181 -0.0057804454 -0.012699192 -0.01944694 -0.00826295 -0.012981045 -0.0048917844 -0.009889074
