CNP-model-save-name/saved_models/model_0.pth.pth.tar (torch, 791118 bytes, 52 tensors)

_deterministic_encoder.input_projection.weight f4 [64, 5]
00000000: 1e08 433d ae9d b1bd d484 533d 143c 023e
00000010: 95fa 5a3e 77df 12be 5ca5 1bbe 9e2d e6bd
00000020: a0fc 96be ab2e e63d 4984 0b3e 0bab bb3d
00000030: 843d 07be e806 febd d597 293e 988a 84be
00000040: 1855 013e 365c 43be 443c f13d 7362 893e
00000050: deba 243d c2c1 543d 9ff0 71be e164 2c3d
00000060: 0987 a1bd 7d49 e13d 386b 9ebd e83e 603e
00000070: a42b 343e 4031 813e e088 bebd 4c1d 5d3e
00000080: 7d91 503e 4571 87be 1a98 87be 0289 90bc
00000090: 749a 82be 4f3e c2bd 5663 68be 2acb 313e
000000a0: d217 293d dadd babd 985b 39be a54f 2ebe
000000b0: 0d87 c2bd 5f87 20be b1bd 57be 55a3 02bd
000000c0: 2d9c 13bc e962 7e3e 66a4 bb3d 5474 173e
000000d0: 695a b93d 7df5 88be 883c 213e 77e0 d93d
000000e0: d5e2 e53d a203 903e bc9e 84bd 618e 93be
000000f0: 7299 dbbd d4c4 a2bd 9917 79be 1c72 e6bc
00000100: e267 55be d319 86be 4188 7dbe d5ac 94bd
00000110: ad0c 603c d8e6 3d3e 4a91 a03d b8db 3dbd
00000120: 55a0 ca3d 4b6f 55bd 7dad b6bd c0cd 2a3d
00000130: 284f 3f3e 5fbc 94be a0e6 94be def5 d9bc
00000140: daa7 173e 856b 58be 8778 59be db65 10be
00000150: ca0b 20be 27dd c33d a061 8f3e 0f8e 543e
00000160: aff4 823d 2bfe c33b c43f 96bc 305d 0f3e
00000170: 208b 7f3c 8573 353d e698 e7bd ec26 bdbd
00000180: cb97 f5bd 75e3 19bd 9417 8e3e 6c63 d7bd
00000190: 86c7 933e 1003 5cbc 956a e43d 83d9 883e
000001a0: 29b0 eabd 9cbf f9bd 2a84 13bd bbbd 3e3e
000001b0: d3b3 f03d 1076 81be 558d d13d 2350 7fbe
000001c0: 877f 6fbd 2a82 2abe 8b8d d2bc e142 703e
000001d0: f57e d7bd d419 94be 1b6c 5bbe fd07 c9bd
000001e0: b1dc 293d 18db 353e 6871 52be 58c0 ccbc
000001f0: 8f24 2bbd 982c 5fbe 8ff6 8c3e a320 3dbe
00000200: b190 1d3e 625f 3dbe e74c 573e 8966 8fbd
00000210: 309f 693e 0538 94bd 3dc1 803d 3c95 893d
00000220: 94b0 133e 7fc5 65be 5acd 173e c2b2 643e
00000230: 425a 493d 9af9 7dbe cdca 8abe 4f2a e9bd
00000240: ed63 6ebd d47a 563e 5198 3a3e 1f88 833e
00000250: 521c cc3d e7cd 963d e6c4 20be cad8 bb3b
00000260: 767f 803e 583c 913d e01e 2d3d 267f 353b
00000270: 803a 4abe 4835 133e 554d 0dbd 9ec7 4e3e
00000280: e2d5 8b3e 2a68 5fbe 94f5 39bd cece afbd
00000290: d43d 8a3e fbfc b4bc 861d 253c 81b3 813e
000002a0: d128 6abd 83d9 e23d 6c65 28be 14b9 f33c
000002b0: 1b4e 153e f50e 893e a691 2b3e 8be6 d1bd
000002c0: a7ee 0b3e a4a3 063e 5c4b a7bd 0ae3 d43d
000002d0: cb0f 68be 338b fcbd 8218 4b3e 9503 ac3d
000002e0: e0e0 40bd 8177 f0bd 4d89 073e a796 4e3e
000002f0: ebf5 113d d3f5 fa3d 7a32 65be 5983 89be
00000300: 5552 903b bac6 55bd 5a6d 843e fd37 8bbe
00000310: cb67 e4bd 0b02 07be ae8c 6bbe eafe 3d3e
00000320: bef9 6d3e f686 ac3c 2b67 503d 1700 733e
00000330: 7797 75bd cb8e 8bbd 741c cf3d 1078 e93d
00000340: 2e9b 023e b426 863e af71 26be afdc 5b3e
00000350: 125e 96be 4081 a13d f102 473e 2e7b e5bd
00000360: 76bc 88be 82e0 e43d 571a 8abe 5fa2 a43d
00000370: f04f 143e f04b 843d 04f4 67be 484c 7b3e
00000380: 7f05 cb3d 2b40 46be 39a9 77bd 9593 5ebe
00000390: caf5 48be a863 41be ccc0 093e 05fe 7b3d
000003a0: cca8 89be 7a5e 333e 238a 413e d18a 03bd
000003b0: cd49 49be 2227 063e 2e29 7b3e 827e 803e
000003c0: 99be 653d 5ebc 843e 948f c63c 3b7d 003e
000003d0: e22c 623e 2f99 f63c acac 2e3d 0850 193e
000003e0: a5d8 0bbd b07d 643e fabc dc3d 8912 37be
000003f0: 46e2 09be f719 393e 5825 28bd 8605 88be
0.047615163 -0.08672653 0.051640347 0.1271823 0.21384652 -0.14343058 -0.15199798 -0.112391695
-0.29489613 0.1123937 0.13624682 0.09163483 -0.1320706 -0.12403661 0.16561826 -0.2588699
0.12630117 -0.19078144 0.11779073 0.26832923 0.040217273 0.051942594 -0.23626946 0.042088393
-0.07887084 0.11000345 -0.07735294 0.21898997 0.17594773 0.25232887 -0.093034506 0.21593207
0.20368 -0.26453605 -0.26483232 -0.017643455 -0.25508463 -0.09484541 -0.22694144 0.17362657
0.041282482 -0.09124346 -0.18101346 -0.1702257 -0.09498415 -0.1567664 -0.21068455 -0.031894047
-0.009009403 0.24842419 0.09162216 0.1479047 0.090504475 -0.26749793 0.15745747 0.106385164
0.112249054 0.28127772 -0.06475589 -0.28819564 -0.10722627 -0.07947698 -0.24325408 -0.028130583
-0.2084041 -0.26191577 -0.24759008 -0.072595276 0.013674897 0.18545091 0.07840212 -0.04635212
0.09893862 -0.05210809 -0.08919809 0.041700125 0.1868254 -0.29049966 -0.29082203 -0.026606496
0.14810124 -0.21134765 -0.21237384 -0.14101355 -0.15629497 0.09563666 0.2800417 0.20757316
0.06394326 0.005981227 -0.018340953 0.14000392 0.015597135 0.04429962 -0.1130846 -0.092359394
-0.11991843 -0.037570436 0.27752364 -0.1051701 0.28863162 -0.0134284645 0.111531414 0.26728448
-0.11459381 -0.1219475 -0.036014713 0.18627064 0.11753049 -0.25285387 0.10232035 -0.24932913
-0.05847123 -0.16651216 -0.025702259 0.23463012 -0.10522262 -0.28925955 -0.21427958 -0.09815977
0.041470233 0.17759359 -0.20551074 -0.02499406 -0.041782912 -0.21794355 0.2753186 -0.18469481
0.15387227 -0.18493417 0.2102543 -0.07001979 0.22814631 -0.072372474 0.06286857 0.06717917
0.14422828 -0.2243862 0.14824429 0.22333816 0.049158342 -0.24802247 -0.2710785 -0.11385023
-0.058200765 0.20945293 0.18222167 0.2568979 0.09966339 0.073634915 -0.15700111 0.0057326304
0.25097245 0.07091588 0.042265773 0.0027694195 -0.19748878 0.14375794 -0.034497578 0.20193335
0.27311617 -0.21817079 -0.045400217 -0.08584367 0.27000296 -0.022093287 0.01007784 0.25332263
-0.05716783 0.11076643 -0.1644494 0.029751338 0.14580576 0.26769224 0.16754779 -0.10249051
0.13665257 0.13148361 -0.081686705 0.10394867 -0.22662275 -0.12331238 0.19833568 0.08399121
-0.047089458 -0.117415436 0.1323597 0.20174657 0.035634916 0.122539185 -0.22382537 -0.26858023
0.004404346 -0.052191474 0.2586468 -0.27191153 -0.111526094 -0.13184373 -0.23002884 0.18554273
0.232398 0.021060448 0.05087964 0.23730503 -0.0599589 -0.06814345 0.10112849 0.11399853
0.12754509 0.26201403 -0.16254304 0.21470903 -0.29368645 0.078859806 0.19434716 -0.11205135
-0.26706284 0.11175634 -0.2697322 0.08038782 0.14483619 0.064597964 -0.22651678 0.24540818
0.09913158 -0.19360416 -0.060464118 -0.21735986 -0.19625011 -0.18885672 0.13452452 0.06152155
-0.26886594 0.17516509 0.18900351 -0.032114808 -0.19657059 0.13100865 0.24527428 0.25096518
0.05608997 0.25924963 0.024238385 0.12547772 0.22087434 0.03010234 0.04264514 0.14971936
-0.034142155 0.22313571 0.10778232 -0.17878164 -0.13465223 0.18076311 -0.04105124 -0.26566714

_deterministic_encoder.input_projection.bias f4 [64]
00000000: 6812 83ba 5f12 83ba 6d12 833a 6012 83ba
00000010: 5e12 833a 6412 833a fa11 833a 6812 83ba
00000020: 6b12 833a 6912 833a 6b12 83ba 6b12 833a
00000030: 6612 83ba 6312 83ba 6a12 833a 6612 83ba
00000040: 6b12 83ba 6b12 83ba 6712 833a 5912 833a
00000050: 5312 83ba 6812 83ba 6b12 83ba 4a12 833a
00000060: 6b12 833a 6b12 833a 6612 833a 6712 833a
00000070: 6412 83ba 6b12 83ba 5f12 833a 6412 833a
00000080: 5c12 83ba 6b12 83ba 6912 83ba 6b12 83ba
00000090: 6812 83ba 6712 83ba 6b12 833a 5d0d 83ba
000000a0: 6c12 83ba 6b12 83ba 6612 83ba 6b12 83ba
000000b0: 6912 833a 6c12 83ba 5f12 833a 6b12 833a
000000c0: 6912 833a 6412 83ba 6a12 833a 6312 83ba
000000d0: 6712 833a 6312 833a 6612 833a 6712 83ba
000000e0: 6412 833a 6912 83ba 0912 833a 6b12 83ba
000000f0: 6712 83ba 6312 833a 6612 83ba 6912 833a
-0.0009999992 -0.0009999982 0.0009999998 -0.0009999983 0.0009999981 0.0009999988 0.0009999864 -0.0009999992
0.0009999996 0.0009999993 -0.0009999996 0.0009999996 -0.000999999 -0.0009999987 0.0009999995 -0.000999999
-0.0009999996 -0.0009999996 0.0009999991 0.0009999975 -0.0009999968 -0.0009999992 -0.0009999996 0.0009999957
0.0009999996 0.0009999996 0.000999999 0.0009999991 -0.0009999988 -0.0009999996 0.0009999982 0.0009999988
-0.0009999978 -0.0009999996 -0.0009999993 -0.0009999996 -0.0009999992 -0.0009999991 0.0009999996 -0.0009998489
-0.0009999997 -0.0009999996 -0.000999999 -0.0009999996 0.0009999993 -0.0009999997 0.0009999982 0.0009999996
0.0009999993 -0.0009999988 0.0009999995 -0.0009999987 0.0009999991 0.0009999987 0.000999999 -0.0009999991
0.0009999988 -0.0009999993 0.0009999882 -0.0009999996 -0.0009999991 0.0009999987 -0.000999999 0.0009999993

_deterministic_encoder.output_projection.weight f4 [64, 4]
00000000: f881 49be d8ca 123d 2467 7dbe 81ef 123e
00000010: bfae 8d3d 6aef 743e 3267 e53d 0b74 95bd
00000020: 0545 6b3e 15a7 da3d 678d 6fbe 6418 46be
00000030: 3677 913b 0f76 95be 11cf 5cbe a3b7 3dbd
00000040: 8d98 e8bc 5b27 e43c 3747 883d d3dc 153e
00000050: 9c6a 343e 6b6d 9abd 222a a23d b50b 743d
00000060: 9d66 593e 9934 1ebe d6ef fbbd 9fac 8abe
00000070: 1635 e1bc 5504 ffbb 4529 52be f563 6abc
00000080: 4501 04bd b714 5bbe b546 0f3e ee9e 823e
00000090: 01bb 02be 7c4d 7abe 01ec 1e3e d1af 07bc
000000a0: 8deb ac3d fc53 843c 2003 b5bd 6eac 873d
000000b0: cdc0 3cbe c4b9 06be ca3c e0bc 2794 253e
000000c0: 49d9 c5bd c608 513e d94a 8fbe eb7a 08be
000000d0: c16a d83d 2ea7 393b 60ca 5dbd a64e 6e3e
000000e0: 646c 883b efc4 f5bd 1a66 65bd 66d1 1dbe
000000f0: daee 3bbe 4cab e43d 54de ffbd ac1b 35be
00000100: b6db fbbd 1ff6 6b3e 84aa 83be 2ecc 853e
00000110: aed7 3f3e cddb 7dbe 6861 9e3b a249 f43c
00000120: 9326 8e3d 075a 03be 5516 17be 0674 49be
00000130: cc1b 403e a161 57bd f9ba 44be 14c7 58bd
00000140: bfba 83be a2cb 6bbd a561 02bd a4c8 2abe
00000150: fcb0 12be be37 4cbe 004d df3c 4ece 903e
00000160: cd06 81be 1b4b 3d3e 3932 49bd e295 633e
00000170: 7a48 17be 6da5 8fbe b78a 523d 6dab 61bc
00000180: 9825 313d a92b 45bd 8655 abbd e4d2 68be
00000190: 4d82 63be 037f 273d fdad 2c3c 3f07 3cbe
000001a0: 90dc 85be bd90 263e 4b28 8abe 537e 803d
000001b0: da5e 40bd 5846 03be f1cd 803d f692 91be
000001c0: d72c fabc 4e45 e9bd d9e6 37be 66be 3e3e
000001d0: 03d4 dc3d bef7 81be 5d4b b0bc 5e59 283d
000001e0: 8476 70be 163c 17be 1fc9 8abe b757 babd
000001f0: 88d9 b93d 05d4 96bd 18e6 c53d 6965 84be
00000200: 74cf cebc 9044 7cbe 2af1 023e 7ae0 27be
00000210: bc58 62be 1c37 833e bd7c 4b3e a7b9 98bd
00000220: 6226 96be 967c 3b3e 3905 8cbe 8708 533e
00000230: ea50 ab3d 9ebc 3f3e dceb fa3d 8985 4a3e
00000240: 4560 c6bd a5c8 b6bd 72a8 e2bd f077 753d
00000250: 14ea 1f3d ccd8 13bd 052b 81be 106f eabc
00000260: 6697 613e 084b 853e 9829 8a3e df12 8c3d
00000270: a58c 52bd 16a4 b73b f05f 59be a7d3 713e
00000280: 8ae4 93be 6dee 283e 1028 1e3e a7d1 0d3e
00000290: b56c dc3d 3d49 563e ff65 6abe fbb6 48bc
000002a0: 9994 56be 4097 83be ec4f df3d ceff 183e
000002b0: f5eb 07be 2ce9 66be 6a31 afbd b124 083e
000002c0: fed1 0cbd e337 70be 5a70 353b 4160 0c3e
000002d0: 06f6 91be c1ec 5b3e a0db 5fbe 2b26 8ebe
000002e0: cb03 fcbd 982f cfbd 7cf3 5a3d 4fe5 ee3b
000002f0: 10b1 e73d 0f78 b9bd 7b7b 98bd e549 7e3e
00000300: 15a4 5e3e f71f 77be c331 15be 69fd df3c
00000310: a694 8fbe 484e 16be 22ad 87be f465 95bc
00000320: 2af1 f0bd a0d6 9b3c 5f8e a73d cc5c 2f3e
00000330: 9356 633e 506e ad3d 8359 5f3e baa4 283e
00000340: ef29 8b3e 38c2 583d afdc 94be 3f9b 78be
00000350: e792 75bb 3b9e c7bd fa3d 8bbd 1a8a 0e3e
00000360: a581 03be 2c96 5cbe 718d 7cbd f8a1 463e
00000370: 7152 f4bd 7f40 d83c e099 813d 03c3 96be
00000380: b451 503d 844b 7b3e 4dd2 36bd 5ea0 bebd
00000390: e1cf 9ebd 4d26 3fbe 8b65 85be da48 703e
000003a0: d188 3cbe 7a5e 013e 7d2f 83be 9944 87bb
000003b0: d785 3d3c d9de 803e 5ce6 f8bd cf3c 05be
000003c0: 5011 3fbe 4db2 94bd bffa 253e b85a 3e3e
000003d0: 29c0 883e 95fa f1bc b91a 46be fcbf 1d3e
000003e0: 9238 3b3d b7a4 6abe 3175 e93d 668e 8dbe
000003f0: d4a7 943d 1abd 33be 3755 35be c90d 59be
-0.19678485 0.035837978 -0.24746376 0.14349176 0.06918096 0.23919454 0.112013236 -0.07297524
0.22975548 0.106763996 -0.23393784 -0.19345242 0.00443926 -0.29191634 -0.21563365 -0.046317708
-0.028393054 0.027850797 0.06654208 0.14635019 0.17618793 -0.07540401 0.079181924 0.059581477
0.2123055 -0.15449752 -0.123016044 -0.27084824 -0.027491134 -0.007782499 -0.20523556 -0.014306058
-0.032227773 -0.21394621 0.13991816 0.2551188 -0.12766649 -0.2444362 0.15519716 -0.008281664
0.08443365 0.016153328 -0.08838487 0.06624685 -0.18432923 -0.13156801 -0.027372736 0.16169797
-0.096605845 0.20413503 -0.27986792 -0.1332814 0.10567237 0.0028328407 -0.054148078 0.2327219
0.004163312 -0.12000453 -0.056005575 -0.1541191 -0.18352833 0.11165485 -0.124935776 -0.17686337
-0.12297766 0.23043106 -0.2571603 0.2613234 0.18734619 -0.24790879 0.004833389 0.029820267
0.06940951 -0.12827311 -0.14754613 -0.19673166 0.18760604 -0.05258334 -0.1921195 -0.05292423
-0.25728413 -0.057567246 -0.031831402 -0.16678101 -0.14325327 -0.19943139 0.027258396 0.28282398
-0.252005 0.18485682 -0.04912016 0.22225145 -0.14773741 -0.28055897 0.05140182 -0.013773781
0.043248743 -0.04813734 -0.08365922 -0.22736698 -0.22217675 0.040892612 0.010539529 -0.18362139
-0.26144838 0.16266151 -0.26983866 0.062740944 -0.046965457 -0.12819803 0.0628928 -0.28432435
-0.03053896 -0.11390172 -0.17959155 0.18627319 0.107826255 -0.25384325 -0.021520311 0.041100852
-0.2348271 -0.14769015 -0.27106568 -0.090987615 0.09074694 -0.07364658 0.096630275 -0.2585862
-0.025245406 -0.2463553 0.1278731 -0.16394225 -0.22104162 0.25627983 0.19871803 -0.074572854
-0.2932616 0.18309245 -0.27347735 0.20608722 0.083650425 0.18724295 0.12252018 0.19777502
-0.09686331 -0.08924989 -0.11067285 0.059928834 0.039041594 -0.036095425 -0.25228134 -0.028617412
0.2203041 0.26033807 0.2698486 0.06839537 -0.05140366 0.0056042774 -0.21228004 0.23615895
-0.288853 0.16497202 0.1544497 0.13849507 0.10762922 0.20926376 -0.22890471 -0.012250657
-0.20955123 -0.25701332 0.10903916 0.14941332 -0.13273604 -0.22549886 -0.08554347 0.13295247
-0.03437995 -0.23458819 0.0027685375 0.13708593 -0.28508013 0.21477033 -0.21861124 -0.27763495
-0.12305411 -0.101165 0.05345486 0.0072905193 0.11313069 -0.090561025 -0.07445427 0.24832876
0.2174228 -0.24133287 -0.14569764 0.027342515 -0.28043097 -0.146783 -0.26499277 -0.018237092
-0.117647484 0.01902324 0.08181452 0.17125243 0.22200994 0.08468306 0.2181149 0.16469088
0.2718043 0.052919596 -0.29074618 -0.24277972 -0.0037471594 -0.09746977 -0.067989305 0.13919869
-0.12842424 -0.21541661 -0.061658327 0.19397724 -0.11929787 0.026397942 0.063281775 -0.29445657
0.05085917 0.24540526 -0.044634152 -0.09307931 -0.077544935 -0.18666954 -0.26054034 0.2346529
-0.18411566 0.12633696 -0.25622168 -0.0041280505 0.011567554 0.2517002 -0.121533126 -0.13011478
-0.18658948 -0.07260571 0.16208933 0.18589294 0.26709107 -0.029538432 -0.19346131 0.15405267
0.045708247 -0.22914396 0.113993056 -0.27647704 0.07258573 -0.17552605 -0.17708288 -0.21196665

_deterministic_encoder.output_projection.bias f4 [64]
00000000: 2b12 83ba 6712 833a c511 83ba 5f12 83ba
00000010: 6b12 83ba 5b12 833a 6612 83ba 6712 833a
00000020: 6a12 833a 5512 83ba 6a12 833a 6b12 83ba
00000030: 6b12 83ba 6412 833a 4f12 83ba 4b12 83ba
00000040: 6b12 83ba 6612 833a 6512 83ba 5212 83ba
00000050: 4912 83ba 6b12 833a 5d12 83ba 6612 83ba
00000060: 5412 83ba 6412 83ba 6612 83ba 6612 833a
00000070: 6912 83ba 6b12 83ba 3412 83ba 6a12 833a
00000080: 5312 833a 0512 83ba 6612 83ba 4f12 83ba
00000090: 5e12 83ba 6912 83ba 6512 833a 6b12 833a
000000a0: 6712 833a 6b12 833a 6b12 833a 5b12 833a
000000b0: 6a12 833a 6712 833a 4412 833a 3212 83ba
000000c0: 6812 83ba 6712 83ba 6b12 833a 6b12 83ba
000000d0: 6b12 833a 6b12 833a 6b12 83ba 6212 83ba
000000e0: d611 833a 6012 83ba 6812 83ba 6b12 83ba
000000f0: 5a12 833a df11 83ba 6c12 83ba 6412 833a
-0.0009999921 0.0009999991 -0.0009999803 -0.0009999982 -0.0009999996 0.0009999977 -0.000999999 0.0009999991
0.0009999995 -0.000999997 0.0009999995 -0.0009999996 -0.0009999996 0.0009999988 -0.0009999963 -0.0009999959
-0.0009999996 0.000999999 -0.0009999989 -0.0009999967 -0.0009999956 0.0009999996 -0.000999998 -0.000999999
-0.0009999969 -0.0009999988 -0.000999999 0.000999999 -0.0009999993 -0.0009999996 -0.0009999932 0.0009999995
0.0009999968 -0.0009999877 -0.000999999 -0.0009999963 -0.0009999981 -0.0009999993 0.0009999989 0.0009999996
0.0009999991 0.0009999996 0.0009999996 0.0009999977 0.0009999995 0.0009999991 0.000999995 -0.000999993
-0.0009999992 -0.0009999991 0.0009999996 -0.0009999996 0.0009999996 0.0009999996 -0.0009999996 -0.0009999985
0.0009999822 -0.0009999983 -0.0009999992 -0.0009999996 0.0009999976 -0.0009999833 -0.0009999997 0.0009999988

_deterministic_encoder.transformer_encoder.layers.0.self_attn.in_proj_weight f4 [192, 64]
00000000: 6848 203d 3a0f 263c ea21 1b3e 15ca f5bd
00000010: 6beb 183e 5d65 babd cec6 f2bd 9725 d3bc
00000020: c474 003d a2ac 5e3d f03e 55bd 1aff 3ebd
00000030: 746c a6bd 1f66 0d3e 9878 4fbd eeca f8bd
00000040: 301e 94bd 6e93 ac3d 6010 6dbd 4847 b53d
00000050: 76d7 313d 3baf 00be 6128 413c 81f5 073e
00000060: e9f3 8bbd 7e3c 8b3d 06b4 9cbd 0db2 fb3d
00000070: 299b 0dbd f57f a7bc b445 dc3d 83d4 c9bb
00000080: 94ce 19be 6fa0 ac3d 1bbf e13d c92c 353c
00000090: 3f0b 02bc 1062 0f3d e035 f4bd d15f c3bd
000000a0: ac3b b93d 8d02 823c e49e c0bd fb3e 5e3d
000000b0: 3ca0 853d f6f9 fe3d 2e1f e8bd ff1c 043e
000000c0: 714b 11be 34c7 cc3d 6a1a 37bd dc07 853d
000000d0: 3908 cebd ebe6 febd d105 0abe edac 703d
000000e0: 1eb3 053e dcba 173e 31b8 a83d 4e6f 913d
000000f0: a3ee 17be 846b 493c 3e9d 11be dea7 943b
00000100: f808 d33b c80e 08be 7a7f ca3d fba0 d3bc
00000110: 3b2e 863d 1a0a f0bc bf56 ad3d 94fe 043d
00000120: 68e5 66bd 6676 08be aa1d cbbc 244f 123d
00000130: fe1d ae3d 9b4e f13d b393 c0bd 823c d83d
00000140: 9123 d0bd be51 143e 026c ebbc 6905 b9bd
00000150: dae8 61bd d0b2 8fbd 713d ee3d fae0 f33b
00000160: 7ace 3e3d 4d70 eebd 5d5d 973d ecb7 aabd
00000170: 90b7 113e 4461 f8bd b984 993c 8ceb 61bd
00000180: 2438 adbd 3311 4a3d 48da 913b 506e f7bc
00000190: 9945 0e3e 6cfc 87bd ea4a afbd 2510 733d
000001a0: 7435 043e e44f ea3d 5604 883a 4ac4 6b3d
000001b0: 5e4d 993b 4195 7e3d 656e 69bc 10a3 c23c
000001c0: 768f a0bd 1828 d93d 92d7 aabd 776a 51bd
000001d0: a18e 48bd fa78 8abd 8a4b 853d 01b3 9b3d
000001e0: b73a 7ebc 06a3 59bd e1af 03be b080 85bd
000001f0: c4eb 07be ad86 bc3d 37d2 f3bd 2be2 ce3d
00000200: 41d2 333d e3b8 8b3d 5923 e43d 8151 2abc
00000210: 3ecc 9bbd bd00 37bd 3c94 aabd f515 84bd
00000220: fa42 9ebd c83f c5bd fcd4 b0bd 9883 fabd
00000230: 0952 dabd aecb 02be a4b8 53bd ba80 33bd
00000240: c52c fb3d 48dd c63c 66b1 133e d64b 0ebe
00000250: a80b 12bd 63be ae3c e2e1 063d d92d d0bd
00000260: 18a5 b4bd 8379 e83d e654 073e 5b8d 8dbd
00000270: 3155 803c 204e c9bc 3a46 c2bc 046e 63bc
00000280: 598a 193e 637f e3bd 3c71 eebd 4d78 093e
00000290: a376 e03d a1d7 193e 7367 72bc df2b 563d
000002a0: 754f 4fbd 0203 2b3d 3bd6 933d 9163 ad3b
000002b0: f042 a13d 80a4 0f3e 4329 e93d e8b2 f43c
000002c0: a1fa 873d 636c db3d 909a a43d f9e6 f13d
000002d0: 5c30 0a3e f346 fa3c 2e58 f73c e70a a73d
000002e0: 7594 b1bd eeb6 2abc fd83 2ebd 3116 cb3d
000002f0: 7fbd 0d3e ef41 f63d 374b 1a3a 44e7 a13d
00000300: f660 d83d 6bb0 be3d 7904 d9bd ccf3 4cbd
00000310: 3a29 f53d 43a2 ebbc 3720 ee3d 8ab0 083e
00000320: 4a5e 023c 3b94 d0bd 824b a43d febf 5a3d
00000330: 3cbc df3b 31c1 30bd 698a a1bc 0ae0 97bd
00000340: ee93 92bd 6841 a1bd ca5d 7bbd a182 19be
00000350: ee87 ae3d 867e c9bd a2c5 6e3d d18d df3d
00000360: bf38 4c3d 9706 823d 02a0 b83d 9166 033e
00000370: 523a cf3d ab93 cebd f583 f6bd 61ec f8bd
00000380: 1a68 dc3d c4d6 9c3d 0eec 25bd d885 22ba
00000390: 2aea 2fbc fc8e eebd 8194 c2bd a9e8 b13d
000003a0: 1fb5 e33d e40f 113d 54a1 b3bd 6d5f e83d
000003b0: ad4b 12be f5df 7ebd 2eec febc e3b2 d73d
000003c0: b0f5 3bbc fd36 913d 6c4e 73bc 1c1d 16be
000003d0: c549 7bbd 06ef 803d 1494 90bd ed8b ba3d
000003e0: 5ca1 043d bf2f 8dbd 04d1 c3bd d46c 9dbd
000003f0: f4df ed3c 64d1 08be b3a6 b1bd 15dc 0e3e
0.039131552 0.010135466 0.15149656 -0.12001435 0.14933555 -0.09101365 -0.11854325 -0.02577476
0.031361356 0.054363854 -0.052061975 -0.046630003 -0.081261545 0.13808487 -0.050652117 -0.12148081
-0.0723232 0.084265575 -0.057876945 0.088514864 0.04341837 -0.12566845 0.011789412 0.13277246
-0.068336315 0.06798647 -0.07651524 0.1228982 -0.0345718 -0.020446757 0.10755482 -0.0061593666
-0.1502021 0.08429038 0.110227786 0.011058041 -0.007937252 0.03500563 -0.11924338 -0.0953976
0.09044585 0.015870357 -0.09405306 0.05425928 0.06524703 0.1245002 -0.11334072 0.12901686
-0.14188935 0.099989325 -0.044702925 0.0649564 -0.10060162 -0.12446388 -0.13478781 0.058758665
0.13056609 0.14817375 0.08238257 0.07101308 -0.14837126 0.0122937 -0.1422014 0.004536613
0.006440278 -0.13286889 0.098875955 -0.025833597 0.065517865 -0.029301692 0.08463811 0.032469347
-0.056371123 -0.13326415 -0.024794418 0.035720006 0.08501814 0.11782571 -0.094031714 0.10558416
-0.10163034 0.14484307 -0.028738026 -0.09034235 -0.055153705 -0.07016528 0.11632813 0.007442591
0.04658363 -0.116425134 0.073908545 -0.083358616 0.1423018 -0.12127927 0.018740045 -0.055156276
-0.084579736 0.04933281 0.00445107 -0.030203968 0.13893737 -0.066399425 -0.085592106 0.05934157
0.12911016 0.11441019 0.0010377269 0.057560243 0.0046784123 0.06215406 -0.0142475115 0.023759395
-0.07839863 0.106033504 -0.08341898 -0.051126923 -0.048964147 -0.06761356 0.065085486 0.07602502
-0.015516928 -0.053133987 -0.12860061 -0.06518686 -0.13273531 0.09205375 -0.1190533 0.10101732
0.043901686 0.06822374 0.111395545 -0.010395409 -0.076073155 -0.04467844 -0.08329055 -0.064495005
-0.077276185 -0.09631306 -0.086343735 -0.12232131 -0.10660178 -0.1277301 -0.05168976 -0.043823935
0.122643985 0.024275437 0.14423141 -0.13896117 -0.035655648 0.021331018 0.032930262 -0.10164995
-0.08820552 0.113513015 0.1321598 -0.06911727 0.015665622 -0.024573386 -0.023715127 -0.01388121
0.14994182 -0.111082815 -0.116426915 0.13424797 0.10960128 0.15023662 -0.014795172 0.052287932
-0.050612886 0.041750915 0.072185956 0.0052914103 0.078740954 0.14027596 0.11384823 0.029870465
0.066396005 0.107140325 0.08037293 0.11811633 0.1349501 0.03055141 0.030193415 0.08156376
-0.08670894 -0.01041959 -0.042606343 0.09916342 0.13841818 0.120242946 0.00058858417 0.079054385
0.10565369 0.09310993 -0.10596556 -0.05003719 0.11970754 -0.028763896 0.11627238 0.13348594
0.007957051 -0.10184523 0.080222145 0.053405754 0.006827859 -0.04315299 -0.01971932 -0.07415779
-0.071571216 -0.078738034 -0.06136874 -0.14991237 0.0852202 -0.098385856 0.058293946 0.10915721
0.049858805 0.06348913 0.09014894 0.12832095 0.101185456 -0.10086759 -0.120368876 -0.12154461
0.10762043 0.07658151 -0.040508322 -0.0006199754 -0.010736981 -0.11648366 -0.09500981 0.086869545
0.111185305 0.035415545 -0.08771005 0.11346326 -0.1428668 -0.0622253 -0.031118479 0.10532167
-0.011472151 0.07090566 -0.01485024 -0.14659542 -0.06134965 0.0629559 -0.07059494 0.0910872
0.032380447 -0.068938725 -0.09561351 -0.07686773 0.029037453 -0.13361126 -0.086743735 0.13951142

_deterministic_encoder.transformer_encoder.layers.0.self_attn.in_proj_bias f4 [192]
00000000: ef0c 823a 3929 59ba 061d 6b3a 572c 82ba
00000010: f409 823a 2efc 7eba 7d7f 81ba ce91 823a
00000020: 7d9a 81ba ddaf 813a 39fa 793a cf28 82ba
00000030: e1a0 823a b196 81ba 737d 81ba c288 82ba
00000040: e338 823a 17b3 823a 13d7 823a 2d84 823a
00000050: a3b6 82ba 4a47 823a 9661 813a c299 82ba
00000060: d9d4 823a d3d3 71ba b80f 813a e151 813a
00000070: 684b 82ba c5c7 6b3a 2744 823a 07bf 82ba
00000080: da88 82ba 18a8 80ba 1bd6 82ba b75c 813a
00000090: 219a 823a 4b65 82ba 72e1 82ba 0dcb 82ba
000000a0: 13cc 823a f9d6 82ba b1ac 80ba 9d86 82ba
000000b0: d4de 813a 03da 80ba f3e0 403a 2754 82ba
000000c0: 3f71 82ba 43b3 823a 87fa 81ba b4ba 80ba
000000d0: 2961 82ba efeb 803a d685 823a ce9f 6d3a
000000e0: 088d 82ba b461 823a 3497 823a e1bd 823a
000000f0: 57ac 81ba ab16 823a 1a98 82ba 129c 82ba
00000100: 6f82 4fb3 f039 4034 b97a 1233 2957 c934
00000110: e376 1234 0213 3734 0bf9 e0b4 09df 2a34
00000120: 326b af34 a268 69b4 aa65 c933 80af 1eb3
00000130: cd5c 0cb4 e376 12b4 6f4f 4332 cd5c 0c34
00000140: ef1d 60b5 7eae 5bb4 42e4 2ab3 7970 cf34
00000150: b97a 12b3 6f4f 4332 0213 3734 dc8d f534
00000160: 00d0 b3b5 f474 3535 0937 fab3 85e2 aa33
00000170: 6f4f 4332 c01f f2b4 fefb 6d34 668b 9834
00000180: c671 9234 13d8 aa34 7279 9233 673e 8634
00000190: 13d8 aab4 dd4e c332 7eee ed34 9707 f434
000001a0: 7eae 5b34 3e6f c7b4 32bc e134 7eee ed34
000001b0: 7279 9233 8d67 1235 744b c3b3 fefb 6d34
000001c0: 4e80 18b5 4ef4 c0b4 a620 fa34 2006 6e33
000001d0: dfdb 8335 03a0 86b4 371e f735 0944 2935
000001e0: 374b e8b5 dbfe 8c35 0117 b733 5d7b 9232
000001f0: cd5c 0c34 2006 6e33 d363 cc34 44d5 6434
00000200: 6c12 83ba 6612 83ba 6b12 833a 6a12 83ba
00000210: 6b12 833a 6212 83ba 4b12 833a 6b12 833a
00000220: 6b12 83ba 6b12 833a 6512 833a 6b12 83ba
00000230: 5912 833a 6912 83ba 5d12 833a 5f12 83ba
00000240: 6612 833a 6d12 833a 6712 833a 6712 833a
00000250: 6b12 833a 5912 833a 5312 833a 6b12 833a
00000260: 6b12 833a 4612 833a 6712 83ba 6612 833a
00000270: 6b12 83ba 6a12 83ba 6612 83ba 6b12 833a
00000280: 6812 83ba 6b12 83ba 5d12 833a 6b12 83ba
00000290: 6a12 833a 6912 833a 6d12 83ba 2b12 83ba
000002a0: 6b12 83ba 4d12 833a 6212 83ba 6912 833a
000002b0: 6a12 83ba 6912 833a 5f12 833a 6612 833a
000002c0: 4412 833a 5c12 83ba 6712 833a 6112 83ba
000002d0: 6b12 833a 6b12 833a 6b12 83ba 6c12 83ba
000002e0: 6812 833a 5312 83ba 6c12 83ba 6b12 83ba
000002f0: 6b12 83ba 6b12 833a 6612 83ba 6912 833a
0.0009922067 -0.0008284036 0.00089688634 -0.0009931427 0.0009921179 -0.0009726909 -0.0009879913 0.0009961666
-0.000988796 0.000989433 0.0009535882 -0.0009930375 0.0009966159 -0.0009886828 -0.0009879306 -0.000995897
0.0009935166 0.0009971586 0.000998231 0.0009957604 -0.0009972643 0.0009939459 0.0009871002 -0.0009964036
0.0009981646 -0.00092249847 0.0009846603 0.0009866321 -0.0009940686 0.00089943066 0.0009938524 -0.0009975143
-0.0009958998 -0.0009815721 -0.0009982021 0.000986955 0.0009964147 -0.00099484 -0.0009985401 -0.0009978727
0.0009979032 -0.000998228 -0.0009817091 -0.0009958331 0.0009908327 -0.0009830598 0.0007357739 -0.0009943292
-0.0009951963 0.0009971637 -0.0009916582 -0.0009821267 -0.0009947169 0.0009835939 0.0009958099 0.0009064645
-0.0009960243 0.0009947331 0.0009963275 0.0009974801 -0.000989328 0.0009924968 -0.0009963543 -0.0009964725
-4.8314572e-08 1.7902471e-07 3.410489e-08 3.7502585e-07 1.364056e-07 1.7050118e-07 -4.1904454e-07 1.5913623e-07
3.2674285e-07 -2.1737881e-07 9.3782845e-08 -3.6946858e-08 -1.3072277e-07 -1.364056e-07 1.1368555e-08 1.3072277e-07
-8.349006e-07 -2.0459444e-07 -3.978881e-08 3.863859e-07 -3.410489e-08 1.1368555e-08 1.7050118e-07 4.5738022e-07
-1.3397075e-06 6.7597944e-07 -1.1651543e-07 7.9574455e-08 1.1368555e-08 -4.5099114e-07 2.2164019e-07 2.8413632e-07
2.72774e-07 3.1822182e-07 6.8207456e-08 2.500485e-07 -3.1822182e-07 2.273685e-08 4.4318216e-07 4.5454064e-07
2.0459444e-07 -3.7147578e-07 4.2046446e-07 4.4318216e-07 6.8207456e-08 5.4539925e-07 -9.09412e-08 2.2164019e-07
-5.681112e-07 -3.5940542e-07 4.6589884e-07 5.5419264e-08 9.824251e-07 -2.507587e-07 1.8411728e-06 6.305641e-07
-1.7307237e-06 1.0504986e-06 8.525786e-08 1.7052736e-08 1.3072277e-07 5.5419264e-08 3.8070593e-07 2.131174e-07
-0.0009999997 -0.000999999 0.0009999996 -0.0009999995 0.0009999996 -0.0009999985 0.0009999959 0.0009999996
-0.0009999996 0.0009999996 0.0009999989 -0.0009999996 0.0009999975 -0.0009999993 0.000999998 -0.0009999982
0.000999999 0.0009999998 0.0009999991 0.0009999991 0.0009999996 0.0009999975 0.0009999968 0.0009999996
0.0009999996 0.0009999953 -0.0009999991 0.000999999 -0.0009999996 -0.0009999995 -0.000999999 0.0009999996
-0.0009999992 -0.0009999996 0.000999998 -0.0009999996 0.0009999995 0.0009999993 -0.0009999998 -0.0009999921
-0.0009999996 0.0009999961 -0.0009999985 0.0009999993 -0.0009999995 0.0009999993 0.0009999982 0.000999999
0.000999995 -0.0009999978 0.0009999991 -0.0009999984 0.0009999996 0.0009999996 -0.0009999996 -0.0009999997
0.0009999992 -0.0009999968 -0.0009999997 -0.0009999996 -0.0009999996 0.0009999996 -0.000999999 0.0009999993

_deterministic_encoder.transformer_encoder.layers.0.self_attn.out_proj.weight f4 [64, 64]
00000000: f503 413c 15f4 27be fca4 e83d 3b89 0b3e
00000010: 64f1 22be 2e75 893d e107 323d c970 7dbd
00000020: 8c3b e63d eb58 2a3e dd6f 49bd 54c4 713c
00000030: 27de 923d e9e8 0dbc afac 413d fd6a f43d
00000040: 3447 093e 453f 943c 8359 a1bc e709 e43d
00000050: faf3 343d f3c6 25bc 70b8 383e df7e 14be
00000060: f4d9 773d 9bac 0d3c e7e9 fc3d e2d1 85bd
00000070: 56a1 3c3e 7ac1 8a3d 1297 f73d e86a d83a
00000080: eacf 99bc 7e4b 04be 9736 6a3d c402 fb3c
00000090: 3602 ef3d d02c c73d 086c 5b3e ad17 5bbd
000000a0: e595 0abe 394d c2bd fc0c 2dbe 2bc6 47be
000000b0: 4813 26be 7699 343d e04a aa3d e418 00bd
000000c0: f30d 863d c153 0abd 7c63 43be af8d d53c
000000d0: 18b9 7e3d 32a5 f6bd c6b1 29be 68ba 03be
000000e0: 570e 1fbe eb7b 593d 1dfe bebd c394 273e
000000f0: c226 623c 1b87 293e 677f 543e 3f16 3b3e
00000100: 1d47 fdbc 45cf 93bb 6b87 1abe f92d 9abb
00000110: 345f febc 1963 aa3d e788 503e 09d7 0c3c
00000120: 79b3 253e fa6f 023e fc7a cebd bd31 eb3d
00000130: 3c3f 4f3e 4119 5cbe 1213 e83d d928 01be
00000140: 535b 383d b02b 15be 3e86 07be 686c 0ebe
00000150: 19fb afbd 87ef 52be 8544 acbd a3f7 e83d
00000160: 00b7 57bd c8a0 573d 754f 4c3e 3fd5 003e
00000170: 675c 893d 3a73 1d3e f4c9 9fbc bcab 86bd
00000180: 60ab 39be 6805 c33d 28e6 75bb c3e7 0b3e
00000190: c3bf 88bd af1c 0d3e 855d 873d 0b79 0c3e
000001a0: e4db 24be 2db0 10be 0721 95bd 4535 243e
000001b0: 3125 17be 7c7b 093e 7233 b03b c829 90bd
000001c0: 40d9 dcbd 6cad 1d3c 72ea 6a3b ac92 0d3e
000001d0: c266 adbd 3f31 333e b45c 183e bc40 0dbe
000001e0: 0819 cbbc be0b 3a3e b851 dfbd 1f6c f4bd
000001f0: 6e25 4a3e bfc4 30bc e511 47be 20cf bd3c
00000200: 27e2 aa3d 7258 413e a931 a93c cb7e 6bbd
00000210: bd79 bbbd 1d40 733b 5059 183e 7514 3d3e
00000220: 4550 59be 31c0 593e 3459 123e 1208 3fbe
00000230: 2e02 853c aff1 28be c9fd 09be 5122 efbc
00000240: 35f8 4e3e 7a59 34be e571 5e3d 455f cebd
00000250: 75b7 173e 0edb a5bd 9a86 e1bc 6b97 4cbe
00000260: 44dd 04be 2785 d4bd db96 17be 928a fcbc
00000270: 4d22 24be ab40 9e3d 9875 d0bd 23f6 2ebd
00000280: 26f0 35be 7005 f13d 9717 10be 18c0 dcbd
00000290: 43cb 10bd 71b2 03be df74 49be e692 8c3d
000002a0: ebf7 e6bd ab64 3d3d cbde 79bd fd40 2b3d
000002b0: dd42 d03c 4e82 543e f550 563e faf0 24be
000002c0: c8f7 f83d 96a8 c13d 74e6 443e 2f0c e5bd
000002d0: 2061 2e3d 681c c73d b4f7 123e eb8e 8ebb
000002e0: 1a8d 98bd 2035 88bd fa29 da3d 16ce a33d
000002f0: 51c7 2c3e 8269 3f3d af37 36be c91f a8bb
00000300: a7db 483e 1215 7f3d 049f 2ebe 8b80 873d
00000310: 626f c9bd 2c08 243e 45c7 89bd fed8 10be
00000320: 5956 75bb 8227 51be c7dd cc3d 4c5c 1f3c
00000330: fd06 723d 590f 4ebd 4d02 8abd 2470 bcbd
00000340: a484 d73c b809 d43d ac7a ba3d 20a9 4e3e
00000350: bc12 593e a769 273e f05d e23d bd71 113e
00000360: 60ef 603c 2636 fe3c 6a28 2fbe d6ca 0abe
00000370: 6fbd 48be b43c 5bbe 6910 5d3e 6342 9d3d
00000380: 06f8 4fbe d340 c5bd 8974 57bd 0091 fabd
00000390: ba11 7e3d f72e 3c3e 9767 33be ae67 0ebe
000003a0: a42f 473e d18a a3bd bfdb fe3d 6739 333d
000003b0: d461 343d aa88 413d 351e 003e 3108 eb3d
000003c0: 9674 57be d105 8bbd 00f5 d0bd 413f ac3c
000003d0: bd93 0a3e 1e05 15be 3e90 933b 25ac 403e
000003e0: ece1 383e 6111 0d3e fd33 74bd 4e75 eebd
000003f0: e2d1 7c3d 97cf 7f3c da00 3fbe 193c cdbd
0.011780729 -0.16401704 0.11359593 0.13626568 -0.15912396 0.067118034 0.043464545 -0.06187514
0.112418264 0.16635482 -0.049178947 0.014756281 0.071712784 -0.008661487 0.047283825 0.11934469
0.13406068 0.018096576 -0.019696003 0.11134701 0.044177987 -0.010118234 0.18039107 -0.14501522
0.06051059 0.008647109 0.12349301 -0.065341726 0.1842092 0.06775184 0.12089361 0.0016511353
-0.018775899 -0.12919423 0.057180967 0.030640967 0.116703436 0.09725344 0.2142793 -0.053489376
-0.13533743 -0.09487385 -0.16899484 -0.19509189 -0.16218293 0.044091664 0.083150625 -0.031273738
0.06545629 -0.03377128 -0.19080919 0.026068537 0.062188238 -0.12043227 -0.16571721 -0.12864077
-0.15532814 0.053096693 -0.09325812 0.16365342 0.013803186 0.16555445 0.20751725 0.18270205
-0.030917699 -0.0045107924 -0.1509072 -0.0047051874 -0.031051256 0.08319683 0.20364724 0.00859619
0.16181745 0.12738028 -0.10082051 0.11484096 0.20238966 -0.21494009 0.113317624 -0.12613238
0.04500897 -0.14567447 -0.13234803 -0.13908541 -0.08592815 -0.20599185 -0.084115066 0.11375358
-0.052664757 0.052643567 0.19952185 0.12581347 0.067070775 0.15375987 -0.019505478 -0.065757245
-0.1813178 0.095225155 -0.0037521217 0.13662629 -0.06677201 0.13780473 0.06609634 0.13718049
-0.16099507 -0.14129706 -0.0728169 0.16035946 -0.14760281 0.13426012 0.0053772265 -0.07039219
-0.10783625 0.0096238665 0.0035845307 0.13825482 -0.08466865 0.17499255 0.14879113 -0.13794225
-0.02479221 0.18168542 -0.109042585 -0.11934685 0.19740841 -0.010789095 -0.1944042 0.023170054
0.083439164 0.18881395 0.020653563 -0.057493966 -0.09154079 0.0037117072 0.1487782 0.18464835
-0.21222027 0.21264721 0.14291841 -0.18655422 0.01623639 -0.16498445 -0.13475718 -0.029191168
0.20211871 -0.17612258 0.054307837 -0.10076765 0.14816077 -0.08098422 -0.027530003 -0.19979636
-0.12975031 -0.10376959 -0.1480364 -0.030827794 -0.1602871 0.07727178 -0.10178679 -0.042715203
-0.1776739 0.11768615 -0.14071499 -0.107788265 -0.035350095 -0.12861039 -0.19673489 0.06863956
-0.11277755 0.046238583 -0.061003488 0.041810025 0.025422508 0.20752832 0.2092932 -0.1610755
0.121566355 0.09455983 0.19228536 -0.111839645 0.042573094 0.09722215 0.14352304 -0.0043505332
-0.07448788 -0.06650758 0.10652538 0.07998292 0.16872908 0.04673148 -0.17794679 -0.005130742
0.1961504 0.062275954 -0.17052847 0.066163145 -0.09835698 0.16018742 -0.06727461 -0.14145276
-0.00374355 -0.20425227 0.10003238 0.009726595 0.059088696 -0.050307605 -0.0673872 -0.092010766
0.026308365 0.10353416 0.09105429 0.20181704 0.21198553 0.16348897 0.110530734 0.14203544
0.013728946 0.03103168 -0.1710526 -0.13553938 -0.19603513 -0.21409875 0.21588291 0.07678678
-0.20309457 -0.09631505 -0.05260137 -0.12234688 0.062028624 0.1837729 -0.17519985 -0.13906738
0.19451767 -0.079854615 0.12444257 0.043755915 0.04403861 0.047249474 0.12511523 0.11476172
-0.21040568 -0.06788219 -0.1020298 0.021026256 0.1353292 -0.14552733 0.004503279 0.18815668
0.18054932 0.13776161 -0.059619892 -0.11643468 0.061723597 0.015613458 -0.18652669 -0.10021228

_deterministic_encoder.transformer_encoder.layers.0.self_attn.out_proj.bias f4 [64]
00000000: 6712 83ba 6312 83ba 6d12 833a 4b12 833a
00000010: 6212 83ba 6712 833a 6812 83ba 4212 83ba
00000020: 6b12 833a 9b10 83ba 6912 83ba 5912 83ba
00000030: 6b12 83ba 6912 83ba 6c12 833a 6412 83ba
00000040: 6b12 83ba 6612 833a 6012 833a 5712 833a
00000050: 6b12 83ba 6312 833a 6912 83ba 6112 83ba
00000060: 5f12 833a 6912 833a 5b12 833a 4b12 833a
00000070: 6712 83ba 6c12 83ba 6412 833a 6b12 833a
00000080: 5c12 833a 6b12 83ba 6512 83ba 6712 83ba
00000090: 6912 83ba 6b12 83ba 6b12 833a 6b12 833a
000000a0: 6712 83ba 6412 83ba 6712 83ba 6a12 833a
000000b0: 6b12 833a 6712 83ba 5112 833a 6b12 833a
000000c0: 6a12 833a 6612 83ba 6a12 833a 6b12 83ba
000000d0: 6b12 833a 6d12 833a 6b12 83ba 6b12 83ba
000000e0: 2112 833a 6312 833a 6912 83ba 6b12 83ba
000000f0: 6412 83ba 6412 833a 6912 83ba 6b12 833a
-0.0009999991 -0.0009999987 0.0009999998 0.0009999959 -0.0009999985 0.0009999991 -0.0009999992 -0.0009999948
0.0009999996 -0.0009999456 -0.0009999993 -0.0009999975 -0.0009999996 -0.0009999993 0.0009999997 -0.0009999988
-0.0009999996 0.000999999 0.0009999983 0.0009999973 -0.0009999996 0.0009999987 -0.0009999993 -0.0009999984
0.0009999982 0.0009999993 0.0009999977 0.0009999959 -0.0009999991 -0.0009999997 0.0009999988 0.0009999996
0.0009999978 -0.0009999996 -0.0009999989 -0.0009999991 -0.0009999993 -0.0009999996 0.0009999996 0.0009999996
-0.0009999991 -0.0009999988 -0.0009999991 0.0009999995 0.0009999996 -0.0009999991 0.0009999966 0.0009999996
0.0009999995 -0.000999999 0.0009999995 -0.0009999996 0.0009999996 0.0009999998 -0.0009999996 -0.0009999996
0.000999991 0.0009999987 -0.0009999993 -0.0009999996 -0.0009999988 0.0009999988 -0.0009999993 0.0009999996

_deterministic_encoder.transformer_encoder.layers.0.linear1.weight f4 [256, 64]
00000000: dcd3 bcbd e052 2cbc 5b5a f7bc f6d9 9bbd
00000010: cdf9 5abd 3e89 0a3e c288 be3d 5612 ab3d
00000020: 2694 e73d b8e0 083d cd01 60bd 4c7a 9dbd
00000030: b423 27bd 9ab4 013e 329f 07be 8a0f e83d
00000040: ebc7 35bd 155d 9b3d 4e7b f83d 65bb a03c
00000050: 7f13 be3b 8713 bb3d f43a cebd a9ca 203d
00000060: 6433 80bd e0b7 663d 0469 d93b 9e98 01be
00000070: 7612 ad3d b395 f13d aff2 05be e862 e2bd
00000080: 0a84 f33c 7c3b b83d 57f5 93bd 868c 71bd
00000090: 6721 9f3d e2c6 3cbd f5db 83bd 005d b33d
000000a0: bcd4 483d 4dad c43d fdc7 33bc b17f 5a3d
000000b0: dbfc b73c a710 b53d c685 05bd cb9f bd3d
000000c0: 348e afbd fe68 14bc 7ca4 94bd 37fc e03d
000000d0: 85e8 533d 99e7 17bc 53ad 46bd d563 a83d
000000e0: 01be acbd 1bca e73d 3cab e03b 6b60 ef3c
000000f0: 5699 e8bd 40f9 bb3d c159 ec3d 5221 c93d
00000100: c323 f03d 3084 9abd 45c0 dd3d 004f 6a3d
00000110: 0bf0 4bbc 29c1 293c 279f 393d a4f3 cb3d
00000120: 65c4 8fbd d89d a93c 04ca b0bd 9315 273d
00000130: 462e df3d 689e bcba e908 99bb 5cda e73d
00000140: 2a84 ff3c c6cb d5bc 29f2 dd3c 7a33 70bb
00000150: 1d0a 13bd 8a21 383c 7c57 d53c fcdb e8bd
00000160: f57b 483d aa81 e73c f73b 613c 63a0 4fbd
00000170: 058e acbc 820c f7bb 7883 a53c 0d4d b63d
00000180: 7f10 95bd d871 b3bd 59f9 e03d c6cf 3a3d
00000190: 6d3e ee3d bd1a 82bd 8b06 e03d ad7e 08be
000001a0: 68a8 363d 2e51 2f3c d740 96bd f8e5 b8bd
000001b0: d911 0abe e409 86bd 1449 30bd 587d 2e3d
000001c0: 8dd3 7d3d 9e67 673d cd1c e5bd e104 ba3d
000001d0: f09e e5bd 8475 f63c c259 9cbd 82fd ee3d
000001e0: 4387 e7bb 37bc 91bd 594b 793d 5683 cc3d
000001f0: c7e2 4b3a ce83 01be 16b7 683b 123b 76bd
00000200: 4a78 24bc f459 8a3d 1d14 d6bd 4ed9 d23d
00000210: fde0 9abd bf7a 05ba 48ba 983b f10f 263d
00000220: 32ac 11bb 0f70 fabd b0d4 a3bd 9c78 45bd
00000230: 5e14 b1bd 1e56 c13d 47ea 81bc f9ff 8a3d
00000240: 46a4 9fbd 5869 813d c741 0fbd 42ed 1bbd
00000250: 87de 59bd 56f9 4f3d 8582 853c 377a 5a39
00000260: 9356 5b3d 7d08 87bd a6b1 52bb 33f8 7bbd
00000270: 9caf d73d 41ef 423d ba78 0cbe 2629 f73d
00000280: d511 2fbc 7a10 bdbd 7788 72bd 31df 55bc
00000290: f165 9a3b b62a ed3d ec22 853d c385 f0bd
000002a0: d15f 0fbd 2514 a0bd f208 e43d 5181 04be
000002b0: 8d0a c13d b763 d1bd 7e13 7f3d fb87 02bd
000002c0: 7d06 f8bd 531c dc3d 6b79 e1bd 5848 d03d
000002d0: 0259 e3bd 698b 60bd c93b a23d 7bb2 8b3d
000002e0: c3ec 6cbd 5d19 aebd dfca 993d ec77 d43d
000002f0: 242e e8bc 4cda 803d c736 3d3d 5ace da3d
00000300: 38b1 4a3d f91d d73d 4914 ffbd 2944 0cbd
00000310: ea1a 21bb 0843 f9bd a121 10bc 5bf8 653d
00000320: f626 f4bd 4ba4 033e 10e3 833d 9ddb 2e3b
00000330: 83fe c03d 6b61 653c 25d4 82bd fa4c c9bd
00000340: dac1 4f3d 4fe4 073e 5d79 4e3d fdbc 533d
00000350: 0323 1f3d 7125 b13c ae3c 133d ec2c c43d
00000360: 7107 89bd c2ad fb3c 7cab f73d 7445 debc
00000370: 564c a83d f134 d83d 6b4e 59bd 9358 02be
00000380: 241b e2bd 296f 613d 094a 9a3d c905 b4bd
00000390: fe52 8c3d 7180 ae3c 9bf4 02bd 57d2 0abe
000003a0: 4c04 1dbd be89 e4bc a911 9bbd 0de8 8b3c
000003b0: 2acc 1f3d dfe7 093e 036d cd3d a144 e8bd
000003c0: 96c1 04bd 7bc1 313d 0723 ecbd 03af 053e
000003d0: 9e5d 6cbd 8b0d 243d 9e03 99bd 31aa 223d
000003e0: 943e 043e 4f3e 843d 039f 013e fc74 afbd
000003f0: 234c cd3d 588d 253d e503 6f3d 1f3c 9f3d
-0.092200965 -0.010517806 -0.030194452 -0.07609932 -0.053460885 0.13528916 0.09303428 0.08353107
0.11307554 0.033417434 -0.054689217 -0.07689342 -0.040805534 0.1266655 -0.13244322 0.11331089
-0.04438011 0.07586113 0.121328935 0.019620607 0.005800664 0.09134584 -0.10069838 0.03925577
-0.06259802 0.0563277 0.0066348333 -0.12655875 0.08450787 0.11796131 -0.13080858 -0.11054021
0.029726047 0.08995721 -0.07224529 -0.058971904 0.07770043 -0.046088107 -0.06438438 0.08757973
0.049031004 0.09603367 -0.010972974 0.053344432 0.022459438 0.08841067 -0.03259828 0.09258994
-0.08572045 -0.009058235 -0.072579354 0.10985606 0.05173542 -0.009271526 -0.04850514 0.082221664
-0.08434678 0.113178454 0.00685635 0.02922078 -0.113573715 0.091784 0.11540557 0.098208085
0.11725571 -0.07544744 0.10827688 0.057204247 -0.012447367 0.010360994 0.045317795 0.0995858
-0.07019881 0.020705149 -0.086322814 0.04079206 0.10897498 -0.001439047 -0.0046702516 0.113209456
0.03119095 -0.026098143 0.02709301 -0.0036651776 -0.035898317 0.011238465 0.026042692 -0.11370084
0.04894634 0.02826007 0.013747207 -0.050690066 -0.021063814 -0.007539333 0.02020429 0.08901415
-0.07278537 -0.08761948 0.10985059 0.045608304 0.116330005 -0.06352756 0.10938748 -0.13329573
0.0445942 0.010700507 -0.07336586 -0.09028238 -0.13483371 -0.06544855 -0.043038443 0.042600006
0.06196933 0.0564953 -0.11187134 0.09082962 -0.112119555 0.030085333 -0.076343074 0.116694465
-0.007065685 -0.07115977 0.060862873 0.09985988 0.0007777628 -0.12647936 0.0035509518 -0.060114928
-0.010038445 0.067554384 -0.10453055 0.10295354 -0.07562444 -0.0005091838 0.0046608783 0.040542547
-0.002222788 -0.12228405 -0.07999551 -0.048210725 -0.08646463 0.09440254 -0.015858782 0.06787104
-0.077950045 0.06318921 -0.03497484 -0.038068064 -0.053190734 0.050774895 0.016297588 0.00020835629
0.05354936 -0.06593416 -0.0032149344 -0.061515998 0.10531542 0.04759145 -0.13717929 0.12068395
-0.010685404 -0.09231658 -0.059212174 -0.013053701 0.0047118594 0.11580412 0.065008014 -0.11744263
-0.035003487 -0.07816342 0.11134519 -0.12939955 0.094258405 -0.10224097 0.06227445 -0.031867962
-0.121106125 0.1074759 -0.11009487 0.101700485 -0.11100961 -0.054820452 0.07921559 0.06821152
-0.05784298 -0.085009314 0.07509398 0.10374436 -0.028342314 0.06291637 0.046194818 0.1068389
0.049485415 0.10503764 -0.12455041 -0.03424469 -0.0024582692 -0.12170988 -0.00879708 0.056145053
-0.11921494 0.12855642 0.06439793 0.0026681193 0.09423544 0.014000277 -0.063881196 -0.09829135
0.05072198 0.13270687 0.05040871 0.051693905 0.03885175 0.021624299 0.03594654 0.09578881
-0.066908725 0.030722503 0.12093255 -0.027132727 0.08217685 0.10556973 -0.0530533 -0.12729101
-0.11040333 0.05503765 0.07533652 -0.08790166 0.06851767 0.02130148 -0.031971555 -0.13556801
-0.038334176 -0.027897712 -0.07571728 0.017078424 0.039013065 0.13467358 0.10030558 -0.11341215
-0.03241118 0.043397408 -0.115301184 0.13055043 -0.057706468 0.040051978 -0.07471393 0.03971309
0.12914497 0.06457197 0.12658314 -0.08567235 0.100242876 0.040418 0.058353323 0.07775139

_deterministic_encoder.transformer_encoder.layers.0.linear1.bias f4 [256]
00000000: ab11 83ba 4512 83ba 2012 83ba 0312 833a
00000010: 3512 833a 6a0e 83ba 5210 83ba e111 833a
00000020: 4112 833a f111 833a 150d 83ba 5012 83ba
00000030: 5d12 833a f411 83ba 4d12 833a 2d12 83ba
00000040: 0e09 833a c611 833a 5d11 833a e211 83ba
00000050: 4912 833a 3012 833a 4b12 83ba 4012 833a
00000060: 5312 83ba 3b12 833a 8711 833a 4612 83ba
00000070: 5212 833a 5d12 833a 2b11 833a ff10 833a
00000080: 7d11 83ba 5612 83ba 2d12 83ba bf11 83ba
00000090: dd11 83ba 5110 833a 0b11 833a df11 83ba
000000a0: 5f12 83ba 1412 833a 4412 833a f10e 83ba
000000b0: 7211 833a 5012 833a 4e12 83ba 3e10 83ba
000000c0: 0f12 83ba 22fb 82ba fe11 833a a711 83ba
000000d0: ff11 833a b111 833a caff 82ba af11 83ba
000000e0: 3f12 83ba 4d12 83ba 5312 833a e711 833a
000000f0: 890c 833a 2712 833a 2b12 83ba 3f12 833a
00000100: 0612 83ba 2112 83ba c411 83ba 0f12 83ba
00000110: 5112 833a 5812 83ba 2d12 833a 80fe 82ba
00000120: 3912 83ba 4712 833a 4612 83ba 0611 833a
00000130: df11 833a 2d11 83ba 480e 833a 3712 83ba
00000140: 4712 83ba e305 83ba e511 833a 3f12 833a
00000150: dda6 823a d411 833a 2112 833a 0412 833a
00000160: 2612 83ba af02 83ba c70d 83ba d711 83ba
00000170: 5612 833a b211 833a 5f12 833a 3412 83ba
00000180: 4412 833a aa11 83ba 8fdf 82ba d20e 83ba
00000190: 4312 833a 5412 83ba 0d12 83ba 9211 833a
000001a0: ee10 833a d811 833a 3705 83ba 5912 833a
000001b0: d311 83ba f411 83ba 4f12 83ba 6212 833a
000001c0: df11 83ba 7211 83ba 2212 83ba 5212 83ba
000001d0: 6611 833a 4b12 833a 3b12 83ba 9511 83ba
000001e0: 940b 833a 9311 833a 1511 833a a003 833a
000001f0: fb0d 83ba 4012 83ba 5012 833a 4212 83ba
00000200: 3412 833a 3712 83ba 3d12 833a e20d 833a
00000210: 5612 83ba ab10 833a 4712 83ba e611 833a
00000220: 5b12 833a d611 83ba ef11 833a 0612 83ba
00000230: 0612 83ba bf0c 833a db11 833a 7a11 833a
00000240: 4612 83ba 3812 83ba 3712 83ba 5e12 833a
00000250: 2312 83ba 3b12 833a 1d12 83ba df11 833a
00000260: de11 83ba e911 833a 3c12 833a 0000 0000
00000270: b40f 833a b30f 83ba 3f12 833a 2011 833a
00000280: 3712 833a 0f11 833a 0912 833a 4412 833a
00000290: 2d12 83ba 3912 833a ef11 833a e811 83ba
000002a0: 0112 833a fe11 83ba 4412 833a 67fa 823a
000002b0: 4612 833a 7b11 83ba e211 83ba 1512 833a
000002c0: e411 833a 2212 83ba 8110 83ba 830f 83ba
000002d0: 0712 833a 1412 833a 0612 833a e001 83ba
000002e0: 5212 833a 4202 833a f206 83ba 0412 833a
000002f0: dd11 83ba 3012 833a 3012 833a 1811 833a
00000300: f911 833a 5512 83ba 2312 83ba 4411 833a
00000310: a111 833a 5e12 833a 1f12 833a 5b12 833a
00000320: 5912 833a f711 83ba 0212 833a 4412 833a
00000330: 0b12 833a 5512 83ba 8b11 83ba 910e 833a
00000340: 5012 833a bd11 833a ca0c 83ba c911 83ba
00000350: 1412 83ba 4d12 83ba c110 833a 0210 83ba
00000360: 6212 83ba c510 83ba 3411 833a cd0b 83ba
00000370: 4412 83ba 4b12 83ba 2712 833a 3312 833a
00000380: 3d12 833a 5012 833a 4a12 83ba 4512 83ba
00000390: 4a12 833a 4912 833a 0312 83ba 4711 833a
000003a0: 4612 83ba 0d12 83ba 3f12 83ba 0712 83ba
000003b0: 3f11 833a 3f12 833a 4012 833a d011 83ba
000003c0: e011 83ba 3e12 83ba 4912 83ba 3f12 83ba
000003d0: 5612 833a 0e12 833a 1f12 83ba 5112 83ba
000003e0: 0d12 833a c211 833a 5b12 83ba 9d09 833a
000003f0: 0411 83ba 5412 83ba a811 833a fd11 833a
-0.0009999772 -0.0009999952 -0.0009999909 0.0009999875 0.0009999933 -0.0009998803 -0.0009999371 0.0009999835
0.0009999947 0.0009999854 -0.0009998406 -0.0009999964 0.000999998 -0.0009999857 0.0009999961 -0.0009999924
0.0009997205 0.0009999804 0.0009999681 -0.0009999836 0.0009999956 0.0009999927 -0.0009999959 0.0009999946
-0.0009999968 0.000999994 0.000999973 -0.0009999953 0.0009999967 0.000999998 0.0009999623 0.0009999572
-0.0009999719 -0.0009999971 -0.0009999924 -0.0009999796 -0.000999983 0.000999937 0.0009999586 -0.0009999833
-0.0009999982 0.0009999895 0.000999995 -0.000999896 0.0009999706 0.0009999964 -0.0009999962 -0.0009999347
-0.0009999889 -0.0009993056 0.0009999869 -0.0009999768 0.000999987 0.0009999779 -0.0009994444 -0.0009999777
-0.0009999945 -0.0009999961 0.0009999968 0.0009999842 0.0009998243 0.0009999917 -0.0009999921 0.0009999945
-0.0009999878 -0.000999991 -0.0009999801 -0.0009999889 0.0009999966 -0.0009999974 0.0009999924 -0.000999406
-0.0009999938 0.0009999954 -0.0009999953 0.000999958 0.0009999833 -0.0009999626 0.0009998763 -0.0009999935
-0.0009999954 -0.0009996261 0.000999984 0.0009999945 0.0009967942 0.000999982 0.000999991 0.0009999876
-0.0009999915 -0.0009995307 -0.0009998613 -0.0009999824 0.0009999971 0.000999978 0.0009999982 -0.0009999932
0.000999995 -0.0009999771 -0.0009984839 -0.0009998924 0.0009999949 -0.0009999969 -0.0009999886 0.0009999743
0.0009999552 0.0009999825 -0.0009996061 0.0009999975 -0.0009999819 -0.0009999857 -0.0009999963 0.0009999985
-0.0009999833 -0.0009999706 -0.0009999911 -0.0009999967 0.0009999692 0.0009999959 -0.000999994 -0.0009999747
0.0009997957 0.0009999744 0.0009999598 0.0009995587 -0.0009998673 -0.0009999946 0.0009999964 -0.0009999948
0.0009999932 -0.0009999935 0.0009999942 0.0009998644 -0.0009999971 0.0009999474 -0.0009999954 0.0009999841
0.0009999977 -0.0009999822 0.0009999851 -0.0009999878 -0.0009999878 0.0009998305 0.0009999828 0.0009999715
-0.0009999953 -0.0009999936 -0.0009999935 0.0009999981 -0.0009999912 0.000999994 -0.0009999905 0.0009999833
-0.0009999832 0.0009999844 0.0009999941 0.0 0.0009999187 -0.0009999186 0.0009999945 0.000999961
0.0009999935 0.0009999591 0.0009999882 0.000999995 -0.0009999924 0.0009999938 0.0009999851 -0.0009999843
0.0009999872 -0.0009999869 0.000999995 0.0009992839 0.0009999953 -0.0009999716 -0.0009999836 0.0009999896
0.0009999839 -0.0009999911 -0.0009999425 -0.000999913 0.0009999879 0.0009999895 0.0009999878 -0.0009995066
0.0009999967 0.000999518 -0.0009996577 0.0009999876 -0.000999983 0.0009999927 0.0009999927 0.0009999601
0.0009999863 -0.000999997 -0.0009999912 0.0009999652 0.0009999761 0.0009999981 0.0009999907 0.0009999977
0.0009999975 -0.0009999861 0.0009999874 0.000999995 0.0009999884 -0.000999997 -0.0009999735 0.0009998848
0.0009999964 0.0009999793 -0.0009998318 -0.0009999807 -0.0009999895 -0.0009999961 0.00099995 -0.0009999278
-0.0009999985 -0.0009999505 0.0009999634 -0.0009998024 -0.000999995 -0.0009999959 0.0009999917 0.0009999931
0.0009999942 0.0009999964 -0.0009999957 -0.0009999952 0.0009999957 0.0009999956 -0.0009999875 0.0009999656
-0.0009999953 -0.0009999886 -0.0009999945 -0.0009999879 0.0009999647 0.0009999945 0.0009999946 -0.0009999815
-0.0009999834 -0.0009999943 -0.0009999956 -0.0009999945 0.0009999971 0.0009999888 -0.0009999907 -0.0009999966
0.0009999886 0.0009999799 -0.0009999977 0.0009997372 -0.0009999578 -0.0009999969 0.0009999769 0.0009999868
