CNP-model-save-name/saved_models/model_0.pth (torch, 732596 bytes, 50 tensors)

weight f4 [64, 5]
00000000: 202f b13c 408c 723e b7a5 b0bd b987 463d
00000010: 1cff 33be 2ecf 803c b592 76be 90db 3c3e
00000020: ffbc 5ebd c9f3 3cbe 5d0a 6fbe 0853 dcbd
00000030: 0391 8f3c f78b 17be 1a10 143e ee91 af3d
00000040: 48e4 293e 882f 573e 3de6 373b 41ca 5c3e
00000050: 02f5 66be 5179 023d a320 bdbd 1875 33be
00000060: 5a79 8d3e e1c5 b53d 2d8d 493e c77a 6abe
00000070: 2c13 4c3e dc48 0f3e a2bf 8a3e a1df 79be
00000080: 3e9f fd3d 679b 89be 54b0 4ebe cd62 923e
00000090: c44c 563e 4d69 1bbe 105d 1bbe dafd e3bc
000000a0: 857e 38bd 031a 84be 8dd9 313e 19ad 183d
000000b0: ce49 39bd 7f26 87be 8d39 053c 48a6 6b3e
000000c0: b996 6bbe 753b 943e f3ba 35be f647 953e
000000d0: 0dc3 05be fc79 8abe d3fb 01be 1e61 5bbd
000000e0: ad5d 09bd 3bff 10be f9ca 7cbe 5080 ec3d
000000f0: ae6d 5b3e 25e6 90be c20e c13d 09a4 9cbc
00000100: 42dc 183e f5cf ca3d 63b6 103e d2ec b23d
00000110: 7ddf 193e dcd7 303e 59f1 0e3e 58d2 203e
00000120: 537b 7bba 526d d3bd 33f9 5a3e f3d8 b03d
00000130: 12fd 3f3d cf17 133e 226b 883d d007 6abe
00000140: f120 843e aeea 86bd c0db 683e 58a1 cf3d
00000150: 7de6 74bd e767 5dbe e9bd 26be 00fb 5f3e
00000160: 02f8 d3bc e158 3abe 2327 103e 0e2e 5f3e
00000170: 54f3 5b3e f603 91bc 9337 20be 2111 b23d
00000180: b84a cfbd 345f 50be 2643 15be bc3d e63d
00000190: 727f 5dbe 8da2 83be e1e8 ea3d a8f4 513c
000001a0: 5a56 fcbd 5e68 0a3e 8c4a ee3d 7dbb 9bbd
000001b0: 875a 8f3d e353 953d 6824 413d 89cb 29be
000001c0: 60f1 333e d543 7d3e ce89 153e 6b3d 823e
000001d0: c755 bd3d 00a1 443e 0813 4abe 08f0 42be
000001e0: 8986 ec3d 7965 613e 60e8 ba3d b6d6 5d3e
000001f0: a9d8 7d3e 34b2 823e 4f62 d43d 48ea 88be
00000200: 7767 b33a 68ff e23d 19f7 49bd 702e a6bd
00000210: fa10 273e d321 07bd 85a3 6b3e 570a 55be
00000220: c55c c73d 3b92 683e e924 4fbe 45b9 8abe
00000230: 77bc 183e c8f8 8cbe 02a3 9f3d 21c9 263e
00000240: 232e 1f3e 9904 e03d cde8 fdbd 6d6f bebd
00000250: 2fad 413e dca6 c33d d2c4 10bd 0447 e03c
00000260: 52e0 86bd 8e9d 80be 11bb 2d3e 3de5 eabd
00000270: 1b5e 6dbe d0a6 3d3e 601c 8e3e 7fc8 623e
00000280: 8246 353e 7ae2 e63d 9180 953e 1061 8d3e
00000290: 1141 62be a262 8ebe ef15 8c3e 56cb 833e
000002a0: 5cde 0cbe 97e6 a73d a43a cabc 910e 3ebe
000002b0: 1356 92be 9fae 6f3e 6c01 083e c013 4e3e
000002c0: b03c 6dbe 313b 70be 05fa aa3d c984 873e
000002d0: a3b0 45bd 55f2 51be 87af 633e 22aa 26be
000002e0: 086d f4bc af5a 93be de96 073e 8fe7 afbd
000002f0: ad44 403c 9700 2bbd acdf 9fbc c054 02be
00000300: 922a 4f3e e9e1 863e b95c aa3d 1da6 5ebd
00000310: 434b 71be 09c3 a2bc ab50 b9bd dccf b63d
00000320: 3b0d 5bbd 027f 1a3e af22 ff3b d05b 14be
00000330: 5899 30be 4b64 35bd 1f11 55be 3a0e 59bb
00000340: 8a6a 02bd 6d68 5cbe c198 8c3e 444c 6c3e
00000350: 5542 dbbc 0df1 e83d 85ae 0f3e cc43 093e
00000360: 0cb9 6ebe 2891 cbbd a622 2ebe 226a 55be
00000370: fe76 5e3e 10bf 66be 4809 ba3d 4992 b73d
00000380: f506 603e 97ca 5ebe 2550 1a3e 050d f7bd
00000390: 3cd4 ad3d 5037 933e dcf0 8a3b c9ff 983d
000003a0: 9d85 0c3e 8c5d 20be 31db 403d 7388 60be
000003b0: 0f8c 8bbe eb4a 15be cb20 ee3d 2185 f23d
000003c0: 4185 20be 9bd7 28be 57e2 dc3c 6b4c 0b3d
000003d0: bbe5 d93d 62e0 903d 8bed 40be 8828 4bbe
000003e0: a6e7 eabd c50a 753c f511 8fbe a109 7fbe
000003f0: fd56 26be c48b 44bc 4127 623d 2e7d 583d
0.021628916 0.23686314 -0.086253576 0.04846928 -0.17577785 0.015723791 -0.24079402 0.18443131
-0.05437946 -0.18452372 -0.23343797 -0.107580245 0.017525202 -0.14799486 0.14459267 0.08572756
0.16590989 0.21014225 0.0028060817 0.21561529 -0.225544 0.031853978 -0.092347406 -0.17525136
0.27631646 0.08875633 0.1968276 -0.22898398 0.19929188 0.13992637 0.2709933 -0.24401714
0.12383889 -0.26876375 -0.20184451 0.28591004 0.20927721 -0.15176888 -0.1517222 -0.027831007
-0.045042533 -0.25801095 0.17368145 0.037274454 -0.0452364 -0.26396558 0.008131397 0.2301265
-0.23006715 0.28951612 -0.17747097 0.29156464 -0.13062687 -0.27046192 -0.1269372 -0.053559415
-0.0335366 -0.14159863 -0.24686803 0.11547911 0.21428558 -0.28300586 0.09426643 -0.019121187
0.14927772 0.09902946 0.14132075 0.08736576 0.1502666 0.17269844 0.13959254 0.1570524
-0.0009593267 -0.103235856 0.21384124 0.0863513 0.046872206 0.14364551 0.06661059 -0.22854543
0.25806382 -0.0658773 0.22740078 0.10138196 -0.059790123 -0.21621667 -0.16283382 0.21873093
-0.025875095 -0.18197967 0.1407743 0.21794912 0.21479541 -0.017702084 -0.156462 0.08694673
-0.10121673 -0.20348817 -0.14576396 0.11242244 -0.21630648 -0.25709954 0.114701994 0.012814678
-0.12321158 0.13516375 0.116353124 -0.0760412 0.069996886 0.07291391 0.04715386 -0.16581549
0.17572546 0.24732907 0.1460335 0.25437483 0.09244876 0.19202042 -0.19733822 -0.19036877
0.11549098 0.22011365 0.09126353 0.21663937 0.2478968 0.25526583 0.103703134 -0.26741242
0.0013687451 0.11083871 -0.049307916 -0.08114326 0.1631507 -0.03299124 0.23011597 -0.20804726
0.09734491 0.22712032 -0.20228924 -0.27094474 0.14915644 -0.27533555 0.07794763 0.16287662
0.15544944 0.10938377 -0.12397919 -0.092985965 0.1891372 0.0955331 -0.035343952 0.027377613
-0.065857545 -0.25120205 0.16965891 -0.11469505 -0.2318043 0.18520665 0.27756023 0.22146796
0.17702678 0.11273666 0.2919965 0.27613115 -0.22095133 -0.27809626 0.27360484 0.2574107
-0.13756698 0.081982784 -0.024686165 -0.18560244 -0.28581294 0.23406456 0.13281792 0.20124722
-0.23167682 -0.2346008 0.08348469 0.26468495 -0.048264157 -0.20502599 0.22234927 -0.16275838
-0.029837146 -0.28780124 0.13241145 -0.08589088 0.011735124 -0.04174861 -0.019515835 -0.12727642
0.20231083 0.2634423 0.08318467 -0.054357637 -0.23563866 -0.01986839 -0.09048589 0.08926365
-0.053479414 0.15087512 0.007786117 -0.14488149 -0.17245996 -0.0442851 -0.20807312 -0.0033120052
-0.031839885 -0.2152421 0.27460292 0.23075968 -0.026765028 0.11374102 0.14031418 0.13404769
-0.23312777 -0.09939796 -0.17005405 -0.20841268 0.2172508 -0.22533822 0.090838015 0.089634486
0.21877654 -0.2175697 0.15069635 -0.1206303 0.08487746 0.28753138 0.0042401385 0.07470662
0.13722844 -0.15660685 0.047084037 -0.21927051 -0.27255294 -0.1457936 0.116273485 0.118417986
-0.15675832 -0.16488497 0.026963396 0.034008425 0.10639521 0.070740476 -0.18840615 -0.1983968
-0.11469965 0.014956181 -0.27943388 -0.24906017 -0.16244121 -0.011996213 0.055213217 0.052853756

bias f4 [64]
00000000: 6a12 833a 6b12 833a 6a12 833a 6112 833a
00000010: 5d12 83ba 6212 83ba 6012 83ba 5712 833a
00000020: 6a12 833a 6812 833a 6c12 833a 6c12 833a
00000030: 0a12 833a 6b12 833a 6b12 83ba 6b12 83ba
00000040: 6b12 833a 6c12 833a 6c12 833a d611 833a
00000050: 6d12 833a 6b12 833a 6b12 833a 6b12 833a
00000060: 6b12 83ba 6712 83ba 6912 833a 6a12 83ba
00000070: 6a12 833a 6212 833a 6b12 833a 5a12 83ba
00000080: 6712 833a 6512 83ba 6b12 83ba 6a12 83ba
00000090: 6812 833a 6d12 83ba 6512 833a 6b12 83ba
000000a0: 6b12 83ba 6a12 83ba 6912 833a 6612 833a
000000b0: 6a12 83ba 6b12 833a 6b12 83ba 6b12 83ba
000000c0: 6912 83ba 7b0b 83ba 6d12 83ba 6b12 83ba
000000d0: 6b12 83ba 6b12 833a 8711 833a 6a12 83ba
000000e0: 6b12 833a 6a12 83ba 6912 83ba 6712 833a
000000f0: 6c12 83ba 5112 833a 6d12 833a 6b12 83ba
0.0009999995 0.0009999996 0.0009999995 0.0009999984 -0.000999998 -0.0009999985 -0.0009999983 0.0009999973
0.0009999995 0.0009999992 0.0009999997 0.0009999997 0.0009999883 0.0009999996 -0.0009999996 -0.0009999996
0.0009999996 0.0009999997 0.0009999997 0.0009999822 0.0009999998 0.0009999996 0.0009999996 0.0009999996
-0.0009999996 -0.0009999991 0.0009999993 -0.0009999995 0.0009999995 0.0009999985 0.0009999996 -0.0009999976
0.0009999991 -0.0009999989 -0.0009999996 -0.0009999995 0.0009999992 -0.0009999998 0.0009999989 -0.0009999996
-0.0009999996 -0.0009999995 0.0009999993 0.000999999 -0.0009999995 0.0009999996 -0.0009999996 -0.0009999996
-0.0009999993 -0.0009997928 -0.0009999998 -0.0009999996 -0.0009999996 0.0009999996 0.000999973 -0.0009999995
0.0009999996 -0.0009999995 -0.0009999993 0.0009999991 -0.0009999997 0.0009999966 0.0009999998 -0.0009999996

weight f4 [64, 4]
00000000: 0880 7b3e 29f1 293e 856a 913e 7e64 2e3d
00000010: 0ac1 4f3e 8cc4 8f3e 9645 5abd 8948 74be
00000020: f9d6 ea3d c69a 3e3e 259e 92be b0a8 82be
00000030: 3f90 1d3d 60f6 60be 757f 693e 3818 42be
00000040: 6446 74bc 041f b83d 2cd6 393e d005 643e
00000050: 7194 46be ad98 003e daa1 8d3e 64ba 43be
00000060: 0d0c 05be 4225 903e 68e5 fcbd 7e8e 623e
00000070: 93ad 34bd 9b76 4b3e 2d41 483e 374f 2cbd
00000080: 21d4 31be 3348 8dbe 8e3e 883e 0b87 8b3e
00000090: ef46 583e 1478 65bd b073 6c3e 7041 80bc
000000a0: bada 793c 25f1 58bc 535c 10bb 3a92 75be
000000b0: 1d7c 67be c25d aebd 1896 043e fafe 733e
000000c0: 2a3b 5abe 9e7b 1fbe 515b 843d ad6d 89be
000000d0: fde0 b53d 1823 7cbc 18e1 6d3d 7e47 013d
000000e0: 2ef4 eebd b91c 8b3e 8d96 8bbd 3258 66be
000000f0: 02c2 1a3e 1d4c 06be 0d73 313e ba6f 3a3e
00000100: fdb5 d8bd 673f 443d 3576 943d cccd bf3d
00000110: 5901 593e 59f3 b0bd 8d4c 283e 6ad7 453d
00000120: 0dcc 85be dbc8 233e 78fc e83d 76a3 ba3d
00000130: 8d25 a1bd 511a 323e 1fed e93d 0c6d e0bd
00000140: ca5a 653e e278 c53d c753 123e 74bf 7c3e
00000150: f154 8ebe 9643 0d3e 22ff 033e d22b 363e
00000160: 3f75 6a3e 95dd 773e 1e13 dd3d 58ff 0d3d
00000170: cc9e 00be ecb5 a9bb e4ae 933e da9b fd3b
00000180: 1d65 5fbe befb 833d 72f9 13be 969f b0bd
00000190: ce70 6dbe e31b 323e 59fb f83d 49a5 973d
000001a0: 223b 6ebe 6667 c73d 1f60 aabd 1595 94be
000001b0: f44a 3e3e ed19 b43d f52d cf3d 6731 18bc
000001c0: cba0 02be c7e5 2d3e 52b1 053e 021f 27be
000001d0: 3d80 333d e6c4 5bbe c83b 653e 4563 c93d
000001e0: 0c85 5cbe cdef 703e f873 293e 38f9 6b3e
000001f0: ff7e 513e 942a fe3d 6600 bf3d bbb6 993d
00000200: 1b3e a93d c289 f5bd 0009 323e bad9 8e3e
00000210: f523 ff3d b599 54bd 18a9 47be dc2d 61be
00000220: b474 683e 7035 1ebe d33c 7f3e 07a2 f4bd
00000230: e89d 8a3e 5f00 7e3e 4185 abbd 0c44 803e
00000240: 2420 0e3e 5dc5 863e 62f6 263e eec2 523e
00000250: f19a 1dbe 5029 0a3e debb fcbd 1693 1dbe
00000260: 73b3 ebba 7ecf 8cbe 126d f03d c503 f4bd
00000270: 6650 4f3e ec66 8ebe 9f80 0cbe f33e 85be
00000280: fd2e 5cbe 2e87 3bbd 7604 ebbd abb5 1f3e
00000290: eba3 d3bd 753f 2b3d d3ea b93d dcc4 2c3e
000002a0: bc74 083e f3a2 a2bd 30eb 88bd 3378 a23d
000002b0: 68a3 01be ebc6 853e d3b8 0e3e 9e41 133e
000002c0: 76e7 15be 8e63 913e b8cb 3f3e 331b 363d
000002d0: cc39 843e 30b5 19be 22ba 2cbe a4d3 8b3e
000002e0: 7895 84be aa13 94bd 9241 22be ce8b 6dbd
000002f0: 114e 82be 402b 1a3e 666c 923e 97e8 eb3d
00000300: 75ff 813e cbaa 7b3e e2eb 273e 6435 043e
00000310: 017c 79be 40b7 b63c 6c5c 1ebe 6ca5 4cbe
00000320: b700 e93c 43a9 6ebd d37b c5bd 6669 fcbd
00000330: f79b e43d 2c1f 25be 1c4a 0ebe c33e fb3d
00000340: c370 80be e2a8 f8ba d15a 81be 4600 93be
00000350: 9089 8cbd 2c7e e7bd 3318 d0bd a580 33bd
00000360: 2988 453e ffdf b1bd 91f5 8abc ec76 51be
00000370: eecb abbd a5f7 113e ce47 1fbe b8d9 87be
00000380: 2aeb a3bd 5869 e3bb 2d9d d23d 0312 5ebe
00000390: 4ac8 053e 4fb5 0f3e 501a 4e3d 1a53 b43d
000003a0: af9c 313e 3887 0c3c 416d ca3d da13 453e
000003b0: 64e6 883d 87f5 f1bb 8ae4 39be ed87 70be
000003c0: eb9e 71be 8aa0 33be 298d 123e 1759 033e
000003d0: 284b 4b3e 9aa0 8fbc 98b0 ddbd f9cc 683e
000003e0: a49d b1bd dae0 b4bd 5585 8bbc 069b 76be
000003f0: f5a7 033e d218 153e aa7b 53be a117 913e
0.24560559 0.16595902 0.2840158 0.042576306 0.20288482 0.2807964 -0.05328902 -0.23855795
0.11466784 0.18613729 -0.2863628 -0.25519323 0.038467642 -0.21968985 0.22802527 -0.18954551
-0.014909361 0.08990291 0.18148106 0.22267842 -0.19392563 0.12558241 0.27662545 -0.19114071
-0.12992878 0.28153425 -0.12348443 0.22124669 -0.044110846 0.19869463 0.19556113 -0.042067733
-0.17366077 -0.27594146 0.26610225 0.27251467 0.21120809 -0.05602272 0.23091006 -0.015656203
0.015249902 -0.013241087 -0.0022027686 -0.23981562 -0.22605939 -0.08513977 0.12947881 0.23827735
-0.21311632 -0.155745 0.0646273 -0.26841488 0.08880804 -0.015389226 0.058075994 0.03156232
-0.11667667 0.2717035 -0.06815825 -0.22494581 0.1511307 -0.13114972 0.17329045 0.18206683
-0.105815865 0.047912028 0.07249109 0.093654245 0.2119192 -0.08640165 0.16435452 0.048301138
-0.2613224 0.15994589 0.113762796 0.09113209 -0.0786849 0.17392851 0.114221804 -0.10958299
0.22397915 0.09642197 0.14289771 0.24682409 -0.2779918 0.13795313 0.12890294 0.17790154
0.22896288 0.2420562 0.10794662 0.034667343 -0.12560576 -0.0051791575 0.28844368 0.007739526
-0.21815915 0.064445004 -0.14450625 -0.086241886 -0.23187563 0.1739345 0.12157316 0.074045725
-0.23264745 0.097365186 -0.08319115 -0.2901999 0.1858328 0.087940075 0.101161875 -0.009289122
-0.1275665 0.16982184 0.13055924 -0.16320422 0.04382347 -0.2146183 0.22386086 0.09833387
-0.21535128 0.23528977 0.16548145 0.23044288 0.20458601 0.12410465 0.09326248 0.07505556
0.08263799 -0.11989166 0.17386246 0.27900487 0.1245803 -0.0519044 -0.19498098 -0.2199015
0.22700769 -0.15450072 0.24925546 -0.11944967 0.27073598 0.24804829 -0.083750255 0.25051916
0.13879448 0.2632245 0.16304925 0.20582172 -0.15391137 0.13492322 -0.1234052 -0.1538814
-0.0017982557 -0.27502054 0.117395535 -0.119147815 0.20245513 -0.27812898 -0.1372094 -0.2602459
-0.215023 -0.045783214 -0.1147546 0.15596645 -0.10333999 0.041808564 0.09077992 0.16871971
0.1332578 -0.07941236 -0.066854835 0.079330824 -0.12659991 0.26128325 0.13937692 0.143805
-0.14639077 0.28396267 0.18730056 0.044459533 0.25825346 -0.15010524 -0.16867879 0.27309906
-0.25895286 -0.07230313 -0.15845326 -0.057994656 -0.25450185 0.15055561 0.28598326 0.11518972
0.2539021 0.24576871 0.16398576 0.12910992 -0.2436371 0.022304177 -0.15464944 -0.19984978
0.028442724 -0.05826689 -0.09642758 -0.12324791 0.111625604 -0.16125172 -0.13895458 0.1226783
-0.2508603 -0.001897123 -0.252646 -0.28711146 -0.068621755 -0.11303362 -0.10160866 -0.043823857
0.19290222 -0.08685302 -0.016962798 -0.20455521 -0.08388506 0.14254625 -0.15554735 -0.26533294
-0.08003838 -0.006940048 0.10283885 -0.21686558 0.13064685 0.14034007 0.050318062 0.08804913
0.17344926 0.008577161 0.0988412 0.19245854 0.066845685 -0.0073840055 -0.18153587 -0.23489352
-0.23595779 -0.1754171 0.14311661 0.12826954 0.19852889 -0.017532635 -0.10824698 0.22734441
-0.08672646 -0.088319495 -0.017031351 -0.24082574 0.1285704 0.1456025 -0.20652643 0.2833834

bias f4 [64]
00000000: 5a12 833a 5f12 833a 6b12 83ba 6b12 833a
00000010: 6c12 83ba 6a12 833a 6b12 833a 6b12 833a
00000020: 6b12 83ba 6b12 83ba 6b12 833a 6b12 83ba
00000030: 6c12 83ba 6a12 833a 6c12 833a 5d12 83ba
00000040: 6c12 833a 6412 83ba 6212 833a 6c12 83ba
00000050: 6b12 83ba 6412 83ba 6a12 83ba 6b12 833a
00000060: 6c12 83ba 6c12 83ba 6b12 833a 6b12 83ba
00000070: 2512 83ba 6a12 833a 6b12 833a 6d12 83ba
00000080: 6a12 833a 6d12 833a 6412 833a 1012 833a
00000090: 6a12 833a 6212 83ba 6912 83ba 6a12 83ba
000000a0: 6612 833a 6b12 83ba 5912 833a 6a12 83ba
000000b0: 6b12 83ba 6912 83ba 6c12 83ba 0212 83ba
000000c0: 6912 83ba 6b12 83ba 6112 83ba 6b12 833a
000000d0: 6b12 83ba 5c12 83ba 6712 833a 5f12 83ba
000000e0: 6212 833a 6c12 833a 6d12 833a 6b12 83ba
000000f0: 6b12 833a 5d12 83ba 6b12 833a 6c12 83ba
0.0009999976 0.0009999982 -0.0009999996 0.0009999996 -0.0009999997 0.0009999995 0.0009999996 0.0009999996
-0.0009999996 -0.0009999996 0.0009999996 -0.0009999996 -0.0009999997 0.0009999995 0.0009999997 -0.000999998
0.0009999997 -0.0009999988 0.0009999985 -0.0009999997 -0.0009999996 -0.0009999988 -0.0009999995 0.0009999996
-0.0009999997 -0.0009999997 0.0009999996 -0.0009999996 -0.0009999914 0.0009999995 0.0009999996 -0.0009999998
0.0009999995 0.0009999998 0.0009999988 0.000999989 0.0009999995 -0.0009999985 -0.0009999993 -0.0009999995
0.000999999 -0.0009999996 0.0009999975 -0.0009999995 -0.0009999996 -0.0009999993 -0.0009999997 -0.0009999874
-0.0009999993 -0.0009999996 -0.0009999984 0.0009999996 -0.0009999996 -0.0009999978 0.0009999991 -0.0009999982
0.0009999985 0.0009999997 0.0009999998 -0.0009999996 0.0009999996 -0.000999998 0.0009999996 -0.0009999997

in_proj_weight f4 [192, 64]
00000000: 8989 a2bd 10a2 c13d d0f2 e5bc 7995 13be
00000010: 51dd dfbd ef9d 27bc f1d1 6f3d a48b ab3b
00000020: 3d4c 883d c104 f03c 0c6d 0dbe 29c8 9fbc
00000030: 184b f53d 03c2 ea3d 30ef 123e 1b8d 04be
00000040: 947d 163e 64a1 f33d b4cb 8f3c e055 8ebd
00000050: 8c15 d9bd 7566 2b3d 0cb8 2bbd 7662 d4bd
00000060: 9d93 d53d b97c fa3c e964 bf3c 4713 8bbd
00000070: 04a9 4fbd 18d2 aa3d 0c73 833d 4c06 ebbd
00000080: 7cec c8bd 0c9e f93d 98d7 f3bc 1523 3cbd
00000090: 5ad2 17be b7d7 15be 0993 0abe 4286 c5bd
000000a0: d197 64bd 8037 00be 2a71 e9bc 00f6 653d
000000b0: 009d c83d 01dd 17be fad3 a33d 57fe c33c
000000c0: d54f e03d 059c 093e 07d0 043e 8375 69bc
000000d0: ee45 183c 9c2b f93c 4f13 753d 779a edbd
000000e0: d0c1 313c fef0 873d 2e5c 86bd 1727 aa3d
000000f0: 7307 0fbe 98a5 14bd 13f1 a5bd a40f a7bd
00000100: 67b4 4a3d cdfd 183e be45 93bd 4268 17be
00000110: 4045 10bb 6e75 0e3e 66ba 46bd 52bc 07be
00000120: 68c1 11be b328 d73d fa77 dfbc 07bd 19be
00000130: 2ae6 87bd dcff d93d 1887 9f3d eb3e 0a3e
00000140: 71d6 793d 4170 86bc 7611 093e ef76 9ebd
00000150: 9e2b b4bd ef68 dfbb 8b10 263c cf18 a63d
00000160: 170a 81bd 0f94 b13d 8c4f d1bd 7cb5 09be
00000170: eec0 07be 5a50 e23c ba46 0dbe fc91 c3bd
00000180: 7bff 1a3e 00c0 403c d7b7 123e ba77 1bbd
00000190: a5dd 9b3c d477 76bd ffe8 763d ef2b 05be
000001a0: 9c98 993d b6c4 11be c8c4 ed3d 8f57 9b3d
000001b0: 722c 1a3e 5722 5cbd d2c1 de3b 7cf0 2e3d
000001c0: 6f42 a8bd 1563 b3bd e09c 103d b9fd eabd
000001d0: 1c4d ce3d eb86 663d 5168 efbd 4fa0 f2bc
000001e0: b0fe 0fbe 9d32 813c 9f2b 003e de88 dabd
000001f0: 1d40 713d cf86 abbd 737d 803c 0c8f 17be
00000200: f435 c0bc 76dc 003e cd61 d7bd f1fa bfbc
00000210: 5bb7 87bd 902e 78bd 3c90 043e a808 debc
00000220: 8d7b 913d 174c c2bd b50b 51bc 2cd7 6ebd
00000230: 8cc0 2b3d 3cae 1dbd 4a12 4a3d 07ba 16be
00000240: d306 1b3e fbe5 f23c 76e3 7abd 33c8 193e
00000250: 3a6f 8dbd 6f80 c9bc 1955 953c 2343 a83d
00000260: 3bb5 a9bd 826c ef3d 7070 07be 1471 19be
00000270: 161d bdbd 2905 b73c af47 13be e5c0 063e
00000280: a5af 113e 7552 473c 97e3 15be 4a69 043d
00000290: db5d 83bd 710e 23bd 92d6 acbd fd94 003e
000002a0: 00a1 0c3e 9b4b d63d e0c9 583d b366 093e
000002b0: 5a60 0e3e dec1 173d eb36 203d 2514 98b9
000002c0: cdfa f4bc 81a8 f93d 6f87 e5bd fa6c a63c
000002d0: e260 0bbe 114e 80bc e51c 043e a27b 31bc
000002e0: 52af 183e a422 2ebd b483 b0bd 9c8e 993d
000002f0: 9369 edbd a65a e0bd 873b 0f3e 9c7f 5abd
00000300: 4381 d23d 0787 e3bd 8032 a23d a5e6 8b3c
00000310: 0382 1f3d 9203 87bd cc79 993c b3d4 ccbd
00000320: 20aa 9e3d bae8 3ebd bad0 733d 10fc c43d
00000330: 052c d53d 1f42 51bd 9089 bb3b 6b3f d33c
00000340: 2360 063e 849c c93d aaf9 14be 4d65 dbbb
00000350: a0b7 0d3c 40fb 08be 02ae 36bd dcd1 403d
00000360: 296b e6bd 092d 37bd 1382 d53d 9c5a edbd
00000370: acd5 a83d dae0 c2bd 57e8 493d a49b 1b3e
00000380: 4eeb 013d c75b 113e a79d 06be c455 a3bd
00000390: de82 09be a67c 0a3d ef2d bb3d 62d0 a53d
000003a0: 0c00 0bbd 8ea8 c5bd 627f 5bbd 8990 463b
000003b0: 9b79 903d 887c 143e d413 0f3d 59ed f03c
000003c0: 5931 433d ef84 8f3d e210 e23c bd34 023e
000003d0: 5f15 76bd fd69 8cbd 1070 f9bd 9f8a 1d3c
000003e0: e385 14be 98e5 ff3c 4950 a0bd 96c8 27bd
000003f0: 8325 953d 419d f8bc e6e2 8ebd 9396 a43d
-0.07936389 0.09454739 -0.028069884 -0.14412488 -0.10930885 -0.010230525 0.058549825 0.0052351523
0.06655166 0.029299142 -0.1381113 -0.019504623 0.119772136 0.11462786 0.14349055 -0.12944452
0.14696342 0.11896017 0.017553188 -0.06949973 -0.10599813 0.041845758 -0.041923568 -0.103703424
0.104285456 0.03057705 0.023363547 -0.06790786 -0.050698295 0.083408535 0.06418428 -0.114758104
-0.09810731 0.12188348 -0.029765889 -0.045931894 -0.14826337 -0.1463307 -0.13532652 -0.09644748
-0.055808846 -0.12521172 -0.028496344 0.056142807 0.097955704 -0.148304 0.07999416 0.02392499
0.10952727 0.13438423 0.12969981 -0.014249208 0.009294016 0.030416302 0.059832867 -0.116017275
0.010849431 0.066377625 -0.06560551 0.08308237 -0.13967685 -0.036290735 -0.08102622 -0.0815728
0.04948845 0.14940567 -0.07191037 -0.14785865 -0.0022013932 0.13911983 -0.048517607 -0.13255432
-0.14233935 0.1050581 -0.027278889 -0.15013514 -0.06635697 0.106445044 0.07789439 0.13500564
0.060995523 -0.016410949 0.13385567 -0.077375285 -0.08797382 -0.006817929 0.01013578 0.081102006
-0.063007526 0.08670818 -0.102202505 -0.13448137 -0.1325719 0.027626205 -0.13796511 -0.09549329
0.1513652 0.011764526 0.14327942 -0.037955977 0.019026587 -0.06017287 0.060280796 -0.1300504
0.07499811 -0.14235196 0.11609799 0.0758506 0.15056017 -0.053743687 0.0067980075 0.042709813
-0.08215796 -0.08759133 0.035305858 -0.11474175 0.10073301 0.05628101 -0.11689819 -0.029617457
-0.14062 0.015771205 0.1251664 -0.106706366 0.058899034 -0.08375322 0.015684819 -0.14800662
-0.023463227 0.12584099 -0.10516701 -0.023435088 -0.06626769 -0.06059128 0.12945646 -0.027103737
0.071036436 -0.09487169 -0.012759139 -0.058310673 0.041931674 -0.03849624 0.049333848 -0.14719401
0.15139322 0.029650679 -0.06125208 0.15017776 -0.069059804 -0.024597375 0.018229054 0.0821593
-0.0828652 0.11690618 -0.13226485 -0.14984542 -0.09234063 0.022341328 -0.14382814 0.13159521
0.1422716 0.012165655 -0.146376 0.032326974 -0.06414386 -0.039808694 -0.084393635 0.12556835
0.13733292 0.10463639 0.052926898 0.13418083 0.13903943 0.03705012 0.039114874 -0.00029006708
-0.029904747 0.12190343 -0.112074725 0.020315636 -0.13611177 -0.015662225 0.12901647 -0.010832699
0.1491063 -0.042513505 -0.086188704 0.07497904 -0.11592402 -0.1095479 0.13987552 -0.053344354
0.10278561 -0.11109739 0.07919788 0.017077753 0.03894235 -0.06592478 0.018734835 -0.10001507
0.077472925 -0.046608664 0.05952523 0.096183896 0.10408787 -0.05108845 0.005723186 0.025787076
0.13122611 0.09844306 -0.14548364 -0.0066954256 0.008649737 -0.13377094 -0.04459954 0.047075137
-0.11250908 -0.044720683 0.104252 -0.11589548 0.0824388 -0.09515543 0.049293842 0.15196091
0.031718545 0.14195167 -0.13146077 -0.07975343 -0.13428828 0.03381028 0.091396205 0.080963865
-0.03393559 -0.0965129 -0.05358828 0.0030298552 0.070544444 0.1450063 0.03493102 0.029410051
0.047654483 0.07007777 0.027595941 0.1271543 -0.060078975 -0.06856153 -0.12179577 0.009615569
-0.14504199 0.031237409 -0.07827813 -0.040962778 0.072825454 -0.030348422 -0.06976871 0.08036532

in_proj_bias f4 [192]
00000000: 9122 82ba 912b 82ba fa5d 823a 06be 82ba
00000010: 929a 823a 6cf6 80ba 54c2 78ba e7fb 82ba
00000020: d9dc 82ba c3ef 823a a3d1 823a 1a9e 82ba
00000030: dbd1 82ba 188c 82ba 7205 83ba f36c 81ba
00000040: c6ff 82ba 32c0 823a 5afa 82ba 54f2 823a
00000050: e68e 823a 86f6 823a feca 81ba 4e9c 823a
00000060: b4cd 823a c58b 7fba fcad 82ba 2dd7 82ba
00000070: 49ae 823a f573 823a 3cfa 823a 5772 82ba
00000080: 4ff1 823a 20de 823a 47f3 823a b6db 82ba
00000090: 8ff3 813a eff0 82ba 2bf6 82ba 879d 823a
000000a0: b1c9 81ba beed 82ba 06c5 82ba 7ce4 823a
000000b0: adf0 823a cdd1 82ba 3bc4 823a 22db 823a
000000c0: 42a4 82ba 3fe0 823a 93f7 82ba dae3 823a
000000d0: 06f0 82ba 66e9 82ba c5ef 823a 50cd 82ba
000000e0: 16ff 82ba bcc8 823a 929f 823a 80e0 823a
000000f0: e9f2 82ba 1b00 83ba a4c2 823a ebd0 823a
00000100: 668b 9834 00ae 9eb3 4e80 1835 0117 b7b3
00000110: 0213 3734 09df 2a34 c671 92b4 4e80 1835
00000120: 536e 8234 b442 06b4 09df 2a34 06c5 24b4
00000130: eb83 1534 673e 8634 fda2 db34 f82c 3d34
00000140: 6213 3d35 5edf 70b5 35eb 73b5 c9aa be34
00000150: 51a5 21b5 7eae 5b34 a268 2ab5 6ad6 2db5
00000160: f33b 8c35 da44 8633 d23d c3b4 58c8 6134
00000170: 35eb 73b5 6ad6 2d35 1d93 ea35 bfed 1335
00000180: e946 4334 744b c333 e376 12b4 90b8 db32
00000190: 09df 2a34 14fa e8b4 09df 2a34 b74e 0cb5
000001a0: c089 d534 00ab 1e34 ffa4 9e34 c671 9234
000001b0: 9707 f434 cb15 7434 e946 43b4 bc7a 4fb4
000001c0: 6f4f 43b2 0099 1eb5 477d 0436 59e1 1035
000001d0: 8d67 1235 b94d 43b3 40b4 db33 fefb 6db4
000001e0: cd5c 0c34 27c8 06b5 0000 0000 f91e 5035
000001f0: a62b 4335 c089 d534 745e ac34 7024 bd34
00000200: 6a12 83ba 6b12 833a 6c12 83ba 6b12 83ba
00000210: 6b12 83ba 6b12 833a 6912 833a 6d12 83ba
00000220: 6d12 83ba 6912 83ba 6c12 83ba 4712 833a
00000230: 6d12 83ba 6712 83ba 6612 833a 6b12 83ba
00000240: 6712 83ba 4c12 83ba 6b12 83ba 6b12 833a
00000250: 5512 83ba 6612 83ba 6912 833a 6b12 83ba
00000260: 5412 83ba 6d12 833a 6312 833a 6b12 833a
00000270: 6d12 83ba 6b12 83ba 5612 83ba 6b12 83ba
00000280: 6c12 833a 6c12 833a 6b12 833a 6b12 83ba
00000290: 6d12 83ba 6512 83ba 6e12 83ba 6c12 83ba
000002a0: 6a12 83ba 6c12 833a 6812 83ba 6412 83ba
000002b0: 6c12 833a 6512 833a 6b12 83ba 6b12 83ba
000002c0: 6c12 833a 6c12 833a 6b12 833a 6112 833a
000002d0: 6212 83ba 6b12 833a 6d12 833a 6d12 83ba
000002e0: 6a12 833a 6b12 833a 6c12 83ba 6d12 83ba
000002f0: 6c12 83ba 6212 83ba 6312 833a 6c12 833a
-0.0009928514 -0.0009931197 0.000994622 -0.0009974844 0.0009964278 -0.0009839064 -0.00094894064 -0.0009993286
-0.0009984031 0.0009989667 0.000998069 -0.0009965331 -0.0009980755 -0.0009959964 -0.000999613 -0.0009874388
-0.0009994439 0.0009975492 -0.0009992823 0.0009990432 0.00099608 0.0009991683 -0.0009902415 0.0009964795
0.0009979517 -0.00097483053 -0.0009970064 -0.000998234 0.0009970154 0.0009952771 0.0009992789 -0.0009952289
0.0009990128 0.0009984411 0.0009990715 -0.0009983692 0.0009914505 -0.0009990017 -0.0009991577 0.000996516
-0.0009902028 -0.0009989066 -0.000997693 0.0009986307 0.000998994 -0.0009980738 0.0009976694 0.000998352
-0.0009967166 0.0009985043 -0.0009991996 0.0009986118 -0.0009989745 -0.0009987771 0.000998967 -0.0009979401
-0.0009994234 0.0009978036 0.0009965769 0.0009985119 -0.0009990606 -0.0009994538 0.000997622 0.0009980475
2.8413632e-07 -7.389099e-08 5.681112e-07 -8.525786e-08 1.7050118e-07 1.5913623e-07 -2.72774e-07 5.681112e-07
2.4294658e-07 -1.2503989e-07 1.5913623e-07 -1.5345367e-07 1.3924698e-07 2.500485e-07 4.0910518e-07 1.7618356e-07
7.043619e-07 -8.973201e-07 -9.0866826e-07 3.551452e-07 -6.021774e-07 2.0459444e-07 -6.3482196e-07 -6.4759536e-07
1.044826e-06 6.252385e-08 -3.636656e-07 2.1027643e-07 -9.0866826e-07 6.4759536e-07 1.7477174e-06 5.5107733e-07
1.8186587e-07 9.09412e-08 -1.364056e-07 2.5578885e-08 1.5913623e-07 -4.3395323e-07 1.5913623e-07 -5.226861e-07
3.9774568e-07 1.4777106e-07 2.9549844e-07 2.72774e-07 4.5454064e-07 2.2732199e-07 -1.8186587e-07 -1.9323028e-07
-1.1368555e-08 -5.908223e-07 1.9742454e-06 5.3972104e-07 5.4539925e-07 -4.5472664e-08 1.02307695e-07 -2.2164019e-07
1.3072277e-07 -5.021015e-07 0.0 7.753111e-07 7.270668e-07 3.9774568e-07 3.210622e-07 3.5230505e-07
-0.0009999995 0.0009999996 -0.0009999997 -0.0009999996 -0.0009999996 0.0009999996 0.0009999993 -0.0009999998
-0.0009999998 -0.0009999993 -0.0009999997 0.0009999954 -0.0009999998 -0.0009999991 0.000999999 -0.0009999996
-0.0009999991 -0.000999996 -0.0009999996 0.0009999996 -0.000999997 -0.000999999 0.0009999993 -0.0009999996
-0.0009999969 0.0009999998 0.0009999987 0.0009999996 -0.0009999998 -0.0009999996 -0.0009999971 -0.0009999996
0.0009999997 0.0009999997 0.0009999996 -0.0009999996 -0.0009999998 -0.0009999989 -0.0009999999 -0.0009999997
-0.0009999995 0.0009999997 -0.0009999992 -0.0009999988 0.0009999997 0.0009999989 -0.0009999996 -0.0009999996
0.0009999997 0.0009999997 0.0009999996 0.0009999984 -0.0009999985 0.0009999996 0.0009999998 -0.0009999998
0.0009999995 0.0009999996 -0.0009999997 -0.0009999998 -0.0009999997 -0.0009999985 0.0009999987 0.0009999997

weight f4 [64, 64]
00000000: 7b14 abbd a99d 41be 1965 073e 73d3 e2bd
00000010: 8835 823c f4b3 4a3e a66a 213e f35f 47be
00000020: 0618 1b3d 168a 81bd fdc3 23be f6eb 213e
00000030: d346 023e 37f3 a4bd 729e c53b f53d 533e
00000040: f004 ad3d 2939 5b3d 5d84 16be 7ab5 b6bd
00000050: 7d3e 223e ce05 5bbd 7755 323e 3d46 1dbe
00000060: 1016 9abd c1f5 3abd d905 29bd 29c1 a6bd
00000070: b5d5 bbbd a84e fbba 91d0 73bd b3da aa3d
00000080: 4549 5f3d e487 403e 6316 c73d 0ae6 9dbd
00000090: 68e4 04bd 7c16 c9bc bc42 d4bd 58a0 823d
000000a0: 5738 80bd d79e 0dbe f3a6 41be 0f41 8ebd
000000b0: b95b 5b3e 88a0 c63c 362f 44be 61df bd3d
000000c0: a60f a5bd a0fd 563d 7298 133e b36e 033e
000000d0: ccc2 e2ba 6af2 d83d 0e52 563e 347b b7bd
000000e0: 4cf9 2aba f3ce ba3d b335 3d3c ff64 c6bd
000000f0: ca92 dbbd 2aca 103e ad0d 0cbe ad4d 5c3d
00000100: 42b3 4d3e 32f2 ffbd 3769 bd3d c6c7 1ebe
00000110: b7ee 013e 75db 89bd ecac 133e 69cd 08be
00000120: 0dcd c6bd d9dd 45be ece6 47be b7b4 1abe
00000130: cbec 3abd 7589 e53d 4801 233b 547e 2ebe
00000140: 2f62 49be 40bb 863d e813 e63d eae9 423e
00000150: 6914 383d 1d9b 4abe d571 48be 0a4f b83c
00000160: 281e 45be b98e 473d 881f 30be 2b20 293e
00000170: 450c 25be d697 3dbe f469 003e cc12 5a3e
00000180: 3628 8c3c 6f7c 11be cc47 263d 5f79 58be
00000190: 2a05 203d 79e2 793c 0bd4 323e 5d81 1d3e
000001a0: 9dcd da3d c09c afbd a5c3 863d 1b7c 513e
000001b0: 4baa 143e 7a4e f1bb 0078 4ebd 2c2f 3c3d
000001c0: 760d eabd fe4a 59be 397d 0b3e 7345 14be
000001d0: 14b0 48be 22b3 593e 1c69 36be f079 f43d
000001e0: 7dcb 49be b333 4f3e 5a51 cabd d276 a6bd
000001f0: c480 cfbd f183 403e e903 3b3e 6734 3dbe
00000200: c0cc 4bbe 5d29 eb3c 31df 35be 1d10 f5bd
00000210: e4d3 173c 09e9 8cbb 8e91 e33d 7fe0 45be
00000220: 7747 45be e4d3 d83c 2b42 3b3e 6385 d9bd
00000230: d009 69bd 2998 9cbd e87d 4cbe 8f77 5b3e
00000240: 7cbc 1f3d f95b 193e b9cf 6f3d 2b4f d63d
00000250: 16e1 1c3e 1303 31be 1fac 7abc bdd7 18be
00000260: c608 8a3c bcbb ebbd d60f f13d 26fe 1f3c
00000270: cbbb da3d 1786 38be a088 1dbe 191b 56be
00000280: 1585 44be 75e6 443e 97d1 26be af3b 673d
00000290: 0813 1cbd 42fb 6abd e8cf 0e3e d531 04be
000002a0: 6529 9c3d e83b 59be 4a9a 513d 76aa 203e
000002b0: f20c 53be 7ba4 d53d 47d1 103e 91f3 72bd
000002c0: 265b edbd a2c1 e1bc 20b8 393e 1390 2c3e
000002d0: 9ff6 5ebd 1d23 66bc d8fc 113d 96d0 343e
000002e0: 059c 203e f973 0f3e cc62 9e3d 0409 583e
000002f0: 83aa 0ebe 5dfa 70bd 32be 963d 745f 93bd
00000300: fb5b 563e cd38 fcbc 041d 27be 937b 1e3e
00000310: e88c f13d 27fa 383b 8c05 e0ba 399f d5bd
00000320: b9e4 18be 6c01 393e 3154 22be 060a 00bb
00000330: 584b c7bb 4da0 cfbd 6a20 333e 18b4 3dbe
00000340: ecd7 1d3e e3b5 afbd 80fb 983d dbc8 323e
00000350: 6999 483e 8e43 aa3d 0044 9abd 3b75 a7bd
00000360: 1311 303d 5ad8 40be 3831 2bbc 4e0e d6bd
00000370: d4b7 e7bd 89e3 e4bd bc45 203e ad52 0e3e
00000380: 4a55 ea3d 69f7 5b3e f6a2 373e b9fd 00be
00000390: a6bc 03be 014c c1bb 03b3 5f3d 49a0 073e
000003a0: 4346 193e cedb 3c3c 2016 48be 2d20 d1bd
000003b0: 7a76 8dbd 3a09 003d b1a3 7a3d 6e45 843d
000003c0: 2ec0 1bbd cc23 9e3d c2f7 0cbe 9239 ddbd
000003d0: 06bc 013e 0636 bcbd e863 dc3d aac8 ea3d
000003e0: a912 0f3e e37f 14be a363 113c 58f5 8fbc
000003f0: 383b f4bd c200 41bd 7a16 1bbe 728c d2bd
-0.08353516 -0.18907799 0.1322216 -0.11075487 0.015894666 0.19795209 0.1576334 -0.19470195
0.037864707 -0.06325166 -0.15992732 0.15812668 0.1272233 -0.08054202 0.006030851 0.20629103
0.084482074 0.05352131 -0.1469893 -0.08921333 0.1584415 -0.053472333 0.17415415 -0.15358825
-0.07523739 -0.045644525 -0.041265342 -0.08142311 -0.09171621 -0.0019173222 -0.059525076 0.08342495
0.054513235 0.18801838 0.09721067 -0.07709892 -0.032444388 -0.024546854 -0.10364291 0.063782394
-0.06260746 -0.13830124 -0.18911342 -0.06946003 0.21421708 0.02424647 -0.19158635 0.09271122
-0.08059625 0.05248797 0.14413622 0.12835197 -0.0017300486 0.10593112 0.20929739 -0.08959046
-0.00065221335 0.09121504 0.011548447 -0.09687232 -0.10721357 0.1413962 -0.13677092 0.053785015
0.20087913 -0.12497367 0.09248584 -0.15505895 0.12688719 -0.06731311 0.14421433 -0.13359608
-0.09707079 -0.1932291 -0.19521683 -0.15108 -0.04563598 0.112078585 0.002487259 -0.17040378
-0.1966636 0.06578684 0.112342656 0.19034544 0.04494134 -0.19785734 -0.19574673 0.022498626
-0.19249785 0.048720095 -0.17199528 0.16516177 -0.16117962 -0.18514952 0.12540418 0.21296233
0.017109018 -0.14207624 0.040595815 -0.2114005 0.039067425 0.015251749 0.174637 0.1538138
0.10683749 -0.085748196 0.06580285 0.20457499 0.14518087 -0.0073640915 -0.05040741 0.045943424
-0.11428349 -0.21220013 0.13621987 -0.14479618 -0.19598418 0.2125974 -0.17813534 0.1193732
-0.19706531 0.20234565 -0.09878798 -0.08128132 -0.10131982 0.18800332 0.1826321 -0.18477021
-0.19902325 0.028706247 -0.17760922 -0.11965964 0.009266827 -0.004300241 0.11111747 -0.1932392
-0.19265543 0.026468225 0.1828696 -0.106211446 -0.056894124 -0.0764621 -0.19969904 0.21432327
0.038998112 0.14976491 0.05854771 0.10464319 0.15320238 -0.17286329 -0.015299826 -0.14926048
0.016849887 -0.11510417 0.117705986 0.009765184 0.1068035 -0.18019901 -0.1538415 -0.20908774
-0.19191392 0.19228537 -0.1629089 0.056453403 -0.038104087 -0.057368524 0.13946497 -0.12909634
0.07625083 -0.21214259 0.051172532 0.15690026 -0.20610407 0.10431763 0.14142333 -0.059314314
-0.11589651 -0.027558152 0.18136644 0.16851835 -0.054434415 -0.014046458 0.03564152 0.17657694
0.15684517 0.14009084 0.07733688 0.21097189 -0.13932233 -0.058832515 0.073604956 -0.071959406
0.20933525 -0.030788803 -0.16319662 0.15476827 0.11794454 0.0028225274 -0.0017091497 -0.1043076
-0.14931001 0.18066949 -0.15852429 -0.0019537224 -0.0060819797 -0.10137997 0.17492834 -0.18525732
0.15414399 -0.08579614 0.07469845 0.17459433 0.19589771 0.08313666 -0.07532501 -0.08176657
0.042985033 -0.18832532 -0.010448746 -0.10451947 -0.11314359 -0.111762114 0.15651602 0.13898726
0.11442049 0.21481098 0.17933258 -0.12596788 -0.12864932 -0.005898953 0.05461408 0.13244738
0.14968209 0.011527015 -0.1953969 -0.10211215 -0.06907363 0.0312588 0.061191265 0.06458555
-0.038025074 0.077216715 -0.13766387 -0.10801996 0.12669381 -0.09189992 0.10761243 0.11464055
0.13971962 -0.1450191 0.008873853 -0.017573044 -0.119253576 -0.047119863 -0.15145293 -0.10280694

bias f4 [64]
00000000: 6d12 833a 5f12 833a 6712 833a 6b12 833a
00000010: 6c12 83ba 6912 833a 6b12 833a 6a12 833a
00000020: 6b12 833a 6c12 83ba 6b12 833a 6c12 833a
00000030: 6912 83ba 6c12 833a 6b12 83ba 6b12 83ba
00000040: 6d12 833a 6c12 833a 6b12 833a 6b12 83ba
00000050: 6b12 833a 6b12 833a 6b12 833a 6c12 833a
00000060: 6d12 83ba 6b12 83ba 6d12 833a 6b12 83ba
00000070: 7811 83ba 6912 833a 6c12 833a 6d12 83ba
00000080: 6c12 833a 6d12 833a 6712 83ba 5b12 83ba
00000090: ba10 833a 6d12 83ba 6212 833a 6c12 83ba
000000a0: 6b12 833a 6f12 83ba 6912 83ba 6b12 83ba
000000b0: 6d12 83ba 6912 833a 6d12 83ba 6a12 83ba
000000c0: 6d12 83ba 6d12 83ba 6c12 83ba f511 83ba
000000d0: 6d12 83ba 6b12 833a 6812 833a 6b12 83ba
000000e0: 6b12 833a 6b12 833a 6b12 833a 6d12 83ba
000000f0: 6a12 83ba 6b12 833a 6d12 833a 6d12 83ba
0.0009999998 0.0009999982 0.0009999991 0.0009999996 -0.0009999997 0.0009999993 0.0009999996 0.0009999995
0.0009999996 -0.0009999997 0.0009999996 0.0009999997 -0.0009999993 0.0009999997 -0.0009999996 -0.0009999996
0.0009999998 0.0009999997 0.0009999996 -0.0009999996 0.0009999996 0.0009999996 0.0009999996 0.0009999997
-0.0009999998 -0.0009999996 0.0009999998 -0.0009999996 -0.0009999713 0.0009999993 0.0009999997 -0.0009999998
0.0009999997 0.0009999998 -0.0009999991 -0.0009999977 0.0009999492 -0.0009999998 0.0009999985 -0.0009999997
0.0009999996 -0.001 -0.0009999993 -0.0009999996 -0.0009999998 0.0009999993 -0.0009999998 -0.0009999995
-0.0009999998 -0.0009999998 -0.0009999997 -0.0009999858 -0.0009999998 0.0009999996 0.0009999992 -0.0009999996
0.0009999996 0.0009999996 0.0009999996 -0.0009999998 -0.0009999995 0.0009999996 0.0009999998 -0.0009999998

weight f4 [256, 64]
00000000: b98b 3cbd 7d4c bf3d 4722 c2bc eb11 42bd
00000010: 4ac5 2cbc dc32 babd 1d45 bbbc 1cef 233d
00000020: b443 babd 7263 b3bd 5d7e eabd ca66 5e3d
00000030: 0a00 073d 064a d7bd 0da0 813d 68d6 d93d
00000040: 90a4 f43d 08da c0bd 9224 f43c c4cd 93bd
00000050: 5b7d d8bd d8ad c2bc 76d3 b13d 8757 02be
00000060: 3433 c7bd 1663 ba3d 6ef7 bc3d 4fee a63d
00000070: e4bc 753d dfc9 2f3d 6fa4 d6bd 18b9 99bd
00000080: 8bf7 9e3d 5a33 23bd 75cc 163d 4452 3cbd
00000090: 5415 b13d c864 bdbd 6620 063e e38c cc3d
000000a0: 7a01 0b3e e0d8 8f3d a3c1 c23d 3ea1 543d
000000b0: 14be f2bb 6804 83bd 0b66 d8bc bc95 f8bd
000000c0: e1c8 113d b73e 2abd 57d1 5abc 5bba 243b
000000d0: 0faa f63d 6c33 67bd 1b0d 533a 01f1 b73d
000000e0: f210 f8bd 4578 393b 9934 b0bc f92a 05bc
000000f0: 498c 053d 7128 a93d 70b9 8c3c ea18 24bc
00000100: f804 bbbd 7f2b ec3d 6cc6 87bd 752f febd
00000110: 2012 c93d 93bf d8bd d116 463d 1926 303d
00000120: c0f0 b6bc c041 15bc 665c 993d df3b c9bd
00000130: 1ef4 e9bc 1936 d73c 53d2 6ebd 5a6b 98bd
00000140: c19e dc3d 426a b03d 9903 c4bd ee7a d13d
00000150: 1f2d b1bc 3bdf 83bc af7d f6bd 4240 fdbd
00000160: fac9 8b3c b17d c63d cfec ba3b 440a ca3d
00000170: 4152 f6bd 3dcb 9c3d 13f2 573d 21c8 76bd
00000180: 5f72 8fbd b4dc 9b3d 7ad6 d13b f1a9 e33d
00000190: 7b81 1f3d c723 61bd de0c 4d3d ade7 24bc
000001a0: 4055 213d f7ed da3d 89c6 9fbd 6f82 adbc
000001b0: a282 573d b519 e2bd 214b 37bd c7de a3bc
000001c0: e63b 00be 6166 e9bd 27b3 91bd 1b36 083e
000001d0: eb9d afbd 1542 123d 0300 9cbd 9751 7fbd
000001e0: fffa 02be f357 afbd 14fd ca3b fc66 ce3c
000001f0: 6e41 033e ee5c fd3d b2d7 e23d ddc9 ba3d
00000200: 80b7 873d 45cf b4bd 77b3 813c 1c73 e2bd
00000210: 1ded 973d 73a1 e4bc c703 02be e22a fdbc
00000220: f77b 75bd 346a adbd df04 b338 c26c 423d
00000230: 4608 c03d f22d ee38 272a 4dbd 22b5 1bbd
00000240: 5d74 d93d 34bb 81bd b824 32bd ef09 fcbd
00000250: c033 263d 566e 033e 9e43 8dbd ebce 083e
00000260: 8559 223d 44f3 c53d 8a82 b4bc cd07 9d3c
00000270: add0 053e 6385 74bd 1e40 63bc a091 c8bd
00000280: bf7e a23d 163e 513d 6729 2abd e0e6 08be
00000290: bfea 3a3c 3480 6abd ae04 89bd f233 6e3d
000002a0: 0755 e13d c65c e5bd a9b9 eabd 1796 09be
000002b0: 3be6 993d 058d 663d dc67 96bc 1c2e fa3d
000002c0: be74 883c 4dfe 9fbd 4ef9 ac3d 4260 ed3d
000002d0: 3430 88bc bfb5 37bc ea42 eebc 3d6d 02be
000002e0: 6a35 d5bd b47d f63c 72dd 4abc caa7 debb
000002f0: c14e d4bd ae45 b4bd 5278 97bd ba1f ea3c
00000300: eba6 a63d 045e 883b a2a4 a4bd 3415 9bbd
00000310: 3a0e bd3d bc62 0bbe 8e4f 0c3d deae 0ebd
00000320: ea46 28bc b409 ae3d 79c1 b73c 5501 e9bd
00000330: 460c 20bd 7764 29bc ac97 e13d bad9 9c3d
00000340: 303c 41bd bcd8 69bd ebe5 e23d 7379 acbd
00000350: 3d95 703c 7080 9b3d c8c0 44bd 310e 913d
00000360: 168a fbbd 7d5a d4bd 76bc 343d 582c 0a3d
00000370: 0e21 c63c 999d 543d 9d9b 3fbd 2fa4 2fbd
00000380: 25cd 5dbb 5693 063e 90ec 083e de66 70bd
00000390: a377 d63d 3c7b dc3d 95bd 023e becb c3bd
000003a0: 5d15 acbd d175 86bd 74ab 07be 88dc ab3d
000003b0: e8be 87bd 52a0 7bbc 4fb3 073e 173d a43d
000003c0: 0d0c 7cbd e7ac b93d e6d2 0bbe 4bcc d4bd
000003d0: bbfb 7bbc 24a7 8a3d b0a8 463c 7a5e 92bd
000003e0: 601d be3c 1e57 013e f9b3 de3c 5686 fabd
000003f0: a29e c1bd 3652 55bd 79d0 05bd 09b2 1dbd
-0.046031687 0.09340761 -0.023697985 -0.04738037 -0.010545084 -0.09091732 -0.022860104 0.040022954
-0.090949446 -0.08759202 -0.11449883 0.054297246 0.03295902 -0.10512166 0.063293554 0.10636598
0.1194545 -0.09416586 0.029802594 -0.07216981 -0.10570785 -0.023764536 0.08682911 -0.12728702
-0.09726563 0.091009304 0.09226881 0.081509225 0.059994593 0.04291713 -0.10480582 -0.07506007
0.07762059 -0.039843895 0.03681608 -0.045976892 0.08646646 -0.09247738 0.13098297 0.099878095
0.13574782 0.070237875 0.095095895 0.051911585 -0.007407913 -0.06397325 -0.026415845 -0.121379346
0.035591964 -0.041563716 -0.013355575 0.002513549 0.12044155 -0.056445524 0.0008050964 0.08981515
-0.12112607 0.0028300446 -0.021509456 -0.008127921 0.03260449 0.08259667 0.017178267 -0.010015706
-0.09131807 0.11531734 -0.06629643 -0.124113955 0.0981791 -0.10583415 0.048361603 0.043005083
-0.022331595 -0.009109914 0.07488327 -0.09825873 -0.028558787 0.026270913 -0.05830605 -0.07442351
0.107724674 0.08614017 -0.09570999 0.10228525 -0.02162796 -0.016097656 -0.12035691 -0.12365772
0.017064083 0.096919425 0.0057044993 0.09865239 -0.120274074 0.07655952 0.052721094 -0.06024945
-0.070042364 0.07610455 0.0064037414 0.11116398 0.03894184 -0.05496576 0.0500611 -0.010065001
0.03938794 0.106899194 -0.078015395 -0.02118036 0.052614816 -0.110400595 -0.044749383 -0.02000369
-0.1252285 -0.1139648 -0.07114249 0.1330189 -0.08575042 0.035707552 -0.0761719 -0.06233367
-0.1279106 -0.08561697 0.00619472 0.025195591 0.12817928 0.123712406 0.11076297 0.091205336
0.06626797 -0.08828596 0.015832646 -0.110571116 0.07418273 -0.027909016 -0.12696753 -0.030904237
-0.059932675 -0.08467522 8.5362924e-05 0.047467 0.09376578 0.00011357282 -0.050089028 -0.03801454
0.10617898 -0.06334534 -0.04349205 -0.12306582 0.040576696 0.12835059 -0.068976626 0.13360183
0.039636154 0.0966554 -0.022034902 0.019168759 0.13067885 -0.05969752 -0.013870267 -0.09793401
0.07934331 0.0510846 -0.04154339 -0.13369322 0.011408507 -0.05725117 -0.06690346 0.058155008
0.11002546 -0.11199336 -0.11461193 -0.13436161 0.07514616 0.05628683 -0.01836007 0.12215826
0.01665723 -0.07812176 0.084459886 0.11590625 -0.016624548 -0.011212765 -0.029084641 -0.12736984
-0.104105785 0.030089237 -0.012381898 -0.0067949044 -0.103665836 -0.08802353 -0.07395996 0.028579582
0.08137306 0.004161598 -0.08039214 -0.075724036 0.09231229 -0.13611883 0.034255557 -0.034834735
-0.0102708135 0.084979445 0.022431122 -0.11377207 -0.039074205 -0.010338894 0.11015257 0.076587155
-0.04717654 -0.05709146 0.110790096 -0.08421602 0.014684019 0.07592857 -0.048035413 0.07082785
-0.12282197 -0.10368822 0.044125043 0.033733696 0.024185684 0.05190811 -0.046779264 -0.042881187
-0.00338442 0.13142142 0.13371491 -0.05869185 0.10472038 0.107656926 0.12767632 -0.09560345
-0.08402512 -0.065654404 -0.13248998 0.083916724 -0.06628209 -0.015358048 0.13251995 0.080194645
-0.06153493 0.09066182 -0.1365467 -0.10390528 -0.015379841 0.06770161 0.012125179 -0.07146926
0.023207366 0.12630889 0.027185427 -0.12232654 -0.09454085 -0.052080356 -0.03266952 -0.038499866

bias f4 [256]
00000000: 5612 833a 5812 83ba 4212 83ba 5c12 833a
00000010: 6212 833a a411 83ba 4d12 833a 290f 833a
00000020: 1012 833a 5412 833a 3412 833a 6612 833a
00000030: 6012 83ba a811 83ba 5d12 833a 900d 833a
00000040: 5712 833a f211 833a 7e11 833a 3111 83ba
00000050: 5b12 833a 5612 833a 6012 83ba 5412 83ba
00000060: 6112 83ba 4112 83ba 2212 83ba 6212 833a
00000070: a710 833a fe0f 833a 2212 83ba 4912 83ba
00000080: 6312 83ba 3412 83ba d911 833a 5f12 83ba
00000090: 6012 83ba 5712 833a e511 833a 6212 833a
000000a0: 0712 833a 3b12 83ba 4312 833a e310 833a
000000b0: 5712 833a 5112 833a 5912 833a c411 83ba
000000c0: e611 833a 3c12 83ba 3f12 83ba 4f12 83ba
000000d0: 2c12 833a f211 833a f610 83ba 5912 83ba
000000e0: 1912 83ba 1d12 83ba 6212 83ba 1a12 833a
000000f0: f711 83ba d711 833a 7711 83ba ea11 83ba
00000100: 5e12 833a 6212 83ba ede7 823a ad05 833a
00000110: 0f11 833a 5912 833a 3b12 83ba c211 833a
00000120: 5712 833a a811 833a 4c12 833a 4712 83ba
00000130: 3612 83ba 5f12 83ba 4612 83ba 4f12 83ba
00000140: 4f12 83ba 5412 83ba b511 833a 4e12 83ba
00000150: d411 83ba 3c12 83ba 3f12 83ba 3412 833a
00000160: 5712 833a 4412 833a 1d12 83ba 6212 83ba
00000170: 5b12 83ba 2512 833a f511 83ba 5612 83ba
00000180: 3d12 833a 5f12 833a 4b12 833a d911 83ba
00000190: 4212 833a 5012 833a 1111 83ba 2b11 83ba
000001a0: 1611 833a 0912 83ba 5f11 833a 5a12 833a
000001b0: df11 83ba 5f0d 833a 4903 83ba 4e12 833a
000001c0: b211 833a 5e12 83ba 6212 833a 6212 83ba
000001d0: 1110 833a 3312 83ba 3d12 833a dc11 833a
000001e0: 5e12 83ba 7ec8 82ba 4d12 83ba 8711 833a
000001f0: 0b10 833a 4b12 833a 1e12 83ba f311 83ba
00000200: 0c11 83ba f611 833a ef11 83ba 0b12 83ba
00000210: 2212 833a 0711 83ba 5c12 83ba 6612 83ba
00000220: 5212 833a bb0f 833a 6112 83ba 4d12 83ba
00000230: 0212 83ba 1612 83ba 5f12 83ba 6112 833a
00000240: 5212 83ba 6812 83ba 5012 83ba 1312 833a
00000250: 2712 833a 1d08 833a 4812 83ba 5f12 833a
00000260: 0312 833a 5a12 83ba 5112 833a c911 83ba
00000270: 6312 833a 6312 833a bf11 833a 5d12 83ba
00000280: ea11 83ba 4612 83ba 4312 83ba 4b12 83ba
00000290: 4c12 833a 1911 83ba 5f12 833a 6212 833a
000002a0: 5e12 833a 6312 833a 0b12 833a 9211 83ba
000002b0: 7611 833a 6112 833a 5412 83ba 5212 833a
000002c0: 1d12 83ba 6412 833a 2b12 833a 6412 83ba
000002d0: 4f12 83ba 6712 833a 5312 83ba 4112 83ba
000002e0: f010 833a fa11 833a 5012 833a f511 83ba
000002f0: 4612 833a 6112 833a 6012 83ba 5d12 83ba
00000300: 6f11 833a 0012 833a 2712 83ba 5d12 833a
00000310: 3712 833a 6012 83ba 6312 833a 2511 833a
00000320: 6712 83ba 4412 833a 5a12 83ba ec10 83ba
00000330: 2e12 83ba 2512 83ba 2212 833a f310 833a
00000340: 6312 83ba 4ce7 823a 1c12 833a db11 833a
00000350: 5612 833a 7b0e 833a 4212 83ba 3312 833a
00000360: df11 83ba 8411 833a 5712 83ba 1e12 833a
00000370: 2412 833a 5612 833a d211 833a 6912 833a
00000380: 6212 83ba 9711 83ba 5f12 83ba f711 833a
00000390: 2f12 83ba 6012 833a 0000 0000 5212 833a
000003a0: f111 83ba cc11 83ba 5712 83ba 4a12 83ba
000003b0: 4412 833a 6212 833a 4d12 83ba 4d12 83ba
000003c0: 6312 833a 6212 83ba 5b12 833a 9410 83ba
000003d0: 3712 833a 4b0f 83ba 5612 83ba 3a12 833a
000003e0: 3b12 833a d011 833a 5b12 83ba 4d12 83ba
000003f0: 6112 833a 2712 83ba b211 83ba 4812 83ba
0.0009999971 -0.0009999974 -0.0009999948 0.0009999978 0.0009999985 -0.0009999764 0.0009999961 0.0009999025
0.000999989 0.0009999969 0.0009999932 0.000999999 -0.0009999983 -0.0009999769 0.000999998 0.0009998549
0.0009999973 0.0009999855 0.000999972 -0.000999963 0.0009999977 0.0009999971 -0.0009999983 -0.0009999969
-0.0009999984 -0.0009999947 -0.0009999911 0.0009999985 0.000999947 0.0009999273 -0.0009999911 -0.0009999956
-0.0009999987 -0.0009999932 0.0009999826 -0.0009999982 -0.0009999983 0.0009999973 0.000999984 0.0009999985
0.0009999879 -0.000999994 0.0009999949 0.000999954 0.0009999973 0.0009999966 0.0009999975 -0.0009999801
0.0009999841 -0.0009999941 -0.0009999945 -0.0009999963 0.0009999922 0.0009999855 -0.0009999562 -0.0009999975
-0.00099999 -0.0009999905 -0.0009999985 0.0009999902 -0.0009999861 0.0009999824 -0.0009999712 -0.0009999846
0.0009999981 -0.0009999985 0.0009987332 0.0009996198 0.0009999591 0.0009999975 -0.000999994 0.0009999799
0.0009999973 0.0009999769 0.000999996 -0.0009999954 -0.0009999934 -0.0009999982 -0.0009999953 -0.0009999963
-0.0009999963 -0.0009999969 0.0009999784 -0.0009999962 -0.000999982 -0.0009999941 -0.0009999945 0.0009999932
0.0009999973 0.000999995 -0.0009999905 -0.0009999985 -0.0009999977 0.0009999914 -0.0009999858 -0.0009999971
0.0009999942 0.0009999982 0.0009999959 -0.0009999826 0.0009999948 0.0009999964 -0.0009999593 -0.0009999623
0.0009999599 -0.0009999882 0.0009999684 0.0009999976 -0.0009999833 0.0009998492 -0.0009995486 0.0009999962
0.000999978 -0.0009999981 0.0009999985 -0.0009999985 0.0009999295 -0.0009999931 0.0009999942 0.0009999829
-0.0009999981 -0.0009977964 -0.0009999961 0.000999973 0.0009999288 0.0009999959 -0.0009999906 -0.0009999856
-0.0009999587 0.000999986 -0.0009999851 -0.0009999884 0.0009999911 -0.0009999581 -0.0009999978 -0.000999999
0.0009999967 0.0009999195 -0.0009999984 -0.0009999961 -0.0009999874 -0.0009999897 -0.0009999982 0.0009999984
-0.0009999967 -0.0009999992 -0.0009999964 0.0009999893 0.0009999917 0.0009996925 -0.0009999955 0.0009999982
0.0009999875 -0.0009999976 0.0009999966 -0.0009999807 0.0009999987 0.0009999987 0.0009999796 -0.000999998
-0.0009999846 -0.0009999953 -0.0009999949 -0.0009999959 0.000999996 -0.0009999602 0.0009999982 0.0009999985
0.0009999981 0.0009999987 0.0009999884 -0.0009999743 0.0009999711 0.0009999984 -0.0009999969 0.0009999967
-0.0009999905 0.0009999988 0.0009999921 -0.0009999988 -0.0009999963 0.0009999991 -0.0009999968 -0.0009999947
0.0009999555 0.0009999864 0.0009999964 -0.0009999858 0.0009999953 0.0009999984 -0.0009999983 -0.000999998
0.0009999702 0.0009999871 -0.0009999917 0.000999998 0.0009999935 -0.0009999983 0.0009999987 0.0009999616
-0.0009999991 0.000999995 -0.0009999976 -0.000999955 -0.0009999925 -0.0009999914 0.0009999911 0.0009999558
-0.0009999987 0.0009987145 0.0009999904 0.0009999828 0.0009999971 0.0009998822 -0.0009999948 0.0009999931
-0.0009999833 0.0009999727 -0.0009999973 0.0009999906 0.0009999913 0.0009999971 0.0009999818 0.0009999993
-0.0009999985 -0.0009999749 -0.0009999982 0.0009999861 -0.0009999926 0.0009999983 0.0 0.0009999967
-0.0009999854 -0.0009999811 -0.0009999973 -0.0009999957 0.000999995 0.0009999985 -0.0009999961 -0.0009999961
0.0009999987 -0.0009999985 0.0009999977 -0.0009999448 0.0009999935 -0.0009999064 -0.0009999971 0.0009999939
0.000999994 0.0009999815 -0.0009999977 -0.0009999961 0.0009999984 -0.0009999917 -0.000999978 -0.0009999955
