CNP-model-save-name/saved_models/model_6000.pth (torch, 957730 bytes, 40 tensors)

weight_ih_l0 f4 [256, 2]
00000000: f3ed 2bbc 71bc c83c 05bf 5cbd 3fd8 b1bd
00000010: d170 a5bd f1ac babd 3ab7 23be 2d27 f13c
00000020: d789 ffbc f0c7 663c c386 abbd acc2 de3c
00000030: 7d3b f9bd 54f4 8c3d 82f5 e1bd d2b7 a5bd
00000040: f44e 693d 318a 9e3c 484a aebd 7ba5 edbd
00000050: 368a b1bd c328 8c3c 10e6 f83c 1d77 08be
00000060: 8a0f 573d ea57 293d 3b8e d73d 6229 8abc
00000070: e9b4 173d f562 03bc 52fb edbd a0b4 373d
00000080: 8a87 8ebc 440d 4b3d 96de f03b b07f 9bbd
00000090: db2f 4a3d e569 bf3d b89a 183d 3e52 04be
000000a0: 4ce5 2bbd 70ff 89bc 82fb 293d ac6d ce3c
000000b0: b569 ba3c 6cb9 8c3d 267b d6bd 13aa d6bd
000000c0: ddcf 2d3d 0413 58bd e209 16be 24a7 f4bd
000000d0: dd8a ffbd 96aa a53d 1c6e afbc 163c 03bd
000000e0: 9129 743d 65ae 153d fde2 bebd 173a 133e
000000f0: 09f1 1ebd a673 a13d b39f e2bd a8e8 c4bd
00000100: 1480 c1bd 63f3 89bd 6d63 8d3c cf06 8c3d
00000110: aec4 653d 100b c33c e372 453c fb5f efbd
00000120: acea 283d 9101 403d ed11 0abe 898d 8fbd
00000130: 04df b5bd 746f 17bc 4d22 923d cf58 a4bd
00000140: b9cf c7bd b22a 883d d021 943d 4c07 21be
00000150: 3af2 68bc 1cc9 d3bd a50b febd 6502 5e3d
00000160: f529 b03c 0a8d 93bd 6d60 60bd 4a5b 073d
00000170: 8365 acbd 1411 46bd c7d8 843d f27f 353d
00000180: 7bd8 c6bc 119d 593d d2d2 273d c3d4 b0bc
00000190: fa89 15be 08cc b1bd 4a0f 9dbd a611 533d
000001a0: 36ae 70bc 9cfb 8ebd 10a8 ddbd e652 df3c
000001b0: dd68 cabd bf2e 9f3c 8ceb a3bd 0545 0bbe
000001c0: 2bc1 4abd 0f31 73bc 90f3 713d 05f2 f7bd
000001d0: 77af 09be 114f e13c 9ae8 85bd a3b0 01be
000001e0: 62c4 4b3d e10c 9ebd 1fb6 293c 0ee2 343d
000001f0: c4a0 0ebe 1415 ba3d ef9f e33c 27f2 80bd
00000200: f5a5 91bd 50d9 b23d c5c5 60bd 6fc3 51bd
00000210: 6374 86bd 068e 4d3b ae34 0abd 19b7 863c
00000220: b2fe ab3d 0a10 183c 4f01 073c 0908 0bbd
00000230: 349c 843c 9e52 c03d 9a7a debd cbef 4cbd
00000240: d4d6 c43d 95ed e4bd b18f 10be 1e31 6f3d
00000250: aff9 973c c208 aa3d 08fd e5bd 5c94 18bd
00000260: 87e1 adbd f4ae 9dbc dc7c e2bd 77cb dbbd
00000270: 0d39 f13d 8923 34bd 079b b8bd 5d2b 38bc
00000280: 5bd6 ea3c cf8a 24bd eb37 283c 2e09 08be
00000290: a40e cf3d 2c19 1f3c dae8 eabd 0714 b1bc
000002a0: 04a3 b7bc b9ac babd ffab 9abd 3cbd 513c
000002b0: 2de5 963d 182f 5ebd a771 9dbd ccf3 8abd
000002c0: fafe 09bc b250 54bd 917d ff3c 6b55 d3bd
000002d0: 6137 5cbd 2a08 a53d a344 55bd d7a7 a7bd
000002e0: 5b08 653d ca3f c2bd e209 5d3d 7e62 36bd
000002f0: cb65 1a3d 28aa 203d e693 633c 32e6 2e3d
00000300: 441e aebd 90f7 8bbd 30d1 c9bd 9994 ae3d
00000310: 7a68 eabd 1e6a 5ebd f419 c43d 0aa8 48bd
00000320: 5a66 743d f76f 913b 77e2 87bd 9879 99bd
00000330: 7767 0abd 3afc 5cbb 398d bfbc 662b 8ebc
00000340: e7f7 323d dfb7 e63c d1f9 bbbd f117 afbd
00000350: d2e9 25bc 9bb7 35bd 46e9 5a3c e6f8 debc
00000360: 453f 00be 9a85 85bd 7f49 3abc 34ef 3b3c
00000370: 3881 7a3d bb11 983c 5ebd 203c 7844 eebb
00000380: b54b ebbd 744c 01be 41c0 ea3c 4b1e e93c
00000390: 9809 ac3d 1777 273d 2f2a 82bc 6ab5 ba3c
000003a0: 898e dc3c 6933 27bd 4e93 ca3b 7301 d2bd
000003b0: 5226 67bd e017 89bd c32a d43c ae96 d1bd
000003c0: a992 ae3c 538f ac3d bff4 c83d 52df 85bd
000003d0: 9558 82bd 92fe 2cbd a7f0 c7bd 31fe 04be
000003e0: 75c8 f53c 2f37 c43d 338f 933c 97ca d5bc
000003f0: 5d72 85bd 51eb 803c b65d 103d 6e6a 7abd
-0.010493743 0.024503918 -0.053893108 -0.08683824 -0.08078159 -0.09115017 -0.15987864 0.029437626
-0.031193657 0.014085755 -0.08375313 0.027192436 -0.121695496 0.068825394 -0.11033155 -0.080917016
0.05696006 0.019353004 -0.08510262 -0.116038285 -0.0866894 0.01710928 0.03038314 -0.13326688
0.052505054 0.041343607 0.10525175 -0.016865436 0.037037764 -0.008019199 -0.11620201 0.04484999
-0.017398614 0.049573198 0.007350753 -0.07592714 0.049362045 0.0934637 0.037256926 -0.12921998
-0.04196672 -0.016845435 0.041499622 0.02519878 0.022755483 0.06871304 -0.104727075 -0.10481658
0.042434562 -0.05275251 -0.14652207 -0.11945942 -0.12477658 0.08089177 -0.021414809 -0.032039724
0.059609953 0.03654327 -0.09320638 0.14377628 -0.038804088 0.07883386 -0.110656165 -0.09614688
-0.09448257 -0.067358755 0.017259324 0.06837236 0.05609577 0.023808986 0.012051317 -0.11688229
0.041239426 0.046876494 -0.134834 -0.070094176 -0.088804275 -0.009242881 0.071354486 -0.080247514
-0.09756417 0.066487685 0.07233012 -0.1572544 -0.014217908 -0.10341093 -0.12404565 0.054201502
0.021504382 -0.072046354 -0.05477946 0.033046044 -0.08417799 -0.04835613 0.064866595 0.04431147
-0.024273148 0.053128306 0.04097254 -0.021585828 -0.14603415 -0.08681494 -0.07668932 0.051530503
-0.014689973 -0.069815844 -0.10823071 0.027261209 -0.09883282 0.01943147 -0.080039114 -0.13600548
-0.049500626 -0.014843239 0.05907017 -0.121067084 -0.13445841 0.027503522 -0.06538506 -0.12665038
0.049747832 -0.077173 0.010358362 0.044160895 -0.13928515 0.090860516 0.027786223 -0.06296187
-0.07111732 0.08732855 -0.054876108 -0.05121177 -0.06565168 0.003136517 -0.033741646 0.01644473
0.08398189 0.009281168 0.008240058 -0.03394321 0.016187765 0.09390758 -0.10863228 -0.050033372
0.09611288 -0.11178128 -0.14117314 0.05839645 0.018551676 0.08302452 -0.112299025 -0.03725086
-0.084902816 -0.019248463 -0.11058971 -0.10732167 0.1177846 -0.0439792 -0.09013944 -0.011240807
0.028666666 -0.04017144 0.010267238 -0.13284752 0.10110214 0.009710591 -0.11470194 -0.021615995
-0.0224166 -0.091149755 -0.07552337 0.012801465 0.073679306 -0.05424413 -0.07687693 -0.06784782
-0.008422608 -0.05183477 0.031187804 -0.103190266 -0.05376375 0.08058198 -0.05206741 -0.0818631
0.05591617 -0.09484823 0.053964503 -0.044527523 0.037694734 0.039224774 0.013890242 0.0427
-0.085018665 -0.06834328 -0.098543525 0.085244365 -0.114457086 -0.05430042 0.09575263 -0.04898838
0.059667923 0.004438396 -0.066349916 -0.07493895 -0.033790078 -0.0033719675 -0.02338277 -0.017354678
0.04369345 0.028163848 -0.09178508 -0.08549488 -0.010126548 -0.044364553 0.013361281 -0.027218293
-0.12524135 -0.06519623 -0.011370062 0.011470605 0.06115839 0.018563142 0.009810774 -0.0072713457
-0.11489049 -0.12626821 0.028656127 0.028456828 0.08400267 0.040885057 -0.015889255 0.022791583
0.026923435 -0.040820513 0.006182111 -0.10254183 -0.05643303 -0.06694007 0.025899297 -0.10233818
0.021310167 0.084257744 0.098123066 -0.065367356 -0.06364552 -0.042234965 -0.09762698 -0.12987591
0.030002812 0.09580838 0.018012619 -0.026097579 -0.06515954 0.015737208 0.03524562 -0.061136656

weight_hh_l0 f4 [256, 64]
00000000: 1b0f f7bc 53b8 163c 0e9d 89bc dc15 fabb
00000010: 11cc 233c 70ab 8c3b 81ed 4dbc a05c a4bc
00000020: 48d5 633b b1ce 663c 2fa7 0039 a87f 78bc
00000030: 0ec1 e8bb 14cc 0b39 efd9 623c 8ccb 97ba
00000040: bb60 f63c d25f 94bb 4993 1e39 e57e 62bc
00000050: 52d0 733c 6e81 3c3b d518 893a f930 f73c
00000060: 5d99 4d3b 0249 d0ba d210 66bc d824 cbbb
00000070: e369 88b9 7807 1ebd 2dc4 70bd 1f3b 463b
00000080: 16ff cb3b 6bce 893c 9947 18bb 102b 333c
00000090: c2fb f8bb 789e 6c3c 5c47 243c 9be2 393d
000000a0: f32a d63c e827 f43b 3739 d23a 8368 4f3c
000000b0: da64 12bb f569 54bd 7f1e 9d3b 695f d8bc
000000c0: f308 4f3c 94ee bdbb 6464 99bc afaa 063c
000000d0: 6d10 efb9 d356 d3bb 743a 463b 23e4 c43b
000000e0: b291 c5bc 5f47 0dbc 5ac6 ec3b 0006 4cbc
000000f0: 9d7f f63c 7b6a 63bc 21ab 073c af54 5cbb
00000100: 809d 1f3c de01 5cbb f37a da3b 506f a0b9
00000110: f26e 543a 2f62 c038 f459 2aba 64f8 e83b
00000120: 3819 dbb8 aef7 2d3a d11e 423b 0207 1aba
00000130: 6c51 e339 9c67 9ab9 c787 88bb 891f ebbb
00000140: fd7e 76bc 00a1 393c edb2 083a f816 8c3b
00000150: 1a0a 95ba f2ec 3f3a 434e 47bb 07e2 dfbb
00000160: f76f faba e19e c43a fe80 94b9 8702 0f3b
00000170: 06e5 57bc f6a3 123c ff77 33bb b3c3 11ba
00000180: b66f 7f3b 5e11 c23a 6267 343b 0dd2 a33a
00000190: 8e34 d93a c44f 7ebb 5f1c 7a3a 6fb0 323a
000001a0: 0ce1 c5bc 4956 f3ba 7de7 863a b5af 13ba
000001b0: 6f69 7dba ce52 e13c e12f caba 00f2 903c
000001c0: 0ead 55bc 64b7 35bb 1203 383b 6f08 513b
000001d0: 512d f3ba 1a67 2a3a 91ad b23a f246 9239
000001e0: 0002 bb3b 761d 8538 7987 28bc 5a82 a13a
000001f0: 229d f939 8817 483c 0d8f 153b a001 353c
00000200: 9029 16ba 223a ecba 5dd4 9f3c c1a4 383c
00000210: 206d ee3b 3bfc d53a eb41 6d3a 6e7e 27bc
00000220: 9bda 4d3a 26d7 ed3b c6c7 033c e860 09bc
00000230: b28e 053b 2766 36bc bc92 ca3a 171c 41bc
00000240: 4314 363b 9ed6 b33b 514f 2cba 2fd6 9b3c
00000250: b339 d93a 9583 f83a 45ca adbb 701a 48bc
00000260: a96e 00ba d40a 0f3c 29bd 13bc e5fa 1e3b
00000270: d4c8 f5bc 80ab 783a d956 41bc 7d69 9ebc
00000280: 24cc 013c 9e2a 743b e4e2 943b 59da c73b
00000290: d6b6 e8bb 7898 49bc 3ead 523c 291d 1f3c
000002a0: 05a1 30bd fea8 d1ba ac25 973b ff2d 923b
000002b0: ecc3 6eba ed23 f83c 0b54 2cbc dd3b 6a3d
000002c0: 0f2a 81bb 0c10 b0bb 1dd7 503b 1a20 0cbc
000002d0: 0c7c 0cbc 7599 e139 2777 313c 0e6b debb
000002e0: 001d 7ebb 7e72 3fbc d2b0 083c 60cb c4bb
000002f0: e512 a5ba 1992 1c3d 0de4 73ba f5ed bd3c
00000300: 0b57 05bc a8e0 623b 6a26 563c e97a 14bb
00000310: 3054 843b de71 de3a 5f69 41b8 8c9d 7bbc
00000320: 5ab0 5f3b b75d 583c 1d3d fb3b 0479 3bbc
00000330: 0ff6 6c3b b4c2 8ebc 16f1 983c 598b 2cbc
00000340: 7b0d 043d 970d 423b aa08 8fba 3868 a4bb
00000350: 3355 433c ba0c e93a 76b5 4a3b ec8d 5c3c
00000360: 1948 16b9 f1a7 413a 05d4 70bc d3fc b3bb
00000370: c55d 24bb edc9 a3bc 6e2d 08bd 8dc7 1bbc
00000380: 270b 3a3b d5b9 b23a 52f6 98ba bd88 ec3b
00000390: 7d11 12bc 71f6 e73b 12d8 843c 9c69 023d
000003a0: 8b2f 70bb 0e26 5a3b 94f7 493a 91d2 343c
000003b0: c836 d8b9 783f aebc 5c62 42bb 5fba d33b
000003c0: cf6c 9a3c 7ce9 3cbb 61f3 3fbb b139 2eba
000003d0: 267d e1bb 4ed3 39bc bbf8 4d3b 5bf8 1fb9
000003e0: 8cb6 d5bc 46ac 9dbc d0bd 653c 8e2d 27bc
000003f0: 52ed ad3b c841 b73c 35ee 0f3c e7c4 f93b
-0.03015857 0.00919922 -0.016798522 -0.0076320004 0.009997384 0.004292898 -0.012568832 -0.020063698
0.0034764577 0.014087365 0.00012269312 -0.015167154 -0.007103092 0.00013332098 0.013845905 -0.0011581047
0.030075422 -0.0045280242 0.00015122922 -0.013824199 0.01488121 0.002876367 0.0010459671 0.03017472
0.003137193 -0.0015890899 -0.014042096 -0.0061994605 -0.00026018833 -0.03858134 -0.058780838 0.0030247641
0.006225477 0.01682206 -0.0023236035 0.01093556 -0.0075983712 0.014442079 0.010026779 0.045382123
0.026143527 0.0074510463 0.001603878 0.012659195 -0.0022337944 -0.05185886 0.004794895 -0.026412683
0.012636411 -0.005796263 -0.018724628 0.008219405 -0.0004559787 -0.0064495592 0.0030247243 0.0060086413
-0.024117325 -0.008622973 0.007225794 -0.012452602 0.030090148 -0.013880367 0.008280546 -0.0033619811
0.009742141 -0.003357045 0.0066674887 -0.00030600512 0.00081036903 9.1735616e-05 -0.00064983894 0.0071096886
-0.00010447431 0.00066363334 0.0029620419 -0.0005875678 0.00043357478 -0.00029450364 -0.0041665765 -0.00717539
-0.015044925 0.011329889 0.00052146503 0.004275199 -0.0011370808 0.00073213794 -0.0030411638 -0.0068323645
-0.0019106854 0.0015000963 -0.00028324866 0.0021821575 -0.013177162 0.008950224 -0.0027384756 -0.00055604725
0.0038976497 0.0014806201 0.0027527441 0.0012498513 0.0016571449 -0.0038804868 0.0009540971 0.0006816452
-0.024155162 -0.0018565144 0.0010292378 -0.00056337874 -0.0009666895 0.027505305 -0.0015425646 0.01769352
-0.013041748 -0.0027727718 0.0028078002 0.0031895896 -0.0018552934 0.00065003487 0.0013632049 0.00027900148
0.0057070255 6.347422e-05 -0.010286205 0.0012322173 0.00047610054 0.012212642 0.002282086 0.011047751
-0.0005728239 -0.0018022696 0.019510442 0.011269749 0.0072761923 0.0016325781 0.0009050655 -0.010223014
0.0007852704 0.0072583137 0.008043235 -0.008384921 0.0020379242 -0.011132753 0.0015455107 -0.011786482
0.0027783073 0.005488231 -0.00065730984 0.01902303 0.0016572982 0.0018960113 -0.0053036534 -0.012213334
-0.0004899302 0.008730609 -0.009017267 0.0024258432 -0.030002989 0.0009486005 -0.011800491 -0.01933741
0.007922206 0.0037256847 0.004543649 0.006099027 -0.007101874 -0.012304418 0.012858687 0.009711542
-0.04312231 -0.0015995798 0.004612645 0.0044610496 -0.0009108174 0.030290568 -0.010518084 0.057185996
-0.0039417814 -0.0053730067 0.0031866499 -0.0085525755 -0.008574497 0.0004302968 0.010831631 -0.0067876643
-0.003877461 -0.011685012 0.0083429385 -0.0060056895 -0.0012594132 0.038225267 -0.00093036966 0.023184756
-0.008138428 0.003461877 0.013070682 -0.0022656268 0.0040383562 0.0016971191 -4.611292e-05 -0.015357386
0.0034132213 0.013205937 0.0076671974 -0.011442427 0.0036157405 -0.017426826 0.018669646 -0.01053127
0.03223942 0.002961015 -0.0010912616 -0.0050173067 0.011922169 0.0017780282 0.0030930913 0.013461571
-0.00014331973 0.0007387391 -0.014698987 -0.0054927855 -0.0025080305 -0.019993747 -0.03324645 -0.009508026
0.0028387995 0.0013635705 -0.0011670089 0.007218449 -0.008915302 0.0070789387 0.016216312 0.031839
-0.0036649432 0.0033286843 0.00077044335 0.011036531 -0.00041239546 -0.021270499 -0.0029660678 0.006461426
0.018850712 -0.002882569 -0.0029289352 -0.000664617 -0.006881374 -0.011341883 0.0031428772 -0.00015255941
-0.026088022 -0.019247185 0.014022306 -0.010203732 0.005307832 0.022370234 0.00878482 0.0076223495

bias_ih_l0 f4 [256]
00000000: 69e1 08bd fa46 84bc d673 4cbd 1814 63bd
00000010: e7fc b13c 760b 6abd 78de bdbc 2dcf 6cbb
00000020: a50a 31bc a5bb 32bd ae98 c7bc 5bf5 f6bc
00000030: d247 0cbd 7a7d 853a e55e bd3c 4750 72bc
00000040: db49 bbbc a651 b3bc d7d4 88bc 0f20 78bd
00000050: 24c7 e9bc 9e2b 1ebd 9165 293b 8589 0dbd
00000060: 16d5 51bb c7b4 1cbd 6a1d a3bc 67ea c6bd
00000070: 6f19 6fbc 79c6 823c 6d9a d63a a019 4dbd
00000080: 42ad 2dbd e923 67bc a7c4 46bd d930 b5bc
00000090: 54dd c7bc ce91 6dbc d0e1 4abd 25f9 763c
000000a0: 1211 8f3a 2cc2 03bd 7bd7 e6bc 4ff5 ecbc
000000b0: 1dfd 47bd d044 b4bc a6b6 44bd a498 e83b
000000c0: 2c78 27bd 36f3 53bc b969 7cbc e7cc 70bc
000000d0: 8648 eabc 708a 4fbd 6799 f8bc 6d7e 3ebd
000000e0: 23a2 c43c 9ac6 7fbb b66c 98bd 2033 b5bc
000000f0: d882 0dbc 60c3 2abc 564a cdbc 1149 d0bc
00000100: 11bc 9bbc 1001 9bbc fde3 40bd 556c 3ebd
00000110: 9182 1f3c 6ffc 64bd 9084 9cbc 3a00 86b9
00000120: d70f 2ebc 1911 e6bc d717 b0bc 9eab 12bd
00000130: 5894 09bd 6a64 dcba be1f b83c 2211 94bc
00000140: 2f84 d3bc ee75 e7bb 8f73 8bbc 90f4 84bd
00000150: 0fbf edbc d70b 01bd c27a 3e3a 961f 14bd
00000160: 7dc2 f039 a017 18bd cad6 88bc 32a4 cebd
00000170: 1dd7 b3bc 0195 3b3c 6c9d 69ba 63bc 47bd
00000180: af14 89bd 7aa9 0bbc 4659 33bd 3208 c9bc
00000190: 49e1 13bd 3feb 1ebb 742d 6abd 5880 6a3c
000001a0: 7098 0e3b db2f edbc 515b 4fbd b13a fdbc
000001b0: ea8d 44bd e506 a9bc ad4e 36bd 3350 8837
000001c0: 0ea3 21bd 5df4 7cbc a3d3 57bc 9e81 8dbc
000001d0: 475d f9bc 655b 45bd 9fa9 a8bc 1403 37bd
000001e0: a796 cd3c 2206 51ba e226 9ebd f0dd 9bbc
000001f0: 3535 22bc 24ed 6ebc a3c5 dfbc 11e6 f8bc
00000200: 615b 923b 0240 a4bb d81f e0b9 aa35 273b
00000210: 90ae 84bb f822 603c e382 adbc 6b49 c23c
00000220: 02be 843c 932b be3c ae91 41bb 93d2 993c
00000230: c407 cb3c 8422 573c 442f 53bc 0d28 30ba
00000240: 9987 2ebd 2e75 d6bb 3ae7 c1ba 6ce5 46b9
00000250: 7e97 c3bc f29a 9c3c 2ebe 07bd 91f0 eebc
00000260: 8249 1f3c a857 e43b bc75 6fbc 7023 04bc
00000270: 89e0 163c d300 633c d9d2 1033 9dca 463c
00000280: 9c21 203b d01c 82bc 3514 3f3d 81ad a33c
00000290: fb7d 973c b422 24bd f5df 1abc ac5b e63a
000002a0: ce19 e5bb 8ad7 9d3c b52f d7ba 7581 b5bb
000002b0: dea4 99bc d990 7e3c fd6b 19bd eab6 833b
000002c0: 3a87 ecbb 69bf e73a d2f1 e1ba d436 383a
000002d0: 020f 8dbb a850 de3c b78d c7ba 52ce 663a
000002e0: 6e36 bd3c b954 cf3b 59d0 343c 03ef 43bc
000002f0: 1a7d 333c 56c0 81bc 636c a9bc df7b 853c
00000300: a993 09bd 1d75 84bc f735 4dbd 9096 63bd
00000310: cdab ae3c fd8a 6abd 3486 bebc 3814 7cbb
00000320: 226c 32bc ffd2 37bd 09ce c6bc 40ba f2bc
00000330: 7e94 0bbd 8e62 f83a 0af3 bf3c 305e 6fbc
00000340: 143e c5bc 056d b4bc 3e4f 88bc 86bf 75bd
00000350: c54a f6bc 73cd 1dbd a42a 1b3b e8ea 0dbd
00000360: 6081 4ebb 1ea9 1abd 71bb 9fbc 1c5b c7bd
00000370: 99c0 72bc 432b 873c 344e fc3a 68ba 4dbd
00000380: 8ca9 2ebd 33d6 6cbc bc00 48bd b212 b5bc
00000390: a14c cdbc cfb2 61bc 125c 4bbd 9a5c 753c
000003a0: 8f82 1e3a 1162 04bd 772d e7bc ddcd e9bc
000003b0: 8e33 47bd 6f5a b4bc 03c4 44bd e0c3 d33b
000003c0: 62f4 27bd a34c 5bbc fda6 7abc c40e 84bc
000003d0: 6617 edbc ac39 52bd 4a2d fbbc acb9 3dbd
000003e0: 26bf c83c 049a 7bbb 7ac7 97bd f82f b5bc
000003f0: d5ef 0ebc 9b0c 30bc 7282 c8bc ab48 d4bc
-0.033418093 -0.016147126 -0.049915157 -0.055439085 0.021727039 -0.057139836 -0.02317737 -0.0036134229
-0.0108057605 -0.043635983 -0.024364796 -0.030146291 -0.03424818 0.001018449 0.023116538 -0.014789647
-0.022862365 -0.021889519 -0.016703052 -0.06057745 -0.02853734 -0.038615815 0.0025847892 -0.034554977
-0.0032017878 -0.03825834 -0.019911487 -0.097126774 -0.014593466 0.01596378 0.0016372927 -0.050073266
-0.04240156 -0.014107683 -0.048527386 -0.022118019 -0.02439753 -0.014500095 -0.049531758 0.015074049
0.0010915122 -0.0321676 -0.028178921 -0.028925566 -0.048825372 -0.022005469 -0.04802575 0.0070982743
-0.04088609 -0.012936404 -0.015406066 -0.01469729 -0.028599035 -0.050669134 -0.030346585 -0.046507288
0.024003094 -0.0039028288 -0.0744261 -0.022119105 -0.008637153 -0.010422558 -0.02505986 -0.025425466
-0.019010575 -0.018921405 -0.047092427 -0.046490032 0.009735719 -0.055904802 -0.01910618 -0.0002555864
-0.010623894 -0.028084325 -0.021495743 -0.0358082 -0.033588737 -0.0016814594 0.022476073 -0.018074576
-0.025819866 -0.007063619 -0.017022876 -0.06491959 -0.029021768 -0.031505432 0.0007266217 -0.036162935
0.00045921272 -0.037131906 -0.016703982 -0.100899115 -0.02195316 0.0114490995 -0.00089117023 -0.048763644
-0.06693398 -0.008524293 -0.04378631 -0.02454004 -0.03610352 -0.0024249104 -0.057172254 0.014312826
0.002175834 -0.028953483 -0.050624195 -0.030911775 -0.047986902 -0.02063317 -0.044508625 1.6249809e-05
-0.03946214 -0.01543912 -0.013173017 -0.01727372 -0.030439986 -0.048182864 -0.020588694 -0.04468067
0.02509625 -0.0007973631 -0.0772226 -0.019026726 -0.009900381 -0.014582906 -0.02731592 -0.030383142
0.0044664596 -0.005012513 -0.00042748335 0.0025514164 -0.00404913 0.013680212 -0.021180576 0.023716649
0.016203884 0.023214137 -0.0029536295 0.018777167 0.024783976 0.013130788 -0.012889687 -0.0006719835
-0.042609785 -0.0065447306 -0.0014793642 -0.00018968218 -0.023875948 0.019116852 -0.033140354 -0.029167445
0.0097221155 0.0069684573 -0.014615472 -0.00806509 0.009208807 0.013855177 3.3719378e-08 0.012133268
0.0024434095 -0.01588288 0.04665013 0.019980194 0.01849269 -0.040072158 -0.00945281 0.0017574928
-0.0069916015 0.019267816 -0.0016417416 -0.005539114 -0.018755373 0.015537464 -0.0374565 0.004019608
-0.0072182687 0.0017680946 -0.0017238206 0.0007027213 -0.0043047676 0.02713807 -0.001522473 0.0008804548
0.023097243 0.0063272384 0.011036002 -0.01195884 0.0109551195 -0.015838783 -0.020681566 0.016294418
-0.033588085 -0.016169125 -0.050100293 -0.05556351 0.021322155 -0.057261456 -0.023257352 -0.00384642
-0.010890039 -0.044878956 -0.024268167 -0.029629827 -0.03407716 0.001895027 0.02343132 -0.014609858
-0.024077453 -0.02202464 -0.016639348 -0.059997104 -0.03006495 -0.03852601 0.002367654 -0.034647852
-0.003151022 -0.03775894 -0.019498559 -0.097341746 -0.014816427 0.016500121 0.001924938 -0.0502266
-0.04264216 -0.014455366 -0.048828825 -0.022103641 -0.025060954 -0.013775541 -0.049648352 0.014975691
0.00060466764 -0.032320086 -0.028219922 -0.028540546 -0.04863315 -0.022015778 -0.048038494 0.006462559
-0.041004546 -0.013384971 -0.015298602 -0.016120322 -0.028941821 -0.05132453 -0.030661244 -0.04631965
0.02450521 -0.003839136 -0.07411094 -0.0221176 -0.008724173 -0.010745193 -0.024476264 -0.025913557

bias_hh_l0 f4 [256]
00000000: 69e1 08bd fa46 84bc d673 4cbd 1814 63bd
00000010: e7fc b13c 760b 6abd 78de bdbc 2dcf 6cbb
00000020: a50a 31bc a5bb 32bd ae98 c7bc 5bf5 f6bc
00000030: d247 0cbd 7a7d 853a e55e bd3c 4750 72bc
00000040: db49 bbbc a651 b3bc d7d4 88bc 0f20 78bd
00000050: 24c7 e9bc 9e2b 1ebd 9165 293b 8589 0dbd
00000060: 16d5 51bb c7b4 1cbd 6a1d a3bc 67ea c6bd
00000070: 6f19 6fbc 79c6 823c 6d9a d63a a019 4dbd
00000080: 42ad 2dbd e923 67bc a7c4 46bd d930 b5bc
00000090: 54dd c7bc ce91 6dbc d0e1 4abd 25f9 763c
000000a0: 1211 8f3a 2cc2 03bd 7bd7 e6bc 4ff5 ecbc
000000b0: 1dfd 47bd d044 b4bc a6b6 44bd a498 e83b
000000c0: 2c78 27bd 36f3 53bc b969 7cbc e7cc 70bc
000000d0: 8648 eabc 708a 4fbd 6799 f8bc 6d7e 3ebd
000000e0: 23a2 c43c 9ac6 7fbb b66c 98bd 2033 b5bc
000000f0: d882 0dbc 60c3 2abc 564a cdbc 1149 d0bc
00000100: 11bc 9bbc 1001 9bbc fde3 40bd 556c 3ebd
00000110: 9182 1f3c 6ffc 64bd 9084 9cbc 3a00 86b9
00000120: d70f 2ebc 1911 e6bc d717 b0bc 9eab 12bd
00000130: 5894 09bd 6a64 dcba be1f b83c 2211 94bc
00000140: 2f84 d3bc ee75 e7bb 8f73 8bbc 90f4 84bd
00000150: 0fbf edbc d70b 01bd c27a 3e3a 961f 14bd
00000160: 7dc2 f039 a017 18bd cad6 88bc 32a4 cebd
00000170: 1dd7 b3bc 0195 3b3c 6c9d 69ba 63bc 47bd
00000180: af14 89bd 7aa9 0bbc 4659 33bd 3208 c9bc
00000190: 49e1 13bd 3feb 1ebb 742d 6abd 5880 6a3c
000001a0: 7098 0e3b db2f edbc 515b 4fbd b13a fdbc
000001b0: ea8d 44bd e506 a9bc ad4e 36bd 3350 8837
000001c0: 0ea3 21bd 5df4 7cbc a3d3 57bc 9e81 8dbc
000001d0: 475d f9bc 655b 45bd 9fa9 a8bc 1403 37bd
000001e0: a796 cd3c 2206 51ba e226 9ebd f0dd 9bbc
000001f0: 3535 22bc 24ed 6ebc a3c5 dfbc 11e6 f8bc
00000200: 615b 923b 0240 a4bb d81f e0b9 aa35 273b
00000210: 90ae 84bb f822 603c e382 adbc 6b49 c23c
00000220: 02be 843c 932b be3c ae91 41bb 93d2 993c
00000230: c407 cb3c 8422 573c 442f 53bc 0d28 30ba
00000240: 9987 2ebd 2e75 d6bb 3ae7 c1ba 6ce5 46b9
00000250: 7e97 c3bc f29a 9c3c 2ebe 07bd 91f0 eebc
00000260: 8249 1f3c a857 e43b bc75 6fbc 7023 04bc
00000270: 89e0 163c d300 633c d9d2 1033 9dca 463c
00000280: 9c21 203b d01c 82bc 3514 3f3d 81ad a33c
00000290: fb7d 973c b422 24bd f5df 1abc ac5b e63a
000002a0: ce19 e5bb 8ad7 9d3c b52f d7ba 7581 b5bb
000002b0: dea4 99bc d990 7e3c fd6b 19bd eab6 833b
000002c0: 3a87 ecbb 69bf e73a d2f1 e1ba d436 383a
000002d0: 020f 8dbb a850 de3c b78d c7ba 52ce 663a
000002e0: 6e36 bd3c b954 cf3b 59d0 343c 03ef 43bc
000002f0: 1a7d 333c 56c0 81bc 636c a9bc df7b 853c
00000300: a993 09bd 1d75 84bc f735 4dbd 9096 63bd
00000310: cdab ae3c fd8a 6abd 3486 bebc 3814 7cbb
00000320: 226c 32bc ffd2 37bd 09ce c6bc 40ba f2bc
00000330: 7e94 0bbd 8e62 f83a 0af3 bf3c 305e 6fbc
00000340: 143e c5bc 056d b4bc 3e4f 88bc 86bf 75bd
00000350: c54a f6bc 73cd 1dbd a42a 1b3b e8ea 0dbd
00000360: 6081 4ebb 1ea9 1abd 71bb 9fbc 1c5b c7bd
00000370: 99c0 72bc 432b 873c 344e fc3a 68ba 4dbd
00000380: 8ca9 2ebd 33d6 6cbc bc00 48bd b212 b5bc
00000390: a14c cdbc cfb2 61bc 125c 4bbd 9a5c 753c
000003a0: 8f82 1e3a 1162 04bd 772d e7bc ddcd e9bc
000003b0: 8e33 47bd 6f5a b4bc 03c4 44bd e0c3 d33b
000003c0: 62f4 27bd a34c 5bbc fda6 7abc c40e 84bc
000003d0: 6617 edbc ac39 52bd 4a2d fbbc acb9 3dbd
000003e0: 26bf c83c 049a 7bbb 7ac7 97bd f82f b5bc
000003f0: d5ef 0ebc 9b0c 30bc 7282 c8bc ab48 d4bc
-0.033418093 -0.016147126 -0.049915157 -0.055439085 0.021727039 -0.057139836 -0.02317737 -0.0036134229
-0.0108057605 -0.043635983 -0.024364796 -0.030146291 -0.03424818 0.001018449 0.023116538 -0.014789647
-0.022862365 -0.021889519 -0.016703052 -0.06057745 -0.02853734 -0.038615815 0.0025847892 -0.034554977
-0.0032017878 -0.03825834 -0.019911487 -0.097126774 -0.014593466 0.01596378 0.0016372927 -0.050073266
-0.04240156 -0.014107683 -0.048527386 -0.022118019 -0.02439753 -0.014500095 -0.049531758 0.015074049
0.0010915122 -0.0321676 -0.028178921 -0.028925566 -0.048825372 -0.022005469 -0.04802575 0.0070982743
-0.04088609 -0.012936404 -0.015406066 -0.01469729 -0.028599035 -0.050669134 -0.030346585 -0.046507288
0.024003094 -0.0039028288 -0.0744261 -0.022119105 -0.008637153 -0.010422558 -0.02505986 -0.025425466
-0.019010575 -0.018921405 -0.047092427 -0.046490032 0.009735719 -0.055904802 -0.01910618 -0.0002555864
-0.010623894 -0.028084325 -0.021495743 -0.0358082 -0.033588737 -0.0016814594 0.022476073 -0.018074576
-0.025819866 -0.007063619 -0.017022876 -0.06491959 -0.029021768 -0.031505432 0.0007266217 -0.036162935
0.00045921272 -0.037131906 -0.016703982 -0.100899115 -0.02195316 0.0114490995 -0.00089117023 -0.048763644
-0.06693398 -0.008524293 -0.04378631 -0.02454004 -0.03610352 -0.0024249104 -0.057172254 0.014312826
0.002175834 -0.028953483 -0.050624195 -0.030911775 -0.047986902 -0.02063317 -0.044508625 1.6249809e-05
-0.03946214 -0.01543912 -0.013173017 -0.01727372 -0.030439986 -0.048182864 -0.020588694 -0.04468067
0.02509625 -0.0007973631 -0.0772226 -0.019026726 -0.009900381 -0.014582906 -0.02731592 -0.030383142
0.0044664596 -0.005012513 -0.00042748335 0.0025514164 -0.00404913 0.013680212 -0.021180576 0.023716649
0.016203884 0.023214137 -0.0029536295 0.018777167 0.024783976 0.013130788 -0.012889687 -0.0006719835
-0.042609785 -0.0065447306 -0.0014793642 -0.00018968218 -0.023875948 0.019116852 -0.033140354 -0.029167445
0.0097221155 0.0069684573 -0.014615472 -0.00806509 0.009208807 0.013855177 3.3719378e-08 0.012133268
0.0024434095 -0.01588288 0.04665013 0.019980194 0.01849269 -0.040072158 -0.00945281 0.0017574928
-0.0069916015 0.019267816 -0.0016417416 -0.005539114 -0.018755373 0.015537464 -0.0374565 0.004019608
-0.0072182687 0.0017680946 -0.0017238206 0.0007027213 -0.0043047676 0.02713807 -0.001522473 0.0008804548
0.023097243 0.0063272384 0.011036002 -0.01195884 0.0109551195 -0.015838783 -0.020681566 0.016294418
-0.033588085 -0.016169125 -0.050100293 -0.05556351 0.021322155 -0.057261456 -0.023257352 -0.00384642
-0.010890039 -0.044878956 -0.024268167 -0.029629827 -0.03407716 0.001895027 0.02343132 -0.014609858
-0.024077453 -0.02202464 -0.016639348 -0.059997104 -0.03006495 -0.03852601 0.002367654 -0.034647852
-0.003151022 -0.03775894 -0.019498559 -0.097341746 -0.014816427 0.016500121 0.001924938 -0.0502266
-0.04264216 -0.014455366 -0.048828825 -0.022103641 -0.025060954 -0.013775541 -0.049648352 0.014975691
0.00060466764 -0.032320086 -0.028219922 -0.028540546 -0.04863315 -0.022015778 -0.048038494 0.006462559
-0.041004546 -0.013384971 -0.015298602 -0.016120322 -0.028941821 -0.05132453 -0.030661244 -0.04631965
0.02450521 -0.003839136 -0.07411094 -0.0221176 -0.008724173 -0.010745193 -0.024476264 -0.025913557

weight_ih_l0_reverse f4 [256, 2]
00000000: 0031 05be 0004 f9bd 9f17 093e 1f21 5d3c
00000010: b98c 06bc ac3b 66bd 70ce 6fbd 234a b2bd
00000020: c164 01bd 174c 90bd 1dcd 5bbb 5c74 16bd
00000030: 3b43 e7bd 3e3e 8b3c 8bdd 77bc b109 0ebd
00000040: 902f bdbb c48a c53c 9f09 80bd 6bc7 e5bd
00000050: 96de 9c3d d8fd ce3d 7170 2c3d c478 17bd
00000060: e21a bb3a ebdf 59bd 8b29 5dbd ce91 003e
00000070: 15e0 40bc 37fd 92bd 4e70 febd 7445 2cbd
00000080: 7d19 ddba 3f23 bb3d 6a48 743d 4824 e8bc
00000090: d88c 3ebd 3691 8a3d f4c5 bf3c f5fe a23c
000000a0: 0b26 a5bd 93a5 563d a4a7 9d3c 1aa5 adbd
000000b0: b22f 1c3c be92 85bc 68d8 a03d 8c67 75bd
000000c0: d40b bdbd 3771 a3bd e570 113e 1dbd 063e
000000d0: 61be f0bc 2f73 74bd 1853 033d a7dd 06bb
000000e0: fbcd 3cbd 7929 d0bd 823d 493d 26f4 cabb
000000f0: f940 1b3d 3ce9 da3d e071 3c3d 60a8 763c
00000100: c445 89bd 2329 b23d ebf4 9abd 0db8 22bd
00000110: 1c7a f6bc bb1f c43c 352c b43d 2857 363d
00000120: a763 e5bc 2aa4 c5bd e6e1 bdbc 1a01 1a3d
00000130: 073c 12bd f1f4 d13d e7c5 c93b 604f 40bd
00000140: 1100 053e d5d2 75bd e4ba 55bd 4b8a 203d
00000150: 3230 8ebd 5086 f33d cfce d3bd c76e 483d
00000160: fad7 c2bd b728 d9bd f9cc a0bd be62 16bd
00000170: fe49 d8bd 8789 82bd 25d6 0a3d 3f1c 813c
00000180: 0132 493d a474 a7bd 4b11 73bd e811 353c
00000190: 7d11 26bd 0d74 6bbd 6245 3dbb 4391 603d
000001a0: 0061 1ebc a88d f9bd cf86 203d c6d1 bf3c
000001b0: 652d d1bd 48a5 bfbd fd58 113d 9218 04bd
000001c0: ff47 3c3d 5440 47bd ce97 80bd e959 b03d
000001d0: 36db b43c 5c30 dbbd 3702 29be 9966 1cbe
000001e0: aefb 7b3c 915a fe3c 4754 af3d 3dba cbbd
000001f0: 8c47 293b 2502 7a3d acbb 7c3d ca73 9bbb
00000200: 9f1b 00be 2765 b43c cf37 083e f157 383d
00000210: 853a b73b 11f1 12bd 2e87 90bc 4aaf 263e
00000220: 8456 0bbd c841 3abd 44a3 01bc 557f d2bc
00000230: c999 d4bc 9177 713c d51b 5dba 776c 95bd
00000240: c737 223d 0749 cebd 07a9 b2bd 8331 ef3d
00000250: 7359 bf3d 4dec a33b 67df 5c3d 11ab c0bd
00000260: 9d94 5b3c 53aa d33c b6c0 2e3d f580 583d
00000270: e539 ea3c c2fe 0b3d a23b d9bc 18f0 aabd
00000280: 0331 63bd 9687 193e 1cd6 3a3d f887 12bd
00000290: e74f 7f3d cd57 81bd 6a5f 113c 9471 42bc
000002a0: 3df3 e33c 1c29 a1ba 104c a83d 886b 9c3d
000002b0: 76b4 393d c121 423d 339d 153d cb35 543d
000002c0: b2e5 1bbd cc16 cb3d 99a4 b1bd e46f 913d
000002d0: f743 a8bd 6397 a83d 003e a9bd 527a 5d3d
000002e0: 2f9c 9ebc 9f8f 4fbd 8a3a 6e3d a508 b93d
000002f0: 6b19 943d 00a5 a33b 5c54 8f3c 8048 0d3d
00000300: b695 6f3d 2522 0cbd 234b 26bd 16da 97bd
00000310: 149e e23c eb36 98bd 5e10 8bbd 5fb8 c63d
00000320: c388 38bd d805 72bc 1342 69bd 99aa 1b3c
00000330: 340a a0bb b5e4 39bd 67f1 2c3c b9a8 54bd
00000340: 0245 bf3d 8564 33bd c416 5abd e0f2 883d
00000350: 6e66 da3d 00b1 0b3e b283 8dbd aa9d f93d
00000360: 6c17 56bd 42cb d6bc 66de acbd e01b d3bd
00000370: 7ee6 47bd ddb9 81bd 49c2 4fbd 77e9 953d
00000380: 2f41 963d 8fda 263e 7d0a 78bc d9d0 99bd
00000390: ccba 7ebd ba17 43bd b0b7 3ebd 4074 82bd
000003a0: c0b0 8bbd a2b6 a2bc 3976 0bbd a699 98bd
000003b0: ce4c 58bd 3e55 8b3b 6a0e 9bbd 370e 9abd
000003c0: f5ab f83d 42ea fa3c 26e2 dfbc 1154 02be
000003d0: 2061 6b3d 57fa 543d 23e4 2a3d 5dd6 f2bd
000003e0: 0fca 8bbd 06c4 4f3d 1ea6 64bd 06e7 26bc
000003f0: 48b7 143d f0d0 d63d 108f 84bd b2f3 f63c
-0.13006973 -0.12158966 0.13387917 0.013496666 -0.008212262 -0.05620925 -0.058546484 -0.08705547
-0.031590227 -0.07045763 -0.0033539005 -0.036732063 -0.1129212 0.016997453 -0.015128504 -0.03467721
-0.005773492 0.02411402 -0.06251835 -0.112196766 0.076596424 0.101070106 0.04209942 -0.036980405
0.001427498 -0.05319206 -0.053994697 0.1255562 -0.011772175 -0.07177203 -0.12423764 -0.042058423
-0.0016868558 0.09137582 0.059639372 -0.028337613 -0.046521038 0.06765978 0.023409821 0.019896964
-0.08063897 0.052403998 0.019244976 -0.08478756 0.009532856 -0.016305324 0.07853776 -0.059913203
-0.09230772 -0.079805784 0.14203222 0.13158078 -0.029387655 -0.05968016 0.032061666 -0.0020578892
-0.046094876 -0.1016416 0.049130924 -0.0061936555 0.03790376 0.10689017 0.046007037 0.015054792
-0.0670276 0.086992525 -0.07566246 -0.039726306 -0.030087523 0.023940912 0.08797494 0.044516712
-0.02800162 -0.096504524 -0.023179006 0.037598707 -0.035701778 0.10251797 0.006157625 -0.046950698
0.12988307 -0.06001552 -0.052180186 0.039194386 -0.06942786 0.118908525 -0.1034218 0.04893377
-0.095138505 -0.10603469 -0.078515954 -0.03671526 -0.10560988 -0.063738875 0.03389563 0.01576054
0.049119953 -0.08176544 -0.059342664 0.011051632 -0.040544022 -0.05748372 -0.0028880467 0.054826032
-0.009666681 -0.12185222 0.039191063 0.023415457 -0.102137364 -0.09357697 0.035485256 -0.032249995
0.0459671 -0.048645332 -0.062789544 0.08610899 0.022077184 -0.10702583 -0.16504751 -0.15273513
0.015379829 0.031049045 0.085609965 -0.099476315 0.0025829999 0.0610372 0.061702415 -0.0047440277
-0.12510537 0.02202089 0.1330254 0.045005742 0.005591693 -0.03587443 -0.017642584 0.16277805
-0.034018055 -0.04547289 -0.007912461 -0.025695482 -0.025952237 0.0147379795 -0.0008434628 -0.07296079
0.039603975 -0.100725226 -0.08723646 0.116793655 0.09343233 0.0050025345 0.05392399 -0.09407628
0.013402131 0.025838053 0.042664252 0.052857358 0.02859206 0.034178503 -0.026517693 -0.083465755
-0.055466663 0.14993128 0.045614347 -0.0357742 0.06233206 -0.06315575 0.008872846 -0.011867899
0.027825946 -0.0012295577 0.08217633 0.076376975 0.045338117 0.04739547 0.03652687 0.051809113
-0.03806085 0.099164575 -0.08673973 0.071014196 -0.08216088 0.08232 -0.08263779 0.054071732
-0.019361584 -0.050674077 0.058161296 0.09034852 0.072314106 0.0049940348 0.01749628 0.03449297
0.058492385 -0.03421225 -0.040599 -0.074146435 0.027663268 -0.0743235 -0.06790231 0.09703135
-0.0450523 -0.014771901 -0.05694778 0.009501123 -0.004884029 -0.045384128 0.010555602 -0.05191872
0.09339334 -0.043797035 -0.053244367 0.0668695 0.10664068 0.13641739 -0.069098845 0.12188275
-0.05226843 -0.026219968 -0.08440857 -0.10308051 -0.0488038 -0.06334279 -0.050722394 0.073199205
0.073366515 0.16294311 -0.015139219 -0.07510538 -0.062189862 -0.04763005 -0.046561897 -0.06369829
-0.06820822 -0.019862477 -0.034048293 -0.07451181 -0.05280762 0.004252105 -0.07571109 -0.075222425
0.12142173 0.030629281 -0.027329516 -0.12727381 0.057465672 0.051996555 0.041721474 -0.11857293
-0.06825649 0.050724052 -0.055822484 -0.010186916 0.036307603 0.104890704 -0.064725995 0.0301455

weight_hh_l0_reverse f4 [256, 64]
00000000: 969e cb3c cac9 96bd 46a8 913b c996 9a3b
00000010: c0cc 363a 13a1 a7b7 2c9b d63b 7718 183c
00000020: e6f3 2e3b a5d9 0bbd de33 533c e913 5c3c
00000030: e7de 1abb a4fc 0cbb 9f76 923c 431a 79bb
00000040: cf20 b13c 8a50 77bc c6f4 efbb c1ba c7bb
00000050: ad25 98bc aea4 64bc 8224 5dbc 71bf 94bb
00000060: 2fee 85bc 4115 d9bc 21c2 b7bc 559e 263d
00000070: 950c 863b 7361 b7bb 7f22 8ebb e179 a5bb
00000080: 0c3e b3bc ddbe b2bb 9468 ab3b 97fe babc
00000090: 727b d73a 8994 dabb 2c88 523c 2e88 dab9
000000a0: 6f07 ebbc 319d edbb 2329 b5ba 3d6b bcbb
000000b0: ae73 23bb 7142 3ebc d870 0b39 dd45 89b9
000000c0: 6df7 223c 1a90 ffbc 1ae9 6abb c9c8 893a
000000d0: 8e39 02b9 2266 1fbc 9807 563b 9f47 60bc
000000e0: 81ec 4d3c 21c4 babb 70c5 493b d936 35bb
000000f0: 52a2 6a3b f9a7 c53c 3a69 f8bc 4ade 17bd
00000100: bdb2 2b3c 69bb e03c 25c4 78bc 739d 4a3c
00000110: 3f9f 57bb 5291 55ba 2971 103c 1c45 62bc
00000120: a000 8d3a 067d dd3c 74f9 323d b83f d93b
00000130: d40e 70bc 3655 0dbd 4270 8f3c 69bf 5d3c
00000140: 5220 753c 9c38 75bb 91f0 04bb b73e 17bc
00000150: 973b 183d e5e3 59bb 7abc 8ebc 4f0c c13c
00000160: 8c43 adbc 39a1 bcbc cbfe d73b 7f7d 193d
00000170: 5344 0d3c 287e 06bc 11ae 973b cbcc 4d3c
00000180: c23a 913c a2c3 833c 624b a33c fc30 d23b
00000190: 8324 a03b f8c8 3ebc 44e1 253d 2754 2f3b
000001a0: 3f94 ffba 965f 263c a3cb 0cbd 7b69 083d
000001b0: 9bb1 493b 08cf f3bb 017e 0abc b919 02bc
000001c0: cccf 9bbd 2b1c f2bc 04cb 38bc 3df9 e6bb
000001d0: b6e1 983c 261f 433c 5aa4 003c 5a51 24bc
000001e0: 364a d5bc 63c3 603c 7e4c a2bc a480 44bb
000001f0: 9d5d 0a3c 3a9a c33c e366 7a3d c7f0 a4bc
00000200: 5b89 0c3b ec82 42ba c64e 083c 87d9 a23b
00000210: 96de ceba ff54 173a ec58 da3a f6ca ae3a
00000220: d173 a13a c2d6 bcbb 5bac c2ba 19c0 3b3b
00000230: 32dd 243b aab7 ee3b d260 1dbc 2edc de38
00000240: 8a0a d2bb e086 32bb fd2b 5bb9 218e 45bb
00000250: d36a 92bb d179 d23a 23f8 3f3b f3ea 10bc
00000260: ec7b 02bb 611c 85bb f7c4 e4ba d546 56bb
00000270: 4069 2cba 6406 8bbb 26d7 723b f18a eebb
00000280: 124a a7bb 2055 5ab9 21c3 553a d2e6 0a3b
00000290: 735b 17b9 445d d838 8b78 4cbb 64e2 70ba
000002a0: 2f2a a33b 1608 09bc 5103 e33a 0c5b 65bb
000002b0: 7c9c 473a 520e 343a 9477 bbba a507 9b3a
000002c0: b008 e33b 121a 3f3b 761b 8cba 1dc4 61bb
000002d0: a386 e8bb 8c0b 03bc c7e3 ef38 f55b 8dba
000002e0: 6e98 f73b d7cd 8d3a e512 093c 2475 a7b9
000002f0: e5f7 3f3b 122f fb39 5a95 3dbb 088a 133c
00000300: 5a70 a0bb 48c4 a53d 6f3d 7fbc 61ca 08be
00000310: 5e19 edbc 1c5d 443c ad5d 823c b5f6 07bd
00000320: 7334 d8bc 066b 8e3d a5ff cf3d 813b 8cbb
00000330: 1ff8 babc 1ded 00bd b3a5 233d bd0e 7f3d
00000340: 1a18 363d 5efa eebb 1ebb b63c 1d3e b3bc
00000350: 3adb 123d 2ccb 053c e8af 62bd 819e aa3c
00000360: 3796 76bc 62d3 053e c9f4 b8bc 758e b63d
00000370: 77a4 9e3b 6064 b8ba 95df 33bc 56d1 66bc
00000380: c086 5c3d 4c09 843c 8861 b93c ab5a 9e3b
00000390: 13ab 0e3c 7691 dcbb 4120 193d 2cb5 3f3c
000003a0: 9004 6ebc 8ae4 a03c 57d7 a3bd 0ae1 fd3d
000003b0: 7356 473c facb 8b3b 567e 87bc a132 0c3d
000003c0: 30cb cf3a f05e abbc d70b a6bc 765a 1bbd
000003d0: 6e02 bd3c 1c5b f13c e0a6 053a 4101 cabb
000003e0: 6490 47bc 30ab 3d3b 396d 40bc a0d3 1a3c
000003f0: 2828 9d3c 66bb 533c bda8 633d 08da babc
0.024855893 -0.07362707 0.0044451086 0.004717682 0.0006973259 -1.9982957e-05 0.0065492596 0.009283177
0.0026695668 -0.03414311 0.012890784 0.013432481 -0.0023631395 -0.002151289 0.017878829 -0.0038010038
0.02162209 -0.015094886 -0.0073228804 -0.006095261 -0.018572653 -0.013955278 -0.013497474 -0.004539423
-0.016348926 -0.026499392 -0.022431435 0.04067834 0.0040908554 -0.0055963336 -0.0043376083 -0.0050499295
-0.021880172 -0.0054548816 0.0052309725 -0.022826476 0.0016439988 -0.006670539 0.012849849 -0.00041681662
-0.028690068 -0.0072514047 -0.0013821464 -0.0057500885 -0.0024940777 -0.011612521 0.0001329811 -0.00026182728
0.009946686 -0.031196643 -0.0035844506 0.0010512109 -0.00012419207 -0.00972894 0.0032658335 -0.013688951
0.012568594 -0.00569965 0.0030787848 -0.00276511 0.0035802317 0.024127947 -0.030323613 -0.037077226
0.010479626 0.027433114 -0.015183483 0.01236664 -0.0032901315 -0.00081469596 0.008816042 -0.013810422
0.0010757633 0.027037155 0.04369493 0.0066299103 -0.014651973 -0.03450509 0.017509583 0.013534405
0.014961319 -0.0037417775 -0.002028499 -0.009231261 0.037166204 -0.0033247408 -0.017423857 0.02356544
-0.021150373 -0.023026096 0.006591653 0.037473198 0.008622247 -0.008208789 0.0046289046 0.0125610335
0.017728213 0.016084496 0.019933406 0.006414531 0.004887165 -0.011644594 0.040498033 0.002675304
-0.0019499137 0.010154625 -0.03437389 0.03330372 0.0030776027 -0.0074404515 -0.008452893 -0.007940703
-0.076079935 -0.029554447 -0.011278871 -0.0070487545 0.018662315 0.011909282 0.0078516845 -0.010029161
-0.026036363 0.013718459 -0.019811865 -0.0029983902 0.008445171 0.023877252 0.061133277 -0.020134343
0.0021444175 -0.00074200216 0.008319562 0.004969779 -0.0015782889 0.0005772858 0.0016658581 0.0013335634
0.0012317841 -0.005762906 -0.0014852391 0.0028648435 0.0025156257 0.007285078 -0.009605603 0.000106267966
-0.0064099478 -0.0027241036 -0.00020901854 -0.003014453 -0.004468301 0.0016058033 0.0029292188 -0.008845079
-0.001991029 -0.004062221 -0.001745372 -0.0032696028 -0.0006576963 -0.004242705 0.0037054508 -0.0072797467
-0.0051052654 -0.00020821812 0.00081543816 0.0021194709 -0.0001443455 0.00010317055 -0.003119978 -0.0009189008
0.004979394 -0.008363744 0.0017319714 -0.0034996895 0.00076145655 0.0006868589 -0.0014302605 0.001182784
0.006928526 0.0029159826 -0.0010689336 -0.0034449168 -0.007096128 -0.007998358 0.00011438835 -0.0010784852
0.007556013 0.0010818791 0.008366321 -0.0003194 0.0029292044 0.0004790952 -0.0028928132 0.009005077
-0.004896206 0.08094078 -0.015578612 -0.13358451 -0.02894276 0.01198509 0.015913809 -0.033194263
-0.026392197 0.06954007 0.10156182 -0.0042795544 -0.022823391 -0.03147613 0.039952945 0.062269915
0.04445658 -0.0072930297 0.022306021 -0.021880204 0.035853602 0.008166116 -0.05534354 0.020827534
-0.015050462 0.13068917 -0.02257766 0.0891389 0.004841383 -0.0014068 -0.010978599 -0.0140879955
0.053839445 0.016117714 0.022629514 0.004832586 0.008707779 -0.0067312075 0.037384275 0.01170091
-0.014527455 0.019640226 -0.08000057 0.123964384 0.012166607 0.0042662593 -0.016539734 0.03422797
0.0015853401 -0.020919293 -0.020269318 -0.037928067 0.023072448 0.02946239 0.00050984137 -0.0061647003
-0.0121804215 0.0028941147 -0.011744791 0.009449869 0.019184187 0.012923097 0.055580843 -0.022809044

bias_ih_l0_reverse f4 [256]
00000000: f156 84bc cc2c d13b 3c6c 5bbc f73b 0f3d
00000010: 74ae 71bd 7340 abbd 2f5c 97bd cd6a 5cbc
00000020: 52db 47bd 0ec9 e8ba bada 693c 622f 3abd
00000030: be0b fcbc 2664 213c 9a78 093c 52cf 76bc
00000040: 3dd6 f93c aae7 84bc b860 14bd ecc8 c1bb
00000050: 576e 85bc 2431 fbbb 4750 9e3b cb58 d13c
00000060: db46 a7bc 59d9 0b3d 54ac 4bbd 519c 253d
00000070: 53dc 34bd 51fd ccbc a068 2ebc b5a2 72bd
00000080: a305 e0bb b267 8dbd e038 4cbd 863a 2b3d
00000090: a709 94bd 17fa 75bd ec3f f13b 91f7 50bd
000000a0: 86e1 823c ffc4 d2bc 6049 533c 6fc0 b83b
000000b0: 307e 77bd a48b 2cbd 3e70 7abd aae0 32bd
000000c0: a540 e63c 2dde 2bbd 9543 07bd c6c8 06bd
000000d0: 1f86 06bd 3d53 46bc 03a7 43bd e3fb f1bc
000000e0: 5bad 223c 79e4 c1bc e8b8 c3bc 3aab 6dbd
000000f0: c094 67bb f5d1 1cbd 945f 683c ed6e 54bd
00000100: dc2b 22bc 4e1e a33c 442a 2ebc 015d 6f3d
00000110: 6c48 dfbc 79d7 2dbd 56ac 84bd 4b8a 52bc
00000120: a790 99bc 54f1 153c af30 083d b4c6 1dbd
00000130: 2017 79bc 1639 1f3c 5430 9d3c 173f 253c
00000140: 752c 593d e754 5dbb 90e2 7cbc e85f f83c
00000150: 64be 4f3c 86a7 a93c c758 8a3c da9f 573d
00000160: eef2 a4bb d920 323d 9243 4abd c756 703d
00000170: bb28 29bd d3c9 a5bc 4193 153c caf2 73bd
00000180: 6c74 c23c adae fbbc 6c37 56bd d82d 733d
00000190: 4530 58bd 19b7 2dbd 7c94 913c dd60 1abd
000001a0: a695 0e3d 49b6 8e39 4868 f53c 2ff4 5d3c
000001b0: 4fcd 05bd 4d68 2bbd 4cee b1bc b4c6 3abd
000001c0: a9f9 613d 7e78 1cbd 8459 5abd 24fe 9cbc
000001d0: ceab d6bc 8d58 6aba f8e2 2bbd 0099 48bc
000001e0: 8d9b 893c 2277 83bc 650d 3abb 808c 0fbd
000001f0: 6e21 d8bb 31ba 0abd 3b69 413c 1237 38bd
00000200: 45b6 9d3c 7ca7 843c bddc 23bc 6543 ebbc
00000210: 7771 0e3b ca27 223b d73a 203c 819a c9bc
00000220: c3a0 f43b c06e 823c 8aab cf3b 9c83 8abb
00000230: a4c0 a0bc ca7e 8bbc a59a c13c 9f2d 22bb
00000240: bcd8 313d fe18 a43b e818 d1bc 819f 3d3c
00000250: 2b47 9b3c ed3f 693c 7dca 0dbc 2ab3 533d
00000260: bb27 7dbc b996 073d f084 143d 4feb 043d
00000270: d5e4 033c 8ef3 37bc 0e83 35bb 0eea 1a3c
00000280: 2b29 903b 9c9b 423b 1d07 363b 31f8 09bd
00000290: 6525 92b9 adab 5a39 5c50 1d3d 344d 5fb8
000002a0: 0dff 2abc 57fd a03c 7d69 d4bc 4ed3 963c
000002b0: b485 563c 5e6e afbc e4a7 abbb 9e8f cfbc
000002c0: c5aa f9bc 471e bdbc 9f62 46bc 6481 d6bb
000002d0: faef dc3c 66e8 383c ee26 d83c ac7d 4e3b
000002e0: 041b 633c 9957 83ba ab85 cbbc b014 95bc
000002f0: 6055 3b3c 8136 853c ec26 863c 6d94 acbc
00000300: 838e 84bc ebfc cc3b 8e3e 53bc 2587 163d
00000310: d62a 72bd 7d30 abbd a4f9 96bd 8e15 5cbc
00000320: 1fdd 46bd f772 d7ba 991e 703c b05f 39bd
00000330: d50a febc 4309 1c3c 8f6e 0f3c 7296 73bc
00000340: 1956 f43c 9b6f 87bc dfb7 11bd 1cab c3bb
00000350: f0be 8cbc 8af8 efbb 3f28 a13b bd84 d63c
00000360: 255a a6bc cd9b 0f3d 9027 4bbd 779c 293d
00000370: da8c 33bd 15e0 cebc c84f 30bc 1c2c 72bd
00000380: fc62 dcbb 2e02 8ebd a9ae 4abd 953b 303d
00000390: 50cc 95bd 73ea 74bd 20b7 ca3b 3215 53bd
000003a0: 99b8 8b3c 35d0 d4bc 91f2 5b3c 19d9 ca3b
000003b0: 1e06 78bd 883e 2cbd d9dd 7abd acc8 33bd
000003c0: 1a6b ea3c cf88 2dbd 4d9f 08bd bfda 05bd
000003d0: f917 06bd d672 46bc bdc3 42bd 12d2 f3bc
000003e0: 439c 203c 50bb c1bc f661 c2bc 1275 6dbd
000003f0: 4e03 63bb c7fd 1cbd d46f 673c 9868 53bd
-0.016154738 0.006383514 -0.013392504 0.034969296 -0.059004262 -0.08361902 -0.073906295 -0.013453198
-0.048793145 -0.0017760114 0.01427334 -0.045455344 -0.030767318 0.009850537 0.00839057 -0.015064077
0.030497665 -0.016223747 -0.03622505 -0.0059138443 -0.016287966 -0.00766577 0.004831347 0.025555035
-0.020419529 0.034142826 -0.04972489 0.040432278 -0.04415543 -0.025023134 -0.010645062 -0.0592372
-0.0068366094 -0.06904544 -0.049858928 0.04180386 -0.072284035 -0.060052957 0.0073623564 -0.051017348
0.015976679 -0.0257287 0.012895912 0.0056381742 -0.060423076 -0.04212536 -0.0611422 -0.043671288
0.028106997 -0.04195993 -0.033023436 -0.032906316 -0.03284275 -0.0121048065 -0.047766697 -0.029539054
0.0099290265 -0.023668515 -0.023891881 -0.058024622 -0.0035336465 -0.038286168 0.014182944 -0.0518636
-0.009898152 0.019911911 -0.010630194 0.058438305 -0.027256213 -0.04244182 -0.06478183 -0.012850354
-0.018745733 0.009151775 0.033249553 -0.038519576 -0.015203267 0.0097182 0.019188084 0.010085843
0.053020913 -0.003377253 -0.015434876 0.03031917 0.01267967 0.020709764 0.016888035 0.05264268
-0.0050338423 0.043488357 -0.049380846 0.058676507 -0.04129861 -0.020237839 0.009129346 -0.059557714
0.023737155 -0.03072294 -0.05229895 0.059369892 -0.05278041 -0.042410944 0.017770998 -0.037690032
0.034810685 0.00027220164 0.029956952 0.013546987 -0.0326665 -0.041847516 -0.021720074 -0.045599654
0.055169735 -0.038200848 -0.053308025 -0.019164152 -0.02620497 -0.00089395867 -0.0419645 -0.012243509
0.016797805 -0.016048018 -0.0028389331 -0.0350461 -0.006595782 -0.033868972 0.011804874 -0.044974394
0.019251952 0.016193144 -0.010001359 -0.02871866 0.002173511 0.0024742954 0.0097796535 -0.024609806
0.0074654534 0.01592195 0.0063375877 -0.004227115 -0.019623108 -0.017028231 0.02363331 -0.002474643
0.043419585 0.005007862 -0.025524572 0.011573673 0.018954834 0.0142364325 -0.008654234 0.051684536
-0.015451367 0.033102725 0.03625959 0.03245097 0.008050163 -0.011227502 -0.0027696523 0.009455217
0.004399439 0.0029694801 0.0027775236 -0.03368396 -0.0002787515 0.00020854054 0.038406715 -5.3239244e-05
-0.010436785 0.019652052 -0.025929207 0.018411305 0.013093401 -0.021414932 -0.00523852 -0.025337037
-0.030476937 -0.023085726 -0.012108474 -0.0065461863 0.026969898 0.011285877 0.02638575 0.0031508012
0.0138614215 -0.0010020613 -0.024844011 -0.018198341 0.011433929 0.016261341 0.016375981 -0.021066869
-0.016181236 0.006255736 -0.012893332 0.036749978 -0.059122883 -0.08358858 -0.07371834 -0.013432873
-0.04855072 -0.001643746 0.014655733 -0.04525727 -0.031011024 0.009523693 0.008754387 -0.014867412
0.02982621 -0.01653271 -0.035575744 -0.0059713256 -0.01718089 -0.0073233293 0.004918128 0.026186341
-0.020306656 0.035060693 -0.049598277 0.041408982 -0.0438355 -0.025253335 -0.010761209 -0.059124097
-0.006725667 -0.069340095 -0.049482975 0.04302557 -0.0731436 -0.0597939 0.006186381 -0.051533885
0.017055796 -0.025978187 0.013424532 0.006190431 -0.06055271 -0.042051822 -0.061246727 -0.043892547
0.028615523 -0.0423668 -0.033355046 -0.032679316 -0.032737706 -0.01211234 -0.04754995 -0.029763255
0.009802881 -0.023648888 -0.023728352 -0.057972975 -0.003463942 -0.03832796 0.014125783 -0.05161342
