CNP-model-save-name/saved_models/model_16000.pth (torch, 551172 bytes, 26 tensors)

weight f4 [128, 2]
00000000: fc6c cdbc 4b20 f9bc 61a3 163f 66d3 023f
00000010: 864a 1cbe 5494 843d 91ff a4be c4ca 213f
00000020: 345d 0500 e959 eda1 e948 17bf fd99 8a3e
00000030: 412e 68bc 310f eabc 82dd b13e 84e3 00bd
00000040: 0e75 c7bc 7968 cebc f942 b8bc d8d3 cbbc
00000050: dac5 39bd c1f8 ad3e e35f 0580 a699 1ea7
00000060: b478 f2bc 8243 fabc 7d45 f13e 8b46 d0bd
00000070: a967 933e a12f 71bd 69a2 293f 2640 eb3e
00000080: 3725 b6be a4e6 bb3c 2765 e7bc 6a5f 08bd
00000090: c833 02bd 7c69 0cbd 0ffd 60bc a613 6bbc
000000a0: b996 c83d 6c4d 2a3f f11e 14bf 44e2 a13e
000000b0: 4b57 0500 4541 dea8 cc7b 2abe b4a2 083f
000000c0: 5931 fb9d 0471 37b9 7006 9fbe 7b95 b33b
000000d0: 06db f8bd 25c6 453e 9453 403e 15db 42bd
000000e0: 0a6d 5e30 0749 d7ba 10b9 583b 4172 f8bc
000000f0: 3958 e0bc a5a6 ecbc 9c52 cc3e 0884 7a3e
00000100: 77e9 fbbc 889a 0fbd 9061 0500 cdaf 9a9c
00000110: 5108 77be 9ea5 873c 7698 47bc 108f e2bc
00000120: c4e1 c8bb ea17 8ebc 411a 18bf 4a54 813e
00000130: 36ff 5cbb 7568 81bb f4e7 5fbf 905f 613e
00000140: 7c3c c33d 6c2e 803e 928a 08be 75c8 233f
00000150: 41fa b63e a42b f33d 3a49 193b 0031 3fbb
00000160: 10bd d0bc 9b18 d8bc 34a9 06be dfd4 acbc
00000170: dc24 e5be ba58 013d ab79 b427 ad84 5db9
00000180: 8b91 8b3e 654a fc3e 9435 e43d 00fd 553e
00000190: bc95 b33e e7ce 293f cde5 21bf 076c 9b3e
000001a0: 3d96 b8bc d91e dabc 4d16 cdbe 08bd 013f
000001b0: d883 e2bc 417e 05bd ab40 35be 6824 b23e
000001c0: a67b b8be 0487 173f 808e 183e 8ce7 f8bc
000001d0: fb00 a4bc 0cc4 b3bc 249e 153f 8070 5bbd
000001e0: c71f f2bc 805e f3bc efb9 e73d 39a1 283f
000001f0: cea2 843e e41c 58bd 08b8 2e30 dec5 90ba
00000200: 9532 943e 00af 2b3f a1ea d1bc a45a cebc
00000210: b758 62b9 4e95 4537 b7d3 e0bc 2489 ebbc
00000220: d569 09bf 1283 163d fb22 d2be 8745 7c3e
00000230: a5e0 83b1 ca47 72bb 7b13 678d 0b77 9db4
00000240: 6bdb 2cbf 7d0c e83e a428 3ebb 1000 b9bc
00000250: 966a 92be 2601 953e 34cc 00bf 2c2e f33d
00000260: 9e89 8ebc 9e26 89bc df02 48be fef3 523c
00000270: b99d afbc bc2d b9bc 6398 cfbe 8279 433e
00000280: 4682 97b9 421f a4b9 554c 9e3e 060e 85bd
00000290: c431 2db9 5003 f1b7 5307 dfbe bd1e d13e
000002a0: 4763 8abb 2f8c c4bc 7a82 debc 643b edbc
000002b0: 0469 bdbe d01f 473c 4aad 70bc 44ff 8fbc
000002c0: 77de 0abf f8e0 a13e 2a51 3e3e 7f71 1dbd
000002d0: 6c01 07bf 27a0 123d 93c2 3ebf 6612 4f3d
000002e0: 2b57 f8bd 5b0b 0c3f cc7e ff3e 3219 003f
000002f0: f6e9 85be 310e 923e e36f 98be c1da 923e
00000300: 1fc8 aabc 0d7c 9cbc 2dcb 7dbe 6f53 c13e
00000310: 77a5 f0bb 6a6a 01bc c8e4 283e 9ed2 b83e
00000320: a409 f2bc cc68 eb3e ad14 ffbc 4b60 01bd
00000330: 4ede 7c3c f23c 353f 812f a0bc f9c1 a9bc
00000340: 40e5 c9be d1bd 0b3f 9124 fbbc b64e 0abd
00000350: 4468 843e 8b67 e43d 2b1b 193d 3d66 143f
00000360: da00 b73e 0c2e 05bd 22ce b3bc b31a bbbc
00000370: db7e 17be b373 d53e 9059 0d2c 46a6 aab9
00000380: f0d5 a537 3aaf 17bc 21f7 e9b7 29ab 78bc
00000390: de01 25bf 6bec e23d 9133 3b3a 1de4 26b9
000003a0: 9158 0500 2008 15b4 d3cb 16bf a41d 063f
000003b0: 4ec3 b53e 424d 95bd 6da5 65bc 7cd9 c0bc
000003c0: d66a 9a3d 5fed 7dbc 6a06 af3e 9836 673e
000003d0: 2475 0680 0907 13ad 53d5 c2bc 7727 04bd
000003e0: c0f4 71bc b356 7cbc f59b 08b0 b81b 74bb
000003f0: e29f 98bb 8c52 ebbb 89f6 5ebe e260 b83e
-0.025076382 -0.030410906 0.58843046 0.5110382 -0.15262803 0.06473604 -0.32226232 0.6320002
4.92612e-40 -1.6083544e-18 -0.5909563 0.2707061 -0.014171184 -0.028571697 0.3473931 -0.031466976
-0.024347808 -0.0251963 -0.022492873 -0.024881288 -0.0453547 0.33978847 -4.93575e-40 -2.2010198e-15
-0.029598571 -0.030549768 0.47123328 -0.10169705 0.28790024 -0.058883313 0.66263443 0.4594738
-0.35575268 0.022937126 -0.028246475 -0.03329412 -0.031787664 -0.034280285 -0.013732209 -0.014347946
0.09794373 0.66524386 -0.5785971 0.3161794 4.90492e-40 -2.4675257e-14 -0.16648787 0.53373265
-6.649017e-21 -0.00017494342 -0.310596 0.005480466 -0.121511504 0.19313867 0.18781883 -0.047572214
8.0918083e-10 -0.0016424962 0.003306929 -0.030327918 -0.027385818 -0.028888056 0.39906776 0.24464428
-0.030750973 -0.03505948 4.94176e-40 -1.0236309e-21 -0.24124266 0.016558465 -0.012182346 -0.027656108
-0.006130429 -0.017345387 -0.5941506 0.2525962 -0.0033721454 -0.00394922 -0.8746331 0.2200911
0.09533021 0.25035417 -0.1333411 0.6397775 0.35737804 0.11873558 0.0023389594 -0.0029173493
-0.025480777 -0.02637892 -0.13150483 -0.021097599 -0.44754684 0.031578757 5.009195e-15 -0.00021125628
0.27259478 0.4927551 0.11143032 0.20897293 0.35075176 0.6633133 -0.63241273 0.30355856
-0.022532577 -0.026626037 -0.40056077 0.50679064 -0.027650759 -0.03259111 -0.1770045 0.347934
-0.36031836 0.5919039 0.1489811 -0.030383848 -0.020019999 -0.021944068 0.5844443 -0.053574085
-0.029556168 -0.029708147 0.11314761 0.65871006 0.2590546 -0.052761927 6.3562355e-10 -0.0011045297
0.2894484 0.67063904 -0.025624575 -0.025189705 -0.00021586088 1.1776878e-05 -0.027444704 -0.028751917
-0.5367711 0.036746092 -0.41042313 0.24635898 -3.838141e-09 -0.003696906 -7.120582e-31 -2.9330144e-07
-0.67522305 0.45322028 -0.0029015923 -0.022583038 -0.28596944 0.2910244 -0.5031159 0.11874041
-0.017399605 -0.016742047 -0.19532345 0.012875555 -0.021437513 -0.022604816 -0.4054595 0.1908932
-0.00028898026 -0.00031303806 0.30917612 -0.064968154 -0.00016517105 -2.8730981e-05 -0.43560275 0.40843764
-0.0042232606 -0.023992626 -0.027161825 -0.028958984 -0.36994183 0.012153581 -0.014689753 -0.017577775
-0.54245704 0.3161695 0.18585649 -0.038438316 -0.52736545 0.035797264 -0.74515647 0.050554655
-0.12126001 0.5470483 0.49901426 0.50038445 -0.2615506 0.28526452 -0.29772863 0.2868252
-0.020847378 -0.01910212 -0.24784537 0.37758967 -0.0073439437 -0.007898906 0.16493523 0.36098188
-0.029545613 0.4597839 -0.031137789 -0.031585973 0.015433861 0.7079612 -0.019553902 -0.020722376
-0.39432716 0.5458651 -0.030657085 -0.03376647 0.25860798 0.11152562 0.037379425 0.57968503
0.35742837 -0.032514617 -0.021948878 -0.02283988 -0.14794485 0.41689834 2.0087022e-12 -0.0003254881
1.9769155e-05 -0.009258086 -2.7890843e-05 -0.0151775265 -0.64455974 0.110802494 0.0007141168 -0.00015915972
4.90949e-40 -1.3879662e-07 -0.5890476 0.5238898 0.35500568 -0.072901264 -0.014016491 -0.023541205
0.075399086 -0.015498488 0.3418458 0.2257942 -5.93035e-40 -8.357545e-12 -0.023783362 -0.0322642
-0.014767826 -0.01540153 -4.969814e-10 -0.0037247967 -0.0046577314 -0.007181471 -0.21773733 0.36011416

bias f4 [128]
00000000: 6d5a 0500 a092 e2bd 50d5 fbbe d80a bebe
00000010: 6558 0500 e0da 953e 8863 0500 fa09 093c
00000020: cdfd 74b0 4b5e dbaa 034c 1ebf 025d 0580
00000030: 1ff3 c6b1 df45 581f 7132 d43e e938 163f
00000040: 5183 29a5 9562 0500 70ae 8f9d 5c45 0b25
00000050: 8c39 2fbf f821 22bf 235b 0580 0a51 19be
00000060: 166c 0580 2091 13ba eeab 8bbe e059 0500
00000070: b061 0500 8463 0500 d460 0cb0 0dfc 00bf
00000080: 9fe2 4702 ee6a 0580 b6d5 cabe 2963 0500
00000090: 3e61 0580 e138 c8be 477b 32b9 329e 2bbf
000000a0: e482 853e d594 b43e afbe 28bf 991b dfad
000000b0: be8d 95b5 1d36 f6ad 6ca7 0c3e 395d 0580
000000c0: b0d3 f4bd c3fe 3cbf f8c1 213f d6ba 1fbe
000000d0: 085d 0500 99ae 7dbe 315d 0500 6891 2ebf
000000e0: 56fd e9be e6a1 a0bd dfaa 3487 efbf a03e
000000f0: 58ba 06bc 454a 3dbe 0eab 73be c861 0500
00000100: f97c 84be 207b 47bc 8136 0bb6 7ce9 1c91
00000110: fd60 d73c 524a a83e a857 0500 0065 0500
00000120: a6e8 cbbe 8d5a 0500 ec18 033f 14fe 2a3e
00000130: edbd 38b9 453b 68b2 2dec 80a5 728c 32bf
00000140: 73c4 01b9 d24f 2532 6457 18b4 a694 31bf
00000150: 7a5c 0500 2903 a3a6 f2b7 2ea6 ca5f 0580
00000160: ba01 143e 5e19 3d3d 377c ac3e c588 793b
00000170: 6b93 07bf 8e21 2bbf 42a6 fe3e bc98 48bd
00000180: 0a93 03bc cbe9 65be 4b2a e5b7 b88e 34be
00000190: 76d4 d33e d615 03b8 f73f 0ebf ab4a 42b6
000001a0: bc96 843e e9c1 1c96 19b7 5f3e c14e d23e
000001b0: d8c3 9bbe e2fc bdab 4fd3 b8be 255f 0580
000001c0: 1061 0500 eb5e 0500 73b4 3fbf b1a8 18b9
000001d0: b660 0500 4805 f4be 07ae 0f3b 3d63 0500
000001e0: 0de3 173b 8786 ffbd 33a3 0580 8958 0500
000001f0: ddb6 20b5 63f7 1610 535d 0580 f72a f83e
4.91616e-40 -0.11063123 -0.49186182 -0.37117648 4.90887e-40 0.2926855 4.94883e-40 0.008364195
-8.9127355e-10 -3.8967644e-13 -0.61834735 -4.92542e-40 -5.790198e-09 4.5797575e-20 0.41444734 0.5868059
-1.4702905e-16 4.94542e-40 -3.803215e-21 1.2079828e-16 -0.68447185 -0.6333308 -4.91871e-40 -0.1497232
-4.97951e-40 -0.000562923 -0.2727961 4.91419e-40 4.94221e-40 4.94877e-40 -5.1069304e-10 -0.503846
1.4685248e-37 -4.97537e-40 -0.39616174 4.9475e-40 -4.94061e-40 -0.39105895 -0.00017021327 -0.6703826
0.26076424 0.352698 -0.6591596 -2.536442e-11 -1.1142617e-06 -2.7990993e-11 0.13735741 -4.9262e-40
-0.11954439 -0.73826236 0.631866 -0.15598616 4.92551e-40 -0.24773635 4.92608e-40 -0.6819062
-0.45701092 -0.0784338 -1.3591909e-34 0.31396434 -0.008223139 -0.18485363 -0.23795721 4.94255e-40
-0.25876597 -0.012175351 -2.074434e-06 -1.2378178e-28 0.026291365 0.32869202 4.90623e-40 4.9541e-40
-0.39825934 4.91661e-40 0.512099 0.16698486 -0.0001761836 -1.3517654e-08 -2.23645e-16 -0.6974555
-0.00012375582 9.622413e-09 -1.4187896e-07 -0.69367445 4.92352e-40 -1.1311254e-15 -6.061767e-16 -4.9354e-40
0.14453784 0.04616677 0.33688518 0.0038075906 -0.52959317 -0.66848075 0.4973622 -0.048973784
-0.008030662 -0.22452466 -2.7318622e-05 -0.17632568 0.41373032 -3.125317e-05 -0.5556635 -2.8951715e-06
0.2589625 -1.2662767e-25 0.2184719 0.4107571 -0.30422854 -1.3499447e-12 -0.36098716 -4.93309e-40
4.93997e-40 4.93228e-40 -0.7488472 -0.00014558692 4.93871e-40 -0.4766028 0.0021923797 4.94777e-40
0.0023176104 -0.12476831 -5.17722e-40 4.90938e-40 -5.9870746e-07 2.9772864e-29 -4.92656e-40 0.4847028

weight f4 [128, 128]
00000000: a88c 0580 521f d6bc 42d9 b5bb a88f d5bc
00000010: 018c 0500 25bf 9bbc ce57 0600 cbe5 13bb
00000020: 8194 0500 6284 0580 0dbd babc 6d79 0580
00000030: 9525 0600 235c 0500 5f74 98bb 804e d1bc
00000040: 5073 0500 f37e 0580 8a5f 0580 8e6f 0500
00000050: a82e dabc 20be a6bc 0d72 0500 be06 cfbc
00000060: 4f83 0500 ff57 0500 1084 90bc f163 0500
00000070: daad 0500 bf6f 0500 7d59 0580 9fe7 b2bc
00000080: 2696 0500 bc60 0580 4462 e3bb af9c 0600
00000090: 1b9d 0580 90f6 87bc b185 0500 de7b 9dbc
000000a0: e5e1 aebc f67b d7bc 97cd 93bc 3865 0500
000000b0: 6864 0580 f97c 0580 c25b debb d462 0580
000000c0: 5318 d0bc 6fde a3bc 9519 dcbc a863 a9bc
000000d0: ea1b 0680 b97c cfbc c60d 0680 40cc bfbc
000000e0: 2b3b d1bc ddae 9bb4 a15f 0580 dd7e 4ebb
000000f0: a985 0580 61b5 dabc d689 3fb8 cc65 0500
00000100: f114 dcbc 14ac 0680 1774 0500 ecd9 0500
00000110: 3260 0500 93cc 97bc f483 0500 6264 0500
00000120: 3104 bcbc 98a9 0500 8972 b7bc 3e34 46bc
00000130: 05a5 0500 3792 0500 c07d 0600 2d77 73bc
00000140: edb3 0500 1c5f 0500 d2fd 0500 b5bd bbbc
00000150: 9a79 0500 26aa 0500 8369 0580 2ad1 0500
00000160: 1c4d 9fbc 585c 0500 25cb 16b9 d15f 0500
00000170: 3ad5 cfbc 4d03 d3bc 4da0 acbc 9db8 a6bc
00000180: 9672 0500 41dc bbbc c4e9 0580 ae94 c4bc
00000190: 5e56 c9bc c761 0580 0f94 dbbc 6574 0580
000001a0: 7778 cdbc 8d4f 0600 897b 7fbc a8df d4bc
000001b0: 8472 d1bb b482 0500 5686 c2bc f15c 0500
000001c0: deb9 0580 7068 0680 5213 c8bb 3978 0580
000001d0: cfbc 0580 397f c8bc cf5b 0580 da57 0580
000001e0: a157 0500 14f4 b0bc 12af 0500 c066 0580
000001f0: 7a65 0580 de96 0580 4f87 0500 06a9 c2bc
00000200: 9da3 0580 7939 0b99 0230 3810 5e88 739b
00000210: 8492 0680 804b 0111 c724 0680 7949 8f8f
00000220: e166 0500 2da0 0500 2d1e 3891 897c 0500
00000230: 4a87 0580 d25d 0500 1e5e 0500 3aa3 4297
00000240: ca62 0500 c3c6 0580 4489 0500 396e 0500
00000250: bb99 901f 118d 0e91 d170 0580 a497 4a16
00000260: 5d5a 0580 2758 0500 e352 e290 ef8a 0600
00000270: 4225 0680 9887 0580 c457 0580 72ec 3f11
00000280: 0498 0500 6eb6 0580 eaad c38b 1064 0600
00000290: 26af 0500 32e9 e390 718a 0500 6160 0d8e
000002a0: 3a30 1e91 56ff 1c1a 988f ea90 2e8c 0680
000002b0: 2084 0500 0f62 0580 9705 9b8a 94c8 0580
000002c0: 110a 8716 68cb 188f 9e3c 3da3 ebd2 0e11
000002d0: 3e6d 0680 4d82 fd94 4568 0580 8048 8311
000002e0: cf4f 3198 e05d 0580 7149 0680 df96 0c10
000002f0: d773 0680 5cb5 bf9f b15f 0500 cc5e 0580
00000300: 86d0 2ea3 71d7 0500 186e 0580 a57e 0580
00000310: 3b57 0500 471b 6710 e67d 0680 f56a 0500
00000320: 3c13 9211 fc6f 0580 3ac1 2810 2cec 2590
00000330: 7771 0580 f359 0580 666d 0500 cb47 7090
00000340: 82d1 0600 db59 0500 018e 0580 e393 3890
00000350: 467a 0500 31ef 0580 f85a 0580 af3f 0600
00000360: ada4 9510 205a 0580 5a5b 0500 7858 0580
00000370: cbd2 1f15 99d4 9418 75b0 2a11 5ef7 2591
00000380: 22ce 0580 2d4d 5c91 b6e7 0500 cad1 c30e
00000390: 9a62 1693 15ac 0500 e7e2 22a3 c56e 0580
000003a0: 9248 0d95 318e 0500 a9a9 010c f470 9919
000003b0: 42c0 b50f 7082 0580 5950 a111 2d75 0500
000003c0: 8a68 0580 c599 0500 d439 ec8f 9d58 0500
000003d0: e289 0580 bd43 1493 fb62 0580 088b 0600
000003e0: 695f 0500 11ca 3b90 4b71 0500 0acc 0600
000003f0: fb72 0580 33ba 0500 e660 0580 146a 2411
-5.09635e-40 -0.026137982 -0.005549581 -0.026069477 5.09401e-40 -0.019012043 5.82511e-40 -0.0022567387
5.1245e-40 -5.06667e-40 -0.022795225 -5.02737e-40 5.64495e-40 4.9223e-40 -0.0046525444 -0.025550127
5.00544e-40 -5.04718e-40 -4.9345e-40 4.99196e-40 -0.026633576 -0.02035433 5.00091e-40 -0.02527177
5.06282e-40 4.90745e-40 -0.017641097 4.9503e-40 5.21544e-40 4.99264e-40 -4.9128e-40 -0.021838961
5.1304e-40 -4.93879e-40 -0.0069392044 6.0722e-40 -5.15536e-40 -0.016597062 5.07137e-40 -0.019224104
-0.02134795 -0.026304226 -0.018042369 4.95488e-40 -4.95196e-40 -5.04009e-40 -0.0067858407 -4.9463e-40
-0.025402224 -0.020003526 -0.026867667 -0.020677403 -5.61027e-40 -0.025328027 -5.55954e-40 -0.023412824
-0.025540909 -2.899823e-07 -4.93483e-40 -0.0031508722 -5.07126e-40 -0.026697816 -4.566632e-05 4.95695e-40
-0.026865454 -6.12743e-40 5.00823e-40 5.37353e-40 4.93686e-40 -0.018530166 5.06513e-40 4.95188e-40
-0.022951217 5.20016e-40 -0.022393482 -0.012097416 5.18375e-40 5.1163e-40 5.96124e-40 -0.014859957
5.23723e-40 4.93296e-40 5.50231e-40 -0.022917608 5.028e-40 5.20215e-40 -4.97028e-40 5.34211e-40
-0.019445948 4.92304e-40 -0.00014380792 4.9355e-40 -0.025370229 -0.02575841 -0.021072531 -0.020351702
5.00283e-40 -0.022932174 -5.43037e-40 -0.023996677 -0.024577316 -4.94253e-40 -0.026803998 -5.00932e-40
-0.025081856 5.7955e-40 -0.015593418 -0.025985554 -0.006391825 5.06065e-40 -0.023745697 4.92519e-40
-5.25854e-40 -5.88478e-40 -0.006105819 -5.02305e-40 -5.26909e-40 -0.024474727 -4.92112e-40 -4.90693e-40
4.90613e-40 -0.02160076 5.21981e-40 -4.96037e-40 -4.9558e-40 -5.13298e-40 5.07717e-40 -0.023762237
-5.17871e-40 -7.197738e-24 3.6324586e-29 -2.0144551e-22 -6.03573e-40 1.0199571e-28 -5.64206e-40 -1.412919e-29
4.96083e-40 5.16638e-40 -1.4524339e-28 5.03852e-40 -5.0771e-40 4.92834e-40 4.9294e-40 -6.28908e-25
4.94616e-40 -5.3048e-40 5.08419e-40 4.98718e-40 6.12407e-20 -1.1245294e-28 -4.99648e-40 1.636528e-25
-4.91594e-40 4.908e-40 -8.926899e-29 6.00853e-40 -5.64379e-40 -5.0782e-40 -4.90662e-40 1.5140104e-28
5.1371e-40 -5.24621e-40 -7.5372945e-32 5.86909e-40 5.22009e-40 -8.989501e-29 5.08841e-40 -1.7425997e-30
-1.2478863e-28 3.2466303e-23 -9.251797e-29 -6.013e-40 5.06575e-40 -4.94354e-40 -1.492806e-32 -5.31131e-40
2.181678e-25 -7.533353e-30 -1.0258547e-17 1.1266819e-28 -5.90202e-40 -2.5597866e-26 -4.96582e-40 2.0712837e-28
-2.2917007e-24 -4.92853e-40 -5.77359e-40 2.772636e-29 -5.92568e-40 -8.119168e-20 4.93505e-40 -4.93184e-40
-9.4767155e-18 5.36463e-40 -4.98672e-40 -5.04609e-40 4.9047e-40 4.557773e-29 -5.96177e-40 4.97546e-40
2.3046593e-28 -4.9935e-40 3.3281014e-29 -3.2722453e-29 -4.99881e-40 -4.91445e-40 4.98422e-40 -4.7386962e-29
6.2617e-40 4.91412e-40 -5.10119e-40 -3.640153e-29 5.03041e-40 -5.44983e-40 -4.91811e-40 5.73858e-40
5.902386e-29 -4.91508e-40 4.91948e-40 -4.90914e-40 3.227608e-26 3.8471772e-24 1.346501e-28 -1.3092431e-28
-5.33124e-40 -1.7378722e-28 5.423e-40 4.827323e-30 -1.8981276e-27 5.20909e-40 -8.830086e-18 -4.98914e-40
-2.853197e-26 5.10186e-40 9.988854e-32 1.586545e-23 1.7922033e-29 -5.0597e-40 2.545084e-28 5.01212e-40
-4.96679e-40 5.1434e-40 -2.3293671e-29 4.90966e-40 -5.0864e-40 -1.8713624e-27 -4.94685e-40 6.00888e-40
4.93404e-40 -3.7034914e-29 4.9982e-40 6.24208e-40 -5.00425e-40 5.25973e-40 -4.93938e-40 1.2970007e-28

bias f4 [128]
00000000: ac5a 0500 a9f5 5f0c 929a da3c 36c7 0738
00000010: 6220 d7ba 60fc 9c35 ee13 4fa2 8361 0580
00000020: f548 13a9 4e8a 883b 2192 c2ac 443d e412
00000030: d311 ce3d 8f86 70b3 b05e 0500 919e 9bbc
00000040: 31a2 cbbb f757 0500 575d 0500 fe81 a2bc
00000050: b43e 9bbb edc5 eda5 2dc1 f6a9 5cb5 0ab8
00000060: 094f 20bd de5c 0500 85e2 930a 2051 53bd
00000070: ec63 0500 de54 8fb2 7657 0580 ed18 8c02
00000080: a562 0580 8f57 0500 7b14 3cbc b562 0500
00000090: d257 0500 a20c dbbc 0fca 5a9c 052d 1fbd
000000a0: 9d98 3fa2 cef3 0590 f094 0207 9762 0500
000000b0: b51b a238 2592 64bc 3fa7 383d 5162 0500
000000c0: e85f 0500 088a f4bb 1b88 0000 3c7f f7bb
000000d0: 7c5c 0580 ce57 083d 44a1 68b0 1ce1 8bbd
000000e0: 2258 0500 6d5d 0500 0263 0500 3f35 e716
000000f0: 4f4f 30a1 0860 0580 795a 0500 9c07 a0bc
00000100: 8c95 a528 155a 0500 89e7 ea3c 1628 67bd
00000110: a759 0500 6f58 0580 4263 0500 42e4 891f
00000120: 28c2 48b8 0b1b 24bd b5cc 5e3c 5259 0500
00000130: 7f63 0580 a2f1 1f3c 8759 0500 4447 d03a
00000140: d016 dfbb 675a 0500 a1d5 2d2a bead ff3d
00000150: d05f 0500 e2e2 f03c a758 0500 9b7b 8a3d
00000160: a751 6cbc ce14 d8bc 7463 0500 4cce e23b
00000170: 7558 0580 1277 8c3d 655d 0500 144c bb14
00000180: d4c8 233d e349 0cbc f942 b3bc b65e 0500
00000190: 165d 0580 e66b b5bd ba11 93bc 88a6 a03c
000001a0: 880f edaa 3e57 0500 4b62 0580 ca44 83bd
000001b0: 78c3 31bd c989 03bd c015 52aa f158 0500
000001c0: c907 253d 405f 0580 8845 5ebb 5058 0500
000001d0: 2c5b 0500 a9f8 8b3c 7fd9 433c 5b68 0b3a
000001e0: b905 3bba 6650 64bb 755a 0500 9a5c 0500
000001f0: 9257 0500 5d75 afbc d2cc 8fb7 b251 3d05
4.91704e-40 1.7253221e-31 0.026685033 3.2372038e-05 -0.0016412849 1.1696357e-06 -2.8064282e-18 -4.94158e-40
-3.2703837e-14 0.004166878 -5.530035e-12 1.4403926e-27 0.100619934 -5.6001735e-08 4.93145e-40 -0.018996509
-0.006214403 4.90733e-40 4.92662e-40 -0.019837376 -0.0047376994 -4.1247066e-16 -1.0958105e-13 -3.3070668e-05
-0.039137874 4.92492e-40 1.4240792e-32 -0.05159104 4.95023e-40 -1.6685984e-08 -4.90553e-40 2.0585458e-37
-4.94564e-40 4.90588e-40 -0.011479492 4.94587e-40 4.90681e-40 -0.026739422 -7.2391304e-22 -0.038861293
-2.596612e-18 -2.6417445e-29 9.823882e-35 4.94545e-40 7.729923e-05 -0.013950859 0.045081373 4.94447e-40
4.93582e-40 -0.0074627437 4.8825e-41 -0.0075530093 -4.92355e-40 0.033286862 -8.463028e-10 -0.068300456
4.90794e-40 4.92692e-40 4.94695e-40 3.7353666e-25 -5.9736084e-19 -4.93627e-40 4.91633e-40 -0.019534878
1.8383536e-14 4.91493e-40 0.028674858 -0.056434713 4.91339e-40 -4.90901e-40 4.94784e-40 5.839938e-20
-4.7864538e-05 -0.040064853 0.013598611 4.9122e-40 -4.9487e-40 0.0097622 4.91294e-40 0.001589038
-0.0068081394 4.91608e-40 1.5439604e-13 0.124843106 4.93549e-40 0.029405061 4.9098e-40 0.06761857
-0.014423764 -0.026377108 4.94855e-40 0.006921565 -4.9091e-40 0.06858648 4.92681e-40 1.8912182e-26
0.039986446 -0.008562538 -0.021882521 4.93153e-40 -4.9257e-40 -0.088584706 -0.017952789 0.019610658
-4.2110434e-13 4.90474e-40 -4.94438e-40 -0.06409605 -0.043399304 -0.032113824 -1.8659293e-13 4.91084e-40
0.040290628 -4.93347e-40 -0.0033915956 4.90858e-40 4.91884e-40 0.017086344 0.011953711 0.00053179794
-0.00071343366 -0.003483796 4.91627e-40 4.92397e-40 4.90592e-40 -0.021418268 -1.7142305e-05 8.901742e-36

weight f4 [128, 128]
00000000: 0b5d 0500 9a5b 0500 552a 07bd 5f7b 08bc
00000010: 00bd 0580 ee96 b73c 1474 0580 4d99 0500
00000020: e15d 0580 2356 483c af92 21bb c097 0580
00000030: d97a 88bd 74c4 0600 a372 0580 1959 0500
00000040: 3c4a 0680 1475 0580 61b6 0580 c44a e83c
00000050: bca8 ed3c 836c 0500 2565 0580 3884 0500
00000060: 8280 3e3d b0be 0580 d157 0580 2905 61bd
00000070: 2b71 0580 2902 8f3c 7961 0500 d26b 0580
00000080: caa0 0680 d9a0 0500 2e41 5abd 6eee 0580
00000090: 0cc3 0580 a1f4 0580 13a9 0580 9488 9fba
000000a0: cc8f 0580 dffa a33c 139b 0580 ac6b 0580
000000b0: b9ec 98bb 2e5c 0500 1cb3 bbbb 518b 0500
000000c0: a999 883c 4ec7 1cbd 4875 0580 9252 e33c
000000d0: f261 0580 31e8 463c 8575 0500 df61 d1bc
000000e0: 5170 0580 b71d 0680 db5d 0580 e6cc 0600
000000f0: a48d 0500 5494 0580 6d91 0580 5582 673c
00000100: ff72 0580 d25e 0500 394b b9bb a7fb 91bb
00000110: 8fee 0580 dba3 0500 9a63 0580 ed06 84bb
00000120: 3b61 0680 39f7 eebc ea24 cb3c b65c 0580
00000130: 8aba 0600 a1c5 563c 7d54 0680 8ba6 163d
00000140: 9e78 0680 2ac7 0580 f998 a6bb 2bd0 8bbb
00000150: c880 0580 9dc9 f3bc 3163 0580 f37c 283d
00000160: 5d84 0500 f96e 0500 3ffd 0500 a612 46bd
00000170: 48b3 0500 9adc 6bbd b1c3 0580 2e61 0580
00000180: d38a eb3c deb9 cdbc 426d 263d a78f 0580
00000190: 0bc3 7339 f71f 033d eb78 0580 df33 a9bc
000001a0: b79c f1bb 3282 0500 735c 0580 0d8a 4cbb
000001b0: 9d9a bebb 7759 0580 2780 0580 4d65 0500
000001c0: 3b92 28bd 725a 0500 b2f7 9ebb 0b60 0500
000001d0: 45d6 0580 388d c93c 9ef3 32bd 0fb7 48bd
000001e0: e55f 0500 cf6d 0600 b55f 0500 876f 0500
000001f0: b18c 0500 df97 0500 6658 0580 38e4 50b7
00000200: b658 0680 8e7d 0580 8ce5 4a3d c8ea 4fbd
00000210: e96c 0580 e0b1 ec3c 9aa6 3cbc 86ee e83b
00000220: 4fb4 cbbb 6cf5 23bd 3e7d 963d 475e 0580
00000230: c191 d0bc cf5c 813c e01c 7fbc 4259 0580
00000240: 2659 0500 2c71 d8bb 8a62 0500 eb6a 0fbd
00000250: 67af ccbd 59bd ec3a bb1e 343b ec65 0500
00000260: d6a5 a5bd d7e4 78bc dc00 be3c 5054 f8bc
00000270: 4eaa 2cb4 050f 8fbc 7989 80bb bcd6 22bc
00000280: 0be3 80af f6a1 27bc a971 823d 949c a2ba
00000290: 0e48 e9bb a457 0500 a215 d03a 5133 e7bd
000002a0: 626f 0580 8c14 43bd 2b2e 773b 5bde 71bc
000002b0: f6e1 4cbd 8d61 0580 b4f7 b2bd ff60 0580
000002c0: 0b5a 10bd 4d9f 01bd 4492 ad3c f2db b9bd
000002d0: 2c62 0500 6737 443d 1fed 0500 14a1 333d
000002e0: dffa 94b7 0fa0 a5bb f1b4 4b3c 3d81 10bb
000002f0: 6d74 973b baaa 0500 9174 8e37 6f19 2d3d
00000300: cff9 043d e43f 5ebb 3259 4ebc de6f 163d
00000310: c2e1 3ebc fbe4 1bbd e80d abbb c75a 99bd
00000320: a486 d9bb 2d61 c2bd e7bd 9bbb 4fcd 9e17
00000330: ee58 d4ba 1545 17bc a2c0 a53b 59be d63b
00000340: 2ba7 0380 75d9 1793 3acb 87bd 71c4 983d
00000350: 352e ad3c 66d7 38bd 745a 0500 39ea 9cbc
00000360: e976 87bc e757 0500 b1e7 3fb6 7845 203d
00000370: 0130 9a31 1c5c 13bd d8dd ec35 ed79 99bb
00000380: cd2f 083d 58ad 613d 95be 1abd c69f a23b
00000390: 7d50 3c3d 8df6 cebd 2058 0500 a751 1e3c
000003a0: c6ee df3b 3371 66bc 5931 a3b3 6a11 57bd
000003b0: 3b34 57bc 4621 0680 ce58 0580 6cef 033a
000003c0: cd07 19bd c794 0500 be90 7fbd c40d df3b
000003d0: 5fa9 0500 29ad 863c fae6 2cbc 5a3c 94bc
000003e0: 7e26 c9bb 1f64 0580 3f16 613b b15f 0500
000003f0: c10d 9eb6 c2eb 07bd 977f e4bc 241f ca3c
4.92555e-40 4.92038e-40 -0.032999355 -0.008330195 -5.26978e-40 0.022410836 -5.00818e-40 5.14171e-40
-4.92855e-40 0.012227568 -0.002465408 -5.13615e-40 -0.06664056 6.21487e-40 -5.00301e-40 4.9114e-40
-5.77643e-40 -5.01177e-40 -5.24603e-40 0.028355964 0.029011123 4.98104e-40 -4.95461e-40 5.06609e-40
0.046509273 -5.27583e-40 -4.9068e-40 -0.05493656 -4.99774e-40 0.017457085 4.94144e-40 -4.97856e-40
-6.08693e-40 5.16879e-40 -0.053284816 -5.4471e-40 -5.29147e-40 -5.46934e-40 -5.1983e-40 -0.0012171441
-5.10762e-40 0.020017086 -5.14808e-40 -4.97803e-40 -0.0046668914 4.92245e-40 -0.0057281386 5.09155e-40
0.016674833 -0.03827601 -5.0125e-40 0.027749334 -4.94314e-40 0.01214032 5.01336e-40 -0.025559364
-4.99469e-40 -5.61673e-40 -4.92846e-40 6.24517e-40 5.09989e-40 -5.12388e-40 -5.11346e-40 0.014130195
-5.0043e-40 4.93193e-40 -0.005654719 -0.004455048 -5.44756e-40 5.17958e-40 -4.94908e-40 -0.004029146
-5.85893e-40 -0.02917062 0.024797875 -4.92436e-40 6.1793e-40 0.013108642 -5.81322e-40 0.03677992
-5.94282e-40 -5.30624e-40 -0.0050841537 -0.004266759 -5.05375e-40 -0.029759223 -4.9476e-40 0.041134786
5.0666e-40 4.98987e-40 5.50025e-40 -0.04835763 5.23491e-40 -0.05758343 -5.29378e-40 -4.94039e-40
0.02875272 -0.025113042 0.04063154 -5.1071e-40 0.00023246945 0.032012906 -5.02555e-40 -0.020654617
-0.007373418 5.05883e-40 -4.92342e-40 -0.0031210214 -0.005816771 -4.91271e-40 -5.0515e-40 4.95517e-40
-0.04115508 4.91623e-40 -0.004851305 4.93631e-40 -5.36043e-40 0.024603471 -0.043689363 -0.049002703
4.93578e-40 5.90405e-40 4.9351e-40 4.99186e-40 5.09648e-40 5.13659e-40 -4.90889e-40 -1.2450902e-05
-5.82836e-40 -5.04218e-40 0.04953532 -0.050761014 -4.98247e-40 0.028893411 -0.01151433 0.0071085123
-0.006216563 -0.040028974 0.07348107 -4.92998e-40 -0.025460126 0.015791325 -0.015570849 -4.91197e-40
4.91158e-40 -0.006605288 4.94527e-40 -0.035014074 -0.09994393 0.0018061801 0.0027484137 4.9574e-40
-0.08088271 -0.015191278 0.02319377 -0.03031364 -1.6080705e-07 -0.017463217 -0.003922638 -0.009938892
-2.3444388e-10 -0.010231486 0.06369335 -0.0012406283 -0.0071191853 4.90617e-40 0.0015875588 -0.11289085
-4.99134e-40 -0.047627017 0.0037716727 -0.014762486 -0.05002018 -4.94172e-40 -0.08738652 -4.93973e-40
-0.03524212 -0.03164606 0.021187909 -0.09075154 4.94395e-40 0.0479044 5.4424e-40 0.043854788
-1.7759796e-05 -0.005054481 0.0124332765 -0.0022049688 0.0046220333 5.20423e-40 1.6982e-05 0.042260583
0.0324648 -0.0033912593 -0.012594508 0.03672778 -0.011650505 -0.03806017 -0.0052201636 -0.074880175
-0.006638365 -0.09491191 -0.0047528627 1.0262338e-24 -0.001620082 -0.009232779 0.005058364 0.006553453
-3.35475e-40 -1.9166094e-27 -0.06630559 0.07459343 0.021140197 -0.045127295 4.91626e-40 -0.019154655
-0.016536193 4.90711e-40 -2.859608e-06 0.03912875 4.4874473e-09 -0.035976514 1.7647935e-06 -0.004683724
0.03324871 0.055096954 -0.03777941 0.004962894 0.045975197 -0.101056196 4.90791e-40 0.009663022
0.006833884 -0.014065075 -7.599255e-08 -0.05250684 -0.013135011 -5.62949e-40 -4.91035e-40 0.000503293
-0.037360955 5.12549e-40 -0.062393896 0.006807061 5.19936e-40 0.016439991 -0.010553116 -0.018095184
-0.006138622 -4.95094e-40 0.0034345535 4.93505e-40 -4.710368e-06 -0.03318382 -0.02789287 0.024673052

bias f4 [128]
00000000: a25f 0500 424c 073c 39cd a23c ab5b 0500
00000010: 0061 0500 b83a 898c 0f5f 0580 575f 0500
00000020: d8d9 70bb c95c 8396 4860 0580 2364 0500
00000030: f06a 182d d270 473d 6b85 95bb 1f12 9928
00000040: 8f63 0500 5ffc 991a 5b32 0db4 9063 0e3d
00000050: 6c84 97bc eaf8 86b0 c762 0500 f8d9 b73d
00000060: f33e 053d b06d 0680 1dc9 6798 7004 0b2e
00000070: 1f35 02b2 288f 7cb5 a7c6 9131 725a 0500
00000080: f7c2 18a5 3e5f 0580 fde4 9abc 4402 6d29
00000090: f71f b6bb 182c c6bc 939e 61b2 f060 0580
000000a0: 4392 0bbc fc56 f9b9 465f 0500 b028 aebb
000000b0: fd62 0500 7713 af33 ce28 c23c 714a a43c
000000c0: d2df 95bc 00aa fc3d f803 0680 ec58 0580
000000d0: b686 a0bc bf7b 313d 3bbc ba3c 9759 ef3d
000000e0: f464 2fbc eb72 96bd 9bed e03d 6f57 0500
000000f0: 271b 853d cde0 c53d 2f27 453d dffc 0d37
00000100: d259 0500 0b64 0500 75d4 98b9 09e2 0db7
00000110: 4a58 0500 77b4 a73d 48ae 6abb 75db ea37
00000120: e063 0500 79b3 7c3d cc4e e8a0 582b a53d
00000130: 945d 0580 0e62 0500 3259 0580 0f5a 0500
00000140: 50df d73b 1367 43bc 7439 713d 0b67 de3d
00000150: 20ca 3734 c5b5 2db9 b791 173c 9da5 3c3d
00000160: 4706 a8a1 6b5e 0500 965f 0500 240e 3dae
00000170: 33a8 e038 d507 73ae 6da7 8a3c 8dd0 393d
00000180: 1426 babc d45e 0580 2e09 9f3c 6f62 0500
00000190: d508 b1bc 0c5c 0500 6857 0580 de60 0500
000001a0: b747 c53a 5775 743c 56ff 03bc beb3 883d
000001b0: e8ea 0a3e 04d4 bf98 fbe2 a23c 4df8 f23c
000001c0: 659e c48b 98b6 85b6 3880 0580 9817 94bb
000001d0: f752 fcb8 af13 8fbc 1b25 f7bc 5f68 a5bc
000001e0: 7d11 17b5 e85b 0580 7272 fa18 fd5a 0580
000001f0: b3b8 f33b 58ff e7ba a33a 723d b143 30b5
4.93484e-40 0.008257927 0.019873248 4.92062e-40 4.93975e-40 -2.1143532e-31 -4.93278e-40 4.93379e-40
-0.0036750939 -2.1222747e-25 -4.93717e-40 4.951e-40 8.6639446e-12 0.04869158 -0.004563024 1.6994271e-14
4.94892e-40 6.3687044e-23 -1.3149968e-07 0.03476292 -0.01849576 -9.820529e-10 4.94612e-40 0.08977121
0.032530736 -5.90361e-40 -2.9957586e-24 3.1608882e-11 -7.579074e-09 -9.4085635e-07 4.2426396e-09 4.91623e-40
-1.3249955e-16 -4.93344e-40 -0.018908018 5.2626536e-14 -0.0055580097 -0.024190947 -1.3132779e-08 -4.93952e-40
-0.008518758 -0.0004755779 4.93355e-40 -0.005314909 4.94688e-40 8.152613e-08 0.023701098 0.020055028
-0.018295202 0.123371124 -5.52437e-40 -4.91077e-40 -0.019595485 0.043330904 0.022794833 0.1168701
-0.010705221 -0.073461376 0.1098282 4.90543e-40 0.064993195 0.09662018 0.04813307 8.463131e-06
4.91399e-40 4.95066e-40 -0.00029149992 -8.456883e-06 4.9085e-40 0.08188718 -0.0035809446 2.7997166e-05
4.95006e-40 0.061694596 -3.9354472e-19 0.08064908 -4.92747e-40 4.94353e-40 -4.91175e-40 4.91484e-40
0.0065879 -0.01192643 0.058892682 0.10859498 1.7116736e-07 -0.0001656628 0.00925105 0.04605638
-1.1385784e-18 4.93048e-40 4.93467e-40 -4.2986184e-11 0.00010712482 -5.525876e-11 0.016925538 0.045364905
-0.022723235 -4.93195e-40 0.019413557 4.94489e-40 -0.021610657 4.92198e-40 -4.90533e-40 4.93927e-40
0.001505128 0.014920554 -0.008056482 0.06674908 0.13566172 -4.9586424e-24 0.019883623 0.029659415
-7.573478e-32 -3.9849656e-06 -5.05174e-40 -0.004519414 -0.0001203175 -0.01746544 -0.03016906 -0.02019137
-5.627733e-07 -4.92147e-40 6.4739046e-24 -4.91818e-40 0.0074377893 -0.00177 0.05913795 -6.5663613e-07

weight f4 [128, 128]
00000000: 317f 79ba 89f0 f03c 301b ae3c e97d eabb
00000010: dd50 e33b b526 95bc 2b4f ed3b 3362 0500
00000020: e696 973d a697 423c 0e6b 1ebd 8f42 003c
00000030: 35e0 2ebd 1a23 23bd c0a2 cfbd 8a64 a73c
00000040: 9dc1 f73b a8c8 13ba 2020 223d c07a 7c3d
00000050: 0f1d 1cbc eecc 523d 4561 0580 5627 333d
00000060: 007f 873d a9a9 033c bfe9 0405 2d8c d0ab
00000070: 2f94 8abd a2cb ca3c 3e15 fc3c ca62 0580
00000080: 92dc a1bc df64 0500 72a3 d2bc 3c6c 6e3d
00000090: d317 423d 4d62 0500 d990 83bd b541 443d
000000a0: b3d3 6bbd e70a 15bd 5d62 0500 6e6f 07bc
000000b0: 0d5d 0580 aebf fd3b 0a30 243c a4ef 00bd
000000c0: f961 9ebc 36b8 7a3c fd61 0500 366a b03c
000000d0: 8422 00bd 0c74 92bd 5d5f cb3d 84e2 923d
000000e0: 5fd9 37ba 2311 26bd e41e 06bd 635e 0500
000000f0: 22dc b8bd 357b 42bd 074f 1abb 1d6f 1abd
00000100: ce15 b539 9001 c63b 9bb9 9d3d 1c02 89bd
00000110: 3e63 083c f8b7 6cbc 98e2 1a3d 1d46 d8bd
00000120: d40e 55bc bcbb 613d 9dfa 88ba d3c3 34bd
00000130: 9663 0580 6cf6 fb3b b6b4 57bc 92fe 003c
00000140: cf8f 323d 8a7b 8cbd ef57 03bd c33a 8bbd
00000150: 71a1 0c3d 848d e63c d3fe 5ebc 858f 863d
00000160: 3990 04bd 0c0c 6ebc f9f3 703c 68dd 833c
00000170: a035 0bbb 484e ebbc 5f61 31bd 6cf4 a8bd
00000180: e0b7 883d 93c1 b8ba 8e95 763d a5ce ab3c
00000190: 9dbf 07bd f820 ee3b c1ce 40b5 2c61 0580
000001a0: 74e9 a63c a8f6 8c3d 2c53 76bd 01de 7bbd
000001b0: d0d5 033c 6c2c 9ab9 e205 63bd 902c 95bd
000001c0: f9ad d93b f1cc 0500 0372 0500 5ee1 823c
000001d0: cfe7 af3d 62d0 be3b fc09 03bd 18c9 d63c
000001e0: 21f1 223d 1813 fcb8 2b7f 1dbd 674c 0500
000001f0: b388 cc3c 49d3 593d a341 bf3c 4ab6 56bd
00000200: d5f5 cf34 9b95 79bd 7cf2 9abc 46ee 9cb5
00000210: 3db0 a53a d872 8a3d f8d9 cfba f758 0500
00000220: 08d5 94bc 0f72 703d ed12 49bb ca75 6234
00000230: 5eda 59bc 4459 303d b368 8fbc 8c5a d73b
00000240: f22d 5034 99b7 1a3c 317b 0500 89f2 f63c
00000250: 9f61 5935 4211 1cbd 8063 0580 25f1 acbd
00000260: 2f61 7dbb acfe c5bb 59a6 0500 cc60 0500
00000270: bfe4 56bc d9bd 0500 8caa 893c 965a 0580
00000280: e06f 0500 026e 0580 fa76 a439 7a92 113d
00000290: 9247 8f3d 5873 0500 1dd4 acbd 2ab0 d73c
000002a0: 0b8f 2b3d 14e3 0580 2f5a 0580 3672 743d
000002b0: 1e5e 0580 54d7 0abd 45e9 e5bd 5afc 2ebb
000002c0: eb5a 0580 2e7e d73c 5a68 0500 634d 22bb
000002d0: 486e 0500 ab51 a7bc 5ad9 f8bc 4b81 30bc
000002e0: 2633 b23c 0050 473d a462 2ebd 7e5b 0580
000002f0: c2da 9abd 5ea4 6bbd f723 b43c cdf8 5f3d
00000300: 7919 273b b024 7939 7702 243c f80e 033c
00000310: a886 6734 c347 683c 4841 3f39 cf3d 523d
00000320: 7767 34b9 7ef0 f93c bfcb faba b2ed 973b
00000330: 0762 0580 1c8a 5135 6787 7f3c 78f4 7634
00000340: a1f6 2dbc 287d 71bd 793a 9dbd f44a 90bc
00000350: a0b4 fabc e477 0580 1ffa ebba 2c49 bfbb
00000360: bb7a 15bc 06cf 6dac 48a9 ef3a 52aa cabc
00000370: 04f7 b2bd 6224 0600 05af b3bd f187 0bbd
00000380: 806c 66bc dbc9 63ba 5577 adbd 6113 0600
00000390: 947e 0500 d8bb e634 8650 b399 065f 0500
000003a0: cd24 2a3d 6b59 1c3d 184a 70bd 6008 393c
000003b0: 7f7b 8a3c ffae 36ba 3604 7f3d 04e1 e2bd
000003c0: e8d8 273d 6c66 0580 8a60 0500 768f 472e
000003d0: e376 7abd d18b 0580 e762 0580 e272 0500
000003e0: 2db5 39bd e3d9 9f2e 5886 893d 4460 0580
000003f0: 07c3 7dbc 94ea a2bd 7325 783d 68e3 5a3d
-0.0009517549 0.029411571 0.021253198 -0.007156123 0.00693713 -0.018206934 0.0072421036 4.94405e-40
0.074018285 0.011876976 -0.038676314 0.007828369 -0.04269429 -0.039828397 -0.10138464 0.020433683
0.0075609223 -0.0005637505 0.039581418 0.0616405 -0.0095284125 0.051464967 -4.94071e-40 0.043738686
0.0661602 0.008036056 6.2495425e-36 -1.4818195e-12 -0.06766545 0.024755303 0.030771848 -4.94616e-40
-0.019758496 4.95363e-40 -0.025712702 0.05820869 0.047386 4.94441e-40 -0.06424112 0.047914226
-0.05757494 -0.03638735 4.94464e-40 -0.008266313 -4.92558e-40 0.0077437973 0.010021219 -0.03147854
-0.019333826 0.015302708 4.94329e-40 0.02153502 -0.031282917 -0.071510404 0.099302985 0.07172111
-0.0007013287 -0.040543687 -0.032744303 4.93037e-40 -0.09026362 -0.04748078 -0.002354564 -0.037703622
0.00034539256 0.0060426667 0.07701417 -0.066898555 0.008324442 -0.014448158 0.037813753 -0.10560248
-0.013004024 0.055110678 -0.0010450665 -0.044132065 -4.94902e-40 0.007689288 -0.013165643 0.007873194
0.043594178 -0.06859501 -0.032066282 -0.06798317 0.03433365 0.028143652 -0.0136105595 0.06570343
-0.032364104 -0.014529239 0.014706605 0.016096786 -0.002124168 -0.02872385 -0.04330575 -0.08249745
0.066756964 -0.0014095776 0.06020122 0.02097256 -0.03314172 0.007267114 -7.182644e-07 -4.94036e-40
0.020374991 0.068829834 -0.060137913 -0.061491016 0.008046582 -0.00029406266 -0.055425532 -0.0728389
0.0066430536 5.32697e-40 5.00077e-40 0.015976604 0.08589136 0.005823181 -0.031991944 0.026218936
0.03978074 -0.00012019853 -0.038451355 4.86585e-40 0.024967527 0.053180013 0.023346728 -0.05241994
3.873562e-07 -0.06093369 -0.018914454 -1.1692252e-06 0.0012641024 0.06760186 -0.0015857806 4.91092e-40
-0.018167987 0.058702525 -0.0030681447 2.1090742e-07 -0.013296692 0.04305388 -0.01750598 0.0065720733
1.9388224e-07 0.009443187 5.0337e-40 0.030144947 8.0980857e-07 -0.038102396 -4.94871e-40 -0.08444432
-0.0038662662 -0.006042322 5.18852e-40 4.93902e-40 -0.013116061 5.27282e-40 0.016804956 -4.91674e-40
4.9931e-40 -4.98641e-40 0.00031369162 0.03554008 0.06996073 5.00555e-40 -0.08438895 0.026329119
0.041884463 -5.40638e-40 -4.91529e-40 0.059679233 -4.9294e-40 -0.03389676 -0.11226133 -0.0026700706
-4.91793e-40 0.026305284 4.96612e-40 -0.0024765364 4.98739e-40 -0.020424685 -0.030377079 -0.010773013
0.021752905 0.04866028 -0.04257454 -4.91999e-40 -0.07561256 -0.0575298 0.021989806 0.054680634
0.002549736 0.00023760158 0.010010353 0.007999174 2.1562539e-07 0.014177266 0.00018239499 0.051328477
-0.00017204681 0.030510183 -0.0019134207 0.00463649 -4.94343e-40 7.805954e-07 0.015596247 2.2999473e-07
-0.010617883 -0.05895725 -0.076771684 -0.017613865 -0.030603707 -5.02186e-40 -0.0018003619 -0.00583758
-0.0091234995 -3.3794647e-12 0.0018284703 -0.024739418 -0.08738521 5.64065e-40 -0.08773617 -0.03406519
-0.014063954 -0.00086894416 -0.084700264 5.57965e-40 5.04585e-40 4.2977513e-07 -1.854069e-23 4.93265e-40
0.041539002 0.038171213 -0.05866441 0.011293501 0.01690459 -0.00069688255 0.062259875 -0.110780746
0.040978342 -4.9592e-40 4.93809e-40 4.537478e-11 -0.061148535 -5.09334e-40 -4.94657e-40 5.0039e-40
-0.0453388 7.269187e-11 0.06715077 -4.93711e-40 -0.015488393 -0.079548985 0.06058259 0.053439528

bias f4 [128]
00000000: 78d7 1d3e a4bb e8b5 d63f ec3d cc10 663d
00000010: 2a0c 0680 1a09 3d3e 5583 ffb6 1ba8 ff3d
00000020: 0c87 85b2 92d7 ca32 683b b0bc 6659 283d
00000030: e65f 0500 ec67 7ebc ac6c b8a3 978d c2bb
00000040: ad5a 403e 7ee8 d5bb 7071 d3bc 6aa6 0c80
00000050: 4c99 983b 176a e93c 2be4 243d eecc a93a
00000060: 8ef9 1a3d dbe2 243d 1586 3b3e cf80 1eb4
00000070: 555c 0500 fdc3 63bc ee0d bd3d ff59 0500
00000080: 4d5c 0500 e653 0680 51f5 013e 830a 443e
00000090: fd9e 08bc 4a5d 0500 ca84 e53d fdec babc
000000a0: 9932 9bbb d45e 0580 a8c4 71ba 5a1d 9237
000000b0: ffa7 0680 4dce babb ae5c 0500 1b60 0500
000000c0: 3a33 daaa 795c 0500 1ff5 c2bb ca5e 0500
000000d0: 1103 313e 094a 93bb 7a5e 0500 53d5 df3d
000000e0: 049e 480f 5290 079f 1491 2abb 5bcc 69bc
000000f0: 3e5a 0500 6332 a4b2 beb7 81b6 fc75 e43b
00000100: 04ec cc3d 0c63 0500 55bb a23c 10db 3ab9
00000110: c946 541e b55d 0500 d1c9 d0ae 4248 b43d
00000120: 0da9 c63d 268e 22ba 2d45 afb3 fa87 cb3a
00000130: e1ad c73d a95a 0580 b8d8 bbba cc3c 313d
00000140: eec2 3e3e cbbe 08bb 81bf 0e3e 275d 0500
00000150: 6a60 0c3e ae11 efba eba6 6633 0945 aeb5
00000160: 681f 04bb fd01 06bd 96aa c534 cafe 953c
00000170: 6d5c 0500 1458 0500 0d6e 01bc 1f0f 7cb1
00000180: 8d5e 0500 af5d 0580 635f 0500 d558 0500
00000190: f960 6835 1a9e 81ba 3fac c938 08f6 00bd
000001a0: 3462 55b9 3658 0500 e3a5 5a3d 9555 38b9
000001b0: c85c 0580 e9fc 4b18 ff61 0500 aac8 01ba
000001c0: 4539 7a34 705c 0580 5460 0500 8db8 a73d
000001d0: 317b d53d 3963 0500 20eb 803d 1490 8c3d
000001e0: 299b eabc 5d6e 0bb9 3af3 bb3c bd7b ee3d
000001f0: 0a59 0500 b382 e7bc 465c 0580 6330 36ba
0.15414226 -1.7339958e-06 0.11535613 0.056168362 -5.55377e-40 0.18460503 -7.6148813e-06 0.124832354
-1.554465e-08 2.3613925e-08 -0.021512702 0.041100882 4.9358e-40 -0.015527707 -1.9995344e-17 -0.005937289
0.1878459 -0.0065279594 -0.025810927 -1.161724e-39 0.0046569463 0.02849297 0.04025666 0.001295475
0.03783565 0.04025541 0.18312867 -1.4761757e-07 4.923e-40 -0.013901708 0.092311725 4.91462e-40
4.92289e-40 -5.8111e-40 0.12691237 0.19144635 -0.008338687 4.92643e-40 0.11206968 -0.022818083
-0.0047362563 -4.93195e-40 -0.00092227245 1.7418224e-05 -6.11279e-40 -0.0057008625 4.92425e-40 4.93654e-40
-3.8760125e-13 4.9235e-40 -0.005949631 4.93181e-40 0.17286326 -0.0044949097 4.93069e-40 0.1092936
9.891194e-30 -2.870674e-20 -0.0026026415 -0.014269914 4.9155e-40 -1.9115026e-08 -3.86589e-06 0.0069720726
0.10005954 4.94709e-40 0.019864717 -0.0001781995 1.12378246e-20 4.92793e-40 -9.494595e-11 0.088028446
0.09700213 -0.00062009913 -8.1616555e-08 0.0015528195 0.09749962 -4.917e-40 -0.0014331555 0.04327087
0.18629047 -0.0020865675 0.1394024 4.92594e-40 0.13708654 -0.0018239522 5.370286e-08 -1.2984102e-06
-0.002016032 -0.03271674 3.6818227e-07 0.01830997 4.92334e-40 4.90774e-40 -0.007899773 -3.6679422e-09
4.93096e-40 -4.92785e-40 4.93396e-40 4.91044e-40 8.656785e-07 -0.0009889037 9.61651e-05 -0.031484634
-0.00020349846 4.90822e-40 0.05338086 -0.00017579489 -4.92461e-40 2.6364822e-24 4.94332e-40 -0.0004950861
2.3303899e-07 -4.92338e-40 4.93734e-40 0.08189497 0.104238875 4.94772e-40 0.062948465 0.06863418
-0.02863844 -0.00013297187 0.022943128 0.11644695 4.91119e-40 -0.028260564 -4.92279e-40 -0.0006949959

weight f4 [128, 128]
00000000: 9b44 da3c 5798 633d 4541 e6bb 4220 04bd
00000010: 665b 0500 3938 193c 1bb1 0e3d efa5 c4bd
00000020: 4399 a1bb 83a7 a53c 250f 09ad f28c c5bc
00000030: a354 2f3a 67c6 0680 d6e1 fa3c dfeb 92b9
00000040: 07b0 383d 67e6 15bc 0c5c 23bd 59dd 5bbc
00000050: 9c2a d1bd b6c1 533d 21e8 023d f6b9 41bc
00000060: 74be 323c 4e7b bbbb 3b92 45bc 8293 0500
00000070: 1b87 76ba ad42 f13c 59fb a6bd aff8 2a3a
00000080: 68b8 4a3a c433 6633 8d99 783d a360 f5bb
00000090: e2a4 0600 bcce eba5 16a7 713d 1e6a e2bc
000000a0: 485f 0500 b659 0500 603c 92bd 33c1 17bd
000000b0: efaf 2b3c 591b 0600 7da4 3a37 0c64 0500
000000c0: a159 67bc c85a 0580 356a d0bb 2f27 0680
000000d0: 60ef 6cbb 0437 cbbd 386f 02ba 466b 6ebd
000000e0: af82 360a b872 05bc 34c7 9fbc 1442 45bd
000000f0: ce77 373b 64f2 1039 1f8b 80bd d645 f23c
00000100: 3138 75bd 0a33 9cbb a98e babd eb83 20bd
00000110: baf6 ce3c 5ce0 14ba 4136 c93a 5517 5b3d
00000120: aac9 5ebd 8a3c 7dbd a6cb 183b 076a 99bc
00000130: df10 dfbb c3db 54bb a863 c5bd ebfa 113c
00000140: b1df 403d 1c26 143d 2799 7c3d 830b 1c3c
00000150: 9383 d0bd 7f61 3739 7e21 8e3d a174 0c3c
00000160: bfbb 533d 4ff0 a0bd ed35 a2bd 5bed 9abd
00000170: ad59 0580 cbeb 1c3a baac c4bd dca1 0ebc
00000180: e15c 0500 4259 0580 e8f6 54bb b061 0580
00000190: 90f8 36bd 2e44 bfbc 9116 543d 0001 98bc
000001a0: c778 b026 4963 0500 ffb4 f73c 0fb3 373d
000001b0: 2b58 0500 fcc8 803b a504 7aba 8083 16bb
000001c0: e8c1 afbd a362 0580 3a0f e7b9 1fb5 2a3d
000001d0: 4bed f73c 9f05 0f3b 9e72 d83c 12fb 3d3d
000001e0: 89c9 2fbd 6a34 f6bb 5b79 29bd 5d41 e9bc
000001f0: be3b ba2e bb4e d13c 675c 0580 a8c7 bf3c
00000200: 0221 cd3c e492 043d d2b9 74bd 39e7 f33b
00000210: 4c62 0500 8837 c43b b023 86bd 8206 d2bc
00000220: aa3f 1cbb dc57 e0bc d856 95b8 b27f 323b
00000230: 185f 28bb b670 0600 5ee5 9c3b a635 97ba
00000240: fc65 42bd c1b5 11bc 3e65 24bd 101d ffbc
00000250: 9226 0abd 0162 39bd b84c 743d 9fa6 8dbd
00000260: 7e60 3ebd 77fb b5bd 1c32 85bd ab67 0580
00000270: 9235 503b 7154 b43c 49ba 7b3c 132c 26bb
00000280: 4d0b 34bb 34aa 5db6 5796 743d 0123 05bd
00000290: a96a 0500 6a63 f4ae 6188 cebd a492 063c
000002a0: 23d9 0600 4b57 0580 094b 06bd 2bc0 b33c
000002b0: cbe2 35bc 169f 0600 db68 67b9 2b5b 0500
000002c0: 923a 823c 4259 0500 fabc 61bc 7020 0680
000002d0: 2db4 95bc 9577 5abd 6e7a c03a 1e11 d2bc
000002e0: 6eca 7488 749a 3139 2e5d ebbc 45ca d73b
000002f0: 5e1d 98bb c247 fd38 d62a eb3c 5984 d33c
00000300: ef88 aabd 5651 f83b 5059 04bd 8d14 3cbc
00000310: d75f 1c3c c968 f93a d4ea 6fbd 3ba5 0bbd
00000320: 9d45 97bd 7a0e 073b 5dac fbba 383c ed3c
00000330: 11f9 623d 8d94 ec3b 4e97 81bc e5ed 2b3d
00000340: e562 353d 439f 473d 03fd 133d 5f77 963b
00000350: 3cdc 1e3d 265e 93b0 5d02 713d 69cd af3b
00000360: 72f6 643d 5c7f b0bc 23e3 3ebd a809 a0bc
00000370: 435f 0500 f53c 28bb 0ebc 873c de8f c23a
00000380: 5b5e 0580 2c60 0500 6530 a73b cd5e 0580
00000390: 29b9 f03c cf47 823d d6ce 2bbd 644c 00bd
000003a0: b9a9 7721 d55c 0580 ef80 863d bad9 46bc
000003b0: 5a5a 0580 9298 053d e3ef 573b 2682 ddbb
000003c0: 674d 643c ad5c 0500 41e8 c53a d368 a33d
000003d0: c55c d33c b760 4abb e24c 3bbd a520 99bd
000003e0: 9d2a f13a d80e d8bb a463 b4bc feae 5b3d
000003f0: 78c8 40b4 aedd ee3c d957 0500 06c6 85bc
0.026644042 0.055565204 -0.0070268237 -0.032257326 4.91965e-40 0.009351783 0.03483687 -0.09601962
-0.0049316003 0.020221477 -7.790911e-12 -0.02411506 0.0006688332 -6.22186e-40 0.030625265 -0.00028023028
0.045089748 -0.0091491705 -0.039882705 -0.013419473 -0.10213205 0.05169841 0.031959657 -0.011824122
0.010909665 -0.005721486 -0.01205879 5.12093e-40 -0.00094042876 0.029450739 -0.081534095 0.0006522042
0.0007733167 5.359813e-08 0.060693312 -0.0074883266 6.10162e-40 -4.090609e-16 0.058997236 -0.027638491
4.93358e-40 4.9136e-40 -0.07140422 -0.037049484 0.010478958 5.60823e-40 1.1124762e-05 4.95068e-40
-0.01412049 -4.91744e-40 -0.006360317 -5.6507e-40 -0.003615342 -0.09922603 -0.00049756793 -0.058207773
8.78756e-33 -0.008145027 -0.019504167 -0.04815872 0.0027994993 0.00013823208 -0.06276535 0.029574316
-0.05986804 -0.0047668265 -0.091092415 -0.039188307 0.025264133 -0.0005679184 0.0015351252 0.053489048
-0.05439154 -0.061825313 0.0023314743 -0.018727316 -0.006807431 -0.003247962 -0.096381485 0.008909921
0.04708833 0.036169156 0.061669495 0.009524229 -0.10181346 0.0001748856 0.06939982 0.008572728
0.05169272 -0.07858335 -0.07920442 -0.07564803 -4.91347e-40 0.00059860636 -0.096032575 -0.0087055825
4.92496e-40 -4.91197e-40 -0.00324958 -4.94221e-40 -0.04467064 -0.02334794 0.051779334 -0.018555164
1.224519e-15 4.94794e-40 0.030237673 0.044848498 4.90806e-40 0.003930209 -0.0009537435 -0.0022966564
-0.085819066 -4.94562e-40 -0.00044071098 0.041676637 0.030264517 0.0021823419 0.026421841 0.046382017
-0.04291681 -0.0075135725 -0.0413755 -0.02847355 8.468913e-11 0.025550237 -4.92325e-40 0.023410633
0.025040153 0.03236665 -0.059747525 0.0074433354 4.9444e-40 0.005988065 -0.065497756 -0.025637869
-0.0023841658 -0.027385645 -7.1210496e-05 0.0027236757 -0.0025691446 5.91446e-40 0.004788085 -0.0011536374
-0.04746054 -0.008893431 -0.040135615 -0.031141788 -0.03372819 -0.04525948 0.059643477 -0.06916546
-0.04647874 -0.08885854 -0.06503698 -4.96367e-40 0.0031770212 0.022012921 0.015364238 -0.002535586
-0.0027472556 -3.3030637e-06 0.059713688 -0.032504085 4.9744e-40 -1.1113495e-10 -0.10084606 0.008213673
6.28907e-40 -4.90492e-40 -0.032786403 0.021942219 -0.011101435 6.08082e-40 -0.00022068938 4.91882e-40
0.01589707 4.91197e-40 -0.013777966 -5.6265e-40 -0.018274391 -0.0533367 0.0014684924 -0.025642928
-7.3664034e-34 0.00016937574 -0.028730955 0.0065853917 -0.0046421727 0.00012077346 0.02870695 0.025819944
-0.08326899 0.0075780554 -0.032311738 -0.011479509 0.009544334 0.0019028421 -0.05857356 -0.034093123
-0.073863246 0.0020607994 -0.0019201149 0.028959379 0.05541331 0.007219857 -0.015819218 0.04197492
0.044283766 0.04873587 0.036129963 0.004591867 0.03878425 -1.0722416e-09 0.058840144 0.005365063
0.05589909 -0.021545105 -0.046603333 -0.019535854 4.93351e-40 -0.00256711 0.016569164 0.0014843901
-4.93026e-40 4.93677e-40 0.0051022046 -4.93186e-40 0.029385166 0.06361353 -0.0419453 -0.03132285
8.391148e-19 -4.9248e-40 0.06567561 -0.012136871 -4.9159e-40 0.032616206 0.003294938 -0.0067598997
0.01393447 4.92423e-40 0.0015099124 0.07978978 0.025801072 -0.00308804 -0.045727618 -0.074769296
0.001839954 -0.0065935664 -0.022020169 0.053633682 -1.7954324e-07 0.02915844 4.90691e-40 -0.016329776

bias f4 [128]
00000000: 4aaa 003d 85fb 0f3d 628c 1d3d 5a62 13bd
00000010: bcd0 933d a36d 883c 506a b6bd a793 f6bd
00000020: e1fb 433e 0b71 183e 6c08 bdbd d27a 3a3e
00000030: 79c3 a53c 09e4 403e 073f 0dbe 70b3 fcbb
00000040: 13b1 743c f4a0 4e3e e0c8 9b3d b78e 04bd
00000050: de74 9e3a 585b dabb af0e c13d 9950 863d
00000060: 673b bf3c b114 133d dbfd 253d 3b70 2ebe
00000070: 405a 05be 2c0d 17bd 4e1b 773d 1473 73be
00000080: d387 cd3d 4f4e dc3d d757 77bd a9fa fabc
00000090: d9b8 23be d04b 66bd 5495 623e e7fe 91bd
000000a0: bbe2 c7bd 2722 4a3d 2d05 493c f470 d53d
000000b0: eead 23bd 27e4 5a3d 42f4 33bc 7312 58be
000000c0: 966e 1c3d c9dd 67bd d083 183c 4fe3 12bc
000000d0: 3ac2 0ebe b635 363e 74e6 11bd fc68 06bc
000000e0: e945 8c3c b5a8 503d 3e32 5cbd 0aea 3c3d
000000f0: caba 993d f4b5 2dbe b06b 01be e164 773d
00000100: a80c a3bd d810 5b3d 7da5 b33d 3163 863d
00000110: 816f dd3d fba8 14bd 3b4f 983b a80e 46bc
00000120: 54f1 f3bd 1880 6abd a94e 3f3d bfad 13bd
00000130: e997 e13d f917 e73d fc95 17bb f2b4 59bd
00000140: 5c9a fabd 534c 1b3c 1ec6 983d b684 433d
00000150: fcd6 d8bc 1514 6ebd 43ac 7bbc 2958 78bd
00000160: 02b1 a93d 3be4 793d c528 debb 0abe 203e
00000170: bb22 753d bfb7 633d c084 80be cafa 013c
00000180: bff2 0dbe 3384 b63b 56ff 83bc 78c2 f23d
00000190: 5e44 dd3d 294d 9ebc 35b7 c33d 6d07 1ebd
000001a0: fb18 21bd 43ae 013e a728 083e 81b3 b8bd
000001b0: 6262 c83b f1cb 3a3d 49d4 9bbc 54fd 1cbd
000001c0: 01c2 09bc 3be4 a53d d216 92bd c48d 9a3d
000001d0: b1bc 5e3e c4fe 073d 0431 6bbd 72b8 483b
000001e0: 69aa 883c 8760 5cbd 4dc4 7cbe 6f0c 0e3d
000001f0: 16a4 0cbe 1d08 b03b fc82 4e3d 0db7 aabc
0.0314124 0.035151977 0.038463958 -0.035982467 0.07217547 0.016653841 -0.08906996 -0.12039881
0.19139053 0.14886872 -0.09230122 0.18210915 0.02023481 0.18836989 -0.13793574 -0.0077118203
0.014934796 0.20178586 0.07606673 -0.032362666 0.0012089272 -0.006663721 0.09426629 0.065583415
0.023343755 0.035908405 0.0405253 -0.17035 -0.13022709 -0.036877796 0.060328774 -0.23774368
0.10035672 0.10757124 -0.060386505 -0.030637102 -0.15988483 -0.056224644 0.22127277 -0.07128697
-0.09760042 0.049348976 0.0122693 0.10421935 -0.039960794 0.05344024 -0.010983529 -0.21100788
0.0381914 -0.056607995 0.00930877 -0.008965327 -0.13941279 0.17793927 -0.035620168 -0.008203741
0.01712318 0.05094214 -0.053758852 0.046121635 0.0750633 -0.16963941 -0.12638736 0.06039894
-0.07961398 0.05348286 0.08771799 0.06561888 0.10812283 -0.036293965 0.004648117 -0.012088455
-0.11911264 -0.057251066 0.046705876 -0.03605437 0.11015303 0.11283869 -0.002313017 -0.05315108
-0.12236473 0.009478646 0.07459663 0.047733985 -0.0264697 -0.05812462 -0.015360895 -0.06063095
0.08285715 0.061008673 -0.0067797625 0.15697494 0.059847575 0.055595156 -0.2510128 0.007933328
-0.13862132 0.0055699586 -0.016112965 0.11853498 0.10804056 -0.019323902 0.09556428 -0.0385813
-0.039330464 0.12664132 0.13296758 -0.09018613 0.006115244 0.04560465 -0.019022124 -0.03832753
-0.008408071 0.08100172 -0.07133259 0.07546571 0.21751668 0.033201948 -0.05741979 0.0030627516
0.01668282 -0.053802993 -0.24684258 0.034679826 -0.13734469 0.005372061 0.050417885 -0.020839239
