CNP-model-save-name/saved_models/model_20000.pth.pth.tar (torch, 544340 bytes, 26 tensors)

_deterministic_encoder.linear_layers_list.0.weight f4 [128, 2]
000000 28 2c c3 bb a5 f8 cc bc 4c 34 15 3f a1 2d 01 3f
       -0.0059561916 -0.025020907 0.58282924 0.5046025
000010 8d 12 29 be 9f c4 52 3d 21 85 a7 be 1e 51 20 3f
       -0.16510983 0.051457044 -0.32718757 0.62623775
000020 39 5d a7 bc 51 4d a1 bc 1d 8e 1a bf a4 a1 83 3e
       -0.020430194 -0.019690188 -0.603731 0.2570926
000030 13 b1 ad b5 28 57 0d bc c6 f9 a9 3e 12 02 47 bd
       -1.294104e-06 -0.008626737 0.33198375 -0.04858596
000040 11 d7 97 bc ab 13 c7 bc 37 b9 7a bc 0a a2 c1 bc
       -0.018535169 -0.02430137 -0.015302948 -0.023636837
000050 6b 17 4d bd 3b 20 ab 3e 98 1c 4f bc 01 f2 e4 bc
       -0.05007116 0.33423027 -0.012641095 -0.027947428
000060 57 4c be bc ec 39 f2 bc 1a 84 99 3e ad d9 bf bd
       -0.023229761 -0.029568635 0.29983598 -0.0936769
000070 4a fc 92 3e 52 11 71 bd 14 95 29 3f a5 b9 ea 3e
       0.28708106 -0.05885441 0.662431 0.4584476
000080 dc 3e b5 be a1 5e 8d b9 a1 11 04 bc 6c c5 e5 bc
       -0.3539952 -0.0002696412 -0.008060844 -0.02804824
000090 95 0a 8b bc b4 e3 00 bd f9 8c 07 bc 6f 38 5b bc
       -0.01697282 -0.031467155 -0.008273357 -0.013380154
0000a0 8c bb c5 3d af bb 29 3f f8 0e 16 bf 92 93 9d 3e
       0.09654912 0.6630201 -0.5861659 0.3077665
0000b0 12 80 f9 bb 93 58 f1 bb 09 04 2d be 56 c9 07 3f
       -0.007614144 -0.007365295 -0.1689607 0.5304159
0000c0 e3 5c 05 00 d1 88 6c 9e 62 21 89 be 1b 47 b1 3b
       4.92499e-40 -1.2522029e-20 -0.26783282 0.0054100878
0000d0 f4 c7 02 be e7 92 3e 3e f8 ab 0a 3d 3f f8 0d bd
       -0.12771589 0.18610726 0.03385541 -0.034660574
0000e0 cc 5b 05 80 ba 6a 83 a7 57 d0 5d 26 98 ce 1e b9
       -4.92108e-40 -3.6475517e-15 7.695713e-16 -0.00015145016
0000f0 6b e6 a9 bc e7 f0 e3 bc a2 3a ca 3e e4 7b 75 3e
       -0.020739755 -0.027824832 0.39497858 0.23973042
000100 86 0b 27 bc d7 44 fa bc c0 f5 95 ba b4 aa a2 bc
       -0.0101956185 -0.030550404 -0.0011441037 -0.019856788
000110 ea 46 78 be d2 e3 7e 3c 9b b7 c4 b7 04 72 3b bc
       -0.24245802 0.015557246 -2.3450519e-05 -0.011440758
000120 da bb 14 b6 5a f7 b7 bb 15 d9 18 bf 7d cd 7e 3e
       -2.2163063e-06 -0.0056142034 -0.5970624 0.24883075
000130 f5 b0 51 bb c4 7d 80 bb e0 ef 6e bf 19 d8 22 3e
       -0.0031996344 -0.0039212424 -0.9333477 0.15902747
000140 5c 2b b5 3d 14 78 78 3e 37 4f 0c be fd 9f 22 3f
       0.08846161 0.24264556 -0.13702093 0.6352537
000150 c4 56 b3 3e 9f f4 e2 3d 2f 74 d3 3a f2 bd 35 bb
       0.35027134 0.11081814 0.0016132648 -0.0027731624
000160 9e 5d b0 bc be 6c d3 bc d7 cb 5b bb eb 13 86 bc
       -0.021529015 -0.025808688 -0.0033538246 -0.01636692
000170 4b a3 e4 be 20 6e fa 3c 0e 58 05 80 97 f9 95 98
       -0.44655833 0.03057009 -4.90766e-40 -3.876762e-24
000180 30 b3 8a 3e d9 ff fa 3e e8 0e d5 3d 98 8d 4d 3e
       0.27089834 0.4902332 0.10403234 0.20073545
000190 60 4a b2 3e 41 f2 28 3f ab 17 25 bf cd 96 94 3e
       0.3482237 0.6599465 -0.6448924 0.29021302
0001a0 ae 9c 68 bb d1 7e a8 bc 20 93 d6 be b6 90 f9 3e
       -0.003549378 -0.020568283 -0.41909122 0.48743218
0001b0 0f 14 bf bb f6 d0 db bc 68 48 3f be cb b0 ac 3e
       -0.0058312486 -0.026833039 -0.18679965 0.33728632
0001c0 8b 2c b9 be fc f6 16 3f 6a b3 16 3e c8 78 f8 bc
       -0.36166796 0.5897062 0.14716879 -0.03033103
0001d0 48 f1 01 bc 69 30 9e bc 11 42 13 3f 07 5a 83 bd
       -0.007931061 -0.019310193 0.57522684 -0.06413656
0001e0 c1 b9 eb bc 17 85 f2 bc 8e 04 de 3d 74 34 27 3f
       -0.028775098 -0.029604478 0.108407125 0.6531441
0001f0 e1 7a 84 3e a9 12 58 bd 3a 60 05 80 df 4f a0 a8
       0.25875 -0.05275217 -4.93697e-40 -1.7798207e-14
000200 b3 38 93 3e db fa 2a 3f 03 41 cf bc e5 fb cd bc
       0.28754196 0.66789025 -0.025299555 -0.025144527
000210 ef 2b 62 b9 b3 91 45 37 97 e2 43 bc 08 82 d2 bc
       -0.00021569406 1.1776038e-05 -0.011955879 -0.02569677
000220 f5 9d 06 bf 6d fd 0f 3d 67 2b d6 be 07 55 73 3e
       -0.52584773 0.035153795 -0.41829988 0.23762904
000230 a5 5b 05 00 29 61 19 b1 e4 12 02 bd 1b 12 02 bd
       4.92053e-40 -2.231966e-09 -0.031756297 -0.031755548
000240 88 3f 2d bf ec d6 e6 3e 1a 72 b5 af 49 4d 28 bb
       -0.67675066 0.45085847 -3.3004782e-10 -0.0025680831
000250 b7 38 a0 be e0 c2 86 3e 80 11 08 bf 57 01 b5 3d
       -0.3129327 0.26320553 -0.531517 0.08838146
000260 ff c7 84 bc 06 cc 87 bc 8b 7b 58 be dd 4e 45 bc
       -0.016208647 -0.016576778 -0.21140878 -0.012042728
000270 e5 95 56 bc 8b 76 ad bc a8 52 d2 be 3b 29 3d 3e
       -0.013097261 -0.02117469 -0.41078687 0.1847276
000280 11 27 95 b9 41 c6 a3 b9 22 11 81 3e 05 2a 81 bd
       -0.000284486 -0.00031237493 0.25208384 -0.06306843
000290 d8 1a 20 b9 67 75 ee b7 a0 f4 e0 be 5a c3 ce 3e
       -0.00015268789 -2.842648e-05 -0.43936634 0.40383416
0002a0 f3 3e e0 b1 09 5c 84 bb 05 a1 8f bc 1d d3 de bc
       -6.5264145e-09 -0.0040392918 -0.017532835 -0.027200276
0002b0 09 7a 4e be f3 f8 39 3c e8 51 7b bb 93 c6 70 bc
       -0.2016374 0.011350858 -0.003834838 -0.014695781
0002c0 24 e7 0a bf bf 62 a1 3e 38 73 38 3e d8 9f 1c bd
       -0.5425894 0.3152065 0.18012702 -0.038238376
0002d0 1c b0 05 bf 99 7d 12 3d 34 07 3c bf d2 37 26 3d
       -0.52221847 0.03576431 -0.7344849 0.04058058
0002e0 12 3e fa bd a4 97 0b 3f e2 cc fe 3e 33 15 ff 3e
       -0.1221887 0.5452826 0.49765688 0.4982086
0002f0 da 51 8c be 30 3a 8b 3e e2 75 9b be c9 67 8f 3e
       -0.27406198 0.2719283 -0.30363375 0.2800887
000300 94 2c a8 bc e4 26 9c bc 69 d1 81 be 1b fb bd 3e
       -0.020529069 -0.019061513 -0.2535508 0.3710564
000310 6e d2 db bb b8 af ff bb 01 10 1f 3e 07 7a b3 3e
       -0.006708435 -0.0078029297 0.15533449 0.35054037
000320 0c f2 03 bd dc 9e e9 3e b0 56 e5 bc 38 ec fe bc
       -0.032213256 0.45629013 -0.027995437 -0.031118497
000330 83 4d 70 3c a9 d4 34 3f c4 0c 8b bc 7c 8d a6 bc
       0.014666918 0.70636994 -0.01697386 -0.020331137
000340 8f fe cb be 14 7b 0a 3f 70 97 6a bc 44 a6 f9 bc
       -0.3984265 0.5409405 -0.014318332 -0.03047479
000350 d8 ff 81 3e f1 17 d9 3d 61 a1 0c 3d dc 67 13 3f
       0.25390506 0.106002696 0.03433359 0.5758035
000360 5b 12 ad 3e 16 30 56 bd ea 92 78 bc f8 31 b2 bc
       0.33803067 -0.052291952 -0.015171746 -0.021752343
000370 f9 a8 1a be 39 70 d3 3e c8 5b 05 80 a6 fa 3d a2
       -0.1510352 0.41296557 -4.92102e-40 -2.5746969e-18
000380 db 09 10 83 d4 b2 f2 b3 83 c5 68 90 e0 e0 8b b8
       -4.232911e-37 -1.1301532e-07 -4.590609e-29 -6.669923e-05
000390 a8 06 2d bf 12 39 93 3d c3 c5 3a 3a 40 d7 26 b9
       -0.6758828 0.0718862 0.00071248057 -0.0001591118
0003a0 63 c9 29 bd 0c 9c 27 bd 85 d4 17 bf 18 de 04 3f
       -0.041451823 -0.040920302 -0.59308654 0.5190139
0003b0 ac 64 ab 3e fb ab 93 bd 32 02 a4 ba 19 75 8a bc
       0.33475244 -0.07210537 -0.0012512861 -0.01690154
0003c0 a3 05 92 3d 72 ff 7b bc 99 82 aa 3e 85 59 5d 3e
       0.07129981 -0.015380727 0.33302763 0.2161618
0003d0 ac a7 92 bc 9d ad 83 bc b1 cf 0d bb c8 9b bd bc
       -0.017902218 -0.016073996 -0.0021638686 -0.023145571
0003e0 b1 45 4e bc 0b ea 76 bc 66 5b 05 00 77 17 b1 a3
       -0.012589858 -0.015070449 4.91965e-40 -1.9200316e-17
0003f0 b1 66 a9 b7 bc 05 5c bb 6a 09 73 be 23 e9 ad 3e
       -2.019419e-05 -0.0033572754 -0.2373406 0.33966932

_deterministic_encoder.linear_layers_list.0.bias f4 [128]
000000 6d 5a 05 00 9b 79 ef bd 3a 02 01 bf 51 be c0 be
       4.91616e-40 -0.11693116 -0.5039402 -0.376452
000010 0b f3 9d bc b6 7f 8e 3e 88 63 05 00 31 a4 0f bc
       -0.019280931 0.2783181 4.94883e-40 -0.008767174
000020 d5 5b 05 00 a0 62 05 00 3d 79 1f bf ec 8b 05 00
       4.9212e-40 4.94557e-40 -0.6229437 5.09372e-40
000030 29 5d 05 00 de 5d 05 80 e8 ba ce 3d e3 d4 15 3f
       4.92597e-40 -4.9285e-40 0.10094243 0.58527964
000040 3f 4d 07 bc 95 62 05 00 11 62 05 00 a3 5f 05 80
       -0.008258163 4.94542e-40 4.94357e-40 -4.93485e-40
000050 2e a4 2f bf 08 f9 23 bf ac 66 ef bb c2 90 1c be
       -0.68609893 -0.64051867 -0.0073059406 -0.15289596
000060 16 6c 05 80 51 dc 8a 9a e7 0f 8f be e0 59 05 00
       -4.97951e-40 -5.74314e-23 -0.2794182 4.91419e-40
000070 b0 61 05 00 84 63 05 00 8e 59 05 00 da 12 02 bf
       4.94221e-40 4.94877e-40 4.91304e-40 -0.50810015
000080 c1 5c 05 00 b3 a6 05 00 70 5a be bd 29 63 05 00
       4.92451e-40 5.18978e-40 -0.09294593 4.9475e-40
000090 3e 61 05 80 21 ea c9 be 5d c9 1a a9 a3 73 38 bf
       -4.94061e-40 -0.3943644 -3.4369524e-14 -0.7205145
0000a0 6b 50 81 3e e0 07 b2 3e 18 72 2a bf 2d 5e 05 00
       0.25256667 0.34771633 -0.66580343 4.92961e-40
0000b0 db 5a 05 00 3e 74 05 80 ff 13 32 3d 39 5d 05 80
       4.9177e-40 -5.00877e-40 0.0434761 -4.9262e-40
0000c0 bf d2 f9 bd 60 c6 3e bf 69 ba 20 3f fe e9 2c be
       -0.121984 -0.74521446 0.6278444 -0.16886136
0000d0 08 5d 05 00 26 5a 88 be 31 5d 05 00 5a e1 30 bf
       4.92551e-40 -0.26631278 4.92608e-40 -0.6909386
0000e0 0b e4 ea be ce a4 e7 b9 85 62 05 00 3e 02 9b 3e
       -0.45877108 -0.00044182542 4.9452e-40 0.30275148
0000f0 62 aa 61 b4 1a c1 42 be fb ef 05 be c8 61 05 00
       -2.1016743e-07 -0.19018975 -0.13079827 4.94255e-40
000100 e4 c4 85 be 23 92 70 b8 10 f8 cb b5 36 61 05 00
       -0.26126778 -5.735656e-05 -1.5196874e-06 4.9405e-40
000110 18 ee a5 38 35 80 a3 3e a8 57 05 00 bd 2a f7 bc
       7.9121615e-05 0.31933752 4.90623e-40 -0.030171746
000120 54 f1 cc be 8d 5a 05 00 17 a7 f6 3e 6a 85 0a 3e
       -0.4002787 4.91661e-40 0.48174354 0.13527456
000130 0c 5a 02 a2 a6 1f 27 bc 93 58 05 00 13 d6 33 bf
       -1.7665956e-18 -0.010200417 4.90952e-40 -0.70248526
000140 54 e4 69 b4 94 60 05 80 c5 fc e2 9a 54 89 32 bf
       -2.1782881e-07 -4.93823e-40 -9.387978e-23 -0.69740796
000150 7a 5c 05 00 69 63 05 00 35 60 05 00 ca 5f 05 80
       4.92352e-40 4.94839e-40 4.9369e-40 -4.9354e-40
000160 8b e1 12 3e d1 b8 d8 31 5b 0b c0 3c 30 e9 68 b9
       0.1434385 6.3074386e-09 0.023442915 -0.00022212113
000170 3a eb 07 bf f3 8a 2b bf 2f 3d f7 3e 75 03 64 bd
       -0.530933 -0.67008895 0.48288867 -0.05566736
000180 a2 a5 68 b7 45 4a 6c be 1d 63 44 9a 9d dc 3e be
       -1.3866842e-05 -0.23075207 -4.0611913e-23 -0.18638845
000190 a0 cd d1 3e 96 62 07 92 b6 8e 0e bf a8 35 17 80
       0.40977192 -4.2720005e-28 -0.5568651 -2.131465e-39
0001a0 22 e4 81 3e ae 58 05 00 2e b7 59 3e 2f 11 d0 3e
       0.25369364 4.9099e-40 0.21261284 0.4063811
0001b0 9b c8 a4 be c8 5a 05 00 18 a5 ba be 25 5f 05 80
       -0.321843 4.91744e-40 -0.36454082 -4.93309e-40
0001c0 10 61 05 00 eb 5e 05 00 21 1f 45 bf 1a c8 73 b8
       4.93997e-40 4.93228e-40 -0.77000624 -5.8122074e-05
0001d0 70 b8 2f bd e8 39 f6 be 26 c1 23 21 3d 63 05 00
       -0.042900503 -0.48091054 5.548218e-19 4.94777e-40
0001e0 eb 2c b6 29 b3 67 09 be fa b3 4c bc 89 58 05 00
       8.0902156e-14 -0.13418464 -0.012494082 4.90938e-40
0001f0 c7 59 05 00 e1 b2 06 00 53 5d 05 80 57 d7 ec 3e
       4.91384e-40 6.15183e-40 -4.92656e-40 0.4625804

_deterministic_encoder.linear_layers_list.2.weight f4 [128, 128]
000000 a8 8c 05 80 6c 5b fb bb ca 97 70 b3 8b 7c f6 bb
       -5.09635e-40 -0.0076708104 -5.6017406e-08 -0.007522171
000010 01 8c 05 00 99 41 39 ba ce 57 06 00 8e ce 40 ae
       5.09401e-40 -0.0007066965 5.82511e-40 -4.3839203e-11
000020 81 94 05 00 62 84 05 80 72 d5 34 bb 6d 79 05 80
       5.1245e-40 -5.06667e-40 -0.0027593044 -5.02737e-40
000030 95 25 06 00 23 5c 05 00 83 51 71 b2 34 22 d4 bb
       5.64495e-40 4.9223e-40 -1.404658e-08 -0.006473804
000040 50 73 05 00 f3 7e 05 80 8a 5f 05 80 8e 6f 05 00
       5.00544e-40 -5.04718e-40 -4.9345e-40 4.99196e-40
000050 8e 92 10 bc 50 b2 9a ba 0d 72 05 00 3b 7b c3 bb
       -0.008824004 -0.0011802409 5.00091e-40 -0.005965618
000060 4f 83 05 00 ff 57 05 00 3e d5 d2 b9 f1 63 05 00
       5.06282e-40 4.90745e-40 -0.000402132 4.9503e-40
000070 da ad 05 00 bf 6f 05 00 7d 59 05 80 f0 2c 03 bb
       5.21544e-40 4.99264e-40 -4.9128e-40 -0.0020015799
000080 26 96 05 00 bc 60 05 80 3b 93 ab b4 af 9c 06 00
       5.1304e-40 -4.93879e-40 -3.1958356e-07 6.0722e-40
000090 1b 9d 05 80 22 07 85 b9 b1 85 05 00 b4 61 49 ba
       -5.15536e-40 -0.0002537305 5.07137e-40 -0.00076821004
0000a0 8d 3a dd ba 50 c3 03 bc 29 cb f9 b9 38 65 05 00
       -0.0016878411 -0.008042172 -0.00047644347 4.95488e-40
0000b0 68 64 05 80 f9 7c 05 80 91 3b 90 b4 d4 62 05 80
       -4.95196e-40 -5.04009e-40 -2.686543e-07 -4.9463e-40
0000c0 62 23 cb bb f9 c1 87 ba 2d 52 1a bc 42 1d ae ba
       -0.0061992863 -0.0010357491 -0.009419006 -0.0013283866
0000d0 ea 1b 06 80 a2 c0 c6 bb c6 0d 06 80 d0 e1 5c bb
       -5.61027e-40 -0.006065444 -5.55954e-40 -0.003370393
0000e0 d0 8f d3 bb dc 5c 05 00 a1 5f 05 80 24 eb 2f b0
       -0.006456353 4.92489e-40 -4.93483e-40 -6.3998784e-10
0000f0 a9 85 05 80 66 31 13 bc d2 26 00 95 cc 65 05 00
       -5.07126e-40 -0.0089839455 -2.5880018e-26 4.95695e-40
000100 ce 39 1a bc 14 ac 06 80 17 74 05 00 ec d9 05 00
       -0.009413196 -6.12743e-40 5.00823e-40 5.37353e-40
000110 32 60 05 00 bf b2 18 ba f4 83 05 00 62 64 05 00
       4.93686e-40 -0.0005824975 5.06513e-40 4.95188e-40
000120 a8 4d 3e bb 98 a9 05 00 aa 4a 1e bb 16 fe c0 b7
       -0.0029037986 5.20016e-40 -0.002415339 -2.3006502e-05
000130 05 a5 05 00 37 92 05 00 c0 7d 06 00 23 7e e6 b8
       5.18375e-40 5.1163e-40 5.96124e-40 -0.000109907494
000140 ed b3 05 00 1c 5f 05 00 d2 fd 05 00 ad 3a 3c bb
       5.23723e-40 4.93296e-40 5.50231e-40 -0.0028721497
000150 9a 79 05 00 26 aa 05 00 83 69 05 80 2a d1 05 00
       5.028e-40 5.20215e-40 -4.97028e-40 5.34211e-40
000160 4e 87 5b ba 58 5c 05 00 ed 5a 1b 9d d1 5f 05 00
       -0.0008374349 4.92304e-40 -2.0561087e-21 4.9355e-40
000170 1b 3d c9 bb 2f 60 e1 bb 3d b2 c8 ba ba 8b 9a ba
       -0.0061413175 -0.006877921 -0.0015311908 -0.0011790909
000180 96 72 05 00 55 20 3d bb c4 e9 05 80 e3 c7 84 bb
       5.00283e-40 -0.0028858383 -5.43037e-40 -0.0040521487
000190 64 c0 9e bb c7 61 05 80 7c 9d 17 bc 65 74 05 80
       -0.004844712 -4.94253e-40 -0.009253856 -5.00932e-40
0001a0 44 c5 b8 bb 8d 4f 06 00 f4 00 26 b9 40 a1 f0 bb
       -0.0056387503 5.7955e-40 -0.00015831349 -0.0073434412
0001b0 5a 28 35 b4 b4 82 05 00 e7 7b 75 bb f1 5c 05 00
       -1.6871618e-07 5.06065e-40 -0.0037457885 4.92519e-40
0001c0 de b9 05 80 70 68 06 80 f8 a1 fd b3 39 78 05 80
       -5.25854e-40 -5.88478e-40 -1.18106925e-07 -5.02305e-40
0001d0 cf bc 05 80 3e de 99 bb cf 5b 05 80 da 57 05 80
       -5.26909e-40 -0.004695683 -4.92112e-40 -4.90693e-40
0001e0 a1 57 05 00 fa a5 f1 ba 12 af 05 00 c0 66 05 80
       4.90613e-40 -0.0018436306 5.21981e-40 -4.96037e-40
0001f0 7a 65 05 80 de 96 05 80 4f 87 05 00 62 c4 76 bb
       -4.9558e-40 -5.13298e-40 5.07717e-40 -0.0037653674
000200 9d a3 05 80 d3 04 02 bd 4b e0 00 bd b3 04 02 bd
       -5.17871e-40 -0.031742882 -0.031463902 -0.031742763
000210 84 92 06 80 f6 d3 01 bd c7 24 06 80 60 dc fd bc
       -6.03573e-40 -0.031696282 -5.64206e-40 -0.030988872
000220 e1 66 05 00 2d a0 05 00 cd f3 01 bd 89 7c 05 00
       4.96083e-40 5.16638e-40 -0.031726647 5.03852e-40
000230 4a 87 05 80 d2 5d 05 00 1e 5e 05 00 2b 03 02 bd
       -5.0771e-40 4.92834e-40 4.9294e-40 -0.031741302
000240 ca 62 05 00 c3 c6 05 80 44 89 05 00 39 6e 05 00
       4.94616e-40 -5.3048e-40 5.08419e-40 4.98718e-40
000250 92 07 02 bd 80 e2 01 bd d1 70 05 80 55 01 02 bd
       -0.0317455 -0.031710148 -4.99648e-40 -0.03173955
000260 5d 5a 05 80 27 58 05 00 d3 ce 01 bd ef 8a 06 00
       -4.91594e-40 4.908e-40 -0.031691384 6.00853e-40
000270 42 25 06 80 98 87 05 80 c4 57 05 80 25 ef 01 bd
       -5.64379e-40 -5.0782e-40 -4.90662e-40 -0.031722207
000280 04 98 05 00 6e b6 05 80 98 98 05 00 10 64 06 00
       5.1371e-40 -5.24621e-40 5.13918e-40 5.86909e-40
000290 26 af 05 00 31 cc 01 bd 71 8a 05 00 54 91 01 bd
       5.22009e-40 -0.031688873 5.08841e-40 -0.031632736
0002a0 c9 e8 01 bd a6 05 02 bd ef ca 01 bd 2e 8c 06 80
       -0.03171614 -0.031743668 -0.031687673 -6.013e-40
0002b0 20 84 05 00 0f 62 05 80 6d 79 05 00 94 c8 05 80
       5.06575e-40 -4.94354e-40 5.02737e-40 -5.31131e-40
0002c0 3c 02 02 bd 38 df 01 bd b4 08 02 bd f2 dc 01 bd
       -0.031740412 -0.03170702 -0.03174658 -0.03170485
0002d0 3e 6d 06 80 47 fe 01 bd 45 68 05 80 93 f2 01 bd
       -5.90202e-40 -0.03173664 -4.96582e-40 -0.031725477
0002e0 c0 02 02 bd e0 5d 05 80 71 49 06 80 3f 37 00 bd
       -0.031740904 -4.92853e-40 -5.77359e-40 -0.031302687
0002f0 d7 73 06 80 6e 07 02 bd b1 5f 05 00 cc 5e 05 80
       -5.92568e-40 -0.031745367 4.93505e-40 -4.93184e-40
000300 a9 08 02 bd 71 d7 05 00 18 6e 05 80 a5 7e 05 80
       -0.03174654 5.36463e-40 -4.98672e-40 -5.04609e-40
000310 3b 57 05 00 32 d4 01 bd e6 7d 06 80 f5 6a 05 00
       4.9047e-40 -0.031696506 -5.96177e-40 4.97546e-40
000320 d8 f6 01 bd fc 6f 05 80 2f e6 01 bd 05 05 01 bd
       -0.03172955 -4.9935e-40 -0.03171366 -0.031498928
000330 77 71 05 80 f3 59 05 80 66 6d 05 00 9f b6 01 bd
       -4.99881e-40 -4.91445e-40 4.98422e-40 -0.0316683
000340 82 d1 06 00 db 59 05 00 01 8e 05 80 86 f5 01 bd
       6.2617e-40 4.91412e-40 -5.10119e-40 -0.03172829
000350 46 7a 05 00 31 ef 05 80 f8 5a 05 80 af 3f 06 00
       5.03041e-40 -5.44983e-40 -4.91811e-40 5.73858e-40
000360 e7 e3 01 bd 20 5a 05 80 5a 5b 05 00 78 58 05 80
       -0.031711485 -4.91508e-40 4.91948e-40 -4.90914e-40
000370 3a 02 02 bd ec 03 02 bd b1 e5 01 bd e2 e4 01 bd
       -0.031740405 -0.03174202 -0.03171319 -0.03171242
000380 22 ce 05 80 f6 f4 01 bd b6 e7 05 00 28 f9 01 bd
       -5.33124e-40 -0.031727754 5.423e-40 -0.031731755
000390 9c fe 01 bd 15 ac 05 00 a3 08 02 bd c5 6e 05 80
       -0.031736955 5.20909e-40 -0.031746518 -4.98914e-40
0003a0 6b 00 02 bd 31 8e 05 00 7e bf 01 bd 9a 04 02 bd
       -0.03173868 5.10186e-40 -0.03167676 -0.03174267
0003b0 60 ff fd bc 70 82 05 80 30 fa 01 bd 2d 75 05 00
       -0.031005561 -5.0597e-40 -0.031732738 5.01212e-40
0003c0 8a 68 05 80 c5 99 05 00 4e ca ff bc 9d 58 05 00
       -4.96679e-40 5.1434e-40 -0.031224396 4.90966e-40
0003d0 e2 89 05 80 aa fd 01 bd fb 62 05 80 08 8b 06 00
       -5.0864e-40 -0.031736054 -4.94685e-40 6.00888e-40
0003e0 69 5f 05 00 b4 ea 01 bd 4b 71 05 00 0a cc 06 00
       4.93404e-40 -0.03171797 4.9982e-40 6.24208e-40
0003f0 fb 72 05 80 33 ba 05 00 e6 60 05 80 66 f3 01 bd
       -5.00425e-40 5.25973e-40 -4.93938e-40 -0.031726263

_deterministic_encoder.linear_layers_list.2.bias f4 [128]
000000 ac 5a 05 00 2a 02 1a bc 74 9d bf 38 80 ab bd 19
       4.91704e-40 -0.00939993 9.136918e-05 1.961141e-23
000010 95 2f 18 ba 9a 9d c7 bc b2 5e 05 00 83 61 05 80
       -0.000580543 -0.024367142 4.93148e-40 -4.94158e-40
000020 75 c2 06 80 cb ab 00 2f 1c 64 05 00 a9 b7 05 80
       -6.20771e-40 1.1702565e-10 4.9509e-40 -5.25062e-40
000030 83 5b da 3d 01 5d 05 00 33 54 8f b1 b5 b4 2b bb
       0.10661986 4.92541e-40 -4.17142e-09 -0.002620024
000040 b1 31 33 a7 f7 57 05 00 57 5d 05 00 d2 ae a3 bc
       -2.4868178e-15 4.90733e-40 4.92662e-40 -0.019980822
000050 98 91 97 bb ed 63 05 00 02 5b 05 00 d0 36 c4 8e
       -0.0046255104 4.95024e-40 4.91825e-40 -4.8370513e-30
000060 00 6f 1e bd de 5c 05 00 ac 59 05 00 de b3 48 bc
       -0.038680077 4.92492e-40 4.91346e-40 -0.012249915
000070 ec 63 05 00 cc 5f 05 00 76 57 05 80 9d 5a 05 00
       4.95023e-40 4.93543e-40 -4.90553e-40 4.91683e-40
000080 61 fb 24 aa 8f 57 05 00 cd ec 17 bc b5 62 05 00
       -1.465334e-13 4.90588e-40 -0.009272766 4.94587e-40
000090 d2 57 05 00 8f fb 7b bc 0b 60 05 00 eb 84 13 bd
       4.90681e-40 -0.0153798 4.93631e-40 -0.036015432
0000a0 4b 59 05 00 5b 5a 05 00 66 5b 05 80 97 62 05 00
       4.9121e-40 4.91591e-40 -4.91965e-40 4.94545e-40
0000b0 a2 cd bc 26 0c 1c 9a b9 35 2c 31 3c 51 62 05 00
       1.3100857e-15 -0.00029394065 0.010813762 4.94447e-40
0000c0 e8 5f 05 00 2f 39 3c b4 cb 5d 05 80 c8 41 f0 b1
       4.93582e-40 -1.7529668e-07 -4.92824e-40 -6.9923978e-09
0000d0 7c 5c 05 80 db 2f 95 3b fb 5c 05 00 d1 45 71 bd
       -4.92355e-40 0.004552824 4.92533e-40 -0.058904473
0000e0 22 58 05 00 6d 5d 05 00 02 63 05 00 28 5b 05 80
       4.90794e-40 4.92692e-40 4.94695e-40 -4.91878e-40
0000f0 5d 63 05 00 8c 0d 15 8c 79 5a 05 00 7d 15 6a bc
       4.94822e-40 -1.1482619e-31 4.91633e-40 -0.01428735
000100 55 5c 05 80 15 5a 05 00 54 80 c6 37 b5 f2 85 bd
       -4.923e-40 4.91493e-40 2.3663197e-05 -0.06540433
000110 a7 59 05 00 55 d4 c0 b2 42 63 05 00 41 61 05 80
       4.91339e-40 -2.24483e-08 4.94784e-40 -4.94066e-40
000120 96 9d 5d a3 f8 05 ab bc 2e 01 84 3c 52 59 05 00
       -1.2013804e-17 -0.02087687 0.016113844 4.9122e-40
000130 7f 63 05 80 6d d4 fd 32 87 59 05 00 75 de d7 3a
       -4.9487e-40 2.9549676e-08 4.91294e-40 0.0016469496
000140 1c 3d 6c b6 67 5a 05 00 9a d2 c3 bc 38 12 03 3e
       -3.520231e-06 4.91608e-40 -0.023904134 0.12799919
000150 d0 5f 05 00 57 2d d8 3c 13 c1 dc 9f 20 4e 95 3d
       4.93549e-40 0.026388807 -9.349304e-20 0.07290292
000160 76 cd 58 b8 9c 13 8f bc 74 63 05 00 f9 bf a3 3b
       -5.1689763e-05 -0.017465405 4.94855e-40 0.00499725
000170 75 58 05 80 4d 7b 8f 3d 65 5d 05 00 ca 63 05 80
       -4.9091e-40 0.0700594 4.92681e-40 -4.94975e-40
000180 7e ee 08 3a 54 7e 0f b1 e7 6e fb bb b6 5e 05 00
       0.00052235264 -2.0881048e-09 -0.0076731327 4.93153e-40
000190 16 5d 05 80 b8 41 83 bd d3 0a 6a b9 a9 44 b9 3c
       -4.9257e-40 -0.06409019 -0.00022320011 0.022615748
0001a0 fd bc 06 80 3e 57 05 00 4b 62 05 80 7e b0 07 bc
       -6.18809e-40 4.90474e-40 -4.94438e-40 -0.008281825
0001b0 53 de 24 bd 19 26 8e bc 0f e2 bb bc f1 58 05 00
       -0.040251087 -0.01735215 -0.022934942 4.91084e-40
0001c0 8c 74 39 3d 40 5f 05 80 5f 3e 14 b5 50 58 05 00
       0.045277163 -4.93347e-40 -5.522506e-07 4.90858e-40
0001d0 2c 5b 05 00 b5 2b f5 b6 94 9c 6d 3b 55 3e 23 28
       4.91884e-40 -7.306657e-06 0.0036256658 9.061834e-15
0001e0 7e 10 54 ae 2a df 45 af 75 5a 05 00 9a 5c 05 00
       -4.8217867e-11 -1.799633e-10 4.91627e-40 4.92397e-40
0001f0 92 57 05 00 0b 1b 32 b7 66 99 2d 8c 19 5a 05 00
       4.90592e-40 -1.0615923e-05 -1.3373597e-31 4.91498e-40

_deterministic_encoder.linear_layers_list.4.weight f4 [128, 128]
000000 0b 5d 05 00 9a 5b 05 00 83 6a 2c bc 08 f6 07 ba
       4.92555e-40 4.92038e-40 -0.010523441 -0.0005186503
000010 00 bd 05 80 d6 5d 86 39 14 74 05 80 4d 99 05 00
       -5.26978e-40 0.00025628385 -5.00818e-40 5.14171e-40
000020 e1 5d 05 80 fe 0d 35 3b 95 07 48 b9 c0 97 05 80
       -4.92855e-40 0.0027626748 -0.00019076311 -5.13615e-40
000030 0a 32 02 bd 74 c4 06 00 a3 72 05 80 19 59 05 00
       -0.031786002 6.21487e-40 -5.00301e-40 4.9114e-40
000040 3c 4a 06 80 14 75 05 80 61 b6 05 80 43 86 6c 3b
       -5.77643e-40 -5.01177e-40 -5.24603e-40 0.0036090768
000050 ff 1e 25 3c 83 6c 05 00 25 65 05 80 38 84 05 00
       0.010078191 4.98104e-40 -4.95461e-40 5.06609e-40
000060 0b 21 4d 3c b0 be 05 80 d1 57 05 80 b6 67 0a bc
       0.012520085 -5.27583e-40 -4.9068e-40 -0.008447578
000070 2b 71 05 80 64 5d 84 37 79 61 05 00 d2 6b 05 80
       -4.99774e-40 1.5779115e-05 4.94144e-40 -4.97856e-40
000080 ca a0 06 80 d9 a0 05 00 44 ab 9a bc 6e ee 05 80
       -6.08693e-40 5.16879e-40 -0.018880494 -5.4471e-40
000090 0c c3 05 80 a1 f4 05 80 13 a9 05 80 07 8b e6 b8
       -5.29147e-40 -5.46934e-40 -5.1983e-40 -0.000109931505
0000a0 cc 8f 05 80 70 f4 0d 39 13 9b 05 80 ac 6b 05 80
       -5.10762e-40 0.00013537868 -5.14808e-40 -4.97803e-40
0000b0 9b 88 35 b9 2e 5c 05 00 2d 7e a2 ba 51 8b 05 00
       -0.00017312395 4.92245e-40 -0.0012397222 5.09155e-40
0000c0 c2 a3 2e 38 08 45 c9 bb 48 75 05 80 2d 9a 8b 3b
       4.1637344e-05 -0.0061422624 -5.0125e-40 0.0042603225
0000d0 f2 61 05 80 07 c3 55 3b 85 75 05 00 9b ec 04 bc
       -4.94314e-40 0.0032617466 5.01336e-40 -0.008113052
0000e0 51 70 05 80 b7 1d 06 80 db 5d 05 80 e6 cc 06 00
       -4.99469e-40 -5.61673e-40 -4.92846e-40 6.24517e-40
0000f0 a4 8d 05 00 54 94 05 80 6d 91 05 80 16 8a e3 3b
       5.09989e-40 -5.12388e-40 -5.11346e-40 0.0069439514
000100 ff 72 05 80 d2 5e 05 00 51 06 bb ba c0 ef 68 ba
       -5.0043e-40 4.93193e-40 -0.001426885 -0.0008885823
000110 8f ee 05 80 db a3 05 00 9a 63 05 80 98 5d c3 b7
       -5.44756e-40 5.17958e-40 -4.94908e-40 -2.3289394e-05
000120 3b 61 06 80 74 c2 a4 bb 15 b7 d3 3a b6 5c 05 80
       -5.85893e-40 -0.0050280634 0.0016152585 -4.92436e-40
000130 8a ba 06 00 56 ab 16 3b 7d 54 06 80 9c 77 4c 3c
       6.1793e-40 0.0022990308 -5.81322e-40 0.012479689
000140 9e 78 06 80 2a c7 05 80 b2 78 0f b9 86 c1 9f ba
       -5.94282e-40 -5.30624e-40 -0.00013682505 -0.0012188412
000150 c8 80 05 80 68 21 bc bb 31 63 05 80 fa e0 9e 3c
       -5.05375e-40 -0.005741287 -4.9476e-40 0.019394387
000160 5d 84 05 00 f9 6e 05 00 3f fd 05 00 29 c5 93 bb
       5.0666e-40 4.98987e-40 5.50025e-40 -0.0045095873
000170 48 b3 05 00 a9 60 af bc b1 c3 05 80 2e 61 05 80
       5.23491e-40 -0.021408396 -5.29378e-40 -4.94039e-40
000180 d6 81 7e 3b 63 b7 0d bb 7f 03 1b 3c a7 8f 05 80
       0.0038834712 -0.00216242 0.009461283 -5.1071e-40
000190 2a 49 5a 25 f2 8a 99 3b eb 78 05 80 c9 2e f0 bb
       1.8933275e-16 0.004685753 -5.02555e-40 -0.007329796
0001a0 5c cc 36 b5 32 82 05 00 73 5c 05 80 c4 a6 51 b9
       -6.8097665e-07 5.05883e-40 -4.92342e-40 -0.00019993918
0001b0 03 48 a7 ba 77 59 05 80 27 80 05 80 4d 65 05 00
       -0.001276255 -4.91271e-40 -5.0515e-40 4.95517e-40
0001c0 2d 17 21 bc 72 5a 05 00 67 b4 79 b9 0b 60 05 00
       -0.009832186 4.91623e-40 -0.00023813696 4.93631e-40
0001d0 45 d6 05 80 28 e9 a6 3b b8 29 7c bc 37 d3 6a bb
       -5.36043e-40 0.0050937124 -0.015390806 -0.003583146
0001e0 e5 5f 05 00 cf 6d 06 00 b5 5f 05 00 87 6f 05 00
       4.93578e-40 5.90405e-40 4.9351e-40 4.99186e-40
0001f0 b1 8c 05 00 df 97 05 00 66 58 05 80 dc a6 7b 03
       5.09648e-40 5.13659e-40 -4.90889e-40 7.3953816e-37
000200 b6 58 06 80 8e 7d 05 80 f7 8a 48 3d ac 5f 45 bd
       -5.82836e-40 -5.04218e-40 0.048960652 -0.048186943
000210 e9 6c 05 80 7d b5 db 3c 4f 1e b5 b4 8a ba 29 38
       -4.98247e-40 0.026819939 -3.373593e-07 4.0466468e-05
000220 a7 46 a3 bb 1a ee 1f bd ef e8 7d 3d 47 5e 05 80
       -0.0049827877 -0.03904543 0.06198972 -4.92998e-40
000230 ac d6 cf bc 36 67 8f 3b 92 b7 8e b7 42 59 05 80
       -0.025370918 0.0043763174 -1.70132e-05 -4.91197e-40
000240 26 59 05 00 a8 e1 57 bb 8a 62 05 00 76 18 0e bd
       4.91158e-40 -0.0032940898 4.94527e-40 -0.034691297
000250 8f 2f cb bd 3d 27 b4 36 e2 64 43 2e ec 65 05 00
       -0.099211805 5.368986e-06 4.442747e-11 4.9574e-40
000260 6b 8b a4 bd b9 19 e2 bb 93 de e7 37 3b 4b f5 bc
       -0.08034404 -0.006900039 2.764099e-05 -0.0299431
000270 79 58 05 00 f0 9c 62 bc de 3f 68 b5 87 5c c5 bb
       4.90915e-40 -0.013831362 -8.6519674e-07 -0.006022993
000280 2f 59 05 80 ca 70 d8 ba b7 b5 81 3d a9 d2 0a b0
       -4.9117e-40 -0.0016513106 0.063334875 -5.0503474e-10
000290 4e 25 81 b6 a4 57 05 00 f3 89 35 2b 46 53 e5 bd
       -3.8488424e-06 4.90617e-40 6.449556e-13 -0.11197524
0002a0 62 6f 05 80 ae 7b 09 bd da fb e5 37 50 11 11 b8
       -4.99134e-40 -0.033565216 2.7416205e-05 -3.4586817e-05
0002b0 ca 18 42 bd 8d 61 05 80 1b 31 b1 bd ff 60 05 80
       -0.047386922 -4.94172e-40 -0.08651944 -4.93973e-40
0002c0 67 ce 0c bb 3c b3 fd bc 7c 1d cd 38 87 f5 b5 bd
       -0.002148533 -0.030969255 9.7806536e-05 -0.08884721
0002d0 2c 62 05 00 b9 2a 42 3d 1f ed 05 00 e2 5b 32 3d
       4.94395e-40 0.047404025 5.4424e-40 0.043544658
0002e0 cc e8 33 9b 94 f0 1e ba 81 b5 a9 3b 7c f5 c0 b5
       -1.4881754e-22 -0.00060630706 0.0051791077 -1.437656e-06
0002f0 d3 59 30 3a ba aa 05 00 91 d9 8f 10 2e 75 2c 3d
       0.0006727252 5.20423e-40 5.673877e-29 0.04210394
000300 15 ab 6b 39 62 11 f8 af d9 3b 4b bc 9c 57 15 3d
       0.0002247508 -4.5123288e-10 -0.0124044055 0.036460504
000310 fa 80 03 bb 1a 63 a7 b9 03 e0 7f b5 f1 39 39 bd
       -0.002006589 -0.0003192656 -9.532088e-07 -0.045221273
000320 74 6b cf bb 19 7f c0 bd e0 67 9a bb b6 63 05 80
       -0.006329948 -0.09399242 -0.00471209 -4.94947e-40
000330 f3 ce a2 b8 6a c7 13 bc f6 61 9a 34 d2 7c d5 3b
       -7.763309e-05 -0.009019712 2.875601e-07 0.006515124
000340 31 5e 05 80 14 5f 05 00 e9 ad 62 bd e4 e4 97 3d
       -4.92967e-40 4.93285e-40 -0.055341635 0.07416704
000350 73 27 05 37 66 4f 37 bd 74 5a 05 00 98 54 9c bc
       7.936603e-06 -0.044753455 4.91626e-40 -0.019083306
000360 88 24 8a b8 e7 57 05 00 e5 22 00 00 dd 8a 1e 3d
       -6.587157e-05 4.90711e-40 1.2518e-41 0.03870665
000370 04 59 05 80 c1 9e 12 bd 8e 67 52 83 4c ab f0 b7
       -4.9111e-40 -0.03579593 -6.183233e-37 -2.8689996e-05
000380 fe 03 06 3d 87 70 5b 3d f4 33 19 bd 36 54 62 3a
       0.03271865 0.05357411 -0.037403062 0.0008633764
000390 9e 56 89 3a 8d f7 cc bd 20 58 05 00 77 89 1d 3c
       0.0010478084 -0.10008154 4.90791e-40 0.009615294
0003a0 b8 5c 7f 3b 2e 05 c6 bb 8a 5a 05 00 f1 fc 53 bd
       0.0038965177 -0.006043098 4.91657e-40 -0.051754896
0003b0 f7 b7 55 bc 46 21 06 80 ce 58 05 80 c9 7f fe 24
       -0.013044349 -5.62949e-40 -4.91035e-40 1.1037142e-16
0003c0 7c 27 18 bd c7 94 05 00 94 f7 76 bd 57 13 3d 38
       -0.03714703 5.12549e-40 -0.060294703 4.5079123e-05
0003d0 5f a9 05 00 06 98 84 3c f2 e8 2b bc 03 90 8e bc
       5.19936e-40 0.016185772 -0.01049255 -0.017402655
0003e0 74 22 30 bb 1f 64 05 80 53 41 85 36 b1 5f 05 00
       -0.0026876004 -4.95094e-40 3.9713136e-06 4.93505e-40
0003f0 22 09 64 04 8f 91 2c b9 15 ee b0 bb ab cf b9 3a
       2.6805465e-36 -0.00016457423 -0.0053994753 0.001417627

_deterministic_encoder.linear_layers_list.4.bias f4 [128]
000000 a2 5f 05 00 03 fa 65 35 5a 3a 07 3d ab 5b 05 00
       4.93484e-40 8.567296e-07 0.033014633 4.92062e-40
000010 00 61 05 00 d6 63 05 00 0f 5f 05 80 57 5f 05 00
       4.93975e-40 4.94992e-40 -4.93278e-40 4.93379e-40
000020 28 72 47 b2 49 5a 05 00 48 60 05 80 23 64 05 00
       -1.1609281e-08 4.91566e-40 -4.93717e-40 4.951e-40
000030 12 58 05 80 e9 51 ef 39 38 12 22 bc f8 5d 05 80
       -4.90771e-40 0.0004564666 -0.009892039 -4.92887e-40
000040 8f 63 05 00 a3 58 05 80 41 63 05 00 b6 53 84 3c
       4.94892e-40 -4.90974e-40 4.94783e-40 0.016153198
000050 d9 ec 3d b7 92 59 05 00 c7 62 05 00 e7 12 99 3d
       -1.1320423e-05 4.91309e-40 4.94612e-40 0.074743085
000060 88 42 c7 3c b0 6d 06 80 17 65 05 80 37 6e 05 80
       0.024323717 -5.90361e-40 -4.95442e-40 -4.98715e-40
000070 2b 60 05 00 a0 5d 05 00 d4 5a 05 80 72 5a 05 00
       4.93676e-40 4.92764e-40 -4.9176e-40 4.91623e-40
000080 84 63 05 00 13 8f 5b ba 32 24 c6 b8 03 5a 05 80
       4.94877e-40 -0.0008375507 -9.4481176e-05 -4.91468e-40
000090 0f 48 aa af ce 17 77 bb 15 61 05 00 f0 60 05 80
       -3.097402e-10 -0.0037703398 4.94004e-40 -4.93952e-40
0000a0 cd 4f 58 bb a0 f1 cd a5 32 57 99 bc 70 00 f5 ba
       -0.003300655 -3.5725563e-16 -0.018718336 -0.0018692147
0000b0 fd 62 05 00 2c d2 a6 b9 49 71 70 3c d5 53 96 3b
       4.94688e-40 -0.00031818578 0.014675447 0.0045876303
0000c0 37 f8 d2 bb 64 69 02 3e f0 ad 05 80 ec 58 05 80
       -0.006438281 0.12735516 -5.21574e-40 -4.91077e-40
0000d0 5d 4a 37 ba af bc 31 3d 84 16 16 3d 28 c1 f1 3d
       -0.0006991977 0.043392833 0.036642566 0.1180442
0000e0 54 12 86 b8 a1 47 92 bd 60 b6 ad 3d 6f 57 05 00
       -6.393032e-05 -0.071425684 0.08482051 4.90543e-40
0000f0 25 80 f7 3c d8 d5 db 3d 6a 35 78 3d 11 b2 82 07
       0.030212471 0.10734147 0.060597815 1.9664884e-34
000100 d2 59 05 00 0b 64 05 00 36 09 84 9c 6c a8 c6 89
       4.91399e-40 4.95066e-40 -8.737408e-22 -4.782515e-33
000110 4a 58 05 00 58 e1 8d 3d 6c b7 dd b3 2c ca c5 19
       4.9085e-40 0.069277465 -1.0324479e-07 2.0450979e-23
000120 e0 63 05 00 0e 69 98 3d 7b 5b 05 80 25 ff ad 3d
       4.95006e-40 0.074419126 -4.91994e-40 0.084959306
000130 16 70 05 80 0e 62 05 00 32 59 05 80 0f 5a 05 00
       -4.99386e-40 4.94353e-40 -4.91175e-40 4.91484e-40
000140 2f 23 72 bc d3 8a 02 bc 2c 1d 83 3c d7 63 54 3d
       -0.014778896 -0.007967669 0.016005121 0.051853027
000150 51 63 05 80 b9 59 e5 9c e2 6c da 32 9f e7 70 3d
       -4.94805e-40 -1.5177142e-21 2.5428054e-08 0.05881464
000160 c3 5e 05 00 6b 5e 05 00 96 5f 05 00 6f 63 05 00
       4.93172e-40 4.93048e-40 4.93467e-40 4.94848e-40
000170 29 c6 3d 18 b7 5e 05 00 76 68 51 3c ee 6c 0f 3d
       2.4527723e-24 4.93155e-40 0.012781253 0.035015993
000180 88 26 5b bc d4 5e 05 80 c2 4c e9 3c 6f 62 05 00
       -0.013375886 -4.93195e-40 0.028478984 4.94489e-40
000190 bb e6 8a bc 0c 5c 05 00 68 57 05 80 de 60 05 00
       -0.016955724 4.92198e-40 -4.90533e-40 4.93927e-40
0001a0 74 75 01 3a c7 d0 d5 3c 68 d2 c5 bb 85 d1 95 3d
       0.00049384614 0.02610053 -0.0060370453 0.07315353
0001b0 77 3b 13 3e 28 5c 05 00 db 50 12 3c 08 9e ed 3c
       0.14378153 4.92237e-40 0.00893041 0.02900602
0001c0 0e 60 05 00 be 9c 08 80 38 80 05 80 ab fe 07 b9
       4.93635e-40 -7.90912e-40 -5.05174e-40 -0.00012969474
0001d0 c7 80 23 8f 6b 90 8c b9 d6 9f 91 bc ee dd 1d ba
       -8.061322e-30 -0.0002681048 -0.017776411 -0.0006022145
0001e0 c3 5b 05 00 e8 5b 05 80 e7 59 05 80 fd 5a 05 80
       4.92095e-40 -4.92147e-40 -4.91428e-40 -4.91818e-40
0001f0 62 b0 38 3a 21 87 0f 3c 3e 78 66 3d b6 63 05 00
       0.0007045326 0.008760245 0.056267016 4.94947e-40

_deterministic_encoder.linear_layers_list.6.weight f4 [128, 128]
000000 b9 74 da af 55 76 ed 3c 37 cd 73 3c dc 3a 10 b9
       -3.9736905e-10 0.02898709 0.01488047 -0.00013754837
000010 89 3e df 3a 8a 29 35 bc 40 62 79 39 33 62 05 00
       0.0017032187 -0.011057267 0.00023783091 4.94405e-40
000020 ab 98 94 3d 67 d1 14 3c b7 14 2d ba 8e c4 3f 39
       0.072556816 0.0090831285 -0.0006602513 0.00018288402
000030 65 09 fc bb 7b 44 22 bd ce ef df bd 31 8e 60 3c
       -0.0076915496 -0.03961609 -0.10934411 0.013705776
000040 ea c1 1e 39 e3 76 50 b2 d4 83 11 3d 5f 31 7c 3d
       0.00015140293 -1.2134225e-08 0.03552611 0.06157052
000050 aa 91 38 b3 ae 73 f7 3b 45 61 05 80 e5 1f 33 3d
       -4.297332e-08 0.007551632 -4.94071e-40 0.04373159
000060 e1 9b 82 3d 88 ac bb 39 53 14 06 80 a8 5a 05 00
       0.06377388 0.00035795965 -5.58304e-40 4.91699e-40
000070 db b2 a7 bc f7 b6 b5 3c 76 a2 c4 39 ca 62 05 80
       -0.020471027 0.022181971 0.00037505076 -4.94616e-40
000080 fe c8 8a bc e7 dd e1 01 e4 48 36 bc 94 37 17 3d
       -0.016941544 8.297036e-38 -0.011125777 0.036918238
000090 b2 84 40 3d 4d 62 05 00 31 f9 6e bd eb 08 8e 3c
       0.047001548 4.94441e-40 -0.058343116 0.017338237
0000a0 19 88 91 bd 73 97 0c bd b4 f7 e8 3c 42 3e 07 bc
       -0.07106037 -0.03432412 0.028438427 -0.0082545895
0000b0 0d 5d 05 80 e2 3e f7 3a 61 11 24 3c e7 9c 00 bd
       -4.92558e-40 0.0018863345 0.010013909 -0.031399634
0000c0 b7 31 9e bc 99 20 bc 3b f7 15 06 00 e8 21 d9 39
       -0.019310815 0.0057411906 5.58892e-40 0.00041414727
0000d0 1b 3b ff bc 23 64 b3 bd 30 b1 bf 3d 2f d7 6c 3d
       -0.031156113 -0.08759334 0.09359968 0.057822403
0000e0 59 97 36 ba 4c 02 2c bd 95 10 06 bd 63 5e 05 00
       -0.00069653016 -0.041994378 -0.032730658 4.93037e-40
0000f0 d0 33 de bd f6 bf 63 bd f8 7f 15 bc 40 da 03 bd
       -0.10849726 -0.05560299 -0.009124748 -0.03219056
000100 2c ac c3 36 36 df ef 3a 41 3a 96 3d a8 8b 83 bd
       5.8314963e-06 0.0018300775 0.0733533 -0.06423122
000110 18 66 4b 39 71 ad 6c bc 55 7c 18 3d 4d ec cb bd
       0.00019397622 -0.0144456485 0.037227947 -0.0995718
000120 9f db 74 bb 10 f8 47 3d d6 da 5b ba 86 aa 65 bd
       -0.003736235 0.048820555 -0.0008386796 -0.056070827
000130 b3 ef 05 00 60 81 0b 39 ad 72 29 b6 06 d9 36 39
       5.45165e-40 0.00013304269 -2.5249713e-06 0.0001743772
000140 62 32 aa 3d b2 10 91 bd c8 0d 4b bd a2 1b 8b bd
       0.08310391 -0.070832625 -0.04957369 -0.0679238
000150 a0 2c f2 3c 2c 30 da 3c 24 0d 5d bc 99 44 71 3d
       0.029562294 0.026634298 -0.0134919025 0.05890331
000160 a1 14 90 bc c0 53 e6 ba df 47 fa 3b f0 8b 32 38
       -0.017587962 -0.0017572567 0.0076379622 4.2568834e-05
000170 e2 d0 05 bb ab fa cb bc 86 57 31 bd aa 6b c9 bd
       -0.0020418693 -0.024899801 -0.04329636 -0.098349884
000180 0b a6 88 3d 18 80 47 ba 4d 13 55 3d 6c 66 1c 3c
       0.06672295 -0.0007610335 0.05202036 0.009545904
000190 ce b0 07 bd c7 9f 06 39 b9 97 06 80 2c 61 05 80
       -0.0331276 0.00012838758 -6.05441e-40 -4.94036e-40
0001a0 11 4b a3 3c 47 e9 7c 3d af 43 76 bd 66 2f 98 bd
       0.019933255 0.061745908 -0.06012314 -0.074309155
0001b0 01 e3 70 bb ce a9 64 b9 d0 b9 62 bd bf 72 bb bd
       -0.0036756399 -0.00021807032 -0.055352986 -0.091527455
0001c0 03 1b b2 3a f1 cc 05 00 03 72 05 00 90 a4 81 3c
       0.0013588372 5.32697e-40 5.00077e-40 0.01582554
0001d0 b3 d5 7b 3d 10 1a bd 3b 52 f2 02 bd ad 33 d6 3c
       0.061483096 0.005770929 -0.031969376 0.026147688
0001e0 71 22 f3 3c 36 9b 6c a5 60 91 ae bc 91 5d 05 80
       0.029679509 -2.0522325e-16 -0.021309555 -4.92743e-40
0001f0 5f bd cb 3c 48 f3 36 3d 78 58 bf 3c 28 60 2d bd
       0.024870573 0.044665605 0.023357615 -0.04232803
000200 5b 57 05 80 4a c9 31 bd df 14 8d bc 33 17 04 00
       -4.90515e-40 -0.043404855 -0.017221866 3.75664e-40
000210 c4 02 a6 31 99 8b 26 3d 77 d6 91 ae f7 58 05 00
       4.8315503e-09 0.040660474 -6.631933e-11 4.91092e-40
000220 6a 92 5a bc 7b 19 2d 3d bc c7 50 ab d6 62 05 80
       -0.013340572 0.04226063 -7.417363e-13 -4.94633e-40
000230 e4 30 19 bb 2a e9 0d 3d 02 74 7f bc ac ab 8e 3b
       -0.0023375088 0.03464619 -0.015591623 0.004353961
000240 00 62 05 80 0f 36 92 34 31 7b 05 00 01 1e ce 3c
       -4.94333e-40 2.7233952e-07 5.0337e-40 0.025160791
000250 0a dd 02 80 67 b1 c0 bb 80 63 05 80 13 e2 94 bd
       -2.62965e-40 -0.005880523 -4.94871e-40 -0.07269683
000260 49 57 5d bb 94 76 f5 b0 59 a6 05 00 cc 60 05 00
       -0.003377395 -1.7859798e-09 5.18852e-40 4.93902e-40
000270 3f 1d 86 bb d9 bd 05 00 10 4b 71 39 96 5a 05 80
       -0.004092842 5.27282e-40 0.00023011514 -4.91674e-40
000280 e0 6f 05 00 02 6e 05 80 b8 4d 11 39 8d 5b ba 3c
       4.9931e-40 -4.98641e-40 0.0001385723 0.022748733
000290 c5 40 71 3d 58 73 05 00 b6 92 4f bd 51 2f 20 3c
       0.05889966 5.00555e-40 -0.050677024 0.009776906
0002a0 2c 91 15 3d 14 e3 05 80 2f 5a 05 80 03 e6 09 3d
       0.0365154 -5.40638e-40 -4.91529e-40 0.033666622
0002b0 1e 5e 05 80 9d 49 59 bc d6 ed a0 bd 84 d6 06 bb
       -4.9294e-40 -0.01326218 -0.078578636 -0.0020574639
0002c0 eb 5a 05 80 a2 37 c3 3c 5a 68 05 00 bd 01 d7 ab
       -4.91793e-40 0.023830239 4.96612e-40 -1.5277151e-12
0002d0 48 6e 05 00 80 6b 8a bc 92 8f e4 bc 32 fb 1a bc
       4.98739e-40 -0.016896963 -0.02790049 -0.009459304
0002e0 99 c9 94 3c 75 ae 2e 3d e4 8a 17 bd 7e 5b 05 80
       0.018162536 0.042646844 -0.03699769 -4.91999e-40
0002f0 1a d1 80 bd 5b e8 57 bd bd 02 a3 3c b8 fc ae 3c
       -0.06289883 -0.052711826 0.019898767 0.02136074
000300 81 81 cd 2c 87 07 70 28 20 98 c5 3b f3 f0 bf 3b
       5.8408283e-12 1.33243085e-14 0.0060300976 0.005857581
000310 8d 58 05 80 db 7d 49 3c bd 05 03 39 d0 9b 17 3d
       -4.90944e-40 0.012298073 0.00012495271 0.03701383
000320 c8 11 fa a1 63 34 e3 3c 8d 79 94 b7 f2 b3 8b 3b
       -1.6945366e-18 0.02773494 -1.7699576e-05 0.0042633945
000330 07 62 05 80 bc 5c 05 80 71 d5 7c 36 27 61 05 80
       -4.94343e-40 -4.92444e-40 3.7675165e-06 -4.94029e-40
000340 00 8c 1d bc a7 9b 46 bd fa c1 89 bd 33 57 71 bc
       -0.009615898 -0.048488285 -0.06726451 -0.014730263
000350 ee c8 a6 bc e4 77 05 80 f2 a0 be ba 0a fd af bb
       -0.020359483 -5.02186e-40 -0.0014543815 -0.005370741
000360 89 71 7c bb 1a 5f 05 00 3d 4c ae 30 ae de a0 b8
       -0.003851982 4.93293e-40 1.2681834e-09 -7.670872e-05
000370 72 5f 8b bd 62 24 06 00 5c 56 95 bd 4e 08 f8 bc
       -0.06805314 5.64065e-40 -0.07291862 -0.030277397
000380 c8 5e 45 bc d5 e7 29 b7 69 a3 9a bd 61 13 06 00
       -0.012046523 -1.0127163e-05 -0.07550699 5.57965e-40
000390 94 7e 05 00 38 58 05 80 bf 64 05 00 06 5f 05 00
       5.04585e-40 -4.90824e-40 4.95318e-40 4.93265e-40
0003a0 39 63 18 3d c0 2e 0a 3d 62 59 56 bd c5 69 20 3c
       0.037204 0.03373599 -0.052331336 0.009790842
0003b0 08 04 74 3c 88 d7 b3 b8 45 c5 59 3d 90 a7 c7 bd
       0.014893539 -8.575531e-05 0.053166647 -0.09748757
0003c0 fd 72 09 3c 6c 66 05 80 8a 60 05 00 81 5f 05 80
       0.008389232 -4.9592e-40 4.93809e-40 -4.93438e-40
0003d0 1b f8 31 bd d1 8b 05 80 e7 62 05 80 e2 72 05 00
       -0.043449502 -5.09334e-40 -4.94657e-40 5.0039e-40
0003e0 24 01 cc bc cf 61 05 80 01 ce 1a 3d 44 60 05 80
       -0.024902888 -4.94265e-40 0.037794117 -4.93711e-40
0003f0 66 25 45 bc c3 8b 94 bd 0f 3e 5a 3d 68 4e 28 3d
       -0.012032842 -0.0725322 0.05328184 0.0410904

_deterministic_encoder.linear_layers_list.6.bias f4 [128]
000000 44 5d 26 3e 7f 57 05 00 23 9e 06 3e a0 44 c0 bc
       0.16246516 4.90565e-40 0.13146262 -0.023470223
000010 68 1a 8f bc 27 dc 51 3e 31 24 9a 90 6c b0 f8 3d
       -0.017468646 0.20494138 -6.079805e-29 0.12143025
000020 e7 3a 14 bd 11 59 05 80 ed 31 c5 ba 21 f8 6d 3d
       -0.036188986 -4.91128e-40 -0.0015044786 0.058097962
000030 e6 5f 05 00 cd 94 21 b8 25 5d 05 00 5d 2d 9a b4
       4.9358e-40 -3.8523973e-05 4.92591e-40 -2.8717741e-07
000040 8d 62 55 3e 0f 8c b8 ba f0 fd 89 bc 5d 58 05 00
       0.20838375 -0.0014079827 -0.01684472 4.90876e-40
000050 b7 5b 68 34 3c 8c 69 38 43 77 8e 3c a2 0c 95 28
       2.164005e-07 5.5682132e-05 0.017390853 1.6547802e-14
000060 fe 12 5b 3c b9 90 f1 3b d3 f4 4e 3e c9 5b 05 00
       0.013371227 0.0073719886 0.2021058 4.92104e-40
000070 55 5c 05 00 8b af 69 b3 b1 2b 20 3d ff 59 05 00
       4.923e-40 -5.4409195e-08 0.039104167 4.91462e-40
000080 4d 5c 05 00 e6 53 06 80 9e ae 14 3e 53 92 57 3e
       4.92289e-40 -5.8111e-40 0.14519736 0.21051912
000090 32 dc 96 b5 7d 5f 94 02 95 f0 6a 3d e8 9c 84 bc
       -1.1239956e-06 2.1801453e-37 0.057358343 -0.0161881
0000a0 d5 d8 81 b2 d4 5e 05 80 d6 36 2e b3 b7 51 bb 14
       -1.511618e-08 -4.93195e-40 -4.0562405e-08 1.8914405e-26
0000b0 ff a7 06 80 46 c2 73 b3 45 39 fc bc 1b 60 05 00
       -6.11279e-40 -5.6754537e-08 -0.030789027 4.93654e-40
0000c0 40 61 05 00 99 7a 70 bc 0d 34 0c b3 ca 5e 05 00
       4.94064e-40 -0.014677667 -3.264363e-08 4.93181e-40
0000d0 ee 67 43 3e 79 1a ae b7 7a 5e 05 00 c5 72 02 3e
       0.19082615 -2.0754744e-05 4.93069e-40 0.12739094
0000e0 3e cf 1a bd 63 5d 05 00 3a 29 00 ae d8 8d ee ba
       -0.037795298 4.92678e-40 -2.9140447e-11 -0.0018200232
0000f0 3e 5a 05 00 e6 5d 05 00 d2 5b 05 00 f0 31 36 3b
       4.9155e-40 4.92862e-40 4.92116e-40 0.002780076
000100 7d 80 e0 3d 0c 63 05 00 bb 75 85 3c cb f6 b2 a2
       0.10962007 4.94709e-40 0.01629149 -4.85083e-18
000110 70 5e 05 80 b5 5d 05 00 03 64 05 00 b1 a1 cf 3d
       -4.93055e-40 4.92793e-40 4.95055e-40 0.10138262
000120 40 7e e2 3c e9 a7 49 a1 52 5e 05 00 8d ce 8b 27
       0.027648091 -6.8323676e-19 4.93013e-40 3.8804193e-15
000130 f7 46 e9 3d a9 5a 05 80 e1 44 b7 a7 7f 2c bc 3b
       0.113904886 -4.917e-40 -5.086738e-15 0.005742609
000140 61 2e 4d 3e c5 5c f5 ba 61 d6 24 3e 27 5d 05 00
       0.20037223 -0.0018719664 0.16097404 4.92594e-40
000150 a8 52 21 3e 3d 98 4d ae 85 59 05 80 a5 ca 05 00
       0.15754187 -4.6746818e-11 -4.91291e-40 5.31873e-40
000160 49 27 5c ac 73 06 62 ba 2f 5b 05 80 f3 b7 74 3c
       -3.1285688e-12 -0.0008622177 -4.91888e-40 0.014936435
000170 c7 e0 e5 bc 14 58 05 00 a5 ff d5 b9 01 64 05 00
       -0.028061284 4.90774e-40 -0.00040816996 4.95052e-40
000180 fb 1e e3 bc af 5d 05 80 63 5f 05 00 d5 58 05 00
       -0.027724734 -4.92785e-40 4.93396e-40 4.91044e-40
000190 1c b6 f4 0e 0c b6 a3 a7 0f a9 5e 21 af aa 53 bc
       6.032601e-30 -4.5438964e-15 7.5440273e-19 -0.012919112
0001a0 79 d1 15 9d 36 58 05 00 18 5f 10 3d 8f 9c e2 bc
       -1.982828e-21 4.90822e-40 0.03524694 -0.027662544
0001b0 c8 5c 05 80 60 59 05 80 ff 61 05 00 7f 7a c1 a4
       -4.92461e-40 -4.91239e-40 4.94332e-40 -8.3907924e-17
0001c0 4a 63 05 80 2d 6e 09 bd 54 60 05 00 3f cb cf 3d
       -4.94796e-40 -0.033552337 4.93734e-40 0.10146188
0001d0 ff 4a 97 3d 39 63 05 00 78 30 a2 3d 63 fd a1 3d
       0.07387351 4.94772e-40 0.07919401 0.07909658
0001e0 85 7c 9e bb c2 63 23 a3 72 dc b9 bc 79 6e 09 3e
       -0.004836621 -8.857372e-18 -0.022688124 0.13421048
0001f0 0a 59 05 00 9e ba 19 bc 46 5c 05 80 35 23 79 ab
       4.91119e-40 -0.009382872 -4.92279e-40 -8.851143e-13
