CNP-model-save-name/saved_models/model_16000.pth.pth.tar (torch, 313731 bytes, 24 tensors)

_deterministic_encoder.lstm.weight_ih_l0 f4 [256, 2]
-0.049496703 -0.05104524 -0.014309825 -0.016596567 -0.03677788 -0.039291788 -0.018550342 -0.02032367
-0.040570773 -0.054222427 -0.011210493 -0.0148367435 -0.03227618 -0.026289077 -0.02245039 -0.02495089
-0.017468117 -0.02144592 -0.024209842 -0.027682032 -0.016435644 -0.025864718 -0.03609006 -0.0399087
-0.03404818 -0.044589624 -0.024474585 -0.025186993 -0.008974506 -0.014309593 -0.017228577 -0.015554179
-0.039308675 -0.045443207 -0.014883107 -0.020347575 -0.017493216 -0.028259413 -0.01261323 -0.015700607
-0.03507427 -0.032098435 -0.010320995 -0.011466299 -0.027983936 -0.028168721 -0.04185096 -0.04429937
-0.011705746 -0.024704449 -0.038334917 -0.042898014 -0.038524214 -0.030627552 -0.017865295 -0.01923148
-0.024657546 -0.033836253 -0.012832613 -0.024877898 -0.010414967 -0.009772291 -0.012965493 -0.014963358
-0.021422002 -0.025564361 -0.020066636 -0.022274036 -0.032232367 -0.041217376 -0.021373615 -0.023697983
-0.011097209 -0.015375676 -0.012057133 -0.012524192 -0.04516496 -0.05722654 -0.010223382 -0.014621197
-0.015774261 -0.02475575 -0.010896516 -0.019602234 -0.014242317 -0.018456655 -0.010030067 -0.028022656
-0.032336928 -0.03835196 -0.027208963 -0.035220474 -0.015252899 -0.023538696 -0.019843196 -0.031517953
-0.0073443195 -0.012536692 -0.004749036 -0.007847078 -0.013386568 -0.018299144 -0.029111788 -0.03529445
-0.011777931 -0.015438186 -0.026545018 -0.032296646 -0.0057937475 -0.007663375 -0.013942163 -0.014536446
-0.014719958 -0.020682089 -0.01153142 -0.01742703 -0.013946593 -0.013014501 -0.017597271 -0.02325532
-0.01889638 -0.024590226 -0.0080034435 -0.008449785 -0.023592329 -0.025832007 -0.022212425 -0.029109888
-0.029916674 -0.032376315 -0.010092762 -0.01285674 -0.029101523 -0.028005823 -0.015741164 -0.01842563
-0.031208362 -0.0421263 -0.009116099 -0.012475573 -0.025128677 -0.025923168 -0.020083966 -0.025132807
-0.014054275 -0.021493128 -0.023229549 -0.027875239 -0.018802704 -0.013274603 -0.019171925 -0.025876028
-0.026888143 -0.0364265 -0.014875256 -0.014971278 -0.0089826165 -0.009977116 -0.014106299 -0.015589305
-0.03499597 -0.037278794 -0.009987127 -0.013622295 -0.017377717 -0.019719908 -0.012158103 -0.01236378
-0.021741012 -0.025728181 -0.009675722 -0.010088093 -0.018247714 -0.021991076 -0.027930414 -0.03749323
-0.017902931 -0.018771837 -0.03485916 -0.038780205 -0.038347922 -0.03580931 -0.010956319 -0.015505451
-0.023358041 -0.021221712 -0.0131338695 -0.012326065 -0.0056426106 -0.006338619 -0.008200087 -0.009045802
-0.013975804 -0.016344415 -0.013868739 -0.0144707095 -0.019246843 -0.02559241 -0.015906839 -0.019553594
-0.008296112 -0.008154943 -0.006410771 -0.0076628765 -0.033561993 -0.038383238 -0.007274698 -0.007427922
-0.018233372 -0.0142059075 -0.0114613585 -0.010572311 -0.009157999 -0.01277318 -0.007974723 -0.0072806887
-0.02638201 -0.03327316 -0.025926357 -0.0315254 -0.011804282 -0.018762663 -0.018795446 -0.022504246
-0.00962711 -0.010983124 -0.0035968628 -0.0058211 -0.009613171 -0.01337676 -0.019475425 -0.025013907
-0.007973102 -0.011746544 -0.017151074 -0.022985997 -0.005370482 -0.0066397563 -0.011071676 -0.014101492
-0.018539876 -0.023213496 -0.0069762296 -0.009432283 -0.010019485 -0.0114333425 -0.018590419 -0.023658952
-0.0108184675 -0.015211852 -0.0071867527 -0.005815788 -0.020094339 -0.020823196 -0.015410974 -0.021015028
00000000: 0ebd 4abd d014 51bd c273 6abc 86f5 87bc
00000010: 67a4 16bd 6df0 20bd e3f6 97bc d37d a6bc
00000020: 8a2d 26bd 5618 5ebd 37ac 37bc d015 73bc
00000030: 0734 04bd 315c d7bc e1e9 b7bc cf65 ccbc
00000040: 4c19 8fbc 5baf afbc b853 c6bc 6ec5 e2bc
00000050: 0ba4 86bc 3fe2 d3bc 2cd3 13bd 4e77 23bd
00000060: 1b76 0bbd 9ca3 36bd ed7e c8bc f454 cebc
00000070: ce09 13bc c872 6abc f222 8dbc f5d6 7ebc
00000080: 2202 21bd a822 3abd 46d8 73bc f5af a6bc
00000090: ef4d 8fbc 4980 e7bc b9a7 4ebc 8f9e 80bc
000000a0: 0aaa 0fbd a679 03bd 6419 29bc 25dd 3bbc
000000b0: 913e e5bc 17c2 e6bc ea6b 2bbd 4273 35bd
000000c0: 75c9 3fbc fc60 cabc 1305 1dbd d4b5 2fbd
000000d0: 91cb 1dbd a2e6 fabc 3d5a 92bc 568b 9dbc
000000e0: 9ffe c9bc e297 0abd e13f 52bc bccc cbbc
000000f0: 8aa3 2abc f61b 20bc 386d 54bc df28 75bc
00000100: 327d afbc 5a6c d1bc c962 a4bc 0a78 b6bc
00000110: 1606 04bd 8dd3 28bd b817 afbc 4622 c2bc
00000120: 11d1 35bc 42ea 7bbc 488b 45bc 4532 4dbc
00000130: e5fe 38bd 6066 6abd f97f 27bc bf8d 6fbc
00000140: 0639 81bc 92cc cabc 4d87 32bc dd94 a0bc
00000150: 9b58 69bc 6932 97bc 2655 24bc c58f e5bc
00000160: ba73 04bd f216 1dbd 55e5 debc 5843 10bd
00000170: 4ce7 79bc 39d4 c0bc 338e a2bc f818 01bd
00000180: 9ea8 f0bb b366 4dbc cd9d 9bbb 0891 00bc
00000190: 5653 5bbc 16e8 95bc d87b eebc ea90 10bd
000001a0: 39f8 40bc 72f0 7cbc f074 d9bc 7d49 04bd
000001b0: 7ad9 bdbb 0d1d fbbb ac6d 64bc 462a 6ebc
000001c0: fb2b 71bc 7c6d a9bc 48ee 3cbc 21c3 8ebc
000001d0: 4080 64bc c63a 55bc 2728 90bc f181 bebc
000001e0: 95cc 9abc 7171 c9bc e020 03bc f870 0abc
000001f0: b344 c1bc a59d d3bc d5f6 b5bc dc77 eebc
00000200: d013 f5bc 079d 04bd 1d5c 25bc 13a5 52bc
00000210: 5166 eebc 786c e5bc 9df3 80bc 59f1 96bc
00000220: aea8 ffbc a18c 2cbd b15b 15bc 5966 4cbc
00000230: a8da cdbc d35c d4bc 2187 a4bc 51e3 cdbc
00000240: e743 66bc 5b12 b0bc e54b bebc 9d5a e4bc
00000250: 2108 9abc b87d 59bc 710e 9dbc f7f9 d3bc
00000260: 8644 dcbc f433 15bd 59b7 73bc 174a 75bc
00000270: d32b 13bc 0f77 23bc 1b1e 67bc 496a 7fbc
00000280: ef57 0fbd a6b1 18bd 0ca1 23bc 0c30 5fbc
00000290: b75b 8ebc a58b a1bc c832 47bc 7491 4abc
000002a0: 351a b2bc e8c3 d2bc eb86 1ebc 8748 25bc
000002b0: 3b7c 95bc a126 b4bc 53ce e4bc 8092 19bd
000002c0: 2ba9 92bc 65c7 99bc 7bc8 0ebd fed7 1ebd
000002d0: b612 1dbd c8ac 12bd 2282 33bc 930a 7ebc
000002e0: 5d59 bfbc 28d9 adbc 712f 57bc 44f3 49bc
000002f0: a6e5 b8bb 31b4 cfbb a859 06bc d834 14bc
00000300: c5fa 64bc b9e4 85bc b539 63bc 8e16 6dbc
00000310: 8eab 9dbc 2ca7 d1bc 0f4f 82bc dc2e a0bc
00000320: 6aec 07bc 4f9c 05bc 7211 d2bb de18 fbbb
00000330: 4d78 09bd be37 1dbd 9760 eebb ed65 f3bb
00000340: 275e 95bc e5bf 68bc 6cc8 3bbc 7c37 2dbc
00000350: 6f0b 16bc 9a46 51bc 6aa8 02bc d892 eebb
00000360: 161f d8bc 7049 08bd 8363 d4bc c720 01bd
00000370: bf66 41bc 28b4 99bc e8f8 99bc d35a b8bc
00000380: 07bb 1dbc 90f2 33bc 58b9 6bbb edbe bebb
00000390: 9080 1dbc 332a 5bbc ed8a 9fbc f7e9 ccbc
000003a0: 9da1 02bc 9474 40bc 6980 8cbc 214d bcbc
000003b0: defa afbb 5092 d9bb fa65 35bc f209 67bc
000003c0: f0e0 97bc 3b2a bebc db98 e4bb dd89 1abc
000003d0: c428 24bc ea52 3bbc ef4a 98bc 6bd0 c1bc
000003e0: f13f 31bc 223b 79bc da7e ebbb 5e92 bebb
000003f0: e29c a4bc 6895 aabc 4f7e 7cbc b527 acbc

_deterministic_encoder.lstm.weight_hh_l0 f4 [256, 64]
0.0013628888 -0.00020528602 -0.0010589148 -0.0004133266 0.0005376637 -0.001431391 -0.0009376021 -0.0006595487
-0.00041096576 0.0009619533 0.00027901932 -0.0008234105 0.0015987043 0.000101519356 0.0008916465 0.00050677324
-0.0001175241 -0.00029404712 0.0005043037 -6.3123545e-05 0.0012591337 -0.00039843048 -0.00043918757 -0.00056667463
-0.0002816234 0.00010653336 -0.00025614782 0.0008401727 -0.0006272758 0.00046287064 0.00049391575 -0.00019688632
-0.0002583153 0.000231521 0.0006859858 0.00041611 0.00050601794 -0.00023079665 0.0027571155 0.00015688501
-0.00028829975 0.00015155243 -0.001342509 0.0006468172 0.0013447831 -0.0004319655 -0.00081236556 0.00014610696
-0.001256476 -0.00012197591 0.00022977067 0.0010469236 0.00047050012 0.0007638427 0.00082097633 -0.0004997892
0.0018297022 -0.00048663164 -0.0007921797 -0.00066123554 0.00042620546 0.00152049 0.0006553628 -0.0004617633
6.92809e-05 -1.38123305e-05 -8.9174304e-05 3.4574987e-05 3.429232e-05 -0.00022179946 -0.00014285404 6.619819e-05
0.000105006606 4.3873017e-05 -3.8792827e-05 0.00010969493 9.527633e-05 0.00012225645 0.00012192559 -7.5869415e-05
-7.608841e-06 -7.113886e-05 1.7042285e-05 -9.368587e-05 0.000102644386 -4.7511377e-05 4.0665534e-05 0.0001654352
2.9791596e-05 9.114659e-05 -2.3902798e-05 0.00010846138 8.978287e-05 3.282115e-05 3.6478246e-05 -5.4711996e-05
-0.00021063183 5.468383e-05 -5.5254615e-05 0.00010635475 2.5492169e-05 2.3254019e-05 0.00027131868 -8.236651e-05
0.000101264726 -1.9273257e-05 -0.0001293189 -5.7228113e-05 -4.0071893e-05 -6.261493e-05 3.6762314e-05 0.000105933395
-0.00011906405 -1.1630931e-05 1.8282896e-06 5.0038554e-05 6.913028e-05 -0.00010802427 0.000108332715 -6.776138e-05
0.00010500419 -3.370012e-05 -0.000110030946 -9.2914874e-05 -1.1780887e-05 0.00023721407 -1.4909278e-05 0.0001650508
0.00043264416 -7.7793775e-05 -0.0001477099 -0.0001875802 -5.844225e-05 -0.00030445738 3.4650686e-05 3.354052e-06
-0.000113166476 0.00031844637 0.00031289627 -0.00020938255 0.00041511277 0.0004939433 0.00043462173 0.00036667992
7.405712e-05 3.4707332e-06 -0.00012949243 -0.00012504507 6.519085e-05 -0.00022944047 -9.527003e-05 -0.00020692562
-0.00035859147 -6.619969e-05 -6.0857645e-05 -0.00020345567 -0.000423171 0.0002618295 0.00027602934 -0.00037250688
-0.00025829146 -1.9968924e-05 0.00023474285 0.000114777315 0.00010221022 -7.352918e-05 0.0004912142 0.00016981584
-0.0004741993 0.00031847658 -0.00051809737 0.0006329104 0.0004104759 -0.0002005878 -0.00031287628 -0.0002282038
-0.0005123894 -0.00015131132 0.00012832785 0.00022272799 -0.00010145501 0.0002911225 0.00027916994 0.00022646053
0.000518479 -0.00010988348 -0.00017594727 0.00011547034 3.2132546e-05 9.777053e-05 0.00021212817 -0.00033382943
1.780836e-05 2.4582232e-05 -3.8494322e-06 -4.247496e-05 -8.092733e-05 3.5798905e-05 0.00014979178 8.626672e-06
-6.5506974e-05 -2.307317e-05 3.6222933e-05 -1.6604954e-05 -1.9697054e-06 -9.177845e-05 -3.8325208e-05 3.3760534e-05
-8.871576e-06 6.295624e-05 3.7208047e-05 1.1285846e-05 -5.6109922e-05 -4.0975545e-05 -5.67848e-06 -7.522033e-05
-7.226622e-05 1.9377738e-05 -5.798268e-05 -3.327449e-05 1.2706891e-05 -4.6752924e-05 -3.4199784e-05 6.649345e-05
5.6943645e-05 -5.7534482e-05 5.801138e-06 -4.097937e-05 -2.6297803e-05 4.114314e-06 -5.376225e-05 -1.3165212e-05
-3.3911427e-05 -3.6543082e-05 2.433928e-06 0.00017011799 -1.1180708e-06 2.3779538e-05 -2.905387e-05 -5.4532993e-05
1.64396e-05 2.2735965e-06 4.686826e-05 -8.185694e-05 -6.612006e-05 -3.0036534e-05 -1.2013744e-05 -4.951474e-06
1.1218051e-05 -1.9965011e-05 1.3603134e-05 2.0663809e-05 2.3803053e-05 -9.847147e-05 5.262964e-05 -0.00013125282
00000000: f6a2 b23a 0c42 57b9 49cb 8aba c2b3 d8b9
00000010: 00f2 0c3a 839d bbba 69c9 75ba 90e5 2cba
00000020: e476 d7b9 982b 7c3a 5749 9239 25da 57ba
00000030: 9d8b d13a cae6 d438 62bd 693a fad8 043a
00000040: 4577 f6b8 562a 9ab9 4033 043a 3261 84b8
00000050: 8409 a53a 6fe4 d0b9 c242 e6b9 e48c 14ba
00000060: daa6 93b9 aa6a df38 944b 86b9 093f 5c3a
00000070: c46f 24ba 72ad f239 207a 013a 4573 4eb9
00000080: 7e6e 87b9 72c4 7239 bad3 333a 5729 da39
00000090: 4aa6 043a 0102 72b9 b9b0 343b 8081 2439
000000a0: f026 97b9 0cea 1e39 20f7 afba 2b8f 293a
000000b0: 6f43 b03a 6e79 e2b9 eef4 54ba 4a34 1939
000000c0: 57b0 a4ba 51cd ffb8 98ee 7039 ed38 893a
000000d0: 75ad f639 9e3c 483a ca36 573a 4904 03ba
000000e0: 9ed2 ef3a 9822 ffb9 48aa 4fba c456 2dba
000000f0: 5474 df39 2e4b c73a a7cc 2b3a d218 f2b9
00000100: e64a 9138 82bb 67b7 1703 bbb8 9c04 1138
00000110: 19d5 0f38 d792 68b9 17cb 15b9 e2d3 8a38
00000120: fe36 dc38 4b04 3838 7bb5 22b8 040c e638
00000130: 17cf c738 f731 0039 4db2 ff38 151c 9fb8
00000140: 724f ffb6 6230 95b8 07f6 8e37 3879 c4b8
00000150: c942 d738 f446 47b8 4990 2a38 ac78 2d39
00000160: f7e8 f937 f425 bf38 de82 c8b7 c375 e338
00000170: d049 bc38 71a9 0938 3800 1938 8f7a 65b8
00000180: 0ddd 5cb9 515c 6538 31c1 67b8 c60a df38
00000190: 04d8 d537 a011 c337 c73f 8e39 2fbc acb8
000001a0: 165e d438 01ad a1b7 c799 07b9 3808 70b8
000001b0: de12 28b8 2250 83b8 3c31 1a38 8f28 de38
000001c0: 06b2 f9b8 7822 43b7 8d63 f535 7de0 5138
000001d0: 09fa 9038 178b e2b8 af30 e338 1d1b 8eb8
000001e0: b235 dc38 3a59 0db8 6ac0 e6b8 4bdb c2b8
000001f0: 86a6 45b7 abbc 7839 dd22 7ab7 7d11 2d39
00000200: 84d4 e239 3725 a3b8 93e2 1ab9 2db1 44b9
00000210: e31f 75b8 949f 9fb9 e455 1138 2d16 6136
00000220: ca53 edb8 26f5 a639 3a0c a439 b38d 5bb9
00000230: 7ea3 d939 f97b 013a f1dd e339 f23e c039
00000240: 1d4f 9b38 beea 6836 5cc8 07b9 881e 03b9
00000250: 12b7 8838 f595 70b9 b5cb c7b8 2cfa 58b9
00000260: 5501 bcb9 b0d4 8ab8 6641 7fb8 b756 55b9
00000270: 0ddd ddb9 2946 8939 08b8 9039 074d c3b9
00000280: 4b6b 87b9 f082 a7b7 4e25 7639 9ab4 f038
00000290: b259 d638 ae33 9ab8 d4c4 003a 9810 3239
000002a0: f49d f8b9 34f9 a639 edd0 07ba e6e9 253a
000002b0: 2535 d739 e154 52b9 8b09 a4b9 fe49 6fb9
000002c0: df51 06ba 53a9 1eb9 bf8f 0639 178c 6939
000002d0: 3ec4 d4b8 cda1 9839 8e5d 9239 0976 6d39
000002e0: 89ea 073a 3e71 e6b8 7c7e 38b9 ab28 f238
000002f0: 0fc6 0638 270a cd38 b96e 5e39 d405 afb9
00000300: 2963 9537 f135 ce37 5f2a 81b6 2427 32b8
00000310: 88b7 a9b8 c826 1638 6d11 1d39 46bb 1037
00000320: ca60 89b8 418d c1b7 14ee 1738 de4a 8bb7
00000330: 482f 04b6 2e79 c0b8 61bf 20b8 199a 0d38
00000340: 21d7 14b7 6007 8438 d60f 1c38 5758 3d37
00000350: 9257 6bb8 28dd 2bb8 c689 beb6 9bbf 9db8
00000360: a28d 97b8 608d a237 6e32 73b8 3690 0bb8
00000370: ae2f 5537 9218 44b8 bd71 0fb8 6672 8b38
00000380: c6d6 6e38 2e51 71b8 65a7 c236 43e1 2bb8
00000390: 1a9a dcb7 b00d 8a36 c77e 61b8 28e0 5cb7
000003a0: 1e3c 0eb8 d645 19b8 9156 2336 b361 3239
000003b0: 9f10 96b5 2b7a c737 b6b8 f3b7 5bba 64b8
000003c0: c6e7 8937 1794 1836 6994 4438 9caa abb8
000003d0: f0a9 8ab8 f7f6 fbb7 a38e 49b7 d624 a6b6
000003e0: 2a35 3c37 897a a7b7 0439 6437 3157 ad37
000003f0: abac c737 7882 ceb8 a5be 5c38 e9a0 09b9

_deterministic_encoder.lstm.bias_ih_l0 f4 [256]
-0.08868191 -0.04245904 -0.076767616 -0.05013047 -0.09392496 -0.03220328 -0.05700338 -0.057430975
-0.047241937 -0.058126118 -0.061333507 -0.06624414 -0.08960778 -0.061840285 -0.03776732 -0.04126095
-0.070605636 -0.044081844 -0.05500298 -0.036388874 -0.0683758 -0.03553908 -0.051551986 -0.0734415
-0.04933343 -0.06666587 -0.06453343 -0.049420435 -0.06294078 -0.04452938 -0.027780045 -0.03362093
-0.054941855 -0.05039959 -0.06856398 -0.05394199 -0.036333494 -0.04097752 -0.0787882 -0.03542767
-0.045944694 -0.037689403 -0.044393018 -0.058637105 -0.07894855 -0.050713293 -0.05558201 -0.05773713
-0.036535237 -0.02685696 -0.04806661 -0.07309948 -0.03769971 -0.059247077 -0.029527953 -0.03795629
-0.056105517 -0.04189604 -0.039065216 -0.053775404 -0.05905608 -0.034831654 -0.049483348 -0.05839905
-0.065010116 -0.033903595 -0.06257007 -0.047928274 -0.071798235 -0.028159734 -0.049571935 -0.04655435
-0.039924614 -0.05815997 -0.040140208 -0.048127547 -0.06351892 -0.036411855 -0.031417422 -0.037095755
-0.06253137 -0.03497146 -0.04615648 -0.030057259 -0.049493086 -0.029635105 -0.03643744 -0.058771856
-0.043756712 -0.06130064 -0.06306731 -0.044421908 -0.06172889 -0.033143923 -0.022102734 -0.02255157
-0.037751682 -0.032952882 -0.04930789 -0.04198732 -0.025970161 -0.030546559 -0.06323618 -0.027271792
-0.040153056 -0.03378635 -0.032294016 -0.04227308 -0.07120828 -0.045822322 -0.043456588 -0.046406437
-0.034779772 -0.02380738 -0.039000787 -0.055139136 -0.030615285 -0.042276397 -0.024336856 -0.03171552
-0.054491438 -0.030729836 -0.029040892 -0.050725088 -0.04338254 -0.027468298 -0.046918735 -0.043701928
-0.028721245 -0.008881909 0.0202764 0.010315333 -0.024015106 0.0018419712 0.019365981 0.017410556
0.014579426 -0.012215047 0.023010248 0.02366382 -0.03669221 0.019833026 0.004716849 -0.00029120338
0.010002447 -0.00016538973 -0.02344862 -0.0143799605 -0.031215407 -0.004402097 0.010865738 0.02425147
-0.009669966 0.0009967951 -0.01155509 -0.01789044 0.0072795977 0.011422026 0.013243524 -0.007805911
-0.013918035 -0.01967551 -0.0076021156 -0.006071857 0.009747662 0.0066442974 -0.034827232 0.0024789483
-0.014354064 0.015350473 0.004692084 0.0055979034 -0.028434953 0.00529468 0.012498666 -0.02207726
0.0017425277 -0.0033942568 -0.0032070172 -0.020753246 0.0094770305 -0.01899397 -0.002958995 -0.01611349
-0.02158986 0.018036507 0.018948864 0.022923378 -0.008801565 -0.026931023 -0.0141676245 0.018641535
-0.08884014 -0.04248498 -0.076744884 -0.050160408 -0.09410791 -0.032282293 -0.05713337 -0.05752431
-0.047273334 -0.058039002 -0.061260547 -0.066404246 -0.090104185 -0.06193496 -0.037823163 -0.0412107
-0.070651054 -0.04405479 -0.054916237 -0.036330547 -0.06846891 -0.03555516 -0.051689427 -0.0734798
-0.04922608 -0.066661894 -0.06458095 -0.04942082 -0.06301123 -0.04440457 -0.027777338 -0.03360304
-0.054969117 -0.050595976 -0.06868228 -0.053933073 -0.036325376 -0.04090893 -0.07836573 -0.0354029
-0.045886356 -0.037676517 -0.04451422 -0.058353156 -0.07897889 -0.05083406 -0.05572344 -0.05773068
-0.036523193 -0.026820987 -0.048068848 -0.07325962 -0.037673526 -0.059385516 -0.029533856 -0.037936926
-0.05640373 -0.04185943 -0.03905202 -0.053790722 -0.058905903 -0.034652248 -0.049444456 -0.058478974
00000000: dc9e b5bd 88e9 2dbd 5738 9dbd 9c55 4dbd
00000010: bb5b c0bd 96e7 03bd 607c 69bd be3c 6bbd
00000020: c380 41bd a715 6ebd d838 7bbd 02ab 87bd
00000030: 4984 b7bd 3d4c 7dbd e8b1 1abd 3e01 29bd
00000040: b099 90bd 2a8f 34bd ce4a 61bd 800c 15bd
00000050: 9d08 8cbd 6d91 11bd 2d28 53bd 7f68 96bd
00000060: da11 4abd 1e88 88bd 1a2a 84bd 156d 4abd
00000070: 18e7 80bd 7064 36bd fa92 e3bc 1ab6 09bd
00000080: b60a 61bd cd6f 4ebd 466b 8cbd 47f2 5cbd
00000090: 6ed2 14bd 0bd8 27bd b55b a1bd 9b1c 11bd
000000a0: 8130 3cbd 3460 1abd 74d5 35bd 762d 70bd
000000b0: c7af a1bd beb8 4fbd f6a9 63bd c57d 6cbd
000000c0: f9a5 15bd 2103 dcbc 7ee1 44bd 2eb5 95bd
000000d0: 036b 1abd 10ad 72bd 9be4 f1bc 0e78 1bbd
000000e0: e6ce 65bd 2f9b 2bbd d902 20bd 9943 5cbd
000000f0: cae4 71bd a3ab 0ebd 0daf 4abd d833 6fbd
00000100: 0624 85bd 7fde 0abd bd24 80bd 7050 44bd
00000110: f40a 93bd 3eaf e6bc f10b 4bbd c6af 3ebd
00000120: fe87 23bd 2639 6ebd 0f6a 24bd 6421 45bd
00000130: 3516 82bd 9924 15bd 8eaf 00bd b8f1 17bd
00000140: 7210 80bd 3c3e 0fbd 940e 3dbd a43a f6bc
00000150: 43b9 4abd 52c5 f2bc 6d3f 15bd c2ba 70bd
00000160: 3d3a 33bd 6116 7bbd 6f29 81bd bff3 35bd
00000170: 6fd7 7cbd ecc1 07bd cb10 b5bc 12be b8bc
00000180: 82a1 1abd 9af9 06bd 12f7 49bd e5fa 2bbd
00000190: 60bf d4bc c73c fabc f881 81bd 1869 dfbc
000001a0: 8877 24bd 8e63 0abd bb46 04bd 8a26 2dbd
000001b0: a6d5 91bd 30b0 3bbd 89ff 31bd ad14 3ebd
000001c0: 3c75 0ebd b207 c3bc 4abf 1fbd 93d9 61bd
000001d0: e8cc fabc 042a 2dbd 165e c7bc 22e8 01bd
000001e0: 6a32 5fbd 23bd fbbc 2ae7 edbc 1cc5 4fbd
000001f0: e4b1 31bd 3205 e1bc dc2d 40bd cb00 33bd
00000200: d148 ebbc 6d85 11bc b11a a63c a401 293c
00000210: 54bb c4bc 4c6e f13a 68a5 9e3c 95a0 8e3c
00000220: 8bde 6e3c 9f21 48bc fd7f bc3c a1da c13c
00000230: 924a 16bd df78 a23c cc8f 9a3b a8ac 98b9
00000240: 4ee1 233c 786c 2db9 5217 c0bc ed99 6bbc
00000250: 74b7 ffbc 773f 90bb 3506 323c 05ab c63c
00000260: c76e 1ebc e5a6 823a 8f51 3dbc f98e 92bc
00000270: b189 ee3b 7323 3b3c 5efb 583c bac8 ffbb
00000280: 7808 64bc 892e a1bc 2b1b f9bb 6ef6 c6bb
00000290: a8b4 1f3c 68b8 d93b 00a7 0ebd da75 223b
000002a0: 4f2d 6bbc 8d80 7b3c 0ec0 993b 9e6e b73b
000002b0: 6bf0 e8bc ff7e ad3b 34c7 4c3c 5fdb b4bc
000002c0: 8765 e43a 2e72 5ebb d22c 52bb b602 aabc
000002d0: 8c45 1b3c 3e99 9bbc b3eb 41bb 7000 84bc
000002e0: 38dd b0bc 4cc1 933c a63a 9b3c cfc9 bb3c
000002f0: 7034 10bc 739e dcbc 531f 68bc 22b6 983c
00000300: d2f1 b5bd bb04 2ebd 6c2c 9dbd 0075 4dbd
00000310: a6bb c0bd 703a 04bd ae04 6abd 9c9e 6bbd
00000320: afa1 41bd 4eba 6dbd 57ec 7abd f3fe 87bd
00000330: 8b88 b8bd 83af 7dbd 76ec 1abd 8dcc 28bd
00000340: 80b1 90bd cc72 34bd d9ef 60bd 57cf 14bd
00000350: 6e39 8cbd 4aa2 11bd 4bb8 53bd 947c 96bd
00000360: 49a1 49bd 0886 88bd 0443 84bd 7c6d 4abd
00000370: 080c 81bd 91e1 35bd 4d8d e3bc 57a3 09bd
00000380: 4c27 61bd ba3d 4fbd 4ca9 8cbd ede8 5cbd
00000390: ebc9 14bd 1f90 27bd 367e a0bd a202 11bd
000003a0: 55f3 3bbd b152 1abd 8b54 36bd b803 6fbd
000003b0: afbf a1bd 6037 50bd 433e 64bd 0177 6cbd
000003c0: 5899 15bd b0b7 dbbc d7e3 44bd 2409 96bd
000003d0: 8e4f 1abd 3a3e 73bd fcf0 f1bc c063 1bbd
000003e0: 9907 67bd cb74 2bbd 03f5 1fbd a953 5cbd
000003f0: 5147 71bd 84ef 0dbd 4586 4abd a687 6fbd

_deterministic_encoder.lstm.bias_hh_l0 f4 [256]
-0.08868191 -0.04245904 -0.076767616 -0.05013047 -0.09392496 -0.03220328 -0.05700338 -0.057430975
-0.047241937 -0.058126118 -0.061333507 -0.06624414 -0.08960778 -0.061840285 -0.03776732 -0.04126095
-0.070605636 -0.044081844 -0.05500298 -0.036388874 -0.0683758 -0.03553908 -0.051551986 -0.0734415
-0.04933343 -0.06666587 -0.06453343 -0.049420435 -0.06294078 -0.04452938 -0.027780045 -0.03362093
-0.054941855 -0.05039959 -0.06856398 -0.05394199 -0.036333494 -0.04097752 -0.0787882 -0.03542767
-0.045944694 -0.037689403 -0.044393018 -0.058637105 -0.07894855 -0.050713293 -0.05558201 -0.05773713
-0.036535237 -0.02685696 -0.04806661 -0.07309948 -0.03769971 -0.059247077 -0.029527953 -0.03795629
-0.056105517 -0.04189604 -0.039065216 -0.053775404 -0.05905608 -0.034831654 -0.049483348 -0.05839905
-0.065010116 -0.033903595 -0.06257007 -0.047928274 -0.071798235 -0.028159734 -0.049571935 -0.04655435
-0.039924614 -0.05815997 -0.040140208 -0.048127547 -0.06351892 -0.036411855 -0.031417422 -0.037095755
-0.06253137 -0.03497146 -0.04615648 -0.030057259 -0.049493086 -0.029635105 -0.03643744 -0.058771856
-0.043756712 -0.06130064 -0.06306731 -0.044421908 -0.06172889 -0.033143923 -0.022102734 -0.02255157
-0.037751682 -0.032952882 -0.04930789 -0.04198732 -0.025970161 -0.030546559 -0.06323618 -0.027271792
-0.040153056 -0.03378635 -0.032294016 -0.04227308 -0.07120828 -0.045822322 -0.043456588 -0.046406437
-0.034779772 -0.02380738 -0.039000787 -0.055139136 -0.030615285 -0.042276397 -0.024336856 -0.03171552
-0.054491438 -0.030729836 -0.029040892 -0.050725088 -0.04338254 -0.027468298 -0.046918735 -0.043701928
-0.028721245 -0.008881909 0.0202764 0.010315333 -0.024015106 0.0018419712 0.019365981 0.017410556
0.014579426 -0.012215047 0.023010248 0.02366382 -0.03669221 0.019833026 0.004716849 -0.00029120338
0.010002447 -0.00016538973 -0.02344862 -0.0143799605 -0.031215407 -0.004402097 0.010865738 0.02425147
-0.009669966 0.0009967951 -0.01155509 -0.01789044 0.0072795977 0.011422026 0.013243524 -0.007805911
-0.013918035 -0.01967551 -0.0076021156 -0.006071857 0.009747662 0.0066442974 -0.034827232 0.0024789483
-0.014354064 0.015350473 0.004692084 0.0055979034 -0.028434953 0.00529468 0.012498666 -0.02207726
0.0017425277 -0.0033942568 -0.0032070172 -0.020753246 0.0094770305 -0.01899397 -0.002958995 -0.01611349
-0.02158986 0.018036507 0.018948864 0.022923378 -0.008801565 -0.026931023 -0.0141676245 0.018641535
-0.08884014 -0.04248498 -0.076744884 -0.050160408 -0.09410791 -0.032282293 -0.05713337 -0.05752431
-0.047273334 -0.058039002 -0.061260547 -0.066404246 -0.090104185 -0.06193496 -0.037823163 -0.0412107
-0.070651054 -0.04405479 -0.054916237 -0.036330547 -0.06846891 -0.03555516 -0.051689427 -0.0734798
-0.04922608 -0.066661894 -0.06458095 -0.04942082 -0.06301123 -0.04440457 -0.027777338 -0.03360304
-0.054969117 -0.050595976 -0.06868228 -0.053933073 -0.036325376 -0.04090893 -0.07836573 -0.0354029
-0.045886356 -0.037676517 -0.04451422 -0.058353156 -0.07897889 -0.05083406 -0.05572344 -0.05773068
-0.036523193 -0.026820987 -0.048068848 -0.07325962 -0.037673526 -0.059385516 -0.029533856 -0.037936926
-0.05640373 -0.04185943 -0.03905202 -0.053790722 -0.058905903 -0.034652248 -0.049444456 -0.058478974
00000000: dc9e b5bd 88e9 2dbd 5738 9dbd 9c55 4dbd
00000010: bb5b c0bd 96e7 03bd 607c 69bd be3c 6bbd
00000020: c380 41bd a715 6ebd d838 7bbd 02ab 87bd
00000030: 4984 b7bd 3d4c 7dbd e8b1 1abd 3e01 29bd
00000040: b099 90bd 2a8f 34bd ce4a 61bd 800c 15bd
00000050: 9d08 8cbd 6d91 11bd 2d28 53bd 7f68 96bd
00000060: da11 4abd 1e88 88bd 1a2a 84bd 156d 4abd
00000070: 18e7 80bd 7064 36bd fa92 e3bc 1ab6 09bd
00000080: b60a 61bd cd6f 4ebd 466b 8cbd 47f2 5cbd
00000090: 6ed2 14bd 0bd8 27bd b55b a1bd 9b1c 11bd
000000a0: 8130 3cbd 3460 1abd 74d5 35bd 762d 70bd
000000b0: c7af a1bd beb8 4fbd f6a9 63bd c57d 6cbd
000000c0: f9a5 15bd 2103 dcbc 7ee1 44bd 2eb5 95bd
000000d0: 036b 1abd 10ad 72bd 9be4 f1bc 0e78 1bbd
000000e0: e6ce 65bd 2f9b 2bbd d902 20bd 9943 5cbd
000000f0: cae4 71bd a3ab 0ebd 0daf 4abd d833 6fbd
00000100: 0624 85bd 7fde 0abd bd24 80bd 7050 44bd
00000110: f40a 93bd 3eaf e6bc f10b 4bbd c6af 3ebd
00000120: fe87 23bd 2639 6ebd 0f6a 24bd 6421 45bd
00000130: 3516 82bd 9924 15bd 8eaf 00bd b8f1 17bd
00000140: 7210 80bd 3c3e 0fbd 940e 3dbd a43a f6bc
00000150: 43b9 4abd 52c5 f2bc 6d3f 15bd c2ba 70bd
00000160: 3d3a 33bd 6116 7bbd 6f29 81bd bff3 35bd
00000170: 6fd7 7cbd ecc1 07bd cb10 b5bc 12be b8bc
00000180: 82a1 1abd 9af9 06bd 12f7 49bd e5fa 2bbd
00000190: 60bf d4bc c73c fabc f881 81bd 1869 dfbc
000001a0: 8877 24bd 8e63 0abd bb46 04bd 8a26 2dbd
000001b0: a6d5 91bd 30b0 3bbd 89ff 31bd ad14 3ebd
000001c0: 3c75 0ebd b207 c3bc 4abf 1fbd 93d9 61bd
000001d0: e8cc fabc 042a 2dbd 165e c7bc 22e8 01bd
000001e0: 6a32 5fbd 23bd fbbc 2ae7 edbc 1cc5 4fbd
000001f0: e4b1 31bd 3205 e1bc dc2d 40bd cb00 33bd
00000200: d148 ebbc 6d85 11bc b11a a63c a401 293c
00000210: 54bb c4bc 4c6e f13a 68a5 9e3c 95a0 8e3c
00000220: 8bde 6e3c 9f21 48bc fd7f bc3c a1da c13c
00000230: 924a 16bd df78 a23c cc8f 9a3b a8ac 98b9
00000240: 4ee1 233c 786c 2db9 5217 c0bc ed99 6bbc
00000250: 74b7 ffbc 773f 90bb 3506 323c 05ab c63c
00000260: c76e 1ebc e5a6 823a 8f51 3dbc f98e 92bc
00000270: b189 ee3b 7323 3b3c 5efb 583c bac8 ffbb
00000280: 7808 64bc 892e a1bc 2b1b f9bb 6ef6 c6bb
00000290: a8b4 1f3c 68b8 d93b 00a7 0ebd da75 223b
000002a0: 4f2d 6bbc 8d80 7b3c 0ec0 993b 9e6e b73b
000002b0: 6bf0 e8bc ff7e ad3b 34c7 4c3c 5fdb b4bc
000002c0: 8765 e43a 2e72 5ebb d22c 52bb b602 aabc
000002d0: 8c45 1b3c 3e99 9bbc b3eb 41bb 7000 84bc
000002e0: 38dd b0bc 4cc1 933c a63a 9b3c cfc9 bb3c
000002f0: 7034 10bc 739e dcbc 531f 68bc 22b6 983c
00000300: d2f1 b5bd bb04 2ebd 6c2c 9dbd 0075 4dbd
00000310: a6bb c0bd 703a 04bd ae04 6abd 9c9e 6bbd
00000320: afa1 41bd 4eba 6dbd 57ec 7abd f3fe 87bd
00000330: 8b88 b8bd 83af 7dbd 76ec 1abd 8dcc 28bd
00000340: 80b1 90bd cc72 34bd d9ef 60bd 57cf 14bd
00000350: 6e39 8cbd 4aa2 11bd 4bb8 53bd 947c 96bd
00000360: 49a1 49bd 0886 88bd 0443 84bd 7c6d 4abd
00000370: 080c 81bd 91e1 35bd 4d8d e3bc 57a3 09bd
00000380: 4c27 61bd ba3d 4fbd 4ca9 8cbd ede8 5cbd
00000390: ebc9 14bd 1f90 27bd 367e a0bd a202 11bd
000003a0: 55f3 3bbd b152 1abd 8b54 36bd b803 6fbd
000003b0: afbf a1bd 6037 50bd 433e 64bd 0177 6cbd
000003c0: 5899 15bd b0b7 dbbc d7e3 44bd 2409 96bd
000003d0: 8e4f 1abd 3a3e 73bd fcf0 f1bc c063 1bbd
000003e0: 9907 67bd cb74 2bbd 03f5 1fbd a953 5cbd
000003f0: 5147 71bd 84ef 0dbd 4586 4abd a687 6fbd

_deterministic_encoder.lstm.weight_ih_l1 f4 [256, 64]
0.0038465238 0.004966837 0.0007563157 -0.0062357727 -0.009391261 0.004480721 0.009047192 -0.0065660914
-0.012634545 0.0022119347 -0.008373219 -0.006909157 0.002241634 -0.01166264 -0.0049647535 0.009297792
0.0026703556 0.0046413634 0.0058987373 -0.0024523933 -0.0048890137 0.00029444502 -0.003830084 -0.010945115
0.010789742 -0.011013546 0.0067747766 -0.0072932113 0.0023501364 -0.0069250157 0.002342343 0.010652491
0.0066527463 -0.0029542106 0.0023175313 -0.004623481 -0.0075722444 0.00057565974 -0.0012950066 -0.0015847136
0.004769582 -0.0014262968 -0.001390454 0.0022699907 0.008366147 -8.043496e-08 -0.0058725504 0.0007277827
0.0036514434 -0.0002587485 0.008493169 0.0020348078 -0.019325668 0.004419876 -0.0042331098 0.004176415
0.008420397 -0.010370154 0.005646617 -0.009148922 0.0024422354 0.0022629558 0.003875193 -0.010932784
-0.00047402136 0.000497368 0.0005007534 -8.980975e-05 -0.00047443158 0.0008494418 0.00097363966 -0.0006922937
-0.0012720797 -0.00012623741 0.00020343387 -0.0004598139 0.0004107183 -0.00069074717 -1.8838638e-05 0.0003234547
0.00023191994 0.00015221754 0.00060980703 0.00033153157 -0.0004246355 0.0012389013 -0.0005155003 -0.0018515694
0.0006248538 -0.0014269642 -0.00017751225 -0.00074001885 0.0008426662 -0.0007176917 -0.00044177382 0.0006423077
0.001908228 0.00021616803 -0.00021968975 -0.00055943837 -0.0007802774 0.00014104538 -0.0019812165 -0.0005159067
0.00061584753 -0.0007862461 0.0014399748 -0.00032372007 0.00064619165 0.00034578657 0.00042423248 0.00024306381
0.0015870846 0.000120733304 0.00016690997 -6.96069e-05 -0.00010878897 -1.7391429e-05 -0.0013984498 0.0005213002
-8.114167e-05 -2.8086048e-05 0.0004869989 -0.00026847285 0.00015691263 -0.0009973082 -6.607973e-05 -0.0005499551
0.0001471347 0.0008649571 -9.534546e-05 -0.0004503268 6.1834035e-05 0.0012097306 -0.00020976888 -0.0026922373
-0.003118746 -0.00088294933 -0.0037427598 -0.0011191146 -1.5850625e-05 -0.0034472737 -0.0023995822 -0.0010471591
-0.00070757343 0.00016406164 0.0030114495 0.0007427071 0.00024046317 0.0024257973 -0.00050270394 -0.0025188436
0.0018680006 -0.0022829408 0.0014686969 0.0015455926 0.0034287889 -0.0031481131 -0.0022424133 0.0024686784
0.003537145 0.0007894954 -0.0008806731 -0.0006802595 -0.0026656624 0.00046084338 -0.00081673684 -0.0016352916
0.0035246634 -0.002976207 0.0022022307 -0.002200845 0.00019200314 0.00031885217 0.0003953899 0.0018489521
0.00418786 0.0002137666 -6.5910666e-05 0.00026773792 -0.002480657 -0.00016068068 -0.00071375695 0.00090420333
-0.0004070947 -0.0004905428 -0.00033191586 -0.0025891825 0.0006061317 7.610146e-05 0.00062764547 -0.00043902232
-0.0003740258 0.0010074517 0.0007260212 -0.0006443913 -0.0005660471 0.0025417693 0.001425683 -0.0014432563
-0.0023872498 -0.00016479324 -0.00023332646 -0.0011503868 -0.0003675934 -0.0015343678 -0.0014599527 0.0006195567
0.00020924509 0.0004237893 0.00059315265 2.1106558e-05 -0.0008777326 0.0012031782 -0.0007853331 -0.0038990667
0.0006432062 -0.0013060886 0.00037611026 -0.0009100069 0.0013899906 -0.0016682266 -0.0016367385 0.0011299179
0.0027470891 -0.0008534854 -8.1697995e-05 -0.0014067083 -0.001422895 4.4605513e-05 -0.0016822453 -0.000838968
0.0009235376 -0.001614162 0.0028242718 -0.001559884 0.00082877505 0.0002763812 0.0002283415 -0.00017575962
0.0017794766 5.3002535e-05 0.00025724087 -0.00023906684 -0.0013781303 0.00017488866 -0.0012933176 0.0010337372
0.000105622676 -0.0007614801 0.0016637456 -0.0003431874 6.0111033e-05 -0.0025929974 0.0003235173 -0.00034644108
00000000: f615 7c3b d9c0 a23b 7d43 463a 7455 ccbb
00000010: cedd 19bc 03d3 923b ac3a 143c 5e28 d7bb
00000020: 1f01 4fbc 1bf6 103b d32f 09bc 3666 e2bb
00000030: 61e8 123b a814 3fbc 5faf a2bb c455 183c
00000040: 2201 2f3b 9416 983b 324a c13b 55b8 20bb
00000050: 0534 a0bb be5f 9a39 2602 7bbb 2453 33bc
00000060: 75c7 303c 2972 34bc f2fe dd3b e4fb eebb
00000070: bf04 1a3b 3eeb e2bb ff81 193b c987 2e3c
00000080: 48ff d93b 6e9b 41bb b9e1 173b 9280 97bb
00000090: 9720 f8bb dfe7 163a 36bd a9ba 2ab6 cfba
000000a0: 274a 9c3b 94f2 baba e53f b6ba 20c4 143b
000000b0: 2a12 093c 96bb acb3 866e c0bb acc8 3e3a
000000c0: 0e4d 6f3b a3a8 87b9 ef26 0b3c 695a 053b
000000d0: dd50 9ebc 9bd4 903b e6b5 8abb 4fda 883b
000000e0: b4f5 093c 94e7 29bc 4207 b93b 5ce5 15bc
000000f0: e90d 203b 194e 143b f3f6 7d3b 6b1f 33bc
00000100: 1286 f8b9 cd61 023a fe44 033a 3e58 bcb8
00000110: 21bd f8b9 13ad 5e3a da3b 7f3a 0b7b 35ba
00000120: e9bb a6ba 995e 04b9 dd50 5539 2d13 f1b9
00000130: ad55 d739 4213 35ba ab07 9eb7 5b95 a939
00000140: 892f 7339 969c 1f39 75db 1f3a 6ad1 ad39
00000150: 9da1 deb9 a162 a23a a422 07ba 5cb0 f2ba
00000160: 3bcd 233a f908 bbba 9522 3ab9 d3fd 41ba
00000170: 5fe6 5c3a 7a23 3cba e19d e7b9 8a60 283a
00000180: 821d fa3a 2aab 6239 855c 66b9 46a7 12ba
00000190: 888b 4cba 95e5 1339 4cd7 01bb ea3d 07ba
000001a0: d470 213a 151c 4eba 89bd bc3a f9b8 a9b9
000001b0: 3065 293a b04a b539 856b de39 f2de 7e39
000001c0: b905 d03a 3332 fd38 8e04 2f39 ebf9 91b8
000001d0: a225 e4b8 cfe3 91b7 304c b7ba dda7 083a
000001e0: 9a2a aab8 549a ebb7 e353 ff39 d1c1 8cb9
000001f0: ea88 2439 1cb8 82ba 4994 8ab8 dd2a 10ba
00000200: 2c48 1a39 4abe 623a 34f4 c7b8 d719 ecb9
00000210: e5ac 8138 d38f 9e3a 68f5 5bb9 3f70 30bb
00000220: e063 4cbb ba75 67ba 1749 75bb 41af 92ba
00000230: f5f6 84b7 a8eb 61bb 4f42 1dbb d440 89ba
00000240: 737c 39ba f607 2c39 bd5b 453b 3bb2 423a
00000250: d724 7c39 20fa 1e3b e4c7 03ba 2f13 25bb
00000260: b3d7 f43a 649d 15bb 4a81 c03a 7b95 ca3a
00000270: 88b5 603b 9350 4ebb 74f5 12bb 8dc9 213b
00000280: 72cf 673b 24f6 4e3a f9dc 66ba 7153 32ba
00000290: 65b2 2ebb 5a9d f139 481a 56ba 4857 d6ba
000002a0: 0afe 663b 780c 43bb 4d53 103b 0d3c 10bb
000002b0: 7354 4939 9d2b a739 564c cf39 8a58 f23a
000002c0: 513a 893b 8926 6039 8539 8ab8 2d5f 8c39
000002d0: 8592 22bb 647c 28b9 6b1b 3bba 0f08 6d3a
000002e0: 536f d5b9 c597 00ba fe04 aeb9 46af 29bb
000002f0: cfe4 1e3a a998 9f38 9388 243a 942c e6b9
00000300: e518 c4b9 780c 843a 7552 3e3a 5eec 28ba
00000310: c762 14ba d093 263b fcdd ba3a a52b bdba
00000320: 6873 1cbb 59cc 2cb9 18a9 74b9 93c8 96ba
00000330: 8db9 c0b9 d71c c9ba e25b bfba bf69 223a
00000340: cd68 5b39 0930 de39 cd7d 1b3a fd0d b137
00000350: a317 66ba f6b3 9d3a d0de 4dba 7c87 7fbb
00000360: d69c 283a 1031 abba aa30 c539 878d 6eba
00000370: 5830 b63a 65a8 daba d587 d6ba c119 943a
00000380: 8208 343b 70bc 5fba 4755 abb8 4c61 b8ba
00000390: 6f80 baba ce16 3b38 c97e dcba 30ee 5bba
000003a0: 8f19 723a 4a92 d3ba 6b17 393b 0675 ccba
000003b0: 2742 593a 42e7 9039 f46e 6f39 1d4c 38b9
000003c0: 543d e93a 0a4f 5e38 49de 8639 04ae 7ab9
000003d0: 61a2 b4ba 5162 3739 8a84 a9ba 777e 873a
000003e0: be81 dd38 119e 47ba 0a12 da3a d5ed b3b9
000003f0: bb1f 7c38 47ef 29bb c29d a939 89a2 b5b9

_deterministic_encoder.lstm.weight_hh_l1 f4 [256, 64]
0.00066477 -9.466709e-05 0.0003974413 -0.0007388756 0.00086568034 -0.00029682895 0.00035158944 -0.00069695746
-0.0010673741 0.0003779727 0.00025082566 0.00089981814 0.00016974166 0.0003699107 0.00041307366 0.0013127396
-0.003972366 -0.001961807 0.00018664399 0.0013649394 -0.00018915688 0.00023992226 -0.0007711935 0.00013318472
0.0006281675 1.6874816e-05 -0.0008639663 0.0029251562 -0.001491099 0.00072156364 -0.0038561972 -0.00027808134
-0.0014495216 -0.004943277 -0.0002997668 -0.00026281664 -0.0013420552 0.0006748331 -0.00072451466 -0.00010255428
-0.0003664142 0.00399633 -0.00083531707 0.00019511238 -0.0027517795 -0.0012951244 -0.00059244066 -0.00089854834
-0.00028281144 0.0011663381 0.0004405134 -0.0033764432 0.00017199318 -0.0011159694 0.00044379948 -0.0032293533
-0.0001455542 -0.0018873514 0.00047714845 -6.3913845e-05 -0.0019198565 0.00054666586 0.0006159631 0.0014577567
-3.243312e-05 -5.927821e-05 3.1942127e-05 -1.574852e-05 -2.7765493e-05 -3.667935e-05 -4.316455e-05 -7.670956e-05
0.00016040375 -4.32315e-05 7.785594e-05 9.3419505e-05 2.8272443e-05 -9.6417585e-05 2.2972254e-05 3.116708e-05
-9.899133e-05 0.00031632162 9.125495e-05 9.131323e-05 8.352487e-06 1.2648628e-05 0.00013951086 1.2715206e-05
3.743438e-05 0.000319763 5.6754725e-05 0.00025122313 5.7049692e-05 3.0548574e-05 -0.00044148538 -5.7489568e-05
1.0695523e-05 -0.0001553417 -5.159227e-05 -1.072023e-05 -7.038958e-05 9.962592e-05 -0.00013942647 7.256192e-05
7.32722e-05 -0.00014232517 5.112712e-05 0.00022447294 6.606787e-05 -0.00012611842 3.196711e-05 -0.00028445158
-4.102862e-06 9.541817e-05 9.5746545e-05 -0.00022327383 -2.1799782e-05 -1.8523102e-05 1.3860573e-05 0.00020647203
-3.1727417e-05 3.507144e-05 5.9704995e-05 2.3119286e-05 -5.00636e-05 6.913343e-05 -5.2720243e-05 2.4331599e-05
0.0002200027 -6.3804684e-05 4.585868e-05 -0.000104749626 0.00016257224 -3.112656e-05 4.875129e-05 -4.9011018e-05
-2.3625507e-05 -4.9308102e-05 8.2717175e-05 8.83173e-05 1.0168377e-05 2.4521727e-05 0.00011343592 0.00021463886
-0.0001396113 1.923615e-05 3.4262337e-06 0.00013265677 -2.0421337e-05 4.5395267e-05 -7.51271e-05 -8.576133e-06
9.3360206e-05 0.00011297225 -0.00013656158 8.58258e-05 -0.0001763409 6.542027e-05 -0.00024020483 -2.4670351e-05
-0.0001591214 -4.3679124e-06 -3.5913097e-05 -7.873406e-05 -0.00022790501 9.664971e-05 -0.00015825138 9.2540904e-07
-8.183044e-05 3.030758e-05 -0.00015213272 9.4272684e-05 -0.00023546301 -0.00016929866 -0.00014848773 -8.446653e-05
8.554941e-07 0.00010675614 2.6387652e-05 -0.0001828421 3.549543e-05 -0.00010289588 -3.087468e-05 6.0538063e-05
-8.844513e-06 -0.00015931658 8.937936e-05 -4.1565207e-05 -0.0001538131 8.431211e-05 9.997408e-05 0.00013497072
0.00030015595 -0.00020319279 1.9684772e-05 4.0086772e-05 -2.3563683e-05 -0.00019177714 -0.000271274 9.607256e-05
0.00041188247 -0.00026533817 0.00034821645 0.00020823628 3.3796384e-06 -0.00028516992 0.0002858282 6.572859e-05
-0.000373298 0.0010353487 0.00021449043 0.00022288797 7.334838e-05 0.000110906934 0.0006158898 -1.3505127e-06
0.000114629 0.00076212216 0.00022830126 0.0001239004 0.00026629257 -0.00018554309 -0.00045555388 2.0738249e-05
-6.790049e-05 0.0009675264 -6.797813e-05 -0.00010486415 -0.00046491256 -1.1499841e-05 -0.0004325537 0.0002697787
0.00019723411 -6.1790495e-05 2.3854302e-05 0.00029281774 0.0002067932 -0.0004615975 -9.3500894e-05 -0.00012606349
3.228555e-05 0.00025015938 0.000250054 -0.0005927614 -8.0911756e-05 2.4448253e-05 -0.00013401353 0.0012711949
-0.00010097423 0.0001928903 0.00020511303 5.6569434e-06 0.00031411258 5.1053186e-05 -5.7240264e-05 -0.00023140988
00000000: f643 2e3a 0288 c6b8 ab5f d039 1ab1 41ba
00000010: d3ee 623a b59f 9bb9 8955 b839 06b4 36ba
00000020: 22e7 8bba a32a c639 4081 8339 c6e1 6b3a
00000030: aefc 3139 93f0 c139 cf91 d839 3b10 ac3a
00000040: 9f2a 82bb a991 00bb ddb5 4339 c4e7 b23a
00000050: 6a58 46b9 a493 7b39 eb29 4aba 80a7 0b39
00000060: 9bab 243a 648e 8d37 cc7b 62ba fab3 3f3b
00000070: fb70 c3ba 5127 3d3a 41b8 7cbb 72cb 91b9
00000080: e0fd bdba 37fb a1bb 052a 9db9 a7ca 89b9
00000090: e6e7 afba 48e7 303a 5bed 3dba 6912 d7b8
000000a0: 481b c0b9 a5f3 823b 2ef9 5aba 1597 4c39
000000b0: 3357 34bb 2ac1 a9ba 054e 1bba 8f8c 6bba
000000c0: 4f46 94b9 d0df 983a b5f4 e639 5147 5dbb
000000d0: 1159 3439 b845 92ba c2ad e839 8fa3 53bb
000000e0: e89f 18b9 0161 f7ba c829 fa39 7c09 86b8
000000f0: b2a3 fbba 204e 0f3a 9578 213a 3312 bf3a
00000100: cc08 08b8 7ea1 78b8 99f9 0538 b01b 84b7
00000110: f1e9 e8b7 27d8 19b8 950b 35b8 22df a0b8
00000120: 0e32 2839 7853 35b8 9746 a338 37ea c338
00000130: 9c2a ed37 cc33 cab8 8ab4 c037 66b9 0238
00000140: 9199 cfb8 f8d7 a539 2160 bf38 6b7f bf38
00000150: a921 0c37 7235 5437 a949 1239 6553 5537
00000160: dc02 1d38 dda5 a739 ec0b 6e38 99b6 8339
00000170: a448 6f38 4821 0038 2a77 e7b9 f420 71b8
00000180: ec70 3337 38e3 22b9 c764 58b8 0adb 33b7
00000190: 1e9e 93b8 42ee d038 0233 12b9 622c 9838
000001a0: b6a9 9938 1f3d 15b9 5471 5638 7f60 6b39
000001b0: eb8d 8a38 a83e 04b9 6c14 0638 7222 95b9
000001c0: 51ab 89b6 3d1b c838 89cb c838 9d1e 6ab9
000001d0: adde b6b7 0f62 9bb7 b58a 6837 6a80 5839
000001e0: 0e13 05b8 ac19 1338 c06b 7a38 4af0 c137
000001f0: 62fb 51b8 bafb 9038 ee1f 5db8 b61b cc37
00000200: 86b0 6639 e1ce 85b8 6258 4038 07ad dbb8
00000210: 2778 2a39 e48d 02b8 4d7a 4c38 2e91 4db8
00000220: 642f c6b7 2cd0 4eb8 7278 ad38 fd36 b938
00000230: d998 2a37 02b4 cd37 72e4 ed38 ae10 6139
00000240: 9f64 12b9 515d a137 3fee 6536 c819 0b39
00000250: 7d4e abb7 cc66 3e38 8e8d 9db8 36e2 0fb7
00000260: 61ca c338 84eb ec38 f831 0fb9 60fd b338
00000270: 26e8 38b9 3d32 8938 7edf 7bb9 2df3 ceb7
00000280: d3d9 26b9 1590 92b6 65a1 16b8 071e a5b8
00000290: c9f9 6eb9 6bb0 ca38 48f0 25b9 a069 7835
000002a0: 629c abb8 083d fe37 d185 1fb9 43b4 c538
000002b0: 9fe6 76b9 c385 31b9 5fb3 1bb9 9f23 b1b8
000002c0: 1ba5 6535 44e2 df38 0d5b dd37 4db9 3fb9
000002d0: eee0 1438 cec9 d7b8 6f7f 01b8 40ea 7d38
000002e0: e562 14b7 380e 27b9 2e71 bb38 4d56 2eb8
000002f0: e448 21b9 b8d0 b038 2da9 d138 ed86 0d39
00000300: 405e 9d39 2610 55b9 ba20 a537 d822 2838
00000310: a0aa c5b7 c917 49b9 c839 8eb9 907a c938
00000320: eef1 d739 161d 8bb9 d290 b639 005a 5a39
00000330: bfcd 6236 dc82 95b9 36db 9539 c5d7 8938
00000340: 36b7 c3b9 8ab4 873a d6e8 6039 09b7 6939
00000350: 9dd2 9938 b596 e838 aa73 213a 4343 b5b5
00000360: fa64 f038 27c9 473a 2764 6f39 43eb 0139
00000370: 2f9d 8b39 588e 42b9 68d7 eeb9 0df7 ad37
00000380: cc65 8eb8 99a1 7d3a 7b8f 8eb8 83ea dbb8
00000390: 82bf f3b9 71ef 40b7 60c8 e2b9 1671 8d39
000003a0: a1d0 4e39 8595 81b8 b91a c837 5585 9939
000003b0: a0d6 5839 9102 f2b9 e915 c4b8 e92f 04b9
000003c0: 586a 0738 d327 8339 ae19 8339 8b63 1bba
000003d0: 2baf a9b8 3916 cd37 fc85 0cb9 399e a63a
000003e0: 20c2 d3b8 9842 4a39 9c13 5739 c6d0 bd36
000003f0: 7aaf a439 f121 5638 4415 70b8 9ea6 72b9

_deterministic_encoder.lstm.bias_ih_l1 f4 [256]
-0.38042584 -0.41433156 -0.40584204 -0.4161027 -0.42709506 -0.44095123 -0.41780168 -0.4281405
-0.4465986 -0.40061215 -0.41449165 -0.44410694 -0.39344501 -0.42724657 -0.42922342 -0.40864277
-0.48265973 -0.4217993 -0.40336815 -0.43105793 -0.29279354 -0.42918748 -0.29657567 -0.4360013
-0.416333 -0.4483465 -0.44548514 -0.42786378 -0.4215109 -0.42927724 -0.42369297 -0.41697216
-0.42656654 -0.4051753 -0.4139825 -0.41841754 -0.4740846 -0.42708725 -0.39431557 -0.37878323
-0.42664525 -0.44484636 -0.4171742 -0.42445618 -0.4409821 -0.47251514 -0.4501723 -0.4164273
-0.17869516 -0.42661265 -0.46205685 -0.47026956 -0.44127098 -0.41470343 -0.39092594 -0.43966934
-0.41865095 -0.42719504 -0.41178316 -0.43730912 -0.41425148 -0.3404227 -0.44339532 -0.42255872
-0.25384253 -0.22847395 -0.22526611 -0.220137 -0.23824587 -0.27334052 -0.21120416 -0.21830666
-0.25135833 -0.21599199 -0.2424402 -0.24669555 -0.22770576 -0.23482196 -0.25238556 -0.23908038
-0.2645505 -0.227499 -0.23572351 -0.23240241 -0.22153632 -0.2536155 -0.22009249 -0.24372183
-0.22789472 -0.23777531 -0.22527736 -0.2216699 -0.22620091 -0.22434945 -0.21412984 -0.23003174
-0.22744869 -0.21583588 -0.24156892 -0.257421 -0.25899577 -0.21862628 -0.2432863 -0.21877968
-0.2449805 -0.24118206 -0.23743534 -0.22310549 -0.2479179 -0.25257653 -0.25179437 -0.21464576
-0.15738961 -0.2207033 -0.24436808 -0.2595041 -0.23811929 -0.23021644 -0.2663556 -0.2311176
-0.21846898 -0.23042512 -0.2500569 -0.22885072 -0.23363256 -0.22618772 -0.245626 -0.22888052
0.004176329 0.0005665524 0.0024381352 -0.0047725327 0.0045565446 0.00039920927 0.0037305711 -0.0017762695
-0.0027648334 0.0020579677 0.00042948927 0.0003222145 0.0004358061 0.0032406931 0.0005446555 0.008819571
0.00042888685 -0.010088211 -0.0015166647 0.0019832514 -0.0012873943 -0.001169807 -0.00689664 0.0010731529
0.0015078775 -0.0020249225 -0.0066473824 0.002823719 -0.009861963 0.0023320816 -0.0036732662 -0.0017228255
-0.0042515383 -0.0119172195 -0.0004636899 0.00053482014 -0.0012388312 0.0021668328 -0.0013111859 -0.0022983418
-0.0023238612 0.0019104178 -0.00341687 -0.00096809986 -0.00861623 -0.00065420853 -0.004201192 -0.0022904917
4.1928357e-05 0.0016931895 0.0003201913 -0.00012754458 0.002379693 -0.0027086926 0.0009276393 -0.009097831
-0.0002685744 -0.007947759 0.0013956118 -0.0014129344 -0.0064860447 0.0032629075 0.0022338962 0.0050767306
-0.380653 -0.40981615 -0.40454242 -0.41560158 -0.42571536 -0.44041723 -0.41468295 -0.42814863
-0.4466416 -0.39996707 -0.41466197 -0.44314396 -0.39230862 -0.42645374 -0.42652625 -0.40878028
-0.48270148 -0.42051852 -0.40248707 -0.43018782 -0.2928246 -0.42781985 -0.29680243 -0.43616712
-0.4163572 -0.4481707 -0.441454 -0.42781743 -0.4197647 -0.42888278 -0.42402834 -0.41622427
-0.42702797 -0.40520346 -0.4122317 -0.4177524 -0.47361726 -0.42707607 -0.39367473 -0.3774325
-0.42663348 -0.4449516 -0.41589698 -0.42462575 -0.44166246 -0.47358572 -0.44910333 -0.41639212
-0.18010789 -0.42644998 -0.4621537 -0.47018376 -0.441867 -0.4156371 -0.39108205 -0.44016632
-0.41554385 -0.42641705 -0.41187322 -0.43821922 -0.4171644 -0.3405336 -0.44270697 -0.42245153
00000000: 2dc7 c2be 4423 d4be 87ca cfbe 6a0b d5be
00000010: 34ac dabe 5cc4 e1be 1aea d5be 3b35 dbbe
00000020: 92a8 e4be 091d cdbe 4038 d4be fc61 e3be
00000030: a071 c9be 10c0 dabe 2cc3 dbbe a039 d1be
00000040: 2d1f f7be 14f6 d7be 4586 cebe a0b3 dcbe
00000050: 09e9 95be 76be dbbe c4d8 97be 903b dfbe
00000060: 9929 d5be ac8d e5be a116 e4be f610 dbbe
00000070: 47d0 d7be 3aca dbbe 49ee d8be 607d d5be
00000080: ee66 dabe 2373 cfbe 84f5 d3be d33a d6be
00000090: 37bb f2be 2eab dabe bbe3 c9be e0ef c1be
000000a0: 3f71 dabe e7c2 e3be db97 d5be 5252 d9be
000000b0: 68c8 e1be 81ed f1be fc7c e6be f635 d5be
000000c0: ddfb 36be f96c dabe b792 ecbe 2cc7 f0be
000000d0: 45ee e1be 0254 d4be 7227 c8be 571c e1be
000000e0: 6b59 d6be 4fb9 dabe 3ed5 d2be fbe6 dfbe
000000f0: c518 d4be e24b aebe b604 e3be 9e59 d8be
00000100: a6f7 81be 13f5 69be 29ac 66be 986b 61be
00000110: baf6 73be 4af3 8bbe e745 58be c88b 5fbe
00000120: 0ab2 80be 012d 5dbe 3e42 78be c29d 7cbe
00000130: b32b 69be 2b75 70be ae38 81be 7dd1 74be
00000140: 2a73 87be 7ff5 68be 8161 71be e6fa 6dbe
00000150: 6bda 62be e4d9 81be ed5f 61be 3792 79be
00000160: 3c5d 69be 5f7b 73be 1caf 66be 6ffd 62be
00000170: 36a1 67be ddbb 65be da44 5bbe 718d 6bbe
00000180: 4fe8 68be 1504 5dbe d85d 77be afcc 83be
00000190: 189b 84be 91df 5fbe 0b20 79be c807 60be
000001a0: 2bdc 7abe 6ef8 76be 4022 73be c475 64be
000001b0: 31de 7dbe b651 81be 31eb 80be 19cc 5bbe
000001c0: be2a 21be 0c00 62be a03b 7abe b9dd 84be
000001d0: 8bd5 73be dcbd 6bbe c35f 88be 18aa 6cbe
000001e0: 55b6 5fbe 90f4 6bbe 7507 80be d857 6abe
000001f0: 603d 6fbe c19d 67be 6285 7bbe a85f 6abe
00000200: 96d9 883b b084 143a 1fc9 1f3b e862 9cbb
00000210: 114f 953b f64c d139 997c 743b b7d1 e8ba
00000220: 3532 35bb f8de 063b 132d e139 e6ee a839
00000230: e87c e439 cf61 543b 36c7 0e3a f67f 103c
00000240: 38dc e039 0649 25bc d3ca c6ba 70f9 013b
00000250: c9bd a8ba 3654 99ba 36fd e1bb 09a9 8c3a
00000260: f9a3 c53a 90b4 04bb 49d2 d9bb 250e 393b
00000270: 1294 21bc d6d5 183b 2ebb 70bb 6ed0 e1ba
00000280: 7d50 8bbb 7140 43bc 681b f3b9 2c33 0c3a
00000290: 4760 a2ba 6c01 0e3b 19dc abba c79f 16bb
000002a0: ec4b 18bb fc66 fa3a 91ed 5fbb 15c8 7dba
000002b0: 172b 0dbc 317f 2bba 27aa 89bb 131c 16bb
000002c0: 3bdc 2f38 03ee dd3a 59df a739 7dbd 05b9
000002d0: a0f4 1b3b 5284 31bb d22c 733a 120f 15bc
000002e0: 72cf 8cb9 5137 02bc f6ec b63a 3632 b9ba
000002f0: e388 d4bb 81d6 553b 8f66 123b b45a a63b
00000300: f3e4 c2be 6cd3 d1be 2f20 cfbe bbc9 d4be
00000310: 5df7 d9be 5e7e e1be 5351 d4be 4c36 dbbe
00000320: 35ae e4be 7cc8 ccbe 934e d4be c4e3 e2be
00000330: addc c8be 2558 dabe a661 dabe a64b d1be
00000340: a624 f7be 344e d7be c912 cebe 9441 dcbe
00000350: 1bed 95be 340b dbbe 7df6 97be 4c51 dfbe
00000360: c52c d5be a176 e5be 4206 e2be e30a dbbe
00000370: 66eb d6be 8696 dbbe 3e1a d9be 591b d5be
00000380: 69a3 dabe d476 cfbe 0910 d3be a4e3 d5be
00000390: f67d f2be b7a9 dabe bc8f c9be d53e c1be
000003a0: b46f dabe b2d0 e3be 73f0 d4be 8c68 d9be
000003b0: 9521 e2be d479 f2be dff0 e5be 5931 d5be
000003c0: 346e 38be a757 dabe 699f ecbe edbb f0be
000003d0: 643c e2be 63ce d4be e83b c8be 7b5d e1be
000003e0: 2ac2 d4be 5653 dabe 0ce1 d2be 455e e0be
000003f0: 9296 d5be 6c5a aebe 7daa e2be 914b d8be
