CNP-model-save-name/saved_models/model_100.pth (torch, 814082 bytes, 28 tensors)

weight f4 [128, 2]
000000 8d 69 36 be 21 1c 01 3f 14 ed f6 3e f6 53 b8 3e
       -0.17813702 0.50433546 0.4822775 0.36001557
000010 ea f9 16 3f 98 ba db 3d a9 3d 22 3e 4a 58 10 3f
       0.5897509 0.10728949 0.15843834 0.5638472
000020 92 99 cb be 24 11 9c 3e 3e 89 0e 3c 0e e4 a8 3e
       -0.39765602 0.30481827 0.008699713 0.32986492
000030 18 67 ba be 67 61 9f 3e fa 3a 1b 3f 91 5c d3 3e
       -0.3640678 0.31129 0.60636866 0.4128156
000040 cf 16 5f be f1 b3 eb be 01 2f a2 3e 73 d3 23 3f
       -0.21786045 -0.46035722 0.31676486 0.6399452
000050 0e d5 3d 3e 5b d4 fe bd 35 3f d3 be 0e 0d 8a 3e
       0.18538305 -0.12442847 -0.4125916 0.26963085
000060 ab ae cb 3e b9 02 90 3e 04 13 51 be 4c 87 e5 b8
       0.397817 0.28127077 -0.2041741 -0.00010944772
000070 05 80 68 bd 94 00 3b be 9d 27 1f 3f 1f 9e b7 be
       -0.056762714 -0.1826194 0.6216982 -0.35862824
000080 14 64 1b 3f f1 89 1b bf 5a 90 bc be d5 6d 39 be
       0.6069958 -0.60757357 -0.36828882 -0.18108304
000090 15 a5 97 3e e7 4d ec be 4b af 8c be 6b 94 a3 be
       0.29618135 -0.46153185 -0.27477488 -0.3194917
0000a0 23 00 29 3f 38 36 d3 be 8b 21 60 be 4d 40 80 be
       0.66015834 -0.41252303 -0.21887796 -0.25049058
0000b0 74 42 67 be 9b f2 18 3e 9e 90 27 be 60 ea f2 3e
       -0.22583944 0.14936297 -0.16363761 0.4744444
0000c0 d4 aa 0b bf bf 8d c9 3e bd 48 dd 3e 56 a3 b5 be
       -0.5455754 0.39365956 0.43219557 -0.35476178
0000d0 bc 3a d4 bd 9b 0f 10 3f fb e7 37 be 9c e3 05 3e
       -0.10362765 0.5627381 -0.17959587 0.13075107
0000e0 ee c1 0c 3f 9a f0 c0 3d 77 d7 6e bd 0b 6e ca be
       0.54983413 0.09420891 -0.058310952 -0.3953708
0000f0 a8 f1 25 3f 54 a2 9a be 4c 66 af 3e 73 16 da 3d
       0.64821863 -0.30201972 0.34257734 0.10648813
000100 7b b7 00 bf b1 00 f3 be 13 b8 a5 3e 0a b6 54 3d
       -0.5027997 -0.47461465 0.32367 0.05193142
000110 65 9f 55 3e 1a b6 40 be 2b 44 ce 3e a4 ba a1 3e
       0.20861585 -0.18819466 0.40286383 0.31587708
000120 a5 72 db 3b cf 43 62 be 3d 41 a6 3d 39 57 6d 3e
       0.0066970163 -0.2209618 0.08117912 0.23177804
000130 39 31 1b bf 65 94 c8 3e 52 98 24 be 41 b1 04 bf
       -0.6062198 0.39175716 -0.1607373 -0.5183297
000140 af 2e 2f 3f 73 e1 4d 3e c7 80 a0 be 1c 93 29 be
       0.6843061 0.20105533 -0.3134825 -0.16560024
000150 2b 4d 49 3d 86 9e bd 3e 05 3b 2d 3f 2c 11 10 3d
       0.04914586 0.37035006 0.6766818 0.035172626
000160 be 97 c0 bd 61 4e 18 bf 9d 77 e5 3e 08 ff 23 3f
       -0.094039425 -0.59494597 0.4481782 0.6406102
000170 c1 8b ba be 95 eb 14 bf be 7b f9 be 93 69 6d be
       -0.3643475 -0.5817197 -0.4872722 -0.23184805
000180 84 96 01 be 1d 41 9c 3e 13 76 c3 bb 4d c4 bb be
       -0.12655073 0.30518427 -0.0059650033 -0.36673203
000190 3a 0c 21 3e 30 b3 53 b9 2a ee 0b bf 15 39 b2 bb
       0.1572732 -0.0002018928 -0.54660285 -0.0054389336
0001a0 a9 1b 91 3e a8 b7 a1 3e 0e 8a 67 3d bc 00 ce be
       0.28341416 0.3158543 0.056528144 -0.40234935
0001b0 00 78 b2 bb 1b 53 4c 3e fa 22 f4 be ae 9f ce 3e
       -0.005446434 0.19953577 -0.47682935 0.403562
0001c0 cd 42 88 be e8 1c 48 be 50 41 df bd 8d b9 8b 39
       -0.26613465 -0.19542277 -0.10901129 0.00026650392
0001d0 a8 3b 2f 3f 8b 5b 21 3f 40 74 3e bd d3 d5 d1 3e
       0.68450403 0.6303031 -0.046497583 0.40983447
0001e0 49 60 73 be 43 f0 d0 be 8f 63 ec bb 85 0b 04 3e
       -0.23767199 -0.40808305 -0.0072140167 0.1289502
0001f0 e4 13 11 bf 81 3a ea 3d e3 5f 1a bf d6 9c 5e be
       -0.56670976 0.1143694 -0.6030256 -0.21739516
000200 4b d0 bd bd ff 16 04 bd d2 d0 65 bc 85 66 d6 3e
       -0.09268244 -0.032248493 -0.014026837 0.4187509
000210 6f 38 01 be ba f8 12 3f 4f d6 a0 3e ad 72 eb be
       -0.12619184 0.57410777 0.31413504 -0.45985928
000220 2e b5 a6 3e 24 7e 10 3f 6a 4c 3a be 7f 4b fe 3e
       0.32560104 0.56442475 -0.18193212 0.49666974
000230 05 0c 8e 3e 07 f0 4a 3e 1f f9 13 3f 6a 95 6a be
       0.27743545 0.19818126 0.57802004 -0.2290856
000240 07 d1 b6 be 49 c5 c2 3e 71 32 2a be b8 54 0d 3f
       -0.3570635 0.38041142 -0.16620804 0.55207396
000250 b5 f1 d5 bd 02 1c 8b bd 3b 10 58 be 3b 61 4f 3e
       -0.104464926 -0.067924514 -0.21099941 0.20251934
000260 3c 05 cf bd a5 85 e3 bd 3e 0d eb be 7d bb ca 3e
       -0.1010842 -0.11109475 -0.4590854 0.39596167
000270 54 14 2d 3f 34 af a8 3e fa c5 18 3c 81 64 d5 3e
       0.67609143 0.3294617 0.009324545 0.4167824
000280 1b 4e ed 3e f4 99 e2 3d 53 29 93 3e 78 91 5e 3e
       0.46348652 0.110645205 0.28742465 0.2173518
000290 68 ce 2c be de de b5 bd a8 e1 4c be 90 17 a9 bb
       -0.16875613 -0.08880399 -0.20007956 -0.0051602796
0002a0 39 15 23 be 3b 0b 27 bd f1 47 37 3e b4 9d 96 3e
       -0.15926065 -0.040782195 0.17898537 0.29417193
0002b0 f1 51 6a 3e d5 80 7c 3e bb 36 0c bf 56 c7 a7 3e
       0.2288282 0.2465852 -0.5477101 0.3276927
0002c0 de fe 8e bd 7f e1 1b 3f 10 55 10 be 35 03 f9 be
       -0.06982206 0.60890955 -0.14094949 -0.4863526
0002d0 33 b4 4b 3e 43 d4 d3 bd 86 67 1b bd 71 49 64 be
       0.1989296 -0.1034322 -0.037940525 -0.2229364
0002e0 cf 6b 00 be 44 c4 6e b7 3a 35 f9 3d bd ce b6 be
       -0.12541126 -1.4231602e-05 0.12168355 -0.35704604
0002f0 af 89 f1 3e 97 d9 c4 3d 66 14 1d 3e 5c 4c e4 3c
       0.47175357 0.096118145 0.15339813 0.027868442
000300 87 34 72 bd c2 83 28 39 6c bf cc be 8c 1b 16 bd
       -0.059132125 0.00016070812 -0.39989793 -0.036647364
000310 fa 09 9d be a2 90 3c 3b b0 21 0b bf 9a f1 f4 3d
       -0.30671674 0.0028772731 -0.5434828 0.11960144
000320 10 00 17 bf 09 5d d8 3e c7 5b 89 be 63 80 0b 3f
       -0.5898447 0.4225848 -0.26827833 0.5449278
000330 98 34 04 bf 75 f3 aa bd 9f 77 0c bf 1e 38 2d be
       -0.5164275 -0.08347217 -0.5487003 -0.16915938
000340 bb bb 1b 3f 41 f9 2e 3f a4 11 82 bd e8 83 a8 bd
       0.6083333 0.6834908 -0.06351021 -0.08228284
000350 e3 af bb be 9f 4c 99 3b 0f 4f a1 3e 4f fa b0 be
       -0.36657628 0.0046783234 0.3150563 -0.3456597
000360 30 ee 11 bf 92 d7 07 be a3 f5 ab 3e f8 23 a3 3d
       -0.5700407 -0.13265827 0.33585843 0.07965845
000370 36 0a 96 3e 5e 40 21 bd 10 ed b4 bb 39 e6 76 3c
       0.29304665 -0.039368026 -0.005521424 0.015069538
000380 f2 06 fb be a0 f6 29 bc 49 16 21 3f 06 30 06 bf
       -0.49028736 -0.010373741 0.6292463 -0.5241703
000390 29 49 d4 3e 67 1e 83 be 9b 35 c0 be f3 b5 3f 3e
       0.41462067 -0.25609133 -0.37540898 0.18721752
0003a0 b2 1e 30 3e b6 b8 16 3f dd ce d3 3e 17 8f 0b be
       0.1719921 0.58875597 0.41368762 -0.13628803
0003b0 19 f9 45 3e a9 cf 03 3f 4a 9c 0e 3f 1f a8 2f bf
       0.19333304 0.5148874 0.5570723 -0.6861591
0003c0 e8 a9 df 3e 50 e2 a0 3e d7 0c 6c bd 1f c4 98 3a
       0.43684316 0.31422663 -0.057629433 0.0011655128
0003d0 ec ac 1d bc 37 63 2e 3e 85 a6 c5 bc 28 b1 fc 3e
       -0.009623747 0.17030035 -0.024127254 0.4935391
0003e0 53 2b c3 3e 17 44 a5 bc 99 4b d0 be 69 ed 73 3e
       0.3811899 -0.02017407 -0.40682676 0.23821034
0003f0 fe 24 1e 3f 52 7a f9 3d a2 34 fd be 1a ce b3 be
       0.61775196 0.12181534 -0.49454218 -0.3511818

bias f4 [128]
000000 fd 95 3c 37 d9 b9 7a 3e 2c e0 28 bf 1a 66 03 bf
       1.1240595e-05 0.24484958 -0.6596706 -0.5132767
000010 17 13 6e 3a 0a ea 5f ba 1c c3 bd 3e bc d1 9e bd
       0.0009081824 -0.00085416494 0.3706292 -0.077548474
000020 27 df 1b 3f d1 b7 08 bf e9 0d 2e 3f b2 65 2e be
       0.6088738 -0.5340548 0.67989975 -0.17030981
000030 7d f4 dd be 49 38 ab be 2a 4e 4b be 45 3e 11 3f
       -0.43350592 -0.3344138 -0.19854036 0.5673564
000040 29 c7 7e 3e 97 b0 ce be d2 20 dd 3e ed b1 70 3d
       0.24880661 -0.40369102 0.43189102 0.058763433
000050 76 4d af 3e 60 c6 d5 bd 9e b4 5c 3e 11 03 67 3e
       0.34238786 -0.10438228 0.21553275 0.22559763
000060 4c 39 fa 3e 1d b9 69 bd e3 d2 ce 3e d5 21 58 39
       0.4887184 -0.057061303 0.4039527 0.00020611969
000070 1f 28 15 3d 36 56 14 bf 6b 66 ec be fe d5 1e 3d
       0.036415216 -0.5794405 -0.4617189 0.038778298
000080 b8 1b ba bd 7c 9a 6e be a2 e0 ed be da 1d dd 3d
       -0.09087318 -0.23301119 -0.46460444 0.10796709
000090 32 0b db be 27 37 46 3e 32 8f 09 3f 74 6e 03 3f
       -0.4278198 0.19356976 0.53734124 0.51340413
0000a0 09 8e 31 be e3 cd e2 be d9 88 27 bf d4 6a c2 be
       -0.17339338 -0.44297704 -0.6544319 -0.37972128
0000b0 21 51 31 bd 04 d8 bf bd 23 10 03 be 81 70 90 3e
       -0.04329026 -0.093673736 -0.12799124 0.28210834
0000c0 22 e9 72 be 2d 2f 5e 3a 55 56 b4 3e 65 b3 f6 bd
       -0.23721746 0.00084756577 0.35222116 -0.120459355
0000d0 99 73 0e 3f eb ae 42 be f2 f2 da be 0f ae 37 39
       0.5564514 -0.19012038 -0.42763478 0.00017517082
0000e0 ac bd 07 3e db 8d a6 39 4e e7 32 bd 50 10 da 3e
       0.13255948 0.00031767678 -0.04367762 0.4259057
0000f0 08 f9 5b 3e 6e 73 f4 bb 76 72 f9 be 35 64 30 b8
       0.21481717 -0.0074600494 -0.4872014 -4.2054995e-05
000100 ed c5 ae 3e 7b 9c eb be 9c 43 6a 3e aa 3b 83 be
       0.3413538 -0.46017823 0.22877353 -0.25631458
000110 9e 47 a1 be d4 e6 17 3c 6d 3e 14 bf 78 9a 2a 3b
       -0.31499952 0.009271342 -0.57907754 0.0026032012
000120 71 8d 33 3e 6d 29 40 3b 85 fd 86 be e6 6e 12 bf
       0.17534424 0.0029321567 -0.26365295 -0.5720047
000130 aa 54 cc 3e 03 65 56 3c f4 6c ec be 19 ac e2 3e
       0.39908344 0.0130856065 -0.46176875 0.44271925
000140 13 62 9c 3e 10 3d db 3e 38 4a 4a be 39 88 d5 bc
       0.30543575 0.42820024 -0.19754875 -0.026065933
000150 c4 31 7d 3e bd a3 a3 3e 65 73 d0 be 14 c2 f2 3d
       0.24726015 0.3196086 -0.4071304 0.11853424
000160 66 a1 17 bf db 62 9f be c1 f5 0f 3f 85 ec c7 3e
       -0.5923065 -0.31130108 0.56234366 0.39047638
000170 85 0e 3f 3d b2 8f f6 3e 38 77 5b be 94 cf 06 3e
       0.046644706 0.48156506 -0.21432197 0.13165122
000180 73 f0 ca 39 c7 72 62 be 85 3e e5 be fa 53 5a bc
       0.0003870759 -0.22114097 -0.4477426 -0.013325686
000190 9d 4d 35 b8 e6 f9 81 3e 62 4a ea be 3e 36 05 3f
       -4.3226046e-05 0.2538597 -0.45759875 0.5203589
0001a0 8d 1c f2 3e 8e 91 fb bd aa 5f 80 be 91 e1 70 3d
       0.47287408 -0.12283622 -0.25072986 0.058808867
0001b0 06 b2 6e be f2 5d f6 be e2 db 1f 3e be a2 8c 3e
       -0.23310098 -0.4811855 0.15611222 0.27467912
0001c0 bd 9c 48 3d 45 2b 16 3e c4 8f 07 3e 71 64 99 bb
       0.048977602 0.14664944 0.13238436 -0.004681163
0001d0 7f 7f 8b be f2 29 b6 be d2 23 99 be 99 93 e3 bd
       -0.2724571 -0.35578877 -0.2991014 -0.111121364
0001e0 65 e4 ea bd 95 77 22 3e 85 c9 83 3e 41 5c d2 be
       -0.11469344 0.1586593 0.25739685 -0.4108601
0001f0 b1 f9 74 be 0b cc e7 be 8a 7c 82 3e 6d 08 57 3d
       -0.23923375 -0.4527286 0.2548564 0.05249827

weight f4 [128, 128]
000000 64 4b 2a bc 48 01 06 bc 3d 7c 06 bc 11 6b 08 bc
       -0.010393951 -0.008179016 -0.008208332 -0.008326308
000010 e2 e1 60 b7 5b a4 ca 3c 9f 0b 44 b9 8c e1 0f bc
       -1.3404033e-05 0.024736574 -0.00018696346 -0.008781802
000020 22 18 dd 39 3e f6 0e bc 07 bf 06 bc c9 fb 55 bc
       0.00042170385 -0.008725701 -0.008224255 -0.013060519
000030 66 6c 01 bc 44 5b 5b 3c c6 4e ce 38 6a 45 00 bc
       -0.007899379 0.013388459 9.837518e-05 -0.00782905
000040 02 64 3f bb 5c 3f 6c 3b 80 a2 fc bb 8b 52 73 33
       -0.0029203896 0.0036048507 -0.007709801 5.665292e-08
000050 94 30 0e bc 39 62 58 b8 3c 04 98 39 59 95 b3 39
       -0.008678574 -5.158989e-05 0.00028994854 0.00034252813
000060 97 e8 bf b9 bf da 5a bc ae 2c af bb 00 8f 4c b8
       -0.00036603652 -0.013357817 -0.0053459024 -4.877057e-05
000070 d8 41 0a bc 50 ff 4d bc 4c b9 50 bc a9 08 1b bc
       -0.00843855 -0.012573078 -0.012739491 -0.009462514
000080 c0 48 90 b7 bf d4 17 bc 4d 2a f7 bc 43 ec 27 bd
       -1.7200015e-05 -0.009267031 -0.030171538 -0.0409968
000090 70 8b 04 bc b0 4e d5 ba 8d 54 0b bc a9 c5 8a 36
       -0.008089885 -0.0016274061 -0.008504045 4.135731e-06
0000a0 ec 0e 7b bc 16 7d eb b9 60 3e a4 3b 7f 50 8b 3c
       -0.015323382 -0.0004491589 0.0050123185 0.017006157
0000b0 82 ad 36 bc 0a 83 21 3c 0d c1 01 39 aa 33 16 39
       -0.011149766 0.009857902 0.00012374316 0.00014324361
0000c0 22 98 ea 39 94 30 32 36 2f d1 eb bc 6e b8 69 38
       0.00044745306 2.6552343e-06 -0.02878627 5.5723292e-05
0000d0 ed 56 1c bc 3b e7 c4 bb 29 ae 59 b9 36 ec 56 bc
       -0.009542209 -0.00600901 -0.00020759612 -0.0131178405
0000e0 3c 02 d2 39 4d 62 b8 37 05 6a f8 bb 05 11 05 b8
       0.00040055986 2.1980284e-05 -0.007580998 -3.172552e-05
0000f0 5a ce 86 38 3c 0a a3 36 a1 20 2e b8 76 df 8d b8
       6.428054e-05 4.85897e-06 -4.151522e-05 -6.765027e-05
000100 ed 6c 3c b9 6f a6 0a 3c 24 f2 b2 b7 8a 1c 13 bd
       -0.00017969655 0.008462532 -2.1332009e-05 -0.03591589
000110 b3 b2 03 bc 38 26 a5 36 c3 7d 70 bb 54 3c 06 bc
       -0.008038211 4.9218324e-06 -0.0036696054 -0.008193094
000120 de bb 3b bc 84 86 07 3c 20 c9 64 3a 6f 30 d9 ba
       -0.011458365 0.008271817 0.000872748 -0.001657022
000130 2b 40 9d b9 13 67 70 bc c1 03 77 3c 7a 7b e6 bb
       -0.00029993182 -0.014673012 0.015076579 -0.0070337625
000140 57 d2 09 bc a5 e0 dc 3b 1b e8 10 bc dd 86 94 3b
       -0.008411965 0.006740647 -0.008844401 0.0045326785
000150 08 c9 0b b7 3e 22 52 3c 88 35 0e bc e4 ec db b9
       -8.331852e-06 0.012825547 -0.008679755 -0.00041947432
000160 82 b4 83 38 95 08 9b b7 72 4e b9 bc c3 11 c5 b7
       6.280189e-05 -1.8481436e-05 -0.022620413 -2.3492501e-05
000170 ac 24 e6 b9 83 34 b0 3c cf c7 7a bc 8a eb 21 bd
       -0.0004389634 0.021509415 -0.015306427 -0.03953127
000180 f6 79 18 bc ae 7d ab b6 75 e1 cf b9 7a f0 63 38
       -0.0093064215 -5.110828e-06 -0.00039650095 5.434498e-05
000190 a1 ec 8c 3a f6 75 ff 3b 3b 59 39 b9 3b 2d 5f b8
       0.0010751673 0.0077960445 -0.00017676216 -5.3209467e-05
0001a0 81 ab 06 bc fb 77 48 bc 05 50 88 b8 6e ac 9b 3c
       -0.008219601 -0.012235637 -6.49989e-05 0.01900312
0001b0 4f 8b 48 b9 7c c2 0e bc c2 65 1c bd 25 a9 95 b9
       -0.00019125383 -0.008713361 -0.03818298 -0.00028545517
0001c0 f1 e9 4e 3c 47 96 90 bc 43 2b 1a bc e0 27 2f 37
       0.012629018 -0.017649783 -0.009409728 1.0440097e-05
0001d0 99 6a 4a 3b 65 7d ab 3c ef 43 48 bc 98 1a a1 bc
       0.003088629 0.020933816 -0.012223228 -0.019666001
0001e0 8a 61 b6 bc 97 9e f1 ba d0 4f ea ba d9 d1 24 39
       -0.022263307 -0.0018434104 -0.0017876569 0.00015718433
0001f0 98 f1 0a bc fc 29 da 39 ed 1b ec bb f9 2e 41 37
       -0.008480452 0.0004161148 -0.0072054775 1.1514633e-05
000200 91 c0 15 b8 95 71 1b b6 3c 52 2c bc ff df b7 38
       -3.570371e-05 -2.3162913e-06 -0.010517653 8.7678425e-05
000210 10 b6 ff b8 fd d7 3b b6 7e ed 47 bc 70 93 ed b9
       -0.00012193259 -2.7990893e-06 -0.012202619 -0.00045314012
000220 55 b9 27 b9 80 64 8a 39 2a 2b 0c bc ec 54 1b b7
       -0.00015995403 0.0002639629 -0.008555213 -9.258492e-06
000230 e3 44 05 b9 e0 58 a8 38 42 bf e7 39 2e c9 bf b9
       -0.0001270953 8.0274185e-05 0.00044202252 -0.0003658025
000240 20 a1 ec 39 82 28 e6 37 d8 69 00 3c da 35 6f b9
       0.00045133475 2.7437e-05 0.007837735 -0.00022812877
000250 8a b4 43 b9 6a 4b 56 bc 56 a8 f9 35 68 ac bf b9
       -0.00018663905 -0.013079504 1.8600938e-06 -0.00036558812
000260 93 b3 96 38 b3 d6 43 b9 82 97 24 3a bc a7 ab 38
       7.186006e-05 -0.00018676631 0.000627868 8.1851584e-05
000270 a8 b2 a2 bb 3b c6 9c b9 22 ae b6 bb 81 2c 17 39
       -0.004965145 -0.00029902332 -0.0055749575 0.00014417061
000280 9e 63 99 38 ac ab 40 38 0b fd b2 37 61 cd b0 b6
       7.314164e-05 4.593625e-05 2.1337086e-05 -5.269118e-06
000290 3a 21 ce ba f3 7e b7 39 be fa ec b9 fa d1 57 3b
       -0.0015726455 0.00034999065 -0.00045200245 0.0032931552
0002a0 2c 81 bb bb 6b c8 8f b7 8c ec 57 bb b9 bf c2 37
       -0.0057221856 -1.7140255e-05 -0.003294739 2.321588e-05
0002b0 05 ed 47 bc d9 34 78 b8 0b e9 9e 3b 19 06 2e bc
       -0.012202506 -5.9177026e-05 0.004849558 -0.010621571
0002c0 f0 7d 04 39 89 0b 0b 37 22 ad 37 b7 f1 d9 2a bc
       0.00012635416 8.287731e-06 -1.0947961e-05 -0.010427938
0002d0 c4 91 97 ba 08 bf 39 b8 07 5c 40 b9 96 e3 54 38
       -0.0011563827 -4.428535e-05 -0.0001834483 5.0756695e-05
0002e0 eb 72 40 b9 49 0f a1 3b dc 54 a4 b6 12 83 17 38
       -0.00018353357 0.004915152 -4.89746e-06 3.6123274e-05
0002f0 f4 ef 44 3c 13 f8 3e b9 de 63 b6 39 47 19 da b7
       0.0120201 -0.00018212227 0.00034788152 -2.5999396e-05
000300 fc 87 3f 3b 6d da 21 35 5b 1d be b9 d9 e9 97 37
       0.002922534 6.0295025e-07 -0.00036261496 1.8109497e-05
000310 35 c1 2d 36 bd ff 00 3c d0 b3 fe b7 9c 0d af 39
       2.589147e-06 0.007873473 -3.0362891e-05 0.0003338874
000320 ec 1b 38 38 78 16 e9 b9 5e be a7 b9 86 be 1f 39
       4.3895023e-05 -0.00044457964 -0.00031994557 0.00015234397
000330 5f a3 1b b6 5a 85 3e 39 4b c3 9f 3b e2 d4 22 3c
       -2.3191894e-06 0.0001816949 0.0048755757 0.0099384505
000340 6d 81 50 b8 24 97 1f 3c a8 1b cd b8 8c 58 ed 39
       -4.97116e-05 0.009740625 -9.780313e-05 0.00045270135
000350 9f ec c2 b9 5c 92 d2 b9 3e 81 19 bb f7 b8 56 bc
       -0.0003717886 -0.00040163368 -0.0023422982 -0.0131056225
000360 da 9f e4 b9 ca 81 21 b9 c6 29 73 3c 17 09 33 3c
       -0.00043606648 -0.00015402507 0.0148415025 0.01092746
000370 b8 38 2e b7 a9 2f f2 35 b4 86 d8 b9 c8 20 14 b8
       -1.0384414e-05 1.8044276e-06 -0.00041299092 -3.531648e-05
000380 75 88 ac b8 1b 4d 0c b9 6c 89 bb b7 83 5d 07 3c
       -8.227016e-05 -0.00013380164 -2.235613e-05 0.008262041
000390 67 74 42 b7 41 6e db b9 ed 38 2b 39 24 ff 41 b9
       -1.1590403e-05 -0.0004185308 0.00016329037 -0.00018500962
0003a0 43 31 e7 b9 ca be 58 3c 6f 60 5e bc a8 a7 25 b8
       -0.00044096456 0.013229081 -0.013572796 -3.9495208e-05
0003b0 c3 f0 2f b8 9e c3 37 ba 97 8f a2 b8 34 be 09 bc
       -4.1947478e-05 -0.0007010045 -7.751508e-05 -0.008407164
0003c0 35 98 05 bb 79 2a 90 b6 15 7d 53 b8 11 e5 0e 39
       -0.0020384912 -4.296479e-06 -5.0422812e-05 0.00013627509
0003d0 1a cb 0d bc 20 f7 74 b7 cf 9e c3 3b 26 fd 16 b4
       -0.00865438 -1.4601072e-05 0.005969859 -1.4061933e-07
0003e0 1e 87 8b b5 9d ed 26 bc 58 90 6d 37 e8 10 17 bc
       -1.0395631e-06 -0.010188487 1.41599085e-05 -0.009220339
0003f0 26 76 4d b7 84 5d 22 39 38 c2 1a b9 97 4e 91 38
       -1.2246461e-05 0.00015484361 -0.00014758937 6.928777e-05

bias f4 [128]
000000 ca e3 05 bc fa 54 0a bc 1f e4 44 3d 2c f4 b1 bc
       -0.008171985 -0.008443112 0.048069116 -0.021722876
000010 34 fa dd 3c 47 4c 9f bd a6 d1 8c bb 03 f9 a3 bd
       0.027096845 -0.077782206 -0.004297453 -0.080064796
000020 fb 57 ad b8 06 c2 81 bd 12 8d 53 bc 29 bd 92 bd
       -8.2656705e-05 -0.06335835 -0.012912052 -0.07164986
000030 07 63 d1 3b 99 c2 74 3a 96 41 83 bd 7f 5d 26 3d
       0.006389979 0.00093368586 -0.06408994 0.04061651
000040 b1 aa d2 bc 89 c9 78 bd af 4e a2 bd 83 cc 25 3c
       -0.025716158 -0.060739074 -0.07925164 0.01011956
000050 e9 67 ad bb 7a de 78 bc 07 5f be 3b 77 20 c2 38
       -0.005291928 -0.015189761 0.005809668 9.256688e-05
000060 48 e6 63 bd 3e 5b 62 b9 1f 0d 82 3d 6a 27 bc 3a
       -0.055639535 -0.0002158703 0.06350159 0.0014355008
000070 93 3d 49 3c a1 50 d2 38 7f 79 be 36 46 ff ce bc
       0.012282747 0.000100285986 5.6765853e-06 -0.025268208
000080 36 b3 ae 38 4c 3b f4 ba a1 d2 a8 b8 31 ed 24 bb
       8.330347e-05 -0.0018633395 -8.050097e-05 -0.002516579
000090 15 bf 0e b9 7c 46 ab 3d 7e e7 29 b7 14 0f e1 bb
       -0.00013613359 0.08363053 -1.0127083e-05 -0.0068682525
0000a0 b6 ab 09 3b e0 05 a4 3b 43 d9 4a 3c 1f 39 44 3d
       0.0021006889 0.005005583 0.012380901 0.047906037
0000b0 5a 9b 88 bc 6a 83 be 3b d1 2b e4 bc 80 60 3d bd
       -0.01667564 0.0058140056 -0.027852925 -0.046234608
0000c0 c7 ac d0 3c d5 cf d9 3a a4 d1 73 3d 65 c6 87 3d
       0.025473012 0.0016617725 0.0595261 0.06629638
0000d0 aa bb ca 3b 18 10 b1 3c 43 ad 03 3d ba b5 72 3d
       0.006186922 0.02161412 0.032147657 0.05925534
0000e0 96 67 18 3d cd f6 18 3c e3 a1 9b bd 70 13 1c bd
       0.037208162 0.009336186 -0.07599237 -0.038104475
0000f0 e7 09 6f 3c 13 29 50 3d ae 80 cc bc fb 06 d2 3a
       0.014589763 0.05082042 -0.024963703 0.0016023809
000100 67 7e 7c bd 78 06 13 3d e5 49 48 bc a5 db 8b b9
       -0.061643984 0.03589484 -0.012224649 -0.00026675794
000110 5b 44 a3 bb 8d 4f c6 3c 06 61 43 bc d0 b5 9b 39
       -0.004982514 0.024207855 -0.011924988 0.00029699365
000120 c9 6a 77 3d 37 e1 b2 b9 e4 6d b1 b9 62 ae 25 3b
       0.060404573 -0.00034118604 -0.00033841946 0.0025280942
000130 bf 5f 42 b9 46 32 c2 bb 29 09 16 b6 a2 45 80 bd
       -0.0001853695 -0.005926403 -2.2357074e-06 -0.062632814
000140 bf 8b 9c 3c 75 39 65 bd 7c d4 07 bd 68 59 ab 3c
       0.019109605 -0.055963 -0.033161625 0.020916656
000150 11 0a 9d bb ff 48 85 3d 9e 2b 9b 3d b6 fa ef bc
       -0.00479246 0.065080635 0.07576679 -0.029294353
000160 45 7d 90 3d f6 60 13 3d 60 67 ec b8 b5 2d c3 bc
       0.07055143 0.03598114 -0.00011272612 -0.023825506
000170 4d f5 3e 3c 38 98 d3 3b cf 6c 6b 38 95 95 4a 3d
       0.011655164 0.006457355 5.6129702e-05 0.04945906
000180 90 86 19 b8 88 78 30 bc f7 99 e4 bb 75 45 c7 b8
       -3.6603364e-05 -0.010770924 -0.006976362 -9.501997e-05
000190 be 24 d8 37 69 be 3b 3c 4c f7 97 b6 08 0a d0 38
       2.5766316e-05 0.011458972 -4.52894e-06 9.920081e-05
0001a0 93 4c f7 3c 43 2a 65 3d d3 f4 a1 bc b8 c0 2b bd
       0.03018788 0.055948507 -0.019770062 -0.041931838
0001b0 7a 00 9a bd b2 13 4c b8 5a ae b4 39 3a 95 23 bc
       -0.07519622 -4.8655733e-05 0.00034462177 -0.009984309
0001c0 df bb 56 bc 34 dd 7d 3c 1c 28 36 3c 24 52 40 3d
       -0.013106315 0.0154946335 0.011117961 0.046953335
0001d0 28 73 3e bd 3e 7a 9c 38 6c 5f 41 3d a3 dc 19 b8
       -0.04649654 7.461429e-05 0.047210142 -3.6683527e-05
0001e0 13 1b 8c 3c 2a 3b 1a 3c 86 e7 54 b8 3f 95 58 bd
       0.017102754 0.00941352 -5.076036e-05 -0.052876707
0001f0 b9 89 b1 bd 13 16 3d b9 5e 6b 5c 38 e3 5a 4b bd
       -0.08668847 -0.00018032668 5.255208e-05 -0.049647223

weight f4 [128, 128]
000000 b7 c1 39 b9 ba 81 84 b8 7f 28 5e bc 63 99 c2 39
       -0.00017715139 -6.318414e-05 -0.01355946 0.00037116845
000010 7c b0 83 37 ff 57 64 3d a8 28 fb 3a 3a 46 7e bd
       1.5698599e-05 0.055747982 0.0019161897 -0.062078692
000020 19 8d 49 3b 1a 04 31 bd e1 e4 0c bb 92 6b 23 3d
       0.0030754267 -0.043216802 -0.0021498727 0.03989751
000030 4c d9 c6 37 40 57 71 b5 66 e5 93 bd 5f 28 75 3d
       2.3704626e-05 -8.990646e-07 -0.07221489 0.059852954
000040 b7 eb 75 3d 4d 27 ed 39 5b 27 c3 3c bf 7c fe b7
       0.06003925 0.00045233444 0.023822477 -3.0337249e-05
000050 a2 32 fd 38 fe 67 01 3d c0 1c 72 38 ef f7 7e 3a
       0.00012073411 0.031593315 5.772407e-05 0.0009726276
000060 04 fc a9 3d fa 29 7c 3b 92 8d 99 3b 53 a9 e8 b9
       0.08300021 0.0038477168 0.004686066 -0.00044376645
000070 1d 02 a9 b7 30 03 76 bc ba 52 da 39 00 c2 b9 bd
       -2.0147354e-05 -0.015015408 0.00041641836 -0.09070206
000080 d7 98 b6 39 09 f4 8b bd e1 7a a3 bb 98 bb 3e bc
       0.0003482762 -0.068336554 -0.0049890135 -0.0116414055
000090 b5 89 2c 38 5c 42 b6 bc 58 d7 16 3c ea f2 af bd
       4.1136245e-05 -0.02224844 0.009206615 -0.08591254
0000a0 ff b4 77 b8 e8 02 e4 bb d8 00 d9 b9 e6 fb 94 bd
       -5.9057955e-05 -0.0069583543 -0.00041390094 -0.07274608
0000b0 e5 c3 e7 38 d1 ff 95 b4 11 81 28 bb ec db ad bd
       0.000110514266 -2.7939544e-07 -0.0025711695 -0.084892124
0000c0 78 15 29 bd 34 a6 b4 bb ea 6b 9a 3d cd fa 43 bd
       -0.04128024 -0.005512977 0.07540114 -0.047846604
0000d0 a5 8b e1 39 4f 2f 5e bd be 68 4c 3c fc 8d 9f 3d
       0.00043019388 -0.054244336 0.012476144 0.07790753
0000e0 fa 3e b1 b5 6f 78 cc 3b b5 0f 77 3d d0 10 a3 bc
       -1.3205856e-06 0.0062399427 0.060317714 -0.019905478
0000f0 29 31 69 b9 d5 4a 5b 3a 25 ef 74 3d 01 7f 16 3b
       -0.00022238925 0.0008365338 0.05979838 0.0022963884
000100 52 6a 6f bd 91 0d 4f bc a2 b8 ed 39 42 63 06 3c
       -0.058451004 -0.012637512 0.00045341725 0.008202376
000110 f5 f6 17 bd 00 c5 3d bd 7d 65 51 38 6f 05 e8 39
       -0.03710075 -0.046330452 4.9924e-05 0.00044254537
000120 dc a3 76 3d 60 8e 9b 3a a7 f3 b9 b7 ef fd a5 bb
       0.060214862 0.0011867993 -2.2167178e-05 -0.0050656716
000130 8e 17 67 3b 58 f9 b1 b6 f9 5d c9 3a 2a d4 de 3c
       0.0035261842 -5.3040385e-06 0.0015363089 0.027200777
000140 d1 09 39 bd 42 21 88 bb b5 ea 11 bd e1 c3 59 bd
       -0.045175377 -0.0041543553 -0.035624225 -0.05316532
000150 fd 46 83 38 07 8f 57 3d ce 09 bc bd 51 29 92 3d
       6.2597894e-05 0.052626636 -0.091815576 0.07136787
000160 e7 7a 9c bd 8b 0d e5 3c f6 98 d7 b7 ee f1 e4 bc
       -0.07640629 0.02796056 -2.5701225e-05 -0.027947392
000170 29 c2 15 38 b8 7a 42 38 99 10 c5 38 a8 84 98 3d
       3.5705194e-05 4.6367495e-05 9.3967836e-05 0.07447177
000180 ae c9 d8 ba 48 17 7a b9 4d 0b c3 b9 f9 bc a4 b8
       -0.0016539597 -0.00023850531 -0.00037201718 -7.855328e-05
000190 fc c5 14 b8 a7 b9 9d 3d 29 d5 15 39 92 aa d7 38
       -3.5470337e-05 0.07701426 0.00014289156 0.0001028377
0001a0 3d a8 3a bd b7 95 f5 3a e3 6b 86 b9 92 ae f4 3c
       -0.0455706 0.0018736635 -0.00025638854 0.029868398
0001b0 7d 0f 0f 3d 34 9b cc 3b 02 67 06 38 89 91 99 b8
       0.03492688 0.0062440876 3.2044023e-05 -7.3227166e-05
0001c0 cb 85 ba 39 e6 40 bf 3c d5 97 83 bd 67 6b f3 3b
       0.00035576368 0.023346376 -0.06425444 0.007428575
0001d0 d2 04 10 3d 55 fc c4 b8 8f 0d b6 3c 50 e5 0d 3c
       0.035160847 -9.393009e-05 0.022223262 0.008660629
0001e0 f9 cc a1 3d 3a 94 86 3c 62 1c 64 3c 92 db 76 bd
       0.079004236 0.016428102 0.013922783 -0.060267992
0001f0 bb 4f 8f 3d 28 fd 35 3b e6 45 dc b8 3c 71 e5 bc
       0.06997629 0.00277693 -0.00010503437 -0.028008096
000200 4a 05 e8 3b 25 3e 49 38 fb 1a 88 3d ad e6 de 39
       0.0070807086 4.798001e-05 0.06645771 0.00042515006
000210 94 51 a9 39 ac 50 a1 bc 9d 1d d1 b7 06 21 ed 3c
       0.00032294972 -0.019691788 -2.4928531e-05 0.02894641
000220 72 91 fe b8 cd 20 be 3c 2f 23 10 b8 f8 07 b6 bc
       -0.00012138755 0.023209 -3.4365043e-05 -0.022220597
000230 3e 1a 18 3c 9d 4f 0c b8 65 56 a2 3d 48 bf ba bd
       0.0092836 -3.3452747e-05 0.07926635 -0.09118515
000240 47 e9 5f bd 98 df 08 3c 55 da 4b 3d 72 01 f7 bb
       -0.05466583 0.00835409 0.049768765 -0.007538014
000250 04 84 ba b9 ca b1 2a 3d a2 71 45 b5 9b 61 b2 37
       -0.00035575044 0.04167346 -7.3553576e-07 2.1264705e-05
000260 9a 42 41 bd 34 1f 9d b8 f1 a2 12 bd 95 ef 05 b6
       -0.047182657 -7.4921554e-05 -0.035799924 -1.9958e-06
000270 44 c7 cd 3b b9 04 ed b9 99 48 db 38 68 54 e9 3c
       0.006279858 -0.0004520768 0.00010456256 0.02848263
000280 ca 0f a0 39 5e b4 1f 3d 1c 7e b9 b9 2f fa 24 b9
       0.00030529342 0.03899037 -0.00035379909 -0.0001573346
000290 67 55 db b7 53 63 93 3d f5 a2 e1 b7 47 45 93 3d
       -2.6146603e-05 0.07196679 -2.6897973e-05 0.07190948
0002a0 8c 13 b8 b8 ad d5 b7 bb 60 f2 91 b9 5a 3c b0 3d
       -8.7774446e-05 -0.005610189 -0.0002783714 0.08605261
0002b0 ad 84 6c 3c 83 f9 14 bc 38 ba 52 3d 9f c8 ab 39
       0.014435929 -0.009092691 0.051447123 0.00032765136
0002c0 b2 64 ad 3d 33 a7 4e bc 1e 93 0a 3d 20 96 a3 3d
       0.08466472 -0.012613106 0.033831708 0.079876184
0002d0 1b 50 d0 36 1b ad 82 3d ce 9e 69 3d 4d 61 7e 3d
       6.2082086e-06 0.063806735 0.057036214 0.062104512
0002e0 00 b6 e7 b9 1f 72 9c b7 34 ca 48 bd 11 53 93 bd
       -0.00044195354 -1.8649791e-05 -0.04902096 -0.07193578
0002f0 f2 ef 14 bc 7a 83 cc 3c 4a e7 15 bd 20 aa 7a bb
       -0.009090411 0.024965037 -0.036597528 -0.0038248375
000300 c8 7c 67 bd 2e 2d a2 bd 80 5f 3b b9 25 b9 d9 b8
       -0.056515485 -0.079187736 -0.00017869286 -0.00010381852
000310 ae 6f 35 bd 8e b9 24 3d 06 b9 ed b9 23 58 3d b9
       -0.04429596 0.04021602 -0.00045342016 -0.00018057278
000320 fd 02 8b 3d 69 c1 0e bc 2f 9c 22 38 7c a3 46 b6
       0.06787679 -0.008713105 3.8769267e-05 -2.959946e-06
000330 2f 87 62 3c c9 1a eb b9 7b 67 05 b9 20 66 47 3c
       0.013826176 -0.0004484265 -0.00012722418 0.012170345
000340 ac 79 2d bd f5 19 1a 3d e2 75 4a bc 38 13 50 3d
       -0.042352363 0.03762241 -0.012357207 0.05079958
000350 b8 07 8e 3b 32 e3 2c bd c6 4e 97 3d 23 18 1f bd
       0.0043344162 -0.042208858 0.07388072 -0.038841378
000360 0b ef 83 3d 23 f7 be bb 3c 1e de b9 73 16 9c 3d
       0.06442078 -0.005827801 -0.00042365666 0.07621469
000370 dc f3 59 b9 90 1f d2 3b 24 a4 ed bb 69 59 51 bd
       -0.00020785577 0.006412454 -0.007252233 -0.05111066
000380 1b 30 23 bb ca ca 40 39 f3 83 15 bb 57 71 5c bc
       -0.00249005 0.00018386092 -0.0022814244 -0.013454757
000390 7a bf 16 3c ce 93 ab bd 32 b9 9b 39 1c 5a 46 bb
       0.009200925 -0.08377801 0.00029701885 -0.0030266112
0003a0 bd 9a dc bc 60 b5 8f bd 93 84 d5 b8 db 29 ac bd
       -0.026929254 -0.070170164 -0.00010181325 -0.08406421
0003b0 31 6a 52 bc 61 b4 ed 39 c9 42 ec b9 51 67 99 38
       -0.012842701 0.00045338555 -0.00045063187 7.314853e-05
0003c0 ad 86 e8 b8 10 f4 a1 3d 9a 1f 9b 3d ba d2 99 bd
       -0.000110877074 0.07907879 0.07574387 -0.07510896
0003d0 26 a8 ad 3d 87 47 ed b9 95 e2 4d bb 5e a2 3f b9
       0.084793374 -0.00045257455 -0.003141557 -0.00018275666
0003e0 be c3 26 bd b4 50 0e bc f5 15 42 bc a6 0a a4 bd
       -0.040714018 -0.008686233 -0.011846055 -0.080098435
0003f0 e5 aa 35 3d f5 6a 8d 37 bd 2e 38 bc a3 b3 4f bd
       0.04435243 1.6858316e-05 -0.011241612 -0.050708424

bias f4 [128]
000000 8d 12 f7 3c fa 46 a7 3d 20 b4 4f b9 cf b7 f3 bb
       0.030160213 0.081678346 -0.0001980816 -0.007437683
000010 e1 cd 9d b8 dd ed 75 ba 6e db 92 bd 59 08 1d 3d
       -7.524691e-05 -0.00093814527 -0.07170759 0.03833804
000020 07 00 12 bd 09 23 fa 35 11 50 57 3d e0 51 f5 bb
       -0.035644557 1.8636648e-06 0.05256659 -0.007486567
000030 f3 da 0a bc 8a 8e 96 3d e8 31 b3 37 c7 37 e8 bc
       -0.008475053 0.07351406 2.1361702e-05 -0.02834691
000040 04 d7 7b b8 38 b6 d2 37 41 ab d9 3c 3e 8e 07 bd
       -6.0043312e-05 2.5118803e-05 0.026570918 -0.033094637
000050 fb e6 e2 3c 57 41 76 3d c6 20 69 3c 68 8e 1e 3d
       0.02769803 0.060120907 0.014229005 0.038710028
000060 0f b3 36 3d ff 91 07 b7 44 67 5f 3c 25 8c 33 3d
       0.044604357 -8.080619e-06 0.01363546 0.043834824
000070 65 7d 06 3d e6 68 67 3d 8f 5d 70 b7 57 08 72 bd
       0.03283443 0.056496523 -1.4326898e-05 -0.059089985
000080 a8 26 86 bd 74 dc 95 3b 6f bb 80 bd 08 32 a8 bc
       -0.06550342 0.004573399 -0.0628575 -0.02053167
000090 e6 4b e2 ba 2c 77 a3 3b fb a3 88 3d b9 a7 00 3d
       -0.0017265051 0.0049885716 0.06671902 0.031409953
0000a0 9c d5 97 b8 ea 34 4c 3c d1 74 88 bb 6c 2a 15 3d
       -7.240029e-05 0.012463788 -0.004164316 0.03641741
0000b0 3a ee 06 bc 7f 5e fb 3b f3 7f 7c b8 80 4b 0c bc
       -0.008235509 0.007671177 -6.0200644e-05 -0.0085629225
0000c0 cf 22 f3 3c 52 c1 bc 3a bb bf b7 bc f6 f2 ac b7
       0.029679684 0.0014400876 -0.022430291 -2.0617135e-05
0000d0 73 92 a8 3b 9b f5 93 3a b5 00 c6 3c 8c 1e 5e 38
       0.005144411 0.0011288406 0.024170259 5.2957374e-05
0000e0 be 6a f2 bb ea fa a0 bd 61 72 43 b9 08 bb 39 bc
       -0.0073979786 -0.07860358 -0.00018639259 -0.011336096
0000f0 c0 8d 80 b8 18 93 08 3d c7 4a b7 bb ba 52 c7 bb
       -6.1299186e-05 0.033343405 -0.005593631 -0.00608286
000100 53 6b 1c bc c5 82 22 3c 26 31 9b 3c a8 87 44 3c
       -0.009547072 0.009918873 0.018944334 0.011995234
000110 80 f7 d5 3c 28 6b 8c 3d fc 22 18 bc 61 a9 62 bd
       0.026118994 0.06856376 -0.009285685 -0.055337314
000120 6c b8 9f 3d be 49 90 bd f7 bb 32 bb f5 06 0c 3d
       0.077988476 -0.07045315 -0.002727268 0.034186322
000130 a2 f1 fe 3a a6 00 4a bc 00 8d 38 3c e1 2e 8a bd
       0.0019450674 -0.012329256 0.011264086 -0.06747223
000140 e0 90 36 bd 0d ce 2f bd f2 0b f9 ba 26 b9 9a 3d
       -0.044571757 -0.042921115 -0.0019000752 0.075548455
000150 ea a1 0c bd 35 f6 ab 3c ee a4 97 3d 73 29 1e 3c
       -0.0343341 0.020991424 0.07404505 0.009653437
000160 60 ac 82 b8 44 41 43 bc 6d 5f 2d bd 17 b7 06 bc
       -6.2309904e-05 -0.011917416 -0.042327333 -0.008222363
000170 fd 7d 99 3a b2 dc e3 3c 64 f3 38 3c e5 d7 96 3c
       0.0011710521 0.027815197 0.011288498 0.018413493
000180 54 f9 da bb 78 29 de 37 0b fb 03 3c 3c fe 84 b8
       -0.0066825543 2.6483773e-05 0.008055459 -6.341605e-05
000190 09 d3 3b 35 bb 7c d8 b9 ec c3 50 3d ff c6 3f bc
       6.9970025e-07 -0.00041291662 0.050968096 -0.011705159
0001a0 43 cc 43 b9 10 aa 97 3d 9f bd ee 3c e9 f2 89 bd
       -0.00018672743 0.07405484 0.029143153 -0.067357846
0001b0 7a 90 e5 39 ae d6 37 3b c8 67 41 bd 2b 2b 98 3b
       0.00043785927 0.0028051543 -0.047218114 0.004643818
0001c0 1d 9d 41 39 32 ac 96 3d 99 2e 11 bd c0 9d 24 3c
       0.00018464444 0.073570624 -0.03544483 0.010047376
0001d0 c7 fb 90 bd 83 5f ab 3d 65 98 b1 3c 3b 16 8c bd
       -0.07079273 0.08367827 0.021679113 -0.068401776
0001e0 ef 38 02 3d 2d a7 cb 38 e1 f6 5d 3c f9 7c 71 bb
       0.031792577 9.710933e-05 0.01354763 -0.003684817
0001f0 0b a3 a5 bd 73 38 92 37 76 bc 50 bb 04 6d b8 bd
       -0.080877386 1.7430842e-05 -0.0031850613 -0.09005168

weight f4 [128, 128]
000000 75 05 82 3b 4d 6b 3d b9 a8 19 3b 39 94 21 d3 39
       0.0039679357 -0.00018064417 0.00017843267 0.00040270074
000010 3b 97 bb 37 cf bc 9e 37 bf df a0 b8 75 95 c3 36
       2.236256e-05 1.8922989e-05 -7.6710705e-05 5.828852e-06
000020 46 25 64 3b 2b 45 cd b9 f8 d9 24 38 6e c9 a6 3b
       0.0034812256 -0.0003915218 3.9303646e-05 0.0050899303
000030 6c 61 c1 b8 53 05 a2 38 5c 4d 77 b7 92 9f 39 bb
       -9.2211034e-05 7.725754e-05 -1.4740359e-05 -0.002832387
000040 02 08 05 bb cf 05 33 3c d3 ab 10 b6 9e 22 ea 38
       -0.0020298962 0.010926678 -2.1557687e-06 0.000111644375
000050 b1 71 a0 b8 b7 47 ad 39 89 6f 93 b9 d2 86 a7 b8
       -7.650571e-05 0.00033050563 -0.00028121125 -7.988293e-05
000060 76 c7 2d b8 2c b2 72 3c 4c cd 3c 39 d4 53 23 39
       -4.1432177e-05 0.014812987 0.00018005556 0.0001557612
000070 70 fa ec b9 57 62 2e 3b 0a c0 3b 39 b3 0d cf b7
       -0.00045200018 0.0026608908 0.0001790525 -2.4682702e-05
000080 ef 38 b7 b7 b8 b1 88 3b 59 58 ff b6 53 cd 47 39
       -2.1841812e-05 0.0041715764 -7.6098772e-06 0.00019054608
000090 50 f9 84 3a 02 4a e4 b7 bb a7 2c b9 20 9d 2e 39
       0.0010145102 -2.721418e-05 -0.00016465683 0.00016652467
0000a0 02 9a d3 39 dc 8d 13 3b 4f e1 94 35 25 34 08 bc
       0.000403598 0.0022514975 1.1092433e-06 -0.0083132135
0000b0 3c ca 16 bb 3f eb 85 b8 cd 09 90 3a 50 71 66 bb
       -0.0023008725 -6.385752e-05 0.0010989249 -0.0035162754
0000c0 5d 1d ae b7 37 83 1b 37 9e 5f 93 b8 d6 ee 05 36
       -2.075609e-05 9.269271e-06 -7.027316e-05 1.9957565e-06
0000d0 fd 8d f0 ba 64 89 a9 b8 9c ba 9a b8 0d 47 6d ba
       -0.0018352863 -8.084139e-05 -7.378051e-05 -0.000905142
0000e0 90 6a 37 b9 4c 03 35 b6 12 a3 56 3a 0f f4 0a 3c
       -0.00017491938 -2.697302e-06 0.00081877515 0.00848104
0000f0 52 fa 92 b9 ed 2e 67 3c 45 c4 e5 37 a7 1f 37 b9
       -0.00028033793 0.014110309 2.7390322e-05 -0.00017464031
000100 7f 15 33 b6 bf a8 c7 39 d9 67 36 b9 82 a4 a5 b8
       -2.668559e-06 0.00038081963 -0.00017395559 -7.898455e-05
000110 7a bc 33 38 1b 01 71 b7 e7 91 f2 b8 3c 2f e2 39
       4.2852458e-05 -1.4364977e-05 -0.00011566636 0.0004314127
000120 37 99 b0 38 e7 85 89 b8 48 d6 58 3c 78 df 65 ba
       8.4208725e-05 -6.55761e-05 0.013234682 -0.0008768956
000130 ad 41 14 bc 28 f4 90 39 14 ca 43 b9 ad 42 da b5
       -0.009048861 0.0002764773 -0.00018671929 -1.6261671e-06
000140 24 0f 27 bc f5 ff eb ba 9a e3 5a b8 69 76 5d bc
       -0.010196481 -0.0018005358 -5.218722e-05 -0.013517001
000150 a5 42 c8 bb e2 29 6e 3c 91 2e 82 37 50 48 e3 bb
       -0.0061114603 0.014536353 1.5518892e-05 -0.0069361106
000160 7a 34 c3 3b 82 3f e6 37 29 3e db b8 df 05 cd 3b
       0.0059571834 2.744771e-05 -0.00010454312 0.0062568034
000170 45 73 ad 39 8e cd 2f b8 02 31 19 38 a0 c9 37 38
       0.00033083014 -4.191469e-05 3.6523685e-05 4.3818378e-05
000180 27 49 23 b9 6d 85 44 3b 66 b2 c1 37 c7 39 33 b9
       -0.00015572143 0.0029986755 2.3090466e-05 -0.00017092294
000190 77 e0 d5 b9 ea 9a 06 bb 89 5e 9c 33 0e 5d 1d b8
       -0.00040793765 -0.0020539113 7.281512e-08 -3.751838e-05
0001a0 3f 86 e7 39 c9 fa 01 3c 86 8f 88 b8 5b df 13 b6
       0.00044159775 0.007933327 -6.511719e-05 -2.2034717e-06
0001b0 88 f2 2b 39 20 9c 58 3c fd 59 c8 b7 da e9 df b5
       0.00016398181 0.013220817 -2.3883762e-05 -1.6682854e-06
0001c0 c9 ad 77 ba a0 9b db b7 01 56 3c 36 e2 c5 71 3b
       -0.0009448198 -2.6179303e-05 2.8064244e-06 0.003689163
0001d0 d1 15 ac b8 45 20 a0 b6 ad 96 37 bc 9b ca 40 bc
       -8.205663e-05 -4.7721282e-06 -0.0112053575 -0.011767055
0001e0 ec e1 08 bc ec b9 02 3b 4f 2e b8 37 5a a9 74 37
       -0.008354645 0.0019947244 2.1956073e-05 1.4582964e-05
0001f0 06 53 9c 3b 3b ad ed 39 2a 32 b1 b6 e2 c8 93 38
       0.0047706394 0.0004533323 -5.280851e-06 7.0469236e-05
000200 e6 a9 ff 36 6a 25 e0 b9 08 3a b6 3b a0 60 06 3c
       7.619371e-06 -0.00042752485 0.005561117 0.008201748
000210 7c 25 ea b9 63 35 1d 3c 0d 1c 3b bb 6d 1b 5b bc
       -0.00044659886 0.009595248 -0.0028550655 -0.013373238
000220 f2 43 1a bb e7 97 6e 3c ae 96 64 bb 66 c0 4e b8
       -0.0023539034 0.0145625835 -0.003487985 -4.9293412e-05
000230 da 38 8e b6 ed a8 c8 38 b8 54 5f bc f3 c4 e8 b9
       -4.238548e-06 9.568208e-05 -0.013631038 -0.00044397227
000240 48 22 3e 39 09 d6 d7 b9 63 a5 97 b8 97 ab 28 39
       0.00018132583 -0.00041167464 -7.231047e-05 0.0001608565
000250 41 4f 3d 3b 52 d7 90 3b 4a ee 47 39 18 4c 9a b3
       0.002888635 0.0044201994 0.00019066888 -7.185025e-08
000260 bd 61 08 b7 50 ad 46 3b d0 31 9c b7 ce 6b e8 b9
       -8.128988e-06 0.0030315705 -1.8619845e-05 -0.0004433081
000270 40 c1 2b b9 5d 52 bf 38 b3 8f 8c b7 fc f8 43 39
       -0.00016379822 9.122931e-05 -1.6756216e-05 0.00018689403
000280 d2 46 71 38 df 79 26 39 a9 c6 98 37 c8 e8 32 3a
       5.7524834e-05 0.00015876394 1.821232e-05 0.0006824848
000290 2c 45 db ba 9d 60 67 ba d8 4e 11 b8 a1 cf e5 b9
       -0.0016728989 -0.0008826347 -3.4644123e-05 -0.0004383298
0002a0 7c 8a 27 b7 e6 16 2f 3c 07 94 e8 3b 7f 31 8a b8
       -9.986219e-06 0.010686612 0.0070977244 -6.589572e-05
0002b0 cc 56 b5 38 76 4c 1b 3c 3c 21 ec b8 61 19 23 bc
       8.64692e-05 0.009478679 -0.00011259547 -0.009954781
0002c0 1c f8 83 39 1b d4 1e 37 0d 29 64 3b f8 d8 4a 3c
       0.00025171123 9.4669185e-06 0.0034814507 0.012380831
0002d0 80 6f 21 bb 14 42 0b b7 31 a5 43 39 f9 6c 6f b7
       -0.002463311 -8.300431e-06 0.00018658188 -1.4270882e-05
0002e0 cc 63 83 bb de b6 01 3c 62 a0 8e b7 22 f2 84 bb
       -0.0040096994 0.007917134 -1.7002403e-05 -0.004057185
0002f0 da 84 d1 3b 36 5d 4b bc a9 c7 08 38 b0 ed ec b9
       0.006394011 -0.01241236 3.2610875e-05 -0.0004519052
000300 02 00 c0 b7 93 77 d9 39 54 c1 5b bb 71 de 84 3b
       -2.2888187e-05 0.00041478555 -0.003353198 0.0040548374
000310 8c 6a 4f b7 4c 6f 3e 39 61 a6 40 3c ca 54 ba ba
       -1.2362969e-05 0.00018161273 0.011758418 -0.0014215943
000320 2f b1 33 38 e4 91 28 bc 2e b1 09 3a 6d 94 e9 bb
       4.284194e-05 -0.010288689 0.0005252537 -0.0071282894
000330 5b 69 09 37 66 8d 43 bc e1 13 39 b8 c1 88 34 39
       8.190366e-06 -0.0119355675 -4.412595e-05 0.00017217082
000340 a1 bd ea 37 43 9b 31 3c 6b 6d 5c b9 c4 ea 21 3c
       2.7983277e-05 0.01084024 -0.00021021596 0.009882633
000350 01 a3 a5 b7 2d 6c 22 b9 7a 35 1c b9 b9 6e cc bb
       -1.9745437e-05 -0.00015489823 -0.00014897241 -0.006238785
000360 af 2e 6f 3c d1 14 cc b7 27 07 d7 bb 50 19 48 38
       0.014598533 -2.4328388e-05 -0.006562132 4.770729e-05
000370 04 93 2f b9 fa 68 ca b8 5f 4b d5 bb c3 9d 7e bb
       -0.00016744068 -9.651664e-05 -0.006509229 -0.0038851358
000380 44 7c 11 37 d5 7b ea bb a6 23 33 39 ae 41 fe 38
       8.671606e-06 -0.007155875 0.0001708405 0.000121238976
000390 d0 12 96 38 f7 f5 3c b8 18 f0 cc 3b 1e 75 2c 3c
       7.1560615e-05 -4.5051765e-05 0.0062542073 0.01052597
0003a0 bc ef bc b7 50 39 55 bc b1 1c 25 39 58 e9 dc 3b
       -2.2522981e-05 -0.013014153 0.00015746315 0.006741684
0003b0 24 32 6a bc 7a 07 8d b8 72 d3 05 bb 01 63 30 38
       -0.014294181 -6.7247965e-05 -0.002042022 4.2053874e-05
0003c0 08 66 51 b7 8e ab 6f b8 42 9e 14 b8 63 31 0d b9
       -1.2481127e-05 -5.7141813e-05 -3.543334e-05 -0.00013465206
0003d0 67 72 2a 36 66 20 90 38 00 6e 6e 39 8f 7e e7 3b
       2.5398565e-06 6.87249e-05 0.00022738427 0.0070646475
0003e0 10 3b d5 bb 16 82 d2 39 f5 c3 1a b9 e2 20 3a 3c
       -0.006507285 0.00040151243 -0.00014759584 0.011360379
0003f0 cf 42 ee 38 59 f8 bb ba 9f d3 78 b7 13 bc 4f bc
       0.000113611684 -0.0014340981 -1.4831224e-05 -0.012679118

bias f4 [128]
000000 25 e9 62 ba ea 83 71 bc 8e aa 18 bd eb 4c 35 bd
       -0.0008655957 -0.014740923 -0.03727203 -0.044262808
000010 0c 75 50 37 88 5c 55 3d 69 31 25 bd a4 37 b1 3c
       1.2425018e-05 0.052090198 -0.040330324 0.021632977
000020 12 ef 0f bd f9 3d df bb e0 11 4e 3d 00 3d 42 3c
       -0.035140105 -0.0068128076 0.050310016 0.011855364
000030 be eb 60 b7 c3 61 46 bd ca 3f b4 38 8b 7f b7 bc
       -1.3406328e-05 -0.048433077 8.5949505e-05 -0.022399684
000040 9a ba 88 bd 0d 13 6f bb 19 c4 3d 35 e8 7e 41 bd
       -0.066762164 -0.003647986 7.0693346e-07 -0.047240168
000050 3b 40 8e 3d 15 46 11 bd 09 45 30 3d c9 04 a2 bb
       0.06945845 -0.035467226 0.043034587 -0.004944418
000060 1e aa 0e bc 6f 5b 96 bd 85 69 90 b7 3b f3 5a 3d
       -0.008707551 -0.07341658 -1.7215274e-05 0.05345462
000070 bb e6 a8 3c 60 62 b7 bd c3 b5 d1 bb c5 53 e8 3c
       0.020617833 -0.089543104 -0.0063998415 0.028360257
000080 31 53 5f bd 81 65 db bb 60 83 8e bd d6 fd 93 3d
       -0.054522697 -0.00669545 -0.069586515 0.0722615
000090 b1 97 44 bd 7c ed 79 bb 77 7d bb bd a4 30 64 b7
       -0.047996227 -0.0038135936 -0.0915479 -1.3601184e-05
0000a0 bf 8a 2f 39 31 70 99 bc 6c b7 13 bc 59 ec ec 39
       0.00016740987 -0.018730255 -0.009015899 0.0004518952
0000b0 a9 e8 78 3d d6 c2 cc 3b 26 25 27 3d 7d 1d 60 3d
       0.060768757 0.006248812 0.040806912 0.054715622
0000c0 9a 8a 94 bd 21 bf 16 bd b7 c9 bd 39 e4 f5 c5 3c
       -0.07252999 -0.03680337 0.00036199178 0.024165101
0000d0 bc 6c 42 3d ff b8 d3 bc bb d7 25 bd d2 32 05 bb
       0.04746698 -0.025845049 -0.04048894 -0.002032448
0000e0 6c 9b 7d bc 12 29 f9 b9 96 ea ad bb a5 83 96 bd
       -0.01547895 -0.0004752358 -0.005307506 -0.07349328
0000f0 db 2b c2 3c 86 9a 3c b9 a4 67 46 3d d8 10 43 39
       0.023702553 -0.00017986642 0.048438683 0.00018602924
000100 5d ca c5 3a 2e 5d 51 ba 8d 5b 43 39 96 58 9c 3d
       0.0015090216 -0.0007986602 0.00018630754 0.07634084
000110 04 21 31 bc 1b ed da 3c 98 ad 1f 3d 27 cc df b6
       -0.010811094 0.026724389 0.03898391 -6.6696844e-06
000120 04 fa 83 3d d6 3c 95 38 83 9f e8 bc 81 31 8c 3d
       0.06444171 7.116205e-05 -0.028396374 0.068453796
000130 43 d8 d6 b9 1c 0b 08 3d 8e 7d a5 bb 9e fd ab 38
       -0.00040978388 0.03321372 -0.0050503677 8.201155e-05
000140 93 ca 7c 3d 8c 97 ec 39 6f 2b 8d 3d 1b 24 1d 3d
       0.061716627 0.0004512634 0.0689305 0.03836451
000150 e6 23 8b 3c 8b a2 ee 3b 95 70 05 bc 11 e7 ba 3c
       0.016984891 0.00728256 -0.008144517 0.02281526
000160 75 ef 19 bc 59 ea 0c 3a 20 cf ee bc 29 4f f1 bb
       -0.00939547 0.00053754967 -0.0291515 -0.007364173
000170 8c 31 a8 3d e5 bf 7a bb 7b 60 ad b8 c8 7f 45 3d
       0.08212575 -0.003826135 -8.267254e-05 0.048217565
000180 4f b6 73 bd 00 d4 9d ba d7 ad aa ba ab e1 0f 3d
       -0.059500035 -0.001204133 -0.0013021779 0.035127323
000190 7e 87 b9 b9 df 06 ed 39 07 0d 88 3b ae 1d 9e 3d
       -0.000353869 0.00045209282 0.0041519436 0.07720505
0001a0 10 d3 89 bd 75 d5 31 bc 48 91 57 3d 78 b6 4b 3d
       -0.0672971 -0.010854115 0.052628785 0.049734563
0001b0 e1 f8 73 3d 54 2d 71 3d b9 eb e4 bb 5c 32 f6 3a
       0.05956352 0.05888112 -0.006986108 0.0018783319
0001c0 f4 da 9f bd 21 96 2c b8 b0 8b d0 bc 49 f3 87 3d
       -0.07805434 -4.1147814e-05 -0.025457233 0.066382
0001d0 95 b5 3a 3c dd 35 e4 b9 86 e3 4c 3c 5c 93 76 bc
       0.011395832 -0.0004352768 0.012505418 -0.015049782
0001e0 23 41 81 bd 56 51 f6 bb a0 74 0f 3b 49 94 9a 38
       -0.06311252 -0.00751702 0.0021889582 7.3709125e-05
0001f0 06 ea 7c 3d 98 76 c2 b7 9e 99 50 bc 35 1f df 3b
       0.06174662 -2.3181827e-05 -0.012731938 0.00680914
