CNP-model-save-name/saved_models/model_4000.pth.pth.tar (torch, 727538 bytes, 50 tensors)

_deterministic_encoder.input_projection.weight f4 [64, 11]
-0.09183734 -0.24509734 0.094773054 -0.10110537 0.20419526 0.04830855 0.1237526 0.20330963
-0.06824388 0.030069025 -0.24937609 -0.10442139 -0.03999455 0.071304955 0.13183045 -0.11331603
-0.04335076 0.14880724 -0.20970231 -0.26107895 0.01623204 -0.061510786 -0.17585778 0.13946992
0.15496324 0.08765041 -0.19605705 -0.20360503 -0.027246524 -0.041577127 -0.19244975 -0.08428385
-0.07499189 0.11830778 0.2523852 0.01205359 0.0019477356 0.19165866 -0.03719999 -0.26675794
-0.2661587 -0.23386645 0.19611014 -0.20941725 0.20420392 -0.14730549 -0.079222254 0.19407885
0.2423224 0.26374906 0.058039647 -0.053225636 0.23366408 0.028506078 -0.12113353 0.09264626
0.14464079 0.16015041 0.15598884 0.08285342 -0.14231586 -0.22388376 -0.17597906 -0.17105037
-0.10282647 0.036205325 0.06405559 0.20945132 0.105038725 0.16479675 0.11272785 0.03832701
0.10621178 -0.15002678 0.2557344 0.09223198 0.15676767 0.19942279 -0.1650475 0.069078036
0.1913734 0.16165295 0.03196743 0.15642536 -0.06897208 -0.24355124 -0.04320734 -0.20454083
0.16393995 -0.2146754 -0.087964214 -0.02671748 0.25780413 -0.24323624 -0.22690773 -0.04978338
-0.23048665 0.15622146 0.21636981 0.11167769 -0.12952869 -0.13705511 -0.18753758 -0.24701248
0.17234474 -0.20816237 -0.2502372 0.038784005 -0.13106227 0.20815346 0.06803431 0.06567677
0.17860833 0.1316601 0.12037967 0.064143226 0.011765261 0.17295544 0.07970274 0.2021701
-0.045524284 0.1745106 -0.27042046 -0.26688877 0.14994797 -0.18095964 0.088138975 0.13906561
0.22355883 -0.084056206 -0.23096406 0.004726824 -0.20674399 -0.17762609 -0.085888475 -0.13207208
0.095783494 -0.26254195 0.15630953 -0.017317306 -0.07496197 -0.09877262 -0.24599123 -0.2593613
-0.031163096 -0.10234987 -0.2571137 0.16653045 0.11511383 0.121621735 -0.06910717 -0.16223374
-0.0442869 0.16798614 0.14658341 -0.16420452 -0.25216657 -0.037866533 -0.22558302 0.11701743
0.0126842 0.22047956 0.03961467 -0.22367916 0.1968625 0.24789172 -0.11781575 0.20243983
-0.25089586 0.21260136 -0.20707482 -0.119106814 0.049963854 -0.124107175 -0.1543329 -0.255246
-0.12317079 -0.018119125 0.20489947 -0.20566575 -0.20036227 -0.009787935 0.20549795 -0.20905203
0.24241823 -0.19483544 0.19981495 -0.17695609 0.1482913 -0.07304617 -0.22379759 -0.042037144
-0.2884707 -0.20136708 0.21769315 -0.20402345 0.047010016 0.2023117 -0.20568195 0.10844685
0.0384819 0.037779752 -0.12852132 -0.18621899 0.25018823 -0.07013062 0.07987112 0.08558531
-0.24519257 -0.2230977 0.18645689 0.0243463 -0.15148027 -0.09745842 0.048909463 0.014343831
-0.25245848 -0.13670807 -0.20548214 -0.040008973 0.09587982 -0.025549443 0.24135539 -0.14907566
-0.18134858 0.23349687 -0.023957275 -0.010430548 -0.05395502 -0.028116204 0.018920563 -0.18818858
0.051442254 -0.1866651 -0.015503076 -0.06909503 0.24162027 0.10565116 -0.06451334 -0.0752931
0.01529036 0.19824871 0.067394756 0.1840665 -0.0114196325 -0.18406092 0.2737662 0.12133718
-0.037722133 -0.14958376 0.045322903 -0.023830352 -0.166743 0.07380311 0.11962923 -0.2431319
00000000: 3715 bcbd ccfa 7abe 6018 c23d 5510 cfbd
00000010: 9018 513e 30df 453d 0172 fd3d 6630 503e
00000020: 73c3 8bbd 5153 f63c 725c 7fbe e2da d5bd
00000030: 53d1 23bd 5508 923d 90fe 063e 3c12 e8bd
00000040: 9190 31bd ed60 183e 34bc 56be 24ac 85be
00000050: 0ef9 843c bcf2 7bbd 1014 34be 34d1 0e3e
00000060: afae 1e3e 0f82 b33d 2ec3 48be d67d 50be
00000070: 1a34 dfbc c74c 2abd 8c11 45be 039d acbd
00000080: 5995 99bd 594b f23d a238 813e 6c7c 453c
00000090: 294b ff3a 2b42 443e 045f 18bd 7f94 88be
000000a0: f445 88be b07a 6fbe 19d1 483e 7a71 56be
000000b0: d51a 513e 40d7 16be 473f a2bd 9bbc 463e
000000c0: 5d23 783e 1e0a 873e fbba 6d3d 2003 5abd
000000d0: a345 6f3e 9485 e93c db14 f8bd 53bd bd3d
000000e0: b71c 143e 78fe 233e 8abb 1f3e 0eaf a93d
000000f0: 40bb 11be c941 65be db33 34be d427 2fbe
00000100: af96 d2bd 094c 143d 942f 833d 687a 563e
00000110: 8b1e d73d 7bc0 283e dcdd e63d c8fc 1c3d
00000120: 9085 d93d 9fa0 19be 9fef 823e 1fe4 bc3d
00000130: b487 203e 7d35 4c3e 3602 29be c978 8d3d
00000140: 63f7 433e 5a88 253e 48f0 023d f82d 203e
00000150: 3c41 8dbd 7f65 79be 2efa 30bd 2773 51be
00000160: e0df 273e ded3 5bbe 9526 b4bd 9ede dabc
00000170: e7fe 833e ec12 79be 805a 68be a8e9 4bbd
00000180: b104 6cbe 85f8 1f3e 0c90 5d3e 46b7 e43d
00000190: 2ba3 04be 2d58 0cbe da09 40be d7f0 7cbe
000001a0: 247b 303e 8428 55be 171f 80be fadb 1e3d
000001b0: 3035 06be 2e26 553e 9355 8b3d 8b81 863d
000001c0: 1ae5 363e e8d1 063e 9e89 f63d 865d 833d
000001d0: 15c3 403c 3b1b 313e 313b a33d ae05 4f3e
000001e0: ac77 3abd e8b2 323e 8d74 8abe a5a5 88be
000001f0: f68b 193e 7c4d 39be 3582 b43d 3767 0e3e
00000200: 9bec 643e a925 acbd d881 6cbe 79e3 9a3b
00000210: b2b4 53be 9de3 35be 4ce6 afbd e73d 07be
00000220: 232a c43d e66b 86be 9b0f 203e 06dd 8dbc
00000230: a985 99bd 4d49 cabd 20e5 7bbe 01cb 84be
00000240: c049 ffbc cf9c d1bd 68a4 83be f586 2a3e
00000250: cdc0 eb3d d114 f93d 0f88 8dbd 9a20 26be
00000260: 2e66 35bd 8f04 2c3e f619 163e 3b25 28be
00000270: fa1b 81be f019 1bbd 3cff 66be d6a6 ef3d
00000280: 64d1 4f3c 65c5 613e fe42 223d 260c 65be
00000290: 5396 493e 54d7 7d3e 6249 f1bd 634c 4f3e
000002a0: 6c75 80be 2cb4 593e 6c0b 54be 46ee f3bd
000002b0: e6a6 4c3d e72b febd 7209 1ebe 9baf 82be
000002c0: f840 fcbd 8f6e 94bc 2bd1 513e 0b9a 52be
000002d0: c42b 4dbe 935d 20bc 0e6e 523e bc11 56be
000002e0: 7c3c 783e f182 47be 4a9c 4c3e fa33 35be
000002f0: add9 173e 3b99 95bd 322b 65be 242f 2cbd
00000300: 6eb2 93be 2c33 4ebe f4ea 5e3e 86eb 50be
00000310: 938d 403d cc2a 4f3e 4a9e 52be 6219 de3d
00000320: 329f 1d3d f1be 1a3d 189b 03be 31b0 3ebe
00000330: ac18 803e a4a0 8fbd 7893 a33d 5a47 af3d
00000340: c313 7bbe b973 64be 8eee 3e3e e471 c73c
00000350: a51d 1bbe 4898 c7bd 4a55 483d 6302 6b3c
00000360: 3d42 81be 33fd 0bbe e969 52be 73e0 23bd
00000370: a45c c43d 114d d1bc de25 773e 4aa7 18be
00000380: 71b3 39be ce19 6f3e 0c42 c4bc e4e4 2abc
00000390: f0ff 5cbd f453 e6bc 4cff 9a3c 82b4 40be
000003a0: 1db5 523d 2325 3fbe 9d00 7ebc b281 8dbd
000003b0: 4e6b 773e a35f d83d 921f 84bd 4533 9abd
000003c0: 6b84 7a3c b601 4b3e 4306 8a3d ee7b 3c3e
000003d0: 6919 3bbc 777a 3cbe 152b 8c3e a17f f83d
000003e0: 8682 1abd 7c2c 19be 82a4 393d df37 c3bc
000003f0: adbe 2abe 1626 973d 2b00 f53d 92f7 78be

_deterministic_encoder.input_projection.bias f4 [64]
-0.014730883 -0.006209293 0.0030559963 -0.00845189 -0.008512062 -0.038364302 0.009721597 -0.000636335
0.0011486154 -0.010682845 -0.021893958 -0.011223264 -0.02653818 -0.010234319 -0.0077468418 0.008396267
0.029585356 -0.02814982 -0.0127809495 -0.009611119 -0.0031337885 -0.0038868238 0.025528071 -0.021837747
0.029329736 -0.017570442 0.019557292 0.023011621 0.0052489336 -0.0018746932 -0.019042658 -0.01498547
-0.013509045 0.024347683 0.010490304 -0.0046289028 0.005053225 -0.004908776 0.008088522 0.015046561
0.013180695 0.0077974284 -0.028933575 0.0039696814 -0.011280644 -0.003141025 0.009586847 0.015035783
-0.012742794 0.012943158 0.020244671 0.018081754 -0.010973884 0.009079725 0.0066195847 -0.010534104
-0.0061350544 0.025674101 0.018018814 0.009561097 -0.0025484916 -0.002549981 -0.008906399 -0.033739973
00000000: cd59 71bc 5377 cbbb 1c47 483b cc79 0abc
00000010: 2d76 0bbc e323 1dbd 5547 1f3c b8cf 26ba
00000020: 238d 963a 1907 2fbc f55a b3bc c8e1 37bc
00000030: 9966 d9bc d8ad 27bc 38d9 fdbb 7f90 093c
00000040: fd5c f23c 749a e6bc 3067 51bc f477 1dbc
00000050: 3f60 4dbb 15ba 7ebb 3f20 d13c 13e5 b2bc
00000060: ea44 f03c e3ef 8fbc 9d36 a03c de82 bc3c
00000070: 3fff ab3b 44b8 f5ba 59ff 9bbc 9e85 75bc
00000080: 0b55 5dbc cb74 c73c 86df 2b3c 0dae 97bb
00000090: 8695 a53b ccd9 a0bb b885 043c da85 763c
000000a0: d7f3 573c 9281 ff3b 1b06 edbc 1a14 823b
000000b0: 73d2 38bc a8d9 4dbb 2712 1d3c a558 763c
000000c0: 27c7 50bc 8a0f 543c 27d8 a53c 3020 943c
000000d0: cecb 33bc 20c3 143c 1ae9 d83b 3c97 2cbc
000000e0: 9108 c9bb 7e52 d23c 319c 933c 26a6 1c3c
000000f0: 9804 27bb 951d 27bb 25ec 11bc ed32 0abd

_deterministic_encoder.output_projection.weight f4 [64, 10]
-0.0060488037 -0.18729067 0.07954094 0.14882535 -0.012858307 0.22666228 -0.14727496 0.08638508
0.19879757 -0.19757941 -0.19784182 0.18239966 0.007393449 0.13106368 0.23707063 -0.04139969
0.19936684 -0.17785797 0.117934 -0.25946534 -0.035699558 0.15058589 -0.003626677 -0.25481635
-0.1333532 -0.19164857 0.235651 -0.20239699 -0.10248403 0.3178062 0.11717409 0.057190564
0.23139085 0.13804647 0.11289828 0.040931437 -0.22756882 -0.066734985 0.099680364 -0.008234174
0.004262967 0.026499826 0.2770159 -0.06430274 -0.13907067 0.27227235 -0.3580036 -0.107113615
-0.061632212 0.22156328 0.06759535 0.1742455 -0.054822825 -0.04214216 -0.21261436 -0.019297544
0.2300465 0.24257295 -0.049161073 -0.19253448 -0.05010624 -0.024757868 0.23820032 -0.25321388
0.22380549 0.018384477 0.040549457 -0.21799949 -0.22993477 0.029918471 0.123097785 -0.24505349
0.13510795 0.19822684 -0.2812946 0.096481405 0.023553919 0.04531146 -0.09616344 0.24854764
0.11553096 -0.075032 0.23172262 0.070898116 -0.22645299 0.082014106 0.041133873 -0.1246255
-0.024113117 -0.1667418 -0.10792144 0.10159872 0.15860519 -0.09282132 -0.25348508 0.2530945
-0.18783921 -0.024186978 0.051857382 0.25409254 -0.020791652 -0.07370942 -0.029098978 0.073110014
0.019120848 0.17790204 -0.124319844 -0.14336537 -0.12454346 0.2750585 0.10651198 0.2077369
-0.10459847 0.16489173 -0.19256476 -0.07709373 0.16697308 -0.1755762 0.18227302 -0.24942566
-0.30457833 0.029029813 -0.1145376 -0.17523858 -0.08374218 0.32982746 -0.24705853 0.16551872
0.09982709 0.19023207 -0.07759107 -0.12799998 0.04240101 -0.23432675 -0.08787176 -0.08631373
0.30074984 -0.013363423 0.1781421 -0.12997068 0.07027211 -0.11275387 -0.10121685 0.15809399
-0.14516212 0.08280897 -0.007966978 0.18835045 -0.18882574 -0.061229784 0.066510685 -0.1611064
0.032464433 -0.29086435 -0.19213206 0.24303955 0.18288682 0.20042665 0.08567693 0.1272776
0.14162599 0.09477066 -0.0025755432 0.061092556 0.052585 0.07301829 -0.14006093 0.16741517
0.07900709 -0.14030589 0.15462518 -0.1850638 0.28533778 0.016944751 -0.26589683 -0.24500988
-0.24536803 0.3588601 0.16111098 -0.1276361 0.054034203 -0.065972 -0.1176549 0.124741845
0.23253913 -0.07160302 0.06608233 -0.265927 0.20058733 -0.07955731 -0.16608815 0.05263391
-0.078874744 0.03210674 -0.18320417 -0.024535742 0.16171193 0.28219354 0.0520774 -0.16416779
0.12913536 -0.0082998285 0.000491586 0.18186879 0.1060205 -0.13140433 -0.27085978 0.12822697
0.04473233 -0.0011410299 0.034814235 -0.14194997 0.07496248 -0.010034986 -0.09895441 0.24815549
0.07158168 0.24890527 -0.2315106 -0.20268027 0.002083645 -0.18393086 0.076436885 0.22771437
-0.09396305 0.064243436 0.20194389 0.2459598 -0.119008526 -0.2112448 -0.12357959 0.056989655
-0.08700365 -0.2126025 -0.0040103416 0.15387514 0.13197559 -0.14883691 0.24972317 -0.039803933
0.09716298 -0.14835799 0.16902329 -0.25122085 -0.23841472 -0.2598603 0.2404376 0.25061953
-0.18419686 0.2072921 0.004449517 0.30286926 -0.084836416 0.13740054 -0.07185146 0.12608214
00000000: 0b35 c6bb 20c9 3fbe 5ce6 a23d ac65 183e
00000010: a6ab 52bc 281a 683e 3fcf 16be a9ea b03d
00000020: 9791 4b3e 4252 4abe 0c97 4abe fac6 3a3e
00000030: bf44 f23b 8f35 063e a5c2 723e b992 29bd
00000040: d226 4c3e 6620 36be 6287 f13d a4d8 84be
00000050: b339 12bd 3033 1a3e 8bad 6dbb 4a77 82be
00000060: be8d 08be 863f 44be 7f4e 713e 2841 4fbe
00000070: 26e3 d1bd 7fb7 a23e f8f8 ef3d a740 6a3d
00000080: b9f1 6c3e 0e5c 0d3e 3737 e73d b9a7 273d
00000090: cd07 69be 5aac 88bd 3825 cc3d a1e8 06bc
000000a0: 5cb0 8b3b 2a16 d93c 07d5 8d3e 28b1 83bd
000000b0: 8b68 0ebe 4867 8b3e 3f4c b7be 625e dbbd
000000c0: 0f72 7cbd 7ce1 623e 6e6f 8a3d 6a6d 323e
000000d0: e68d 60bd 429d 2cbd 94b7 59be e215 9ebc
000000e0: 4f91 6b3e 0b65 783e 1f5d 49bd c227 45be
000000f0: 333c 4dbd 03d1 cabc c9ea 733e 40a5 81be
00000100: 442d 653e 0b9b 963c 3017 263d 423b 5fbe
00000110: 0574 6bbe 9517 f53c b11a fc3d 4def 7abe
00000120: bd59 0a3e fafb 4a3e d905 90be 0b98 c53d
00000130: 26f4 c03c 8298 393d 56f1 c4bd 4683 7e3e
00000140: 7f9b ec3d 61aa 99bd b248 6d3e 0833 913d
00000150: 4be3 67be 03f7 a73d fe7b 283d a73b ffbd
00000160: df88 c5bc 5dbe 2abe ea05 ddbd fd12 d03d
00000170: 6669 223e 1b19 bebd ccc8 81be 9a95 813e
00000180: ec58 40be c523 c6bc 6868 543d 6b18 823e
00000190: 4153 aabc f7f4 96bd fb60 eebc b4ba 953d
000001a0: 53a3 9c3c f42b 363e 679b febd 5fce 12be
000001b0: a410 ffbd 78d4 8c3e f422 da3d fbb8 543e
000001c0: b937 d6bd 61d9 283e b22f 45be 51e3 9dbd
000001d0: fefa 2a3e 3fca 33be c7a5 3a3e 7169 7fbe
000001e0: b1f1 9bbe eecf ed3c b092 eabd be71 33be
000001f0: 0581 abbd 25df a83e e9fc 7cbe bd7d 293e
00000200: 2572 cc3d 32cc 423e 11e8 9ebd 6d12 03be
00000210: aeac 2d3d 5af3 6fbe 1cf6 b3bd 41c5 b0bd
00000220: e2fb 993e 42f2 5abc e26a 363e 0917 05be
00000230: d3ea 8f3d 80eb e6bd c84a cfbd 64e3 213e
00000240: 61a5 14be c097 a93d ed87 02bc f1de 403e
00000250: 895b 41be 15cc 7abd c136 883d 13f9 24be
00000260: 6df9 043d 2cec 94be 44be 44be 5cdf 783e
00000270: af46 3b3e a53c 4d3e 6377 af3d 0f55 023e
00000280: 6706 113e 1f17 c23d 72ca 28bb 303c 7a3d
00000290: 5e63 573d 9d8a 953d 226c 0fbe e26e 2b3e
000002a0: 78ce a13d 59ac 0fbe 1056 1e3e 5d81 3dbe
000002b0: cb17 923e b8cf 8a3c a123 88be dfe3 7abe
000002c0: c241 7bbe 83bc b73e 47fa 243e 0ab3 02be
000002d0: f852 5d3d 541c 87bd 0df5 f0bd a778 ff3d
000002e0: bd1e 6e3e 9ba4 92bd 2c56 873d 9527 88be
000002f0: c466 4d3e f1ee a2bd 0313 2abe a896 573d
00000300: 1589 a1bd 5b82 033d e099 3bbe 2eff c8bc
00000310: d097 253e ac7b 903e 1d4f 553d 9a1b 28be
00000320: 0f3c 043e 01fc 07bc c7dd 003a d03b 3a3e
00000330: 4721 d93d db8e 06be 22ae 8abe ee4d 033e
00000340: 3f39 373d 9c8e 95ba 5f99 0e3d 555b 11be
00000350: ee85 993d c869 24bc 9ca8 cabd 791c 7e3e
00000360: 6a99 923d 06e1 7e3e 1d11 6dbe 6b8b 4fbe
00000370: c38d 083b 5f58 3cbe f18a 9c3d f52d 693e
00000380: b36f c0bd 1092 833d 61ca 4e3e e3dc 7b3e
00000390: beba f3bd 8f50 58be 4c17 fdbd fc6d 693d
000003a0: f82e b2bd 78b4 59be 2f69 83bb 7291 1d3e
000003b0: 9c24 073e b468 18be 6eb7 7f3e 7309 23bd
000003c0: 62fd c63d 28eb 17be 7114 2d3e 05a0 80be
000003d0: fd22 74be 690c 85be 4635 763e 3451 803e
000003e0: 1a9e 3cbe 6144 543e 41cd 913b ae11 9b3e
000003f0: b7be adbd bab2 0c3e dc26 93bd ad1b 013e

_deterministic_encoder.output_projection.bias f4 [64]
0.011584476 -0.09088243 0.049811047 -0.097843245 -0.031575065 -0.05826115 0.047825847 -0.054417703
0.020645585 0.0010845854 -0.05205665 -0.043377496 0.06623098 0.081984006 -0.00096399663 -0.0019080322
-0.08549956 -0.01592347 -0.0487549 -0.023957916 -0.11004154 0.014234898 -0.08035935 -0.003127868
0.10557161 -0.08837325 -0.037353728 -0.08983648 0.051527023 -0.022680173 0.03736887 -0.062261123
-0.09929368 -0.034101285 -0.088569835 -0.07657936 -0.041666184 -0.042040218 0.07471519 -0.050587546
0.009369576 0.117187016 -0.073252104 0.031189792 0.010405884 -0.032631874 0.011420978 0.032047804
0.0007929075 -0.07659366 -0.0022065635 0.091006 0.16595867 0.09601413 0.04874141 -0.049381062
0.12112469 0.073692374 0.03717818 0.02894652 -0.08866918 -0.1049038 -0.024873078 0.083916865
00000000: d0cc 3d3c 9120 babd ab06 4c3d 0a62 c8bd
00000010: db54 01bd 3ea3 6ebd 09e5 433d 19e5 5ebd
00000020: ee20 a93c a628 8e3a 5b39 55bd 9aac 31bd
00000030: 1ca4 873d 3be7 a73d b8b4 7cba f016 faba
00000040: 651a afbd f071 82bc 38b3 47bd 6443 c4bc
00000050: 755d e1bd 7d39 693c 7193 a4bd ebfc 4cbb
00000060: ee35 d83d 09fd b4bd 3900 19bd 30fc b7bd
00000070: 000e 533d c5cb b9bc 1a10 193d 8505 7fbd
00000080: 7c5a cbbd caad 0bbd 1a64 b5bd a4d5 9cbd
00000090: 29aa 2abd 5d32 2cbd 4704 993d e334 4fbd
000000a0: da82 193c bfff ef3d 3305 96bd bc81 ff3c
000000b0: 717d 2a3c 00a9 05bd 0e1f 3b3c 8f44 033d
000000c0: 1fdb 4f3a 23dd 9cbd fe9b 10bb 5b61 ba3d
000000d0: 12f1 293e 0ea3 c43d 13a5 473d cc43 4abd
000000e0: 3910 f83d 07ec 963d 2648 183d 4121 ed3c
000000f0: 3098 b5bd ced7 d6bd a0c2 cbbc 9bdc ab3d

_deterministic_encoder.transformer_encoder.layers.0.self_attn.in_proj_weight f4 [192, 64]
-0.029334381 0.002047891 0.04128344 -0.14090145 -0.058858354 -0.090854004 0.042970207 -0.06460336
-0.05138228 -0.010494178 0.021650553 -0.027755773 0.067459695 0.112044096 0.035905737 0.033634372
-0.10421689 -0.049795866 0.027360354 0.011618249 -0.046577018 -0.0016620919 -0.026429608 0.083514065
-0.012813575 -0.032354474 -0.052576747 -0.038971342 -0.05274099 0.0028306174 0.024925277 -0.022976553
-0.03259326 0.044839863 -0.090600245 0.05660349 -0.11597027 -0.09026676 0.10945147 0.02344478
-0.043369617 -0.005714195 -0.061422512 0.07299428 -0.089869 -0.04742315 -0.03225157 -0.022654938
-0.0136464145 -0.041011643 -0.019069487 0.02016601 -0.042716842 0.036244586 0.041007288 -0.02177876
-0.02344879 -0.05628425 0.039913047 0.011241148 -0.021345401 -0.0368599 -0.044725675 0.0017510154
0.10959666 0.010172027 -0.063065164 0.18789749 0.11075738 0.039978873 -0.072847754 0.09749089
0.051192537 0.02957396 -0.03719275 0.09223968 -0.0732598 -0.15739611 -0.01912138 -0.04442299
0.13605694 0.044582937 -0.035228513 -0.021109095 0.059666913 0.002266412 0.039434582 -0.092986315
0.009566162 0.045262568 0.09295036 0.027586075 0.05359091 -0.0026154735 -0.07189765 0.047889534
0.0444767 -0.051929682 0.122622415 -0.04525587 0.15974216 0.10213938 -0.088625595 -0.03457076
0.05891373 -0.03195413 0.060099293 -0.10636142 0.123451866 0.19965447 0.044437014 -0.008182876
0.017669372 0.0018072437 0.036925398 -0.027790908 0.05558632 -0.026008243 -0.058310226 0.044193808
0.021899683 0.044723276 -0.06076007 -0.05793086 0.013945117 0.12464146 0.08888311 0.00015868887
0.009313474 0.011144949 -0.037428223 0.17867625 0.06257344 0.103812315 -0.07443251 0.060740348
0.049796607 0.019305725 -0.028739901 0.07618373 -0.08181806 -0.07032997 -0.085527174 -0.043093424
0.12500109 0.047245912 -0.028618675 -0.017645529 0.050943416 0.0025884474 0.027524084 -0.080041915
0.012433082 0.03859804 -0.0005297601 0.03974027 0.058800295 -0.0012536814 -0.060097564 0.009620928
0.040157788 -0.043131597 0.10358974 -0.01671543 0.12139212 0.09168047 -0.13781671 -0.02743055
0.056995977 -0.01812211 0.07566982 -0.08659011 0.066303 0.105941124 -0.008993131 0.00471625
0.017140899 0.08110628 0.008508923 -0.023228062 0.042763077 -0.08129661 -0.04996366 0.0399395
0.04549216 0.059146356 -0.054923538 -0.01765258 0.014137651 0.07489591 0.079427525 -0.0027007523
0.0142950285 0.015042053 -0.036581665 0.06810644 0.07756322 0.092970945 -0.009369207 0.046745602
0.037067957 0.075111814 -0.0303769 0.03237539 -0.06201677 -0.06808951 -0.023171745 -0.022486733
0.012861609 0.035014953 -0.025589034 -0.04683731 0.043676812 0.0014691236 0.027356504 -0.074657165
0.012443899 0.037645206 0.056275673 0.019057885 0.05535164 -0.0030136157 -0.12832816 0.02836092
0.030586135 -0.037456 0.09865441 -0.038839806 -0.0069145653 0.075083055 -0.06817625 -0.03040062
0.041203894 -0.014661661 0.028500983 -0.05193064 0.07801358 0.116026156 -0.035798945 0.029486839
0.014474293 0.02680127 0.03955057 -0.019724697 0.046767876 -0.09593105 -0.04009107 0.025387995
0.057804346 0.051509075 -0.043006618 -0.02130772 0.02632223 0.05091705 0.047163736 -0.0007270889
00000000: a84e f0bc e935 063b d318 293d 7848 10be
00000010: 7515 71bd aa11 babd 8701 303d c44e 84bd
00000020: 3a76 52bd c6ef 2bbc 805c b13c 1360 e3bc
00000030: 4f28 8a3d 6077 e53d e511 133d 32c4 093d
00000040: aa6f d5bd c0f6 4bbd d222 e03c 785a 3e3c
00000050: 8bc7 3ebd 8dda d9ba e882 d8bc 6c09 ab3d
00000060: 07f0 51bc 2086 04bd b75a 57bd 6aa0 1fbd
00000070: f006 58bd e181 393b 1830 cc3c 5339 bcbc
00000080: 8380 05bd 01aa 373d 9f8c b9bd 10d9 673d
00000090: d281 edbd c7dd b8bd 1828 e03d 440f c03c
000000a0: 57a4 31bd 243e bbbb 2c96 7bbd 067e 953d
000000b0: 3d0d b8bd c73e 42bd 391a 04bd d996 b9bc
000000c0: 3695 5fbc d3fb 27bd 9d37 9cbc 3033 a53c
000000d0: dbf7 2ebd 3475 143d 42f7 273d 5f69 b2bc
000000e0: ad17 c0bc 508a 66bd dd7b 233d cb2c 383c
000000f0: 8ddc aebc 68fa 16bd 4532 37bd 5482 e53a
00000100: 3774 e03d 93a8 263c 4f28 81bd 3368 403e
00000110: c4d4 e23d e3c0 233d 3431 95bd 4ea9 c73d
00000120: 44af 513d 1745 f23c 6d57 18bd 28e8 bc3d
00000130: 3c09 96bd 722c 21be 71a4 9cbc e2f4 35bd
00000140: 8352 0b3e 999c 363d c64b 10bd fbec acbc
00000150: 4b65 743d 1588 143b 2886 213d 9c6f bebd
00000160: 64bb 1c3c 3e65 393d c25c be3d 31fc e13c
00000170: 2482 5b3d 5d68 2bbb 133f 93bd d127 443d
00000180: 332d 363d 38b4 54bd 7621 fb3d 385e 39bd
00000190: 7393 233e 742e d13d 5681 b5bd 129a 0dbd
000001a0: 864f 713d 55e2 02bd ad2a 763d 04d4 d9bd
000001b0: 55d4 fc3d 3972 4c3e 9603 363d 7811 06bc
000001c0: 5cbf 903c 09e1 ec3a 163f 173d c2a9 e3bc
000001d0: 7bae 633d 3d0f d5bc b4d6 6ebd 9104 353d
000001e0: f766 b33c c12f 373d 8ddf 78bd e948 6dbd
000001f0: 0f7a 643c 0644 ff3d 5908 b63d b865 2639
00000200: 8b97 183c 4e99 363c 564e 19bd e8f6 363e
00000210: 8126 803d 8d9b d43d 1270 98bd dfca 783d
00000220: 87f7 4b3d 0a27 9e3c f16f ebbc 3706 9c3d
00000230: 3a90 a7bd 2909 90bd df28 afbd bb82 30bd
00000240: 4900 003e ee84 413d b671 eabc 5b8d 90bc
00000250: 0baa 503d f1a2 293b 307a e13c 04ed a3bd
00000260: 20b4 4b3c fa18 1e3d 99df 0aba b1c6 223d
00000270: 94d8 703d 9152 a4ba dd28 76bd 19a1 1d3c
00000280: 7e7c 243d c2aa 30bd dc26 d43d ccee 88bc
00000290: 6f9c f83d f8c2 bb3d d31f 0dbe 08b6 e0bc
000002a0: 9d74 693d d274 94bc c7f8 9a3d 2856 b1bd
000002b0: dec9 873d a9f7 d83d ed57 13bc c68a 9a3b
000002c0: 126b 8c3c 0d1b a63d 0369 0b3c c748 bebc
000002d0: 5628 2f3d d67e a6bd b2a6 4cbd 9a97 233d
000002e0: fd55 3a3d 7343 723d 81f7 60bd 259c 90bc
000002f0: 9ba1 673c 0763 993d e6aa a23d 1bff 30bb
00000300: b235 6a3c f172 763c a8d6 15bd 647b 8b3d
00000310: 77d9 9e3d 8d67 be3d 4d81 19bc 5178 3f3d
00000320: 92d4 173d 39d4 993d fad8 f8bc 0f9c 043d
00000330: 4c05 7ebd 8372 8bbd acd2 bdbc 1936 b8bc
00000340: 80b9 523c d76b 0f3d 18a0 d1bc 7bd8 3fbd
00000350: 75e6 323d 9c8f c03a bf1a e03c dbe5 98bd
00000360: 7fe1 4b3c dc31 1a3d 5281 663d 481f 9c3c
00000370: 67b8 623d 1580 45bb 7568 03be 2955 e83c
00000380: c68f fa3c 766b 19bd 530b ca3d 7d16 1fbd
00000390: 9493 e2bb 25c5 993d fd9f 8bbd b90a f9bc
000003a0: 6ac5 283d 7737 70bc e57a e93c 39b5 54bd
000003b0: 95c5 9f3d 1f9f ed3d eaa1 12bd 628e f13c
000003c0: 9625 6d3c 568e db3c c7ff 213d b095 a1bc
000003d0: ac8f 3f3d 8077 c4bd 8936 24bd 7cfa cf3c
000003e0: 40c4 6c3d 2efb 523d b527 30bd 878d aebc
000003f0: b8a1 d73c 668e 503d c32e 413d 1c9a 3eba

_deterministic_encoder.transformer_encoder.layers.0.self_attn.in_proj_bias f4 [192]
-0.14010337 0.15963686 0.14624006 0.15053402 0.15741548 0.15048645 -0.15110177 -0.14961965
0.1682805 -0.14847077 -0.15169168 -0.1354007 -0.15269579 -0.14196023 0.15821894 -0.15149204
0.30193365 -0.29453442 0.25128368 -0.28665814 0.22250883 0.299041 -0.2385873 -0.24916998
-0.1523093 0.2236606 -0.27606207 -0.28153324 -0.21877116 0.10735583 -0.2077152 -0.3031709
-0.09186418 0.09166529 0.114278264 0.09016492 0.12617591 -0.0974061 0.07089665 0.10207008
0.15860301 0.1525297 0.101042114 -0.03601139 0.11347751 0.074053414 -0.13102482 0.110937566
-0.16299622 -0.1829564 0.17359078 -0.17140695 -0.15155861 -0.19356507 -0.14846402 0.18126032
0.1737042 0.18758029 0.1622433 -0.17164499 0.13805385 -0.16240837 -0.16867128 0.18975388
4.843227e-07 -3.512834e-07 -7.6321086e-08 -2.9129918e-09 -2.7274237e-07 -2.1071928e-07 -7.169596e-08 8.138587e-09
8.114569e-08 1.4995032e-07 4.7108095e-09 -9.461897e-08 2.5832117e-07 -1.6266709e-07 -3.7602615e-07 9.0794856e-08
1.9933248e-07 8.6997936e-08 -9.793825e-08 3.3699772e-07 -1.8610696e-07 5.225038e-07 -2.737503e-07 1.6420366e-07
2.5198509e-07 5.51112e-08 -6.203766e-08 7.055261e-07 -1.8448542e-07 2.470599e-07 6.335945e-08 7.819673e-07
-8.5285414e-08 2.2813555e-07 3.316041e-08 3.357006e-08 5.297781e-08 -6.451467e-08 9.994218e-08 2.953715e-08
-6.4944565e-08 6.902527e-08 9.951393e-09 -1.4229152e-08 1.7388867e-08 2.857625e-08 -1.11742075e-07 4.112212e-08
3.9395096e-07 3.6925687e-07 -2.613096e-07 2.3147192e-07 2.2487663e-07 3.4181943e-07 3.3817528e-07 -2.7391306e-07
-3.8716465e-07 -1.9949105e-07 -2.1527516e-07 4.1490165e-07 -2.2612481e-07 2.590709e-07 3.517115e-07 -2.7297634e-07
0.024565026 0.0022801107 0.0059888232 -0.021281835 0.036739584 -0.030249659 0.023781564 -0.010945686
-0.03205116 -0.013764021 -0.007902671 -0.04527738 -0.008368534 0.016193528 0.0202092 -0.0069117644
-0.0023315088 0.0030547814 0.012898688 -0.016410086 0.021075062 -0.014651184 0.013199443 0.009348694
0.005449135 -0.011473774 0.0031156973 -2.9082748e-05 0.016548581 0.009370369 -0.00048159432 0.012597861
-0.024241516 -0.009039091 0.0031514147 0.005003686 0.052225176 0.013427062 0.0039250483 0.0026701437
-0.014272296 0.02966739 -0.0166361 0.014607305 -0.041762847 0.00806428 0.004344494 -0.028886857
-0.019688865 -0.007343285 -0.027694043 -0.023099195 -0.0041704345 0.014532242 -0.020461317 -0.028548988
0.025483279 0.021319924 0.033643153 0.029257204 -0.008724184 -0.0041047647 0.016053153 -0.021619631
00000000: 4277 0fbe d877 233e f4bf 153e 9725 1a3e
00000010: 8631 213e 1f19 1a3e 6cba 1abe e535 19be
00000020: b951 2c3e b908 18be 1055 1bbe 7ba6 0abe
00000030: 495c 1cbe 065e 11be 2504 223e bb20 1bbe
00000040: 0c97 9a3e 37cd 96be 41a8 803e dbc4 92be
00000050: 5bd9 633e e71b 993e 3b50 74be 6a26 7fbe
00000060: f8f6 1bbe 4907 653e 0258 8dbe 2025 90be
00000070: 8c05 60be 60dd db3d 4bb3 54be 3739 9bbe
00000080: 4a23 bcbd 03bb bb3d b90a ea3d 63a8 b83d
00000090: 4234 013e d97c c7bd 4332 913d 1e0a d13d
000000a0: d468 223e bf30 1c3e 2bef ce3d ae80 13bd
000000b0: e666 e83d 51a9 973d 5f2b 06be 3c33 e33d
000000c0: 7be8 26be ec58 3bbe c8c1 313e 4e85 2fbe
000000d0: 2e32 1bbe ec35 46be f406 18be 4e9c 393e
000000e0: 84df 313e 0c15 403e 1c23 263e b4c3 2fbe
000000f0: fd5d 0d3e 614e 26be 2ab8 2cbe d74e 423e
00000100: 6702 0235 0698 bcb4 f6e5 a3b3 e52d 48b1
00000110: 6d6d 92b4 1342 62b4 45f7 99b3 e2d1 0b32
00000120: 5142 ae33 0802 2134 b8dc a131 5431 cbb3
00000130: 64af 8a34 97a9 2eb4 a4e0 c9b4 00fb c233
00000140: 1808 5634 9fd3 ba33 1f52 d2b3 9dec b434
00000150: b1d4 47b4 3042 0c35 f4f7 92b4 f54f 3034
00000160: 9148 8734 68b3 6c33 9039 85b3 6263 3d35
00000170: f716 46b4 a7a3 8434 3a10 8833 62e8 5135
00000180: 2726 b7b3 6cf5 7434 426c 0e33 ac2e 1033
00000190: b889 6333 518b 8ab3 cb9f d633 e1b8 fd32
000001a0: a777 8bb3 0b3b 9433 b0f6 2a32 7974 74b2
000001b0: 865e 9532 d777 f532 dbf6 efb3 409e 3033
000001c0: 3580 d334 473e c634 1e4a 8cb4 848a 7834
000001d0: 9e75 7134 4e83 b734 758e b534 530e 93b4
000001e0: 81db cfb4 af33 56b4 6326 67b4 a6bf de34
000001f0: b7cc 72b4 6f16 8b34 dcd2 bc34 958d 92b4
00000200: 983c c93c e96d 153b e43d c43b 3e57 aebc
00000210: 3f7c 163d 22ce f7bc 8ed1 c23c 8955 33bc
00000220: 1448 03bd 7d82 61bc 347a 01bc c674 39bd
00000230: 2d1c 09bc 4aa8 843c c48d a53c 157c e2bb
00000240: 3acc 18bb ba32 483b 0555 533c 726e 86bc
00000250: 9ca5 ac3c 850b 70bc 7a42 583c 442b 193c
00000260: a88e b23b 7ffc 3bbc ba30 4c3b baf6 f3b7
00000270: e490 873c 2d86 193c 7f7e fcb9 4267 4e3c
00000280: 2596 c6bc b218 14bc f787 4e3b f6f5 a33b
00000290: 11ea 553d 2efd 5b3c b19d 803b 94fd 2e3b
000002a0: 59d6 69bc 0709 f33c 6e48 88bc 7a53 6f3c
000002b0: 850f 2bbd 0b20 043c 425c 8e3b 21a4 ecbc
000002c0: 8b4a a1bc f09f f0bb 9ede e2bc 863a bdbc
000002d0: 24a8 88bb a418 6e3c 7e9e a7bc 91df e9bc
000002e0: 4fc2 d03c 1fa7 ae3c 67cd 093d ceac ef3c
000002f0: e1ef 0ebc 4381 86bb e781 833c a71b b1bc

_deterministic_encoder.transformer_encoder.layers.0.self_attn.out_proj.weight f4 [64, 64]
-0.05416179 -0.063972026 -0.14898942 -0.009778389 -0.09626474 -0.12322813 0.090105206 -0.09656942
-0.05925518 -0.22673486 0.18906705 0.049214166 -0.13287462 -0.00026090565 0.16060536 0.14745247
-0.1377249 -0.05869175 -0.09609273 -0.13982546 0.023583349 0.10233657 0.21035819 0.10449673
-0.03687988 -0.07822614 -0.06087301 -0.027650902 -0.15688835 0.04852977 -0.009492014 0.15000638
-0.11927659 -0.05224624 -0.08294618 0.10952209 -0.13303941 -0.040139988 0.031139722 -0.012294118
-0.07242057 -0.0054016495 -0.070569 0.018506872 -0.137193 0.08025603 -0.064554505 -0.060047235
0.15956748 -0.18988097 -0.057841584 0.026780771 -0.13038903 0.070958994 0.071466476 -0.09710498
0.054422185 -0.141492 -0.06362484 -0.077443995 0.011421197 0.13398159 -0.0014608231 -0.012565958
0.11737338 -0.04790912 0.02208437 0.07739792 -0.062727354 -0.11687373 0.004261915 0.11906851
-0.064849034 0.041170977 0.11687159 0.11127113 -0.026789837 0.0031517835 -0.092623144 0.109420076
-0.09318232 0.07432216 0.11414038 0.078145884 0.069986686 0.03822434 -0.06582082 0.11154814
-0.092255875 0.12567537 -0.14531621 0.005086921 0.12293538 0.07151265 0.060386773 0.08592052
-0.07107042 -0.10318165 0.015062565 0.06618504 0.012486376 -0.112258226 0.106340416 -0.019622128
0.03248963 -0.11371034 -0.17336378 0.038634405 0.056006525 0.0034725196 0.010837441 -0.060982786
0.05905273 -0.018790053 0.12109454 -0.08354704 -0.054677352 0.03382917 -0.11235706 -0.048131324
-0.11699601 0.09323756 0.013494101 0.09338608 -0.07046085 0.08361018 0.037124757 0.041631814
-0.03408681 0.19492637 -0.14081153 0.020846624 0.047539834 0.1858319 -0.017097693 0.080427706
-0.05288033 -0.08903471 0.12553078 0.037379544 -0.0616596 -0.063115396 -0.05232927 -0.025194146
0.03345613 -0.037018787 0.012796447 0.016027365 0.11496202 0.024489967 0.07937261 0.09934272
0.06794917 0.102503516 0.10944551 0.020270651 -0.07285075 -0.06641491 0.13577476 0.036543883
0.001091916 -0.08477672 0.15500556 0.14599255 -0.09424754 -0.090918355 -0.03805371 -0.03738517
0.00917943 -0.015869157 -0.03154871 -0.0545255 -0.058309294 0.12354058 -0.050016586 -0.018591525
0.15031774 0.034576263 -0.17163022 -0.015940363 0.08881525 0.08792498 -0.029975306 -0.112277165
-0.075363144 0.056537267 0.056257475 0.032010607 -0.09224914 0.109054 0.12773347 0.04719904
0.12709558 0.03969579 -0.09655632 0.12330715 -0.1144292 0.061147153 0.17272568 -0.08811752
-0.005810657 0.105140455 -0.11050114 -0.027779356 -0.13690986 -0.017746575 0.07196453 -0.13552566
0.03958001 -0.038180962 -0.16117424 -0.056320585 0.1128629 -0.15724316 -0.1398964 -0.035471734
-0.07885606 0.09655635 -0.066368 -0.08121737 -0.060609832 -0.0041140704 0.0859233 -0.13444076
0.03306009 0.043706425 0.025064977 -0.08947639 0.13769263 0.09739368 0.050882515 -0.11925331
0.06882064 0.059577662 0.09204873 -0.05786749 0.10747165 -0.12019773 -0.034709178 0.0100021195
0.025873259 -0.18359935 -0.06267011 -0.08785334 0.1396716 -0.02475099 -0.026762374 -0.048226222
-0.073605955 0.047704965 0.051196232 0.024366891 -0.14035901 0.07279254 -0.016179971 0.0098353615
00000000: c1d8 5dbd c403 83bd af90 18be 8935 20bc
00000010: 7326 c5bd 085f fcbd 1489 b83d 30c6 c5bd
00000020: 8fb5 72bd 2f2d 68be cb9a 413e cb94 493d
00000030: 4910 08be 2aca 88b9 bb75 243e c8fd 163e
00000040: c207 0dbe c366 70bd 44cc c4bd 682e 0fbe
00000050: de31 c13c d695 d13d 2368 573e 6202 d63d
00000060: 5b0f 17bd 0735 a0bd fa55 79bd 2584 e2bc
00000070: 57a7 20be 27c7 463d 6484 1bbc 469b 193e
00000080: 4947 f4bd 2700 56bd b0df a9bd 1e4d e03d
00000090: 7c3b 08be d469 24bd bb18 ff3c 456d 49bc
000000a0: 3c51 94bd 5200 b1bb 7b86 90bd b99b 973c
000000b0: 527c 0cbe 465d a43d 2735 84bd 17f4 75bd
000000c0: a865 233e 2870 42be 4ceb 6cbd 5963 db3c
000000d0: b484 05be f352 913d 045d 923d fade c6bd
000000e0: cce9 5e3d 47e3 10be bd4d 82bd f59a 9ebd
000000f0: f91f 3b3c 7832 093e 1779 bfba 73e1 4dbc
00000100: 7461 f03d 5a3c 44bd 48ea b43c cd82 9e3d
00000110: 3377 80bd 7f5b efbd 89a7 8b3b 31da f33d
00000120: 92cf 84bd e6a2 283d 5f5a ef3d 1ee2 e33d
00000130: 5c76 dbbc 278e 4e3b 34b1 bdbd a217 e03d
00000140: 5fd6 bebd 3736 983d 6ec2 e93d f30a a03d
00000150: 2e55 8f3d 2091 1c3d 11cd 86bd 5a73 e43d
00000160: a6f0 bcbd 0bb1 003e c6cd 14be 30b0 a63b
00000170: 8bc5 fb3d 3975 923d 1f58 773d 19f7 af3d
00000180: 5e8d 91bd e750 d3bd fac8 763c 068c 873d
00000190: a893 4c3c a4e7 e5bd 01c9 d93d 96be a0bc
000001a0: d913 053d f7e0 e8bd 4686 31be 1c3f 1e3d
000001b0: 1967 653d 3693 633b 868f 313c 16c9 79bd
000001c0: 47e1 713d 99ed 99bc 6a00 f83d b61a abbd
000001d0: 5cf5 5fbd 7590 0a3d 751b e6bd 5a25 45bd
000001e0: 9b9b efbd 55f3 be3d 5d16 5d3c 3341 bf3d
000001f0: c74d 90bd d03b ab3d 2110 183d 1f86 2a3d
00000200: 9c9e 0bbd c79a 473e e630 10be 8ac6 aa3c
00000210: 21b9 423d b84a 3e3e 7610 8cbc 48b7 a43d
00000220: 0b99 58bd d457 b6bd 248b 003e 4b1b 193d
00000230: c78e 7cbd a542 81bd 3757 56bd f463 cebc
00000240: 4c09 093d 03a1 17bd 30a8 513c d24b 833c
00000250: 3571 eb3d 2f9f c83c 1b8e a23d 3274 cb3d
00000260: ef28 8b3d 5ded d13d f824 e03d a30e a63c
00000270: c632 95bd 8a04 88bd 8a08 0b3e 0aaf 153d
00000280: 9f1e 8f3a 6b9f adbd c7b9 1e3e 127f 153e
00000290: db04 c1bd 6733 babd 35de 1bbd 3121 19bd
000002a0: 5265 163c 0900 82bc 3839 01bd 2156 5fbd
000002b0: bad5 6ebd d802 fd3d 31de 4cbd 414d 98bc
000002c0: e5ec 193e d79f 0d3d d5bf 2fbe 5d95 82bc
000002d0: c5e4 b53d 0312 b43d c68e f5bc 92f1 e5bd
000002e0: fe57 9abd 9f93 673d 3d6e 663d 8e1d 033d
000002f0: 1eed bcbd b457 df3d 90cc 023e c853 413d
00000300: 5825 023e 0d98 223d 52bf c5bd 7688 fc3d
00000310: db59 eabd 7075 7a3d 00df 303e f576 b4bd
00000320: 5367 bebb e153 d73d 6c4e e2bd 8891 e3bc
00000330: 1932 0cbe 4461 91bc 2462 933d 3dc7 0abe
00000340: a61e 223d a463 1cbd dc0a 25be 6ab0 66bd
00000350: aa24 e73d 5a04 21be 0041 0fbe cf4a 11bd
00000360: 497f a1bd 56bf c53d f2eb 87bd 4b55 a6bd
00000370: 0442 78bd 53cf 86bb 8ef8 af3d d7aa 09be
00000380: 046a 073d 8205 333d 1155 cd3c 663f b7bd
00000390: 4cff 0c3e 5676 c73d 2f6a 503d 143b f4bd
000003a0: d6f1 8c3d b507 743d 0b84 bc3d 7606 6dbd
000003b0: 191a dc3d 3a2a f6bd 362b 0ebd eedf 233c
000003c0: 28f4 d33c 7801 3cbe 3059 80bd 74ec b3bd
000003d0: 1206 0f3e 97c2 cabc c43c dbbc dc88 45bd
000003e0: b8be 96bd 4866 433d 24b3 513d 139d c73c
000003f0: 46ba 0fbe 4114 953d dc8b 84bc 7f24 213c

_deterministic_encoder.transformer_encoder.layers.0.self_attn.out_proj.bias f4 [64]
1.57192e-05 0.0005918207 -0.0031461962 -0.0043068016 -0.001413454 0.0026158616 -0.0012926065 -0.0022220793
0.0010686982 -0.00081814214 -0.0010234513 -0.007333334 0.0008958257 -0.0012751237 -0.0018788165 -0.0018524617
0.0023307747 -0.00060098857 -0.00040959712 -0.0005473169 0.0025899708 0.0018345575 0.002214665 0.0006930823
0.00013388968 -0.0013960025 -0.0012361443 0.0013041828 0.00088587124 -0.0013624118 -0.0020934565 0.0018678982
-0.0015304603 -5.2849995e-05 -0.0036015033 0.00046195256 0.0020988998 0.0066364235 -0.0028140652 -0.00028865752
-0.0011745638 0.0022208856 -0.0037536458 0.002456207 -0.0030553178 -0.0021423262 0.0062861727 0.0013404819
0.0025233482 0.0014705989 0.0008456339 0.002381842 0.0023490377 -0.0009916854 0.0041475473 -0.0006501364
0.005609583 0.0062940125 0.001818626 0.006344122 -0.001198601 0.0011975688 0.0028338837 0.0020605118
00000000: badc 8337 6a24 1b3a 6a30 4ebb 1220 8dbb
00000010: a543 b9ba e06e 2b3b ad6c a9ba 4ea0 11bb
00000020: 9013 8c3a 9778 56ba 5425 86ba 774c f0bb
00000030: d8d5 6a3a 0d22 a7ba 9f42 f6ba 4dce f2ba
00000040: e9bf 183b a98b 1dba 32bf d6b9 d179 0fba
00000050: 80bc 293b 8975 f03a ea23 113b f7af 353a
00000060: bd64 0c39 12fa b6ba 1f06 a2ba 1df1 aa3a
00000070: d039 683a f492 b2ba 5f32 09bb 43d4 f43a
00000080: ba99 c8ba 40ab 5db8 3307 6cbb 3932 f239
00000090: b28d 093b 5b76 d93b 2e6c 38bb f556 97b9
000000a0: d2f3 99ba 478c 113b baff 75bb 51f8 203b
000000b0: ba3b 48bb 4566 0cbb 3dfc cd3b 1cb3 af3a
000000c0: c25e 253b 1cc1 c03a 88ad 5d3a ad18 1c3b
000000d0: 50f2 193b 71fb 81ba 26e8 873b ea6d 2aba
000000e0: 98d0 b73b 013e ce3b f65e ee3a 5ae2 cf3b
000000f0: 601a 9dba bef7 9c3a aeb8 393b a709 073b

_deterministic_encoder.transformer_encoder.layers.0.linear1.weight f4 [256, 64]
-0.10332655 0.0738396 -0.08358204 -0.09062371 0.12508763 0.08862596 -0.00089689984 -0.030696994
-0.053412717 0.023514612 -0.10169182 -0.06606223 -0.014752736 -0.12115234 0.03447255 -0.013514505
0.006039958 0.07863141 -0.151987 -0.024895776 -0.06281394 0.12599576 0.035934925 0.04735005
-0.19951768 0.25038138 -0.093670644 0.109404415 -0.02086988 -0.01977892 -0.06341268 0.00056140946
-0.09025503 -0.14169851 0.024314972 0.12517257 0.080266096 -0.036647845 0.058804523 -0.013154069
0.002147588 0.043295052 -0.0642888 0.025617756 -0.08607814 -0.08864427 0.040202245 0.0019608738
-0.17423902 -0.05915242 0.033023354 -0.091886796 0.10854517 -0.06417851 0.006393312 0.025557235
0.14212097 -0.053189497 0.06766126 -0.019953629 0.06476261 0.04385127 0.043923542 0.020205837
-0.084580235 0.122596584 0.10429292 -0.175761 -0.049177013 -0.09116254 -0.06629028 -0.045431435
-0.0556409 -0.049910747 -0.0979046 -0.059182625 0.1861815 0.100520246 0.057946865 -0.0036328372
0.0038911134 0.092113964 0.05880423 -0.06407497 0.0015068128 -0.042987376 -0.033960845 -0.028879829
0.017626135 -0.012678854 -0.036140736 0.06863585 0.094055064 0.06923865 0.07751427 -0.041515
0.0878246 -0.070962116 -0.143015 -0.04267328 -0.016070241 0.09897317 0.023606597 -0.107805364
-0.08666951 -0.025304966 -0.16630334 0.01835152 0.14431211 -0.1165637 -0.0002856533 -0.1475129
-0.09119506 -0.100398794 0.038215425 -0.07231858 0.010303144 0.10488486 0.040669214 0.05429625
0.01370647 -0.08716609 0.05720694 -0.11071599 0.004192244 -0.08045285 -0.06806509 0.006411698
-0.002300601 0.040026464 -0.02993618 0.016629508 -0.20414273 -0.11637931 -0.053915612 -0.0003550523
0.09399756 -0.058554083 -0.0958008 0.10284 0.06279353 0.07882199 0.04467231 -0.04841956
-0.013682885 0.03655598 0.040165443 0.023805818 0.12446818 0.0031181285 0.10985657 0.10690574
-0.050873727 -0.07059822 -0.035456985 0.063915454 0.008992393 0.18343332 -0.0013130857 0.048348915
0.09712606 0.097643204 0.06246894 0.10805909 0.035225097 0.10148465 -0.06562765 0.06848008
-0.00313338 -0.04458355 0.022381632 -0.08078108 -0.027386244 0.1034896 0.008742639 -0.1511031
-0.016457336 -0.017430728 -0.09727055 -0.14686507 -0.12792003 0.08832814 -0.19381943 0.10392993
0.009962329 -0.10112664 0.056490347 -0.022695487 -0.0073736724 -0.1381129 0.06414606 0.068787105
0.068976164 0.17044914 0.033613235 0.049139 0.013108622 -0.0953458 0.08817353 0.0012396538
0.027607119 -0.05160764 -0.047393676 -0.036161125 -0.14437225 -0.092674054 0.12045395 -0.039463755
-0.056073736 -0.05544869 0.10335106 0.035764553 0.15433757 -0.061461136 0.15837188 -0.097912535
0.053375877 -0.08120093 -0.014446266 0.11943238 -0.12753788 0.13757148 0.041510645 0.09941804
0.1294496 0.008675419 0.060373206 -0.09566479 -0.10913466 0.08722844 -0.09725098 -0.062126644
-0.08968192 -0.20614447 0.052617062 0.0006598581 0.090002276 -0.10770399 -0.08523327 0.03383969
0.1316988 -0.064165235 -0.030803474 -0.18350518 -0.15400976 0.037157003 -0.107878536 -0.06055844
-0.2517133 -0.15662642 -0.12292736 -0.028601151 0.18583104 0.00085376657 0.15847482 -0.10461877
00000000: df9c d3bd 3739 973d 102d abbd ec98 b9bd
00000010: f916 003e 8781 b53d ee1d 6bba 4378 fbbc
00000020: 4bc7 5abd b7a1 c03c cd43 d0bd a24b 87bd
00000030: 76b5 71bc b81e f8bd 1733 0d3d f16b 5dbc
00000040: d7ea c53b 8109 a13d 7ba2 1bbe 3af2 cbbc
00000050: 98a4 80bd 0805 013e 8030 133d 20f2 413d
00000060: 5d4e 4cbe fd31 803e 65d6 bfbd 6c0f e03d
00000070: 50f7 aabc 6707 a2bc 82de 81bd 8d2b 133a
00000080: a1d7 b8bd 6a19 11be 3130 c73c 3d2d 003e
00000090: 8d62 a43d 0d1c 16bd 03dd 703d 2a84 57bc
000000a0: 8cbe 0c3b 2756 313d d9a9 83bd 54dc d13c
000000b0: bc49 b0bd 218b b5bd 1cab 243d 0182 003b
000000c0: b76b 32be cf49 72bd 7f43 073d 252f bcbd
000000d0: ee4c de3d 0670 83bd fd7e d13b 685d d13c
000000e0: 2988 113e 3bdd 59bd fd91 8a3d cb75 a3bc
000000f0: 42a2 843d 649d 333d 2ce9 333d b686 a53c
00000100: 6738 adbd eb13 fb3d 8797 d53d b1fa 33be
00000110: d66d 49bd 6db3 babd 33c3 87bd 5016 3abd
00000120: b6e7 63bd 366f 4cbd 3582 c8bd 7b69 72bd
00000130: 5da6 3e3e 8fdd cd3d b159 6d3d e514 6ebb
00000140: 0d02 7f3b 3fa6 bc3d b4dc 703d bd39 83bd
00000150: 3f80 c53a 8813 30bd 871a 0bbd 6495 ecbc
00000160: af64 903c f8ba 4fbc 4f08 14bd f490 8c3d
00000170: f19f c03d fecc 8d3d cdbf 9e3d a20b 2abd
00000180: 62dd b33d 9654 91bd 8672 12be 2dca 2ebd
00000190: bda5 83bc 72b2 ca3d 9f62 c13c 0fc9 dcbd
000001a0: c97f b1bd 5c4c cfbc 6c4b 2abe ed55 963c
000001b0: 8ec6 133e f3b8 eebd bdc3 95b9 9f0d 17be
000001c0: 7ac4 babd e29d cdbd c787 1c3d c31b 94bd
000001d0: 85ce 283c e0cd d63d c394 263d bf65 5e3d
000001e0: 1a91 603c 2384 b2bd d351 6a3d 11bf e2bd
000001f0: 175f 893b 77c4 a4bd b665 8bbd 3919 d23b
00000200: aec5 16bb caf2 233d b83c f5bc 9b3a 883c
00000210: cb0a 51be 4758 eebd 9ed6 5cbd 5026 bab9
00000220: cb81 c03d 68d6 6fbd 3633 c4bd c79d d23d
00000230: e599 803d 6c6d a13d 50fa 363d 9753 46bd
00000240: 2e2e 60bc b9bb 153d 8584 243d 6b04 c33c
00000250: 2ce9 fe3d 8459 4c3b 7bfc e03d 66f1 da3d
00000260: f860 50bd cd95 90bd 583b 11bd 1be6 823d
00000270: d454 133c f2d5 3b3e d81b acba 8309 463d
00000280: 07ea c63d 29f9 c73d 6edf 7f3d 164e dd3d
00000290: 3148 103d 2fd7 cf3d ca67 86bd 493f 8c3d
000002a0: 6559 4dbb 3e9d 36bd af59 b73c 8d70 a5bd
000002b0: 1e59 e0bc 5bf2 d33d 493d 0f3c c5ba 1abe
000002c0: 89d1 86bc e3ca 8ebc c835 c7bd cc63 16be
000002d0: 78fd 02be 62e5 b43d 9a78 46be 37d9 d43d
000002e0: 0939 233c 7c1b cfbd 6c62 673d e3eb b9bc
000002f0: d99e f1bb 786d 0dbe 025f 833d 41e0 8c3d
00000300: 6043 8d3d 388a 2e3e 08ae 093d fa45 493d
00000310: 8cc5 563c a944 c3bd 5394 b43d e17b a23a
00000320: 5328 e23c 8862 53bd df1f 42bd b01d 14bd
00000330: 52d6 13be e5cb bdbd 8fb0 f63d bfa4 21bd
00000340: 93ad 65bd 2a1e 63bd b8a9 d33d da7d 123d
00000350: ab0a 1e3e acbe 7bbd 3d2c 223e 5e86 c8bd
00000360: aaa0 5a3d ac4c a6bd 08b0 6cbc f798 f43d
00000370: 4a99 02be 8adf 0c3e 1107 2a3d af9b cb3d
00000380: 708e 043e 5823 0e3c e549 773d e7eb c3bd
00000390: fe81 dfbd d3a4 b23d 862b c7bd 8278 7ebd
000003a0: 28ab b7bd 8917 53be fd84 573d 54fa 2c3a
000003b0: 1d53 b83d e993 dcbd c88e aebd 7d9b 0a3d
000003c0: 0ddc 063e 1069 83bd 9157 fcbc c8e8 3bbe
000003d0: bcb4 1dbe f131 183d 6cef dcbd 200c 78bd
000003e0: 91e0 80be ad62 20be 57c1 fbbd f64c eabc
000003f0: 7e4a 3e3e 4ecf 5f3a 3947 223e 5e42 d6bd

_deterministic_encoder.transformer_encoder.layers.0.linear1.bias f4 [256]
-0.06213461 -0.04433732 -0.049900524 -0.038311534 -0.07680153 -0.04747445 -0.026148481 -0.015154822
-0.081382684 -0.027239518 -0.06501652 -0.083229944 -0.025984757 -0.038318023 -0.027952045 -0.0561356
-0.0637597 -0.07338245 -0.021621874 -0.038782082 -0.07852137 -0.057842553 -0.03938925 -0.042965963
-0.06330382 -0.05754338 -0.0738264 -0.088953584 -0.007658186 -0.0359809 -0.031845767 -0.03838136
-0.07407033 -0.03046007 -0.07322954 -0.060720775 -0.04840573 -0.059982426 -0.044499766 -0.0828113
-0.055628788 -0.052121498 -0.04349005 -0.039026223 -0.06710588 -0.028173842 -0.027492194 -0.031174209
-0.06621777 -0.020069 -0.071833745 -0.018811258 -0.035413474 -0.03704924 -0.07030018 -0.07584933
-0.13491628 -0.047403015 -0.057997014 -0.0582457 -0.049108945 -0.03665356 -0.044261806 -0.040740848
-0.015455664 -0.05088493 -0.023343546 -0.06398523 -0.047621474 -0.024800653 -0.041279573 -0.11726787
-0.057193387 -0.028334811 -0.042434826 -0.064079866 -0.032103103 -0.07926518 -0.07594541 -0.048392564
-0.026855947 -0.06326391 -0.041739374 -0.04511981 -0.045840655 -0.026161632 -0.07777807 -0.09608195
-0.03563004 -0.04145593 -0.003359571 -0.025775637 -0.06977737 -0.006509084 -0.01847744 -0.05701644
-0.048429236 -0.04697363 -0.05183742 -0.087939106 -0.039767154 -0.095300876 -0.025118522 -0.09522032
-0.037931606 0.008570493 -0.033090904 -0.014185756 -0.046523962 -0.04299463 -0.053588044 -0.026006661
-0.039654784 -0.13305807 -0.052352335 -0.04312606 -0.042195894 -0.020779015 -0.059941817 -0.06726682
-0.017491298 -0.053737264 -0.04071688 -0.034352686 -0.08138558 -0.053093284 -0.08024292 -0.054020412
-0.013923309 -0.06311072 -0.0490733 -0.043439306 -0.028454509 -0.072142996 -0.051244583 -0.036599644
0.013466597 -0.08430236 -0.03961253 0.027802434 -0.08667742 -0.030026231 -0.03247471 -0.06602443
-0.042929724 -0.041913237 -0.043238577 -0.052679017 -0.034962717 -0.029591745 -0.0580126 -0.018572535
-0.062895894 -0.04454587 -0.06916694 -0.0264367 -0.05262371 -0.08203698 -0.041363634 -0.047375977
-0.040343966 -0.039743036 -0.02298171 -0.061618593 -0.043200504 -0.06257754 0.006691414 -0.0843514
-0.03165974 -0.053911895 -0.005965673 -0.04934511 -0.012932062 -0.049999546 -0.059806272 -0.07429648
-0.036030147 -0.031975903 -0.029480437 -0.013928505 -0.021614976 -0.06251433 -0.06454196 -0.08588114
-0.0026346105 -0.008388335 -0.0406406 -0.060590964 -0.028171575 -0.033948258 -0.044643663 -0.016876
-0.074075036 -0.057190552 -0.04639077 -0.027134513 -0.030199338 -0.04677269 -0.01928885 -0.05551452
-0.011004861 -0.021242443 -0.05526603 -0.02451053 -0.06521441 -0.02388279 -0.03813166 -0.085325144
-0.03606856 -0.033317376 -0.0803931 -0.042644262 -0.055852838 -0.020313019 -0.024773745 -0.06091009
-0.04806464 -0.042669196 -0.041746646 -0.06339461 -0.028056232 -0.024342922 -0.011260272 -0.053981554
-0.046090562 -0.06437092 -0.026116254 -0.053789854 -0.013614223 -0.008703047 -0.04994326 -0.055812545
-0.03190907 -0.04511735 -0.016394645 -0.024760637 -0.01731077 -0.061081313 -0.059091397 -0.051867247
-0.050234385 -0.056152772 -0.023686519 -0.051856123 -0.025831744 -0.11255616 -0.063770875 -0.009520912
-0.0574399 -0.049825445 -0.039837647 -0.043258388 -0.039297093 -0.029420145 -0.02181755 -0.08657293
00000000: dc80 7ebd 0d9b 35bd 7e64 4cbd 8eec 1cbd
00000010: 1f4a 9dbd 9274 42bd 5735 d6bc ee4b 78bc
00000020: f7ab a6bd 6925 dfbc 6227 85bd 7674 aabd
00000030: fcdd d4bc 5cf3 1cbd b0fb e4bc 71ee 65bd
00000040: 7294 82bd 8a49 96bd 5b20 b1bc f6d9 1ebd
00000050: d0cf a0bd 50ec 6cbd 9f56 21bd 14fd 2fbd
00000060: 6fa5 81bd 9bb2 6bbd 4c32 97bd 4c2d b6bd
00000070: 85f1 fabb b560 13bd b570 02bd c635 1dbd
00000080: 2fb2 97bd 6687 f9bc 5ef9 95bd 59b6 78bd
00000090: 1645 46bd 22b0 75bd 6345 36bd f998 a9bd
000000a0: 03db 63bd 5a7d 55bd 9f22 32bd f6d9 1fbd
000000b0: cf6e 89bd d4cc e6bc 4f37 e1bc 0e61 ffbc
000000c0: 2f9d 87bd be67 a4bc 921d 93bd 111a 9abc
000000d0: b80d 11bd f2c0 17bd 8af9 8fbd e556 9bbd
000000e0: 7e27 0abe aa29 42bd 478e 6dbd 0b93 6ebd
000000f0: 7626 49bd 0b22 16bd de4b 35bd e0df 26bd
00000100: c139 7dbc b76c 50bd f73a bfbc b00a 83bd
00000110: bc0e 43bd bd2a cbbc c514 29bd 232a f0bd
00000120: 9d43 6abd 681e e8bc 24d0 2dbd 4e3c 83bd
00000130: 8b7e 03bd c855 a2bd 4489 9bbd 4837 46bd
00000140: 0101 dcbc 8290 81bd e8f6 2abd 8dcf 38bd
00000150: 69c3 3bbd eb50 d6bc 1c4a 9fbd 9dc6 c4bd
00000160: cef0 11bd b1cd 29bd 402c 5cbb 6e27 d3bc
00000170: 70e7 8ebd 274a d5bb 005e 97bc 128a 69bd
00000180: bc5d 46bd 6c67 40bd 7953 54bd 6b19 b4bd
00000190: e2e2 22bd 1b2d c3bd 5cc5 cdbc df02 c3bd
000001a0: 2c5e 1bbd 416b 0c3c 548a 07bd 606b 68bc
000001b0: e98f 3ebd 231b 30bd 237f 5bbd ec0b d5bc
000001c0: 0e6d 22bd 6040 08be 676f 56bd f4a4 30bd
000001d0: 9ad5 2cbd c138 aabc 8d85 75bd 30c3 89bd
000001e0: e949 8fbc 9b1b 5cbd bec6 26bd 67b5 0cbd
000001f0: 7cad a6bd 5878 59bd 6656 a4bd 8244 5dbd
00000200: 971e 64bc 3140 81bd 1601 49bd 6aed 31bd
00000210: 6e19 e9bc b5bf 93bd d7e5 51bd 82e9 15bd
00000220: 00a3 5c3c b7a6 acbd c040 22bd eec1 e33c
00000230: ee83 b1bd 92f9 f5bc 3404 05bd d137 87bd
00000240: 14d7 2fbd 37ad 2bbd ef1a 31bd f4c5 57bd
00000250: 1135 0fbd 636a f2bc 9f9e 6dbd 6e25 98bc
00000260: 90cf 80bd bb75 36bd 66a7 8dbd c791 d8bc
00000270: f68b 57bd 0103 a8bd ea6c 29bd 500d 42bd
00000280: b73f 25bd 98c9 22bd 2444 bcbc c763 7cbd
00000290: 03f3 30bd a728 80bd a643 db3b 6dc0 acbd
000002a0: a5ad 01bd b8d2 5cbd b17b c3bb 191e 4abd
000002b0: 00e1 53bc 53cc 4cbd 6cf7 74bd c128 98bd
000002c0: 5994 13bd 2af9 02bd f580 f1bc 6234 64bc
000002d0: e411 b1bc 8307 80bd 932e 84bd 73e2 afbd
000002e0: 6ea9 2cbb 3a6f 09bc c276 26bd 3b2e 78bd
000002f0: 13c8 e6bc 540d 0bbd 46dc 36bd 8a3f 8abc
00000300: a7b4 97bd a440 6abd 3f04 3ebd 3349 debc
00000310: 9a64 f7bc b894 3fbd a603 9ebc 3163 63bd
00000320: bc4d 34bc a204 aebc a25e 62bd 4fca c8bc
00000330: 228f 85bd d7a5 c3bc f22f 1cbd f3be aebd
00000340: a0bc 13bd cd77 08bd 23a5 a4bd c0ab 2ebd
00000350: f2c5 64bd 7d67 a6bc 4ff2 cabc dc7c 79bd
00000360: 6edf 44bd e5c5 2ebd 88fe 2abd 09d5 81bd
00000370: 2fd6 e5bc cf6a c7bc 017d 38bc c31b 5dbd
00000380: 75c9 3cbd e7d4 83bd c1f1 d5bc c052 5cbd
00000390: 310e 5fbc 3a97 0ebc 4e91 4cbd b29b 64bd
000003a0: 16b3 02bd f8cc 38bd 104e 86bc d2d6 cabc
000003b0: 51cf 8dbc 6630 7abd d209 72bd c072 54bd
000003c0: 92c2 4dbd 7300 66bd 3b0a c2bc 1667 54bd
000003d0: 189d d3bc d883 e6bd 4e9a 82bd 99fd 1bbc
000003e0: 1a46 6bbd c415 4cbd cd2c 23bd b52f 31bd
000003f0: fdf5 20bd 8402 f1bc b8ba b2bc 264d b1bd
