CNP-model-save-name/saved_models/model_0.pth (torch, 736001 bytes, 50 tensors)

weight f4 [64, 11]
0.063231386 -0.14719251 0.07327072 -0.13671689 -0.12919466 0.18859243 0.19727816 0.18686804
0.1437531 0.11694399 0.06978979 0.088623464 -0.063302934 0.17967266 -0.034457155 0.15617982
0.056941304 -0.07442689 -0.16978137 0.010015308 -0.17146763 -0.25185028 0.10905957 -0.21322095
0.14595641 0.1524481 0.21109858 -0.25866577 0.12814012 0.19235449 0.094802506 -0.07742177
0.09174041 -0.04739738 -0.037385102 -0.1817735 0.070227854 0.1425736 -0.16498551 0.21313679
-0.026520576 -0.049575526 -0.116290554 -0.25091806 0.16182987 -0.07586874 -0.26805818 0.26839316
0.1441597 0.21297427 -0.13228047 -0.13167785 0.108958855 -0.16408543 -0.052202255 0.18798912
-0.009930798 -0.25282124 0.0045165694 -0.08055393 -0.19617112 -0.18137273 0.063634895 0.2743548
-0.27122587 0.23055628 -0.24634054 -0.2192425 -0.13179149 0.10808407 0.21186376 -0.13948423
0.21681443 0.22035001 -0.26934338 0.22202408 0.08423047 0.17913593 0.11027688 -0.09451725
0.24597752 -0.24854808 0.059765548 -0.23749323 0.034108665 -0.14545073 0.034556404 0.2726056
-0.109164454 -0.07815359 0.23778015 -0.16817184 0.15670432 0.1499987 0.15012918 -0.05549715
0.009043976 0.282546 -0.08983022 -0.022898452 -0.10470598 0.095792554 0.18699299 -0.2229042
-0.062118188 -0.0662885 0.084435716 -0.07964177 -0.14840019 0.19023204 0.18563257 0.14086474
-0.13700987 0.20218185 0.22256613 0.16319737 0.02281686 -0.16638267 -0.14474203 0.17283808
-0.20374382 0.25032324 0.04751004 0.17379688 0.1272826 0.110455744 0.05316822 0.1226438
-0.23239905 0.20315205 -0.2337758 -0.045370184 0.058750186 -0.05571396 0.15854113 -0.21898861
0.18524083 0.17475009 -0.2385894 0.21407886 0.18345979 -0.16551681 0.2509928 -0.033138957
-0.022275405 -0.07648391 0.2532953 0.13246128 0.1956225 -0.10914709 0.15928015 -0.27913892
0.24072908 0.025976136 0.085963316 0.2590968 0.011279552 -0.24839404 0.059267636 -0.137583
-0.074997835 -0.00338526 -0.17464508 0.21856084 0.02275235 -0.17424159 -0.25115272 0.09506333
0.083230846 -0.06431775 -0.13995509 0.086876936 -0.07491296 0.1529533 -0.15293631 0.18616141
0.23953345 0.03331155 -0.093579985 0.211351 -0.14862576 0.2388439 0.19043192 -0.25862157
-0.0038388302 -0.25919005 -0.1995353 -0.25190586 0.05811916 0.09463981 -0.16017711 0.20336936
0.17945956 0.08263479 -0.010564707 -0.23973514 -0.07596407 0.27126196 0.04757149 -0.06954753
-0.15472075 0.0045260414 -0.1777686 0.2307769 -0.19969036 0.08535608 -0.28024137 0.25830883
-0.09012218 0.02769567 0.18198855 -0.278034 0.24593058 0.05808672 0.09948282 -0.20183763
-0.27912995 -0.23763406 -0.07975192 -0.24960244 -0.05809653 -0.102839604 -0.075923674 -0.24957263
-0.02417078 0.24380632 0.2696788 -0.26814905 0.0023031067 -0.18211795 0.24052195 -0.2278642
0.1360073 -0.078253806 0.2667364 -0.2598568 -0.21170592 0.16815141 0.23003207 0.21590632
0.27258018 0.012085441 0.19408447 0.24828328 0.2152663 -0.02121162 -0.03188919 -0.17630665
-0.21550123 -0.18184362 -0.12751506 0.07677827 -0.08670663 0.25400385 0.20581858 -0.04848312
00000000: 757f 813d a2b9 16be f60e 963d 83ff 0bbe
00000010: 9b4b 04be 601e 413e 4903 4a3e 565a 3f3e
00000020: 0334 133e 5580 ef3d f3ed 8e3d 3880 b53d
00000030: f8a4 81bd 1cfc 373e f222 0dbd 9aed 1f3e
00000040: 493b 693d 206d 98bd 2bdb 2dbe 3f17 243c
00000050: 3695 2fbe 85f2 80be a05a df3d 9856 5abe
00000060: 9975 153e 5b1b 1c3e 3a2a 583e d76f 84be
00000070: 2a37 033e 93f8 443e d127 c23d 4e8f 9ebd
00000080: 65e2 bb3d c123 42bd 1f21 19bd d522 3abe
00000090: 9fd3 8f3d d0fe 113e f6f1 28be 8840 5a3e
000000a0: ae41 d9bc b50f 4bbd be29 eebd 5578 80be
000000b0: bbb6 253e 1261 9bbd ec3e 89be d46a 893e
000000c0: 9a9e 133e ed15 5a3e 8874 07be 8fd6 06be
000000d0: d225 df3d 0306 28be 08d2 55bd 3880 403e
000000e0: c9b4 22bc c971 81be bbff 933b 75f9 a4bd
000000f0: 15e1 48be c6b9 39be 0353 823d 3b78 8c3e
00000100: 1ede 8abe f216 6c3e b240 7cbe 1b81 60be
00000110: 59f4 06be 2e5b dd3d d0f2 583e f4d4 0ebe
00000120: 9a04 5e3e 6fa3 613e 60e7 89be 485a 633e
00000130: 0681 ac3d 696f 373e d8d8 e13d 4392 c1bd
00000140: 88e1 7b3e 6383 7ebe b8cc 743d 6d31 73be
00000150: 87b5 0b3d 09f1 14be 048b 0d3d f692 8b3e
00000160: 9d91 dfbd fd0e a0bd a47c 733e 3d35 2cbe
00000170: 1977 203e 4299 193e 77bb 193e fb50 63bd
00000180: 2f2d 143c dfa9 903e e8f8 b7bd 8995 bbbc
00000190: 1770 d6bd e32e c43d 177b 3f3e 0041 64be
000001a0: a46f 7ebd 44c2 87bd a2ec ac3d 391b a3bd
000001b0: 38f6 17be 30cc 423e 7716 3e3e d93e 103e
000001c0: 514c 0cbe c208 4f3e 60e8 633e 361d 273e
000001d0: 6cea ba3c 3860 2abe 4137 14be 77fc 303e
000001e0: 38a2 50be 5e2a 803e e399 423d cff7 313e
000001f0: 5f56 023e 9f36 e23d ebc6 593d ac2c fb3d
00000200: 04fa 6dbe 1707 503e ec62 6fbe 16d6 39bd
00000210: 09a4 703d 5234 64bd 9b58 223e 8d3e 60be
00000220: c6af 3d3e b0f1 323e c850 74be 7d37 5b3e
00000230: e2dc 3b3e 3d7d 29be 2182 803e b7bc 07bd
00000240: e97a b6bc 99a3 9cbd ecaf 813e eea3 073e
00000250: 4451 483e 8288 dfbd 561a 233e 4ceb 8ebe
00000260: af81 763e e8cb d43c 890d b03d 56a8 843e
00000270: dfcd 383c 025b 7ebe 9fc2 723d 8fe2 0cbe
00000280: 7798 99bd 3ddb 5dbb 29d6 32be 6ace 5f3e
00000290: 2363 ba3c 636c 32be 1797 80be 90b0 c23d
000002a0: ef74 aa3d 06b9 83bd 6350 0fbe 89ec b13d
000002b0: f76b 99bd ca9f 1c3e 569b 1cbe 19a1 3e3e
000002c0: 4248 753e b171 083d dda6 bfbd 666c 583e
000002d0: 5a31 18be 7f93 743e 9600 433e 0c6a 84be
000002e0: e294 7bbb 8fb4 84be fb52 4cbe cef9 80be
000002f0: 5b0e 6e3d 84d2 c13d 7805 24be 0f40 503e
00000300: 3fc4 373e 6e3c a93d 9817 2dbc 217d 75be
00000310: 0d93 9bbd d9e2 8a3e 53da 423d ef6e 8ebd
00000320: 1e6f 1ebe 304f 943b f908 36be c850 6c3e
00000330: a17b 4cbe 2bcf ae3d cc7b 8fbe 0e41 843e
00000340: fa91 b8bd 08e2 e23c 355b 3a3e 795a 8ebe
00000350: 3ad5 7b3e 57ec 6d3d a6bd cb3d 86ae 4ebe
00000360: 1fea 8ebe 5856 73be fa54 a3bd c897 7fbe
00000370: a1f6 6dbd 929d d2bd df7d 9bbd f88f 7fbe
00000380: cd01 c6bc 5da8 793e 5713 8a3e d54a 89be
00000390: b8ef 163b 217d 3abe 634b 763e 3c55 69be
000003a0: 7f45 0b3e 8843 a0bd ac91 883e f30b 85be
000003b0: 70c9 58be e22f 2c3e 878d 6b3e 8c16 5d3e
000003c0: a18f 8b3e 0302 463c 14be 463e f93d 7e3e
000003d0: c56e 5c3e fec3 adbc 3d9e 02bd bb89 34be
000003e0: 5bac 5cbe 3735 3abe 4f93 02be ed3d 9d3d
000003f0: 3f93 b1bd cb0c 823e 1bc2 523e 3c96 46bd

bias f4 [64]
-0.0009999946 -0.0009999973 -0.0009999941 0.0009999924 -0.0009999904 -0.0009999971 -0.0009999938 0.0009999966
0.0009999982 -0.0009999968 0.0009999987 -0.0009999956 -0.000999997 0.0009999963 -0.0009999144 0.0009999981
0.0009999921 0.0009999932 -0.0009999956 -0.000999998 -0.0009999962 -0.0009999977 0.0009999855 0.0009999964
-0.000999988 -0.0009999938 -0.0009999801 -0.0009999983 0.0009999287 0.0009999924 -0.0009999921 -0.000999998
-0.0009999953 -0.0009999987 0.0009999903 -0.0009999971 -0.0009999978 0.0009999935 0.0009999905 0.000999998
-0.000999989 0.000999989 0.0009999926 0.0009999888 0.0009999967 0.0009999982 0.0009999983 0.0009999947
-0.0009999982 0.0009999849 -0.0009999978 -0.0009999861 0.0009999637 0.0009999163 0.0009999806 0.0009999974
-0.0009999959 0.0009999977 0.0009999935 0.000999995 -0.0009999933 0.0009999982 -0.0009999981 0.000999998
00000000: 4012 83ba 5712 83ba 3c12 83ba 2d12 833a
00000010: 1c12 83ba 5612 83ba 3912 83ba 5112 833a
00000020: 5f12 833a 5312 83ba 6312 833a 4912 83ba
00000030: 5512 83ba 4f12 833a 8f0f 83ba 5e12 833a
00000040: 2b12 833a 3412 833a 4912 83ba 5d12 83ba
00000050: 4e12 83ba 5b12 83ba f211 833a 5012 833a
00000060: 0812 83ba 3912 83ba c411 83ba 6012 83ba
00000070: 0a10 833a 2d12 833a 2b12 83ba 5d12 83ba
00000080: 4612 83ba 6312 83ba 1b12 833a 5612 83ba
00000090: 5c12 83ba 3712 833a 1d12 833a 5d12 833a
000000a0: 1012 83ba 1012 833a 2f12 833a 0e12 833a
000000b0: 5212 833a 5f12 833a 6012 833a 4112 833a
000000c0: 5f12 83ba ed11 833a 5c12 83ba f711 83ba
000000d0: 3711 833a a00f 833a c811 833a 5812 833a
000000e0: 4b12 83ba 5b12 833a 3712 833a 4412 833a
000000f0: 3512 83ba 5f12 833a 5e12 83ba 5d12 833a

weight f4 [64, 10]
0.22323611 0.23548731 -0.08992194 -0.18570457 -0.15768741 0.22756702 -0.15417548 -0.19096036
0.16244495 -0.06679489 0.107623324 0.07970214 0.09030332 0.08776899 0.278882 -0.0668462
0.0041008005 -0.008189451 -0.2784781 -0.23185353 0.07394259 -0.07515882 -0.14032423 0.101637445
-0.18945064 0.26091856 -0.065132074 0.11761403 -0.094209746 -0.066119015 0.01746177 -0.07401461
0.06456487 0.09263954 0.18230289 -0.16762242 0.18414937 0.05541978 -0.27568087 0.18992653
0.2814456 -0.27660325 -0.18907155 -0.1921306 0.06518324 0.07862677 -0.04900078 -0.14161125
-0.26396546 0.105984196 -0.21786645 -0.04149674 -0.17548199 0.10621331 0.17586 -0.024360381
-0.10503486 -0.28237998 0.137023 0.010039282 -0.011040811 0.22843754 -0.028861446 0.19743885
-0.09862708 0.035002977 -0.0512528 -0.16473983 -0.048875224 0.2585928 -0.09652588 0.12019802
0.0056514447 0.08800384 -0.2401162 0.14836754 0.27127126 0.13347551 -0.19390415 0.19925961
-0.12413684 0.05521703 0.052236836 -0.1340934 0.25980228 -0.22085544 0.21513708 0.07902924
-0.13116424 0.09763034 0.017246189 -0.03587164 0.018009335 -0.11354431 0.09701415 0.011469606
0.26932094 -0.23513065 -0.037867617 0.038085446 0.16307527 0.26310948 0.14952959 0.107138984
-0.18351123 0.20685594 0.004011276 -0.16875316 0.20376343 0.039924353 0.09025545 -0.25889167
-0.2282826 -0.2440702 -0.08753146 0.018347366 -0.18110453 -0.14380562 -0.19947186 -0.14252865
0.032019727 0.1832284 0.14264293 0.20429794 0.08652494 -0.12299427 0.24158365 -0.13804837
-0.15691337 -0.14634502 -0.027312875 -0.12547208 -0.18967906 0.133709 0.17059737 0.10709636
0.19672148 0.16924177 0.21554829 0.14774168 0.14559169 0.044716317 0.13993001 -0.1408405
-0.20874004 -0.118819475 0.0548153 -0.07070341 -0.10708827 0.09969904 0.21269952 0.16016906
-0.24436861 0.12567663 -0.1351261 0.20583919 0.10533531 0.21012916 -0.19662638 -0.05491368
-0.20573804 0.26604998 -0.09143807 0.15907115 0.21597545 -0.112901405 0.17813954 -0.11873385
-0.26222834 -0.2379384 0.10272228 0.24650595 0.28109354 -0.11163317 -0.15161845 0.25752386
0.22565143 -0.021874914 0.18830565 0.08830144 0.037790567 -0.010771093 0.17037092 -0.263679
-0.15740545 0.26880512 0.21574485 -0.00094551704 0.14151722 -0.22975847 -0.05062484 -0.024553163
-0.13506381 -0.1955856 -0.09464578 0.024761662 0.15847522 -0.19016016 0.023365319 -0.011867074
0.17316331 -0.24523294 0.16364226 -0.21302065 -0.047034692 -0.06664539 -0.16253966 -0.00026770902
-0.12876043 0.20515247 0.22488701 0.05913992 0.20529789 -0.00030429207 0.1739107 -0.1161565
-0.11587106 -0.27361077 0.028999154 -0.26686972 -0.16437575 -0.17598371 0.10265666 0.04608365
0.12611744 -0.2411319 -0.13566858 -0.016421733 -0.18525119 0.21684721 -0.046997737 0.03951773
-0.09842762 0.09485727 -0.1468971 -0.020111535 -0.050168313 0.16117117 -0.2304762 0.07865599
0.2522358 -0.27713916 0.2675417 -0.23662993 -0.26615983 -0.03873656 -0.26307818 0.2434075
-0.2688627 0.014994589 0.016120028 -0.09027201 -0.19422069 -0.1671298 0.07727359 -0.119372524
00000000: 0298 643e 9623 713e fe28 b8bd 5729 3ebe
00000010: cf78 21be 5407 693e 2de0 1dbe 1d8b 43be
00000020: f857 263e c2cb 88bd 9e69 dc3d e03a a33d
00000030: f2f0 b83d 3ac0 b33d 9fc9 8e3e a9e6 88bd
00000040: 0260 863b 0c2d 06bc ae94 8ebe 036b 6dbe
00000050: 366f 973d deec 99bd 28b1 0fbe 4b27 d03d
00000060: 59ff 41be 1e97 853e f763 85bd a0df f03d
00000070: 0af1 c0bd 6869 87bd fc0b 8f3c f994 97bd
00000080: 963a 843d cdb9 bd3d 9cad 3a3e 36a5 2bbe
00000090: a791 3c3e daff 623d 0b26 8dbe 1a7c 423e
000000a0: a319 903e f19e 8dbe f99b 41be e2bd 44be
000000b0: ca7e 853d 1207 a13d 0bb5 48bd 8a02 11be
000000c0: 7b26 87be 3e0e d93d 6218 5fbe 7cf8 29bd
000000d0: 8db1 33be 5d86 d93d a514 343e 6c8f c7bc
000000e0: 841c d7bd 1c94 90be c24f 0c3e cd7b 243c
000000f0: 85e4 34bc 88eb 693e d76e ecbc 692d 4a3e
00000100: fffc c9bd 485f 0f3d 75ee 51bd 8fb1 28be
00000110: 6331 48bd 4766 843e 5caf c5bd 612a f63d
00000120: c12f b93b 5b3b b43d 05e1 75be a9ed 173e
00000130: 11e4 8a3e cead 083e cf8e 46be b60a 4c3e
00000140: 753b febd 412b 623d 4bf6 553d c84f 09be
00000150: ce04 853e ee27 62be e54c 5c3e 15da a13d
00000160: eb4f 06be 6af2 c73d e147 8d3c 24ee 12bd
00000170: 5088 933c eb89 e8bd 5baf c63d 04eb 3b3c
00000180: 6fe4 893e 17c6 70be 131b 1bbd 7cff 1b3d
00000190: 34fd 263e 49b6 863e 491e 193e af6b db3d
000001a0: 5eea 3bbe 0bd2 533e 0671 833b a1cd 2cbe
000001b0: 5ca7 503e b887 233d d9d7 b83d 738d 84be
000001c0: eac2 69be 8aed 79be b243 b3bd 374d 963c
000001d0: 7773 39be c841 13be 5a42 4cbe 08f3 11be
000001e0: 1e27 033d 3aa0 3b3e fd10 123e 7b33 513e
000001f0: fd33 b13d 6be4 fbbd b461 773e 8d5c 0dbe
00000200: e6ad 20be 78db 15be 40bf dfbc c17b 00be
00000210: 3a3b 42be 03eb 083e 14b1 2e3e 5655 db3d
00000220: 5b71 493e b74d 2d3e b1b8 5c3e 9849 173e
00000230: fd15 153e 7528 373d d049 0f3e 7e38 10be
00000240: f3bf 55be a057 f3bd 0286 603d f3cc 90bd
00000250: 1851 dbbd 032f cc3d e7cd 593e 5c03 243e
00000260: c43b 7abe 60b1 003e 7f5e 0abe 82c7 523e
00000270: 0aba d73d 192c 573e 6d58 49be 2bed 60bd
00000280: feac 52be b437 883e e243 bbbd 8ce3 223e
00000290: ab28 5d3e da38 e7bd 366a 363e bc2a f3bd
000002a0: cb42 86be 20a6 73be 0f60 d23d 0e6c 7c3e
000002b0: 7eeb 8f3e ee9f e4bd de41 1bbe 2bda 833e
000002c0: 2b11 673e 0533 b3bc 32d3 403e 63d7 b43d
000002d0: 48ca 1a3d 3d79 30bc b775 2e3e ef00 87be
000002e0: e52e 21be d3a0 893e 38ec 5c3e 93dc 77ba
000002f0: e4e9 103e ce45 6bbe fe5b 4fbd b723 c9bc
00000300: 2b4e 0abe 9747 48be a6d5 c1bd f8d8 ca3c
00000310: 5447 223e 58b9 42be a068 bf3c 1e6e 42bc
00000320: b951 313e 581e 7bbe d691 273e 1622 5abe
00000330: 73a7 40bd 617d 88bd cc70 26be 4c5b 8cb9
00000340: c6d9 03be 7d13 523e c848 663e b33c 723d
00000350: 9c39 523e 6489 9fb9 a615 323e 76e3 edbd
00000360: ce4d edbd b616 8cbe a28f ed3c 26a3 88be
00000370: 1e52 28be 1335 34be a83d d23d 36c2 3c3d
00000380: ee24 013e 48eb 76be b4ec 0abe df86 86bc
00000390: 7db2 3dbe 320d 5e3e b380 40bd 58dd 213d
000003a0: 6c94 c9bd 8744 c23d 326c 16be f2c0 a4bc
000003b0: 4a7d 4dbd 0e0a 253e f401 6cbe 6416 a13d
000003c0: 0d25 813e 2fe5 8dbe 3afb 883e 1e4f 72be
000003d0: 1a46 88be 3aaa 1ebd 2fb2 86be d13f 793e
000003e0: 5fa8 89be ddab 753c 260e 843c 88e0 b8bd
000003f0: cae1 46be 1324 2bbe 9e41 9e3d 9579 f4bd

bias f4 [64]
0.0009999938 0.000999958 -0.0009999925 0.0009999692 -0.0009999884 -0.0009999934 -0.0009999917 -0.0009999634
-0.0009999932 -0.0009999924 -0.0009999945 0.0009999785 -0.0009999927 -0.0009999909 0.0009999884 0.0009999317
0.000999994 0.0009999846 0.0009999753 0.0009999877 0.0009999907 0.0009999778 -0.0009999879 0.0009987308
0.0009999754 -0.0009999658 0.0009999935 0.0009999466 0.000999989 -0.0009999875 0.0009999902 -0.0009999911
0.000999959 -0.0009999927 0.000999997 -0.0009999668 -0.0009999942 0.000999977 0.0009999954 0.0009999949
-0.0009999909 -0.000999973 0.0009999927 -0.0009999479 0.0009997964 0.0009999947 0.000999977 0.000999927
0.0009999243 0.0009994888 0.0009999498 0.0009999573 -0.0009999868 -0.0009999777 -0.0009999648 -0.0009999868
-0.0009999934 -0.0009999942 -0.0009999783 0.0009993379 0.0009999805 -0.0009999839 0.0009999935 0.000999927
00000000: 3912 833a 0611 833a 2e12 83ba 6611 833a
00000010: 0b12 83ba 3612 83ba 2712 83ba 3411 83ba
00000020: 3412 83ba 2d12 83ba 3f12 83ba b611 833a
00000030: 3012 83ba 2012 83ba 0b12 833a 2410 833a
00000040: 3b12 833a ea11 833a 9a11 833a 0512 833a
00000050: 1f12 833a b011 833a 0712 83ba d8e7 823a
00000060: 9b11 833a 4911 83ba 3712 833a a410 833a
00000070: 1012 833a 0312 83ba 1a12 833a 2212 83ba
00000080: 0e11 833a 3012 83ba 5512 833a 5111 83ba
00000090: 3d12 83ba a911 833a 4712 833a 4312 833a
000000a0: 2012 83ba 8711 83ba 3012 833a af10 83ba
000000b0: 9a0b 833a 4112 833a a911 833a fc0f 833a
000000c0: e40f 833a 4701 833a bf10 833a 0011 833a
000000d0: fd11 83ba af11 83ba 4011 83ba fd11 83ba
000000e0: 3612 83ba 3d12 83ba b411 83ba 37fc 823a
000000f0: c711 833a e411 83ba 3712 833a fc0f 833a

in_proj_weight f4 [192, 64]
0.013547454 0.024463253 0.122555025 0.0147321215 0.104444265 0.10267458 -0.012109025 0.120626755
-0.13936594 0.12480753 0.12350209 0.09916306 0.020259902 0.13022149 -0.015568775 -0.109326
-0.11344603 0.089704655 -0.0627688 0.07749039 0.0024900737 -0.08732877 0.13457625 0.10201755
-0.091083206 -0.045866635 -0.13536154 -0.056521393 -0.07217548 0.062203888 -0.03887905 0.11156954
0.08888795 0.11729256 -0.042858962 -0.063882865 0.11420662 -0.09966632 -0.12970714 0.0076763895
-0.0041185594 0.14218442 0.13314085 0.052723955 -0.060199838 0.11639245 -0.14445333 -0.12218773
-0.03109463 0.038097974 0.016876386 -0.030695027 -0.13370349 0.13979998 -0.12060737 -0.0197466
-0.018004548 -0.10991912 0.11594524 -0.066645645 -0.08161245 -0.12400904 -0.02461875 0.14378968
0.067984074 0.14223717 -0.021561913 -0.10072642 0.14218491 0.023708157 -0.04064903 0.10068418
0.12731536 -0.12618668 -0.07060992 0.037715513 -0.03425012 0.032328315 -0.117384955 -0.0033005006
0.07453455 -0.031458847 0.105027124 0.104934685 0.07801735 -0.13366184 0.036423568 0.006643309
0.086481854 0.019256445 -0.010959292 -0.120832145 -0.06440807 -0.11967886 0.08334148 -0.017199788
-0.1195338 0.09095081 0.086219035 -0.089857176 0.024827773 -0.15076432 -0.055523373 -0.049561825
-0.14087161 0.15133536 0.082061015 -0.1221779 -0.08051231 0.0030143692 -0.045611627 0.037728082
-0.017205399 -0.058555536 -0.006609659 0.12252051 0.1127396 0.04544337 -0.12424563 0.09170859
0.12171116 0.10941617 0.10751176 0.11151149 -0.078313336 -0.0053586178 -0.11379391 0.1355812
-0.14316662 0.1266235 -0.12347523 -0.12658143 0.0117732175 0.024352284 -0.016796637 0.028767945
0.033623878 0.029192595 -0.11605852 -0.11107881 -0.093626626 -0.053211473 -0.016561566 0.07625871
0.097528644 0.12202722 -0.03555303 0.025922853 0.054614432 -0.09846969 0.11290342 0.043344475
-0.123485625 -0.11214581 -0.045274362 -0.001387688 -0.082543865 0.15124322 0.15097076 0.064641766
-0.081011385 -0.006654975 0.122817665 0.061972793 0.13275193 0.013346209 0.04893909 -0.006133509
-0.08677588 -0.13431059 -0.06700469 0.009468995 -0.038548812 -0.12235753 0.14032108 -0.041019566
0.07927632 -0.0586162 0.13687311 -0.03347473 0.112899244 0.040364955 -0.07285422 0.06258815
-0.08686943 0.07324599 -0.12605262 -0.056573663 0.121700004 -0.0856765 -0.07478192 0.08232723
-0.11658361 -0.011224905 -0.14318618 0.009214824 -0.047711384 0.14409956 -0.08401801 -0.12499829
0.043810226 -0.04520458 0.060948025 0.12144129 0.107893504 0.07572822 0.055889282 0.0065938104
0.010729828 0.004685433 -0.08761653 0.122649215 0.14138903 -0.035081044 -0.009373164 0.13720225
0.14175366 -0.01459334 0.1109631 -0.012489421 -0.03615439 -0.0011215198 0.05875324 0.027372237
0.08992459 -0.1509091 -0.15141124 -0.005511184 0.08514751 -0.1492824 0.043343462 0.124242485
-0.14940119 -0.027571483 0.0550519 -0.047370654 -0.1153976 -0.1241884 -0.10711528 0.026843008
-0.03284472 0.050784465 0.07004517 0.14304987 -0.09408937 -0.07692288 0.06585576 0.07372657
0.02514539 -0.043740064 0.0878542 -0.14321193 -0.045414977 -0.09348877 0.09346979 -0.023318442
00000000: 24f6 5d3c 2967 c83c 21fe fa3d ff5e 713c
00000010: e0e6 d53d 0d47 d23d ef64 46bc 290b f73d
00000020: f2b5 0ebe 179b ff3d aaee fc3d 0116 cb3d
00000030: 18f8 a53c c858 053e 2d14 7fbc 4fe6 dfbd
00000040: 6456 e8bd 13b7 b73d ee8c 80bd 48b3 9e3d
00000050: 8130 233b 6dd9 b2bd 5bce 093e 94ee d03d
00000060: d589 babd a7de 3bbd 379c 0abe fa82 67bd
00000070: bdd0 93bd 81c9 7e3d a43f 1fbd 927e e43d
00000080: e30a b63d 1537 f03d e18c 2fbd 05d5 82bd
00000090: 29e5 e93d db1d ccbd f3d1 04be 398a fb3b
000000a0: fbf4 86bb cb98 113e 1356 083e 13f5 573d
000000b0: 1b94 76bd 2a5f ee3d 93eb 13be 903d fabd
000000c0: 2aba febc 9f0c 1c3d 5940 8a3c 2374 fbbc
000000d0: 91e9 08be ba27 0f3e ff00 f7bd 9fc3 a1bc
000000e0: 467e 93bc 471d e1bd b374 ed3d 837d 88bd
000000f0: 6e24 a7bd 74f8 fdbd 43ad c9bc 9a3d 133e
00000100: 3c3b 8b3d 9fa6 113e 9ca2 b0bc a749 cebd
00000110: ec98 113e 9c37 c23c 997f 26bd 8233 ce3d
00000120: f55e 023e 1537 01be ef9b 90bd 957b 1a3d
00000130: db49 0cbd b26a 043d 8667 f0bd 364d 58bb
00000140: 92a5 983d feda 00bd 7618 d73d ffe7 d63d
00000150: 8fc7 9f3d a6de 08be e130 153d 1db0 d93b
00000160: 661d b13d b1bf 9d3c 9a8e 33bc d876 f7bd
00000170: 61e8 83bd 311a f5bd f0ae aa3d 92e6 8cbc
00000180: 23ce f4bd 6b44 ba3d 9b93 b03d 0a07 b8bd
00000190: 9d63 cb3c f661 1abe 7a6c 63bd 5701 4bbd
000001a0: a640 10be a8f7 1a3e 9b0f a83d 6838 fabd
000001b0: a3e3 a4bd b98c 453b 42d3 3abd c388 1a3d
000001c0: 56f2 8cbc eed7 6fbd d795 d8bb 08ec fa3d
000001d0: 05e4 e63d d422 3a3d 7e74 febd b7d1 bb3d
000001e0: b343 f93d 9615 e03d 202f dc3d 2360 e43d
000001f0: be62 a0bd 5897 afbb c80c e9bd ccd5 0a3e
00000200: 459a 12be 97a9 013e 95e0 fcbd 909e 01be
00000210: 74e4 403c 717e c73c 1a99 89bc c1aa eb3c
00000220: 31b9 093d 4f25 ef3c 17b0 edbd 4a7d e3bd
00000230: 51bf bfbd 46f4 59bd 1fac 87bc 872d 9c3d
00000240: 19bd c73d 68e9 f93d 0ea0 11bd 2a5c d43c
00000250: 62b3 5f3d 7aaa c9bd e939 e73d fa89 313d
00000260: 08e6 fcbd b4ac e5bd 9c71 39bd 15e3 b5ba
00000270: c20c a9bd 81df 1a3e 1498 1a3e e762 843d
00000280: 4ce9 a5bd fa11 dabb d487 fb3d 2fd7 7d3d
00000290: 1ff0 073e 0faa 5a3c 5b74 483d 9afb c8bb
000002a0: 8db7 b1bd b788 09be c139 89bd d823 1b3c
000002b0: 5ce5 1dbd 9696 fabd 54b0 0f3e 2204 28bd
000002c0: a05b a23d 8a17 70bd 7728 0c3e cc1c 09bd
000002d0: b837 e73d b955 253d 9834 95bd 372e 803d
000002e0: 9ae8 b1bd fe01 963d f013 01be c9b9 67bd
000002f0: da3d f93d 2977 afbd 4327 99bd 2e9b a83d
00000300: 63c3 eebd aae8 37bc 669f 12be c6f9 163c
00000310: 036d 43bd d68e 133e a211 acbd 1aff ffbd
00000320: 5a72 333d 7028 39bd a3a4 793d 36b6 f83d
00000330: 45f7 dc3d 6617 9b3d 29ec 643d e410 d83b
00000340: 29cc 2f3c 4388 993b 4c70 b3bd 832f fb3d
00000350: 49c8 103e 24b1 0fbd e691 19bc bf7e 0c3e
00000360: df27 113e e818 6fbc 9f40 e33d 6ea0 4cbc
00000370: a016 14bd f6ff 92ba 3da7 703d be3b e03c
00000380: 622a b83d ea87 1abe 8c0b 1bbe 2a97 b4bb
00000390: d161 ae3d 7cdd 18be ea88 313d d872 fe3d
000003a0: a0fc 18be 97dd e1bc 1a7e 613d bb07 42bd
000003b0: 9455 ecbd 7d56 febd 425f dbbd dee5 db3c
000003c0: 2f88 06bd 5f03 503d d873 8f3d aa7b 123e
000003d0: edb1 c0bd be89 9dbd 62df 863d f5fd 963d
000003e0: b4fd cd3c c828 33bd e7ec b33d 26a6 12be
000003f0: 0e05 3abd 0a77 bfbd 176d bf3d 5106 bfbc

in_proj_bias f4 [192]
-0.0009974345 0.0009976956 0.0009981438 0.000997439 -0.0009976535 -0.0009891001 0.0009975183 0.0009961083
-0.0009938305 0.0009972737 0.0009984578 0.0009937234 0.0009935374 0.0009957434 0.0009963687 -0.0009967813
0.0009975159 -0.0009984024 0.0009898654 0.0009977119 -0.0009828821 -0.0009921441 -0.0009946391 -0.0009967469
0.0009967737 0.0009977613 0.0009972394 -0.0009970228 0.000996006 -0.0009787047 -0.0009940936 0.0009816517
-0.0009874041 0.0009969478 -0.0009976149 0.00097296125 -0.000998703 0.0009209687 0.0009605333 0.0009946314
-0.0009955014 0.0009971695 -0.000997236 -0.0009970585 0.0009983621 0.0009890764 -0.0009990177 0.0009972948
-0.0009902808 -0.0009977458 0.0009772688 -0.000997956 -0.0009980137 0.000995879 -0.0009934875 0.0009989588
-0.000998678 -0.0009988666 -0.0009984017 0.000995925 -0.0009982948 0.0009973551 -0.0009978027 -0.0009963015
6.192097e-07 -6.962834e-08 -2.4330166e-07 -4.460218e-07 3.1618153e-08 -1.2603335e-06 4.4886144e-07 -1.364056e-07
-7.8382436e-07 5.1156462e-08 -6.163709e-07 -1.390727e-06 -3.863859e-07 -9.3782845e-08 -1.0419899e-06 -1.1864656e-07
-1.98948e-08 -3.835459e-07 3.6934574e-07 3.0686027e-07 2.9841907e-08 -4.2898372e-07 -2.0459444e-07 -1.7902471e-07
4.8435544e-07 1.6197751e-07 2.3406902e-07 3.0686027e-07 -4.8577516e-07 -1.5913623e-07 9.9466085e-08 2.9123768e-07
1.4210835e-09 2.9549844e-07 -1.9184284e-08 -1.6765998e-07 2.6993334e-07 2.855566e-07 -1.02307695e-07 4.3750285e-07
-2.855566e-07 7.4409473e-07 -1.5345367e-07 1.7050118e-07 5.340428e-07 -3.636656e-07 2.1595832e-07 -1.0150447e-06
1.0675155e-06 -5.226861e-07 1.0802778e-06 -1.1979594e-06 1.453077e-06 -3.863859e-07 4.2630745e-08 -1.9323028e-07
6.2488687e-07 -4.2898372e-07 -9.09412e-08 -2.4152618e-07 -6.135323e-07 9.994443e-07 -4.2614394e-07 -2.273685e-08
0.0009999982 -0.0009999363 -0.0009999988 -0.0009999954 0.0009999954 -0.0009999768 -0.0009999942 -0.0009999975
0.0009999957 0.0009999964 -0.0009999953 0.0009996796 0.0009999938 0.0009999727 -0.0009999957 -0.0009999969
-0.0009999735 0.0009999975 0.0009999975 -0.0009999977 -0.0009999934 -0.0009999799 0.0009999971 -0.0009999872
0.0009995631 -0.000999997 0.000999994 0.0009999967 -0.0009998175 -0.0009999946 -0.0009999973 0.0009999777
-0.0009999969 0.0009999919 -0.0009999982 0.0009999917 0.0009999782 -0.0009999962 0.000999996 -0.000999994
-0.0009999967 0.0009999975 0.0009999981 -0.0009999884 -0.000999995 -0.0009999978 0.0009999895 0.0009999959
-0.000999986 0.0009999975 -0.0009999976 -0.0009999947 0.0009999964 0.0009999912 -0.0009999981 -0.0009999959
0.0009999987 0.0009999971 -0.0009999963 -0.0009999964 -0.0009998779 0.0009999967 0.000999997 -0.0009999648
00000000: 59bc 82ba 1cc5 823a 26d4 823a 80bc 823a
00000010: b2c3 82ba b1a4 81ba 29bf 823a d98f 823a
00000020: 6b43 82ba f4b6 823a afde 823a d33f 823a
00000030: 9539 823a 9b83 823a 9698 823a 6ea6 82ba
00000040: 14bf 823a d3dc 82ba 5fbe 813a a8c5 823a
00000050: 0dd4 80ba d50a 82ba 8d5e 82ba 47a5 82ba
00000060: 2da6 823a 50c7 823a cdb5 823a 89ae 82ba
00000070: 6a8c 823a e147 80ba 3f4c 82ba c4aa 803a
00000080: c96b 81ba 04ac 823a 67c2 82ba 530e 7f3a
00000090: e9e6 82ba 2a6d 713a 4ccc 7b3a 4b5e 823a
000000a0: 7c7b 82ba 75b3 823a b0b5 82ba bbaf 82ba
000000b0: 79db 823a e6a3 813a 79f1 82ba a9b7 823a
000000c0: 4fcc 81ba cbc6 82ba b317 803a d9cd 82ba
000000d0: c8cf 82ba 2788 823a e937 82ba 7fef 823a
000000e0: 13e6 82ba 67ec 82ba cddc 82ba b389 823a
000000f0: 37d9 82ba afb9 823a b4c8 82ba 5596 82ba
00000100: c437 2635 9686 95b3 209f 82b4 c574 efb4
00000110: 87cc 0733 bb28 a9b5 0cfb f034 e376 12b4
00000120: 0068 52b5 20b7 5b33 b074 25b5 04a9 bab5
00000130: 7970 cfb4 aa65 c9b3 80da 8bb5 a3ca feb3
00000140: 21e5 aab2 26ea cdb4 7e4a c634 8ebe a434
00000150: 862b 0033 134f e6b4 7eae 5bb4 f039 40b4
00000160: a704 0235 0aec 2d34 6754 7b34 8ebe a434
00000170: 3766 02b5 09df 2ab4 0f9a d533 675b 9c34
00000180: ee4f c330 ffa4 9e34 b0ca a4b2 0606 34b4
00000190: 5beb 9034 9a4e 9934 40b4 dbb3 efe1 ea34
000001a0: 9a4e 99b4 cdbd 4735 06c5 24b4 0213 3734
000001b0: 245b 0f35 d23d c3b4 2ce2 6734 ac3c 88b5
000001c0: 8e47 8f35 b74e 0cb5 10fe 9035 92c9 a0b5
000001d0: 5807 c335 7970 cfb4 0019 3733 bc7a 4fb4
000001e0: e6bd 2735 134f e6b4 744b c3b3 1bab 81b4
000001f0: 9eb1 24b5 a524 8635 c7c8 e4b4 dd4e c3b2
00000200: 5f12 833a 4b10 83ba 6412 83ba 4712 83ba
00000210: 4712 833a a711 83ba 3d12 83ba 5912 83ba
00000220: 4a12 833a 5012 833a 4612 83ba ae07 833a
00000230: 3912 833a 8411 833a 4a12 83ba 5412 83ba
00000240: 8b11 83ba 5912 833a 5912 833a 5b12 83ba
00000250: 3612 83ba c211 83ba 5612 833a 0112 83ba
00000260: c603 833a 5512 83ba 3b12 833a 5212 833a
00000270: 4f0c 83ba 4012 83ba 5712 83ba af11 833a
00000280: 5412 83ba 2912 833a 5f12 83ba 2712 833a
00000290: b311 833a 4e12 83ba 4c12 833a 3b12 83ba
000002a0: 5212 83ba 5912 833a 5e12 833a 0b12 83ba
000002b0: 4412 83ba 5c12 83ba 1412 833a 4b12 833a
000002c0: f611 83ba 5912 833a 5a12 83ba 4112 83ba
000002d0: 5012 833a 2312 833a 5e12 83ba 4b12 83ba
000002e0: 6312 833a 5612 833a 4f12 83ba 5012 83ba
000002f0: 560e 83ba 5212 833a 5512 833a 4011 83ba

weight f4 [64, 64]
-0.20522387 0.15898639 -0.06722148 0.012603021 0.0017099942 0.13363174 0.14654347 -0.07995592
-0.1619294 0.15657796 0.120329 -0.033338193 -0.09728455 -0.16368255 0.151112 -0.037674632
0.16172226 0.084578656 -0.09335848 -0.06970792 -0.18383916 0.08045212 0.10430751 -0.094027184
0.16104719 -0.2117966 0.14843035 -0.0734709 0.13277571 0.07535274 0.15643978 -0.056024294
0.19287328 0.16195323 0.12203464 -0.03994549 0.1892771 0.19916818 -0.03578917 -0.04170639
-0.0038006043 0.059754957 -0.06078999 -0.20086299 -0.19451538 0.17532231 0.19534439 -0.0029098538
0.21128623 -0.21131052 -0.02577274 0.20605874 0.07296822 -0.054265454 0.15536761 0.008233726
0.14283657 -0.04814732 -0.019025883 0.08387208 -0.19159602 -0.20379047 -0.17224154 -0.043161083
0.058943544 0.21421944 -0.14071071 -0.0035921815 -0.06919315 -0.05079423 0.01788292 0.07617022
-0.027309228 0.084316455 0.1800407 -0.06882122 0.2057527 0.2132368 -0.04832079 -0.03634368
0.2011789 -0.1655923 0.097891815 0.09792425 -0.10835831 -0.011743534 0.15933532 0.045715958
0.06874804 -0.13010047 0.031551145 0.05385373 -0.12987505 -0.09950361 0.097206295 -0.16854227
0.060858812 0.1857582 -0.15120512 -0.084871136 -0.041672576 -0.007923397 0.12100762 -0.08123748
-0.019612828 -0.053682227 -0.21429811 0.09517713 0.11307315 -0.034349635 0.11421278 0.18836099
-0.18601753 -0.10342031 0.031076226 0.21002828 0.17312106 0.1474661 -0.06345383 0.12384555
-0.12110918 -0.13396332 0.058889676 0.16332921 0.06516115 -0.1729052 -0.09135977 -0.20987017
-0.17078048 0.18440555 0.05290995 -0.010479284 -0.20833552 0.15021175 -0.07615399 0.10142905
-0.19032574 0.12063368 0.099233046 0.03054343 -0.08956428 -0.1198725 -0.009899205 0.11710512
-0.15286948 0.1780929 0.108357355 0.172984 0.18072823 0.080174185 0.1272384 0.018192543
0.074645445 -0.11390008 -0.08904503 -0.13496675 -0.08483735 -0.15983869 0.08702003 -0.18728107
0.16536725 -0.025177766 0.2032888 -0.04079202 0.11219665 0.09977356 -0.12807477 -0.009415974
0.13321191 0.010850146 -0.09414647 0.0005040588 0.20812078 0.1651193 -0.02377001 0.039805595
0.01004142 -0.13090202 0.14732127 -0.00790807 -0.012825312 0.1942527 0.16233791 0.0769268
-0.02801633 -0.08244266 -0.082711615 -0.110562876 -0.12507948 -0.18338487 0.02792082 0.16840044
0.0010653547 -0.050131954 -0.16099653 -0.016794458 0.13147333 -0.16623816 -0.009505969 0.11630259
0.21273908 -0.005171596 -0.10538502 0.03266135 0.016014576 -0.091752075 -0.1478633 -0.17741936
0.09693345 0.030375244 0.09806028 -0.14284629 0.04679366 0.038218025 -0.11054153 0.08880688
-0.04926208 -0.17049178 -0.020661676 0.09884539 -0.1997288 0.087347604 -0.13202095 -0.090425625
0.13460393 0.1631099 0.15153447 0.13221468 0.12599316 -0.10261202 -0.20357865 -0.016566122
0.11207124 0.12619542 -0.14515696 0.04805342 0.09861169 -0.078588925 0.09274842 -0.057810113
0.056405704 -0.123242155 -0.12167273 -0.1465591 0.0463208 -0.16798355 -0.14301471 -0.13054442
0.080859244 -0.033508528 0.040808294 0.07670613 -0.045591492 -0.08430876 0.13842581 -0.14091384
00000000: 3526 52be 54cd 223e 6aab 89bd e77c 4e3c
00000010: e221 e03a c2d6 083e 7e0f 163e eebf a3bd
00000020: d2d0 25be f955 203e 0d6f f63d a18d 08bd
00000030: 1f3d c7bd 669c 27be 1bbd 1a3e b750 1abd
00000040: 859a 253e 9337 ad3d bb32 bfbd 07c3 8ebd
00000050: 5540 3cbe 15c4 a43d 2d9f d53d 5391 c0bd
00000060: 8ee9 243e 35e1 58be 20fe 173e e977 96bd
00000070: 5bf6 073e 8a52 9a3d c031 203e bb79 65bd
00000080: 9380 453e 11d7 253e 4ced f93d e29d 23bd
00000090: dbd1 413e bef2 4b3e aa97 12bd 52d4 2abd
000000a0: 8f13 79bb 9dc1 743d edfe 78bd 07af 4dbe
000000b0: 0a2f 47be b187 333e 5c08 483e 3fb3 3ebb
000000c0: 6b5b 583e c961 58be 5a21 d3bc 1001 533e
000000d0: 5d70 953d 7445 5ebd b018 1f3e c0e6 063c
000000e0: c043 123e 2036 45bd 2bdc 9bbc 20c5 ab3d
000000f0: bf31 44be 73ae 50be 1660 30be adc9 30bd
00000100: c96e 713d 575c 5b3e 7816 10be ce6a 6bbb
00000110: 23b5 8dbd 9c0d 50bd 347f 923c 22ff 9b3d
00000120: 9ab7 dfbc 1bae ac3d 975c 383e 24f2 8cbd
00000130: d6b0 523e bf5a 5a3e 05ec 45bd 1cdd 14bd
00000140: d701 4e3e 0791 29be 817b c83d 828c c83d
00000150: f6ea ddbd f467 40bc cc28 233e a840 3b3d
00000160: c6cb 8c3d 0f39 05be c63b 013d bb95 5c3d
00000170: f7fd 04be 8cc8 cbbd 1814 c73d 5896 2cbe
00000180: 1747 793d 6637 3e3e 84d5 1abe ebd0 adbd
00000190: ddb0 2abd 23d1 01bc d8d2 f73d d65f a6bd
000001a0: 15ab a0bc e5e1 5bbd f770 5bbe 3aec c23d
000001b0: e592 e73d 34b2 0cbd 64e8 e93d b4e1 403e
000001c0: 617b 3ebe 07ce d3bd 9293 fe3c a711 573e
000001d0: a646 313e 5a01 173e 15f4 81bd bca2 fd3d
000001e0: 1708 f8bd ae2d 09be 4d36 713d c63f 273e
000001f0: 3673 853d 100e 31be d51a bbbd 35e8 56be
00000200: 14e1 2ebe cfd4 3c3e 1bb8 583d 4eb1 2bbc
00000210: e855 55be 1cd1 193e a0f6 9bbd 09ba cf3d
00000220: c0e4 42be ca0e f73d b23a cb3d 3736 fa3c
00000230: 7a6d b7bd b77f f5bd 4630 22bc cfd4 ef3d
00000240: d189 1cbe fc5d 363e 76ea dd3d b822 313e
00000250: d210 393e 5d32 a43d c84a 023e 8708 953c
00000260: b6df 983d 7244 e9bd 3e5d b6bd b934 0abe
00000270: 34bf adbd c1ac 23be 8f37 b23d 9cc6 3fbe
00000280: 0856 293e 9a41 cebc f02a 503e 8815 27bd
00000290: 5bc7 e53d 1556 cc3d 0826 03be 7545 1abc
000002a0: b468 083e d0c4 313c ddcf c0bd d022 043a
000002b0: 9d1d 553e 0915 293e 53b9 c2bc 310b 233d
000002c0: c584 243c 2e0b 06be 63db 163e da90 01bc
000002d0: 4221 52bc 2eea 463e e93b 263e cc8b 9d3d
000002e0: 8182 e5bc b3d7 a8bd b564 a9bd ca6e e2bd
000002f0: d614 00be 3ec9 3bbe 34ba e43c 2a71 2c3e
00000300: 5fa3 8b3a 2a57 4dbd 46dc 24be 8894 89bc
00000310: f2a0 063e 563a 2abe ecbe 1bbc 0d30 ee3d
00000320: 46d8 593e 7e76 a9bb 1ad4 d7bd e8c7 053d
00000330: 0031 833c 83e8 bbbd 7a69 17be 6cad 35be
00000340: 0b85 c63d 81d5 f83c d4d3 c83d 4c46 12be
00000350: b5aa 3f3d 818a 1c3d 9963 e2bd 62e0 b53d
00000360: 09c7 49bd 6695 2ebe ad42 a9bc 746f ca3d
00000370: b585 4cbe 4de3 b23d 8030 07be 1231 b9bd
00000380: 9dd5 093e 4806 273e da2b 1b3e 4963 073e
00000390: 5a04 013e 4026 d2bd ec76 50be adb5 87bc
000003a0: 9b85 e53d 5f39 013e 07a4 14be aad3 443d
000003b0: edf4 c93d 3bf3 a0bd e2f2 bd3d 4cca 6cbd
000003c0: ab09 673d 6266 fcbd 8d2f f9bd 9713 16be
000003d0: e1ba 3d3d e103 2cbe 7372 12be 70ad 05be
000003e0: 8899 a53d 3d40 09bd 9926 273d 1a18 9d3d
000003f0: 25be 3abd 12aa acbd 7fbf 0d3e b84b 10be

bias f4 [64]
-0.000999982 -0.0009999962 -0.0009999982 0.0009999963 -0.0009999926 -0.0009999961 -0.0009999947 -0.0009999956
0.0009999978 -0.0009999983 0.0009999969 -0.000999992 -0.0009999969 0.0009999957 0.0009999969 0.0009999978
0.0009999934 0.0009999946 -0.0009999948 -0.0009999957 0.0009999868 -0.000999998 0.0009999926 0.0009999333
0.0009999915 -0.000999994 0.0009998358 -0.0009999976 0.0009999926 0.0009999924 -0.0009999902 -0.0009999976
-0.0009999948 -0.0009999985 0.0009999961 -0.0009999983 -0.0009999971 -0.0009999883 0.0009999888 0.000999995
-0.0009999925 0.0009999751 -0.0009999974 0.0009999857 0.0009999974 0.0009999982 -0.0009998461 -0.0009999645
-0.0009999963 -0.0009999886 -0.0009999954 0.0009999969 0.0009999978 0.0009999966 0.0009999815 0.0009999977
-0.000999996 -0.0009999932 0.0009999967 0.0009999975 -0.0009999498 0.0009999984 -0.000999996 0.0009999948
00000000: d411 83ba 4e12 83ba 5f12 83ba 4f12 833a
00000010: 2f12 83ba 4d12 83ba 4112 83ba 4912 83ba
00000020: 5c12 833a 6012 83ba 5412 833a 2a12 83ba
00000030: 5412 83ba 4a12 833a 5412 833a 5c12 833a
00000040: 3612 833a 4012 833a 4212 83ba 4a12 83ba
00000050: fd11 833a 5d12 83ba 2f12 833a 3210 833a
00000060: 2612 833a 3b12 83ba ec0c 833a 5a12 83ba
00000070: 2f12 833a 2d12 833a 1a12 83ba 5a12 83ba
00000080: 4212 83ba 6212 83ba 4d12 833a 6012 83ba
00000090: 5612 83ba 0a12 83ba 0e12 833a 4412 833a
000000a0: 2e12 83ba 9911 833a 5812 83ba f411 833a
000000b0: 5812 833a 5f12 833a 450d 83ba 3e11 83ba
000000c0: 4f12 83ba 0d12 83ba 4712 83ba 5412 833a
000000d0: 5c12 833a 5112 833a d011 833a 5b12 833a
000000e0: 4c12 83ba 3412 83ba 5212 833a 5912 833a
000000f0: bf10 83ba 6112 833a 4c12 83ba 4212 833a

weight f4 [256, 64]
0.07108982 -0.074695185 -0.02423121 -0.017123017 0.09410614 0.041923895 0.11765292 -0.07319457
0.08375432 -0.09808707 -0.03718584 -0.07263122 0.08121189 0.026159234 0.06377616 0.014071345
-0.116048835 -0.109141104 0.10727344 -0.032836646 0.12516063 0.059662342 -0.0756717 -0.08159827
-0.11981779 0.091344446 0.010943703 0.038150612 0.119367294 -0.10728505 0.024049817 -0.019955657
0.028713657 -0.1090391 0.09470547 0.13292523 -0.09461523 -0.12584455 -0.08617536 0.0842093
0.011183406 0.03870641 0.033548906 -0.0928668 0.078500785 0.055573642 -0.10309246 -0.01945174
-0.00324547 0.04998481 -0.052477073 0.11063703 -0.026912611 -0.12443526 0.052399293 -0.010224487
0.095251575 0.12358071 0.012941391 -0.0130903 0.104332924 0.00031121916 -0.11942794 0.0334241
0.09252562 0.115927435 -0.081544474 0.07201509 0.067083806 0.12017923 -0.064630814 0.111474395
-0.06346002 0.03367948 -0.03241352 -0.09403717 0.020039672 -0.023460818 -0.018700104 -0.07514765
0.03142298 -0.09793105 0.13539323 0.019567877 0.018936958 -0.0912083 -0.068296075 -0.13702145
-0.055711854 -0.032797694 -0.024114527 -0.0032723262 -0.08609406 -0.107339874 0.035870496 -0.006067954
0.0010901141 -0.02312355 0.12827513 0.0014992326 -0.0012858021 0.07009321 -0.055088095 0.11876299
-0.054398336 0.098631695 -0.10111914 0.041983016 -0.098864555 0.09508226 -0.0891208 -0.013275418
0.09061628 -0.082216665 -0.069472596 -0.11812227 -0.034160525 0.032047935 -0.028007109 -0.09178884
-0.039033614 -0.11035966 -0.040373232 -0.004934127 -0.046133664 -0.05147056 0.066433415 0.060959723
-0.114438444 0.10849903 -0.025416812 -0.03493918 -0.09789841 -0.022274775 0.09508748 -0.08389144
0.06622961 -0.07511873 0.04263106 0.054193165 -0.12807667 0.08645096 0.12194556 0.06759862
0.07272894 -0.043218516 -0.12296564 -0.081344716 -0.10988119 -0.07196182 0.0942203 -0.10504164
0.11932418 -0.09608594 0.08951617 0.11913006 0.05798493 0.10254138 -0.10726804 -0.106211565
-0.11312178 -0.1022473 0.10541085 0.010780489 -0.04496633 0.06528503 0.08345965 0.0052248747
-0.06512787 0.037686683 -0.0796823 -0.1311077 -0.07881729 -0.0740294 -0.030373901 0.1218107
-0.020192945 0.10362292 0.12978682 -0.08963685 0.072000064 -0.004748286 -0.0060344986 -0.038268287
-0.13475479 -0.123105794 0.082925856 -0.09264561 0.04398054 0.098426856 -0.09610597 -0.12681739
-0.06196632 0.07605561 -0.12726939 0.0071815844 -0.07754401 0.023938918 -0.0135043515 -0.1261648
0.04168411 -0.12301635 0.09036694 -0.07599364 0.0069821826 -0.10463154 -0.10343249 0.005626437
0.045152757 -0.032198913 0.05037908 0.007126684 0.09823034 -0.09793925 0.079995975 -0.10476165
0.06555921 -0.058881983 0.07905479 -0.06324176 0.052806724 -0.05988436 -0.028858164 0.018318506
0.02439941 0.03857365 -0.113268465 0.085251495 -0.009116447 -0.024076259 0.05329976 -0.028228145
0.10884181 -0.09317191 0.023368612 -0.111587666 -0.06444675 -0.07435237 -0.10451731 0.03871513
-0.009793378 0.07695682 -0.05855827 -0.12981722 -0.12465851 0.06907002 -0.089321576 0.0043860627
0.06119985 -0.09228908 0.0107693 -0.13146198 0.11142453 -0.022484276 0.118002 0.06225018
00000000: 8a97 913d caf9 98bd 8880 c6bc 9245 8cbc
00000010: b8ba c03d 64b8 2b3d 04f4 f03d 09e7 95bd
00000020: 6387 ab3d e0e1 c8bd 2e50 18bd adbf 94bd
00000030: 6b52 a63d e44b d63c 139d 823d 808b 663c
00000040: 03ab edbd 5f85 dfbd 2db2 db3d b87f 06bd
00000050: 1c2a 003e 8060 743d c4f9 9abd fe1c a7bd
00000060: 0863 f5bd cc12 bb3d 384d 333c d143 1c3d
00000070: d776 f43d 44b8 dbbd 1f04 c53c 0c7a a3bc
00000080: e738 eb3c e44f dfbd f1f4 c13d 8d1d 083e
00000090: a1c5 c1bd 65dd 00be b57c b0bd ed75 ac3d
000000a0: 9b3a 373c 9d8a 1e3d 946a 093d f330 bebd
000000b0: 05c5 a03d 30a1 633d 2422 d3bd 4159 9fbc
000000c0: f4b1 54bb dfbc 4c3d 33f2 56bd ab95 e23d
000000d0: d677 dcbc ead7 febd a4a0 563d 9b84 27bc
000000e0: 4213 c33d e217 fd3d 2108 543c b378 56bc
000000f0: 80ac d53d 212b a339 a396 f4bd b6e7 083d
00000100: 127e bd3d 5d6b ed3d ca00 a7bd a67c 933d
00000110: 3c63 893d 8720 f63d 295d 84bd b04c e43d
00000120: 54f7 81bd 7ff3 093d 0ac4 04bd 8f96 c0bd
00000130: 3d2a a43c e730 c0bc f630 99bc 03e7 99bd
00000140: 62b5 003d 1390 c8bd 86a4 0a3e d04c a03c
00000150: ae21 9b3c 6bcb babd d0de 8bbd 5a4f 0cbe
00000160: 1d32 64bd e056 06bd d48b c5bc 8674 56bb
00000170: 1552 b0bd 02d5 dbbd f1ec 123d b0d5 c6bb
00000180: 29e2 8e3a 996d bdbc 8e5a 033e e681 c43a
00000190: 5c88 a8ba 078d 8f3d 0ea4 61bd 033a f33d
000001a0: cad0 5ebd 6aff c93d 8d17 cfbd 62f6 2b3d
000001b0: 8079 cabd 7dba c23d f784 b6bd 2481 59bc
000001c0: 0795 b93d 3661 a8bd a647 8ebd 17ea f1bd
000001d0: e8eb 0bbd b244 033d 2a6f e5bc cafb bbbd
000001e0: b6e1 1fbd 3f04 e2bd 675e 25bd 75ae a1bb
000001f0: a7f6 3cbd cbd2 52bd 3e0e 883d e7b0 793d
00000200: b45e eabd bd34 de3d eb36 d0bc 631c 0fbd
00000210: f67e c8bd 9779 b6bc 3abd c23d 46cf abbd
00000220: 64a3 873d d9d7 99bd e89d 2e3d a7f9 5d3d
00000230: 8826 03be 330d b13d 98be f93d 2571 8a3d
00000240: e9f2 943d e605 31bd 69d5 fbbd 0f98 a6bd
00000250: 6409 e1bd b860 93bd 93f6 c03d 1220 d7bd
00000260: 3c60 f43d b5c8 c4bd 4154 b73d 76fa f33d
00000270: 9b81 6d3d 3701 d23d 59af dbbd 7385 d9bd
00000280: 64ac e7bd 0867 d1bd a5e1 d73d a6a0 303c
00000290: 9d2e 38bd 28b4 853d e5ec aa3d 6d35 ab3b
000002a0: c361 85bd 5a5d 1a3d 7930 a3bd 1941 06be
000002b0: f66a a1bd ba9c 97bd b0d2 f8bc e377 f93d
000002c0: ad6b a5bc 4138 d43d d6e6 043e 8693 b7bd
000002d0: c574 933d 8397 9bbb 0bbd c5bb 35bf 1cbd
000002e0: 29fd 09be e41e fcbd 08d5 a93d fbbc bdbd
000002f0: f024 343d 0594 c93d 35d3 c4bd 6bdc 01be
00000300: 65d0 7dbd 0bc3 9b3d e852 02be 7f53 eb3b
00000310: 65cf 9ebd 8d1b c43c 5b41 5dbc 5831 01be
00000320: f5bc 2a3d ffef fbbd 4d12 b93d 8ea2 9bbd
00000330: cbca e43b 1049 d6bd 6ad4 d3bd f95d b83b
00000340: 19f2 383d 02e3 03bd 4b5a 4e3d f586 e93b
00000350: fd2c c93d 6094 c8bd eed4 a33d 478d d6bd
00000360: e843 863d 3c2e 71bd 7ae7 a13d e584 81bd
00000370: dd4b 583d 4d49 75bd f567 ecbc b110 963c
00000380: 45e1 c73c 67ff 1d3d 4cf9 e7bd 5698 ae3d
00000390: 265d 15bc 933b c5bc d950 5a3d b63e e7bc
000003a0: 74e8 de3d ead0 bebd 886f bf3c 1388 e4bd
000003b0: a8fc 83bd 0e46 98bd 2c0d d6bd c293 1e3d
000003c0: 6874 20bc 8a9b 9d3d ccda 6fbd ceee 04be
000003d0: f64c ffbd 9574 8d3d 3bee b6bd f6b8 8f3b
000003e0: b2ac 7a3d 0f02 bdbd b871 303c f89d 06be
000003f0: 8b32 e43d f230 b8bc 08ab f13d 0bfa 7e3d

bias f4 [256]
-0.0009999467 0.0009999466 0.0009999446 0.0009995574 0.0009998642 0.0009999519 0.0009999421 -0.0009983969
0.0009999432 0.0009999545 -0.0009999658 0.0009999528 -0.0009998571 0.0009999785 0.0009999408 -0.0009999503
0.0009999855 -0.0009997069 -0.0009981114 -0.0009978613 0.0009999907 -0.0009999388 0.0009998868 0.0009999458
-0.0009999602 0.0009996878 0.0009999844 0.0009999822 -0.0009999088 0.0009998039 -0.0009999275 0.0009999742
-0.0009998282 0.0009999622 0.000999981 0.0009999588 -0.0009999913 -0.0009998481 0.0009999655 0.0009995279
0.0009999907 -0.000999837 0.0009999736 0.0009999432 -0.000999964 -0.00099996 -0.0009998716 -0.0009999427
0.0009999746 -0.0009999572 -0.0009999654 -0.0009997763 0.0009999219 -0.0009998203 -0.000999933 0.0009999434
-0.00099953 -0.000999933 0.0009999383 0.0009999594 0.0009996707 -0.0009999714 -0.0009997787 -0.0009999515
-0.0009999581 -0.0009999153 -0.0009999629 0.0009999474 -0.000999963 0.0009999921 -0.000999991 0.0009978334
0.000999946 0.0009998874 0.0009999458 0.0009999701 0.0009998478 0.0009999421 0.0009999393 0.0
-0.0009999726 -0.0009998239 0.0009999557 0.0009996351 -0.0009999695 -0.0009997676 -0.0009999698 0.0009998201
-0.0009999549 -0.0009999222 0.0009999536 0.0009999849 0.0009999792 0.0009999853 -0.0009999522 0.0009996991
0.0009999133 -0.000999947 0.0009994236 -0.000999832 0.0009999743 0.0009931999 0.0009999919 0.0009999643
0.000999854 0.0009999793 -0.0009999586 -0.0009999853 0.0009995662 0.0009999714 -0.0009997768 0.0009999762
-0.0009999807 -0.0009999754 -0.0009998879 0.000999271 0.0009999203 0.0009999126 0.0 -0.0009998571
0.0009998594 -0.0009999572 0.0009997676 0.0009998819 0.0009999325 -0.0009999106 0.0009999701 0.0009999607
0.0009999851 -0.0009999363 0.0009997914 0.0009993645 -0.0009998955 0.0009989478 0.0009999293 -0.0009999732
0.0009999339 0.0009999786 -0.0009999343 0.0009997698 -0.0009999532 0.0009999897 0.0009999637 -0.0009998332
-0.0009998181 -0.000999948 -0.000999663 -0.0009999722 -0.0009997042 0.0009993851 -0.000999972 0.000999978
-0.0009999647 0.0009997812 0.000999956 -0.000999859 -0.0009999824 0.0009999841 -0.000999863 0.0009999388
0.0 -0.0009999676 -0.0009999428 0.0009999257 -0.0009999692 -0.0009993804 0.0009999741 0.0009999846
0.0009999102 0.0009979856 0.0009999556 -0.0009999208 -0.0009875733 0.0009998946 0.0009998974 -0.0009999711
0.0009999832 -0.0009999754 0.0009998874 -0.0009996669 0.0 -0.0009999509 -0.0009999276 0.0009998715
-0.0009999833 -0.0009998523 0.0009998855 -0.0009999791 -0.0009999457 0.0009999134 -0.0009999485 0.0009999791
-0.0009999825 -0.0009999846 -0.0009998792 0.0009998499 -0.0009999551 0.0009999748 -0.0009999592 -0.0009999712
-0.000999899 -0.0009998401 -0.0009999663 0.0009996911 -0.0009999858 -0.0009999344 -0.0009998454 -0.0009999704
-0.0009999726 0.0009999021 0.0009999647 0.0009995918 -0.0009998365 -0.0009999137 0.000999834 0.0009999692
-0.0009997459 -0.0009999565 0.0009999562 0.0009999796 -0.000999983 0.0009999055 -0.0009999219 -0.0009999704
-0.0009999629 -0.0009999826 0.0009999687 -0.000999223 0.0009999698 -0.0009999337 0.0009998988 0.0009999607
0.0009999307 -0.000999983 0.0009997946 -0.000999981 -0.0009997165 0.0009999179 0.0009999754 -0.0009998564
-0.0009999184 0.0 -0.0009999555 0.0009999431 0.000999983 0.0009998231 -0.0009999479 0.0009998686
0.0009999797 0.0009996889 0.0009998418 0.0009999583 0.0009999775 0.0009999749 -0.0009999722 -0.0009999402
00000000: a510 83ba a410 833a 9310 833a 9503 833a
00000010: e00d 833a d110 833a 7d10 833a a4dc 82ba
00000020: 8710 833a e810 833a 4911 83ba d910 833a
00000030: a30d 83ba b611 833a 7210 833a c410 83ba
00000040: f211 833a 9908 83ba 10d3 82ba abca 82ba
00000050: 1f12 833a 6110 83ba a20e 833a 9d10 833a
00000060: 1911 83ba f507 833a e911 833a d611 833a
00000070: 5f0f 83ba da0b 833a 0010 83ba 9111 833a
00000080: ab0c 83ba 2a11 833a cb11 833a 0d11 833a
00000090: 2412 83ba 560d 83ba 4611 833a 9702 833a
000000a0: 1f12 833a f60c 83ba 8c11 833a 8710 833a
000000b0: 3911 83ba 1711 83ba 200e 83ba 8210 83ba
000000c0: 9411 833a ff10 83ba 4511 83ba ed0a 83ba
000000d0: d00f 833a 670c 83ba 2f10 83ba 8810 833a
000000e0: a902 83ba 2f10 83ba 5d10 833a 1211 833a
000000f0: 6207 833a 7911 83ba 020b 83ba ce10 83ba
00000100: 0711 83ba 970f 83ba 3011 83ba ab10 833a
00000110: 3111 83ba 2b12 833a 2112 83ba bcc9 823a
00000120: 9f10 833a a70e 833a 9d10 833a 6e11 833a
00000130: 530d 833a 7d10 833a 6510 833a 0000 0000
00000140: 8311 83ba 860c 83ba f210 833a 3006 833a
00000150: 6911 83ba a20a 83ba 6b11 83ba 650c 833a
00000160: eb10 83ba d20f 83ba e010 833a ed11 833a
00000170: bc11 833a f011 833a d410 83ba 5608 833a
00000180: 860f 833a a710 83ba 17ff 823a cb0c 83ba
00000190: 9211 833a 422e 823a 2912 833a 3c11 833a
000001a0: 880d 833a bd11 833a 0b11 83ba f011 83ba
000001b0: e003 833a 7911 833a f10a 83ba a211 833a
000001c0: c911 83ba 9b11 83ba ac0e 83ba f9f9 823a
000001d0: c20f 833a 800f 833a 0000 0000 a30d 83ba
000001e0: b70d 833a ff10 83ba a20a 833a 780e 833a
000001f0: 2b10 833a 6f0f 83ba 6e11 833a 1d11 833a
00000200: ef11 833a 4b10 83ba 6f0b 833a 1cfd 823a
00000210: ed0e 83ba 20ef 823a 0f10 833a 8811 83ba
00000220: 3710 833a b711 833a 3a10 83ba b50a 833a
00000230: dd10 83ba 1612 833a 3711 833a d60c 83ba
00000240: 540c 83ba b010 83ba 2007 83ba 8011 83ba
00000250: 8208 83ba cdfd 823a 7e11 83ba b211 833a
00000260: 3f11 83ba 170b 833a f510 833a b30d 83ba
00000270: d711 83ba e611 833a d60d 83ba 6110 833a
00000280: 0000 0000 5811 83ba 8310 83ba f00f 833a
00000290: 6611 83ba a4fd 82ba 9011 833a ea11 833a
000002a0: 6b0f 833a d7ce 823a f110 833a c60f 83ba
000002b0: 7671 81ba e50e 833a fd0e 833a 7611 83ba
000002c0: de11 833a 9b11 83ba a70e 833a 4107 83ba
000002d0: 0000 0000 c910 83ba 0110 83ba 1f0e 833a
000002e0: df11 83ba 7a0d 83ba 970e 833a bb11 83ba
000002f0: 9c10 83ba 870f 833a b410 83ba bb11 833a
00000300: d811 83ba ea11 83ba 610e 83ba 650d 833a
00000310: ed10 83ba 9611 833a 1011 83ba 7711 83ba
00000320: 0b0f 83ba 110d 83ba 4d11 83ba 1108 833a
00000330: f511 83ba 3b10 83ba 3f0d 83ba 7011 83ba
00000340: 8311 83ba 260f 833a 3f11 833a bc04 833a
00000350: f20c 83ba 890f 83ba dd0c 833a 6611 833a
00000360: e809 83ba f910 83ba f610 833a bf11 833a
00000370: dd11 83ba 430f 833a d00f 83ba 7011 83ba
00000380: 3011 83ba d911 83ba 6211 833a 5cf8 82ba
00000390: 6b11 833a 3510 83ba 090f 833a 1d11 833a
000003a0: 1b10 833a dd11 83ba 8a0b 833a cb11 83ba
000003b0: eb08 83ba ad0f 833a 9b11 833a 9d0d 83ba
000003c0: b20f 83ba 0000 0000 f010 83ba 8610 833a
000003d0: dd11 833a 7f0c 833a af10 83ba 060e 833a
000003e0: c011 833a fe07 833a 200d 833a 0811 833a
000003f0: ad11 833a 9711 833a 8011 83ba 6d10 83ba
