CNP-model-save-name/saved_models/model_0.pth.pth.tar (torch, 949895 bytes, 40 tensors)

_deterministic_encoder.lstm.weight_ih_l0 f4 [256, 2]
0.03825899 0.056693126 -0.090073965 -0.122047424 -0.09518499 -0.14494935 -0.14451401 0.10682701
-0.084449455 0.0018498838 -0.046624642 0.10689372 -0.11080827 0.10463351 -0.11776709 -0.09386101
0.09458231 0.048386447 -0.041549794 -0.10246685 -0.08925301 0.04988338 0.053800806 -0.12306428
0.10239561 0.078624226 0.1285971 0.015236099 0.015193796 -0.043810003 -0.14547719 0.07713729
0.020250736 0.14403498 0.050312683 -0.056890026 0.087911725 0.12513393 0.13735946 -0.10339666
-0.03825537 0.061695073 0.11322675 0.07648446 0.030362723 0.09947989 -0.09967148 -0.07799584
0.05916801 -0.05387485 -0.1440823 -0.11804541 -0.114322536 0.111320056 0.08050623 0.11632207
0.10029992 0.06236165 -0.14094472 0.13720559 -0.033896696 0.07528295 -0.0793405 -0.06899406
-0.083243206 -0.013028193 0.044303697 0.1000765 0.117831044 0.10117156 0.03929095 -0.11309591
0.09684041 0.10924047 -0.12733491 -0.0528969 -0.12307046 0.07213114 0.061923604 -0.10848203
-0.13635251 0.071138024 0.1260687 -0.14912705 0.02223869 -0.14893404 -0.13242337 0.09809071
0.09831265 -0.020117082 -0.052888863 0.07225902 -0.05670905 -0.0049611162 0.12398775 0.027681757
0.054098055 0.11655416 0.13155514 -0.014207954 -0.14785409 -0.087168835 -0.0838196 0.11327788
0.028767949 -0.06708647 -0.08213191 0.11271555 -0.104589894 0.08114539 -0.059061553 -0.12654282
-0.07762218 -0.04238693 0.0914539 -0.1234727 -0.11556667 0.112104416 -0.053835113 -0.12855013
0.07129553 -0.078371696 0.07842549 0.0696284 -0.14933619 0.12764564 0.0732618 -0.05123808
-0.03905257 0.11972861 -0.074965924 -0.072482474 -0.09631954 0.13158765 0.033786766 0.0820489
0.09564934 -0.0015562526 0.08748488 0.022478184 0.04108768 0.13100325 -0.12515622 -0.060581576
0.15001236 -0.13298951 -0.12663917 0.09800895 0.053346 0.140513 -0.12427838 0.020978104
-0.062134646 0.010578013 -0.15145537 -0.10258444 0.11658169 -0.087001294 -0.10264917 0.01070714
0.09572166 -0.0046343263 0.036287393 -0.14743017 0.14765523 0.027762981 -0.0865843 0.066991575
0.046101514 -0.09681778 -0.05059939 0.053077057 0.10286094 -0.07055009 -0.04165649 -0.01716139
-0.0061595286 -0.05775952 0.11360182 -0.10142627 -0.03931162 0.11042318 0.10430603 0.011736231
0.10880548 -0.09398399 0.063275866 -0.08806212 0.05005101 0.033659928 0.109229185 0.1481591
-0.038578253 -0.010890787 -0.103595324 0.11371306 -0.09459784 0.0069055506 0.14578423 -0.033791836
0.14374512 0.07015148 -0.09601433 -0.0952154 0.044199 0.10055799 -0.04711126 -0.0410124
0.10261345 0.031535123 -0.07440086 -0.06821715 0.07569264 -0.006314016 0.066286676 -0.0028416344
-0.14987127 -0.013283376 0.038992465 0.036651652 0.13009194 0.07613429 0.06636196 -0.034204327
-0.11214519 -0.13585226 0.087265074 0.095015086 0.12817958 0.065581776 0.014555777 0.073296376
0.093955636 -0.024282383 0.06473879 -0.05619998 -0.04740395 -0.07892689 0.120916896 -0.08245308
0.010576285 0.069001436 0.14701404 -0.057943277 0.037424143 0.043535568 -0.10877318 -0.14245543
0.05029743 0.117278084 0.10265477 -0.043321636 -0.04558344 0.045228437 0.09422376 -0.045664575
00000000: 75b5 1c3d 0d37 683d b378 b8bd 00f4 f9bd
00000010: 59f0 c2bd 9a6d 14be 7bfb 13be 1fc8 da3d
00000020: d6f3 acbd cd77 f23a 7bf9 3ebd 18eb da3d
00000030: 72ef e2bd 184a d63d df2f f1bd 343a c0bd
00000040: 5fb4 c13d de30 463d 1e30 2abd 24da d1bd
00000050: 48ca b6bd 8452 4c3d 3c5e 5c3d 2009 fcbd
00000060: cab4 d13d bd05 a13d f5ae 033e d5a0 793c
00000070: 66ef 783c 1e72 33bd f9f7 14be 28fa 9d3d
00000080: dfe4 a53c e87d 133e ac14 4e3d 8405 69bd
00000090: 100b b43d 1c23 003e f5a7 0c3e a1c1 d3bd
000000a0: aab1 1cbd f9b3 7c3d 6de3 e73d e2a3 9c3d
000000b0: 3fbb f83c 1dbc cb3d 9020 ccbd 48bc 9fbd
000000c0: 285a 723d e0ab 5cbd 4f8a 13be cbc1 f1bd
000000d0: ef21 eabd c5fb e33d 73e0 a43d 443a ee3d
000000e0: 0b6a cd3d ee6e 7f3d d053 10be 9f7f 0c3e
000000f0: 43d7 0abd f32d 9a3d 467d a2bd c24c 8dbd
00000100: 6a7b aabd 3474 55bc cb77 353d e8f4 cc3d
00000110: 6751 f13d 0933 cf3d 8cef 203d d49e e7bd
00000120: 4454 c63d 78b9 df3d 1564 02be 6baa 58bd
00000130: 5e0c fcbd 7eb9 933d 9ba3 7d3d d42b debd
00000140: fe9f 0bbe d0b0 913d 2718 013e c3b4 18be
00000150: ea2d b63c 2a82 18be fe99 07be c8e3 c83d
00000160: 2558 c93d 94cc a4bc fea1 58bd 89fc 933d
00000170: c047 68bd dc90 a2bb 4aed fd3d dac4 e23c
00000180: ec95 5d3d f3b3 ee3d 64b6 063e 7ac8 68bc
00000190: 1067 17be 9385 b2bd 9ca9 abbd 3cfe e73d
000001a0: c3aa eb3c a264 89bd c634 a8bd 69d7 e63d
000001b0: 3a33 d6bd 8e2f a63d 87ea 71bd 7194 01be
000001c0: 61f8 9ebd eb9d 2dbd 2f4c bb3d 41df fcbd
000001d0: 38ae ecbd 0097 e53d 3582 5cbd a5a2 03be
000001e0: 6403 923d 5781 a0bd 8b9d a03d 5699 8e3d
000001f0: 96eb 18be 8ab5 023e 480a 963d 05df 51bd
00000200: 96f5 1fbd 4634 f53d bc87 99bd b171 94bd
00000210: 2e43 c5bd eabe 063e fe63 0a3d 4109 a83d
00000220: cde3 c33d 2cfb cbba 462b b33d 2b24 b83c
00000230: 8e4b 283d b725 063e f428 00be 6324 78bd
00000240: d79c 193e 672e 08be b3ad 01be ebb8 c83d
00000250: 5681 5a3d a4e2 0f3e aa85 febd 46da ab3c
00000260: e680 7ebd 674f 2d3c 1e17 1bbe ca17 d2bd
00000270: 62c2 ee3d bc2d b2bd ba39 d2bd 006d 2f3c
00000280: b809 c43d 8cdb 97bb 17a2 143d eff7 16be
00000290: ef32 173e 316f e33c 1c53 b1bd e132 893d
000002a0: f1d4 3c3d 6648 c6bd 4e41 4fbd 5467 593d
000002b0: c2a8 d23d 917c 90bd ff9f 2abd 0b96 8cbc
000002c0: dfd5 c9bb 3f95 6cbd 12a8 e83d 94b8 cfbd
000002d0: 3905 21bd 8c25 e23d 669e d53d 5249 403c
000002e0: 68d5 de3d ae7a c0bd c796 813d ea59 b4bd
000002f0: 4a02 4d3d fede 093d 8db3 df3d 05b7 173e
00000300: 3b04 1ebd 456f 32bc c929 d4bd 65e2 e83d
00000310: 83bc c1bd f547 e23b 7648 153e 4f69 0abd
00000320: ec31 133e 94ab 8f3d 29a3 c4bd 4b00 c3bd
00000330: 030a 353d 59f1 cd3d bdf7 40bd 9efc 27bd
00000340: 0027 d23d f92a 013d 7a5f 98bd 6fb5 8bbd
00000350: be04 9b3d cee5 cebb 4fc1 873d b73a 3abb
00000360: db77 19be 84a2 59bc 90b6 1f3d 0b20 163d
00000370: d236 053e 4bec 9b3d c7e8 873d d619 0cbd
00000380: 61ac e5bd db1c 0bbe 08b8 b23d 4597 c23d
00000390: 8241 033e bd4f 863d 5b7b 6e3c 691c 963d
000003a0: d06b c03d d9eb c6bc c595 843d f331 66bd
000003b0: a52a 42bd 6ca4 a1bd 47a3 f73d 29dd a8bd
000003c0: 2848 2d3c a050 8d3d d98a 163e ee55 6dbd
000003d0: 0f4a 193d 5a52 323d 79c4 debd d6df 11be
000003e0: ae04 4e3d 7e2f f03d aa3c d23d 0772 31bd
000003f0: b4b5 3abd 7441 393d 63f8 c03d c70a 3bbd

_deterministic_encoder.lstm.weight_hh_l0 f4 [256, 64]
-0.11305311 -0.058733147 0.11720218 0.02624131 0.11025299 0.074377805 -0.059782967 -0.12607598
0.016011057 0.024602 0.031330816 0.05400837 -0.08297374 -0.0070816316 -0.116740406 -0.018859947
-0.08759363 0.04836584 -0.0037228463 -0.09300954 0.058577158 0.04500841 -0.13384746 -0.12102938
0.001362335 0.035410687 -0.037533678 -0.097257785 -0.06500891 -0.10215045 -0.10250754 -0.11900525
-0.13341554 0.118823156 -0.030270204 0.07453738 0.11589516 -0.0900788 -0.09630886 0.068546385
0.13369304 0.07590808 -0.120867044 0.13362472 -0.061754655 -0.016583763 -0.024241693 -0.08574352
-0.10030187 0.04620217 -0.09601574 0.102197215 -0.08903931 -0.02249522 0.058150236 -0.019514827
0.011057115 -0.12983292 0.114729196 0.023921542 0.10958832 0.08832521 0.033186838 0.05663459
-0.018730553 -0.031198924 0.11454181 -0.13094443 0.1151617 -0.06085006 0.10301417 0.13078403
-0.0782562 -0.09791299 -0.08401449 0.06897649 0.06649171 0.06894216 0.06795099 0.08193205
0.01757203 -0.049575012 -0.12313848 -0.11556567 -0.052426044 0.10772215 0.08233494 -0.0032386777
0.13640787 -0.107205756 -0.04596178 -0.010620888 -0.049175758 -0.11217718 -0.10854907 0.006545359
-0.09492879 -0.124712005 0.11250824 -0.043952595 0.03757584 0.11917856 -0.0022691002 0.047144637
0.043831214 0.05097672 0.054751392 -0.13167262 -0.09892981 0.092293054 0.034132157 -0.06251975
-0.10534954 0.07926498 0.12814155 -0.13330749 0.095366836 0.0010799075 -0.13015896 -0.02809529
0.10415178 -0.054418135 0.09685945 0.028922673 -0.042740062 -0.015059353 0.061862357 0.13062051
0.09176873 -0.11027075 -0.117075376 -0.084593564 -0.038247205 -0.089395694 -0.006748765 -0.11441711
-0.039013296 -0.09406677 -0.06948543 -0.08885756 -0.062050126 0.057155684 -0.09732683 -0.013463185
-0.059434988 -0.049897954 0.07734299 -0.027065022 -0.0054078624 -0.070688926 0.13031492 0.017630778
-0.05904551 -0.05304145 0.060674846 0.004443704 -0.12848866 0.021032952 -0.009858634 -0.082367375
0.03254156 -0.026185386 -0.09594114 -0.061857674 0.063320495 -0.055825327 -0.0031186517 0.111663304
-0.115576595 0.065121405 -0.05949189 -0.025243476 0.049037058 -0.094339065 -0.041429423 -0.007221817
0.011563876 0.09145251 0.08471682 -0.12365471 -0.048014756 -0.10205169 -0.078039914 -0.07454796
-0.1189169 -0.040502172 0.10403748 0.051942904 -0.10531934 0.1004233 0.025600567 0.08405535
0.061569877 0.1090379 0.035022713 0.09843518 0.09068156 0.08360948 0.04904759 -0.068301745
0.041165046 -0.045870677 0.03199332 -0.07371328 -0.1094822 0.052903943 0.106912784 -0.08396877
0.0053764237 0.107244395 -0.0323144 -0.046925724 0.13069105 -0.10430417 -0.11477596 0.05904326
0.12202129 -0.09102678 0.04474177 0.07905433 -0.0052043586 -0.06933397 -0.06706016 -0.008479846
-0.10233792 -0.08076163 -0.020920973 -0.0996228 0.012658001 -0.11088562 -0.05240347 0.068920515
-0.065817684 0.06463171 0.04013086 -0.11449829 -0.0149731 0.00329976 -0.036996573 0.120271
0.02616069 -0.06658988 -0.017924732 0.10539446 -0.13234317 0.014179831 0.10625167 -0.13095646
0.061743245 -0.07392516 0.00788902 0.0011695393 0.10608109 0.029060379 0.057023577 -0.10443375
00000000: 6488 e7bd 2b92 70bd b207 f03d 04f8 d63c
00000010: 52cc e13d 6453 983d fcde 74bd 101a 01be
00000020: 9f29 833c 228a c93c be54 003d e137 5d3d
00000030: 23ee a9bd 080d e8bb 9815 efbd 2d80 9abc
00000040: 4a64 b3bd 421b 463d fffa 73bb c97b bebd
00000050: 9aee 6f3d bd5a 383d 4f0f 09be 40de f7bd
00000060: 6190 b23a cc0a 113d eabc 19bd 172f c7bd
00000070: 6423 85bd 4134 d1bd 79ef d1bd 06b9 f3bd
00000080: 159e 08be 8e59 f33d 38f9 f7bc 0ea7 983d
00000090: 715a ed3d 3c7b b8bd 943d c5bd 0c62 8c3d
000000a0: d4e6 083e b275 9b3d 2489 f7bd ebd4 083e
000000b0: 73f2 7cbd acda 87bc 8496 c6bc 4c9a afbd
000000c0: 116b cdbd 7d3e 3d3d e6a3 c4bd c64c d13d
000000d0: 3e5a b6bd e547 b8bc f12e 6e3d 8fdd 9fbc
000000e0: e728 353c ecf2 04be 24f7 ea3d 1cf7 c33c
000000f0: d76f e03d d9e3 b43d ecee 073d acf9 673d
00000100: d170 99bc e394 ffbc e594 ea3d 4c16 06be
00000110: e6d9 eb3d ea3d 79bd 18f9 d23d 40ec 053e
00000120: c944 a0bd 9b86 c8bd ca0f acbd 8c43 8d3d
00000130: ce2c 883d 8c31 8d3d e329 8b3d fecb a73d
00000140: 38f3 8f3c 2b0f 4bbd 0730 fcbd b2ad ecbd
00000150: b1bc 56bd 6e9d dc3d 399f a83d ff3f 54bb
00000160: 81ae 0b3e b18e dbbd 6b42 3cbd 3c03 2ebc
00000170: 856c 49bd 26bd e5bd fa4e debd 737a d63b
00000180: 076a c2bd 0269 ffbd b86a e63d a307 34bd
00000190: 20e9 193d e413 f43d 2fb5 14bb bc1a 413d
000001a0: 5c88 333d f7cc 503d ff42 603d 30d5 06be
000001b0: b69b cabd 2404 bd3d 29ce 0b3d 5b0a 80bd
000001c0: 80c1 d7bd ae55 a23d 8a37 033e c281 08be
000001d0: b04f c33d af8b 8d3a 6448 05be 1828 e6bc
000001e0: 874d d53d 8de5 5ebd 3f5e c63d 3eef ec3c
000001f0: 3410 2fbd 81bb 76bc 6263 7d3d 62c1 053e
00000200: 3ef1 bb3d a2d5 e1bd 37c5 efbd 643f adbd
00000210: 1aa9 1cbd 1715 b7bd be24 ddbb 8553 eabd
00000220: 68cc 1fbd 14a6 c0bd 614e 8ebd f4fa b5bd
00000230: 4628 7ebd 141c 6a3d 4a53 c7bd b194 5cbc
00000240: 1a72 73bd cc61 4cbd 0066 9e3d 77b7 ddbc
00000250: 7034 b1bb 5bc5 90bd 4671 053e 6c6e 903c
00000260: b4d9 71bd fe41 59bd 3086 783d 7e9c 913b
00000270: 8892 03be 4c4d ac3c 1c86 21bc 3ab0 a8bd
00000280: 4c4a 053d bc82 d6bc ca7c c4bd 795e 7dbd
00000290: 2dae 813d 19a9 64bd 4b62 4cbb bbaf e43d
000002a0: 6cb3 ecbd 5f5e 853d c5ad 73bd 68cb cebc
000002b0: 15db 483d d734 c1bd e6b1 29bd fea4 ecbb
000002c0: 6976 3d3c 744b bb3d 0380 ad3d ae3e fdbd
000002d0: 1fab 44bd 7a00 d1bd 64d3 9fbd 9aac 98bd
000002e0: b48a f3bd 9be5 25bd 9a11 d53d 15c2 543d
000002f0: abb1 d7bd bbaa cd3d 48b8 d13c 3625 ac3d
00000300: b230 7c3d 434f df3d fa73 0f3d 6298 c93d
00000310: 41b7 b93d 723b ab3d 20e6 483d c9e1 8bbd
00000320: ae9c 283d e4e2 3bbd 6d0b 033d fdf6 96bd
00000330: 3438 e0bd ceb1 583d 17f5 da3d d2f7 abbd
00000340: b62c b03b f3a2 db3d 1b5c 04bd 3035 40bd
00000350: e0d3 053e 6d9d d5bd a90f ebbd 58d7 713d
00000360: 4ce6 f93d 406c babd 2543 373d 3de7 a13d
00000370: 5389 aabb f8fe 8dbd d656 89bd 0def 0abc
00000380: 8b96 d1bd 5a66 a5bd 7662 abbc 0a07 ccbd
00000390: 8163 4f3c 0018 e3bd 05a5 56bd 3326 8d3d
000003a0: 6ccb 86bd a15d 843d 4260 243d 147e eabd
000003b0: bc51 75bc c940 583b b889 17bd a450 f63d
000003c0: f14e d63c 4660 88bd e3d6 92bc 0dd9 d73d
000003d0: f884 07be 8652 683c 7a9a d93d 7319 06be
000003e0: 7ce6 7c3d 1366 97bd f340 013c 3a4b 993a
000003f0: 0b41 d93d 0810 ee3c 8e91 693d 5de1 d5bd

_deterministic_encoder.lstm.bias_ih_l0 f4 [256]
0.0 0.0 0.0 0.0 0.0 0.0 0.0 0.0
0.0 0.0 0.0 0.0 0.0 0.0 0.0 0.0
0.0 0.0 0.0 0.0 0.0 0.0 0.0 0.0
0.0 0.0 0.0 0.0 0.0 0.0 0.0 0.0
0.0 0.0 0.0 0.0 0.0 0.0 0.0 0.0
0.0 0.0 0.0 0.0 0.0 0.0 0.0 0.0
0.0 0.0 0.0 0.0 0.0 0.0 0.0 0.0
0.0 0.0 0.0 0.0 0.0 0.0 0.0 0.0
0.0 0.0 0.0 0.0 0.0 0.0 0.0 0.0
0.0 0.0 0.0 0.0 0.0 0.0 0.0 0.0
0.0 0.0 0.0 0.0 0.0 0.0 0.0 0.0
0.0 0.0 0.0 0.0 0.0 0.0 0.0 0.0
0.0 0.0 0.0 0.0 0.0 0.0 0.0 0.0
0.0 0.0 0.0 0.0 0.0 0.0 0.0 0.0
0.0 0.0 0.0 0.0 0.0 0.0 0.0 0.0
0.0 0.0 0.0 0.0 0.0 0.0 0.0 0.0
0.0 0.0 0.0 0.0 0.0 0.0 0.0 0.0
0.0 0.0 0.0 0.0 0.0 0.0 0.0 0.0
0.0 0.0 0.0 0.0 0.0 0.0 0.0 0.0
0.0 0.0 0.0 0.0 0.0 0.0 0.0 0.0
0.0 0.0 0.0 0.0 0.0 0.0 0.0 0.0
0.0 0.0 0.0 0.0 0.0 0.0 0.0 0.0
0.0 0.0 0.0 0.0 0.0 0.0 0.0 0.0
0.0 0.0 0.0 0.0 0.0 0.0 0.0 0.0
0.0 0.0 0.0 0.0 0.0 0.0 0.0 0.0
0.0 0.0 0.0 0.0 0.0 0.0 0.0 0.0
0.0 0.0 0.0 0.0 0.0 0.0 0.0 0.0
0.0 0.0 0.0 0.0 0.0 0.0 0.0 0.0
0.0 0.0 0.0 0.0 0.0 0.0 0.0 0.0
0.0 0.0 0.0 0.0 0.0 0.0 0.0 0.0
0.0 0.0 0.0 0.0 0.0 0.0 0.0 0.0
0.0 0.0 0.0 0.0 0.0 0.0 0.0 0.0
00000000: 0000 0000 0000 0000 0000 0000 0000 0000
00000010: 0000 0000 0000 0000 0000 0000 0000 0000
00000020: 0000 0000 0000 0000 0000 0000 0000 0000
00000030: 0000 0000 0000 0000 0000 0000 0000 0000
00000040: 0000 0000 0000 0000 0000 0000 0000 0000
00000050: 0000 0000 0000 0000 0000 0000 0000 0000
00000060: 0000 0000 0000 0000 0000 0000 0000 0000
00000070: 0000 0000 0000 0000 0000 0000 0000 0000
00000080: 0000 0000 0000 0000 0000 0000 0000 0000
00000090: 0000 0000 0000 0000 0000 0000 0000 0000
000000a0: 0000 0000 0000 0000 0000 0000 0000 0000
000000b0: 0000 0000 0000 0000 0000 0000 0000 0000
000000c0: 0000 0000 0000 0000 0000 0000 0000 0000
000000d0: 0000 0000 0000 0000 0000 0000 0000 0000
000000e0: 0000 0000 0000 0000 0000 0000 0000 0000
000000f0: 0000 0000 0000 0000 0000 0000 0000 0000
00000100: 0000 0000 0000 0000 0000 0000 0000 0000
00000110: 0000 0000 0000 0000 0000 0000 0000 0000
00000120: 0000 0000 0000 0000 0000 0000 0000 0000
00000130: 0000 0000 0000 0000 0000 0000 0000 0000
00000140: 0000 0000 0000 0000 0000 0000 0000 0000
00000150: 0000 0000 0000 0000 0000 0000 0000 0000
00000160: 0000 0000 0000 0000 0000 0000 0000 0000
00000170: 0000 0000 0000 0000 0000 0000 0000 0000
00000180: 0000 0000 0000 0000 0000 0000 0000 0000
00000190: 0000 0000 0000 0000 0000 0000 0000 0000
000001a0: 0000 0000 0000 0000 0000 0000 0000 0000
000001b0: 0000 0000 0000 0000 0000 0000 0000 0000
000001c0: 0000 0000 0000 0000 0000 0000 0000 0000
000001d0: 0000 0000 0000 0000 0000 0000 0000 0000
000001e0: 0000 0000 0000 0000 0000 0000 0000 0000
000001f0: 0000 0000 0000 0000 0000 0000 0000 0000
00000200: 0000 0000 0000 0000 0000 0000 0000 0000
00000210: 0000 0000 0000 0000 0000 0000 0000 0000
00000220: 0000 0000 0000 0000 0000 0000 0000 0000
00000230: 0000 0000 0000 0000 0000 0000 0000 0000
00000240: 0000 0000 0000 0000 0000 0000 0000 0000
00000250: 0000 0000 0000 0000 0000 0000 0000 0000
00000260: 0000 0000 0000 0000 0000 0000 0000 0000
00000270: 0000 0000 0000 0000 0000 0000 0000 0000
00000280: 0000 0000 0000 0000 0000 0000 0000 0000
00000290: 0000 0000 0000 0000 0000 0000 0000 0000
000002a0: 0000 0000 0000 0000 0000 0000 0000 0000
000002b0: 0000 0000 0000 0000 0000 0000 0000 0000
000002c0: 0000 0000 0000 0000 0000 0000 0000 0000
000002d0: 0000 0000 0000 0000 0000 0000 0000 0000
000002e0: 0000 0000 0000 0000 0000 0000 0000 0000
000002f0: 0000 0000 0000 0000 0000 0000 0000 0000
00000300: 0000 0000 0000 0000 0000 0000 0000 0000
00000310: 0000 0000 0000 0000 0000 0000 0000 0000
00000320: 0000 0000 0000 0000 0000 0000 0000 0000
00000330: 0000 0000 0000 0000 0000 0000 0000 0000
00000340: 0000 0000 0000 0000 0000 0000 0000 0000
00000350: 0000 0000 0000 0000 0000 0000 0000 0000
00000360: 0000 0000 0000 0000 0000 0000 0000 0000
00000370: 0000 0000 0000 0000 0000 0000 0000 0000
00000380: 0000 0000 0000 0000 0000 0000 0000 0000
00000390: 0000 0000 0000 0000 0000 0000 0000 0000
000003a0: 0000 0000 0000 0000 0000 0000 0000 0000
000003b0: 0000 0000 0000 0000 0000 0000 0000 0000
000003c0: 0000 0000 0000 0000 0000 0000 0000 0000
000003d0: 0000 0000 0000 0000 0000 0000 0000 0000
000003e0: 0000 0000 0000 0000 0000 0000 0000 0000
000003f0: 0000 0000 0000 0000 0000 0000 0000 0000

_deterministic_encoder.lstm.bias_hh_l0 f4 [256]
0.0 0.0 0.0 0.0 0.0 0.0 0.0 0.0
0.0 0.0 0.0 0.0 0.0 0.0 0.0 0.0
0.0 0.0 0.0 0.0 0.0 0.0 0.0 0.0
0.0 0.0 0.0 0.0 0.0 0.0 0.0 0.0
0.0 0.0 0.0 0.0 0.0 0.0 0.0 0.0
0.0 0.0 0.0 0.0 0.0 0.0 0.0 0.0
0.0 0.0 0.0 0.0 0.0 0.0 0.0 0.0
0.0 0.0 0.0 0.0 0.0 0.0 0.0 0.0
0.0 0.0 0.0 0.0 0.0 0.0 0.0 0.0
0.0 0.0 0.0 0.0 0.0 0.0 0.0 0.0
0.0 0.0 0.0 0.0 0.0 0.0 0.0 0.0
0.0 0.0 0.0 0.0 0.0 0.0 0.0 0.0
0.0 0.0 0.0 0.0 0.0 0.0 0.0 0.0
0.0 0.0 0.0 0.0 0.0 0.0 0.0 0.0
0.0 0.0 0.0 0.0 0.0 0.0 0.0 0.0
0.0 0.0 0.0 0.0 0.0 0.0 0.0 0.0
0.0 0.0 0.0 0.0 0.0 0.0 0.0 0.0
0.0 0.0 0.0 0.0 0.0 0.0 0.0 0.0
0.0 0.0 0.0 0.0 0.0 0.0 0.0 0.0
0.0 0.0 0.0 0.0 0.0 0.0 0.0 0.0
0.0 0.0 0.0 0.0 0.0 0.0 0.0 0.0
0.0 0.0 0.0 0.0 0.0 0.0 0.0 0.0
0.0 0.0 0.0 0.0 0.0 0.0 0.0 0.0
0.0 0.0 0.0 0.0 0.0 0.0 0.0 0.0
0.0 0.0 0.0 0.0 0.0 0.0 0.0 0.0
0.0 0.0 0.0 0.0 0.0 0.0 0.0 0.0
0.0 0.0 0.0 0.0 0.0 0.0 0.0 0.0
0.0 0.0 0.0 0.0 0.0 0.0 0.0 0.0
0.0 0.0 0.0 0.0 0.0 0.0 0.0 0.0
0.0 0.0 0.0 0.0 0.0 0.0 0.0 0.0
0.0 0.0 0.0 0.0 0.0 0.0 0.0 0.0
0.0 0.0 0.0 0.0 0.0 0.0 0.0 0.0
00000000: 0000 0000 0000 0000 0000 0000 0000 0000
00000010: 0000 0000 0000 0000 0000 0000 0000 0000
00000020: 0000 0000 0000 0000 0000 0000 0000 0000
00000030: 0000 0000 0000 0000 0000 0000 0000 0000
00000040: 0000 0000 0000 0000 0000 0000 0000 0000
00000050: 0000 0000 0000 0000 0000 0000 0000 0000
00000060: 0000 0000 0000 0000 0000 0000 0000 0000
00000070: 0000 0000 0000 0000 0000 0000 0000 0000
00000080: 0000 0000 0000 0000 0000 0000 0000 0000
00000090: 0000 0000 0000 0000 0000 0000 0000 0000
000000a0: 0000 0000 0000 0000 0000 0000 0000 0000
000000b0: 0000 0000 0000 0000 0000 0000 0000 0000
000000c0: 0000 0000 0000 0000 0000 0000 0000 0000
000000d0: 0000 0000 0000 0000 0000 0000 0000 0000
000000e0: 0000 0000 0000 0000 0000 0000 0000 0000
000000f0: 0000 0000 0000 0000 0000 0000 0000 0000
00000100: 0000 0000 0000 0000 0000 0000 0000 0000
00000110: 0000 0000 0000 0000 0000 0000 0000 0000
00000120: 0000 0000 0000 0000 0000 0000 0000 0000
00000130: 0000 0000 0000 0000 0000 0000 0000 0000
00000140: 0000 0000 0000 0000 0000 0000 0000 0000
00000150: 0000 0000 0000 0000 0000 0000 0000 0000
00000160: 0000 0000 0000 0000 0000 0000 0000 0000
00000170: 0000 0000 0000 0000 0000 0000 0000 0000
00000180: 0000 0000 0000 0000 0000 0000 0000 0000
00000190: 0000 0000 0000 0000 0000 0000 0000 0000
000001a0: 0000 0000 0000 0000 0000 0000 0000 0000
000001b0: 0000 0000 0000 0000 0000 0000 0000 0000
000001c0: 0000 0000 0000 0000 0000 0000 0000 0000
000001d0: 0000 0000 0000 0000 0000 0000 0000 0000
000001e0: 0000 0000 0000 0000 0000 0000 0000 0000
000001f0: 0000 0000 0000 0000 0000 0000 0000 0000
00000200: 0000 0000 0000 0000 0000 0000 0000 0000
00000210: 0000 0000 0000 0000 0000 0000 0000 0000
00000220: 0000 0000 0000 0000 0000 0000 0000 0000
00000230: 0000 0000 0000 0000 0000 0000 0000 0000
00000240: 0000 0000 0000 0000 0000 0000 0000 0000
00000250: 0000 0000 0000 0000 0000 0000 0000 0000
00000260: 0000 0000 0000 0000 0000 0000 0000 0000
00000270: 0000 0000 0000 0000 0000 0000 0000 0000
00000280: 0000 0000 0000 0000 0000 0000 0000 0000
00000290: 0000 0000 0000 0000 0000 0000 0000 0000
000002a0: 0000 0000 0000 0000 0000 0000 0000 0000
000002b0: 0000 0000 0000 0000 0000 0000 0000 0000
000002c0: 0000 0000 0000 0000 0000 0000 0000 0000
000002d0: 0000 0000 0000 0000 0000 0000 0000 0000
000002e0: 0000 0000 0000 0000 0000 0000 0000 0000
000002f0: 0000 0000 0000 0000 0000 0000 0000 0000
00000300: 0000 0000 0000 0000 0000 0000 0000 0000
00000310: 0000 0000 0000 0000 0000 0000 0000 0000
00000320: 0000 0000 0000 0000 0000 0000 0000 0000
00000330: 0000 0000 0000 0000 0000 0000 0000 0000
00000340: 0000 0000 0000 0000 0000 0000 0000 0000
00000350: 0000 0000 0000 0000 0000 0000 0000 0000
00000360: 0000 0000 0000 0000 0000 0000 0000 0000
00000370: 0000 0000 0000 0000 0000 0000 0000 0000
00000380: 0000 0000 0000 0000 0000 0000 0000 0000
00000390: 0000 0000 0000 0000 0000 0000 0000 0000
000003a0: 0000 0000 0000 0000 0000 0000 0000 0000
000003b0: 0000 0000 0000 0000 0000 0000 0000 0000
000003c0: 0000 0000 0000 0000 0000 0000 0000 0000
000003d0: 0000 0000 0000 0000 0000 0000 0000 0000
000003e0: 0000 0000 0000 0000 0000 0000 0000 0000
000003f0: 0000 0000 0000 0000 0000 0000 0000 0000

_deterministic_encoder.lstm.weight_ih_l0_reverse f4 [256, 2]
-0.122838005 -0.1198567 0.15018947 0.011307764 0.001130531 -0.058032155 -0.09201233 -0.13799343
0.07212103 -0.09175593 0.14319111 0.09789519 -0.09924974 0.14093466 -0.01693415 -0.036466803
0.065439686 0.11171947 -0.057772484 -0.12899522 0.08519906 0.10227722 0.09793915 0.015792366
0.123830594 -0.015133405 -0.06837833 0.14247847 -0.023061393 -0.08318436 -0.13134004 -0.024293745
-0.046839464 0.07316767 0.09661939 -0.01331359 -0.0051612156 0.11655982 0.087071285 0.0611848
-0.07025308 0.09776723 0.051217683 -0.10725457 0.010036162 -0.037029672 0.06250914 -0.10882508
-0.07600596 -0.07652438 0.13531728 0.10375747 0.0200588 -0.009091186 0.014878986 -0.05758687
-0.03143179 -0.14982054 0.09067861 0.023719208 0.06980623 0.13416103 0.14794105 0.08130524
-0.07390769 0.114489004 -0.040492725 0.0062923464 0.026886215 0.091086134 0.08095053 -0.0022106508
0.07076766 -0.13964833 0.06268386 0.14075805 -0.051541764 0.11263546 0.12189503 -0.023275271
0.14815317 -0.09298886 -0.046658326 0.11658682 -0.10536639 0.12178214 -0.114162415 0.042221483
-0.062025007 -0.10392746 -0.06602506 0.007057529 -0.11941758 -0.008555826 0.092718214 0.06630748
0.027792832 -0.12721652 -0.019644512 0.06568069 -0.067184806 -0.0445952 0.014550505 0.1444716
0.02751369 -0.12503318 0.05965916 0.06288385 -0.12739441 -0.09415492 0.117227055 -0.0076596257
0.0533548 -0.0763414 -0.05624728 0.13389042 0.0633288 -0.1271026 -0.14952828 -0.14322574
0.009689266 0.043879356 0.13898861 -0.07246946 -0.009071099 0.049616344 0.14107183 0.050556865
-0.13104488 0.03278409 0.13063149 0.027079916 0.037003983 -0.052912388 -0.077094585 0.11321949
-0.11375013 -0.15201057 0.10965171 0.041726843 0.07942895 0.14769495 0.009168994 -0.10990347
0.1212377 -0.15002178 -0.12009874 0.13086256 0.077150956 -0.02661498 0.14150354 -0.08106775
0.07905512 0.15178904 0.040941644 0.054056335 0.013548065 0.029156711 -0.052378863 -0.119825214
-0.13875814 0.121023044 0.065931186 -0.03447358 0.117998436 -0.07514291 -0.13430378 -0.12055304
0.021912009 -0.009936795 0.09297623 0.076357946 0.05037233 0.047494154 -0.042325556 0.014708738
-0.037418723 0.12044596 -0.14734578 0.0289288 -0.042999353 0.1518109 -0.152476 -0.0077544665
0.053470563 -0.040964022 0.09570548 0.13450445 0.08210951 -0.009816011 0.10294602 0.11787224
0.055049323 -0.0710916 -0.057391044 -0.12348635 0.14795361 -0.053519648 -0.14801462 0.049247943
-0.055541616 0.08122869 -0.03902646 0.086228006 -0.029227102 -0.08454095 0.106607795 -0.045612946
0.07640394 -0.09039338 -0.103706546 0.11219771 0.10484295 0.13350292 -0.09508164 0.11796926
-0.11256859 -0.004574989 -0.102807455 -0.116148606 -0.1494798 -0.14571479 -0.008639614 0.14105266
0.019675307 0.13069318 0.027167521 -0.04696763 -0.016074907 0.015111917 -0.07786628 -0.096015505
-0.11504929 0.009462898 -0.049741853 -0.10448915 -0.061426584 0.0849087 -0.12598276 -0.11391087
0.15243286 0.022397159 -0.014406453 -0.14872101 0.108643286 0.09361178 0.12065482 -0.13990027
-0.11817027 0.11778272 -0.029264588 0.027194735 0.027127527 0.09910322 -0.028948832 0.08872916
00000000: 7e92 fbbd 6e77 f5bd 45cb 193e 3344 393c
00000010: 532e 943a 20b3 6dbd f670 bcbd 264e 0dbe
00000020: 31b4 933d 88ea bbbd b1a0 123e 467d c83d
00000030: 7343 cbbd 2d51 103e 7db9 8abc 375e 15bd
00000040: 3e05 863d 2dcd e43d d7a2 6cbd 5317 04be
00000050: d87c ae3d b876 d13d 5294 c83d fe5e 813c
00000060: e59a fd3d 1af2 77bc f009 8cbd e0e5 113e
00000070: 3feb bcbc 905c aabd 017e 06be ad03 c7bc
00000080: bdda 3fbd eed8 953d 63e0 c53d 3e21 5abc
00000090: 6a1f a9bb eab6 ee3d 6e52 b23d ea9c 7a3d
000000a0: d9e0 8fbd 2f3a c83d a2c9 513d 49a8 dbbd
000000b0: b76e 243c 6dac 17bd cb04 803d afdf debd
000000c0: 03a9 9bbd d0b8 9cbd 9d90 0a3e cc7e d43d
000000d0: 5a52 a43c 33f3 14bc fec6 733c 36e0 6bbd
000000e0: 9fbe 00bd 8e6a 19be b5b5 b93d c94e c23c
000000f0: 92f6 8e3d 8261 093e dc7d 173e 5d83 a63d
00000100: ea5c 97bd 3679 ea3d b3db 25bd 0730 ce3b
00000110: 7b40 dc3c 5e8b ba3d 64c9 a53d 91e0 10bb
00000120: a3ee 903d f9ff 0ebe 6560 803d e122 103e
00000130: 751d 53bd 6cad e63d 1aa4 f93d c8ab bebc
00000140: 77b5 173e f270 bebd cd1c 3fbd 12c5 ee3d
00000150: 55ca d7bd ea68 f93d fccd e9bd 6ff0 2c3d
00000160: ef0d 7ebd ecd7 d4bd 2638 87bd d842 e73b
00000170: 3491 f4bd bc2d 0cbc 0ce3 bd3d 37cc 873d
00000180: cbad e33c 0c45 02be 87ed a0bc 9983 863d
00000190: 3098 89bd 75a9 36bd 3e65 6e3c 5df0 133e
000001a0: 6464 e13c b308 00be 2a5d 743d 3fc9 803d
000001b0: ae73 02be 4bd4 c0bd bd14 f03d 99fd fabb
000001c0: 908a 5a3d e158 9cbd 8c63 66bd 921a 093e
000001d0: 88b2 813d 2f27 02be f11d 19be c5a9 12be
000001e0: babf 1e3c d7ba 333d 0853 0e3e de6a 94bd
000001f0: f29e 14bc 823a 4b3d 2275 103e b714 4f3d
00000200: a130 06be 9c48 063d 43c4 053e b3d6 dd3c
00000210: 7d91 173d a9ba 58bd c4e3 9dbd 9fdf e73d
00000220: d4f5 e8bd a9a8 1bbe 1391 e03d c4e9 2a3d
00000230: a5ab a23d 583d 173e 8c39 163c 1215 e1bd
00000240: 794b f83d 4f9f 19be 54f6 f5bd d600 063e
00000250: 5201 9e3d a907 dabc 4ee6 103e d906 a6bd
00000260: a7e7 a13d 966e 1b3e 6db2 273d 2d6a 5d3d
00000270: b4f8 5d3c 0eda ee3c 388b 56bd ec66 f5bd
00000280: 9d16 0ebe eeda f73d ee06 873d 2b34 0dbd
00000290: 2aa9 f13d 87e4 99bd ee86 09be 83e4 f6bd
000002a0: d080 b33c f0cd 22bc 526a be3d 8e61 9c3d
000002b0: 3753 4e3d 3b89 423d 905d 2dbd ebfc 703c
000002c0: 6044 19bd 5fac f63d d0e1 16be 17fc ec3c
000002d0: 1720 30bd 5174 1b3e ab22 1cbe 2e19 febb
000002e0: f303 5b3d e4c9 27bd 3c01 c43d 89bb 093e
000002f0: 0829 a83d 56d3 20bc 5dd5 d23d 0067 f13d
00000300: 667b 613d 7998 91bd df12 6bbd 69e6 fcbd
00000310: 2781 173e 6b37 5bbd 2591 17be 36b8 493d
00000320: 9b7f 63bd 3a5b a63d 36da 1fbd 4f98 b03d
00000330: ad6d efbc ce23 adbd 3055 da3d a4d4 3abd
00000340: ab79 9c3d 2a20 b9bd 1964 d4bd eac7 e53d
00000350: e7b7 d63d fdb4 083e 2aba c2bd de99 f13d
00000360: 5c8a e6bd cae9 95bb b78c d2bd 52df edbd
00000370: 3c11 19be 4236 15be 2b8d 0dbc 1c70 103e
00000380: 1c2e a13c 6fd4 053e 6c8e de3c 2161 40bd
00000390: 86af 83bc f997 773c 5b78 9fbd c7a3 c4bd
000003a0: f69e ebbd 450a 1b3c 1dbe 4bbd 68fe d5bd
000003b0: 719a 7bbd 9de4 ad3d a001 01be 1a4a e9bd
000003c0: 5c17 1c3e 3f7a b73c 0b09 6cbc 524a 18be
000003d0: 5f80 de3d 88b7 bf3d e019 f73d 0442 0fbe
000003e0: 4103 f2bd 1138 f13d 4abc efbc 7ec7 de3c
000003f0: 8c3a de3c a1f6 ca3d 1a26 edbc a2b7 b53d

_deterministic_encoder.lstm.weight_hh_l0_reverse f4 [256, 64]
0.033561297 -0.12945364 0.13467927 -0.004575483 -0.07125037 0.070318505 0.10286752 0.042486347
0.07008813 -0.12660867 0.05593267 0.005805435 -0.034682013 -0.048344668 0.13461548 0.028983137
0.078765735 -0.02501379 -0.0006475984 0.01593445 -0.11975506 -0.06928131 -0.11231652 -0.07685701
-0.013512352 -0.048873026 -0.11586898 0.101094075 0.028622568 0.015634475 -0.041555945 -0.13485725
-0.117974326 -0.08516139 -0.09917512 -0.07301723 0.013384148 0.06465252 0.09240674 0.021901503
-0.10352793 -0.06974738 -0.0076540117 0.006527909 -0.0126097 -0.121317245 0.06626336 0.04211969
0.026133575 -0.13506047 0.07281892 0.062186964 0.0031102288 0.052622315 -0.050639544 -0.13606611
0.03636417 -0.008329017 -0.018151643 -0.04473617 0.12893833 0.031978678 -0.043997206 -0.09066096
0.04696908 0.033856798 -0.07625928 0.068809666 0.017807169 -0.06626979 -0.03341732 -0.06649938
0.028659476 0.034891196 0.077708155 -0.00053764397 0.03334978 -0.09526615 -0.010844209 0.044736464
-0.051332947 -0.06721255 -0.01624032 0.040434133 0.12771642 0.05825518 -0.0002296703 -0.13192034
-0.08260413 -0.10521084 -0.029054143 0.023943251 -0.0763126 -0.03452245 0.07439255 -0.04064397
-0.020296847 -0.0046427026 0.072841614 0.08561162 -0.097531475 0.11046032 0.12819293 0.04600675
0.101348594 -0.03591358 -0.052220695 0.04356604 0.047564525 -0.008477136 0.08354115 0.016156383
-0.10510142 -0.03376529 0.0887789 0.03830055 0.058637246 0.09174301 -0.068313986 -0.011193922
-0.11962291 0.11245344 -0.021449706 -0.029468104 -0.06921401 0.064681165 0.105709866 0.049531594
-0.023026448 -0.06221191 -0.08046975 -0.05128468 0.0927848 0.03997099 0.12578188 0.027827585
-0.037222765 -0.017931212 0.0670936 0.07528882 -0.08275814 0.07588906 -0.0985643 0.11728417
0.019047748 0.09233297 0.10837889 0.09265478 0.06443796 0.0940961 0.0011091101 -0.11110811
-0.10102913 -0.028793393 0.12159462 0.01353571 0.122398585 0.08679974 -0.032020137 0.036023192
-0.12105525 0.12901866 -0.051349122 0.05272737 0.0839309 0.11861639 0.07570077 -0.07544924
-0.03741992 -0.13483444 0.028747639 0.008378053 0.11453921 -0.04837851 -0.09767839 -0.12173623
0.13550082 -0.08162556 -0.09896678 0.13077816 0.101867825 -0.13253495 -0.10753738 0.031459216
-0.017551627 -0.122085914 -0.13239554 0.13092667 0.04645631 0.12392897 0.0112494705 -0.097327225
0.06722541 0.04256783 0.12586404 -0.11958856 -0.12912834 0.10309304 -0.071838714 -0.0547265
-0.10662184 0.08676724 0.10062558 -0.088373624 0.039945625 0.011085697 0.01760861 0.12704086
-0.002060128 -0.11248935 0.010819169 -0.093673885 -0.005423125 0.10385541 -0.1149668 -0.12577322
-0.11703379 0.1178336 -0.04832944 0.06304014 -0.13013598 -0.05913364 0.06854012 -0.027457306
0.044727173 -0.09619172 -0.08067394 0.11876191 0.061487574 -0.0047752815 0.011586614 0.031382237
0.08127818 0.09829321 -0.08998935 0.13321134 -0.081506185 0.089417554 0.011501895 0.0893403
0.090680085 -0.017481403 0.03655545 -0.11235006 0.05286431 0.118559815 -0.07731692 0.12586363
0.0684078 -0.11367316 0.09960491 0.07088737 -0.10110324 0.058303107 0.008691168 -0.060027525
00000000: 9277 093d 7f8f 04be 5de9 093e efed 95bb
00000010: b7eb 91bd 2603 903d 35ac d23d 2a06 2e3d
00000020: 5e8a 8f3d b4a5 01be a819 653d 853b be3b
00000030: ba0e 0ebd 0f05 46bd a4d8 093e 0b6e ed3c
00000040: ee4f a13d b8e9 ccbc 98c3 29ba f788 823c
00000050: 2442 f5bd 5ce3 8dbd 3406 e6bd 3567 9dbd
00000060: e962 5dbc 152f 48bd b74c edbd 690a cf3d
00000070: e079 ea3c df13 803c 9136 2abd 0518 0abe
00000080: 869c f1bd 1869 aebd 531c cbbd 0f8a 95bd
00000090: 2f49 5b3c 8a68 843d bf3f bd3d c86a b33c
000000a0: 7406 d4bd b7d7 8ebd 81ce fabb 12e8 d53b
000000b0: ea98 4ebc 2d75 f8bd 16b5 873d b285 2c3d
000000c0: 1416 d63c 4b4d 0abe 1622 953d c2b7 7e3d
000000d0: fbd4 4b3b 7f8a 573d 696b 4fbd ea54 0bbe
000000e0: 99f2 143d 6e76 08bc c1b2 94bc 463d 37bd
000000f0: 6908 043e 13fc 023d 6a36 34bd 74ac b9bd
00000100: a662 403d 6dad 0a3d d32d 9cbd 15ec 8c3d
00000110: 57e0 913c 75b8 87bd 9ae0 08bd d430 88bd
00000120: 47c7 ea3c 12ea 0e3d 7425 9f3d adf0 0cba
00000130: c799 083d e61a c3bd e9ab 31bc 953d 373d
00000140: 7f42 52bd bca6 89bd 6b0a 85bc 439e 253d
00000150: 18c8 023e fc9c 6e3d a7d3 70b9 2016 07be
00000160: 5b2c a9bd c878 d7bd f402 eebc a324 c43c
00000170: c849 9cbd 6a67 0dbd 1f5b 983d 4b7a 26bd
00000180: 9345 a6bc d021 98bb fc2d 953d 2555 af3d
00000190: 95be c7bd 0539 e23d 0245 033e 9371 3c3d
000001a0: da8f cf3d 1e1a 13bd 5ee5 55bd 4e72 323d
000001b0: 05d3 423d afe3 0abc 9f17 ab3d 645a 843c
000001c0: 6a3f d7bd 794d 0abd b6d1 b53d 0ae1 1c3d
000001d0: 9c2d 703d c2e3 bb3d 34e8 8bbd b666 37bc
000001e0: dbfc f4bd fd4d e63d 4bb7 afbc 1867 f1bc
000001f0: 13c0 8dbd 8f77 843d 6a7e d83d a4e1 4a3d
00000200: f6a1 bcbc ead1 7ebd 53cd a4bd e20f 52bd
00000210: f505 be3d 9fb8 233d f7cc 003e adf6 e33c
00000220: e676 18bd 7ae4 92bc 5f68 893d 0631 9a3d
00000230: 1a7d a9bd b96b 9b3d 14dc c9bd af32 f03d
00000240: 060a 9c3c 1119 bd3d c0f5 dd3d cac1 bd3d
00000250: 0df8 833d 75b5 c03d 8f5f 913a a68c e3bd
00000260: 5ce8 cebd 1fe0 ebbc 9a06 f93d e2c4 5d3c
00000270: 1cac fa3d 10c4 b13d 8c27 03bd 0e8d 133d
00000280: d1eb f7bd 781d 043e 7553 52bd a8f8 573d
00000290: f7e3 ab3d 26ed f23d 0109 9b3d 2285 9abd
000002a0: a145 19bd 0a12 0abe 2b80 eb3c 1a44 093c
000002b0: 8993 ea3d 8b28 46bd 9c0b c8bd d850 f9bd
000002c0: bac0 0a3e 4d2b a7bd 18af cabd b6ea 053e
000002d0: 14a0 d03d 3eb7 07be 8f3c dcbd 61db 003d
000002e0: 6ec8 8fbc 2e08 fabd b292 07be a411 063e
000002f0: f948 3e3d 79ce fd3d b34f 383c 7f53 c7bd
00000300: 7aad 893d 9b5b 2e3d 81e2 003e d9ea f4bd
00000310: 383a 04be 7222 d33d 2d20 93bd e528 60bd
00000320: 8d5c dabd 06b3 b13d c914 ce3d 3bfd b4bd
00000330: 069e 233d c9a0 353c ef3f 903c 0017 023e
00000340: 3603 07bb d160 e6bd e242 313c 18d8 bfbd
00000350: 78b4 b1bb 25b2 d43d b773 ebbd b2ca 00be
00000360: 69af efbd be52 f13d 17f5 45bd 301b 813d
00000370: 5e42 05be 1e36 72bd c35e 8c3d 25ee e0bc
00000380: d733 373d 2a00 c5bd 6138 a5bd 7239 f33d
00000390: 65da 7b3d f779 9cbb c8d5 3d3c a98a 003d
000003a0: 2d75 a63d f34d c93d 564c b8bd 8e68 083e
000003b0: b7ec a6bd 8d20 b73d 7272 3c3c 0cf8 b63d
000003c0: 7bb6 b93d 2935 8fbc 2bbb 153d ca17 e6bd
000003d0: 3f88 583d 7dcf f23d 5558 9ebd 65e2 003e
000003e0: 6319 8c3d 79cd e8bd a9fd cb3d 662d 913d
000003f0: 370f cfbd 3dcf 6e3d 6765 0e3c 6cdf 75bd

_deterministic_encoder.lstm.bias_ih_l0_reverse f4 [256]
0.0 0.0 0.0 0.0 0.0 0.0 0.0 0.0
0.0 0.0 0.0 0.0 0.0 0.0 0.0 0.0
0.0 0.0 0.0 0.0 0.0 0.0 0.0 0.0
0.0 0.0 0.0 0.0 0.0 0.0 0.0 0.0
0.0 0.0 0.0 0.0 0.0 0.0 0.0 0.0
0.0 0.0 0.0 0.0 0.0 0.0 0.0 0.0
0.0 0.0 0.0 0.0 0.0 0.0 0.0 0.0
0.0 0.0 0.0 0.0 0.0 0.0 0.0 0.0
0.0 0.0 0.0 0.0 0.0 0.0 0.0 0.0
0.0 0.0 0.0 0.0 0.0 0.0 0.0 0.0
0.0 0.0 0.0 0.0 0.0 0.0 0.0 0.0
0.0 0.0 0.0 0.0 0.0 0.0 0.0 0.0
0.0 0.0 0.0 0.0 0.0 0.0 0.0 0.0
0.0 0.0 0.0 0.0 0.0 0.0 0.0 0.0
0.0 0.0 0.0 0.0 0.0 0.0 0.0 0.0
0.0 0.0 0.0 0.0 0.0 0.0 0.0 0.0
0.0 0.0 0.0 0.0 0.0 0.0 0.0 0.0
0.0 0.0 0.0 0.0 0.0 0.0 0.0 0.0
0.0 0.0 0.0 0.0 0.0 0.0 0.0 0.0
0.0 0.0 0.0 0.0 0.0 0.0 0.0 0.0
0.0 0.0 0.0 0.0 0.0 0.0 0.0 0.0
0.0 0.0 0.0 0.0 0.0 0.0 0.0 0.0
0.0 0.0 0.0 0.0 0.0 0.0 0.0 0.0
0.0 0.0 0.0 0.0 0.0 0.0 0.0 0.0
0.0 0.0 0.0 0.0 0.0 0.0 0.0 0.0
0.0 0.0 0.0 0.0 0.0 0.0 0.0 0.0
0.0 0.0 0.0 0.0 0.0 0.0 0.0 0.0
0.0 0.0 0.0 0.0 0.0 0.0 0.0 0.0
0.0 0.0 0.0 0.0 0.0 0.0 0.0 0.0
0.0 0.0 0.0 0.0 0.0 0.0 0.0 0.0
0.0 0.0 0.0 0.0 0.0 0.0 0.0 0.0
0.0 0.0 0.0 0.0 0.0 0.0 0.0 0.0
00000000: 0000 0000 0000 0000 0000 0000 0000 0000
00000010: 0000 0000 0000 0000 0000 0000 0000 0000
00000020: 0000 0000 0000 0000 0000 0000 0000 0000
00000030: 0000 0000 0000 0000 0000 0000 0000 0000
00000040: 0000 0000 0000 0000 0000 0000 0000 0000
00000050: 0000 0000 0000 0000 0000 0000 0000 0000
00000060: 0000 0000 0000 0000 0000 0000 0000 0000
00000070: 0000 0000 0000 0000 0000 0000 0000 0000
00000080: 0000 0000 0000 0000 0000 0000 0000 0000
00000090: 0000 0000 0000 0000 0000 0000 0000 0000
000000a0: 0000 0000 0000 0000 0000 0000 0000 0000
000000b0: 0000 0000 0000 0000 0000 0000 0000 0000
000000c0: 0000 0000 0000 0000 0000 0000 0000 0000
000000d0: 0000 0000 0000 0000 0000 0000 0000 0000
000000e0: 0000 0000 0000 0000 0000 0000 0000 0000
000000f0: 0000 0000 0000 0000 0000 0000 0000 0000
00000100: 0000 0000 0000 0000 0000 0000 0000 0000
00000110: 0000 0000 0000 0000 0000 0000 0000 0000
00000120: 0000 0000 0000 0000 0000 0000 0000 0000
00000130: 0000 0000 0000 0000 0000 0000 0000 0000
00000140: 0000 0000 0000 0000 0000 0000 0000 0000
00000150: 0000 0000 0000 0000 0000 0000 0000 0000
00000160: 0000 0000 0000 0000 0000 0000 0000 0000
00000170: 0000 0000 0000 0000 0000 0000 0000 0000
00000180: 0000 0000 0000 0000 0000 0000 0000 0000
00000190: 0000 0000 0000 0000 0000 0000 0000 0000
000001a0: 0000 0000 0000 0000 0000 0000 0000 0000
000001b0: 0000 0000 0000 0000 0000 0000 0000 0000
000001c0: 0000 0000 0000 0000 0000 0000 0000 0000
000001d0: 0000 0000 0000 0000 0000 0000 0000 0000
000001e0: 0000 0000 0000 0000 0000 0000 0000 0000
000001f0: 0000 0000 0000 0000 0000 0000 0000 0000
00000200: 0000 0000 0000 0000 0000 0000 0000 0000
00000210: 0000 0000 0000 0000 0000 0000 0000 0000
00000220: 0000 0000 0000 0000 0000 0000 0000 0000
00000230: 0000 0000 0000 0000 0000 0000 0000 0000
00000240: 0000 0000 0000 0000 0000 0000 0000 0000
00000250: 0000 0000 0000 0000 0000 0000 0000 0000
00000260: 0000 0000 0000 0000 0000 0000 0000 0000
00000270: 0000 0000 0000 0000 0000 0000 0000 0000
00000280: 0000 0000 0000 0000 0000 0000 0000 0000
00000290: 0000 0000 0000 0000 0000 0000 0000 0000
000002a0: 0000 0000 0000 0000 0000 0000 0000 0000
000002b0: 0000 0000 0000 0000 0000 0000 0000 0000
000002c0: 0000 0000 0000 0000 0000 0000 0000 0000
000002d0: 0000 0000 0000 0000 0000 0000 0000 0000
000002e0: 0000 0000 0000 0000 0000 0000 0000 0000
000002f0: 0000 0000 0000 0000 0000 0000 0000 0000
00000300: 0000 0000 0000 0000 0000 0000 0000 0000
00000310: 0000 0000 0000 0000 0000 0000 0000 0000
00000320: 0000 0000 0000 0000 0000 0000 0000 0000
00000330: 0000 0000 0000 0000 0000 0000 0000 0000
00000340: 0000 0000 0000 0000 0000 0000 0000 0000
00000350: 0000 0000 0000 0000 0000 0000 0000 0000
00000360: 0000 0000 0000 0000 0000 0000 0000 0000
00000370: 0000 0000 0000 0000 0000 0000 0000 0000
00000380: 0000 0000 0000 0000 0000 0000 0000 0000
00000390: 0000 0000 0000 0000 0000 0000 0000 0000
000003a0: 0000 0000 0000 0000 0000 0000 0000 0000
000003b0: 0000 0000 0000 0000 0000 0000 0000 0000
000003c0: 0000 0000 0000 0000 0000 0000 0000 0000
000003d0: 0000 0000 0000 0000 0000 0000 0000 0000
000003e0: 0000 0000 0000 0000 0000 0000 0000 0000
000003f0: 0000 0000 0000 0000 0000 0000 0000 0000

_deterministic_encoder.lstm.bias_hh_l0_reverse f4 [256]
0.0 0.0 0.0 0.0 0.0 0.0 0.0 0.0
0.0 0.0 0.0 0.0 0.0 0.0 0.0 0.0
0.0 0.0 0.0 0.0 0.0 0.0 0.0 0.0
0.0 0.0 0.0 0.0 0.0 0.0 0.0 0.0
0.0 0.0 0.0 0.0 0.0 0.0 0.0 0.0
0.0 0.0 0.0 0.0 0.0 0.0 0.0 0.0
0.0 0.0 0.0 0.0 0.0 0.0 0.0 0.0
0.0 0.0 0.0 0.0 0.0 0.0 0.0 0.0
0.0 0.0 0.0 0.0 0.0 0.0 0.0 0.0
0.0 0.0 0.0 0.0 0.0 0.0 0.0 0.0
0.0 0.0 0.0 0.0 0.0 0.0 0.0 0.0
0.0 0.0 0.0 0.0 0.0 0.0 0.0 0.0
0.0 0.0 0.0 0.0 0.0 0.0 0.0 0.0
0.0 0.0 0.0 0.0 0.0 0.0 0.0 0.0
0.0 0.0 0.0 0.0 0.0 0.0 0.0 0.0
0.0 0.0 0.0 0.0 0.0 0.0 0.0 0.0
0.0 0.0 0.0 0.0 0.0 0.0 0.0 0.0
0.0 0.0 0.0 0.0 0.0 0.0 0.0 0.0
0.0 0.0 0.0 0.0 0.0 0.0 0.0 0.0
0.0 0.0 0.0 0.0 0.0 0.0 0.0 0.0
0.0 0.0 0.0 0.0 0.0 0.0 0.0 0.0
0.0 0.0 0.0 0.0 0.0 0.0 0.0 0.0
0.0 0.0 0.0 0.0 0.0 0.0 0.0 0.0
0.0 0.0 0.0 0.0 0.0 0.0 0.0 0.0
0.0 0.0 0.0 0.0 0.0 0.0 0.0 0.0
0.0 0.0 0.0 0.0 0.0 0.0 0.0 0.0
0.0 0.0 0.0 0.0 0.0 0.0 0.0 0.0
0.0 0.0 0.0 0.0 0.0 0.0 0.0 0.0
0.0 0.0 0.0 0.0 0.0 0.0 0.0 0.0
0.0 0.0 0.0 0.0 0.0 0.0 0.0 0.0
0.0 0.0 0.0 0.0 0.0 0.0 0.0 0.0
0.0 0.0 0.0 0.0 0.0 0.0 0.0 0.0
00000000: 0000 0000 0000 0000 0000 0000 0000 0000
00000010: 0000 0000 0000 0000 0000 0000 0000 0000
00000020: 0000 0000 0000 0000 0000 0000 0000 0000
00000030: 0000 0000 0000 0000 0000 0000 0000 0000
00000040: 0000 0000 0000 0000 0000 0000 0000 0000
00000050: 0000 0000 0000 0000 0000 0000 0000 0000
00000060: 0000 0000 0000 0000 0000 0000 0000 0000
00000070: 0000 0000 0000 0000 0000 0000 0000 0000
00000080: 0000 0000 0000 0000 0000 0000 0000 0000
00000090: 0000 0000 0000 0000 0000 0000 0000 0000
000000a0: 0000 0000 0000 0000 0000 0000 0000 0000
000000b0: 0000 0000 0000 0000 0000 0000 0000 0000
000000c0: 0000 0000 0000 0000 0000 0000 0000 0000
000000d0: 0000 0000 0000 0000 0000 0000 0000 0000
000000e0: 0000 0000 0000 0000 0000 0000 0000 0000
000000f0: 0000 0000 0000 0000 0000 0000 0000 0000
00000100: 0000 0000 0000 0000 0000 0000 0000 0000
00000110: 0000 0000 0000 0000 0000 0000 0000 0000
00000120: 0000 0000 0000 0000 0000 0000 0000 0000
00000130: 0000 0000 0000 0000 0000 0000 0000 0000
00000140: 0000 0000 0000 0000 0000 0000 0000 0000
00000150: 0000 0000 0000 0000 0000 0000 0000 0000
00000160: 0000 0000 0000 0000 0000 0000 0000 0000
00000170: 0000 0000 0000 0000 0000 0000 0000 0000
00000180: 0000 0000 0000 0000 0000 0000 0000 0000
00000190: 0000 0000 0000 0000 0000 0000 0000 0000
000001a0: 0000 0000 0000 0000 0000 0000 0000 0000
000001b0: 0000 0000 0000 0000 0000 0000 0000 0000
000001c0: 0000 0000 0000 0000 0000 0000 0000 0000
000001d0: 0000 0000 0000 0000 0000 0000 0000 0000
000001e0: 0000 0000 0000 0000 0000 0000 0000 0000
000001f0: 0000 0000 0000 0000 0000 0000 0000 0000
00000200: 0000 0000 0000 0000 0000 0000 0000 0000
00000210: 0000 0000 0000 0000 0000 0000 0000 0000
00000220: 0000 0000 0000 0000 0000 0000 0000 0000
00000230: 0000 0000 0000 0000 0000 0000 0000 0000
00000240: 0000 0000 0000 0000 0000 0000 0000 0000
00000250: 0000 0000 0000 0000 0000 0000 0000 0000
00000260: 0000 0000 0000 0000 0000 0000 0000 0000
00000270: 0000 0000 0000 0000 0000 0000 0000 0000
00000280: 0000 0000 0000 0000 0000 0000 0000 0000
00000290: 0000 0000 0000 0000 0000 0000 0000 0000
000002a0: 0000 0000 0000 0000 0000 0000 0000 0000
000002b0: 0000 0000 0000 0000 0000 0000 0000 0000
000002c0: 0000 0000 0000 0000 0000 0000 0000 0000
000002d0: 0000 0000 0000 0000 0000 0000 0000 0000
000002e0: 0000 0000 0000 0000 0000 0000 0000 0000
000002f0: 0000 0000 0000 0000 0000 0000 0000 0000
00000300: 0000 0000 0000 0000 0000 0000 0000 0000
00000310: 0000 0000 0000 0000 0000 0000 0000 0000
00000320: 0000 0000 0000 0000 0000 0000 0000 0000
00000330: 0000 0000 0000 0000 0000 0000 0000 0000
00000340: 0000 0000 0000 0000 0000 0000 0000 0000
00000350: 0000 0000 0000 0000 0000 0000 0000 0000
00000360: 0000 0000 0000 0000 0000 0000 0000 0000
00000370: 0000 0000 0000 0000 0000 0000 0000 0000
00000380: 0000 0000 0000 0000 0000 0000 0000 0000
00000390: 0000 0000 0000 0000 0000 0000 0000 0000
000003a0: 0000 0000 0000 0000 0000 0000 0000 0000
000003b0: 0000 0000 0000 0000 0000 0000 0000 0000
000003c0: 0000 0000 0000 0000 0000 0000 0000 0000
000003d0: 0000 0000 0000 0000 0000 0000 0000 0000
000003e0: 0000 0000 0000 0000 0000 0000 0000 0000
000003f0: 0000 0000 0000 0000 0000 0000 0000 0000

_deterministic_encoder.lstm.weight_ih_l1 f4 [256, 128]
-0.036514968 -0.026674211 -0.1189743 0.07317835 -0.05010906 0.0314046 0.05554393 -0.08630395
0.12253736 -0.07675566 0.111844316 -0.062265083 -0.0859002 -0.061114073 -0.057183117 -0.06294243
0.038931757 -0.11368705 -0.0417739 -0.034404993 0.032923892 0.11234398 -0.052921683 -0.050323904
0.08997662 -0.101474956 -0.11153093 -0.02250278 0.054745987 -0.085758895 -0.028789148 0.022231326
-0.016805813 -0.04224786 -0.07982585 0.039210543 -0.016681358 -0.025183126 0.011697084 0.002884388
-0.018411025 0.04672557 -0.072383076 0.002343282 -0.05234012 -0.06597981 0.061003953 -0.08605173
-0.12477736 -0.0077516288 0.0154376775 -0.10425186 0.096776545 0.055146992 -0.033781126 0.040420637
0.058971107 -0.10857792 -0.059403494 0.09849559 -0.054225117 0.07414144 0.09802669 0.028757393
-0.019022644 0.053750604 -0.030189604 0.07486692 -0.09608118 0.0019311458 -0.08703828 0.042377442
0.011370689 -0.099148795 -0.11153996 0.11292702 0.008638814 0.056712598 -0.036066473 -0.11291756
0.021195352 -0.054944873 -0.10163507 -0.083969235 -0.061225682 -0.0056416094 -0.047825605 -0.08546233
-0.119462535 -0.059021056 0.11328374 0.030751884 -0.083898395 0.08347362 -0.04948169 -0.09899239
0.023097426 -0.08195254 -0.12105301 0.0751517 -0.1187132 0.10829277 0.017049804 -0.1242169
0.06505096 0.061865777 0.11347352 -0.0027536303 0.04726298 -0.02153182 0.11584844 -0.08671017
-0.028892145 0.0489413 -0.086470604 0.11031693 -0.10466516 0.00444974 -0.025329009 -0.0051497817
-0.05516787 -0.11898181 0.039513335 0.011343315 0.08935568 -0.10198332 -0.11675778 -0.007984906
0.08198854 -0.10954307 0.0220581 0.008021414 0.00946562 -0.041659087 0.006510094 0.06711748
0.064427555 0.082582355 -0.03983535 -0.07660185 0.06745373 -0.08872019 0.019393414 -0.11730601
0.0972898 0.0018502325 0.06553422 -0.057275355 0.049901873 0.065300524 0.051534876 -0.09517771
-0.044145375 0.11593799 0.019135728 -0.10762264 -0.026732937 -0.08432487 0.08092579 -0.0757698
-0.090065226 0.116072714 0.013255656 0.04549396 -0.11345337 0.01943387 0.0323821 -0.010894135
0.07115543 -0.1149164 0.026982099 -0.012422532 -0.09283458 0.049318 0.024129689 0.110228404
0.05539 0.10614534 -0.06587486 -0.019032195 -0.032588705 0.08426759 -0.008525476 0.0063195676
-0.092755735 0.093645394 -0.07447843 0.031130701 -0.023801118 0.034554526 0.009488285 0.068976626
-0.048042372 0.11883542 -0.022848591 0.055910543 -0.036218986 -0.11163321 -0.09924142 0.046046317
0.11978963 -0.010446146 0.10238586 -0.018392071 0.12085007 0.029584005 0.098975 -0.02760221
0.039084643 0.0110479295 0.077175215 -0.055246815 -0.032593936 -0.11850181 -0.10128075 0.09136945
-0.074032634 0.12108843 -0.099590406 -0.102905095 0.12074293 0.051631525 0.03662251 -0.00620237
-0.021786645 -0.00021596253 -0.03177546 -0.091249675 0.1174653 -0.121029034 -0.08095509 0.09836027
0.036242634 0.10729277 0.009202585 -0.041058302 0.098502934 0.10244505 -0.0070599616 -0.083317876
0.07321119 0.07717599 -0.043655276 -0.11159611 0.013213187 -0.07221189 -0.034794554 0.07448554
-0.036114708 -0.10551311 0.059857965 0.08024494 -0.096821085 -0.12233032 -0.03528285 -0.114407316
00000000: b890 15bd e083 dabc cca8 f3bd 88de 953d
00000010: 283f 4dbd 1ca2 003d 0882 633d 20c0 b0bd
00000020: def4 fa3d 1232 9dbd a20e e53d ac09 7fbd
00000030: 72ec afbd c052 7abd d838 6abd f6e7 80bd
00000040: e876 1f3d c2d4 e8bd 1c1b 2bbd 40ec 0cbd
00000050: 34db 063d 9a14 e63d 68c4 58bd 7020 4ebd
00000060: aa45 b83d 1ad2 cfbd 546a e4bd c057 b8bc
00000070: 543d 603d 5ca2 afbd 38d7 ebbc 781e b63c
00000080: 58ac 89bc 180c 2dbd bc7b a3bd 3c9b 203d
00000090: 58a7 88bc d84c cebc 20a5 3f3c 0008 3d3b
000000a0: b8d2 96bc 5063 3f3d 943d 94bd c091 193b
000000b0: 9862 56bd 6c20 87bd 48df 793d e43b b0bd
000000c0: 468b ffbd 6001 febb 50ee 7c3c 0082 d5bd
000000d0: c832 c63d d0e1 613d 145e 0abd 1c90 253d
000000e0: b08b 713d 1a5e debd 1451 73bd 0eb8 c93d
000000f0: 281b 5ebd 78d7 973d 38c2 c83d a094 eb3c
00000100: 60d5 9bbc 9829 5c3d 3050 f7bc d453 993d
00000110: 36c6 c4bd 801e fd3a 2041 b2bd f893 2d3d
00000120: 204c 3a3c 860e cbbd 106f e4bd 4846 e73d
00000130: d089 0d3c 784b 683d 70ba 13bd 5241 e7bd
00000140: e0a1 ad3c e00d 61bd 0c26 d0bd 10f8 abbd
00000150: c8c7 7abd 40dd b8bb c8e4 43bd e006 afbd
00000160: c6a8 f4bd 10c0 71bd 4e01 e83d 60eb fb3c
00000170: ecd2 abbd 38f4 aa3d 50ad 4abd 86bc cabd
00000180: d036 bd3c bcd6 a7bd a4ea f7bd 22e9 993d
00000190: e81f f3bd 9ac8 dd3d 08ac 8b3c 6e65 febd
000001a0: 7039 853d f866 7d3d ce64 e83d 4076 34bb
000001b0: d496 413d 8063 b0bc f241 ed3d 1a95 b1bd
000001c0: 38af ecbc ac76 483d 8017 b1bd d8ed e13d
000001d0: b05a d6bd 20cf 913b c87e cfbc 80bf a8bb
000001e0: b4f7 61bd bcac f3bd bcd8 213d 50d9 393c
000001f0: 1c00 b73d a2dc d0bd b41e efbd 20d3 02bc
00000200: 9ce9 a73d 1e58 e0bd 30b3 b43c 406c 033c
00000210: b015 1b3c b8a2 2abd a052 d53b e474 893d
00000220: 98f2 833d f020 a93d 642a 23bd 6ee1 9cbd
00000230: 2e25 8a3d eeb2 b5bd f0de 9e3c 223e f0bd
00000240: e03f c73d 8083 f23a ce36 863d 9099 6abd
00000250: e865 4c3d 48bc 853d 3c16 533d 88ec c2bd
00000260: c8d1 34bd e670 ed3d 88c2 9c3c 4269 dcbd
00000270: 08ff dabc 84b2 acbd 6cbc a53d 322d 9bbd
00000280: 1e74 b8bd 88b7 ed3d 402e 593c e057 3a3d
00000290: 3e5a e8bd c833 9f3c 18a3 043d 507d 32bc
000002a0: f0b9 913d 4a59 ebbd 9009 dd3c e087 4bbc
000002b0: 0e20 bebd ac01 4a3d a0ab c53c 6ebf e13d
000002c0: a0e0 623d ba62 d93d 66e9 86bd 68e9 9bbc
000002d0: bc7b 05bd 7c94 ac3d 70ae 0bbc 6014 cf3b
000002e0: b8f6 bdbd 28c9 bf3d 2688 98bd d005 ff3c
000002f0: 90fa c2bc 0c89 0d3d c074 1b3c 9e43 8d3d
00000300: 14c8 44bd fc5f f33d f82c bbbc 7402 653d
00000310: 5c5a 14bd f49f e4bd 163f cbbd 109b 3c3d
00000320: 4454 f53d 5026 2bbc aeaf d13d f8aa 96bc
00000330: 3e80 f73d 285a f23c 68b3 ca3d 081e e2bc
00000340: 3817 203d 6002 353c 0a0e 9e3d 7c4a 62bd
00000350: 3881 05bd 14b1 f2bd 486c cfbd e81f bb3d
00000360: 6c9e 97bd 36fd f73d 0ef6 cbbd e8bf d2bd
00000370: 1248 f73d 947b 533d 7c01 163d 403d cbbb
00000380: e879 b2bc 0074 62b9 fc26 02bd 1ce1 babd
00000390: a691 f03d 12de f7bd c8cb a5bd 1c71 c93d
000003a0: 2873 143d 50bc db3d 70c6 163c c02c 28bd
000003b0: e8bb c93d b6ce d13d 4057 e7bb 90a2 aabd
000003c0: c0ef 953d 720e 9e3d e0cf 32bd 808c e4bd
000003d0: 207c 583c d4e3 93bd bc84 0ebd e08b 983d
000003e0: 04ed 13bd 4217 d8bd a02d 753d 7657 a43d
000003f0: 224a c6bd 5288 fabd c084 10bd 624e eabd
