CNP-model-save-name/saved_models/model_2000.pth (torch, 733282 bytes, 50 tensors)

weight f4 [64, 5]
0	0x3dc90344	0.09815076
1	0x3e736ed6	0.2377275
2	0x3e78d1f4	0.24298841
3	0x3e18c60e	0.14919302
4	0xbd8ab27c	-0.067723244
5	0x3e415c7b	0.18882935
6	0x3dc1176c	0.094282955
7	0xbe2303b8	-0.15919387
8	0xbe3f9b2a	-0.18711534
9	0x3cd89257	0.026436968
10	0xbe652775	-0.22378333
11	0x3d5a02c5	0.053225297
12	0xbdf478ba	-0.11937089
13	0xbdcc6d18	-0.099817455
14	0xbe58cfff	-0.21173094
15	0x3e4e5e09	0.20153059
16	0xbd6f764d	-0.05846243
17	0x3e5a6dbb	0.21330921
18	0x3e288168	0.16455615
19	0x3caf7b6b	0.021421155
20	0xbe8560b8	-0.26050353
21	0xbe16ac05	-0.14714058
22	0x3d60850a	0.054814376
23	0x3e34affc	0.17645258
24	0x3cd606f0	0.026126355
25	0x3d9934de	0.07480787
26	0xbe912ab9	-0.28352907
27	0xbe5a1ea9	-0.21300758
28	0xbdcb9171	-0.0993985
29	0xbe868bd8	-0.26278567
30	0x3c70ff10	0.014709249
31	0xbdaa1f87	-0.083067946
32	0x3cf672f3	0.030084109
33	0x3e2cf4b6	0.16890225
34	0x3c8e11c1	0.01734245
35	0x3e8cb578	0.274822
36	0x3e31e653	0.17373018
37	0xbdcd944f	-0.10038053
38	0x3e07e543	0.1327105
39	0x3de69c84	0.11260322
40	0x3e892db6	0.26792687
41	0x3dce091f	0.100603335
42	0xbc8addc1	-0.016951444
43	0xbe2f8ebe	-0.17144296
44	0x3e37affa	0.17938223
45	0xbe54f34d	-0.20795937
46	0xbe696fec	-0.22796601
47	0xbdcf1ea5	-0.10113267
48	0x3d64b0e9	0.055832777
49	0x3dc121c6	0.0943027
50	0x3e555911	0.20834757
51	0x3e326cb2	0.17424276
52	0xbd00e049	-0.031463895
53	0x3e1bbe87	0.15209399
54	0x3e91aa89	0.2845042
55	0xbdc28bfb	-0.094993554
56	0x3e624a75	0.22098716
57	0x3e515352	0.2044194
58	0xbe9bc6ce	-0.30425113
59	0xbdede139	-0.116152234
60	0xbe6aeae1	-0.22941162
61	0x3d42dca6	0.047573708
62	0x3e27b405	0.16377266
63	0xbdc2ee10	-0.09518063
64	0xbe8b2519	-0.2717674
65	0xbe8b1d9d	-0.2717103
66	0x3e193de6	0.14965019
67	0x3de0b5d2	0.109721795
68	0x3deeed62	0.11666371
69	0x3e8ce096	0.27515095
70	0xbbac3ff4	-0.0052566472
71	0x3d50f53a	0.051015116
72	0xbbd9c0ac	-0.0066452827
73	0xbe86775f	-0.26262948
74	0x3e995368	0.29946446
75	0x3e84e001	0.2595215
76	0xbe348140	-0.1762743
77	0x3e799d08	0.24376309
78	0x3e39e410	0.18153405
79	0x3e8de2e3	0.27712163
80	0xbd472809	-0.048622165
81	0xbe8bb370	-0.27285337
82	0x3e7b5898	0.24545515
83	0x3c7323bd	0.014840064
84	0xbdb9bffb	-0.090698205
85	0x3e7e6a8f	0.24845336
86	0xbdbe4673	-0.09290781
87	0xbe797531	-0.24361111
88	0xbe7aec31	-0.24504162
89	0xbe8ccf17	-0.27501747
90	0x3e9624e5	0.29325023
91	0xbe166c71	-0.14689805
92	0xbe3e0d19	-0.18559684
93	0x3e03bfad	0.12866087
94	0x3de895dc	0.113567084
95	0xbe706175	-0.23474677
96	0x3e8ac3bb	0.27102455
97	0xbe5a5b33	-0.21323852
98	0x3e722f09	0.23650755
99	0xbd233812	-0.039848395
100	0x3e44bbe0	0.19212294
101	0x3e748d94	0.23882133
102	0x3d1dd9af	0.038537677
103	0x3e08d282	0.13361552
104	0x3dea580f	0.11442577
105	0xbe5cda18	-0.21567571
106	0x3e78ec3a	0.24308863
107	0x3e6e6b5c	0.23283142
108	0xbe732b04	-0.23746878
109	0x3e9fd641	0.3121815
110	0xbe86c4d2	-0.26322037
111	0xbbc27431	-0.0059342613
112	0xbe2cd195	-0.16876824
113	0x3ccdeaf0	0.025136441
114	0xbe3a789c	-0.18210071
115	0xbd82645b	-0.063667975
116	0x3e14bdea	0.14525571
117	0xbe8b5425	-0.27212635
118	0x3dc00eee	0.093778476
119	0xbe9798a8	-0.29608655
120	0x3e53150c	0.20613497
121	0x3e8dfa99	0.27730253
122	0xbe03e2fd	-0.12879558
123	0xbd308186	-0.043092273
124	0xbe3a5d1f	-0.18199585
125	0xbe576ed6	-0.21038374
126	0x3e96cdbb	0.29453835
127	0x3e910fe0	0.28332424
128	0x3d49d9a0	0.04927981
129	0x3dcf6bfa	0.10128017
130	0xbd325db9	-0.043546412
131	0x3dbc9e27	0.09209853
132	0x3e5777ee	0.21041843
133	0xbe8f4deb	-0.27989134
134	0x3d26ff8a	0.040771045
135	0xbcc18217	-0.023621602
136	0xbe8e45c3	-0.277876
137	0xbab823d0	-0.0014048759
138	0xbcb9680b	-0.02263262
139	0x3e776546	0.24159727
140	0xbe481ce9	-0.19542278
141	0xbe34cb2c	-0.17655629
142	0x3e4a7f66	0.19775161
143	0xbe553baa	-0.20823541
144	0x3e94d093	0.2906538
145	0x3e899c80	0.26877213
146	0x3dae0553	0.08497109
147	0xbda61097	-0.08108633
148	0x3e19e0d2	0.15027168
149	0xbc3d3152	-0.011547403
150	0x3ce55877	0.027996285
151	0xbe2cd49f	-0.16877984
152	0xbe4d76eb	-0.20064895
153	0x3dacb350	0.08432639
154	0x3e893ede	0.26805776
155	0x3e384864	0.17996365
156	0xbe1542a8	-0.14576209
157	0x3dc650f6	0.09683411
158	0xbcae3edf	-0.021270214
159	0xbe9135ba	-0.28361303
160	0xbe23385a	-0.15939465
161	0x3e0626c0	0.1310072
162	0xbdf826bd	-0.12116764
163	0x3e06c179	0.13159741
164	0xbe1ae165	-0.15125044
165	0x3e86b47e	0.2630958
166	0x3e19cc71	0.15019394
167	0x3d88065f	0.0664184
168	0x3cd247e3	0.025669044
169	0x3e2131a4	0.15741593
170	0x3e73c4a0	0.23805475
171	0x3d3a0c2c	0.045421764
172	0x3e07a4f8	0.13246524
173	0x3dfb296c	0.1226376
174	0xbc3125d6	-0.010812243
175	0xbe471eed	-0.19445391
176	0xbe7a8978	-0.24466503
177	0x3db30100	0.08740425
178	0xbe716ea1	-0.23577358
179	0xbc86992d	-0.016430462
180	0xbdedff06	-0.116209075
181	0x3d916ab4	0.0710043
182	0xbdecf60e	-0.11570369
183	0x3e67d940	0.22641468
184	0xbe5dc5e4	-0.2165752
185	0x3e024b98	0.12724149
186	0xbe3e1411	-0.18562342
187	0x3deec6b5	0.11658994
188	0x3e44db01	0.19224168
189	0x3e89c187	0.26905462
190	0x3e4b754f	0.19868968
191	0x3bd27dff	0.0064237113
192	0x3c4fe051	0.012687759
193	0xbe478d9e	-0.19487616
194	0x3e25a18f	0.16174911
195	0xbc85fed6	-0.016356867
196	0xbe019513	-0.12654524
197	0x3e9d3a20	0.30708408
198	0xbd02e563	-0.03195704
199	0x3e6265f3	0.22109203
200	0x3e73115b	0.2373709
201	0x3e5fbf1e	0.21850249
202	0x3c6245a2	0.013810547
203	0x3e2e2b53	0.17008714
204	0x3e1502cf	0.14551853
205	0xbe0d0fec	-0.13775605
206	0xbd848eeb	-0.06472572
207	0xbe4ca357	-0.19984184
208	0xbe1ced21	-0.15324832
209	0xbe15852f	-0.14601587
210	0x3da81665	0.082073964
211	0xbe98d24f	-0.29847953
212	0xbe7c36f0	-0.24630332
213	0x3b81b853	0.0039587407
214	0xbe85af12	-0.2611013
215	0xbd9c493a	-0.07631154
216	0xbd1edf42	-0.038787134
217	0x3da9c861	0.08290172
218	0xbc5b6aad	-0.013392133
219	0xbe0eea7a	-0.13956633
220	0xbb971007	-0.004610065
221	0x3e9402fb	0.28908524
222	0x3e2c2e8f	0.16814636
223	0xbe771705	-0.24129875
224	0x3dcbff5d	0.09960816
225	0x3dbf65ac	0.09345564
226	0x3ddb7d8a	0.10717304
227	0x3e8eea50	0.2791314
228	0xbe11cf84	-0.14239317
229	0xbe060c4a	-0.13090625
230	0xbe40f806	-0.18844613
231	0xbe07c765	-0.13259657
232	0xbd317b7b	-0.04333065
233	0xbe8d4c61	-0.27597335
234	0xbe67f775	-0.22652991
235	0x3e17162b	0.1475455
236	0xbe7efb8e	-0.24900648
237	0xbe06ea2b	-0.13175265
238	0x3d65308b	0.055954497
239	0x3b572af1	0.0032831992
240	0xbe27894a	-0.16360965
241	0xbc00a3f6	-0.007851591
242	0x3dfc04a5	0.123055734
243	0x3e6ae529	0.2293898
244	0xbe8b473c	-0.27202785
245	0x3dbe251e	0.09284423
246	0x3dc45236	0.09585993
247	0x3df8dfa4	0.12152031
248	0xbe477afd	-0.1948051
249	0xbe48ca27	-0.19608365
250	0x3bb7d32c	0.0056098904
251	0xbdfd2471	-0.12360466
252	0x3d81b8e7	0.063340954
253	0xbdee99f8	-0.11650461
254	0xbe85cf58	-0.26134753
255	0xbe851dcb	-0.25999293

bias f4 [64]
0	0x3c77ded4	0.01512881
1	0xbca68eba	-0.02033173
2	0xbcb78f74	-0.022407271
3	0x3cb94390	0.022615224
4	0xbc1b1397	-0.00946512
5	0xbb4bffe9	-0.0031127876
6	0xbc5bd299	-0.01341691
7	0x3c11c723	0.008897576
8	0x3b5fd77d	0.003415554
9	0xba40f837	-0.00073612056
10	0x3c167490	0.009183064
11	0xbcfb41bf	-0.030670999
12	0xbc6cf705	-0.014463191
13	0xbc9243a6	-0.017854523
14	0x3d11849f	0.035526868
15	0xbb995346	-0.0046791164
16	0xbd02df36	-0.03195115
17	0x3c77796e	0.015104635
18	0x3c5bc64b	0.013413976
19	0xbb99e204	-0.0046961326
20	0x3c04bb0f	0.008101239
21	0x3c3f8b29	0.011690893
22	0xbc564a52	-0.013079243
23	0xbc931db0	-0.017958492
24	0x3cdfee12	0.0273352
25	0x3cde1eb8	0.027114257
26	0x3c8e4d6b	0.0173709
27	0x3c52c170	0.012863502
28	0x3cea1a5a	0.028577019
29	0x3cdb4979	0.026768433
30	0x3c8dd2b4	0.017312385
31	0xbc40d844	-0.011770312
32	0xbc990d1a	-0.018683005
33	0xbc992f10	-0.018699199
34	0x3c676cf5	0.0141250985
35	0xbcd37cda	-0.02581637
36	0xbc8267cd	-0.015918637
37	0x3c20bc89	0.009810575
38	0x3c8ea420	0.017412245
39	0x3ccaa133	0.024735069
40	0x3c21badf	0.009871214
41	0x3ca082f8	0.0195937
42	0xbccb67fa	-0.024829853
43	0xbc860f3e	-0.01636469
44	0x3cefc15e	0.02926701
45	0x3c45dc1b	0.012076403
46	0x3cc97ccb	0.024595639
47	0xbb57727b	-0.0032874632
48	0x3c2f9b2c	0.010718148
49	0xbc59502b	-0.013263742
50	0x3c930ba2	0.017949883
51	0xbc1bd5a7	-0.009511388
52	0xbd06a131	-0.032868568
53	0x3c156f9c	0.009120848
54	0x3b70974a	0.003671127
55	0xbd092821	-0.033485536
56	0xbc96eb61	-0.018422784
57	0xbc56a30d	-0.013100398
58	0x3cb5979c	0.02216702
59	0xba93b95d	-0.0011270453
60	0xbb6ecf2d	-0.0036439404
61	0x3b97a540	0.0046278536
62	0xbc181ac5	-0.009283726
63	0xbbbb3863	-0.005713509

weight f4 [64, 4]
0	0xbde0f5d0	-0.10984385
1	0xbe6969a5	-0.22794206
2	0xbcbdd3ff	-0.023172377
3	0x3dd553d5	0.1041638
4	0xbdcc2817	-0.09968584
5	0xbdb7cf85	-0.08975128
6	0xbe350253	-0.17676668
7	0x3b92ae34	0.004476333
8	0xbe66ae12	-0.2252734
9	0xbdab7d22	-0.083734766
10	0x3e5b2f9c	0.2140488
11	0xbc86ae12	-0.016440425
12	0x3e52b079	0.20575131
13	0xbe6da7ae	-0.23208496
14	0x3de158d0	0.11003268
15	0xbc7ad276	-0.015308967
16	0xbdfbb450	-0.12290251
17	0x3cecf26e	0.028924193
18	0xbb642bfb	-0.0034816253
19	0x3ea5bf74	0.3237263
20	0xbdf47614	-0.11936584
21	0xbd8f862e	-0.070080146
22	0x3e40bd5e	0.18822238
23	0x3e4bdb83	0.19907956
24	0xbd53713c	-0.05162166
25	0xbe8ae869	-0.2713044
26	0xbd33da68	-0.04390946
27	0xbda7d5e2	-0.08195092
28	0x3e33d580	0.17561913
29	0xbbd2cb1e	-0.006432905
30	0xbe48d46b	-0.19612281
31	0x3e3254ea	0.17415205
32	0xbc2bbfb1	-0.0104827145
33	0x3e074946	0.13211545
34	0xbdd76498	-0.105172336
35	0xbe814806	-0.25250262
36	0x3e6fffd8	0.2343744
37	0x3e8727b3	0.26397476
38	0xbe93b461	-0.28848556
39	0x3e3c7e8d	0.1840765
40	0xbe36cd7e	-0.17851827
41	0x3e4fae65	0.2028137
42	0x3d009bc5	0.031398553
43	0x3d968efa	0.07351489
44	0x3d17e987	0.037087943
45	0xbe0c3dd4	-0.1369546
46	0xbe537a5c	-0.20652145
47	0x3ea46415	0.32107607
48	0xbe6b7b89	-0.22996344
49	0x3dff6a14	0.12471405
50	0x3e19d2e1	0.1502185
51	0xbdeaa992	-0.11458124
52	0xbd20e2ec	-0.03927891
53	0xbe41b7e7	-0.1891781
54	0x3e2d414d	0.16919442
55	0xbe403342	-0.18769553
56	0xbdf2c73c	-0.11854407
57	0x3b957658	0.004561227
58	0xbda3da82	-0.080006614
59	0xbe4961ca	-0.1966621
60	0xbe4b5368	-0.19856036
61	0x3da3cd18	0.07998103
62	0x3e9b4f84	0.30334103
63	0x3df25940	0.11833429
64	0xbce99ea9	-0.028518038
65	0xbd55fb1a	-0.052241422
66	0xbe51519f	-0.20441292
67	0xbe59d64d	-0.21273156
68	0xbe72f958	-0.2372793
69	0x3e6162b6	0.22010311
70	0x3e91721e	0.28407377
71	0x3b8cda1a	0.0042984607
72	0xbe7487d0	-0.23879933
73	0x3db67cb7	0.08910506
74	0x3bb730fa	0.0055905553
75	0x3e3c2b50	0.18375897
76	0x3e9278b8	0.28607726
77	0xbd609599	-0.054830167
78	0xbd7947b2	-0.06085939
79	0xbe353cbd	-0.17698951
80	0x3be2a45b	0.0069165654
81	0xbc8be841	-0.01707852
82	0xbe224327	-0.15845929
83	0x3e251d64	0.16124493
84	0xbdee2d04	-0.1162968
85	0x3e18a8ca	0.14908138
86	0xbd734c46	-0.059398912
87	0xbe6d7d5e	-0.23192355
88	0xbe4233ed	-0.1896512
89	0x3d9db48e	0.07700454
90	0x3e03f8f4	0.12887937
91	0xbd5ec68c	-0.054388568
92	0xbe1a8f84	-0.1509381
93	0x3d9db59b	0.07700654
94	0xbe72d93b	-0.2371568
95	0xbe0554d3	-0.13020639
96	0xbd82a724	-0.06379536
97	0xbe2316f3	-0.15926723
98	0xbe4ad1b4	-0.19806558
99	0xbe0cbe0a	-0.13744369
100	0x3e84dcc6	0.25949687
101	0xbe8a3f36	-0.2700135
102	0x3e4e0be2	0.2012172
103	0x3e834355	0.25637308
104	0xbcc1a2e5	-0.023637244
105	0xbe5338ba	-0.20627108
106	0x3cfbc3d4	0.030733027
107	0x3e3a288c	0.1817953
108	0xbad860b5	-0.0016508313
109	0xbe07eb0d	-0.13273259
110	0x3d812b8b	0.06307133
111	0x3d818571	0.0632428
112	0xbde05611	-0.10953916
113	0x3e8ae758	0.27129626
114	0xbdedf34c	-0.11618671
115	0x3e30e373	0.17274265
116	0xbdbcbef7	-0.09216111
117	0x3e31958f	0.17342208
118	0x3e7ed570	0.24886107
119	0xbe1d1fc8	-0.15344155
120	0xbd591176	-0.052995168
121	0x3e0df21c	0.13861889
122	0xbda2c508	-0.07947737
123	0x3dcaf430	0.09909856
124	0x3e2f2a74	0.17106038
125	0x3df55b75	0.11980335
126	0xbda583c1	-0.08081771
127	0xbe029f15	-0.12755997
128	0x3e3707b3	0.17874031
129	0xbe8dc4c3	-0.2768918
130	0xbdb5c93a	-0.088762715
131	0x3e67616f	0.22595762
132	0xbe1ce1ef	-0.15320562
133	0x3e7dc8aa	0.24783579
134	0xbe615d80	-0.22008324
135	0x3dea555b	0.114420615
136	0xbd013ee5	-0.03155412
137	0x3e309144	0.17242914
138	0x3e056a5e	0.13028857
139	0xbe2e68c7	-0.17032157
140	0xbd4105fe	-0.047124855
141	0x3e4eaa0a	0.20182052
142	0xbe5aee50	-0.21379972
143	0xbe1980a0	-0.14990473
144	0x3d08f30d	0.033434916
145	0x3e8c2436	0.27371377
146	0xbddc20d1	-0.10748447
147	0xbeadf95b	-0.33979306
148	0xbe1825a6	-0.14858112
149	0xbcaa1c0a	-0.020765323
150	0x3e372284	0.1788426
151	0xbba28a17	-0.0049603092
152	0xbe96b7b4	-0.2943703
153	0x3d8f75d2	0.07004894
154	0xbc79b15f	-0.0152400425
155	0x3e638d33	0.22221832
156	0xbe3633b3	-0.17793159
157	0x3e4b5128	0.19855177
158	0xbe3db421	-0.18525745
159	0xbe0a5e5c	-0.13512558
160	0xbda363a3	-0.079779886
161	0xbe3456db	-0.17611258
162	0x3dba1846	0.09086661
163	0x3da8e52f	0.08246838
164	0xbd74e321	-0.05978692
165	0x3e877e0c	0.26463354
166	0x3d9a15e0	0.075237036
167	0x3d22f218	0.03978166
168	0x3d65c337	0.056094375
169	0xbccbb7f5	-0.024867991
170	0xbe32c191	-0.17456652
171	0xbe0414ff	-0.12898634
172	0x3e4246e4	0.18972355
173	0xbe915c01	-0.28390506
174	0x3e45fbde	0.19334361
175	0xbdad8b03	-0.0847378
176	0x3e83ab02	0.25716406
177	0xbd7ebc7a	-0.062191464
178	0x3e704b95	0.23466332
179	0x3b4c98f7	0.0031219104
180	0xbdd082a5	-0.101811685
181	0x3e723110	0.23651528
182	0xbe2194f5	-0.15779479
183	0xbdddbf67	-0.10827523
184	0xbd023e46	-0.03179767
185	0x3def0836	0.11671488
186	0xbe26310a	-0.16229644
187	0x3de1f3b4	0.11032811
188	0xbe0fc319	-0.14039268
189	0x3db2178a	0.08695896
190	0x3daa0eef	0.083036296
191	0xbe2e066b	-0.16994636
192	0x3d0b353b	0.03398631
193	0xbda4ce24	-0.08047131
194	0x3d08113d	0.033219565
195	0x3dbeda60	0.093189955
196	0x3df969c8	0.12178379
197	0x3ce729fd	0.028218264
198	0xbe96a92e	-0.2942595
199	0xbd985392	-0.07437815
200	0x3e7ff6e3	0.24996524
201	0x3d04ba83	0.032404434
202	0x3e68fa6f	0.22751783
203	0xbe995b91	-0.29952672
204	0xbe741efb	-0.23839943
205	0xbd52dc23	-0.05147947
206	0x3e0887d4	0.13333064
207	0x3e17e14b	0.14832036
208	0xbd7a9b9c	-0.061183557
209	0xbe43e0d9	-0.19128741
210	0xbe33ad49	-0.17546572
211	0xbe0a08e6	-0.13479957
212	0x3e70d9a2	0.2352052
213	0x3e03b286	0.1286107
214	0xbddd7c4d	-0.10814724
215	0xbea05728	-0.31316495
216	0xbd8b9517	-0.06815546
217	0x3e17ff5c	0.14843506
218	0x3dc58322	0.09644152
219	0xbdf4f570	-0.11960876
220	0xbc4417b1	-0.011968539
221	0x3dd88dc4	0.10573915
222	0xbe6ecfc4	-0.23321444
223	0xbe0e0894	-0.1387046
224	0xbe2cca4e	-0.16874048
225	0xbe25a515	-0.16176255
226	0xbe5948b1	-0.21219136
227	0x3df7cd2e	0.12099682
228	0xbdac2d58	-0.08407086
229	0xbe4466a7	-0.19179784
230	0xbdadf8a4	-0.0849469
231	0x3e660983	0.22464566
232	0x3e7543f8	0.2395171
233	0xbe45b38a	-0.1930677
234	0xbe3029f4	-0.17203504
235	0x3e767e0e	0.24071524
236	0x3e52d05a	0.20587292
237	0xbd09c494	-0.033634737
238	0xbe716264	-0.2357269
239	0x3d300db8	0.042981833
240	0xbe4bd792	-0.19906452
241	0xbe822c7d	-0.25424567
242	0x3e509c32	0.20372084
243	0xbe43ceaf	-0.19121812
244	0x3c6d302f	0.01447682
245	0xbe47c3d9	-0.19508304
246	0x3e98b7d0	0.29827738
247	0xbbee8a11	-0.0072796424
248	0xbddb3b6a	-0.10704692
249	0x3dc0dc6c	0.09417042
250	0xbe00e52f	-0.12587427
251	0x3d057b1b	0.032588106
252	0x3e0aef68	0.13567889
253	0x3d749758	0.059714645
254	0x3cae19f2	0.021252606
255	0xbe683d4f	-0.22679637

bias f4 [64]
0	0x3dd98197	0.106204204
1	0x3d8a9b12	0.067678586
2	0xbd13c016	-0.03607186
3	0xbc520524	-0.012818608
4	0xbbf16311	-0.007366546
5	0xbd6c6cb7	-0.057720866
6	0x3d93bbdb	0.07213565
7	0xbcccca5c	-0.024998836
8	0x3d95e223	0.07318523
9	0xbdb195cd	-0.0867115
10	0xbd727014	-0.059188917
11	0x3c32c9f5	0.010912408
12	0xbd60ca64	-0.054880515
13	0x3d27b198	0.04094085
14	0x3dd90e79	0.105984636
15	0xbd9e8445	-0.07740072
16	0x3dcd377d	0.10020349
17	0xbd91496f	-0.070940845
18	0xbd65ab69	-0.056071673
19	0xbd9d0718	-0.07667369
20	0xbcc3bf49	-0.023894923
21	0x3d93a953	0.072100304
22	0x3d4e9217	0.05043229
23	0x3db78fa2	0.08962943
24	0x3dc863fa	0.09784694
25	0xbd9283da	-0.07154055
26	0x3c5ef663	0.013608548
27	0xbd21c61e	-0.03949558
28	0xbd0e6206	-0.03476145
29	0xbdc8d6af	-0.09806573
30	0xbd1d50a7	-0.038406994
31	0x3d2a6dc6	0.041608594
32	0x3d17bd2b	0.03704564
33	0xbb201cb4	-0.002443117
34	0xbd884e84	-0.06655601
35	0x3da3f005	0.080047645
36	0x3ce73d02	0.028227333
37	0x3d2afba3	0.041743886
38	0xbd5b82eb	-0.05359165
39	0x3d979760	0.07401919
40	0xbd716dae	-0.05894249
41	0xbd91075a	-0.0708148
42	0x3d6852d5	0.05671962
43	0xbc6e4390	-0.014542475
44	0xbd8a8e7f	-0.0676546
45	0x3d571982	0.05251456
46	0xbd500f6b	-0.050795954
47	0xbd1ce0d5	-0.038300354
48	0x3bb8a74f	0.005635179
49	0x3d411988	0.04714349
50	0xbdbeae6b	-0.09310611
51	0x3cc4bab6	0.024014812
52	0x3d873aa5	0.066029824
53	0xbcb6e0fa	-0.022324074
54	0xbcaf3b63	-0.021390622
55	0x3d2f1a0d	0.042749453
56	0x3da875ac	0.08225569
57	0x3d9ec417	0.07752245
58	0xbc659abe	-0.014013944
59	0x3d77e5a2	0.06052173
60	0x3c4f73d0	0.012661889
61	0x3d1a07ab	0.03760497
62	0x3d6933eb	0.05693428
63	0x3d6bb7c9	0.057548318

in_proj_weight f4 [192, 64]
0	0xbe7d8481	-0.24757577
1	0xbeb671d8	-0.3563373
2	0xbea07159	-0.31336477
3	0x3e6fb6ee	0.23409626
4	0x3e27433c	0.16334242
5	0x3d9ef7e7	0.07762127
6	0xbec22600	-0.37919617
7	0x3e86c87a	0.26324826
8	0xbe421914	-0.18954879
9	0x3ed35ace	0.41280216
10	0xbd82a7a5	-0.06379632
11	0x3d7e8d11	0.06214625
12	0xbe952e67	-0.29136965
13	0xbe807023	-0.25085554
14	0xbeb522ea	-0.353782
15	0x3e032fea	0.12811247
16	0xbec3958f	-0.38200042
17	0x3d9aa6a1	0.07551313
18	0xbe52a49a	-0.20570603
19	0x3daedca3	0.08538177
20	0xbd37e139	-0.044892523
21	0xbe90cf2c	-0.2828306
22	0xbde67cb4	-0.11254254
23	0xbed0e940	-0.40802956
24	0xbed905cb	-0.42387232
25	0x3eea2664	0.45732415
26	0xbcbda7cd	-0.023151303
27	0xbd92c345	-0.07166151
28	0x3dfb10b4	0.12259045
29	0x3c6193b7	0.013768128
30	0x3d2d4b70	0.04230827
31	0x3e886f0e	0.26647228
32	0x3e6df7d7	0.23239075
33	0xbe1a2216	-0.15052065
34	0x3a959b3e	0.0011414064
35	0xbe3b0d18	-0.18266714
36	0xbddd191f	-0.10795807
37	0xbd1fb4af	-0.038990673
38	0xbe916563	-0.28397664
39	0xbeb1128f	-0.34584472
40	0xbe69235d	-0.22767396
41	0x3e696404	0.22792059
42	0xbe4dcabd	-0.2009687
43	0x3e20ef23	0.15716223
44	0x3ee7778f	0.45208403
45	0xbe366c88	-0.17814839
46	0xbd88203d	-0.06646774
47	0xbe952d0d	-0.29135934
48	0x3e143c72	0.14476183
49	0xbdfc3efe	-0.12316702
50	0x3e9d1bd0	0.30685282
51	0xbe28096f	-0.16409849
52	0xbedbe457	-0.42947647
53	0x3d8db3f1	0.06919087
54	0xbca827c9	-0.020526784
55	0xbe889bb9	-0.26681307
56	0xbed34f58	-0.41271472
57	0xbe07e1d7	-0.13269745
58	0x3e8c7730	0.27434683
59	0x3e5a2093	0.21301489
60	0xbee2b509	-0.44278744
61	0x3e5120e5	0.20422705
62	0xbe0f062b	-0.13967197
63	0x3e33ffb6	0.17578015
64	0x3e81d0a9	0.25354508
65	0x3ebd9adb	0.37032208
66	0x3ea64c5e	0.3248014
67	0xbe7594f3	-0.23982601
68	0xbe2f78ef	-0.17135976
69	0xbda7dcfb	-0.081964456
70	0x3ecab237	0.39589092
71	0xbe8ae161	-0.27125075
72	0x3e48d658	0.19613016
73	0xbedbe1e0	-0.42945766
74	0x3d80c6e7	0.062879376
75	0xbd8200c3	-0.063478015
76	0x3e9adfea	0.30248958
77	0x3e85ec19	0.2615669
78	0x3ebc7ca1	0.36813834
79	0xbe080247	-0.13282119
80	0x3ecbe1c0	0.3982067
81	0xbd9eac24	-0.07747677
82	0x3e578787	0.21047793
83	0xbdaa68b6	-0.08320753
84	0x3d400368	0.04687825
85	0x3e95c7fd	0.2925414
86	0x3de533c9	0.11191518
87	0x3ed8f4d1	0.4237428
88	0x3ee10739	0.43950823
89	0xbef44d0c	-0.47715032
90	0x3cbdff9d	0.023193175
91	0x3d988757	0.07447689
92	0xbe036c30	-0.12834239
93	0xbc6c1262	-0.01440868
94	0xbd369235	-0.044573028
95	0xbe8d3ca9	-0.27585343
96	0xbe75723d	-0.2396936
97	0x3e1bd316	0.15217242
98	0xbb1a1eee	-0.002351697
99	0x3e40dd01	0.18834306
100	0x3de7c690	0.1131717
101	0x3d15fdf4	0.03661914
102	0x3e95e540	0.29276466
103	0x3eb7950d	0.35855904
104	0x3e725612	0.23665646
105	0xbe71a1aa	-0.23596826
106	0x3e55cdfc	0.20879358
107	0xbe225da3	-0.15856032
108	0xbef1bf97	-0.47216484
109	0x3e3a79c7	0.18210517
110	0x3d8bb8c8	0.068223536
111	0x3e9b4732	0.30327755
112	0xbe18d877	-0.14926325
113	0x3e03bed3	0.12865762
114	0xbea08141	-0.31348613
115	0x3e28881a	0.16458169
116	0x3ee66fb8	0.4500711
117	0xbd899d31	-0.06719435
118	0x3c9d813f	0.019226668
119	0x3e8df9eb	0.27729735
120	0x3edb2854	0.42804205
121	0x3e0a9272	0.13532427
122	0xbe905ecc	-0.28197324
123	0xbe5ffcc6	-0.21873769
124	0x3eebdf1d	0.4606866
125	0xbe59ec7b	-0.21281616
126	0x3e11540a	0.14192215
127	0xbe38a12b	-0.1803023
128	0xbe80a20c	-0.25123632
129	0xbeb76260	-0.35817242
130	0xbea1ba77	-0.31587574
131	0x3e72801c	0.23681682
132	0x3e2843f3	0.1643217
133	0x3da0eeff	0.07858085
134	0xbec29cb2	-0.38010174
135	0x3e87a305	0.26491562
136	0xbe441dbb	-0.19151966
137	0x3ed41604	0.41423047
138	0xbd842c60	-0.06453776
139	0x3d803bf8	0.06261438
140	0xbe956e21	-0.29185584
141	0xbe828a63	-0.25496206
142	0xbeb6640f	-0.35623214
143	0x3e05d825	0.13070734
144	0xbec3bf3e	-0.38231844
145	0x3da18786	0.07887177
146	0xbe53ee31	-0.20696332
147	0x3db1ba7b	0.086781465
148	0xbd38d03c	-0.045120463
149	0xbe91c837	-0.28473064
150	0xbdea00b0	-0.114259124
151	0xbed15b7b	-0.40890107
152	0xbed82787	-0.42217657
153	0x3eea60f2	0.45777088
154	0xbcbea2d2	-0.023270998
155	0xbd93b028	-0.072113335
156	0x3dfd96df	0.12382292
157	0x3c75a99c	0.014994051
158	0x3d2f69e0	0.04282558
159	0x3e890c08	0.26766992
160	0x3e6ff6e6	0.23434028
161	0xbe1cb708	-0.15304196
162	0x3a5e64c7	0.0008483645
163	0xbe3d6123	-0.18494086
164	0xbddda38b	-0.10822209
165	0xbd23ccab	-0.03999011
166	0xbe9201ea	-0.28517085
167	0xbeb26e5f	-0.3484983
168	0xbe6a4cca	-0.22880855
169	0x3e6b22f1	0.22962548
170	0xbe4ff8a8	-0.20309699
171	0x3e232393	0.15931539
172	0x3ee7f1c7	0.4530165
173	0xbe3883be	-0.18019006
174	0xbd89525a	-0.067051604
175	0xbe959be0	-0.29220486
176	0x3e160136	0.146489
177	0xbdff29a7	-0.124591164
178	0x3e9f199a	0.3107422
179	0xbe2af5e5	-0.16695364
180	0xbedc848f	-0.43069884
181	0x3d8ff17f	0.070284836
182	0xbcaca9f3	-0.021077132
183	0xbe896800	-0.26837158
184	0xbed425ff	-0.4143524
185	0xbe097db9	-0.13426866
186	0x3e8d598d	0.27607384
187	0x3e5b945e	0.21443316
188	0xbee0b4eb	-0.4388803
189	0x3e52cd72	0.20586184
190	0xbe10c4df	-0.141376
191	0x3e356f90	0.17718339
192	0x3e807c73	0.25094947
193	0x3eb6cd69	0.3570359
194	0x3ea1de2d	0.3161482
195	0xbe72c406	-0.2370759
196	0xbe2784a6	-0.16359195
197	0xbd9fe6e5	-0.078077115
198	0x3ec2b224	0.38026536
199	0xbe87fe8d	-0.26561394
200	0x3e43e4a4	0.19130188
201	0xbed431ab	-0.41444144
202	0x3d854c3f	0.065086834
203	0xbd809af8	-0.06279558
204	0x3e95bb7e	0.29244608
205	0x3e829df9	0.2551115
206	0x3eb69e49	0.35667637
207	0xbe04c103	-0.12964253
208	0x3ec3c88a	0.38238937
209	0xbd9f609c	-0.07782099
210	0x3e5474a5	0.20747621
211	0xbdb398b0	-0.08769357
212	0x3d388afd	0.045054425
213	0x3e920030	0.28515768
214	0x3deb46af	0.11488091
215	0x3ed19abe	0.4093837
216	0x3ed82039	0.42212084
217	0xbeea7d3a	-0.45798665
218	0x3cbec6ab	0.023288092
219	0x3d939daf	0.0720781
220	0xbdfcc007	-0.12341314
221	0xbc6f1952	-0.014593439
222	0xbd2e9602	-0.042623527
223	0xbe893ac2	-0.2680264
224	0xbe704e11	-0.2346728
225	0x3e1d0dfd	0.15337367
226	0xba3a7ec9	-0.00071142294
227	0x3e3d5de5	0.18492849
228	0x3ddd4adc	0.10805294
229	0x3d25f607	0.040517833
230	0x3e9245f8	0.28569007
231	0x3eb299c5	0.34882942
232	0x3e69dcf7	0.22838198
233	0xbe6aa345	-0.22913845
234	0x3e4f9570	0.2027185
235	0xbe23afbd	-0.15985008
236	0xbee8b1a6	-0.45448035
237	0x3e38cd61	0.18047096
238	0x3d8975a8	0.06711894
239	0x3e95d8dd	0.29267016
240	0xbe15eddf	-0.14641522
241	0x3dfe149b	0.12406274
242	0xbe9f57f7	-0.311218
243	0x3e2b9325	0.1675535
244	0x3edcc267	0.43117067
245	0xbd915cd8	-0.07097787
246	0x3caece54	0.02133862
247	0x3e8947ec	0.26812685
248	0x3ed38821	0.41314796
249	0x3e09ba84	0.13450056
250	0xbe8d9ca9	-0.27658585
251	0xbe5c31d0	-0.21503377
252	0x3ee0c222	0.43898112
253	0xbe52bf6c	-0.20580834
254	0x3e111990	0.14169908
255	0xbe35bb77	-0.17747293

in_proj_bias f4 [192]
0	0x3ed46a30	0.41487265
1	0xbee31f25	-0.443597
2	0x3ed4a512	0.4153219
3	0xbecde51c	-0.4021386
4	0xbed4121c	-0.41420066
5	0x3eccc67e	0.39995188
6	0xbed1b3c0	-0.4095745
7	0xbeda5814	-0.42645323
8	0x3ed4913a	0.4151705
9	0x3ec21fac	0.3791479
10	0xbecf56cf	-0.40495917
11	0xbed8a079	-0.4230993
12	0x3ecec50c	0.4038471
13	0x3ecca442	0.3996907
14	0x3ed58a00	0.41706848
15	0xbef17386	-0.4715845
16	0x3e8cb363	0.2748061
17	0xbe83a141	-0.25708964
18	0x3e8c7164	0.2743026
19	0xbe950ef0	-0.2911296
20	0xbe7ceb49	-0.24699129
21	0xbe72d1c5	-0.23712833
22	0xbe76cf2e	-0.2410247
23	0xbe7735c3	-0.24141602
24	0xbe9b91b9	-0.30384615
25	0xbe72b638	-0.23702323
26	0xbe80e29b	-0.25172886
27	0xbe947d7d	-0.2900199
28	0x3e98180f	0.29705855
29	0x3e92a812	0.28643852
30	0xbe94a0e6	-0.29029006
31	0x3e98296a	0.29719096
32	0x3f01b7c2	0.5067102
33	0x3f009048	0.50220156
34	0x3ef7de74	0.48411906
35	0xbee2070c	-0.44146
36	0xbef6982d	-0.48162976
37	0xbf036086	-0.5131916
38	0xbef9c136	-0.4878022
39	0x3eeb7265	0.45985714
40	0x3f005897	0.5013518
41	0xbed7bcb4	-0.42136157
42	0x3ee41c84	0.44553006
43	0x3ef55943	0.47919664
44	0xbeff3686	-0.49846286
45	0x3f00629b	0.5015046
46	0xbef3a09f	-0.47583482
47	0xbee4c5e7	-0.44682238
48	0xbe47fa14	-0.19528991
49	0xbe5d5f19	-0.21618308
50	0xbe4b5601	-0.19857027
51	0x3e1937ef	0.14962743
52	0xbe62b589	-0.22139563
53	0x3e5082d7	0.20362411
54	0xbe1c0632	-0.15236738
55	0x3e575967	0.21030198
56	0xbe15b368	-0.1461922
57	0xbe2c8edb	-0.1685137
58	0xbe4586a9	-0.1928965
59	0xbe408ae6	-0.18802986
60	0x3e44051e	0.19142577
61	0xbe1cbacb	-0.15305631
62	0xbe263d28	-0.16234267
63	0x3e1de990	0.15421128
64	0xb7995713	-1.8279568e-05
65	0x37806176	1.5304173e-05
66	0xb7433662	-1.1635568e-05
67	0x37c90382	2.39627e-05
68	0x37c7ea35	2.383171e-05
69	0xb720ba05	-9.580054e-06
70	0x37b0f385	2.1094233e-05
71	0x3765e168	1.3701945e-05
72	0xb767c5d8	-1.3814737e-05
73	0xb6a3ec32	-4.8852753e-06
74	0x373fe7dd	1.1438472e-05
75	0x37a7b599	1.9992514e-05
76	0xb7952d4e	-1.778328e-05
77	0xb7d84ed7	-2.578592e-05
78	0xb7f99822	-2.9753955e-05
79	0x37644969	1.3606951e-05
80	0x3702c1eb	7.793754e-06
81	0xb68f6d8a	-4.274484e-06
82	0x371284be	8.733185e-06
83	0xb65ec6c0	-3.3196266e-06
84	0xb6a7dfac	-5.0030267e-06
85	0xb7024253	-7.764046e-06
86	0xb65ca992	-3.2881258e-06
87	0xb6506cf7	-3.1057841e-06
88	0xb6ae14a1	-5.1880056e-06
89	0xb66f79f3	-3.568476e-06
90	0xb72ab96e	-1.0175963e-05
91	0xb6776f06	-3.6870492e-06
92	0x372c10cf	1.02559125e-05
93	0x369dc2f2	4.7016592e-06
94	0xb69e958f	-4.726178e-06
95	0x36ecb043	7.0538676e-06
96	0x37b3b49a	2.1422562e-05
97	0x3704686c	7.892126e-06
98	0xb775a5ed	-1.4641771e-05
99	0xb76b59e4	-1.4028021e-05
100	0x37bc1e42	2.2425436e-05
101	0x376d469c	1.4142741e-05
102	0xb6a7dbaa	-5.00256e-06
103	0xb7fad758	-2.99026e-05
104	0x372d8537	1.034262e-05
105	0xb7c9c5b8	-2.4053137e-05
106	0xb781bfa7	-1.5467243e-05
107	0xb81f880f	-3.803527e-05
108	0x37b8e021	2.2038877e-05
109	0x36a20864	4.828953e-06
110	0x362c1249	2.564064e-06
111	0xb660d96b	-3.3505155e-06
112	0xb7105236	-8.60221e-06
113	0xb70db331	-8.445976e-06
114	0xb7184f43	-9.078361e-06
115	0x36ee1aab	7.0960573e-06
116	0xb6bc55fb	-5.612846e-06
117	0x36dc0ab4	6.557757e-06
118	0xb67ccb5b	-3.7669295e-06
119	0x370938d8	8.179071e-06
120	0xb6ebf713	-7.032309e-06
121	0xb7004914	-7.646409e-06
122	0xb67c213b	-3.757027e-06
123	0xb6a61fab	-4.950872e-06
124	0x36c0ec40	5.749549e-06
125	0xb65f3b88	-3.3264241e-06
126	0xb69a55a2	-4.5995266e-06
127	0x36cf0da4	6.1706687e-06
128	0x3ccd65d4	0.02507297
129	0x3c9bbaa9	0.019009905
130	0xbd36c424	-0.044620648
131	0x3d42a780	0.04752302
132	0x3d030663	0.031988513
133	0xbcfb5ea7	-0.030684782
134	0xbd79610e	-0.060883574
135	0x3d0a7081	0.0337987
136	0xbc96d3ba	-0.018411506
137	0xbd050930	-0.032479465
138	0x3b5df245	0.0033866328
139	0x3d1a82a9	0.037722263
140	0x3d20261d	0.039098848
141	0xbc5b343e	-0.013379155
142	0x3d622457	0.055210438
143	0xbcf9d48c	-0.030496858
144	0x3d148686	0.036261104
145	0x3cea5a99	0.028607653
146	0xbd047cfd	-0.03234576
147	0x3d270843	0.040779363
148	0x3d5d94f0	0.054097116
149	0x3ca57875	0.02019904
150	0x3d58c804	0.052925125
151	0xbca3db7e	-0.020002123
152	0xbbd8eaf3	-0.006619805
153	0xbcc0d97e	-0.023541208
154	0x3d1976c5	0.037466783
155	0xbd14da75	-0.03634115
156	0xbad4634e	-0.0016203912
157	0xbd8512a7	-0.06497698
158	0xbb93dc04	-0.004512312
159	0x3d8a5636	0.06754725
160	0xbd218db7	-0.03944179
161	0xbd356381	-0.044284347
162	0x3d11987d	0.035545815
163	0xbcb0b5f1	-0.021571131
164	0xbca46422	-0.020067278
165	0x3d6da8e9	0.058022413
166	0x3d2bb2ad	0.041918445
167	0xbd3673fb	-0.0445442
168	0xbd160df1	-0.03663439
169	0x3d299fe2	0.04141224
170	0xbd4092f5	-0.04701515
171	0xbd532572	-0.051549383
172	0xbd0f5293	-0.03499086
173	0xbd3d4c73	-0.046215486
174	0xbd59676f	-0.053077158
175	0xbcf621c4	-0.030045398
176	0x3d6a2d91	0.05717236
177	0x3cf2dfda	0.029647756
178	0x3cb0ea92	0.021596227
179	0x3d4cd8c5	0.050011415
180	0xbd8125a9	-0.06306011
181	0x3c704b8b	0.014666448
182	0xbd49cb46	-0.049266122
183	0x3d20b9b7	0.03923961
184	0x3ad41863	0.0016181584
185	0x3d50f3fd	0.051013935
186	0x3c62c96a	0.013841966
187	0x3d52c750	0.05145961
188	0x3cb7a96b	0.022419652
189	0x3cc6338c	0.024194501
190	0xbd35be09	-0.044370685
191	0xbccf81a0	-0.025330365

weight f4 [64, 64]
0	0x3d54939b	0.05189858
1	0x3db7e793	0.08979716
2	0xbe3442bd	-0.17603584
3	0x3e01ff4d	0.12695046
4	0xbe132df9	-0.14373006
5	0xbe1110b8	-0.14166534
6	0xbe3b2172	-0.18274477
7	0x3d9c5ac2	0.07634498
8	0xbb1b82e1	-0.0023729133
9	0xbe2c46db	-0.16823904
10	0x3b057c43	0.0020368255
11	0xbe23a9f5	-0.15982802
12	0xbdba466f	-0.090954654
13	0xbc150c42	-0.009097161
14	0x3d7b3fb8	0.061340064
15	0x3cfa87bb	0.0305823
16	0x3d9a29de	0.07527517
17	0xbe382d0d	-0.17985936
18	0xbe62fcea	-0.22166792
19	0xbe00dec3	-0.12584977
20	0xbe50751e	-0.20357177
21	0x3e36f40d	0.17866535
22	0x3e431391	0.19050433
23	0x3cca8b08	0.024724498
24	0x3db3a529	0.08771736
25	0x3cccedb8	0.025015697
26	0xbdf4a1d8	-0.11944932
27	0x3db9c8b8	0.09071487
28	0xbdf60690	-0.120129704
29	0x3e3574f3	0.17720394
30	0x3dc2c943	0.09511044
31	0xbd04e68c	-0.03244643
32	0xbe2e0f1b	-0.1699795
33	0xbe23056d	-0.15920039
34	0x3db24ae2	0.08705689
35	0xbd4ccbf7	-0.049999204
36	0xbdc5d754	-0.09660211
37	0x3e6c267b	0.23061554
38	0x3e20bbb8	0.15696609
39	0xbc8e4c38	-0.017370328
40	0xbde35c76	-0.1110162
41	0x3df99cd1	0.121881135
42	0xbe023ec9	-0.12719263
43	0xbd62a634	-0.055334285
44	0x3d3c3081	0.045944694
45	0xbcb8a5cb	-0.022539994
46	0xbe137bcc	-0.14402694
47	0xbdbcdf9a	-0.09222336
48	0xbddbe0a0	-0.10736203
49	0x3c93fb3b	0.018064132
50	0x3e0529ac	0.13004178
51	0xbd2c36ff	-0.042044636
52	0xbe0ab9d0	-0.13547444
53	0x3d88c675	0.06678478
54	0xbc4be1b5	-0.0124439495
55	0xbcbfcb65	-0.023412416
56	0xbdd52815	-0.10408036
57	0x3e220aea	0.15824476
58	0xbd55d46f	-0.052204546
59	0x3ded97ba	0.11601205
60	0xbb42a626	-0.0029701083
61	0x3e2d4f1f	0.16924714
62	0xbcf0892c	-0.029362284
63	0x3e1b7a31	0.15183331
64	0xbdf15a33	-0.11784782
65	0xbd97acf9	-0.07406039
66	0x3e0d29e9	0.13785519
67	0xbe2f71f1	-0.17133309
68	0x3df461db	0.11932727
69	0x3e4e8eaa	0.2017161
70	0xbd89a641	-0.067211635
71	0xbe690d78	-0.22759044
72	0xbc1c7210	-0.009548679
73	0xbdb5f15e	-0.08883928
74	0x3aef7e5e	0.0018271913
75	0x3de62c28	0.11238891
76	0xbe1a0af4	-0.15043241
77	0xbe2c3e1a	-0.16820565
78	0xbdf6f715	-0.12058846
79	0xbd0f51a6	-0.034989975
80	0xbdd6065b	-0.10450431
81	0x3dc089be	0.09401272
82	0xbd78ad70	-0.060712278
83	0xbc313441	-0.010815681
84	0x3db0f979	0.08641333
85	0xbdd97131	-0.10617293
86	0x3e10d038	0.14141929
87	0x3cca0b0d	0.024663473
88	0xbdb4e471	-0.08832634
89	0xbd4a9191	-0.04945523
90	0xbdfd0497	-0.12354391
91	0xbe1ccb77	-0.1531199
92	0x3d5248b3	0.051338863
93	0x3bba40cb	0.0056839935
94	0x3d16577b	0.03670452
95	0xbe41ca9c	-0.18924946
96	0xbd83c5e3	-0.06434228
97	0xbcc7d6ce	-0.024394419
98	0xbe1cb98b	-0.15305154
99	0x3d617e10	0.055051863
100	0x3e01c65b	0.12673323
101	0x3de8eacd	0.1137291
102	0x3d97b7e7	0.074081235
103	0x3bc07429	0.0058732224
104	0xbe4de591	-0.20107104
105	0xbdbd4be9	-0.09242994
106	0xbb53b15c	-0.003230176
107	0x3dcc4226	0.09973554
108	0x3cbed733	0.023295974
109	0x3dbf8775	0.09352008
110	0xbdad9969	-0.08476526
111	0xbd65fc77	-0.056148972
112	0x3d201b21	0.039088372
113	0x3dc17f75	0.094481386
114	0xbe242941	-0.16031362
115	0xbe455135	-0.1926926
116	0xbe1c38d3	-0.15256052
117	0x3c41d782	0.011831166
118	0x3dbd732f	0.09250485
119	0x3e3ae483	0.18251233
120	0x3b8fedbb	0.0043923534
121	0x3e43a836	0.19107136
122	0x3ccd454a	0.025057454
123	0xbd8e511e	-0.069490656
124	0xbe3f6db5	-0.18694194
125	0xbd13cfc7	-0.036086824
126	0xbe24f193	-0.16107778
127	0x3d0d5225	0.034502167
128	0xbd4f9d99	-0.050687406
129	0x3e49d428	0.19709837
130	0x3e34f764	0.17672497
131	0xbe37063d	-0.17873473
132	0x3e0e0d4a	0.13872257
133	0xbb336533	-0.0027373552
134	0xbc8365a3	-0.016039675
135	0xbdaf55de	-0.085613
136	0x3a843226	0.0010085746
137	0xbdb8b09c	-0.090180606
138	0xbd164641	-0.036688093
139	0x3d0e0858	0.034675926
140	0x3ddd2001	0.1079712
141	0x3c59d4e4	0.013295386
142	0xbda56837	-0.08076518
143	0xbd70d8bd	-0.058800448
144	0x3b606cee	0.0034244615
145	0xbcc4d08a	-0.02402522
146	0xbd89a7b0	-0.06721437
147	0x3de38718	0.111097515
148	0x3e108199	0.14111938
149	0xbd4780c1	-0.048706774
150	0x3bf8cf7a	0.0075930925
151	0xba8bfeff	-0.0010680853
152	0xbe05bfb0	-0.13061404
153	0xbe166bb0	-0.14689517
154	0x3e0bcb81	0.1365185
155	0xbc8f8005	-0.0175171
156	0x3c086c88	0.008326657
157	0xbdea52e6	-0.11441593
158	0xbdd1d5b4	-0.10245839
159	0xbd901b0d	-0.070364095
160	0xbd883fc5	-0.06652788
161	0x3e0c521e	0.137032
162	0xbe3007c1	-0.17190458
163	0xbd984142	-0.07434322
164	0x3e0503fc	0.12989801
165	0x3c6b570e	0.014364017
166	0xbcb6f5e9	-0.022334056
167	0x3d88eac1	0.06685401
168	0x3dcb1bdf	0.09917425
169	0x3d3f5dc2	0.046720274
170	0x3e272c1a	0.16325417
171	0xbd850e1d	-0.064968325
172	0x3ce50ce8	0.027960256
173	0xbcc69cdc	-0.024244718
174	0xbe03881c	-0.1284489
175	0x3e06dec5	0.13170917
176	0x3d8369c6	0.06416659
177	0xbc3e2e73	-0.011607754
178	0xbdfde950	-0.123980165
179	0xbe345851	-0.17611815
180	0xbe15954a	-0.1460773
181	0xbd9f76ec	-0.077863544
182	0xbb60c7cd	-0.0034298778
183	0xbd866c68	-0.065636456
184	0x3e0ba2d5	0.13636334
185	0x3d5a9f0a	0.053374328
186	0x3d06a67d	0.03287362
187	0x3d473811	0.048637453
188	0xbe0b16f7	-0.13582979
189	0xbcfc8df8	-0.030829415
190	0x3e1ed93b	0.15512554
191	0x3e2221fe	0.1583328
192	0x3da3f73f	0.08006143
193	0x3e0eaf65	0.13934095
194	0x3d879bc6	0.06621508
195	0xbdb5c03e	-0.08874558
196	0xbdcbb86a	-0.099472836
197	0xbdb1a186	-0.08673386
198	0xbe48e761	-0.19619514
199	0x3b7e7805	0.0038828861
200	0x3d8e3f0b	0.06945618
201	0xbd4d7714	-0.05016239
202	0x3c9b2c52	0.018942032
203	0x3d787602	0.060659416
204	0x3e1320a9	0.14367928
205	0x3e0916b9	0.13387574
206	0x3db7ace5	0.08968524
207	0xbd20598c	-0.0391479
208	0x3e205528	0.15657485
209	0x3dcc1f5d	0.099669196
210	0xbdf55fbc	-0.119811505
211	0xbe30c3bf	-0.17262171
212	0xbe5e02e0	-0.21680784
213	0xbd87b200	-0.06625748
214	0x3bac7fe8	0.005264271
215	0x3e4f0c01	0.20219423
216	0x3e4f2548	0.20229065
217	0x3e311794	0.1729415
218	0xbd950913	-0.072771214
219	0xbd6cee5c	-0.057844505
220	0x3e182299	0.14856948
221	0xbd9d2003	-0.076721214
222	0xbd15190e	-0.036400847
223	0xbe081b04	-0.13291556
224	0xbddbff4b	-0.10742053
225	0xbd959541	-0.073038585
226	0xbe1d6ed0	-0.15374303
227	0xbd105734	-0.035239413
228	0xbe489095	-0.19586404
229	0xbd903cf9	-0.070428796
230	0x3dec2fa3	0.115325235
231	0x3da4a70e	0.08039676
232	0x3d10a4da	0.035313465
233	0x3db6c562	0.089243665
234	0x3dbbcc3f	0.09169816
235	0xbe21135e	-0.15730044
236	0x3e22ed7a	0.15910903
237	0xbd635a65	-0.05550613
238	0xbe0b9fe0	-0.13635206
239	0x3df2916d	0.11844144
240	0xbe11b422	-0.14228871
241	0xbe1cc9b0	-0.15311313
242	0xbd9c8d06	-0.076440856
243	0x3c9f3922	0.019436423
244	0xbe088d2a	-0.133351
245	0xbe011aef	-0.1260793
246	0xbdedfe34	-0.11620751
247	0xbe41695e	-0.1888785
248	0xbc80f1ec	-0.015740357
249	0x3df991f5	0.12186042
250	0xbd971497	-0.07376974
251	0x3e101df7	0.1407393
252	0xbba283bf	-0.004959553
253	0x3da18099	0.07885856
254	0x3e49c35f	0.19703434
255	0x3d8756af	0.066083305

bias f4 [64]
0	0x3d14108f	0.036148604
1	0x3c16e50d	0.009209883
2	0xbc86ca49	-0.016453879
3	0x3bc6f677	0.0060718614
4	0xbc33d903	-0.010977033
5	0xbccae86c	-0.02476903
6	0x3ca68d7b	0.020331135
7	0x3c66df82	0.014091374
8	0x3cf06f49	0.02934994
9	0xbd0d7427	-0.0345346
10	0xbbbb133b	-0.0057090796
11	0xbc57c511	-0.013169543
12	0xbcd73fc2	-0.02627552
13	0x3b91ac0e	0.0044455593
14	0x3d32c43a	0.043644167
15	0xbc5cc94a	-0.013475725
16	0x3cefbdbd	0.029265279
17	0xbce1c6b0	-0.027560562
18	0xbd15752b	-0.036488693
19	0xbce27d96	-0.027647775
20	0xbbba6968	-0.005688835
21	0x3d2da073	0.042389344
22	0x3cc7140a	0.024301548
23	0x3cf348b1	0.029697748
24	0x3c486e88	0.012233384
25	0xbcfd0c13	-0.030889546
26	0x3c323632	0.010877179
27	0xbd17c0c9	-0.03704909
28	0x3bab81fe	0.005234002
29	0xbca517bd	-0.02015292
30	0x3d3a2340	0.045443773
31	0x3c9a329b	0.018822959
32	0x3cd4893b	0.025944343
33	0x3cd7d272	0.026345465
34	0xbd222680	-0.039587498
35	0x3cc716b0	0.02430281
36	0xbcfbff47	-0.030761374
37	0x3d38d68f	0.045126494
38	0xbb74aeb9	-0.0037335588
39	0x3d2866ff	0.04111385
40	0xbd29e58d	-0.041478682
41	0xbc2de0f3	-0.010612714
42	0xbc41fa77	-0.011839501
43	0xbc56c9f7	-0.013109676
44	0x3bfa4785	0.0076379203
45	0x3be3ede5	0.0069558495
46	0xbd10c1a3	-0.035340916
47	0xbcfd5431	-0.030923935
48	0xbb91c18a	-0.0044481205
49	0x3aa7fd1f	0.0012816525
50	0xbc9ef1a2	-0.019402329
51	0x3c891322	0.016732756
52	0x3c15e506	0.009148842
53	0xbcc4f7b3	-0.024043893
54	0xbd1f3c4a	-0.038875856
55	0x3ba3d826	0.005000132
56	0x3ccc2817	0.02492146
57	0x3cb8a39a	0.022538949
58	0x3c20ec7f	0.00982201
59	0x3cfe7ec9	0.031066315
60	0x3c80245a	0.015642334
61	0xbc80d6ce	-0.015727427
62	0x3cbfe780	0.023425817
63	0x3d0de1e4	0.034639254

weight f4 [256, 64]
0	0x3cf5f677	0.03002475
1	0x3a947ad7	0.0011328113
2	0x3df41545	0.11918119
3	0xbdf6ad77	-0.120448045
4	0x3d606d53	0.05479176
5	0xbbdb28d0	-0.006688215
6	0x3dd2cfcf	0.102935426
7	0xbb20eed9	-0.0024556427
8	0xbd301bf5	-0.042995412
9	0x3d955b23	0.072927736
10	0x3cc1c6f3	0.023654437
11	0xbd195ce4	-0.037442103
12	0x3bdd26dd	0.0067490176
13	0x3e0eb837	0.1393746
14	0xbd5cc2e9	-0.05389682
15	0xbe080126	-0.13281688
16	0xbd4fb5d8	-0.05071053
17	0xbcd32fa4	-0.025779553
18	0x3ccd3aba	0.025052417
19	0x3dc1bfd5	0.09460417
20	0xbbd9312d	-0.0066281767
21	0x3c98d7ce	0.018657591
22	0xbdc3bea0	-0.09557843
23	0x3de8c6ad	0.113660194
24	0x3d9002e5	0.07031802
25	0xbdee807b	-0.116455995
26	0x3d01e9bf	0.03171706
27	0x3cfedabe	0.031110164
28	0xbdc4a4b2	-0.09601726
29	0xbcc01012	-0.023445163
30	0x3d92045f	0.0712974
31	0x3dbe1919	0.09282131
32	0xbce3666c	-0.0277588
33	0x3cdf1a90	0.027234346
34	0xbd560942	-0.052254923
35	0x3db43f77	0.088011675
36	0x3d61cce3	0.055127036
37	0x3d82824f	0.06372511
38	0xbd4107ef	-0.047126707
39	0xbd615efa	-0.055022217
40	0xbd18811b	-0.0372325
41	0xbd737cfb	-0.059445363
42	0x3c8d1d8f	0.017226009
43	0xbd706dd0	-0.058698475
44	0xbbc65b12	-0.006053337
45	0xbd15d3ee	-0.036579065
46	0x3c7d2fe5	0.0154533135
47	0xbc30a8f6	-0.010782471
48	0x3c490f84	0.012271766
49	0x3ca45525	0.020060131
50	0xbd3feb07	-0.046855
51	0x3ded120c	0.11575708
52	0x3e1fffb5	0.15624888
53	0xbd21aa12	-0.039468832
54	0x3d4c3622	0.049856313
55	0xbca69fe2	-0.02033991
56	0x3d99c774	0.07508746
57	0x3d2c249c	0.0420271
58	0x3d349052	0.044082947
59	0xbdd08183	-0.101809524
60	0x3d3e4c57	0.046459522
61	0xbe13be0b	-0.14427964
62	0xbd35a6a8	-0.04434839
63	0xbdca6155	-0.09881846
64	0x3df6cfca	0.12051351
65	0x3dd96ddd	0.10616658
66	0xbb57297b	-0.003283112
67	0x3e0d9611	0.13826777
68	0x3d024d8d	0.03181224
69	0xbdc4dedb	-0.09612819
70	0xbd0ebb4c	-0.03484659
71	0xbd4b8946	-0.04969146
72	0xbd1bf212	-0.038072653
73	0x3cf6f5ac	0.030146442
74	0xbe1f8127	-0.15576611
75	0xbd9a3461	-0.07529522
76	0xbdd4ce0d	-0.103908636
77	0xbd819e43	-0.06329014
78	0xbda91962	-0.082567945
79	0xbe426f58	-0.18987787
80	0xbc845752	-0.016154919
81	0xbdadd059	-0.08487005
82	0x3d326cc0	0.043560743
83	0x3dc20e22	0.09475352
84	0x3ddadf3a	0.10687108
85	0x3d9590fb	0.073030435
86	0x3c3f65c5	0.011681979
87	0x3d8ea045	0.06964163
88	0xbd83ea2a	-0.064411476
89	0xbcae8846	-0.021305215
90	0xbd9ab003	-0.07553103
91	0x3da50f57	0.080595665
92	0x3cfc5336	0.030801397
93	0xbd14e5a2	-0.036351807
94	0xbe0113f9	-0.12605275
95	0x3e00d721	0.12582065
96	0x3d721424	0.05910124
97	0xbdb70fe7	-0.0893858
98	0xbce18a0b	-0.027531644
99	0x3d04d275	0.03242727
100	0x3dcbb6b1	0.09946955
101	0x3da10809	0.07862861
102	0x3cef937e	0.029245134
103	0x3dd8f439	0.10593457
104	0xbad7f421	-0.0016475954
105	0xbd7a225f	-0.061067935
106	0x3da11945	0.07866148
107	0xbe0286aa	-0.12746683
108	0x3d81830b	0.063238226
109	0x3e02bd03	0.12767415
110	0x3d8b258e	0.06794272
111	0xbd245f67	-0.040130045
112	0x3cfb1ec4	0.030654319
113	0x3e362f85	0.17791565
114	0xbd5a9aa2	-0.053370126
115	0xbdebc5b3	-0.115123175
116	0x3e120e69	0.1426331
117	0xbc294ad8	-0.010332786
118	0xbda18af7	-0.078878336
119	0x3e15e2d7	0.14637314
120	0xbdad6979	-0.08467383
121	0x3d11ba78	0.03557822
122	0x3d36fd48	0.04467514
123	0x3de73323	0.112890504
124	0x3d3f9374	0.04677148
125	0x3bcb0a1d	0.006196274
126	0xbdec95e9	-0.115520306
127	0x3c9d33b5	0.019189695
128	0xbe193686	-0.14962205
129	0xbd561462	-0.052265532
130	0x3de7b29d	0.11313365
131	0xbdd4765c	-0.10374138
132	0xbdf8d434	-0.121498495
133	0xbdf6377b	-0.12022301
134	0xbd6b51a5	-0.05745091
135	0x3cbee779	0.023303734
136	0x3b895e6a	0.0041921632
137	0x3c15cf00	0.009143591
138	0x3d7e30c7	0.062058236
139	0xbe0c5207	-0.13703166
140	0x3da59a9d	0.08086131
141	0x3dc95515	0.09830681
142	0xbdddb02a	-0.10824616
143	0x3dc7ad52	0.09749855
144	0xbd6ae3b3	-0.057346057
145	0x3e02cf85	0.12774475
146	0x3d2eac2a	0.042644657
147	0xbdb1ccbb	-0.08681627
148	0x3e08cfe8	0.1336056
149	0xbe000223	-0.12500815
150	0x3df200f5	0.11816589
151	0xbcd2f874	-0.025753237
152	0x3d6f3725	0.0584022
153	0x3c8fb175	0.017540673
154	0x3da2af5b	0.07943603
155	0x3d53df8e	0.05172687
156	0x3cc5ada0	0.024130642
157	0x3e26a6e9	0.16274609
158	0xbdcc837f	-0.099860184
159	0x3ced0c05	0.028936395
160	0xbe67e9df	-0.22647808
161	0xbdbd9564	-0.092570096
162	0x3d97c1be	0.0741
163	0x3d13d990	0.036096156
164	0x3e12445c	0.1428389
165	0x3d37c77c	0.044867977
166	0x3d812b9c	0.06307146
167	0xbda1dabc	-0.079030484
168	0x3e306b70	0.17228484
169	0xbde9f551	-0.114237435
170	0xbd98f5c1	-0.07468749
171	0xbdbac3cb	-0.09119376
172	0x3c384fbe	0.011249481
173	0xbaad7348	-0.0013233209
174	0x3cd567eb	0.026050529
175	0x3e2c133b	0.16804211
176	0x3d7aee6a	0.061262526
177	0xbb3a365a	-0.0028413744
178	0xbc88fc01	-0.016721727
179	0xbc7f9870	-0.015600309
180	0x3d313076	0.043259107
181	0x3cb2f090	0.021843225
182	0x3d45af08	0.048262626
183	0xbc34c9f7	-0.01103448
184	0xbd13f988	-0.036126643
185	0x3d8d3e55	0.068966545
186	0xbe48048d	-0.19532986
187	0xbe5b7c8d	-0.21434231
188	0x3dc8c691	0.098034985
189	0xbd2d2b2c	-0.0422775
190	0xbde52f14	-0.1119062
191	0xbd931672	-0.071820155
192	0xbdedca87	-0.11610895
193	0xbdc885a8	-0.09791118
194	0xbdd20de0	-0.10256553
195	0x3d22dbcf	0.039760407
196	0x3c4f5d8b	0.01265658
197	0x3de26689	0.11054713
198	0xbde173db	-0.11008426
199	0xbd919252	-0.071079865
200	0xbd86b16f	-0.065768115
201	0xbd3ea80f	-0.046546992
202	0x3daf017b	0.08545204
203	0xbbeeaf4b	-0.00728408
204	0xbde83b36	-0.113394186
205	0xbd595e0a	-0.0530682
206	0xbde00978	-0.10939306
207	0xbdeb52ee	-0.11490427
208	0x3d2504cb	0.040287774
209	0x3d9e9d1c	0.0774481
210	0x3e31045e	0.17286822
211	0xbd86afc3	-0.06576493
212	0xbb0dc13f	-0.0021630076
213	0xbe18d310	-0.14924264
214	0xbd7d6760	-0.061866164
215	0xbd8258aa	-0.063645676
216	0xbdb7ead9	-0.089803405
217	0xbdb625c6	-0.088939235
218	0x3e12a0c3	0.14319138
219	0x3d8c3c29	0.06847412
220	0x3d3e7d33	0.046506118
221	0xbd085c5a	-0.0332912
222	0x3dd7d202	0.10538103
223	0xbe0235cd	-0.12715836
224	0x3ddb1757	0.10697811
225	0x3c927386	0.017877351
226	0x3d329a6e	0.043604307
227	0xbd871f18	-0.065977275
228	0xbcaec574	-0.021334387
229	0xbe1d54ed	-0.15364428
230	0xbda4660d	-0.08027277
231	0x3dc40c84	0.095727
232	0x3de7cb22	0.113180414
233	0x3d9ee9b9	0.07759423
234	0x3d8f0808	0.06983954
235	0x3cf15694	0.029460229
236	0xbd00e76f	-0.031470712
237	0x3d90c038	0.07067913
238	0x3d5e2a03	0.054239284
239	0xbdaf0bca	-0.085471705
240	0xbda2faa2	-0.07957961
241	0x3dd0b363	0.10190465
242	0xbd2999ba	-0.04140637
243	0xbe0af1d5	-0.13568814
244	0x3c94a2a1	0.018143954
245	0x3dd51ec9	0.104062624
246	0x3cf67d8c	0.030089162
247	0x3e1351f7	0.14386736
248	0x3da1f066	0.079071805
249	0x3d95350f	0.07285511
250	0x3dd59189	0.10428149
251	0xbd601930	-0.05471152
252	0x3e03a668	0.12856448
253	0x3d751ca8	0.05984178
254	0xbc89afbe	-0.016807433
255	0x3ca44ef0	0.020057172
