CNP-model-save-name/saved_models/model_2000.pth (torch, 550434 bytes, 46 tensors)

weight f4 [64, 4]
0	0xbd1c1913	-0.03810985
1	0xbdfea45d	-0.124336936
2	0x3db1e965	0.086870946
3	0x3e38c2d2	0.18043068
4	0x3dc0a14f	0.09405767
5	0xbe01f108	-0.12689602
6	0xbdca9903	-0.09892466
7	0x3cf050f8	0.029335484
8	0x3c8ba12e	0.01704463
9	0x3e3229dd	0.17398782
10	0xbd20e6ed	-0.039282728
11	0x3e66798c	0.22507304
12	0x3e8ae6fe	0.27129358
13	0x3d9864af	0.07441079
14	0xbe0591ee	-0.13043949
15	0x3e703afc	0.23460001
16	0xbe339437	-0.17537008
17	0x3e30fbe3	0.17283587
18	0x3b5846a2	0.0033001085
19	0x3defd6b6	0.11710875
20	0xbe93b37c	-0.28847873
21	0xbe60e14f	-0.21960948
22	0xbe482222	-0.1954427
23	0x3e4a6da6	0.1976839
24	0x3d9cd12d	0.076570846
25	0x3df410df	0.119172804
26	0x3cb89d10	0.02253583
27	0x3e38b3a4	0.18037277
28	0x3d9c088e	0.07618819
29	0x3ded8af2	0.11598767
30	0xbd848aa6	-0.064717576
31	0x3d1acfe2	0.03779591
32	0x3dad5e2f	0.0846523
33	0xbe5ed8b7	-0.21762358
34	0x3e4ed58d	0.2019865
35	0x3cfad421	0.03061873
36	0xbcd8676d	-0.026416505
37	0xbd7f785f	-0.062370654
38	0xbc52a4b4	-0.012856651
39	0xbdf838f4	-0.12120238
40	0xbe413af1	-0.1887014
41	0xbe597890	-0.21237397
42	0xbe482fe9	-0.19549526
43	0xbdd7c2c4	-0.105351955
44	0x3d7f2298	0.06228885
45	0xbe79b3ca	-0.2438499
46	0xbe050f42	-0.12994102
47	0x3ba01690	0.004885502
48	0x3cfe7934	0.031063654
49	0x3e7fd87a	0.24984923
50	0xbe20fbb8	-0.15721023
51	0x3e88766c	0.2665285
52	0xbdf0a138	-0.117495
53	0xbdacc96c	-0.08436856
54	0x3e52f81d	0.2060246
55	0x3dd59be8	0.104301274
56	0xbe3bf7c8	-0.1835624
57	0x3d715e72	0.05892796
58	0xbe1d4268	-0.15357363
59	0xbca46d49	-0.020071642
60	0x3df15a50	0.11784804
61	0x3e96f5ca	0.29484397
62	0x3e811977	0.2521474
63	0x3e40406c	0.18774575
64	0xbdbd0e95	-0.09231297
65	0x3e936e1d	0.28794947
66	0x3e0a217e	0.13489339
67	0xbe8fd9de	-0.28095907
68	0xbdc5d86d	-0.096604206
69	0x3e965f2f	0.29369494
70	0x3c711036	0.014713338
71	0xbdd8961d	-0.10575507
72	0x3ded813b	0.115969144
73	0xbd8b2c5c	-0.0679557
74	0xbc7006e2	-0.0146500785
75	0xbde18244	-0.11011174
76	0x3e0e47d5	0.13894589
77	0x3cfddfaf	0.03099045
78	0x3e98423f	0.29738042
79	0x3e513328	0.20429671
80	0x3c7b5f3f	0.015342533
81	0xbe3d8d61	-0.18510963
82	0x3dc4b923	0.096056245
83	0x3e9788eb	0.29596648
84	0xbe8acea1	-0.2711077
85	0xbc318937	-0.010835937
86	0x3e031496	0.12800822
87	0x3dcf5331	0.101232894
88	0xbd2e5551	-0.042561833
89	0x3e7346b5	0.23757441
90	0xbcbd1c4a	-0.023084778
91	0xbd35037a	-0.04419277
92	0xbd9d3bc2	-0.076774135
93	0x3e82ac01	0.25521854
94	0x3e899f04	0.26879132
95	0x3ca3450e	0.019930389
96	0xbe313a9f	-0.17307518
97	0xbe1490e8	-0.14508402
98	0x3db7a72a	0.08967431
99	0x3e1e6a59	0.15470256
100	0xbd88324a	-0.06650217
101	0xbd9b9be1	-0.07598091
102	0xbe4d4fc7	-0.20049964
103	0x3e3f70f2	0.18695429
104	0x3e5f3e6a	0.21801153
105	0x3d2b10e1	0.041764144
106	0x3e02ecfd	0.12785716
107	0x3d751ec8	0.05984381
108	0x3de955ab	0.11393293
109	0xbe855619	-0.2604225
110	0xbb8f5cbd	-0.004375069
111	0x3e91ec39	0.28500536
112	0x3dfd96f1	0.123823054
113	0x3e250a46	0.161172
114	0x3de5a69c	0.11213419
115	0x3d742898	0.059609026
116	0x3e27ea22	0.16397908
117	0xbe5453fe	-0.20735165
118	0xbe24e55f	-0.16103123
119	0x3e67126b	0.2256562
120	0x3d9dcffe	0.07705687
121	0x3e3094cd	0.17244263
122	0xbe068cab	-0.13139598
123	0x3e05afce	0.13055345
124	0x3e0b8b64	0.13627392
125	0x3c30e0ae	0.010795755
126	0x3e65a71e	0.22427031
127	0xbc01bfaa	-0.007919231
128	0xbe4a67f3	-0.19766216
129	0x3dd279a7	0.102771096
130	0xbdf1e9d1	-0.11812175
131	0xbe315d8e	-0.17320845
132	0x3e704e17	0.23467289
133	0x3dd4edb3	0.103969
134	0x3d3e4c92	0.046459742
135	0xbdcd8b15	-0.100362934
136	0x3e319e23	0.1734548
137	0xbdc521b7	-0.09625571
138	0x3e50d299	0.20392837
139	0xbe4e7162	-0.2016044
140	0xbe4ef509	-0.20210661
141	0x3e91f51e	0.28507322
142	0xbd4016cf	-0.046896752
143	0x3cd30359	0.025758432
144	0xbe805c55	-0.25070444
145	0x3e5efa6c	0.21775216
146	0xbe1996bb	-0.14998905
147	0xbe62c639	-0.22145928
148	0xbe540209	-0.20703901
149	0xbe57ab7f	-0.21061514
150	0xbc179c3c	-0.009253558
151	0xbc8e893d	-0.017399425
152	0x3deb75fb	0.11497112
153	0x3e83b548	0.25724244
154	0x3e03291b	0.12808649
155	0x3defed49	0.117151804
156	0xbe3cdc92	-0.18443516
157	0xbe0c75a4	-0.13716751
158	0x3ce61688	0.028086916
159	0x3e6954d7	0.2278627
160	0xbd309e42	-0.043119676
161	0x3e9215c5	0.28532234
162	0xbcb2e223	-0.021836346
163	0xbc0ebb87	-0.008711702
164	0x3e814a9a	0.2525223
165	0x3c404419	0.011734986
166	0xbe82a05e	-0.25512975
167	0xbd93ba20	-0.07213235
168	0x3e6c681c	0.2308659
169	0x3de9b730	0.11411893
170	0x3db75174	0.08951083
171	0xbd8a4dbb	-0.06753107
172	0xbe799fc6	-0.24377355
173	0xbe6de56a	-0.23232046
174	0xbe4c4141	-0.19946767
175	0xbdac02d6	-0.083989784
176	0x3e7494fe	0.23884961
177	0xbd2e7843	-0.04259516
178	0xbe51d2ff	-0.20490645
179	0x3e6ec10a	0.23315826
180	0xbccb3f25	-0.024810383
181	0x3e616452	0.22010925
182	0x3df750f6	0.12075989
183	0xbdec0b94	-0.11525646
184	0x3deafa40	0.11473513
185	0xbe8ed492	-0.27896553
186	0xbc0af65c	-0.008481588
187	0xbd80b96d	-0.06285367
188	0x3dfd6a0f	0.12373745
189	0x3dea59eb	0.11442932
190	0x3e8ca8a1	0.27472404
191	0xbe73c333	-0.23804931
192	0x3ddbcdfd	0.107326485
193	0xbe821c98	-0.2541244
194	0xbe74e62e	-0.23915932
195	0x3e4dbf9f	0.20092629
196	0x3e27f8d0	0.16403508
197	0xbc25c0d9	-0.010116779
198	0xbb93483e	-0.004494696
199	0xbca80e40	-0.020514607
200	0xbd41a4f9	-0.04727647
201	0xbdb8c669	-0.09022219
202	0x3e05d4f3	0.13069515
203	0x3d622aae	0.055216484
204	0xbe87d25b	-0.26527676
205	0x3dfbf264	0.12302092
206	0xbe4ef903	-0.20212178
207	0x3e8355a0	0.25651264
208	0x3df2520d	0.11832056
209	0xbe1f26be	-0.15542123
210	0xbe3b1e24	-0.18273216
211	0x3c45aa20	0.012064487
212	0xbe938536	-0.2881257
213	0x3e0160fd	0.12634654
214	0x3e23379e	0.15939185
215	0x3db33660	0.087506056
216	0x3cdd4a1d	0.027012879
217	0xbe5e7fa1	-0.21728374
218	0xbd315c24	-0.043300763
219	0x3dde60f1	0.10858334
220	0x3e758b9f	0.23979042
221	0xbe090c7c	-0.13383669
222	0xbe58e449	-0.21180834
223	0xbe81705e	-0.25281042
224	0xbdf8da50	-0.12151015
225	0x3e52a274	0.20569783
226	0x3e8b252b	0.27176794
227	0x3c0f769c	0.008756306
228	0xbdc061d4	-0.09393659
229	0xbe23cca1	-0.15996028
230	0xbdb041ca	-0.08606298
231	0xbd852815	-0.06501786
232	0xbe8d319f	-0.2757692
233	0xbe6e7913	-0.23288374
234	0x3e57cca5	0.2107416
235	0xbe3a2217	-0.18177067
236	0xbe318309	-0.17335142
237	0x3e7e3c80	0.24827766
238	0xbdb2bf4c	-0.08727893
239	0xbd2d91b2	-0.042375274
240	0xbd81b134	-0.06332627
241	0xbd07ea38	-0.033182353
242	0xbdaf044e	-0.08545743
243	0x3e06f050	0.1317761
244	0xbdc2fbb9	-0.095206685
245	0xbe8eb30c	-0.27870977
246	0x3e643d3b	0.22288983
247	0xbe82bd3e	-0.25535005
248	0xbe1daa5c	-0.15397018
249	0xba0d6c16	-0.0005394829
250	0x3e390545	0.18068416
251	0x3dd929a5	0.10603646
252	0xbcaa5358	-0.020791695
253	0x3d126a3e	0.03574585
254	0xbe2aeece	-0.1669266
255	0xbd73fe10	-0.059568465

bias f4 [64]
0	0xba789c04	-0.00094836974
1	0xbbae9110	-0.0053273514
2	0xbbfdec37	-0.0077491063
3	0xbb4080b4	-0.0029373588
4	0x399e9873	0.00030249692
5	0xbc059386	-0.008152848
6	0x3c099768	0.0083979145
7	0xbb99cc17	-0.004693519
8	0x3bde9010	0.006792076
9	0x3c55433f	0.013016521
10	0xbc060f6c	-0.008182388
11	0xbb7b6c86	-0.0038364246
12	0x3c321e84	0.010871533
13	0x3bd528d2	0.0065051103
14	0xbb56e7a5	-0.003279188
15	0x3b4c139e	0.0031139622
16	0xba4d6076	-0.0007834503
17	0x3b30d79a	0.0026983977
18	0x3a558092	0.00081444636
19	0x3c7525c5	0.014962618
20	0x3c16968a	0.009191165
21	0x3c2120bd	0.009834466
22	0x3a8993e2	0.0010496343
23	0xbb4e22fa	-0.0031453953
24	0x3b63d4b9	0.0034764244
25	0xbb1b264e	-0.0023673954
26	0x3baea3fb	0.0053296066
27	0xba154807	-0.0005694632
28	0x3bcba35b	0.006214542
29	0xbb36f1d0	-0.0027915128
30	0xbb7e928f	-0.003884468
31	0x3a94f2d4	0.0011363872
32	0x3bf7f3fb	0.0075669265
33	0xba8c48c7	-0.0010702842
34	0x3a9e0dbb	0.0012058535
35	0x3c18234a	0.009285757
36	0xbbc6ae1e	-0.006063237
37	0xbc105d0b	-0.008811246
38	0x3b4b88dc	0.0031056916
39	0xbc467e2b	-0.012115042
40	0xbb47e271	-0.003049996
41	0x3be8551b	0.0070902235
42	0x3b5d364e	0.0033754292
43	0xbb2af665	-0.0026086804
44	0xbc6b0e02	-0.014346601
45	0x3c659b81	0.014014126
46	0x3bf7d484	0.0075631756
47	0x3b025d0c	0.0019891886
48	0x3a0d21d3	0.00053837633
49	0xbc10c9b0	-0.008837149
50	0xbb753de2	-0.0037420918
51	0x3bc74298	0.0060809366
52	0x3be8d710	0.0071057156
53	0x3996ac1e	0.00028738467
54	0x3bbe0e0c	0.0058000144
55	0xbc4ae2d4	-0.012383182
56	0xbc4ddee1	-0.0125653455
57	0x3c055f83	0.008140448
58	0x3b06f259	0.0020591228
59	0x3991b869	0.0002779395
60	0xbc1e5254	-0.009663183
61	0xba902286	-0.0010996617
62	0xb9cad5cb	-0.0003868773
63	0x3c0eebdb	0.0087232245

in_proj_weight f4 [192, 64]
0	0xb8211bae	-3.841117e-05
1	0x38492d45	4.7964295e-05
2	0x3934ad51	0.00017230703
3	0x391310e6	0.00014025308
4	0xb84313dd	-4.6510122e-05
5	0xb9b08855	-0.0003367091
6	0x393fb479	0.00018282411
7	0xb822db43	-3.8828013e-05
8	0xb8363e26	-4.345006e-05
9	0x3838ab68	4.4028653e-05
10	0xbb595989	-0.003316494
11	0x3896a5ed	7.1834635e-05
12	0x39111032	0.00013834311
13	0xb87539da	-5.846643e-05
14	0x389f6d3c	7.602057e-05
15	0xbb9e6064	-0.004833268
16	0xb7ac3178	-2.0527033e-05
17	0xb83722f3	-4.366315e-05
18	0x381860f1	3.6329908e-05
19	0x3a2bbcce	0.00065512664
20	0xb83e1d64	-4.5326902e-05
21	0xb6fc8170	-7.5252537e-06
22	0xb846c0b5	-4.738635e-05
23	0xb8b3fae9	-8.582121e-05
24	0x37575b0e	1.2836199e-05
25	0x386f699e	5.7080404e-05
26	0xba18e53f	-0.00058325
27	0xb8014bce	-3.0826595e-05
28	0x3928ea52	0.0001610902
29	0x36524ed2	3.1338318e-06
30	0xb8265bdc	-3.9663035e-05
31	0xb8fdf908	-0.00012110366
32	0xb8953cb2	-7.116179e-05
33	0xb8911dd4	-6.919695e-05
34	0xb7fb319c	-2.9944633e-05
35	0xb828e5f4	-4.0268482e-05
36	0xb9bbaf48	-0.00035798014
37	0x38f6d12a	0.00011769154
38	0x3a08f333	0.0005224228
39	0x37c05712	2.2928729e-05
40	0xb85c08d2	-5.2460302e-05
41	0x3810ad75	3.449382e-05
42	0xb862e527	-5.4096014e-05
43	0x3add4a3f	0.0016883089
44	0xb7d323e5	-2.5169875e-05
45	0xb89645ba	-7.165545e-05
46	0x3864f809	5.4590437e-05
47	0xb89deaea	-7.5300995e-05
48	0x3873e690	5.8150443e-05
49	0xb803f4d0	-3.1460833e-05
50	0xb7b9f407	-2.2167353e-05
51	0x37c38b46	2.3310666e-05
52	0x386c4f98	5.6340912e-05
53	0xb8578358	-5.1382318e-05
54	0x382667ab	3.9674032e-05
55	0x381aee3c	3.6938334e-05
56	0xb6ec04bd	-7.0338997e-06
57	0x39012446	0.00012315912
58	0x39e62533	0.00043896734
59	0x37aa9b22	2.0337819e-05
60	0x37ced7ac	2.4657544e-05
61	0x39b1ae73	0.00033890046
62	0xb8553eca	-5.0841634e-05
63	0x3854cc11	5.073479e-05
64	0x3690f7dc	4.320389e-06
65	0xb60fdf70	-2.1438718e-06
66	0x39baf2f5	0.00035657702
67	0x3a534713	0.0008059602
68	0xb50056f4	-4.781025e-07
69	0xb9b3d84e	-0.000343027
70	0xb9303406	-0.00016804048
71	0x370fc7c0	8.569972e-06
72	0x37246e6d	9.800872e-06
73	0xb74186cb	-1.153508e-05
74	0x38959e08	7.134309e-05
75	0xb7b77b0b	-2.1872596e-05
76	0xb63f87cc	-2.8540262e-06
77	0x3668904b	3.4654684e-06
78	0xb732acd5	-1.0649867e-05
79	0x3afd4287	0.0019322195
80	0x3620d268	2.396433e-06
81	0x35690fa2	8.682201e-07
82	0x35bac95b	1.3916682e-06
83	0x3b3a68b3	0.0028443753
84	0x377e5a4b	1.5160603e-05
85	0xb6d23141	-6.2642216e-06
86	0x362aae39	2.5433385e-06
87	0xb90dc87b	-0.00013521493
88	0xb6a57989	-4.9315317e-06
89	0xb72b690f	-1.0216855e-05
90	0x39a346bc	0.00031142484
91	0x37211320	9.600801e-06
92	0xb9e67944	-0.00043959368
93	0x35e72f9d	1.7224698e-06
94	0x379dd299	1.8813926e-05
95	0xb89fcd7e	-7.619987e-05
96	0x3901fb4a	0.00012396011
97	0x37e65238	2.7456423e-05
98	0x37405631	1.146416e-05
99	0xb699be43	-4.5819047e-06
100	0xb84b83f2	-4.8521855e-05
101	0x3901fa31	0.00012395602
102	0x3a8dbac8	0.0010813111
103	0xb6cee525	-6.1659543e-06
104	0x371e3dd3	9.431928e-06
105	0x361630ed	2.238022e-06
106	0x3901c002	0.00012373927
107	0x3a98fffe	0.0011672971
108	0x37944277	1.7673925e-05
109	0x37269ee7	9.931368e-06
110	0xb70b46cd	-8.30153e-06
111	0x37975cbd	1.8043787e-05
112	0xb70f8e50	-8.556599e-06
113	0x37114244	8.658102e-06
114	0x35e168ff	1.6794364e-06
115	0xb7635c4f	-1.3551747e-05
116	0xb70c8d83	-8.3775985e-06
117	0xb675d16b	-3.6629742e-06
118	0xb671de03	-3.6041026e-06
119	0x384621c4	4.7238325e-05
120	0x391aeba9	0.00014774375
121	0x38f7a261	0.00011808123
122	0xb9f3598a	-0.00046415284
123	0xb7109e01	-8.619857e-06
124	0xb6b4819c	-5.3795065e-06
125	0xb9c3755b	-0.00037280735
126	0x361d0318	2.3396624e-06
127	0xb7547c00	-1.2665056e-05
128	0x37edcfef	2.8349428e-05
129	0x36103614	2.148915e-06
130	0xbb8e302b	-0.004339238
131	0x3b7c54c5	0.0038502675
132	0xb7351c76	-1.0795067e-05
133	0xbc4ce032	-0.012504624
134	0xbb6c824b	-0.0036088403
135	0xb9be0916	-0.00036246394
136	0xb8e6d956	-0.000110077366
137	0x3b03ad8f	0.0020092463
138	0xbc1d2cf2	-0.009593235
139	0xba023784	-0.0004967379
140	0x3c01510e	0.00789286
141	0xb8bda899	-9.043626e-05
142	0x3b6a028f	0.0035707091
143	0xbd39ab05	-0.045329113
144	0xb621711c	-2.4056708e-06
145	0xb62f8154	-2.615231e-06
146	0x35afd930	1.3101726e-06
147	0x3ba527be	0.005040138
148	0x3ab29fe9	0.0013627979
149	0xb59866b4	-1.1354773e-06
150	0xb717f118	-9.056435e-06
151	0x3c3015be	0.010747371
152	0xb2219758	-9.405845e-09
153	0xb6418a22	-2.8839645e-06
154	0xbb793098	-0.003802335
155	0xba695697	-0.00089011475
156	0xbc87e306	-0.016587745
157	0x344b2670	1.8919832e-07
158	0x3ade7aeb	0.0016973888
159	0xbc2d81e9	-0.010590055
160	0xbc333384	-0.010937575
161	0x3aca7000	0.0015444756
162	0x344d273a	1.9106383e-07
163	0xb5d5f376	-1.5940593e-06
164	0xbc2ab730	-0.010419652
165	0xbb936e6d	-0.0044992478
166	0x3cbbbe8b	0.022918006
167	0x35192ac4	5.7059174e-07
168	0xb8c70b27	-9.491137e-05
169	0xb6f49063	-7.2885755e-06
170	0xba7ae484	-0.00095707946
171	0xba481fd4	-0.00076341373
172	0xbb62d8dc	-0.0034614122
173	0x3911d713	0.00013908399
174	0xba8bc16f	-0.0010662506
175	0xbb114e4f	-0.002217192
176	0x39ede094	0.00045371486
177	0xb7c13e86	-2.3036508e-05
178	0x360c3cbc	2.0896978e-06
179	0xb4a3142c	-3.0375793e-07
180	0x3a3eb87b	0.00072754145
181	0x35b6bd31	1.3615119e-06
182	0x36a9a04a	5.0552526e-06
183	0x3b9932c7	0.0046752426
184	0xbb91378d	-0.004431671
185	0x3b3f6150	0.002920229
186	0xbbfcba6b	-0.0077126524
187	0xb62ff281	-2.6218188e-06
188	0x356c60bd	8.8057624e-07
189	0xbbe78c8c	-0.007066315
190	0xb7ab48ec	-2.0418745e-05
191	0xba617de4	-0.0008601828
192	0xb89bab7d	-7.422918e-05
193	0xb56de97e	-8.8629156e-07
194	0xb9ae315e	-0.00033224648
195	0x3befed82	0.0073220143
196	0xb68302e9	-3.904443e-06
197	0x3b285c51	0.002568979
198	0xba99109f	-0.0011677927
199	0x3836b48c	4.356033e-05
200	0xb825e2f4	-3.9550432e-05
201	0x3a075245	0.00051621004
202	0xbcd04c37	-0.025426967
203	0x3a70528d	0.00091675745
204	0x3b44643d	0.0029966973
205	0x36afbe0e	5.2375317e-06
206	0x3ac3356c	0.001489324
207	0xbbe8245f	-0.007084414
208	0x359c7302	1.1656377e-06
209	0xb611a455	-2.1702338e-06
210	0xb51a1471	-5.7399217e-07
211	0xbcd0a4fb	-0.025469294
212	0xba9a9269	-0.0011792901
213	0x354d142a	7.6397794e-07
214	0x358128d7	9.623135e-07
215	0xbbcd2098	-0.006259989
216	0x33cb0d32	9.455324e-08
217	0xb5295e0e	-6.3094274e-07
218	0xba907306	-0.0011020608
219	0x39ea7d68	0.00044725393
220	0xbbd37515	-0.0064531663
221	0xb58e7010	-1.0612439e-06
222	0xb896d286	-7.1917704e-05
223	0x3b82a95f	0.0039874758
224	0xbba055f4	-0.004893059
225	0x39eec45f	0.00045541205
226	0x33d7bf93	1.0046565e-07
227	0x357d4bb2	9.4359996e-07
228	0x3c0bb9ab	0.008528153
229	0x3bf247e2	0.007393823
230	0x3c1eca26	0.009691751
231	0xb500d76d	-4.79972e-07
232	0x39478d82	0.00019030835
233	0xb5dcba92	-1.6445576e-06
234	0xbb8c1445	-0.0042748773
235	0xbca7cc02	-0.02048302
236	0x39d1061f	0.00039868147
237	0xb6a82a5c	-5.0117214e-06
238	0xba4b57d4	-0.0007756923
239	0x38eca305	0.00011283722
240	0xb8d2b2fc	-0.00010046919
241	0x375c8acb	1.3145337e-05
242	0x34b038bc	3.2823834e-07
243	0x34d8ef35	4.040718e-07
244	0xb911c4b9	-0.00013901562
245	0x36134c91	2.1949274e-06
246	0xb49b7c4d	-2.896144e-07
247	0x3b256c49	0.0025241545
248	0xbae9b3b0	-0.001783004
249	0x3aa21ae4	0.0012367633
250	0xbc130f6f	-0.008975848
251	0x35832e14	9.773671e-07
252	0xb5446b91	-7.317222e-07
253	0x3bda0343	0.006653221
254	0x380b1a6f	3.31648e-05
255	0xb9de5656	-0.00042407465

in_proj_bias f4 [192]
0	0x3998d12d	0.00029147547
1	0xbb1e50c3	-0.0024157024
2	0xbb0599db	-0.0020385894
3	0x3ab82c6e	0.0014051327
4	0x3b7c611c	0.003851003
5	0xbb9341ef	-0.004493944
6	0x3aaa4ed4	0.0012993463
7	0x3b561d60	0.0032671317
8	0x3b2c5a41	0.0026298913
9	0x3b7fd30d	0.0039035708
10	0x3b04549c	0.0020192033
11	0xba537d7f	-0.00080677116
12	0x3ad03014	0.0015883469
13	0x3b62bb6c	0.0034596575
14	0xba889b6b	-0.0010422295
15	0x39c28869	0.00037104197
16	0xb95b12b4	-0.00020892435
17	0xbba3f62c	-0.005003711
18	0xbb4aa1be	-0.003091916
19	0xbb73c36a	-0.0037195333
20	0xbaea8f1d	-0.0017895434
21	0xb9e77f6c	-0.0004415469
22	0xbaf502df	-0.0018692872
23	0x3a1381ec	0.0005626965
24	0x3b573ea9	0.0032843745
25	0xba8b75ce	-0.0010639967
26	0x3b13a917	0.0022531205
27	0x3ab25ccc	0.0013607978
28	0xbab6c8f5	-0.0013945388
29	0xba722649	-0.00092372723
30	0x3b169915	0.0022979428
31	0x3b202b3f	0.002443984
32	0x39e62bf1	0.00043901757
33	0xba0ee2e9	-0.00054506824
34	0x3a06700b	0.000512839
35	0x3ab37ad1	0.0013693218
36	0x3a595316	0.0008290274
37	0x3aa183a4	0.0012322557
38	0x3a94f869	0.0011365536
39	0xb9a74697	-0.00031905316
40	0xb9193f09	-0.000146147
41	0xbb3816f5	-0.0028089855
42	0xb9d79f88	-0.00041126856
43	0xb9b9649f	-0.00035360918
44	0x3ab0b484	0.0013481532
45	0x3b010eb2	0.0019692597
46	0xbaee9949	-0.0018203642
47	0xba93e6e7	-0.0011284024
48	0xbbb9f823	-0.005675332
49	0xbbef6a25	-0.0073063546
50	0x3b9b7124	0.004743712
51	0xba8c33cf	-0.0010696593
52	0xbba01978	-0.0048858486
53	0xbba350e5	-0.0049840086
54	0x3b70bee3	0.003673487
55	0x3b7741ad	0.0037728355
56	0xbbbbb90a	-0.0057288455
57	0x3be647bd	0.007027595
58	0xbb9467c6	-0.0045289723
59	0x3b3afe1b	0.0028532806
60	0x3b7e5238	0.003880633
61	0xbb2ad5ca	-0.002606737
62	0xbaccb883	-0.0015618954
63	0x39d3dbec	0.0004040891
64	0xac81d17d	-3.6896584e-12
65	0x2e13e5aa	3.3627913e-11
66	0x2ed5a36b	9.7151474e-11
67	0x2f44f38e	1.7912624e-10
68	0x2f2a3f97	1.5484002e-10
69	0xae0d276d	-3.2094705e-11
70	0xaf030527	-1.1916211e-10
71	0xafe94287	-4.2429724e-10
72	0xb061018d	-8.1856727e-10
73	0xafeeaf45	-4.3416484e-10
74	0xadebea59	-2.6820478e-11
75	0xafd91aff	-3.9491252e-10
76	0xb0082409	-4.952772e-10
77	0x300ae709	5.053243e-10
78	0x2d3a1c0b	1.0579103e-11
79	0xae8d7052	-6.43189e-11
80	0x2ce4b97f	6.500744e-12
81	0xae1b844e	-3.536043e-11
82	0x2f42c04a	1.7712512e-10
83	0x30225b3e	5.906492e-10
84	0x2eee02b8	1.082347e-10
85	0x2db28a9f	2.0297817e-11
86	0x2e030c3d	2.979682e-11
87	0xae892003	-6.235725e-11
88	0xadeb64ba	-2.6761138e-11
89	0xaf2b7701	-1.5594638e-10
90	0xae26cb4d	-3.7924597e-11
91	0x2ecb2a09	9.238838e-11
92	0x2fc4c052	3.5788844e-10
93	0xae9ab0cf	-7.034517e-11
94	0x2d949f1e	1.6896314e-11
95	0xaf0f0c7f	-1.3010214e-10
96	0x2df38f6e	2.7689597e-11
97	0x2f67ba01	2.107541e-10
98	0xaf56dac3	-1.9540906e-10
99	0xb0b4e790	-1.3162538e-09
100	0xac09ed94	-1.9600753e-12
101	0xb0155010	-5.431966e-10
102	0xae3ff3c4	-4.364488e-11
103	0xaf1a72b4	-1.4046969e-10
104	0xb05a5009	-7.9421675e-10
105	0x2e3cbf67	4.291625e-11
106	0x308c1bcd	1.0194242e-09
107	0xaf02d3ef	-1.1898725e-10
108	0xaf2e417c	-1.5848473e-10
109	0xaf3422d0	-1.6383273e-10
110	0xb08c32a9	-1.0200739e-09
111	0x30249c67	5.9885114e-10
112	0xaf55bed0	-1.9440027e-10
113	0x2d90d627	1.6466007e-11
114	0x2e9a9e41	7.031221e-11
115	0xaf5b204f	-1.9929412e-10
116	0x2e66b9f1	5.2461094e-11
117	0x2ff9ad70	4.541607e-10
118	0x2e2d857f	3.9454214e-11
119	0x2fa4b2cc	2.995847e-10
120	0x3015480d	5.4308275e-10
121	0xaf659d0b	-2.0883222e-10
122	0xae2baa60	-3.9032222e-11
123	0x2e9a66c8	7.021367e-11
124	0x2ea32d6a	7.420449e-11
125	0xaf024431	-1.1847658e-10
126	0x2d6a5f8c	1.3322576e-11
127	0x2b0252ef	4.630037e-13
128	0x3c16adae	0.009196682
129	0xbaaa9a6e	-0.0013015994
130	0xbba54584	-0.0050436873
131	0x3c569977	0.013098112
132	0x3c05bcc3	0.00816268
133	0x3c80f188	0.015740171
134	0x3ac7e392	0.0015250316
135	0x3acbbd73	0.0015544131
136	0x3b8df921	0.004332677
137	0x3c118a25	0.008883034
138	0xbbef3ada	-0.007300717
139	0xbba0368b	-0.0048893145
140	0x3b5dc1d1	0.0033837447
141	0xbb4ecf0a	-0.003155651
142	0x3b43ffa8	0.0029907022
143	0x3b50e216	0.003187304
144	0xbb6d362b	-0.0036195617
145	0xbb1e2d33	-0.0024135828
146	0xbbb2d2a5	-0.0054572397
147	0xbb164561	-0.0022929537
148	0x3bde9682	0.0067928443
149	0x3a537b8d	0.0008067422
150	0x3c34a762	0.011026235
151	0x3c07eb15	0.008295794
152	0xbb187ca3	-0.0023267649
153	0xbb789ee1	-0.0037936496
154	0xbadf5125	-0.0017037733
155	0xbc1228dd	-0.008920875
156	0x3b8558b4	0.004069412
157	0x3b9e7a03	0.0048363223
158	0xbb1a5cb3	-0.0023553788
159	0xbc5d20e4	-0.013496611
160	0x3b060533	0.0020449876
161	0xbb719286	-0.0036861016
162	0x3bde484e	0.0067835217
163	0x3c4728b4	0.0121557005
164	0x3a01081e	0.0004922169
165	0xbbb78f7a	-0.0056018205
166	0x3c3bd11a	0.011463428
167	0x3b0e65c7	0.0021728144
168	0x3bdd6519	0.0067564365
169	0xb9931cd6	-0.0002805951
170	0xbbcadecb	-0.00619111
171	0x3b1e60b1	0.002416652
172	0xbb5c0687	-0.0033573227
173	0xbb543e4b	-0.0032385762
174	0xbbfa531b	-0.0076393015
175	0x3c60d741	0.0137231955
176	0xbb4365da	-0.0029815347
177	0xbc6f0d09	-0.01459051
178	0xbbdd88d5	-0.0067606964
179	0xbba01601	-0.0048854356
180	0x3bcd6951	0.006268658
181	0x3b7ef5b5	0.0038903777
182	0x3a9620ab	0.0011453828
183	0xba623e38	-0.0008630487
184	0x3bda6336	0.006664659
185	0x3b5e5344	0.0033924142
186	0xbc77e5d4	-0.015130479
187	0x3bb8d1ae	0.00564023
188	0x3bb12aa3	0.005406694
189	0xbbc94336	-0.0061420454
190	0xbc264257	-0.010147653
191	0xbc70c777	-0.014695994

weight f4 [64, 64]
0	0x3e2b5a27	0.16733609
1	0x3cbf5a8d	0.023358608
2	0x3de64c11	0.11244977
3	0x3e4b575c	0.19857544
4	0x3d8241ac	0.06360182
5	0x3e32cc1d	0.17460676
6	0x3e4e9242	0.2017298
7	0x3d5fd16b	0.054643076
8	0x3dde3ad7	0.108510666
9	0x3e10077d	0.14065357
10	0x3d98627a	0.07440658
11	0x3c9f0b6e	0.01941463
12	0x3d9be0f0	0.07611263
13	0xbe1c2774	-0.15249425
14	0x3d7c4083	0.06158496
15	0xbd38d17e	-0.045121662
16	0xbe034942	-0.12820914
17	0x3e19cabc	0.15018743
18	0x3e4938d6	0.19650587
19	0xbe2528fb	-0.16128914
20	0x3e1a1f78	0.15051067
21	0xbde60804	-0.112319976
22	0x3e4232f2	0.18964747
23	0x3dc9d7d3	0.09855618
24	0x3dfec828	0.124405205
25	0xbd8ddaea	-0.0692652
26	0xbdbbbe55	-0.09167162
27	0x3e48f238	0.19623649
28	0x3d2003d3	0.039066147
29	0x3ded6fcc	0.11593589
30	0xbdfae56a	-0.122507885
31	0x3dceca9b	0.10097238
32	0x3dbdf324	0.09274891
33	0xbd399a32	-0.045313068
34	0xbe0a0edf	-0.13482235
35	0x3e4a6b8b	0.19767587
36	0x3c1b3215	0.00947239
37	0xbd4630eb	-0.048386496
38	0x3e37c569	0.179464
39	0x3e5fb8f3	0.21847896
40	0xbe11cfc1	-0.14239408
41	0xbe01325d	-0.12616868
42	0x3e2407a2	0.16018537
43	0xbddd1d6c	-0.107966274
44	0x3e0bd9a5	0.13657244
45	0x3da6609c	0.081238955
46	0x3ddfebad	0.109336235
47	0xbdd752dc	-0.10513851
48	0xbe112961	-0.14175941
49	0x3d937d71	0.072016604
50	0x3e543a4d	0.20725365
51	0xbcf0a705	-0.029376516
52	0x3def3f67	0.11682015
53	0x3d8deb00	0.06929588
54	0x3d552284	0.05203487
55	0xbd91907f	-0.071076386
56	0xbe470400	-0.1943512
57	0x3e5069bb	0.20352833
58	0x3e2383d1	0.15968253
59	0x3d5b6fc0	0.05357337
60	0xbd903282	-0.070408836
61	0x3db6be4f	0.08923017
62	0xbe133b85	-0.14378174
63	0x3d2fc652	0.042913742
64	0x3cee6803	0.029102331
65	0x3e13f8ae	0.14450333
66	0xbdd582ca	-0.10425337
67	0xbdfeb099	-0.12436027
68	0x3e02847e	0.12745854
69	0xbd4a11f6	-0.049333535
70	0x3e0d8ab5	0.13822444
71	0x3e1d4216	0.15357241
72	0xbc4e992e	-0.012609763
73	0xbbdf6e42	-0.0068185637
74	0x3de9f8fa	0.11424442
75	0x3d22a7ea	0.039710917
76	0x3d277d2e	0.040890865
77	0xbd0f8941	-0.035043005
78	0x3e09e06d	0.13464518
79	0xbd5fa481	-0.054600243
80	0xbcf49e14	-0.029860534
81	0xbd46e88d	-0.04856162
82	0x3e5af89e	0.21383902
83	0x3e3b0985	0.1826535
84	0x3e2853a2	0.16438153
85	0x3e36b70e	0.17843267
86	0xbdf5ef2a	-0.120085075
87	0x3d56365e	0.052297942
88	0x3ce342c1	0.027741792
89	0xbe28f9c7	-0.16501532
90	0xbe0c2138	-0.13684547
91	0xbce81a91	-0.02833298
92	0x3e25ee8f	0.16204284
93	0xbd038885	-0.032112617
94	0xbe05cd40	-0.13066578
95	0x3def6133	0.11688461
96	0x3dfb1693	0.12260165
97	0x3d4f453d	0.05060314
98	0xbd2bde04	-0.041959777
99	0xbe1c1a28	-0.15244353
100	0x3df8f694	0.12156406
101	0xbd9c773e	-0.07639931
102	0x3e1ad081	0.151186
103	0x3dc38bbf	0.09548139
104	0xbda1ae31	-0.078945525
105	0x3c6e4b61	0.014544339
106	0xbe08fd7a	-0.13377944
107	0xbdc63a3e	-0.096790776
108	0xbc32ba75	-0.010908713
109	0x3cd7404f	0.026275782
110	0x3e3ae299	0.18250503
111	0x3d260d33	0.04053993
112	0x3bee5836	0.007273699
113	0xbe1768b3	-0.14786033
114	0x3e498a8d	0.19681759
115	0x3e4dde6c	0.20104378
116	0xbd55502c	-0.05207841
117	0xbe561376	-0.20905861
118	0xbdf56ec1	-0.11984015
119	0xbce833ba	-0.028344978
120	0xbdde4d0c	-0.10854539
121	0xbcd7441c	-0.026277594
122	0x3e1c2df2	0.15251902
123	0xbdfe9393	-0.12430491
124	0xbe17d3f6	-0.1482695
125	0x3cfb0e46	0.030646455
126	0x3e3dc2b5	0.18531306
127	0xbe3cbe34	-0.18431932
128	0xbde71503	-0.112833045
129	0xbdba6fa9	-0.09103329
130	0xbdd3059c	-0.10303804
131	0xbdd21d26	-0.10259466
132	0x3d70a1cf	0.058748063
133	0x3d58a218	0.05288896
134	0xbe49c795	-0.19705041
135	0x3e1d1e1b	0.15343516
136	0x3dbacdae	0.091212615
137	0xbda65726	-0.08122091
138	0x3e1eadaa	0.15495935
139	0xbc6b8187	-0.014374143
140	0x3ba953a2	0.0051674405
141	0xbc6fd262	-0.0146375615
142	0xbd32750f	-0.043568667
143	0xbb137b31	-0.0022503848
144	0xbe00cc8d	-0.1257803
145	0xbe58a966	-0.2115837
146	0xbe353cd5	-0.17698987
147	0x3d95c1cf	0.07312357
148	0xbe1a407b	-0.1506366
149	0xbe1f3053	-0.15545778
150	0x3e01ca9c	0.12674946
151	0x3db7be37	0.089718275
152	0xbd4c0d6c	-0.049817488
153	0xbd82d5e7	-0.06388455
154	0x3e431cfa	0.19054022
155	0x3cc287f0	0.02374646
156	0x3da4e8e4	0.08052233
157	0x3cfc5ae5	0.03080506
158	0x3d9dab6c	0.07698712
159	0xbe22027f	-0.15821265
160	0xbdbaa752	-0.09113945
161	0xbe01d2d3	-0.1267808
162	0xbe05d34a	-0.13068882
163	0xbd8f68cf	-0.070024125
164	0xbda8f493	-0.08249774
165	0xbdcffbf6	-0.101554796
166	0xbe2bad23	-0.16765265
167	0xbd85b006	-0.065277144
168	0xbe43f5d4	-0.19136745
169	0x3e442b1c	0.1915707
170	0xbdc8c64e	-0.098034486
171	0xbde337d5	-0.110946335
172	0x3e56d67c	0.20980257
173	0x3e434cf7	0.19072329
174	0x3e0c4f1c	0.13702053
175	0xbc8d4153	-0.017243063
176	0x3e385aab	0.18003337
177	0x3d65ee04	0.056135193
178	0x3d546c32	0.051860996
179	0xbe4d78b9	-0.20065583
180	0xbe49e97d	-0.19717975
181	0xbe4e61d3	-0.20154504
182	0x3d23780e	0.039909415
183	0xbc8f475e	-0.017490085
184	0xbe615779	-0.22006024
185	0xbe2b3a42	-0.16721442
186	0x3e3441d1	0.17603232
187	0x3d24b756	0.040213905
188	0x3d944c9c	0.072411746
189	0xbc2c2002	-0.010505678
190	0xbd72a6ab	-0.05924098
191	0x3da886b2	0.08228816
192	0xbe44e34e	-0.19227335
193	0xbb9d4b46	-0.004800233
194	0xbd35bf1b	-0.044371706
195	0x3de69429	0.11258728
196	0xbe0be656	-0.13662085
197	0xbe3e4405	-0.18580635
198	0x3e23e5a4	0.1600557
199	0x3e1f8f16	0.15581927
200	0x3e333385	0.17500122
201	0x3e36a21c	0.17835277
202	0x3dfd6156	0.12372081
203	0x3da99106	0.08279614
204	0xbdbf4199	-0.09338684
205	0x3e387a6a	0.18015447
206	0x3e194cf7	0.14970766
207	0x3e583fcf	0.21118091
208	0xbd8b5d64	-0.06804922
209	0xbe1a2498	-0.15053022
210	0xbe285890	-0.16440034
211	0xbd57d5de	-0.052694194
212	0xbde9c515	-0.114145435
213	0xbdff9f31	-0.12481535
214	0xbd28e594	-0.041234568
215	0xbda78ed5	-0.0818154
216	0xbd3de1cf	-0.046357926
217	0xbde82451	-0.11335052
218	0x3d10bba6	0.035335205
219	0xbdabd51f	-0.08390259
220	0xbddc35dc	-0.1075246
221	0xbe56ca7a	-0.20975676
222	0xbd711884	-0.05886127
223	0xbe22418e	-0.1584532
224	0xbe3b93d1	-0.18318106
225	0x3bd42608	0.0064742602
226	0xbc5435c0	-0.012952268
227	0x3e1f4ebc	0.15557379
228	0xbe184b57	-0.1487249
229	0xbe19ea67	-0.15030824
230	0xbe088651	-0.13332488
231	0xbdddcd66	-0.10830192
232	0x3e359ea6	0.17736301
233	0xbd8ea17f	-0.06964397
234	0x3db01ceb	0.08599266
235	0xbd05c53b	-0.032658797
236	0x3d5e5ce7	0.054287817
237	0x3e19d7e8	0.15023768
238	0x3e4ae7d6	0.19815001
239	0x3df0cb2b	0.11757501
240	0x3e145d92	0.14488819
241	0xbd2745c4	-0.040838018
242	0x3d9df7f8	0.07713312
243	0x3d724ab3	0.05915327
244	0x3e258fbd	0.16168113
245	0x3c8adb4b	0.01695027
246	0x3d11e0af	0.035614666
247	0xbdc24a2f	-0.09486806
248	0xbd8809d6	-0.06642501
249	0x3ddb0536	0.10694353
250	0xbd23aca6	-0.039959572
251	0x3d87ae11	0.066249974
252	0x3d28c026	0.041198872
253	0xbd884c9a	-0.066552356
254	0xbd1f109f	-0.03883421
255	0x3e37ef53	0.17962389

bias f4 [64]
0	0x3b92a71c	0.0044754874
1	0xbc460e31	-0.012088344
2	0xbc44a3d6	-0.012001952
3	0xbb1fc167	-0.0024376751
4	0x3bbae076	0.0057030274
5	0xbc6ac7e7	-0.014329887
6	0x3c56039c	0.013062384
7	0x3b5aeea4	0.00334064
8	0x3b03bf45	0.002010302
9	0x3c5bbbec	0.013411503
10	0xbc0930d5	-0.008373459
11	0xbb9b1218	-0.0047323816
12	0x3b3e58c5	0.002904461
13	0x3c3ed00c	0.011646282
14	0x3bf54df0	0.0074860975
15	0xbbcdad0b	-0.006276732
16	0x3b3676ec	0.002784188
17	0x3bac86fa	0.005265114
18	0x3b7d8361	0.0038683044
19	0x3c3517b1	0.011053012
20	0x3c51cac3	0.01280469
21	0x3bf0a8e6	0.007344353
22	0xbbd5b750	-0.0065220967
23	0xb9c1035c	-0.00036814332
24	0x38c37473	9.320015e-05
25	0xbbdee11a	-0.0068017365
26	0x3af81d91	0.001892971
27	0x3a982c49	0.0011609878
28	0x3bc8e75a	0.006131095
29	0x39d7162c	0.00041024515
30	0x3a60159f	0.00085481437
31	0xbc0d1001	-0.008609773
32	0x3b02003d	0.0019836568
33	0xbb8bdd62	-0.0042683342
34	0xbb7c9c7d	-0.0038545423
35	0x3c447ed1	0.011993126
36	0xbc27e89c	-0.0102483295
37	0xbc471ed1	-0.012153343
38	0x3c4ac1ae	0.012375278
39	0xbc9a6b6b	-0.018850049
40	0xb81cb285	-3.7359558e-05
41	0x3b0a63d3	0.0021116629
42	0x3b08f414	0.0020897435
43	0xbc1a4849	-0.009416648
44	0xbaeef130	-0.0018229838
45	0x3c615aee	0.0137545895
46	0x3b6f0a5f	0.0036474688
47	0x3bdbe377	0.0067104655
48	0x3a512021	0.0007977505
49	0xbbea6144	-0.0071527082
50	0xbbd2afd2	-0.006429651
51	0x3b6ee955	0.0036454995
52	0xb9ff4d42	-0.00048694952
53	0x3a2bf476	0.000655956
54	0x3c2657dd	0.010152784
55	0xbc823dd9	-0.015898632
56	0xbc4353dd	-0.01192185
57	0xbc0e7d82	-0.008696916
58	0x3bb6df1e	0.005580797
59	0xbb58a700	-0.0033058524
60	0xbbc23cc6	-0.005927655
61	0xb91572a5	-0.00014252456
62	0xbc0fb152	-0.008770304
63	0x3b34a1bf	0.0027562228

weight f4 [256, 64]
0	0x3da86118	0.08221644
1	0x3dd8fd27	0.1059516
2	0x3e00659a	0.12538758
3	0x3db8e74a	0.0902849
4	0x3d3305b1	0.0437066
5	0x3de41b17	0.111379795
6	0x3dbf2a50	0.09334242
7	0x3cf5cfc6	0.0300063
8	0xbb4c2d02	-0.0031154756
9	0xbd0a81e7	-0.03381529
10	0x3dde34bd	0.10849903
11	0x3d766ab4	0.060160354
12	0x3dbd8537	0.09253924
13	0x3da9c2ca	0.08289106
14	0x3d609276	0.054827176
15	0x3d882c2f	0.06649052
16	0xbd945a4f	-0.072437875
17	0xbd4644a6	-0.048405312
18	0xbe04afa9	-0.12957634
19	0x3d07de1c	0.033170804
20	0x3cc199b0	0.023632854
21	0x3ab05a83	0.0013454709
22	0xbcbcbc5e	-0.02303904
23	0x3e083d0c	0.13304538
24	0xbdd93e12	-0.10607542
25	0xbd9d714b	-0.076876245
26	0x3c465bfc	0.012106892
27	0xbd599df4	-0.05312915
28	0xbd1b58f8	-0.037926644
29	0x3baa6495	0.0051999786
30	0xbd9c266c	-0.07624516
31	0xbe053c83	-0.13011365
32	0xbe099a32	-0.13437727
33	0xbcd9bee9	-0.02658029
34	0xbd85e437	-0.06537669
35	0x3de193b7	0.110145025
36	0xbce9a080	-0.028518915
37	0x3d5aebaf	0.05344742
38	0xbd90982f	-0.07060277
39	0xbd5f5afa	-0.05453012
40	0x3d8ecb0b	0.06972321
41	0xbcd359b2	-0.025799606
42	0xbd9f7077	-0.07785123
43	0xbd60e52f	-0.054906067
44	0xbc6d6aa4	-0.014490757
45	0x3dea4710	0.11439335
46	0xbd819fce	-0.063293085
47	0x3df057bb	0.11735483
48	0xbe03d47c	-0.12874025
49	0x3dc3a824	0.09553555
50	0xbdc7e77d	-0.0976095
51	0xbd03e65b	-0.032202106
52	0x3deee6ee	0.1166514
53	0xbd629106	-0.055314086
54	0xbdae9993	-0.08525386
55	0x3d9ecbf6	0.07753746
56	0x3d8c6457	0.06855076
57	0xbdf10631	-0.11768759
58	0x3daad6a4	0.08341721
59	0xbdb1c726	-0.08680563
60	0x3da9ceed	0.08291421
61	0x3d0750cb	0.033036035
62	0x3e086ced	0.13322802
63	0x3d61d394	0.055133417
64	0x3d2248cb	0.039620202
65	0xbe006d69	-0.12541737
66	0x3d8fb2d2	0.07016529
67	0xbc807d24	-0.015684672
68	0x3dfee4d8	0.12445992
69	0x3d5f5efa	0.054533936
70	0xbdf74283	-0.12073233
71	0xbd98ef54	-0.07467523
72	0x3d87fe88	0.06640345
73	0x3dcfe606	0.10151295
74	0xbd92b6b1	-0.07163752
75	0x3e01645a	0.12635937
76	0x3d736156	0.059419
77	0x3dae2c7d	0.08504579
78	0xbcc477f8	-0.023982987
79	0xbd22f9ec	-0.039789125
80	0xbcb5bc30	-0.022184461
81	0xbda2ff5c	-0.07958862
82	0xbd4a7001	-0.04942322
83	0xbe05121b	-0.12995188
84	0xbd110a34	-0.03541012
85	0x3dd2df4d	0.102964975
86	0x3de00f76	0.10940449
87	0x3d988b6a	0.07448466
88	0x3cea110c	0.028572582
89	0x3de2e8cc	0.11079559
90	0xbdd8e8a5	-0.105912484
91	0x3daf56df	0.08561491
92	0xbd60bb6f	-0.05486625
93	0xbd3f3bcc	-0.046687886
94	0x3c948426	0.01812942
95	0xbcecc472	-0.028902266
96	0x3b7ace3a	0.0038269893
97	0xbbae626f	-0.005321793
98	0xbcd18507	-0.025576128
99	0x3c80adc4	0.015707858
100	0x3d8b13c4	0.06790879
101	0x3d154b9c	0.03644906
102	0x3dacd57f	0.08439159
103	0xbd8df69c	-0.06931803
104	0x3e006c63	0.12541346
105	0xbbf63409	-0.0075135273
106	0xbdaefe86	-0.0854464
107	0xbc81a937	-0.015827758
108	0x3ceadec4	0.028670676
109	0xbdf84c54	-0.121239334
110	0x3df78030	0.12084997
111	0xbc927660	-0.017878711
112	0xbdae34e6	-0.08506183
113	0x3d17a8b8	0.037026137
114	0xbdb64602	-0.08900072
115	0xbd2ab1a5	-0.04167332
116	0x3c34b370	0.011029109
117	0xbc044c17	-0.008074782
118	0x3d736545	0.05942275
119	0x3da06c0a	0.07833107
120	0x3d5c9c2d	0.05385988
121	0xbdcb27be	-0.099196896
122	0xbdb19562	-0.08671071
123	0x3d9bf6ee	0.076154575
124	0xbdda7734	-0.106672674
125	0xbda3e15a	-0.08001967
126	0xbdb60611	-0.08887876
127	0x3d49acb2	0.04923696
128	0x3dfffabe	0.12498997
129	0x3cbbea36	0.022938829
130	0xbd65c3bb	-0.056094866
131	0x3d4cb011	0.049972598
132	0xbdacc70c	-0.08436403
133	0xbde76b09	-0.11299712
134	0xbd4859e3	-0.048913848
135	0xbd0dc3ad	-0.03461044
136	0x3d100c06	0.035167716
137	0x3d736e14	0.05943115
138	0xbd8a6944	-0.06758359
139	0x3c3dd244	0.011585776
140	0x3c8cfd2b	0.017210564
141	0xbad288c9	-0.0016062494
142	0x3e0892d4	0.1333726
143	0x3d4f2883	0.050575744
144	0xbd99c71d	-0.07508681
145	0x3cdf619e	0.027268227
146	0xbd205fe3	-0.039153945
147	0x3daff7d7	0.085921936
148	0xbd3556bc	-0.04427217
149	0x3d6e12cc	0.058123395
150	0xba307513	-0.00067313126
151	0xbca8545d	-0.02054804
152	0xbd7bb53b	-0.06145213
153	0x3d9a2c14	0.075279385
154	0x3ddda994	0.1082336
155	0x3e016f67	0.12640153
156	0x3d8886d3	0.06666341
157	0x3c32aff8	0.010906212
158	0x3d8a8280	0.06763172
159	0x3dd2e201	0.10297013
160	0x3c53a6dc	0.0129182
161	0xbd98c330	-0.07459104
162	0xbcd3f6da	-0.025874544
163	0x3da020d5	0.07818762
164	0x3c845bef	0.016157119
165	0xbd880810	-0.06642163
166	0xbce2ec63	-0.027700609
167	0x3c3a6774	0.011377204
168	0xbd02610b	-0.03183083
169	0x3df89626	0.121380135
170	0x3de7606b	0.11297687
171	0x3dc07df8	0.09399027
172	0xbbcfb0d9	-0.0063382206
173	0xbdaed77e	-0.085371956
174	0xbd866841	-0.065628536
175	0x3ccc2b2d	0.024922932
176	0x3c8d4986	0.017246973
177	0xbd368d29	-0.044568215
178	0xbcd1f653	-0.025630152
179	0xbcd4bc71	-0.025968762
180	0x3d0fde71	0.035124246
181	0xbd861a20	-0.06547952
182	0xbd3f4984	-0.04670097
183	0xbc2c6772	-0.01052271
184	0x3dd4e992	0.103961125
185	0xbc98ba5c	-0.01864355
186	0x3cac42e3	0.021027988
187	0xbd41d83b	-0.047325354
188	0xbd9c26ce	-0.07624589
189	0xbdcae07f	-0.099061005
190	0x3c3a8304	0.011383776
191	0x3e114910	0.14188027
192	0xbac71e68	-0.0015191557
193	0xbb8d022a	-0.0043032365
194	0x3b5e5c98	0.0033929702
195	0x3a4e22e9	0.00078634784
196	0xb7c7ec33	-2.3832637e-05
197	0x399928ab	0.00029212734
198	0xbb10352e	-0.0022004354
199	0xbba6c024	-0.005088823
200	0xb9a126f9	-0.0003073735
201	0xb9f5845c	-0.00046828657
202	0x3b4b91f0	0.0031062327
203	0x381680f4	3.5882884e-05
204	0xbad9d29f	-0.0016618556
205	0xb9976fc8	-0.00028884248
206	0xb9733faa	-0.00023198003
207	0xb9000e79	-0.00012212423
208	0xb7f01ec1	-2.862455e-05
209	0x39156620	0.00014247792
210	0xb98af616	-0.0002650476
211	0xbb8207c7	-0.0039682123
212	0x3c1433a6	0.009045517
213	0xb894cc9b	-7.095301e-05
214	0xbbf0ab45	-0.0073446357
215	0x3a6e211f	0.0009083915
216	0xb8b48589	-8.607942e-05
217	0x39cd3cf6	0.00039146066
218	0x3b7f438a	0.0038950169
219	0xbc60c806	-0.013719564
220	0xbc513ad1	-0.012770371
221	0x3baad033	0.0052128076
222	0x38d47064	0.00010129882
223	0xb9b49c2a	-0.00034448627
224	0xba547de1	-0.00081059156
225	0xbb893546	-0.004187259
226	0x3bd59e78	0.006519135
227	0xb9246d03	-0.00015680869
228	0x3c44df39	0.012016111
229	0x3bacbd3e	0.005271583
230	0xbb6e1b72	-0.0036332277
231	0xbcb1ab37	-0.021688087
232	0xb897acde	-7.23244e-05
233	0xbaa5ecf7	-0.0012659122
234	0x39d14752	0.00039916724
235	0x3bb56d05	0.005536678
236	0xbc6be633	-0.0143981455
237	0x38c227a0	9.2580216e-05
238	0xb924ae10	-0.00015705102
239	0xb98ca785	-0.00026827693
240	0x3928f603	0.00016113375
241	0x3809f63c	3.289267e-05
242	0xb90d715e	-0.0001348904
243	0xba081d50	-0.0005192356
244	0x3967698f	0.000220692
245	0xb9fde762	-0.00048428314
246	0xb68a436b	-4.120569e-06
247	0x39a1416b	0.00030757053
248	0xb9a336ba	-0.00031130557
249	0x3bac4278	0.005256947
250	0x3cbb79ba	0.022885192
251	0x39f5fd6e	0.0004691886
252	0x371e2660	9.426469e-06
253	0x3adff256	0.0017085772
254	0xb9889108	-0.00026047998
255	0x3c1f1ac2	0.009710969

bias f4 [256]
0	0xbab6191a	-0.0013892979
1	0x3a1ceae8	0.00059859315
2	0xbc5d42ab	-0.013504664
3	0xba61b672	-0.00086102553
4	0xbbc2484c	-0.0059290286
5	0x3c02b6d4	0.00797816
6	0xbc1224cf	-0.008919909
7	0xbc4febdd	-0.0126905115
8	0xba205455	-0.0006116082
9	0xb947ada2	-0.00019042802
10	0x3b38d6c8	0.0028204191
11	0xb3ab44d4	-7.975328e-08
12	0x3b620153	0.0034485653
13	0x3b422993	0.002962683
14	0xbb791805	-0.0038008702
15	0x3c2b5d1b	0.01045921
16	0xbc4c7ca8	-0.012480892
17	0x3c150b0c	0.009096872
18	0xbbc7690a	-0.0060855197
19	0xbbb56d88	-0.005536739
20	0x3a374485	0.0006991106
21	0xbc741795	-0.0148982005
22	0xbb30a8e9	-0.0026956147
23	0x3acdaed7	0.0015692365
24	0x3b8407c5	0.0040292465
25	0xbb7c00e1	-0.0038452672
26	0xbbf795a1	-0.007555679
27	0x3bcf5b3c	0.0063280147
28	0x3a099c70	0.0005249446
29	0x3a79bfc5	0.0009527172
30	0xbc1340eb	-0.008987646
31	0xbc781102	-0.015140774
32	0x38e51f9c	0.000109254586
33	0xbc751443	-0.014958444
34	0xbb7468f8	-0.0037294012
35	0xbaae6e92	-0.0013308099
36	0xba6c9492	-0.0009024824
37	0x3cb5c575	0.022188881
38	0x3be130c9	0.0068722707
39	0xbbcda3d1	-0.006275632
40	0xbba21c7b	-0.004947243
41	0xbc26426b	-0.010147671
42	0xbc342775	-0.010995735
43	0x3a937f74	0.0011253194
44	0xbbdb5817	-0.0066938507
45	0xbba90e85	-0.0051592016
46	0xbc2c92d3	-0.0105330525
47	0x3ab7dc65	0.0014027475
48	0x3be17608	0.0068805255
49	0x3c401576	0.011723867
50	0xbc4dc408	-0.0125589445
51	0xbb2cfd9a	-0.0026396275
52	0xbb49d126	-0.0030794828
53	0xbc49e3bf	-0.012322365
54	0x3b413651	0.0029481838
55	0xba55eb8b	-0.0008160404
56	0xbbe1eeb4	-0.0068949107
57	0xbc561893	-0.013067382
58	0x3b738dbe	0.0037163342
59	0x3b39d48d	0.002835545
60	0xbc0dd877	-0.008657566
61	0xbbe57268	-0.0070021637
62	0x3c423418	0.01185324
63	0xb9e7880a	-0.0004416111
64	0x3b87edcc	0.0041482206
65	0xbb9f2f53	-0.0048579364
66	0x3a3eb6cf	0.00072751654
67	0x3bdab915	0.0066748955
68	0xbc0a9695	-0.008458753
69	0x3bc93b7e	0.006141125
70	0xbc79f6a1	-0.015256555
71	0xbafcd2ef	-0.0019288937
72	0xbafa5517	-0.0019098845
73	0xb9c34c94	-0.00037250353
74	0x3c042365	0.008065079
75	0x3b0e1df8	0.0021685343
76	0x3c828949	0.015934603
77	0x3c555783	0.013021353
78	0xbbf0afd9	-0.0073451814
79	0xbbef3c9f	-0.007300928
80	0xbc291fab	-0.010322492
81	0x394b20f0	0.00019371859
82	0xbbc15cfb	-0.0059009767
83	0x3cae9e3b	0.021315685
84	0xbae11b47	-0.0017174267
85	0xbc0668b9	-0.008203679
86	0x3acc8c6f	0.0015605817
87	0x3bb0185e	0.0053739985
88	0xbb68dc7a	-0.0035531805
89	0xbc1e9476	-0.0096789505
90	0xbb877ef6	-0.004135008
91	0xbb869821	-0.0041074906
92	0x3bb54fc0	0.0055331886
93	0x3a76ec91	0.00094194064
94	0x3aafe42e	0.0013419443
95	0xbb36d676	-0.0027898825
96	0xbbe48db3	-0.0069748997
97	0x3c844e43	0.0161506
98	0xbc38445b	-0.011246766
99	0xbb163b85	-0.002292366
100	0xbbafb34d	-0.0053619505
101	0x3c174c68	0.009234525
102	0xbbe15be5	-0.0068774098
103	0x3af50cdd	0.001869585
104	0xb8f629ba	-0.00011737966
105	0xbb0aa4d7	-0.002115538
106	0x3b1f45f6	0.0024303175
107	0xbc53e59d	-0.012933162
108	0x3c302a2e	0.010752244
109	0xbae77d6e	-0.0017661282
110	0x3c498464	0.012299631
111	0xbc9d3711	-0.019191297
112	0x3bde0ac6	0.0067761866
113	0xbad754f2	-0.0016428514
114	0x3c845aa9	0.016156511
115	0xba1ae0b2	-0.0005908116
116	0xbb610d86	-0.0034340336
117	0x3c989f1c	0.018630557
118	0xbbba9701	-0.0056942706
119	0x3cb4c6ca	0.022067446
120	0x3c116fbe	0.008876739
121	0xbc33f304	-0.010983232
122	0xbc41e8fb	-0.011835332
123	0xbae2875b	-0.0017282771
124	0x3c95bed5	0.018279472
125	0xbbd2570b	-0.0064190677
126	0xbbf894a1	-0.0075860773
127	0xbb910b62	-0.0044264058
128	0xbc4626ca	-0.012094209
129	0xbc2545a5	-0.010087405
130	0xbb426c5d	-0.002966664
131	0x3b32c789	0.0027279577
132	0xbae5cfce	-0.0017533244
133	0xbb0100dd	-0.0019684352
134	0xbc408ab5	-0.01175182
135	0x3bae9e28	0.0053289123
136	0x3bc67acb	0.0060571185
137	0xbbfc9cb3	-0.0077091097
138	0x386f0379	5.6985275e-05
139	0x3beeba73	0.00728541
140	0x3b8446ce	0.004036761
141	0x3c338063	0.010955903
142	0x3bf5d495	0.0075021484
143	0x3bce472b	0.006295105
144	0x3c286b4f	0.010279491
145	0x3bfacdd9	0.0076539335
146	0x3c5b4f68	0.013385631
147	0xbc1621d3	-0.009163338
148	0xb5e770a5	-1.7243625e-06
149	0xbbfa9d4c	-0.007648146
150	0x3c3856f6	0.011251202
151	0xba3af738	-0.00071321754
152	0xbbb762c8	-0.0055964924
153	0xbb8c6c27	-0.0042853537
154	0xbbe78ca8	-0.007066328
155	0xbc6382e8	-0.013886191
156	0xbc20073f	-0.009767353
157	0xbc1f6014	-0.009727497
158	0xba1bfbd3	-0.00059503055
159	0x3b58e116	0.0033093146
160	0x3ce50263	0.02795524
161	0xbc06bd67	-0.008223868
162	0xbc2611ef	-0.010136112
163	0x3b09a375	0.002100197
164	0xbc569035	-0.013095905
165	0xbcabb6d6	-0.020961206
166	0xbbb8b2d2	-0.0056365514
167	0xbb0bffaf	-0.0021362116
168	0xbc1346ce	-0.008989049
169	0xbc5f5f32	-0.013633536
170	0xbb4b2ced	-0.003100212
171	0x3bea4593	0.007149407
172	0x3c199226	0.009373223
173	0x3ab4fe65	0.0013808726
174	0x39d46d9a	0.0004051745
175	0x3c662354	0.014046509
176	0xbc18a113	-0.009315747
177	0xba3538cb	-0.0006913065
178	0x3ca805e0	0.020510614
179	0x3c17dda7	0.009269155
180	0x3b871b7d	0.00412315
181	0xbabed1fd	-0.0014558431
182	0xbbdb4340	-0.0066913664
183	0xbba54b74	-0.005044395
184	0xbb20ee9d	-0.0024556287
185	0xbc1c1b7a	-0.009528035
186	0xbc77a8b9	-0.01511591
187	0x3bb457eb	0.0055036447
188	0x3a3ce2d1	0.0007205429
189	0xbb0fb38d	-0.002192709
190	0x3c4a585d	0.012350169
191	0x3aa9cc8e	0.0012954639
192	0x3cd801ab	0.026367983
193	0xbb91fbe7	-0.004455078
194	0x3bb60963	0.005555318
195	0xb8c79965	-9.5176314e-05
196	0xbac76866	-0.0015213608
197	0xbc24e678	-0.010064714
198	0x3c3e3de6	0.011611437
199	0xba9d9624	-0.0012022895
200	0xbbdc3202	-0.0067198286
201	0xbc9b4fec	-0.018959008
202	0xbbebffcc	-0.007202124
203	0xbba3a3d8	-0.004993897
204	0xbb9ad0b1	-0.004724585
205	0xbc2457cc	-0.010030698
206	0xbbcdb264	-0.0062773693
207	0xba94503f	-0.0011315419
208	0xbb90ff2b	-0.0044249496
209	0x3c57db00	0.013174772
210	0x3b41b759	0.0029558747
211	0xbc7e5614	-0.015523452
212	0xbc1114a1	-0.008855016
213	0xbbebdacd	-0.007197714
214	0xbbea1b91	-0.0071443995
215	0xba1a35c5	-0.0005882646
216	0xbbd7bd67	-0.006583858
217	0xbbc26986	-0.0059329895
218	0xbc187a5b	-0.009306516
219	0x3c396984	0.011316661
220	0x3c7c6bc9	0.015406557
221	0x3a9a7396	0.0011783715
222	0xbb8c3a94	-0.004279444
223	0xbc0ae1f9	-0.008476728
224	0xbbc24c24	-0.005929487
225	0xbc44ce40	-0.012012064
226	0xbc526869	-0.012842276
227	0x3be85f99	0.0070914743
228	0x3c25a8ae	0.010111017
229	0x3c232751	0.009958104
230	0xbb8a2fc8	-0.0042171218
231	0xbbb14be8	-0.00541066
232	0xbc0790c5	-0.008274262
233	0xbbaccced	-0.0052734525
234	0xbc59de0f	-0.013297572
235	0xbac868fc	-0.0015290077
236	0xbc30042d	-0.010743183
237	0x3c037f04	0.008025888
238	0xbc2f89db	-0.01071402
239	0xbc0aea2a	-0.008478681
240	0x3c16e010	0.009208694
241	0xbba696ca	-0.0050838934
242	0x3c39c331	0.011338041
243	0xbac1f98a	-0.00147991
244	0x3ba4504e	0.005014456
245	0xbc557023	-0.013027224
246	0xbb852919	-0.004063737
247	0x3ab8b1ff	0.0014091133
248	0xbbbffcf6	-0.0058590127
249	0x3c154127	0.009109772
250	0xbb9e6975	-0.004834349
251	0x3aec697c	0.0018036808
252	0x3b02bf59	0.0019950478
253	0xbc7bace9	-0.015361049
254	0xbc0063ac	-0.007836264
255	0xb8cc6760	-9.746733e-05
