CNP-model-save-name/saved_models/model_3000.pth (torch, 736757 bytes, 50 tensors)

weight f4 [64, 11]
0.083330005 -0.10798809 0.096456036 -0.09769973 -0.09917174 0.19980241 0.20774037 0.19994898
0.1626369 0.13442507 0.09839473 0.051332224 -0.07750752 0.15014826 -0.05022304 0.121540256
0.025750965 -0.099338986 -0.18651493 -0.017404264 -0.18600999 -0.254448 0.08668337 -0.2179047
0.11636312 0.1224327 0.17921333 -0.2648635 0.10399491 0.16506341 0.071200855 -0.094901465
0.06629838 -0.013603274 -0.008974826 -0.14738795 0.094510846 0.1673979 -0.13179845 0.23500164
0.0036596064 -0.015820157 -0.086832225 -0.21445519 0.17295694 -0.07171484 -0.25619808 0.25880787
0.14730892 0.21689644 -0.12029611 -0.118055075 0.11718811 -0.15287153 -0.048063695 0.18321808
0.0041882545 -0.21700786 0.017883211 -0.068321526 -0.18243751 -0.16714463 0.06333218 0.2570979
-0.25308892 0.22512971 -0.22050098 -0.18099834 -0.104254484 0.10476152 0.20100653 -0.119302735
0.20587817 0.2122325 -0.24009106 0.21678768 0.085719876 0.21603307 0.1472308 -0.0373898
0.26814136 -0.17497034 0.1156264 -0.15857972 0.082864605 -0.085905604 0.08301871 0.29050848
-0.07631637 -0.046297956 0.2470123 -0.1294849 0.17616843 0.16623998 0.1633429 -0.02700654
0.038024865 0.2964233 -0.06088374 0.006111646 -0.090277284 0.09894493 0.18561077 -0.19249913
-0.037519332 -0.04207962 0.099290036 -0.058120403 -0.12550768 0.18944326 0.20410572 0.16323757
-0.10016239 0.22099926 0.24140589 0.18618938 0.05190536 -0.1310977 -0.10999807 0.19851853
-0.16255242 0.24712566 0.048639245 0.16020057 0.119809814 0.111428715 0.06400607 0.12785469
-0.20375723 0.2034701 -0.20754129 -0.03266028 0.029971104 -0.06821041 0.13782531 -0.22531064
0.15713142 0.1488527 -0.25119537 0.18427539 0.15270402 -0.18237336 0.22642344 -0.02480971
-0.019474473 -0.06919095 0.2336722 0.12686598 0.18958522 -0.0999577 0.15635586 -0.25710788
0.23319891 0.025192544 0.09242879 0.23963243 0.007467836 -0.23515514 0.056671288 -0.13248514
-0.07497477 0.001259376 -0.15724404 0.21626301 0.021781491 -0.16287863 -0.24984764 0.07903992
0.06770883 -0.06478294 -0.13670562 0.0801322 -0.07312914 0.14640413 -0.1517482 0.16705765
0.2136262 0.035150044 -0.08401928 0.20239002 -0.14567819 0.22305273 0.17806055 -0.25305083
-0.014395554 -0.25155124 -0.1846556 -0.21313012 0.053704076 0.0834346 -0.12630878 0.18661696
0.17054635 0.08362055 -0.00063717336 -0.19976138 -0.061332583 0.23275171 0.047564156 -0.06976801
-0.14596583 -0.003361775 -0.16652526 0.21169852 -0.1907717 0.07506002 -0.26092342 0.2338807
-0.0885684 0.020990541 0.15706722 -0.28198788 0.21789035 0.043297645 0.08413181 -0.20789605
-0.28160518 -0.24204655 -0.09104922 -0.25497243 -0.048660066 -0.0934507 -0.06758626 -0.23232754
-0.016608406 0.24292456 0.265879 -0.24907912 0.014942198 -0.1684136 0.2323919 -0.2536359
0.11308021 -0.09362035 0.23913859 -0.27767098 -0.23218423 0.14004661 0.1992203 0.18374112
0.24439599 -0.005903061 0.14524488 0.20231164 0.17325608 -0.03381785 -0.05362464 -0.18617353
-0.2196065 -0.19374229 -0.14626065 0.047067393 -0.09583421 0.25098994 0.2057334 -0.03482528
00000000: eca8 aa3d dc28 ddbd be8a c53d cc16 c8bd
00000010: 8e1a cbbd 0199 4c3e e4b9 543e 6dbf 4c3e
00000020: 4a8a 263e baa6 093e 2d83 c93d bd41 523d
00000030: 43bc 9ebd 77c0 193e adb6 4dbd 19ea f83d
00000040: b0f3 d23c 3d72 cbbd c5fd 3ebe 6393 8ebc
00000050: 6779 3ebe 0247 82be 0d87 b13d 6922 5fbe
00000060: ca4f ee3d ffbd fa3d b383 373e 309c 87be
00000070: 49fb d43d 6206 293e c1d1 913d b35b c2bd
00000080: 72c7 873d 44e0 5ebc 260b 13bc deec 16be
00000090: e78e c13d 5b6a 2b3e 2cf6 06be 45a4 703e
000000a0: 02d6 6f3b 4699 81bc 18d5 b1bd 249a 5bbe
000000b0: a01b 313e 3bdf 92bd 652c 83be 7782 843e
000000c0: 26d8 163e 1a1a 5e3e cf5d f6bd dcc6 f1bd
000000d0: 5200 f03d 5b8a 1cbe 70de 44bd 859d 3b3e
000000e0: a03d 893b 4f37 5ebe d07f 923c 28ec 8bbd
000000f0: e6d0 3abe f627 2bbe 4db4 813d 56a2 833e
00000100: df94 81be 6788 663e 02cb 61be a157 39be
00000110: 6083 d5bd 358d d63d a8d4 4d3e fe54 f4bd
00000120: bad1 523e 7a53 593e 6eda 75be 97fd 5d3e
00000130: e78d af3d c637 5d3e acc3 163e 0c26 19bd
00000140: d349 893e 6d2b 33be 89cd ec3d b962 22be
00000150: ebb4 a93d 47ef afbd b705 aa3d 87bd 943e
00000160: c24b 9cbd eda2 3dbd cbf0 7c3e b197 04be
00000170: 7f65 343e d03a 2a3e 5c43 273e d23c ddbc
00000180: f6bf 1b3d cbc4 973e 3b61 79bd 3444 c83b
00000190: 4ce3 b8bd a4a3 ca3d c010 3e3e 7e1e 45be
000001a0: dfad 19bd ae5b 2cbd 9358 cb3d a90f 6ebd
000001b0: 1685 00be 6afd 413e 1701 513e c027 273e
000001c0: f021 cdbd a14d 623e 1b33 773e 6ea8 3e3e
000001d0: b79a 543d 7a3e 06be ab46 e1bd 7148 4b3e
000001e0: 2474 26be 820e 7d3e f239 473d 9e0b 243e
000001f0: d95e f53d bd34 e43d 9d15 833d 57ec 023e
00000200: bca5 50be 775a 503e b485 54be c9c6 05bd
00000210: f685 f53c e6b1 8bbd 1422 0d3e d5b7 66be
00000220: 0fe7 203e d86c 183e ae9c 80be b0b2 3c3e
00000230: 715e 1c3e 15c0 3abe 8cdb 673e bc3d cbbc
00000240: ee88 9fbc fcb3 8dbd c447 6f3e 28e9 013e
00000250: a122 423e 9fb6 ccbd c01b 203e a5a3 83be
00000260: b2cb 6e3e 9860 ce3c 4e4b bd3d 3462 753e
00000270: c0b4 f43b 82cc 70be 2720 683d 2faa 07be
00000280: 5f8c 99bd a511 a53a 9504 21be 0d74 5d3e
00000290: 196f b23c a8c9 26be 0fd8 7fbe aedf a13d
000002a0: edaa 8a3d ebac 84bd 8ffc 0bbe 5a1c a43d
000002b0: bbc4 95bd f7ea 153e e163 1bbe 2911 2b3e
000002c0: d4c0 5a3e 7ef9 0f3d 4d12 acbd 543f 4f3e
000002d0: aa2c 15be ef67 643e 8155 363e e18f 81be
000002e0: 54db 6bbc 53cb 80be 5c16 3dbe c83e 5abe
000002f0: cef8 5b3d c2df aa3d 1757 01be 8418 3f3e
00000300: b4a3 2e3e 4041 ab3d fb07 27ba 3f8e 4cbe
00000310: e037 7bbd 7756 6e3e a2d2 423d 88e2 8ebd
00000320: 1178 15be 3a51 5cbb 9985 2abe 7fc7 583e
00000330: a859 43be 11b9 993d c197 85be 6c7e 6f3e
00000340: 5963 b5bd 5bf4 ab3c 3bd6 203e b760 90be
00000350: a61e 5f3e df58 313d 4c4d ac3d b4e2 54be
00000360: 8e2e 90be 0ddb 77be 0378 babd bf8b 82be
00000370: c74f 47bd 1563 bfbd aa6a 8abd 45e7 6dbe
00000380: 5a0e 88bc 37c1 783e 4b21 883e 990e 7fbe
00000390: 1fd0 743c 9d74 2cbe 24f8 6d3e 91dc 81be
000003a0: 9996 e73d 07bc bfbd bfe0 743e e42a 8ebe
000003b0: b4c1 6dbe 6168 0f3e 6800 4c3e a226 3c3e
000003c0: f142 7a3e 776e c1bb 13bb 143e c82a 4f3e
000003d0: 0b6a 313e 9684 0abd 83a5 5bbd 46a4 3ebe
000003e0: 87e0 60be 6164 46be 5ac5 15be bdc9 403d
000003f0: ba44 c4bd c181 803e c7ab 523e f4a4 0ebd

bias f4 [64]
0.018639144 -0.022382844 -0.023732455 0.02671589 0.0031935493 0.0061672325 0.016407853 0.057862494
0.025078993 0.015696662 0.03363488 0.008450325 -0.019438248 0.0040376442 -0.002426478 -0.004800167
0.0021586234 0.0072684884 -0.013738565 -0.015888134 0.0037065567 -0.021470316 -0.019245103 0.010917818
0.0017887098 -0.0060449387 0.0021455935 -0.035026975 -0.019743368 -0.03201746 -0.05132975 -0.019513408
-0.0046216664 0.005269187 -0.008249031 -0.012207055 -0.010905328 -0.0031287891 0.0058933077 0.0025149593
0.005849898 0.0084722955 0.014558078 -0.0012462254 0.022690503 0.014134893 0.0011573234 -0.028434543
-0.039329004 0.008826793 -0.055238474 -0.005565222 -0.022065584 0.023159003 0.00048069947 -0.01663536
-0.019305909 0.008335782 0.006356326 -0.045723863 -0.006365107 -0.022288661 0.0033153966 0.029041834
00000000: 1eb1 983c 3a5c b7bc 916a c2bc 48db da3c
00000010: de4a 513b 7f16 ca3b c369 863c 3901 6d3d
00000020: 7672 cd3c 4996 803c bac4 093d 3b73 0a3c
00000030: f63c 9fbc 374e 843b 8c05 1fbb b84a 9dbb
00000040: b177 0d3b 802c ee3b b817 61bc d527 82bc
00000050: b4e9 723b 84e2 afbc e8a7 9dbc a6e0 323c
00000060: 2473 ea3a 9f14 c6bb 169d 0c3b 7278 0fbd
00000070: d8bc a1bc bd24 03bd 253f 52bd 95da 9fbc
00000080: 5971 97bb 25a9 ac3b f226 07bc 1a00 48bc
00000090: 43ac 32bc 5f0c 4dbb a61c c13b 04d2 243b
000000a0: 80b0 bf3b 62cf 0a3c 0185 6e3c 6358 a3ba
000000b0: 6fe1 b93c 0a96 673c 54b1 973a 8fef e8bc
000000c0: 7317 21bd 419e 103c bd41 62bd 775c b6bb
000000d0: e2c2 b4bc f3b7 bd3c 6406 fc39 e146 88bc
000000e0: 6d27 9ebc ce92 083c ba48 d03b f248 3bbd
000000f0: 6392 d0bb b696 b6bc 2047 593b 24e9 ed3c

weight f4 [64, 10]
0.24884531 0.22850662 -0.08690982 -0.19272931 -0.15316907 0.21111639 -0.18949346 -0.20776956
0.1716458 -0.08747109 0.11989107 0.07883015 0.09075938 0.08865721 0.29895198 -0.066809006
-0.008270999 -0.013888027 -0.28579077 -0.25485235 0.12841704 -0.05265093 -0.11558524 0.12833141
-0.21885705 0.26115116 -0.07066299 0.13941258 -0.11902464 -0.08086338 -0.036073077 -0.09860343
0.03365301 0.056590255 0.1764624 -0.17139477 0.17872027 0.027809994 -0.31768537 0.19405217
0.2909294 -0.25403118 -0.16364892 -0.18035994 0.079328485 0.10225938 -0.023689676 -0.13112752
-0.26524362 0.141676 -0.18812557 -0.017647281 -0.155102 0.13118735 0.26453263 0.020763826
-0.05014494 -0.3188732 0.21036321 0.03683512 -0.07489198 0.21872567 -0.05211202 0.1776028
-0.1283992 -0.005642078 -0.117906086 -0.20099007 -0.10477359 0.25350505 -0.16533323 0.121111676
0.0004998918 0.08832099 -0.28059053 0.14035077 0.27505973 0.0947238 -0.20678557 0.18138836
-0.16979314 0.06419665 0.051866163 -0.1354763 0.2712497 -0.22300549 0.21232003 0.042815875
-0.15522666 0.09468847 -0.033957448 -0.026226282 0.021678943 -0.11294472 0.1251643 0.017711544
0.29183933 -0.28264013 -0.061565496 0.047567375 0.14297774 0.20287932 0.09287638 0.06171389
-0.2404406 0.15588158 -0.03380083 -0.23330003 0.19823718 0.011112716 0.16756861 -0.15663947
-0.12528026 -0.1464648 0.0007282525 0.11281448 -0.084841035 -0.03973458 -0.12410561 -0.058619853
0.021338435 0.14327966 0.11186796 0.18254109 0.07356477 -0.14460483 0.24246833 -0.16350001
-0.14851059 -0.18146178 -0.066336535 -0.18954578 -0.26271543 0.07031041 0.12672248 0.068831824
0.16708906 0.10313929 0.14005549 0.1191015 0.18143667 0.029597817 0.12546983 -0.1666128
-0.25185195 -0.13440512 0.06031433 -0.071984656 -0.15163562 0.14100981 0.1674361 0.12100607
-0.29038894 0.07062385 -0.18435517 0.217698 0.11633444 0.19745538 -0.25283822 -0.06443846
-0.17545538 0.28467363 -0.07803943 0.18413259 0.3110347 -0.07038947 0.20950195 -0.12953131
-0.21822545 -0.2455502 0.025216797 0.1703261 0.19346538 -0.196428 -0.28896314 0.15483604
0.13399334 -0.10283036 0.103036046 0.07314213 -0.02120678 -0.038187288 0.14812048 -0.2936527
-0.20772773 0.26828018 0.25410575 -0.03175763 0.13568364 -0.21744947 -0.051133618 0.0029930675
-0.108328894 -0.18147469 -0.07121844 0.063562185 0.2056685 -0.17394948 0.04807507 0.02793148
0.16238433 -0.2282454 0.17818391 -0.20966777 -0.032587174 -0.03792782 -0.14812256 0.0138540445
-0.14626668 0.23983134 0.30051452 0.06827618 0.21668366 0.025904737 0.2012412 -0.14676587
-0.14109384 -0.2642876 0.062293235 -0.28086475 -0.15061578 -0.126034 0.14536507 0.082259975
0.21438514 -0.21233201 -0.1561022 0.043494005 -0.1041141 0.24179201 -0.06468004 0.078303434
-0.061667237 0.12969142 -0.15614986 0.002648951 -0.04740435 0.20664077 -0.2110705 0.11443812
0.37233725 -0.21611483 0.33700147 -0.16965927 -0.24623041 -0.059186302 -0.29414833 0.32434973
-0.25383672 -0.0045721843 0.10016384 -0.053682752 -0.16079044 -0.12717345 0.12874359 -0.12554955
00000000: 4ed1 7e3e a4fd 693e c7fd b1bd d55a 45be
00000010: 5ad8 1cbe e52e 583e 930a 42be 8bc1 54be
00000020: ebc3 2f3e 0b24 b3bd 7389 f53d b471 a13d
00000030: 0ee0 b93d e991 b53d 3c10 993e 29d3 88bd
00000040: 1683 07bc 9b8a 63bc 2b53 92be 027c 82be
00000050: c27f 033e 80a8 57bd f4b7 ecbd 4f69 033e
00000060: 101c 60be 9bb5 853e c2b7 90bd 2cc2 0e3e
00000070: 31c3 f3bd b39b a5bd 5dc1 13bd 98f0 c9bd
00000080: bdd7 093d 2fcb 673d 8fb2 343e 1c82 2fbe
00000090: 7202 373e c9d1 e33c a8a7 a2be 9db5 463e
000000a0: b3f4 943e 6010 82be 9593 27be 47b0 38be
000000b0: f976 a23d 5e6d d13d da10 c2bc 4b46 06be
000000c0: 03ce 87be 8313 113e fda3 40be 0891 90bc
000000d0: 0fd3 1ebe fa55 063e d270 873e e618 aa3c
000000e0: c864 4dbd 5943 a3be 7469 573e 6ce0 163d
000000f0: f760 99bd 9ff9 5f3e 6a73 55bd 82dd 353e
00000100: 147b 03be 2ee1 b8bb bf78 f1bd 57d0 4dbe
00000110: 8993 d6bd 6acb 813e 1d4d 29be 6609 f83d
00000120: 2c0b 033a a3e1 b43d 90a9 8fbe 1db8 0f3e
00000130: a1d4 8c3e 8dfe c13d 99bf 53be dfbd 393e
00000140: 41de 2dbe 8979 833d 9d71 543d 4dba 0abe
00000150: 3ee1 8a3e 8d5b 64be 6c6a 593e b35f 2f3d
00000160: bdf3 1ebe 07ec c13d f716 0bbd 80d8 d6bc
00000170: 0a98 b13c 904f e7bd 122b 003e cd17 913c
00000180: f76b 953e 35b6 90be 1a2c 7cbd 02d6 423d
00000190: c268 123e 99bf 4f3e f935 be3d b4c7 7c3d
000001a0: 1036 76be 6c9f 1f3e bd72 0abd 34e6 6ebe
000001b0: b0fe 4a3e 1c12 363c 1b97 2b3e 1966 20be
000001c0: 7849 00be defa 15be 33e8 3e3a 470b e73d
000001d0: 23c1 adbd bac0 22bd 152b febd 5f1b 70bd
000001e0: f1cd ae3c e7b7 123e 071b e53d 0dec 3a3e
000001f0: 20a9 963d 4a13 14be 9e49 783e 8c6c 27be
00000200: 2913 18be 1ed1 39be 73db 87bd 4a18 42be
00000210: a382 86be e7fe 8f3d 8ac3 013e b3f7 8c3d
00000220: 6519 2b3e b13a d33d b56a 0f3e 7deb f33d
00000230: 89ca 393e 1f77 f23c 2a7b 003e 8c9c 2abe
00000240: bdf2 80be 7fa1 09be 290c 773d b16c 93bd
00000250: 5e46 1bbe e064 103e 5e74 2b3e 08d2 f73d
00000260: dcad 94be 3da3 903d 9ac7 3cbe 39ec 5e3e
00000270: c040 ee3d be31 4a3e 0374 81be 50f8 83bd
00000280: 93aa 33be bec0 913e 23d3 9fbd 418d 3c3e
00000290: f13f 9f3e 5b28 90bd ae87 563e dba3 04be
000002a0: 7e76 5fbe 8371 7bbe 7593 ce3c f769 2e3e
000002b0: ca1b 463e 6c24 49be faf2 93be 578d 1e3e
000002c0: 8d35 093e b998 d2bd 9004 d33d 8bcb 953d
000002d0: d7b9 adbc 466a 1cbd e5ac 173e a659 96be
000002e0: 94b6 54be 055c 893e 261a 823e 4a14 02bd
000002f0: a7f0 0a3e 13ab 5ebe 7c71 51bd 5727 443b
00000300: 8adb ddbd 80d4 39be f9da 91bd e42c 823d
00000310: c39a 523e d01f 32be 5dea 443d 8fd0 e43c
00000320: 1448 263e 2ab9 69be d875 363e 26b3 56be
00000330: 217a 05bd 345a 1bbd 71ad 17be 13fc 623c
00000340: efc6 15be 5996 753e 0add 993e 62d4 8b3d
00000350: 52e2 5d3e 2c36 d43c 2c12 4e3e cb49 16be
00000360: e77a 10be b450 87be 3127 7f3d 81cd 8fbe
00000370: 063b 1abe 0f0f 01be 95da 143e eb77 a83d
00000380: c787 5b3e 906d 59be 41d9 1fbe c526 323d
00000390: c639 d5bd 5398 773e f876 84bd 8d5d a03d
000003a0: c996 7cbd d4cd 043e c0e5 1fbe 069a 2d3b
000003b0: 102b 42bd a399 533e dd22 58be 885e ea3d
000003c0: fda2 be3e 354d 5dbe 758b ac3e 29bb 2dbe
000003d0: d323 7cbe 566d 72bd 9c9a 96be 2b11 a63e
000003e0: e3f6 81be 43d2 95bb b322 cd3d 72e2 5bbd
000003f0: 40a6 24be c239 02be 5cd5 033e 1090 00be

bias f4 [64]
-0.034383263 -0.01581204 -0.02130588 0.04857253 0.07396447 0.026841663 -0.0138678225 -0.030628446
0.046957824 0.05231629 -0.07075754 0.10660647 -0.085273415 -0.016944742 0.08712671 0.018404262
-0.018582437 -0.03267533 0.013227118 0.057530187 0.07709556 -0.052128043 0.011895756 0.015004604
-0.03686837 0.054776546 0.11137614 -0.028270662 -0.08088371 0.06390319 -0.05152288 0.02440025
0.09643425 0.075861245 0.087681085 0.019687401 -0.025985533 -0.091181256 0.059519168 0.01717173
-0.023087483 0.053394727 -0.009612456 -0.07072576 0.03999878 -0.010221214 -0.040225565 -0.009177323
5.9644863e-05 0.007791246 -0.0016575857 -0.042682808 -0.047522336 -0.123610236 -0.025697164 -0.035375707
-0.056603484 -0.03982875 -0.017404044 -0.029003268 0.0003801983 0.07482966 0.066419825 -0.04937561
00000000: 77d5 0cbd 4088 81bc ab89 aebc fdf3 463d
00000010: af7a 973d 0ce3 db3c dd35 63bc 82e8 fabc
00000020: d956 403d 9b49 563d 54e9 90bd 7e54 da3d
00000030: d4a3 aebd b3cf 8abc 7d6f b23d 89c4 963c
00000040: 323a 98bc 91d6 05bd 8eb6 583c c6a4 6b3d
00000050: 47e4 9d3d 3784 55bd 6be6 423c dfd5 753c
00000060: 4a03 17bd 5f5d 603d 2c19 e43d e097 e7bc
00000070: 5ca6 a5bd addf 823d a809 53bd 08e3 c73c
00000080: 527f c53d 245d 9b3d 2492 b33d 7947 a13c
00000090: 9ddf d4bc 3dbd babd 5fca 733d baab 8c3c
000000a0: f621 bdbc 6eb4 5a3d 907d 1dbc abd8 90bd
000000b0: c3d5 233d e176 27bc 90c3 24bd 7c5c 16bc
000000c0: 2f2b 7a38 b54d ff3b 5943 d9ba 2bd4 2ebd
000000d0: c8a6 42bd 5d27 fdbd dc82 d2bc 1ee6 10bd
000000e0: 0ed9 67bd 7923 23bd ed92 8ebc 4398 edbc
000000f0: 5a55 c739 4b40 993d 1e07 883d 143e 4abd

in_proj_weight f4 [192, 64]
0.0034130665 0.02531535 0.004869101 0.014380477 0.041909646 -0.031246796 0.0042441064 0.046334002
0.0006131587 -0.0030973468 0.10286397 0.017922785 0.037066482 0.013222297 0.01218805 0.04155805
-0.0070558074 0.07464432 0.00014599443 -0.014777033 0.014272924 0.02004045 -0.009340578 0.007748276
0.027063476 -0.042797957 -0.03398755 -0.0012117435 0.03292469 -0.032359246 0.009605404 0.019965542
-0.028079221 -0.008527907 -0.06284883 0.057496883 0.016137298 0.011212789 -0.051277597 -0.0540766
0.0059541026 0.02862787 0.02321891 0.04362677 -9.7441945e-05 0.036186203 0.0044120564 -0.022256142
0.020831397 0.047963742 -0.02149142 0.008399151 0.013043741 0.10160005 -0.03970794 -0.033430297
0.0051819007 0.016909255 0.04127584 0.00403969 0.01703795 -0.02301403 -0.039757624 0.0981463
0.0020159646 0.02093795 0.0046281824 0.012093427 0.035060894 -0.029595884 0.0009820908 0.036827702
0.0014662516 -0.0040481174 0.05003247 -0.01840587 0.03001031 -0.0073712016 0.010109089 0.04859825
-0.0014001628 0.041018754 0.00037355273 -0.019512206 0.013018591 0.015463084 -0.012966062 0.007073146
0.037284743 -0.033229597 -0.024547288 -0.004755646 0.034533463 -0.12976307 0.01157798 0.01651352
-0.07240982 -0.006709167 -0.03032132 0.055765763 0.014352499 0.0101503385 -0.04051127 -0.050238125
-0.0060485825 0.023503203 0.019112565 0.020163367 -0.0016881182 0.023068437 0.032019496 -0.006107348
0.018749183 0.041276596 -0.01631161 0.00796529 0.012763745 0.06470066 -0.02748639 -0.027077544
0.003156109 0.017947894 0.029393967 0.020400252 0.01418981 -0.011744251 -0.041772123 0.08098644
-0.0019659016 -0.01621099 -0.0048539056 -0.012129052 -0.0042581814 0.02985585 0.0002846043 -0.027941054
-0.0010978468 0.00473272 -0.09567187 -0.0024410607 -0.031743553 0.00056073774 -0.009999171 -0.045199238
0.008040102 -0.018300457 -0.00016948757 0.030990504 -0.011720026 -0.017521234 0.01568608 -0.0069962703
-0.040345326 0.026157822 0.023765538 0.005410454 -0.038622458 0.1519958 -0.0029979383 -0.016482405
0.04221613 0.006730631 0.09169537 -0.0613463 -0.013119324 -0.026976353 0.039548174 0.04863115
-0.009496613 -0.025467316 -0.01917752 -0.033074137 0.002027764 -0.034789898 -0.019583274 0.0033743284
-0.018298885 -0.04264569 0.015836252 -0.00744888 -0.013417661 -0.046835147 0.010277338 0.03211546
-0.002216265 -0.016632758 -0.03974572 -0.013175416 -0.013638353 0.006410823 0.030740105 -0.043315515
-0.003481102 -0.0165458 -0.0033493151 -0.007447487 -0.05277599 0.019540932 -0.0022060652 -0.020255616
0.00027694934 0.0007310972 -0.018681118 0.021505008 -0.02244456 0.042024408 -0.008091061 -0.03638032
-0.0029846362 -0.017085502 -0.0026707668 0.016378026 -0.012323082 -0.018765168 0.010798676 -0.003648278
-0.03706778 0.021939147 0.019952148 -0.008947001 -0.024908496 0.021558778 -0.02134613 -0.0075598983
0.036984444 0.0048669283 -0.033159684 -0.051234443 -0.0060962783 -0.022342127 0.033433516 0.039931316
-0.028182877 -0.007784641 -0.010955035 -0.022761686 -0.008453207 -0.013737951 -0.029162798 -0.0047253547
-0.01892497 -0.030020274 0.02206614 -0.004111603 -0.008197863 -0.040245187 0.037890736 0.023344882
-0.0036773111 -0.012922522 0.044922695 -0.038160805 -0.011923886 -0.008063978 0.025968488 -0.033405114
00000000: c1ad 5f3b 2362 cf3c fb8c 9f3b 189c 6b3c
00000010: 73a9 2b3d 48f9 ffbc 2512 8b3b b9c8 3d3d
00000020: 62bc 203a dbfc 4abb 58aa d23d ced2 923c
00000030: 06d3 173d 55a2 583c 63b0 473c c638 2a3d
00000040: 6734 e7bb 1fdf 983d 1516 1939 5e1b 72bc
00000050: fbd8 693c df2b a43c 3909 19bc 40e5 fd3b
00000060: 39b4 dd3c e94c 2fbd 8736 0bbd 5dd3 9eba
00000070: 0adc 063d 218b 04bd fc5f 1d3c c78e a33c
00000080: 6506 e6bc a2b8 0bbc e3b6 80bd da81 6b3d
00000090: 5e32 843c d9b5 373c 7508 52bd 6d7f 5dbd
000000a0: a21a c33b ff84 ea3c 9535 be3c fcb1 323d
000000b0: bf59 ccb8 fc37 143d 0393 903b 8352 b6bc
000000c0: 9ba6 aa3c a175 443d c60e b0bc 989c 093c
000000d0: 6ab5 553c b013 d03d cba4 22bd 35ee 08bd
000000e0: efcc a93b 4785 8a3c db10 293d 605f 843b
000000f0: 2c93 8b3c eb87 bcbc e4d8 22bd ed00 c93d
00000100: 461e 043b 1086 ab3c 02a8 973b 8223 463c
00000110: 039c 0f3d 1173 f2bc 80b9 803a a5d8 163d
00000120: 3d2f c03a 12a6 84bb d9ee 4c3d e8c7 96bc
00000130: 2ed8 f53c 1f8a f1bb 98a0 253c f50e 473d
00000140: ab85 b7ba 4803 283d 66d9 c339 10d8 9fbc
00000150: ee4b 553c e058 7d3c 9b6f 54bc d9c5 e73b
00000160: e3b7 183d c21b 08bd 6517 c9bc 40d5 9bbb
00000170: f672 0d3d 9ce0 04be 91b1 3d3c 5d47 873c
00000180: 9a4b 94bd 92d8 dbbb 6b64 f8bc a46a 643d
00000190: be26 6b3c 9b4d 263c 25ef 25bd 7ec6 4dbd
000001a0: 3033 c6bb ca89 c03c f491 9c3c a52d a53c
000001b0: d943 ddba 05fa bc3c e026 033d 2620 c8bb
000001c0: e397 993c a611 293d ed9f 85bc d980 023c
000001d0: 071f 513c c881 843d 232b e1bc bad1 ddbc
000001e0: b9d6 4e3b 7607 933c 9ecb f03c 6e1e a73c
000001f0: 607c 683c f56a 40bc 3f19 2bbd 38dc a53d
00000200: 5bd6 00bb e9cc 84bc 830d 9fbb eeb8 46bc
00000210: 3788 8bbb 4194 f43c f136 9539 a3e4 e4bc
00000220: a0e5 8fba ef14 9b3b 9def c3bd 34fa 1fbb
00000230: 8705 02bd 79fe 123a 90d3 23bc d622 39bd
00000240: a2ba 033c d7ea 95bc 79b8 31b9 ccdf fd3c
00000250: 5a05 40bc b188 8fbc 1880 803c f840 e5bb
00000260: 2441 25bd ee48 d63c f2af c23c 2d4a b13b
00000270: 9532 1ebd c9a4 1b3e 0f79 44bb 1c06 87bc
00000280: d2ea 2c3d a08c dc3b c8ca bb3d 4246 7bbd
00000290: 6ff2 56bc 83fd dcbc 44fd 213d 7531 473d
000002a0: af97 1bbc d5a0 d0bc 2d1a 9dbc bf78 07bd
000002b0: 3ce4 043b da7f 0ebd 1a6d a0bc d623 5d3b
000002c0: 8be7 95bc 3fad 2ebd 07bb 813c bc15 f4bb
000002d0: c0d5 5bbc 36d6 3fbd 4862 283c 808b 033d
000002e0: c23e 11bb 6c41 88bc 68cc 22bd b3dd 57bc
000002f0: 6673 5fbc e211 d23b acd2 fb3c 9c6b 31bd
00000300: 3323 64bb 0f8b 87bc 2f80 5bbb 0d0a f4bb
00000310: a32b 58bd 4e14 a03c a293 10bb 1bef a5bc
00000320: 8333 9139 1aa7 3f3a 2509 99bc 452b b03c
00000330: a7dd b7bc c921 2c3d 5f90 04bc 8803 15bd
00000340: e399 43bb e5f6 8bbc 0808 2fbb 362b 863c
00000350: c1e6 49bc 69b9 99bc eeec 303c f317 6fbb
00000360: 62d4 17bd bab9 b33c b072 a33c 7196 12bc
00000370: e70c ccbc 099c b03c 14de aebc 06b9 f7bb
00000380: 007d 173d c17a 9f3b 73d2 07bd 35db 51bd
00000390: 4ac3 c7bb d606 b7bc 95f1 083d 058f 233d
000003a0: c7df e6bc 4d16 ffbb bf7c 33bc b776 babc
000003b0: 527f 0abc 2515 61bc d2e6 eebc 26d7 9abb
000003c0: 8a08 9bbc 14ed f5bc 0dc4 b43c a0ba 86bb
000003d0: 5450 06bc 23d8 24bd 5133 1b3d c43d bf3c
000003e0: 0bff 70bb fcb8 53bc dc00 383d 814e 1cbd
000003f0: 675c 43bc c61e 04bc debb d43c cdd3 08bd

in_proj_bias f4 [192]
0.05811101 0.0702686 -0.070165224 0.013604565 -0.07198556 -0.034640163 0.08156426 -0.05175126
-0.0808948 -0.05058152 0.09937945 -0.05742452 -0.057370603 0.0677327 -0.07651435 -0.08068135
-0.16163197 -0.15450782 0.1618072 0.10603615 0.16092756 -0.17199233 -0.1598189 0.15673326
0.19306032 0.18482082 0.1941097 -0.16391371 -0.17857997 0.19460829 0.17521968 0.15808138
-0.22497381 -0.22015893 -0.23392512 0.21892121 -0.22048278 -0.22140492 0.22140002 -0.23514633
-0.22891858 -0.23123382 0.23339382 -0.23197629 -0.22197792 0.22052273 0.23258801 0.23179422
0.3583457 -0.35645822 0.3032781 -0.3565704 -0.35056803 0.35144678 0.34636393 0.23545472
0.28727162 -0.25646216 -0.22947717 -0.24207102 -0.25142193 0.1924995 -0.29097036 0.21397722
-1.6779765e-07 -6.873751e-08 2.1255259e-07 -1.3764749e-07 1.928074e-07 -1.8012443e-08 -1.6107536e-07 9.911566e-08
1.5863432e-07 3.5787036e-08 -3.606663e-07 -6.984168e-08 2.4714103e-08 -1.1170227e-07 3.7852925e-07 -1.6265815e-07
1.97978e-06 2.4263195e-06 -1.0800636e-06 -9.485058e-07 -1.3612024e-06 1.8194926e-06 1.4216222e-06 -2.1577168e-06
-2.521346e-06 -2.674978e-06 -3.4123407e-06 1.8772693e-06 1.5742993e-06 -1.6714067e-06 -2.011823e-06 -1.7340918e-06
2.0150803e-06 9.1088003e-07 1.6913614e-06 -1.3628088e-06 8.901766e-07 1.557383e-06 4.0713178e-07 1.6632632e-06
-2.366014e-07 9.608725e-07 -5.766905e-07 1.2050357e-06 1.7328007e-06 -2.4835942e-06 -1.7398202e-06 -1.8641106e-06
2.468452e-06 -1.2996263e-06 1.0565465e-06 -8.4907356e-07 -3.1348432e-06 8.3027373e-07 7.389455e-07 1.9231913e-06
-1.2014868e-07 -1.928399e-06 -1.9479473e-06 -1.08305e-06 1.0334269e-07 1.2929264e-06 -1.5761359e-06 9.36257e-07
0.0036838548 0.023602849 0.015356473 -0.009142763 -0.023463111 0.008953444 -0.008363847 0.021223465
-0.0128044095 0.027300563 0.0027418863 -0.052422263 -0.032543994 0.00880811 -0.029738998 -0.011332153
-0.00037489194 0.004876791 0.030787734 -0.030552559 -0.020674014 0.0028007322 -0.0045309127 -0.045707624
0.02015181 -0.022623694 -0.027760256 0.013279293 -0.0255831 -0.003953596 -0.02424131 0.013253486
0.0070950263 -0.0062260283 0.03603651 0.0040952675 -0.022875298 -0.01302416 0.0005778571 0.014812509
0.04260506 -0.016587239 0.008758044 -0.06396858 -0.005065062 0.012001738 -0.00405364 0.02802201
0.0010537416 0.029680902 -0.052184712 0.0047615888 -0.013275244 -0.029046696 0.044713743 -0.017817037
0.0075023877 0.017126624 0.019767627 -0.016369779 0.009941511 -0.053158537 0.022994956 -0.026141489
00000000: cf05 6e3d fce8 8f3d c9b2 8fbd aee5 5e3c
00000010: 2a6d 93bd d8e2 0dbd 2a0b a73d 21f9 53bd
00000020: 2cac a5bd 912e 4fbd 7487 cb3d f935 6bbd
00000030: 70fd 6abd 71b7 8a3d 8eb3 9cbd 433c a5bd
00000040: da82 25be 4c37 1ebe c9b0 253e 7b29 d93d
00000050: 32ca 243e c21e 30be 91a7 23be af7e 203e
00000060: 9bb1 453e ab41 3d3e b1c4 463e ffd8 27be
00000070: abdd 36be 6547 473e ca6c 333e 16e0 213e
00000080: 895f 66be 5871 61be 118a 6fbe e22c 603e
00000090: 3dc6 61be f9b7 62be b0b6 623e 33ca 70be
000000a0: a269 6abe 8fc8 6cbe cafe 6e3e 318b 6dbe
000000b0: 2e4e 63be b6d0 613e 8d2b 6e3e 775b 6d3e
000000c0: 1679 b73e b181 b6be 4447 9b3e 6590 b6be
000000d0: a77d b3be d5f0 b33e 9d56 b13e 0b1b 713e
000000e0: 4415 933e 024f 83be 10fc 6abe 77e1 77be
000000f0: 60ba 80be 971e 453e 11fa 94be d81c 5b3e
00000100: de2b 34b4 d99c 93b3 033a 6434 41cc 13b4
00000110: 7f06 4f34 c8b9 9ab2 0ff4 2cb4 69d9 d433
00000120: 1255 2a34 43b4 1933 99a1 c1b4 dffb 95b3
00000130: e34a d432 f9e0 efb3 aa38 cb34 22a7 2eb4
00000140: 5ddc 0436 dad3 2236 b4f6 90b5 d29c 7eb5
00000150: 8fb2 b6b5 4a35 f435 91ce be35 4bcd 10b6
00000160: 6534 29b6 c683 33b6 91ff 64b6 7bf6 fb35
00000170: 834c d335 1955 e0b5 db02 07b6 f1be e8b5
00000180: d13a 0736 3383 7435 bc02 e335 c1e9 b6b5
00000190: 78f4 6e35 4607 d135 c493 da34 4a3d df35
000001a0: 7f0c 7eb4 54f7 8035 dfcd 1ab5 b6bc a135
000001b0: 9492 e835 d3ab 26b6 c483 e9b5 5a32 fab5
000001c0: afa7 2536 d26e aeb5 a9ce 8d35 e4eb 63b5
000001d0: 3260 52b6 fadf 5e35 f35b 4635 2d10 0136
000001e0: 3802 01b4 a469 01b6 7bb9 02b6 515d 91b5
000001f0: 3fed dd33 9d88 ad35 9e8b d3b5 1753 7b35
00000200: d46c 713b c35a c13c b799 7b3c 87cb 15bc
00000210: b635 c0bc 77b1 123c 8408 09bc d5dc ad3c
00000220: 96c9 51bc 6ea5 df3c 38b1 333b bab8 56bd
00000230: da4c 05bd e44f 103c 339f f3bc 7faa 39bc
00000240: 258d c4b9 7dcd 9f3b 8f36 fc3c 5c49 fabc
00000250: 8d5c a9bc 7d8c 373b 0d78 94bb eb37 3bbd
00000260: 6915 a53c 5355 b9bc 7a69 e3bc 6491 593c
00000270: a693 d1bc 2b8d 81bb b695 c6bc 2625 593c
00000280: 657d e83b b603 ccbb 059b 133d 9831 863b
00000290: fa64 bbbc 4963 55bc 557b 173a 2ab0 723c
000002a0: a582 2e3d f6e1 87bc e67d 0f3c f501 83bd
000002b0: d2f8 a5bb f0a2 443c 66d4 84bb 6a8e e53c
000002c0: b31d 8a3a 5d25 f33c a3bf 55bd 1a07 9c3b
000002d0: 6980 59bc 56f3 edbc c225 373d 09f5 91bc
000002e0: 97d6 f53b 224d 8c3c b8ef a13c ea19 86bc
000002f0: b8e1 223c c4bc 59bd eb5f bc3c ad26 d6bc

weight f4 [64, 64]
-0.15645652 0.102550454 -0.019953161 0.01696479 0.009715699 0.10114534 0.12934749 -0.06987673
-0.053688638 0.10169332 0.086431734 0.025141299 -0.12146044 -0.16548672 0.0958671 -0.030622631
0.1458589 0.13752913 -0.08225047 -0.044907473 -0.13525708 0.10620695 0.10962771 -0.08218374
0.06042286 -0.14350832 0.103075035 -0.10569857 0.12066422 0.07641552 0.09126077 -0.01406175
0.1496585 0.16376764 0.026106173 -0.019587385 0.07843837 0.1881422 -0.019119915 -0.062312327
-0.003569497 0.0041247862 -0.0645691 -0.19912766 -0.12683557 0.12842761 0.1204459 0.013370852
0.19754253 -0.20088777 -0.013548843 0.11359307 0.09417814 0.0047793305 0.13013089 -0.008756758
0.10016606 0.016229223 -0.10673715 0.09025883 -0.23915003 -0.18783565 -0.12983935 0.025943944
0.034365047 0.14090924 -0.12712252 -0.013875368 -0.018732795 -0.020628588 0.0010885737 0.072070636
-0.010986415 0.058008276 0.12065028 -0.031091135 0.17933144 0.15466295 -0.065589346 -0.0033659022
0.1470356 -0.13322087 0.10274415 0.10482353 -0.08559485 -0.036648944 0.17985702 0.028758664
-0.0072214697 -0.09491825 0.0068723424 0.017351529 -0.116277814 -0.13522299 0.062030807 -0.08370117
0.07405302 0.113261975 -0.17800955 -0.07262869 -0.032514796 0.011508931 0.158384 -0.08688854
-0.03151259 -0.033777 -0.1721503 0.10575071 0.122453 -0.015540617 0.07014741 0.17855997
-0.14463432 -0.086090036 0.01064468 0.19196779 0.13038401 0.14652821 -0.07943321 0.07220985
-0.1046103 -0.11528042 0.035551827 0.14066349 0.046580795 -0.20286068 -0.083723485 -0.14624874
-0.17368692 0.11801336 0.020844888 0.025231935 -0.17549503 0.15436743 -0.10643877 0.06605354
-0.10147273 0.08094866 0.036929972 0.038713247 -0.051466096 -0.15708476 -0.008762895 0.093765646
-0.10403984 0.16078557 0.10243369 0.16643856 0.16739807 0.05351139 0.12560084 -0.00066142564
0.0577224 -0.09418086 -0.10107057 -0.13814414 -0.07394222 -0.1537118 0.13204102 -0.1446293
0.13765262 0.008492075 0.15044259 0.017238047 0.025711438 0.086299665 -0.09135508 -0.0056211716
0.061192658 -0.012729655 -0.06831819 0.0074637868 0.19272095 0.22323835 -0.024499381 0.001106633
-0.0009696219 -0.1229237 0.13705672 0.0076369997 -0.05388827 0.1781223 0.14429867 0.09006293
0.01656395 -0.033573966 -0.078344755 -0.0715357 -0.115483195 -0.17516898 -0.008657328 0.16619174
0.023624597 -0.03348242 -0.15945831 -0.01880442 0.09825667 -0.16153398 -0.010105365 0.073402345
0.16748983 -0.0006531012 -0.08093499 0.02003928 0.013986221 -0.07036292 -0.12585351 -0.16415739
0.09293152 0.071488604 0.0915745 -0.12007 0.03810174 0.03065243 -0.095657565 0.099613875
-0.062115364 -0.16559972 0.024900742 0.113834545 -0.14029811 0.097603 -0.096532844 -0.05938019
0.10672102 0.15338162 0.11546815 0.08272172 0.094206735 -0.050176736 -0.18880498 0.014736351
0.1361089 0.08557737 -0.11870805 0.04400608 0.08424641 -0.04811736 0.11938653 -0.04356501
0.036117397 -0.10529113 -0.12713256 -0.116052784 0.06548653 -0.14394748 -0.14690644 -0.0716369
0.0823483 0.010396415 0.045746863 0.052469846 -0.034776863 -0.07449957 0.12801848 -0.13346314
00000000: 2336 20be f905 d23d d074 a3bc bef9 8a3c
00000010: 982e 1f3c 4a25 cf3d ab73 043e 881b 8fbd
00000020: 9ee8 5bbd 9644 d03d 1f03 b13d 20f5 cd3c
00000030: 40c0 f8bd 5a75 29be f855 c43d 50dc fabc
00000040: 095c 153e 70d4 0c3e ef72 a8bd e6f0 37bd
00000050: d580 0abe 0883 d93d 7e84 e03d f34f a8bd
00000060: f67d 773d d8f3 12be 0119 d33d 7e78 d8bd
00000070: cd1e f73d bd7f 9c3d ede6 ba3d 4163 66bc
00000080: 1440 193e b4b2 273e 9ddc d53c b975 a0bc
00000090: 4ca4 a03d 59a8 403e 5ea1 9cbc 363b 7fbd
000000a0: 39ee 69bb 3729 873b ce3c 84bd 1fe8 4bbe
000000b0: 2fe1 01be 8782 033e 57ac f63d 6b11 5b3c
000000c0: 9748 4a3e 86b5 4dbe f7fb 5dbc 7ca3 e83d
000000d0: 78e0 c03d ee9b 9c3b 0841 053e 8178 0fbc
000000e0: dd23 cd3d 26f3 843c 0299 dabd 9fd9 b83d
000000f0: bfe3 74be fd57 40be 9bf4 04be 6588 d43c
00000100: 5dc2 0c3d 834a 103e 682c 02be 8355 63bc
00000110: 8575 99bc 49fd a8bc 79ae 8e3a c599 933d
00000120: 5d00 34bc 169a 6d3d 7e17 f73d d6b2 febc
00000130: a9a2 373e f75f 1e3e b553 86bd 7896 5cbb
00000140: 8090 163e 0d6b 08be 866b d23d b8ad d63d
00000150: 5a4c afbd 341d 16bd 702c 383e 4a97 eb3c
00000160: 14a2 ecbb 8064 c2bd 6331 e13b cb24 8e3c
00000170: 1023 eebd e577 0abe 0414 7e3d 856b abbd
00000180: 1ca9 973d e5f5 e73d 2348 36be 5abe 94bd
00000190: 3c2e 05bd f58f 3c3c 6a2f 223e 9ef2 b1bd
000001a0: 5813 01bd c059 0abd 2b48 30be d493 d83d
000001b0: a3c8 fa3d 129e 7ebc 72a9 8f3d 6dd8 363e
000001c0: 051b 14be f94f b0bd 0667 2e3c 3493 443e
000001d0: 6383 053e 7e0b 163e e1ad a2bd c2e2 933d
000001e0: ed3d d6bd 2418 ecbd cb9e 113d 170a 103e
000001f0: 81cb 3e3d b6ba 4fbe 3877 abbd 3bc2 15be
00000200: fcda 31be fdb0 f13d e6c2 aa3c 34b3 ce3c
00000210: f8b4 33be 7f12 1e3e 92fc d9bd 1447 873d
00000220: efd0 cfbd 69c8 a53d e243 173d c891 1e3d
00000230: 1dce 52bd d4da 20be 3f92 0fbc 3408 c03d
00000240: d712 d5bd f9a4 243e c1c8 d13d df6e 2a3e
00000250: 666a 2b3e c22e 5b3d 829d 003e 8663 2dba
00000260: 536e 6c3d e5e1 c0bd 16fe cebd a875 0dbe
00000270: 056f 97bd a066 1dbe c335 073e b419 14be
00000280: cff4 0c3e 5822 0b3c 9f0d 1a3e ce36 8d3c
00000290: cba0 d23c e1bd b03d 5f18 bbbd ce31 b8bb
000002a0: 27a5 7a3d 0b90 50bc 68ea 8bbd c892 f43b
000002b0: a458 453e 9898 643e edb2 c8bc 710c 913a
000002c0: 392e 7eba 6cbf fbbd 9958 0c3e cc3f fa3b
000002d0: f2b9 5cbd b165 363e 08c3 133e ea72 b83d
000002e0: 1fb1 873c db84 09bd 3773 a0bd 4f81 92bd
000002f0: 7482 ecbd 7f5f 33be 77d7 0dbc 2b2e 2a3e
00000300: 5f88 c13c dd24 09bd 0a49 23be ba0b 9abc
00000310: cb3a c93d 2a69 25be f990 25bc f853 963d
00000320: 7482 2b3e e134 2bba 3ec1 a5bd 6b29 a43c
00000330: 7626 653c 6f1a 90bd bedf 00be e018 28be
00000340: e152 be3d 9e68 923d 698b bb3d 43e7 f5bd
00000350: 9210 1c3d ce1a fb3c 1de8 c3bd 5c02 cc3d
00000360: ae6c 7ebd f992 29be a4fc cb3c 1622 e93d
00000370: 4faa 0fbe 15e4 c73d 03b3 c5bd a438 73bd
00000380: 8d90 da3d 1210 1d3e 917a ec3d 016a a93d
00000390: 76ef c03d 1f86 4dbd 1856 41be bc70 713c
000003a0: 2260 0b3e 3043 af3d 351d f3bd b83f 343d
000003b0: 6289 ac3d b516 45bd ed80 f43d 3971 32bd
000003c0: d6ef 133d e0a2 d7bd 0a2f 02be 15ad edbd
000003d0: cd1d 863d f866 13be a46e 16be 5eb6 92bd
000003e0: 3aa6 a83d ba55 2a3c 1061 3b3d 9fea 563d
000003f0: 2f72 0ebd 3b93 98bd 4717 033e 90aa 08be

bias f4 [64]
0.005316173 -0.0017289437 -0.007975378 0.016282426 0.011527774 -0.0022369092 0.00065852853 -0.004346933
0.012372349 0.009855466 -0.009419717 -0.0010840812 -0.016611185 0.007173595 0.008076226 0.0028474198
-0.000638621 -0.018567497 -0.0062570786 -0.011031885 0.00103917 -3.0784147e-05 0.00064368505 -0.00564802
-0.006476709 0.004432114 0.017743222 -0.009519817 -0.01024106 0.00025502493 -0.006766964 0.00068001647
0.012324271 0.012768873 0.006447693 0.007545285 0.008407866 -0.005926705 0.0044858004 -0.007308252
-0.0054320097 0.012376967 0.010445968 -0.010419812 0.0014100083 0.012578928 -0.0027397703 -0.015643217
-0.012357896 -0.00040526618 -0.002237069 -0.0005802137 -0.0018870819 0.00090354774 0.009045802 -0.008919433
-0.011217009 -0.002422785 0.009097106 0.0024757236 -0.0035433082 0.011337131 0.0054720677 -0.0011998804
00000000: 4b33 ae3b b99d e2ba 29ab 02bc b962 853c
00000010: fdde 3c3c 1c99 12bb 1aa1 2c3a b870 8ebb
00000020: 65b5 4a3c d278 213c 2855 1abc bb17 8eba
00000030: 2e14 88bc 7a10 eb3b 2652 043c c79b 3a3b
00000040: 2169 27ba dd1a 98bc 2e08 cdbb 14bf 34bc
00000050: c234 883a 3a1e 01b8 f9bc 283a 0713 b9bb
00000060: 933a d4bb 443b 913b 3c5a 913c 02f9 1bbc
00000070: 1eca 27bc deb4 8539 69bd ddbb 2243 323a
00000080: bdeb 493c 8934 513c 2b47 d33b 703e f73b
00000090: 25c1 093c ce34 c2bb 9ffd 923b 107a efbb
000000a0: 00ff b1bb c3c8 4a3c 9125 2b3c dcb7 2abc
000000b0: 07d0 b83a d917 4e3c b88d 33bb 3426 80bc
000000c0: c678 4abc e879 d4b9 ca9b 12bb 7b19 18ba
000000d0: f657 f7ba 10dc 6c3a d834 143c d022 12bc
000000e0: 8cc7 37bc 96c7 1ebb 070c 153c c03f 223b
000000f0: d936 68bb 60bf 393c 084f b33b 4e45 9dba

weight f4 [256, 64]
0.10289053 -0.076807685 0.0017870689 -0.06719999 0.16710278 -0.018040122 0.10235835 -0.13793957
-0.097229615 -0.22200578 -0.034044717 -0.0046362826 0.10254167 -0.035351142 0.1492635 0.018983612
-0.151639 -0.15566415 0.070893444 -0.010848126 0.13616273 0.122504696 -0.10479244 -0.09817956
-0.005151777 0.12305501 -0.05557071 0.036056284 0.14516069 -0.030744655 0.14455862 -0.103863195
0.0074051726 -0.17640038 0.11235809 0.10661795 -0.23009372 -0.25242957 -0.21731251 0.122475915
0.12410473 0.0668044 -0.046085898 -0.0999653 0.025602944 0.003121341 -0.079816006 0.10073655
0.11477261 0.06297549 -0.18541287 0.2635583 0.11187554 -0.19098996 -0.019008698 0.00996252
0.10216348 0.1564277 -0.05993942 0.031845618 0.23147394 0.024139486 -0.032397524 0.009493508
0.07618911 0.08763351 -0.09800498 0.064469635 0.060674034 0.18253565 -0.022317048 0.10033694
-0.07978099 0.080836974 -0.03495357 -0.08168704 0.039212596 -0.046892207 -0.026485883 -0.122681685
0.054664608 -0.09431131 0.13311802 0.07203005 0.013911954 -0.049104158 -0.038242523 -0.16953225
-0.061527662 -0.015150487 0.008580179 0.015530535 -0.13485207 -0.08920765 0.03324676 -0.08133419
0.059715323 0.04027755 0.11548097 -0.012839554 -0.08403132 0.07520751 0.007888513 0.16798213
-0.0512084 0.09073727 -0.18289547 0.08735111 -0.04771993 0.047799736 -0.08449013 -0.04651542
0.050593756 -0.1168152 -0.08019743 -0.13596664 -0.08331333 0.026942428 -0.062264316 -0.05356151
-0.08170548 -0.105480246 -0.058674447 -0.014774524 -0.02485404 -0.025749622 0.0880681 0.034013376
-0.081984036 0.09902693 -0.075905696 -0.0430087 -0.041006412 0.08746864 0.07284093 -0.1580526
0.08985232 -0.077281706 -0.0052184975 0.08844694 -0.13819708 0.085838355 0.063497365 0.038671635
0.08836521 -0.068347275 -0.12892132 -0.011044326 -0.080934025 -0.055139985 0.111418605 -0.13735785
0.11155287 0.011853679 0.10577903 0.11185933 0.032135956 0.13454486 -0.103123285 -0.093493804
-0.057539333 -0.09696342 0.17158902 -0.040149823 -0.047007643 0.035540182 0.15879796 0.012632243
-0.00039566637 0.042508356 -0.07738849 -0.15362757 -0.054426678 -0.07906355 -0.060572952 0.14178467
-0.021375742 0.048614886 0.1250756 -0.11360293 0.028324721 -0.04313982 -0.01759561 -0.034031317
-0.10066136 -0.16628525 0.06937125 -0.09930188 0.014441305 0.09541995 -0.014767042 -0.14127225
-0.0106502725 0.18896224 -0.15794851 0.017606994 -0.029190207 0.045078304 -0.005391543 -0.18148841
0.039798826 -0.033182908 0.07489189 -0.043855745 0.05021226 -0.16183196 -0.028210485 -0.037573088
0.10665105 -0.06746063 0.00469173 0.027494676 0.1235918 0.01643803 0.10038904 -0.13214153
0.060260113 -0.013746796 0.09810076 -0.00042922754 -0.018421743 -0.03439723 -0.02956891 -0.050594505
0.044066545 0.028317021 -0.08482728 0.06744582 -0.069665 -0.021068804 0.027803551 -0.057949208
0.15448606 -0.062184747 -0.04864037 -0.085681096 0.013505396 -0.12084545 -0.10448279 0.0013695313
-0.028313337 0.04061842 -0.11825558 -0.14614551 -0.13127297 0.033146415 -0.1923836 0.0055492367
0.10649252 -0.11874221 -0.04466329 -0.10603197 0.08875067 0.0036060787 0.11661072 0.06336036
00000000: 45b8 d23d 594d 9dbd 153c ea3a 26a0 89bd
00000010: fe1c 2b3e e1c8 93bc 41a1 d13d 0840 0dbe
00000020: 5220 c7bd 7c55 63be 7972 0bbd f5eb 97bb
00000030: 5e01 d23d 5ccc 10bd 88d8 183e 8583 9b3c
00000040: 4147 1bbe 6c66 1fbe 9530 913d 57bc 31bc
00000050: 3e6e 0b3e bee3 fa3d 6b9d d6bd 5d12 c9bd
00000060: 3dd0 a8bb 4404 fc3d 1d9e 63bd c1af 133d
00000070: 01a5 143e 37dc fbbc 2d07 143e 3ab6 d4bd
00000080: 17a7 f23b 4da2 34be 001c e63d 835a da3d
00000090: b09d 6bbe 733e 81be 2c87 5ebe a7d4 fa3d
000000a0: 9f2a fe3d bfd0 883d 91c4 3cbd 9bba ccbd
000000b0: 44bd d13c 6a8f 4c3b 9376 a3bd f74e ce3d
000000c0: e70d eb3d 4bf9 803d dfdc 3dbe 1df1 863e
000000d0: 011f e53d df92 43be 21b8 9bbc d639 233c
000000e0: 163b d13d 952e 203e 0a83 75bd 8d70 023d
000000f0: 8107 6d3e 2cc0 c53c 44b3 04bd a98a 1b3c
00000100: 0909 9c3d 3379 b33d d6b6 c8bd a808 843d
00000110: 5685 783d a0ea 3a3e 3ed2 b6bc 747d cd3d
00000120: 3764 a3bd db8d a53d 7a2b 0fbd 894b a7bd
00000130: 639d 203d 0b12 40bd ecf8 d8bc 8940 fbbd
00000140: ffe7 5f3d 4a26 c1bd 1750 083e 7e84 933d
00000150: f7ee 633c 7121 49bd 31a4 1cbd dd99 2dbe
00000160: 6e04 7cbd c039 78bc e193 0c3c c973 7e3c
00000170: a916 0abe 80b2 b6bd c12d 083d 8a92 a6bd
00000180: 0e98 743d 13fa 243d 4981 ec3d fe5c 52bc
00000190: 9d18 acbd 6506 9a3d d23e 013c 8203 2c3e
000001a0: e6bf 51bd 76d4 b93d f348 3bbe 24e5 b23d
000001b0: f975 43bd a8c9 433d 2909 adbd f486 3ebd
000001c0: 663b 4f3d cf3c efbd 8d3e a4bd d73a 0bbe
000001d0: 2ea0 aabd 5eb6 dc3c de08 7fbd 5063 5bbd
000001e0: 3455 a7bd 0706 d8bd 9e54 70bd d810 72bc
000001f0: b39a cbbc dff0 d2bc 0c5d b43d 9c51 0b3d
00000200: 3fe7 a7bd a2ce ca3d 7274 9bbd e429 30bd
00000210: 57f6 27bd c222 b33d a02d 953d 8ad8 21be
00000220: 7e04 b83d df45 9ebd eeff aabb ab23 b53d
00000230: 8983 0dbe 05cc af3d e80a 823d 2666 1e3d
00000240: d2f8 b43d a8f9 8bbd f303 04be 43f3 34bc
00000250: bdc0 a5bd 77da 61bd 702f e43d 89a7 0cbe
00000260: d575 e43d ef35 423c ada2 d83d 8116 e53d
00000270: fea0 033d 21c6 093e 4d32 d3bd ae79 bfbd
00000280: 5dae 6bbd c294 c6bd 08b5 2f3e 2474 24bd
00000290: 168b 40bd 9592 113d ef9b 223e 78f7 4e3c
000002a0: 7171 cfb9 3e1d 2e3d db7d 9ebd 8c50 1dbe
000002b0: 82ee 5ebd 12ec a1bd 581b 78bd 0030 113e
000002c0: 2e1c afbc 6720 473d d113 003e a7a8 e8bd
000002d0: 3f09 e83c 61b3 30bd ab24 90bc 6c64 0bbd
000002e0: 8b27 cebd ae46 2abe 8412 8e3d c95e cbbd
000002f0: 399b 6c3c 896b c33d 77f1 71bc aca9 10be
00000300: 7b7e 2ebc 517f 413e 41bd 21be 8b3c 903c
00000310: 4d20 efbc 07a4 383d 8aab b0bb 19d8 39be
00000320: 1804 233d cdea 07bd eb60 993d 15a2 33bd
00000330: 5fab 4d3d 47b7 25be ad19 e7bc 3de6 19bd
00000340: de6b da3d cc28 8abd 15bd 993b 843c e13c
00000350: b31d fd3d 0ca9 863c c598 cd3d 1c50 07be
00000360: 4fd3 763d 3e3a 61bc 0de9 c83d f209 e1b9
00000370: 32e9 96bc 1ce4 0cbd 803a f2bc 2f3c 4fbd
00000380: 1f7f 343d 19f9 e73c edb9 adbd 0921 8a3d
00000390: 86ac 8ebd 7c98 acbc 46c4 e33c 265c 6dbd
000003a0: 9831 1e3e 6fb5 7ebd 203b 47bd 9279 afbd
000003b0: bd45 5d3c d27d f7bd 13fb d5bd d881 b33a
000003c0: 5ff1 e7bc 805f 263d fb2f f2bd 2ba7 15be
000003d0: 6c6c 06be 89c4 073d 3500 45be 5fd6 b53b
000003e0: c018 da3d 1e2f f3bd dbf0 36bd 4a27 d9bd
000003f0: e9c2 b53d f653 6c3b 9ad1 ee3d 14c3 813d

bias f4 [256]
-0.0518353 -0.018215671 -0.018029913 -0.011111159 -0.044819135 -0.042907625 -0.049003676 -0.05320316
-0.02764484 -0.019063467 -0.029488206 -0.020315515 -0.057494048 -0.030249065 -0.04814099 -0.047530808
-0.0127263125 -0.011212502 -0.002696164 -0.027786843 -0.038916167 -0.030308338 -0.023511138 -0.04234241
-0.026236337 -0.019047845 -0.017249873 -0.019381646 -0.050898097 -0.0020794838 -0.04161343 -0.037191223
-0.04674505 -0.035509206 -0.04119689 -0.037038177 -0.034134712 -0.03535532 -0.035246234 -0.075616956
-0.03645446 -0.024237711 -0.011052158 -0.03384946 -0.046820827 -0.048846137 -0.055759933 -0.049872626
-0.0047728904 -0.054558758 -0.009462689 -0.065368086 -0.00888201 -0.032457914 -0.020758059 0.0008953326
-0.042919114 -0.0207593 -0.0039070584 -0.049436998 -0.048391882 -0.026862405 -0.04011321 -0.055874646
-0.07878855 -0.027271666 -0.06475289 -0.03818743 -0.030201403 -0.03590721 -0.04794884 -0.06331433
-0.044145793 -0.065562256 -0.048442177 -0.020585587 -0.046930753 -0.044526067 -0.03454682 -0.021104764
-0.061720844 0.005512949 -0.04024718 -0.011575203 -0.06570897 -0.059009418 -0.034108806 -0.043299105
-0.029609919 -0.052128993 -0.029901365 -0.0029382356 -0.037644535 -0.030340655 -0.040212333 -0.04247932
-0.053290706 0.01273867 -0.025214188 -0.04840849 -0.0017112457 -0.04427458 -0.02525667 -0.015574092
-0.036624774 -0.05455076 -0.062089425 -0.02919641 -0.01646364 -0.027750032 -0.039865762 0.0042485604
-0.04407182 -0.05165766 -0.06783245 -0.010323536 -0.02219613 -0.054815676 -0.042718094 -0.030010443
-0.059369065 -0.050778255 -0.04659072 -0.06378392 -0.021761628 -0.040198337 -0.02151496 -0.04381229
-0.05557391 -0.035574723 -0.024831714 -0.009395012 -0.03023161 -0.0033822043 -0.0549793 -0.041005198
-0.011455172 -0.029835438 -0.035484217 -0.034975503 -0.022595804 -0.002407314 -0.03470563 -0.031318203
0.015906855 -0.031017734 -0.05343477 -0.048954714 0.0033026931 -0.053319603 -0.030405082 -0.041063227
-0.044898104 -0.026886227 -0.037339453 -0.032502133 -0.041989908 -0.040710595 -0.029889937 -0.010599901
-0.012261965 -0.023159552 -0.02723945 -0.07531802 -0.041769225 -0.02733761 -0.008414244 -0.01919229
-0.045794774 -0.021891171 -0.030349279 -0.033586398 -0.00016087043 -0.015547302 -0.03390067 -0.036969353
-0.028955942 -0.02348866 -0.0031905465 -0.027947871 -0.04137869 -0.024177162 -0.02798552 -0.023480501
-0.069433875 -0.041478556 -0.06374251 -0.0593579 -0.045699604 -0.046302028 -0.04360925 -0.06327254
-0.04393542 -0.04875764 0.00028498465 -0.043296374 -0.037559602 -0.026074514 -0.07387939 -0.07091328
-0.033994142 -0.046522625 -0.015413279 -0.011147233 -0.011775503 -0.038414035 -0.031454757 -0.047386393
-0.028138429 -0.01253482 -0.010162086 -0.026399208 -0.009081523 -0.016960114 -0.026871335 -0.012737987
-0.03126162 -0.023472829 -0.050915126 -0.007277887 -0.048336405 -0.017142868 -0.05422498 -0.011923681
-0.06332483 -0.03548204 0.0074954876 -0.044470135 -0.02340318 -0.029803857 -0.060835887 -0.03743219
0.036709495 -0.035640597 -0.030885132 -0.03995281 -1.9501225e-05 -0.046824172 -0.057679594 -0.036582984
-0.019387174 -0.016705524 -0.046661314 -0.02165891 -0.046372253 -0.038253803 0.009999164 -0.04019999
-0.014671238 -0.037800245 -0.05697259 -0.015998531 -0.06121465 -0.030808058 -0.039672367 0.008222376
00000000: 4051 54bd 0839 95bc 78b3 93bc 940b 36bc
00000010: 4594 37bd e8bf 2fbd 14b8 48bd 8feb 59bd
00000020: 6e77 e2bc fd2a 9cbc 4091 f1bc b96c a6bc
00000030: e17e 6bbd e3cc f7bc 7d2f 45bd aaaf 42bd
00000040: 0682 50bc a4b4 37bc 20b2 30bb 3ca1 e3bc
00000050: 8f66 1fbd 3149 f8bc 6e9a c0bc 3c6f 2dbd
00000060: 96ed d6bc 3a0a 9cbc 9b4f 8dbc 42c6 9ebc
00000070: 867a 50bd f347 08bb d872 2abd d355 18bd
00000080: bd77 3fbd 1a72 11bd 12be 28bd 58b5 17bd
00000090: d7d0 0bbd bdd0 10bd 5b5e 10bd 10dd 9abd
000000a0: 4651 15bd 2a8e c6bc 1c14 35bc bba5 0abd
000000b0: 32c7 3fbd e312 48bd 8764 64bd 3d47 4cbd
000000c0: e865 9cbb 0179 5fbd 6509 1bbc b4df 85bd
000000d0: da85 11bc 97f2 04bd ce0c aabc c1b4 6a3a
000000e0: f4cb 2fbd 680f aabc c806 80bb 737e 4abd
000000f0: 9136 46bd 8c0e dcbc c04d 24bd d0dc 64bd
00000100: e45b a1bd d468 dfbc 2a9d 84bd 6c6a 1cbd
00000110: ef68 f7bc 7013 13bd 0166 44bd f2aa 81bd
00000120: 38d2 34bd 8145 86bd 4e6b 46bd 1ba3 a8bc
00000130: 763a 40bd f760 36bd f780 0dbd e6e3 acbc
00000140: ffce 7cbd f8a5 b43b 3ada 24bd eca5 3dbc
00000150: 6d92 86bd dcb3 71bd adb5 0bbd 675a 31bd
00000160: 8090 f2bc 3685 55bd b5f3 f4bc 6a8f 40bb
00000170: 2831 1abd f78c f8bc b0b5 24bd ccfe 2dbd
00000180: 5b47 5abd dbb5 503c fc8d cebc fb47 46bd
00000190: e14b e0ba 4359 35bd 13e7 cebc 7a2a 7fbc
000001a0: dc03 16bd 9e70 5fbd 7b51 7ebd 4f2d efbc
000001b0: c1de 86bc 0954 e3bc 484a 23bd 8237 8b3b
000001c0: a784 34bd fc96 53bd bdeb 8abd 0c24 29bc
000001d0: a9d4 b5bc 6786 60bd 2bf9 2ebd 76d8 f5bc
000001e0: fa2c 73bd dcfc 4fbd e9d5 3ebd 25a1 82bd
000001f0: 7145 b2bc 03a7 24bd 2440 b0bc 8474 33bd
00000200: 78a1 63bd cdb6 11bd e16b cbbc 89ed 19bc
00000210: 48a8 f7bc f9a7 5dbb f931 61bd 11f5 27bd
00000220: 79ae 3bbc 7369 f4bc e657 11bd 7942 0fbd
00000230: d61a b9bc 07c4 1dbb 7e27 0ebd 8447 00bd
00000240: 184f 823c e718 febc 6bde 5abd bd84 48bd
00000250: ff71 583b a865 5abd 1414 f9bc ea31 28bd
00000260: 13e7 37bd 8140 dcbc 41f1 18bd f520 05bd
00000270: 9cfd 2bbd 27c0 26bd bedb f4bc 35ab 2dbc
00000280: 69e6 48bc 1ab9 bdbc 4425 dfbc 5640 9abd
00000290: 3516 2bbd 20f3 dfbc e6db 09bc 2639 9dbc
000002a0: 4d93 3bbd 1d55 b3bc 0d9f f8bc e491 09bd
000002b0: 54af 28b9 1cba 7ebc 6edb 0abd 2d6d 17bd
000002c0: 0335 edbc 4a6b c0bc 7d18 51bb eff2 e4bc
000002d0: b47c 29bd 2f0f c6bc e441 e5bc 2e5a c0bc
000002e0: 5933 8ebd 6be5 29bd 6f8b 82bd 4521 73bd
000002f0: 822f 3bbd 32a7 3dbd 9d9f 32bd 0995 81bd
00000300: a1f5 33bd 17b6 47bd fe69 9539 8a57 31bd
00000310: 19d8 19bd 389a d5bc 144e 97bd fb3a 91bd
00000320: 713d 0bbd 828e 3ebd fa87 7cbc e2a2 36bc
00000330: 0aee 40bc 0958 1dbd b4d6 00bd 3c18 42bd
00000340: 9082 e6bc d85e 4dbc e17e 26bc 2743 d8bc
00000350: abca 14bc f0ef 8abc 4621 dcbc fdb2 50bc
00000360: 2f0c 00bd 174a c0bc 618c 50bd 577b eebb
00000370: 65fc 45bd 336f 8cbc 031b 5ebd 8b5b 43bc
00000380: 73b0 81bd 9e55 11bd b59c f53b 5126 36bd
00000390: 07b8 bfbc 3827 f4bc 0d2f 79bd 7f52 19bd
000003a0: b25c 163d e0fb 11bd d102 fdbc 8fa5 23bd
000003b0: 9096 a3b7 b4ca 3fbd 7041 6cbd 0ad8 15bd
000003c0: dad1 9ebc 06da 88bc ef1f 3fbd 076e b1bc
000003d0: d5f0 3dbd 05b0 1cbd 89d3 233c bfa8 24bd
000003e0: a25f 70bc 6ed4 1abd 175c 69bd 5a0f 83bc
000003f0: 36bc 7abd 2e61 fcbc 7e7f 22bd 25b7 063c
