CNP-model-save-name/saved_models/model_2000.pth (torch, 736354 bytes, 50 tensors)

weight f4 [64, 11]
000000 65 c2 a0 3c 37 cd 82 be a9 6f 10 3e 95 9f 1d 3e
       0.019623945 -0.25547192 0.14105095 0.15392907
000010 3b 0d 8d 3e 7f b7 42 bd d3 12 9c bd 13 9b 65 be
       0.27549157 -0.047538277 -0.07620778 -0.22422437
000020 65 bf ae 3c a8 0a 82 3e 33 d1 21 be 32 f3 56 3e
       0.021331498 0.25398755 -0.1580246 0.20991209
000030 a9 90 fe 3b 15 8f 46 3c ce 38 50 3e 01 51 29 3e
       0.0077687097 0.012119074 0.2033417 0.16534807
000040 b2 24 74 be 0d ee 73 3d 1a e0 4d be bd 96 2e 3d
       -0.23842123 0.059553195 -0.20105019 0.042624224
000050 ec 93 74 be 4f 7f 7f 3d cc c8 d1 bd ec 3c 66 be
       -0.23884553 0.06237727 -0.10243377 -0.22484177
000060 54 67 2a bd dd f8 8b 3e 3e 7e 07 3d cc 19 66 3e
       -0.041602448 0.27338305 0.03307938 0.22470778
000070 80 38 8e be 71 ab 3e 3c b6 fc 19 3e 5b 02 87 be
       -0.2777748 0.0116375545 0.15037808 -0.26368985
000080 d1 2b 4d be 0f cd c6 bd 92 6f 83 bd 71 2d 4c 3e
       -0.20036246 -0.097070806 -0.06417765 0.1993921
000090 2b 24 c2 3d cb 14 27 be 86 ec 1e 3e 1f 60 03 3d
       0.09479555 -0.16316526 0.15519914 0.03207409
0000a0 54 f8 ab bc c3 f2 5f 3e 5d 37 bd bd fb 47 67 3e
       -0.020992436 0.2186995 -0.09239075 0.22586052
0000b0 dc 31 4d be 04 eb f8 bd 02 f6 e6 3b a1 4a 8a 3e
       -0.20038551 -0.12154201 0.0070483694 0.27010062
0000c0 4b 05 59 3e 5c 16 f0 bc e1 77 45 bd 24 33 63 3d
       0.21193425 -0.029307537 -0.04821003 0.055468693
0000d0 b9 9a db 3d e9 8a d8 3a 9a 19 53 be e5 c1 5b be
       0.107228704 0.0016520891 -0.20615235 -0.21460684
0000e0 49 94 9b 3c 81 95 52 bd ce a7 2d 3d 05 44 54 be
       0.018991606 -0.05141211 0.04239636 -0.20729072
0000f0 08 8e 99 bd 58 b2 ed bd eb 62 69 3e 24 69 a9 bd
       -0.074977934 -0.11606282 0.2279164 -0.08272007
000100 d5 af 87 be e1 0b 7a 3e eb fc 8f be c9 55 3c be
       -0.26501337 0.24418594 -0.2812265 -0.183921
000110 87 04 61 3e aa 1d f9 3d c1 90 0b 3e f0 11 8c 3e
       0.21974383 0.12163861 0.13629438 0.27357435
000120 49 3a 5f 3d 75 cb 47 be 3b 7f 89 3e e7 db d9 3d
       0.054498944 -0.19511206 0.26854882 0.10637646
000130 e8 52 5b 3e 61 2a 12 3e 83 20 89 3d 81 bd 50 3e
       0.21418345 0.14273979 0.06695654 0.2038479
000140 f6 94 43 3d ef 9c 81 3d 8d ec 51 be 19 7d d5 3d
       0.047749482 0.06328761 -0.20500393 0.10424251
000150 37 66 33 3e c6 1e f0 ba 94 e8 d5 3d 1c db 20 be
       0.1751946 -0.0018319718 0.104447514 -0.15708584
000160 43 58 84 be a0 c6 b9 3d 31 82 12 be 56 36 d3 3d
       -0.25848588 0.09071088 -0.14307477 0.10313098
000170 64 8b 49 be 49 82 56 3e 1d 04 20 be 07 93 21 bd
       -0.1968208 0.20948137 -0.15626569 -0.039446857
000180 ca 06 21 3e ca f8 6b 3e c4 bc 87 3d 59 de 5a 3e
       0.15725246 0.23044124 0.06627801 0.21373881
000190 f5 04 66 3e 16 12 86 be 5b 73 19 be 01 3d 02 3e
       0.22462828 -0.26185673 -0.14985411 0.12718584
0001a0 2c a8 53 3e 16 d3 30 be 5d df 8e bd 18 57 89 3e
       0.20669621 -0.17268023 -0.06976197 0.2682426
0001b0 76 9e 23 3c 7a 65 66 3d f7 1c 6d 3e eb ce 56 bd
       0.0099865105 0.05624912 0.2315558 -0.052443426
0001c0 c6 72 8c 3d 11 17 44 be e5 50 d6 3d b3 5f ed bc
       0.06857829 -0.19149424 0.10464648 -0.028976297
0001d0 4c fd 8a be 84 bf a7 3c 1d 4c 22 bd 6e b3 94 3d
       -0.27146375 0.020477064 -0.03962337 0.07260786
0001e0 47 a1 c0 3c 0e a2 2b 3e a4 82 1f 3e 7b 15 5f 3d
       0.023514403 0.16761038 0.15577179 0.054463845
0001f0 80 19 c3 3c 73 ba 49 3e 52 d6 3d bd b7 71 07 be
       0.02381587 0.19700031 -0.04634697 -0.13226973
000200 ab 5f f2 3d 3b df dc 3c 18 8c 11 3e 11 b2 4e 3e
       0.118346535 0.026961913 0.14213598 0.20185114
000210 53 3f 8b be 41 67 38 be 3e 10 a5 bd 0e d0 fa 3d
       -0.2719675 -0.18008138 -0.080597386 0.122467145
000220 15 af 5f be 20 80 e5 bd b8 f3 b2 3d 03 c9 10 be
       -0.21844132 -0.112060785 0.08737892 -0.1413918
000230 96 40 cc 3d 3d 29 f4 bd e9 ae 45 3e 3a 54 23 3e
       0.09973256 -0.11921928 0.19305004 0.15950099
000240 cc f9 09 3e c5 50 8e be fd 60 4f be 53 7b 53 3e
       0.13474196 -0.27795997 -0.20251842 0.20652513
000250 fe 4c 68 be a7 b3 48 bc 93 0d cf bd 4c 7a ac bd
       -0.2268562 -0.012249864 -0.10110011 -0.08421764
000260 dc 67 75 3d 4a 8d 80 be 9a 2b 89 be 6b bc fa 3d
       0.0599135 -0.25107795 -0.26791078 0.12242969
000270 0d c3 ff bd 26 b3 8b bd bd 65 89 be c1 f8 28 be
       -0.12488375 -0.06821279 -0.26835433 -0.16501142
000280 2c c5 f4 bd 72 36 8b be 2c a1 1d bd 8f 5e 8a be
       -0.1195167 -0.27189976 -0.038483784 -0.27025267
000290 8f 6d 0a 3e 1b 50 ba 3d 96 b9 32 be 4e 88 81 bd
       0.13518356 0.0909731 -0.17453608 -0.06324826
0002a0 06 fe 52 3e b1 fd 8f 3d db de 08 3e 87 cc 9a 3c
       0.20604715 0.0703081 0.13366263 0.018896354
0002b0 23 e0 55 3e b4 d5 7a 3e d7 9b 4a bd ab 11 51 3e
       0.20886283 0.24495584 -0.049465027 0.20416896
0002c0 10 cb 8a be a2 b8 7c 3d 86 4c 30 be 71 5b 5e bd
       -0.2710805 0.061699517 -0.17216691 -0.054286424
0002d0 a1 f8 3f 3c 7e 7b 87 be 8d 55 83 be 6c 42 ce 3d
       0.011716993 -0.26461405 -0.25651208 0.10071263
0002e0 9a 70 1c be 27 27 74 3d 65 52 03 3e 34 97 db 3c
       -0.15277329 0.05960765 0.128244 0.026805498
0002f0 f9 b5 25 3e 88 f8 86 be 34 d3 d9 3d d5 8c 85 3e
       0.16182698 -0.2636149 0.10635987 0.2608401
000300 fd b6 5d 3e c2 7e e4 bd 3d 5f 70 3e cf 8c 82 be
       0.21651836 -0.1115699 0.2347383 -0.25498053
000310 1c 8a 0a 3e da db 95 bd bd 8d 25 3e 6e 0d 56 3e
       0.13529247 -0.07317324 0.1616735 0.2090356
000320 be 34 8a bd b1 56 84 3e 28 5e 30 be c3 60 60 3d
       -0.06748341 0.2584739 -0.17223418 0.05477978
000330 7a 71 1f be 94 88 79 be 92 5f 3e bd 7e 66 9a bd
       -0.15570632 -0.24368507 -0.04647786 -0.0753908
000340 f3 ed d9 3c 7e c8 85 be bb 23 07 3d 0b 59 7a be
       0.02660272 -0.26129526 0.03299306 -0.2444803
000350 64 f6 0d 3e b7 77 17 3e 7b f0 d7 3c 1c 20 3a be
       0.13863522 0.14791761 0.026359787 -0.18176311
000360 53 ab 20 be 89 42 dc bd 50 f0 d6 bd 46 dc 43 bd
       -0.15690355 -0.10754878 -0.10495055 -0.04781749
000370 a1 5e 23 3e 9b fd 35 bd f3 1d 12 3b 6c af 87 3c
       0.15954067 -0.04443131 0.0022295683 0.01656314
000380 95 7c 22 be 6e 1f 65 3d 2c 2a 93 3d 44 de 47 3e
       -0.15867837 0.055938177 0.07185778 0.19518381
000390 f7 bb 0f be 08 d6 83 bd b3 89 8e 3d e7 0a 13 3e
       -0.14036547 -0.064373076 0.06959858 0.14359628
0003a0 21 c4 3f 3d 65 b3 6b 3e 36 4b 0a 3d 7d 57 76 3e
       0.046817902 0.23017652 0.033763133 0.24056812
0003b0 68 07 ae bd 92 7c 34 be c0 34 6f be a3 3e ea bd
       -0.084975064 -0.17625645 -0.23359966 -0.11437728
0003c0 3a d6 97 3b 83 56 0e be 86 36 a8 bb 27 76 86 3e
       0.004633692 -0.13900189 -0.005133453 0.26262018
0003d0 1c 52 45 3e 6b 38 7a 3d 7a ac 06 3d 5f 33 2f 3e
       0.19269603 0.06108896 0.03287933 0.1710944
0003e0 7b be 40 3e ad 4b 52 3e 33 b2 4f be 12 10 14 3d
       0.18822663 0.2053668 -0.20282821 0.03614814
0003f0 ec 91 36 3c e3 19 10 3e a6 dc 14 3e 9b 57 76 bc
       0.011143189 0.14072375 0.14537296 -0.015035535

bias f4 [64]
000000 00 00 00 00 00 00 00 00 00 00 00 00 00 00 00 00
       0.0 0.0 0.0 0.0
000010 00 00 00 00 00 00 00 00 00 00 00 00 00 00 00 00
       0.0 0.0 0.0 0.0
000020 00 00 00 00 00 00 00 00 00 00 00 00 00 00 00 00
       0.0 0.0 0.0 0.0
000030 00 00 00 00 00 00 00 00 00 00 00 00 00 00 00 00
       0.0 0.0 0.0 0.0
000040 00 00 00 00 00 00 00 00 00 00 00 00 00 00 00 00
       0.0 0.0 0.0 0.0
000050 00 00 00 00 00 00 00 00 00 00 00 00 00 00 00 00
       0.0 0.0 0.0 0.0
000060 00 00 00 00 00 00 00 00 00 00 00 00 00 00 00 00
       0.0 0.0 0.0 0.0
000070 00 00 00 00 00 00 00 00 00 00 00 00 00 00 00 00
       0.0 0.0 0.0 0.0
000080 00 00 00 00 00 00 00 00 00 00 00 00 00 00 00 00
       0.0 0.0 0.0 0.0
000090 00 00 00 00 00 00 00 00 00 00 00 00 00 00 00 00
       0.0 0.0 0.0 0.0
0000a0 00 00 00 00 00 00 00 00 00 00 00 00 00 00 00 00
       0.0 0.0 0.0 0.0
0000b0 00 00 00 00 00 00 00 00 00 00 00 00 00 00 00 00
       0.0 0.0 0.0 0.0
0000c0 00 00 00 00 00 00 00 00 00 00 00 00 00 00 00 00
       0.0 0.0 0.0 0.0
0000d0 00 00 00 00 00 00 00 00 00 00 00 00 00 00 00 00
       0.0 0.0 0.0 0.0
0000e0 00 00 00 00 00 00 00 00 00 00 00 00 00 00 00 00
       0.0 0.0 0.0 0.0
0000f0 00 00 00 00 00 00 00 00 00 00 00 00 00 00 00 00
       0.0 0.0 0.0 0.0

weight f4 [64, 10]
000000 2f a8 6b bd 7b 8a 7c 3e a3 ec 24 3e 6a 16 4c 3e
       -0.05753344 0.24662201 0.16105895 0.19930425
000010 6a 66 71 be ae ce a0 bd e7 92 89 3e 87 2a bd 3d
       -0.23574224 -0.07851921 0.2686989 0.09236627
000020 77 82 3b bd c2 b2 fb 3d 4c 5b 24 be 1d 1c 95 3d
       -0.045778718 0.12289955 -0.16050452 0.07280753
000030 cc 60 00 bd c3 48 8a 3e 1c d4 5f bd 1d 5a aa 3d
       -0.031342313 0.27008638 -0.054645643 0.08317969
000040 fa ad 83 3e 24 61 a0 bd 08 7e 7f 3e 9b 77 56 3d
       0.2571867 -0.07831028 0.24950421 0.05236016
000050 17 76 8b bd c0 c9 97 3d 81 b2 74 3d 8c c8 79 be
       -0.06809633 0.07411528 0.059740547 -0.24392909
000060 bc 61 79 3e 83 31 90 3c 7c b6 54 bd f5 47 1d 3d
       0.24353689 0.017601734 -0.051931843 0.0383987
000070 05 4c 51 be 29 d8 42 3e 90 e6 14 3e d2 01 2b be
       -0.20439155 0.19027771 0.14541078 -0.16699913
000080 98 ca 95 bd 93 22 1b 3c b3 18 62 be 4b 63 0c be
       -0.07314032 0.009468692 -0.22079735 -0.13709752
000090 04 36 71 be c3 c4 72 3e 3a f9 45 3e 62 d6 5d be
       -0.23555762 0.23707871 0.19333354 -0.21663812
0000a0 90 fb fb bd 40 d7 01 3e 4a af 53 be 60 ed db bd
       -0.12303841 0.12679768 -0.20672336 -0.10738635
0000b0 85 96 47 3e 52 ad 54 be 18 e9 56 be c4 b1 7c bd
       0.19491012 -0.20769241 -0.20987356 -0.061692968
0000c0 ce 89 76 3e 03 62 17 3d 3b df 14 be 4c c6 94 bd
       0.24076006 0.036958706 -0.1453828 -0.072643846
0000d0 d5 11 8e be dd bb ac bd 51 e9 ac 3d 26 54 62 bd
       -0.2774798 -0.084342696 0.08442939 -0.05525603
0000e0 7d be 02 3d c9 12 4e 3e b8 7a 77 3e 60 b0 50 bd
       0.031919945 0.20124353 0.24167907 -0.050949454
0000f0 34 51 f9 3d 8c df 3c 3e e7 bd 9b bd ec 67 2d be
       0.121736914 0.18444651 -0.076045804 -0.16934174
000100 8d d5 51 be 67 50 65 be 9f 6e 57 be 21 db 5c 3e
       -0.2049162 -0.22393952 -0.21038292 0.21567966
000110 0f 70 35 3e 9c b4 3d be 27 5b ed bd 68 43 89 be
       0.17718528 -0.18525928 -0.115896516 -0.2680924
000120 d0 62 84 3e 52 ce 58 3d 19 8d 01 3c c2 b8 6f bb
       0.25856638 0.052931137 0.007907175 -0.003657863
000130 80 e8 63 be e9 d4 8e be 53 ba 8e 3e 93 07 88 3d
       -0.2225666 -0.27896813 0.2787653 0.0664207
000140 1b 6d 50 ba 97 f9 a1 3d 9c c6 22 3d c4 96 16 be
       -0.00079508283 0.079089336 0.03974019 -0.1470595
000150 72 36 20 be a3 c4 ea bc c5 42 ff 3d f4 0a c3 bc
       -0.15645769 -0.028658217 0.12463907 -0.023808934
000160 78 f3 d0 3d b2 58 f0 3d 9d 70 7c 3e f7 73 5e be
       0.10202688 0.11735667 0.24652334 -0.21723925
000170 ad 2e 60 3e 3d d3 f8 bd 8b 27 91 3e 7b 0e ae 3d
       0.21892805 -0.121496655 0.2835048 0.08498856
000180 82 32 a9 bd e3 77 90 be ac 67 54 be 4e 3f 58 bc
       -0.08261587 -0.28216466 -0.20742673 -0.013198687
000190 dd 19 5b 3d f7 f9 87 be 4a 1e 24 3e 0b 72 f7 bb
       0.053491462 -0.26557896 0.1602718 -0.007551437
0001a0 ed a6 88 ba 83 5b 90 3e 16 9e 6a bd b7 90 69 3e
       -0.0010425724 0.28194818 -0.05727967 0.2280911
0001b0 b9 8a c4 3c 16 1e 1c be 67 ea 64 3d 4e 5d 65 3e
       0.02399193 -0.15245852 0.055887606 0.22398874
0001c0 50 84 2f be dd ce ef 3d 82 06 31 3d 66 32 33 3e
       -0.17140317 0.11709378 0.043219097 0.17499694
0001d0 95 0a 21 3c 00 81 54 3e 21 6f 87 bd bc e9 b4 3c
       0.009829183 0.20752335 -0.06612993 0.02208411
0001e0 49 72 05 bd d0 25 20 be a6 8c a9 3d 21 47 4d 3e
       -0.032579694 -0.15639424 0.0827878 0.20046665
0001f0 11 87 e8 3d a5 0e 57 3e b7 77 68 be 9c ca 18 3b
       0.11353887 0.2100168 -0.22701918 0.0023314124
000200 a8 55 43 be 58 a1 d1 3d 7a c8 52 3e 8b cd 11 bd
       -0.19075644 0.10235852 0.20584288 -0.03559641
000210 cb 08 72 3e f4 f1 5c 3e 0f e4 fc 3d ba 61 d5 bd
       0.23636167 0.21576673 0.12348186 -0.104190305
000220 86 f6 7f be 7b 69 65 3e be 1b 87 3e 14 de 18 be
       -0.24996385 0.22403519 0.26388353 -0.14928466
000230 b0 27 72 be 0f d8 68 bd 0b 92 39 bd d9 0f 62 3d
       -0.23647952 -0.056846675 -0.045305293 0.055190895
000240 83 ea 7f 3e bd c4 ae 3d 49 85 8a 3d 6f 67 82 be
       0.24991803 0.085336186 0.067637034 -0.2546954
000250 dc 6c a2 bd 5d 2e fd bd 44 4d b4 bb 05 2f 51 3d
       -0.079309195 -0.12362359 -0.005502375 0.051070232
000260 aa 53 08 3e 1b 54 5c be ef c1 af bc 1a b7 aa bc
       0.13313165 -0.21516459 -0.02145478 -0.020839263
000270 63 38 b9 3d de c8 4a ba 54 0a 44 be d6 73 17 be
       0.09043958 -0.000773562 -0.19144565 -0.14790282
000280 78 a8 eb 3d 29 0d d9 bd c0 bd a6 3d fa 6e 7e 3e
       0.11506742 -0.10598213 0.08141661 0.24847022
000290 48 b8 70 3e 7d d6 db bd 13 d6 57 be 60 0f 8d 3e
       0.23507798 -0.1073427 -0.21077757 0.27550793
0002a0 57 88 0b 3e 1b 25 17 be bb 45 89 3e 13 53 5f 3e
       0.13626228 -0.14760248 0.26811013 0.21809034
0002b0 d9 06 2e 3e e9 e9 78 3a cb 25 e6 bc 51 e8 c1 3d
       0.169948 0.00094953045 -0.028094193 0.09468139
0002c0 03 b5 05 be 2c b0 ac 3d cf 3d 50 be 7c 12 24 be
       -0.13057332 0.084320396 -0.20336078 -0.16022676
0002d0 f4 8b af bd 6c 35 91 be 6a 88 8b 3e 3e be 23 3e
       -0.08571616 -0.2836107 0.27252513 0.1599054
0002e0 1c e2 59 be 35 6a 88 3e 8f 04 c2 3d 88 b5 81 3e
       -0.2127766 0.2664353 0.09473526 0.2533381
0002f0 88 bc 8d be 5f 82 90 3e e0 db 09 3d db ff 61 3e
       -0.276829 0.28224465 0.033656955 0.22070257
000300 6e 1b 1d 3c 6d e4 3f be d3 37 c7 bd 08 a2 64 be
       0.009589059 -0.18739481 -0.097274445 -0.22327435
000310 c0 a6 69 3c f3 b0 88 3e a8 ae 2d be 1b b0 11 3d
       0.014260948 0.26697502 -0.16961157 0.035568338
000320 98 59 3e 3e 1a f3 8a be 56 00 f0 3d 98 d7 6b bd
       0.18588865 -0.27138597 0.11718814 -0.057578653
000330 e0 a0 3d 3b 26 27 b1 ba ab 4f 59 3c ff 93 ed 3d
       0.0028935 -0.0013515695 0.013263623 0.11600494
000340 7d 67 46 be 45 7b f5 bd 92 c0 8b 3e 5d e4 28 3e
       -0.19375415 -0.119864024 0.27295357 0.16493364
000350 05 ed c8 3d 9d c3 40 3d dd e3 92 bd 35 0b 83 be
       0.09810833 0.04706155 -0.07172368 -0.25594488
000360 da 23 7d be 64 29 e9 bd 6c 61 d5 3d 52 01 53 3e
       -0.24720708 -0.11384848 0.104189724 0.20605972
000370 85 aa 05 be 77 3f 16 be de ef a6 bd 8c 97 7e 3d
       -0.1305333 -0.14672647 -0.0815122 0.062156245
000380 71 30 57 be 8c 0f b4 bd c5 52 3b 3e b8 9d 68 be
       -0.21014573 -0.08792028 0.18293293 -0.22716415
000390 97 9f 79 be 28 6c 1d bc a5 45 97 ba d7 80 5e 3e
       -0.24377285 -0.009608306 -0.0011541141 0.21728836
0003a0 75 38 28 3e 6b 98 9d 3d cd b7 89 be e1 ff 1f be
       0.16427787 0.07695087 -0.2689804 -0.15624954
0003b0 a6 d9 85 3d f7 7b 45 3e 1b ba bc 3d a1 17 31 bc
       0.06535654 0.1928557 0.09215184 -0.010808856
0003c0 45 66 ba 3d 1e 49 e5 3d e2 b2 85 be 19 eb 5e be
       0.091015376 0.111955866 -0.2611304 -0.2176937
0003d0 2c 93 3d 3d c3 c9 5f 3e 02 bf 58 3e aa 09 ce 3d
       0.046282932 0.2185431 0.21166614 0.10060437
0003e0 db 95 f5 3d 24 d3 2c 3e a6 02 58 3e ae d3 01 3d
       0.11991473 0.16877419 0.2109476 0.031696014
0003f0 49 51 40 3d 84 8c 16 3e b3 82 d4 3d c8 33 0e bd
       0.04695252 0.1470204 0.103764914 -0.03471735

bias f4 [64]
000000 00 00 00 00 00 00 00 00 00 00 00 00 00 00 00 00
       0.0 0.0 0.0 0.0
000010 00 00 00 00 00 00 00 00 00 00 00 00 00 00 00 00
       0.0 0.0 0.0 0.0
000020 00 00 00 00 00 00 00 00 00 00 00 00 00 00 00 00
       0.0 0.0 0.0 0.0
000030 00 00 00 00 00 00 00 00 00 00 00 00 00 00 00 00
       0.0 0.0 0.0 0.0
000040 00 00 00 00 00 00 00 00 00 00 00 00 00 00 00 00
       0.0 0.0 0.0 0.0
000050 00 00 00 00 00 00 00 00 00 00 00 00 00 00 00 00
       0.0 0.0 0.0 0.0
000060 00 00 00 00 00 00 00 00 00 00 00 00 00 00 00 00
       0.0 0.0 0.0 0.0
000070 00 00 00 00 00 00 00 00 00 00 00 00 00 00 00 00
       0.0 0.0 0.0 0.0
000080 00 00 00 00 00 00 00 00 00 00 00 00 00 00 00 00
       0.0 0.0 0.0 0.0
000090 00 00 00 00 00 00 00 00 00 00 00 00 00 00 00 00
       0.0 0.0 0.0 0.0
0000a0 00 00 00 00 00 00 00 00 00 00 00 00 00 00 00 00
       0.0 0.0 0.0 0.0
0000b0 00 00 00 00 00 00 00 00 00 00 00 00 00 00 00 00
       0.0 0.0 0.0 0.0
0000c0 00 00 00 00 00 00 00 00 00 00 00 00 00 00 00 00
       0.0 0.0 0.0 0.0
0000d0 00 00 00 00 00 00 00 00 00 00 00 00 00 00 00 00
       0.0 0.0 0.0 0.0
0000e0 00 00 00 00 00 00 00 00 00 00 00 00 00 00 00 00
       0.0 0.0 0.0 0.0
0000f0 00 00 00 00 00 00 00 00 00 00 00 00 00 00 00 00
       0.0 0.0 0.0 0.0

in_proj_weight f4 [192, 64]
000000 1b 4e a5 bd b4 b6 69 3d 2d d3 35 3d 15 12 88 3d
       -0.08071538 0.057059005 0.044390846 0.06644074
000010 26 d9 85 3b a6 3c b3 3d 44 00 3e bd b1 9b 0b 3e
       0.004084724 0.08751802 -0.046386972 0.1363361
000020 8e 15 ed bd ea 39 07 bd 3d 04 3d bd 0a 61 3e 3d
       -0.11576377 -0.033014216 -0.04614662 0.046479262
000030 4b 9d 0f bd 94 71 33 bc 96 5d 26 bd df 9e 2b bd
       -0.035062116 -0.010952372 -0.040616594 -0.04189956
000040 f8 a4 16 be c0 5b dc bd 48 80 bf 3c af 8f 87 3c
       -0.14711368 -0.107596874 0.023376599 0.016548006
000050 e6 ad 9f bd 2e 2f 6d ba cd 0b e8 bb 28 79 04 be
       -0.0779684 -0.0009047863 -0.007081485 -0.12936842
000060 ef 8f d1 3d 1d dc fb 3d c0 7a aa 3c 34 6b 72 3c
       0.10232531 0.12297843 0.020810485 0.014796067
000070 5a c4 a7 bd b8 a6 a9 bc b8 a1 e8 3d 03 64 35 bd
       -0.08191748 -0.02070938 0.113589704 -0.04428483
000080 48 f6 97 bd 28 20 0d 3d 98 34 87 bd da 6d 90 bd
       -0.07420021 0.034454495 -0.06601828 -0.070522025
000090 c5 1c da bc c0 4d d6 3d 91 7a 1f 3b 81 58 0b be
       -0.026625047 0.104640484 0.002433453 -0.1360798
0000a0 72 18 09 be 2c af 04 be 1d f6 23 bd 58 d8 d2 3b
       -0.13388231 -0.12957448 -0.040029634 0.0064344816
0000b0 b1 7f c5 bc f9 01 c8 bd 63 32 f0 bd 13 15 1c 3c
       -0.02410874 -0.09766001 -0.117283605 0.009526509
0000c0 f9 63 1a 3e 1c 38 48 3c 24 53 01 3e 00 eb df bc
       0.15077199 0.012220409 0.12629372 -0.027333736
0000d0 1d 49 ca 3d 96 74 0b be cc d9 f6 bd 10 9f be 3d
       0.098772265 -0.13618693 -0.1205326 0.093076825
0000e0 97 0b 09 be 80 29 03 be fd 02 83 3d 77 33 0f bd
       -0.13383327 -0.128088 0.06397054 -0.03496119
0000f0 17 5a 00 be fb de 14 be 36 ba 97 3c 70 54 ba bd
       -0.12534367 -0.14538185 0.01852141 -0.090981364
000100 39 e6 11 be e2 c2 9a bd 34 0b c4 bd 5f 68 1c be
       -0.14247979 -0.07556702 -0.09572449 -0.1527419
000110 ee 33 82 3d 78 2e e7 bd b1 23 0d be 7d 8e ba 3d
       0.06357561 -0.1128816 -0.13783146 0.09109209
000120 7e 8f 22 bd d4 88 e0 bd 13 84 02 3d d2 0e 8f 3c
       -0.039687626 -0.10963598 0.031864237 0.017463122
000130 86 a6 25 3d 92 b8 a5 bd d8 73 73 3d 0e 33 42 bd
       0.040442012 -0.080918446 0.05943665 -0.04741197
000140 2b c7 0e 3e 9e 6d e5 bd 69 b6 8e bc f3 9f 8a 3d
       0.13943164 -0.112025484 -0.017420964 0.06768789
000150 92 7a 04 be c7 53 b9 3d ef f7 95 3d 25 40 53 3d
       -0.12937382 0.090491824 0.0732268 0.051574845
000160 5f c0 60 3c e8 dd c2 3d 45 50 dc bd d5 29 db bc
       0.01371774 0.095149815 -0.10757498 -0.026753346
000170 d0 a0 c1 bd 44 88 80 bc 15 0f 76 3c 6a 5d a4 bc
       -0.09454501 -0.015689977 0.015018244 -0.020064075
000180 cf f5 44 bd c3 ac 21 bd 93 84 0b 3e a2 12 cf 3a
       -0.048085984 -0.0394714 0.13624792 0.00157984
000190 50 a9 5a 3d 43 76 51 bd 35 38 80 bd 30 e6 7b bb
       0.053384125 -0.051138174 -0.06260721 -0.0038436763
0001a0 f9 6e 93 3d dc 5e f4 3c 4d 7b 18 3c 15 f7 dd 3d
       0.07198901 0.029830389 0.009306741 0.10838143
0001b0 e4 d2 b5 3c c5 6e 69 3d 25 36 1a 3e c0 d7 63 bd
       0.022195287 0.056990404 0.15059717 -0.055625677
0001c0 1f d5 b9 3d 00 48 71 bd f8 e7 1a 3e 34 34 3e 3d
       0.09073853 -0.058906555 0.15127552 0.046436504
0001d0 bb fc b2 bd 9a 6c fb 3d b8 95 85 bd c8 55 79 bd
       -0.08739611 0.122765735 -0.06522697 -0.060872823
0001e0 26 57 95 bd 91 06 ad 3d d1 70 d3 3d d8 77 04 be
       -0.07292013 0.08448518 0.103242524 -0.12936342
0001f0 b6 27 03 bd b9 ca 3d bd 7b 1e bb 3d b5 6d d4 bd
       -0.032020293 -0.04633591 0.09136673 -0.103724875
000200 87 0a f7 3d bb ac 03 3d d8 12 60 bc 3e 3d 6d 3d
       0.12062555 0.03214715 -0.013676368 0.057919733
000210 00 b1 e6 bd fb 3b f0 3d ae 8e ee bc ca 5f 95 3c
       -0.11264229 0.1173019 -0.02912077 0.018234152
000220 48 68 06 be f4 66 bc bc 0b 5b 16 be 7f e3 aa bd
       -0.13125718 -0.02299831 -0.14683168 -0.08344173
000230 c5 73 b1 3d db 7a bc 3c 6f 41 20 bd 84 44 d3 bd
       0.086646594 0.0230078 -0.039124902 -0.10315803
000240 37 32 c8 3b c3 95 3c bc 3b 6f 01 be c8 e3 0e 3e
       0.0061095017 -0.011510315 -0.12640087 0.13954079
000250 c7 e0 8e 3c 14 eb 9e 3c b9 31 67 3d da 85 df 3d
       0.017441167 0.019399203 0.056443904 0.10914202
000260 27 4a 6c 3d 46 99 3f bc 26 5a b6 3c 43 5f dd 3d
       0.057687905 -0.011694258 0.022259783 0.10809185
000270 d4 5b df 3d d4 81 ea 3d 38 a4 89 bd fc 94 85 bc
       0.10906187 0.11450544 -0.06720775 -0.016306393
000280 89 b8 fa 3d ba 0a 0f 3e 72 f6 0e 3e 23 fd 38 bc
       0.122422285 0.13968936 0.13961199 -0.011290821
000290 c9 23 06 be db e8 db 3c 9a 94 8d 3c 07 a9 03 be
       -0.13099588 0.026844433 0.017282773 -0.12857448
0002a0 20 3f 4d bd 39 32 17 be 3d f2 6b bd 1d da 81 3d
       -0.05010903 -0.14765252 -0.057604063 0.0634043
0002b0 09 8a 14 3e d0 fc 90 3c 3c a8 6b bd 48 8d 9b bd
       0.14505781 0.017698675 -0.057533488 -0.07595307
0002c0 d3 58 fb 3d 7a 28 ae 3d 86 52 0b 3d 6a e6 2c 3d
       0.12272801 0.08503814 0.034014247 0.042211927
0002d0 b1 60 fe 3d d5 ed c5 3d 28 62 65 3c 10 54 1f bc
       0.12420786 0.096645035 0.014000453 -0.009724632
0002e0 81 a3 78 3d e8 02 bf bd 9b 3a 96 3d 6a 74 ed bd
       0.060702804 -0.09326726 0.07335397 -0.1159447
0002f0 10 de 14 3e cf be 27 3d be d3 8b 3d 74 9b 3b bb
       0.14537835 0.040953454 0.06827496 -0.0028626593
000300 23 14 88 bd 9f 0b 39 bd 64 b4 c0 3d bc 6b 12 3e
       -0.06644466 -0.0451771 0.09409407 0.1429891
000310 22 21 0d 3d b3 36 d1 bd 51 0e c4 bd 54 e6 c4 bc
       0.034455426 -0.10215511 -0.09573043 -0.02403561
000320 98 85 74 bd 60 90 d8 bc 10 cc 2c 3d 06 5a d0 3d
       -0.059697717 -0.02643603 0.042186797 0.101734206
000330 b8 5e 60 3d c6 ab 0c be 16 33 75 3d 52 1d 78 bd
       0.05477783 -0.13737401 0.059863172 -0.060574837
000340 85 01 6b 3d 6b 57 df bc 43 8a 1c 3e a8 a5 17 bb
       0.057374496 -0.027263364 0.15287118 -0.002313951
000350 9f 4a da 3c 44 b8 be 3c 5d b9 86 3d e3 8a 47 ba
       0.02664691 0.023281224 0.06578324 -0.00076119433
000360 c7 de 5a 3c 5b a6 10 3e b2 89 01 3e 62 e2 87 bd
       0.013358778 0.1412596 0.12650183 -0.06634976
000370 73 31 92 bd d3 7f f6 3d 1a 0c 0d 3e 5e 39 e4 bd
       -0.07138338 0.12036099 0.13774148 -0.111437544
000380 66 53 af 3d ba 05 fc bd b0 20 04 3e c1 89 ec bd
       0.08560829 -0.1230578 0.12903094 -0.11549712
000390 5a 6b b7 3d 6a 16 9e 3d 14 b9 00 3e 86 04 ee bd
       0.089560226 0.07719119 0.12570602 -0.116219565
0003a0 3d 0a 16 3d 34 15 42 3d 0c 0a 92 3d a3 dd 9d 3d
       0.036630858 0.047383502 0.071308225 0.077082895
0003b0 33 8d f3 bc 74 2c 8d bd 7b 30 89 3d 0c 64 16 bd
       -0.029730415 -0.068932444 0.066987 -0.036716506
0003c0 a7 77 08 be 11 08 e1 bd 7e cf 7b bd b6 a9 8b 3d
       -0.13326894 -0.10987867 -0.061477177 0.06819479
0003d0 ba 09 13 3e 2a b5 19 3e 85 a3 18 3e 19 8a d4 3c
       0.14359179 0.15010515 0.14906128 0.025944756
0003e0 ca 81 9d 3d 35 38 1b 3e 56 d5 ac bd a3 a2 06 3e
       0.07690771 0.1515816 -0.08439128 0.13147978
0003f0 02 cb ed 3d 0c 1f ec 3d 18 2f d3 bd c0 dc 58 3d
       0.11610986 0.11529359 -0.10311717 0.0529449

in_proj_bias f4 [192]
000000 00 00 00 00 00 00 00 00 00 00 00 00 00 00 00 00
       0.0 0.0 0.0 0.0
000010 00 00 00 00 00 00 00 00 00 00 00 00 00 00 00 00
       0.0 0.0 0.0 0.0
000020 00 00 00 00 00 00 00 00 00 00 00 00 00 00 00 00
       0.0 0.0 0.0 0.0
000030 00 00 00 00 00 00 00 00 00 00 00 00 00 00 00 00
       0.0 0.0 0.0 0.0
000040 00 00 00 00 00 00 00 00 00 00 00 00 00 00 00 00
       0.0 0.0 0.0 0.0
000050 00 00 00 00 00 00 00 00 00 00 00 00 00 00 00 00
       0.0 0.0 0.0 0.0
000060 00 00 00 00 00 00 00 00 00 00 00 00 00 00 00 00
       0.0 0.0 0.0 0.0
000070 00 00 00 00 00 00 00 00 00 00 00 00 00 00 00 00
       0.0 0.0 0.0 0.0
000080 00 00 00 00 00 00 00 00 00 00 00 00 00 00 00 00
       0.0 0.0 0.0 0.0
000090 00 00 00 00 00 00 00 00 00 00 00 00 00 00 00 00
       0.0 0.0 0.0 0.0
0000a0 00 00 00 00 00 00 00 00 00 00 00 00 00 00 00 00
       0.0 0.0 0.0 0.0
0000b0 00 00 00 00 00 00 00 00 00 00 00 00 00 00 00 00
       0.0 0.0 0.0 0.0
0000c0 00 00 00 00 00 00 00 00 00 00 00 00 00 00 00 00
       0.0 0.0 0.0 0.0
0000d0 00 00 00 00 00 00 00 00 00 00 00 00 00 00 00 00
       0.0 0.0 0.0 0.0
0000e0 00 00 00 00 00 00 00 00 00 00 00 00 00 00 00 00
       0.0 0.0 0.0 0.0
0000f0 00 00 00 00 00 00 00 00 00 00 00 00 00 00 00 00
       0.0 0.0 0.0 0.0
000100 00 00 00 00 00 00 00 00 00 00 00 00 00 00 00 00
       0.0 0.0 0.0 0.0
000110 00 00 00 00 00 00 00 00 00 00 00 00 00 00 00 00
       0.0 0.0 0.0 0.0
000120 00 00 00 00 00 00 00 00 00 00 00 00 00 00 00 00
       0.0 0.0 0.0 0.0
000130 00 00 00 00 00 00 00 00 00 00 00 00 00 00 00 00
       0.0 0.0 0.0 0.0
000140 00 00 00 00 00 00 00 00 00 00 00 00 00 00 00 00
       0.0 0.0 0.0 0.0
000150 00 00 00 00 00 00 00 00 00 00 00 00 00 00 00 00
       0.0 0.0 0.0 0.0
000160 00 00 00 00 00 00 00 00 00 00 00 00 00 00 00 00
       0.0 0.0 0.0 0.0
000170 00 00 00 00 00 00 00 00 00 00 00 00 00 00 00 00
       0.0 0.0 0.0 0.0
000180 00 00 00 00 00 00 00 00 00 00 00 00 00 00 00 00
       0.0 0.0 0.0 0.0
000190 00 00 00 00 00 00 00 00 00 00 00 00 00 00 00 00
       0.0 0.0 0.0 0.0
0001a0 00 00 00 00 00 00 00 00 00 00 00 00 00 00 00 00
       0.0 0.0 0.0 0.0
0001b0 00 00 00 00 00 00 00 00 00 00 00 00 00 00 00 00
       0.0 0.0 0.0 0.0
0001c0 00 00 00 00 00 00 00 00 00 00 00 00 00 00 00 00
       0.0 0.0 0.0 0.0
0001d0 00 00 00 00 00 00 00 00 00 00 00 00 00 00 00 00
       0.0 0.0 0.0 0.0
0001e0 00 00 00 00 00 00 00 00 00 00 00 00 00 00 00 00
       0.0 0.0 0.0 0.0
0001f0 00 00 00 00 00 00 00 00 00 00 00 00 00 00 00 00
       0.0 0.0 0.0 0.0
000200 00 00 00 00 00 00 00 00 00 00 00 00 00 00 00 00
       0.0 0.0 0.0 0.0
000210 00 00 00 00 00 00 00 00 00 00 00 00 00 00 00 00
       0.0 0.0 0.0 0.0
000220 00 00 00 00 00 00 00 00 00 00 00 00 00 00 00 00
       0.0 0.0 0.0 0.0
000230 00 00 00 00 00 00 00 00 00 00 00 00 00 00 00 00
       0.0 0.0 0.0 0.0
000240 00 00 00 00 00 00 00 00 00 00 00 00 00 00 00 00
       0.0 0.0 0.0 0.0
000250 00 00 00 00 00 00 00 00 00 00 00 00 00 00 00 00
       0.0 0.0 0.0 0.0
000260 00 00 00 00 00 00 00 00 00 00 00 00 00 00 00 00
       0.0 0.0 0.0 0.0
000270 00 00 00 00 00 00 00 00 00 00 00 00 00 00 00 00
       0.0 0.0 0.0 0.0
000280 00 00 00 00 00 00 00 00 00 00 00 00 00 00 00 00
       0.0 0.0 0.0 0.0
000290 00 00 00 00 00 00 00 00 00 00 00 00 00 00 00 00
       0.0 0.0 0.0 0.0
0002a0 00 00 00 00 00 00 00 00 00 00 00 00 00 00 00 00
       0.0 0.0 0.0 0.0
0002b0 00 00 00 00 00 00 00 00 00 00 00 00 00 00 00 00
       0.0 0.0 0.0 0.0
0002c0 00 00 00 00 00 00 00 00 00 00 00 00 00 00 00 00
       0.0 0.0 0.0 0.0
0002d0 00 00 00 00 00 00 00 00 00 00 00 00 00 00 00 00
       0.0 0.0 0.0 0.0
0002e0 00 00 00 00 00 00 00 00 00 00 00 00 00 00 00 00
       0.0 0.0 0.0 0.0
0002f0 00 00 00 00 00 00 00 00 00 00 00 00 00 00 00 00
       0.0 0.0 0.0 0.0

weight f4 [64, 64]
000000 4e f7 5a 3d e5 14 55 be 27 86 cf bd a8 15 a2 bc
       0.053458504 -0.20808752 -0.101330094 -0.019785717
000010 71 18 1b be e8 50 dc 3d 52 54 00 be eb de 3d 3e
       -0.15146042 0.10757619 -0.12532166 0.18542068
000020 de 98 ee 3d 03 b9 ac 3d 2c 8e 3b be aa 2d 3b be
       0.11650251 0.08433726 -0.18315953 -0.18279138
000030 ae 31 6f 3d d1 d3 45 be e8 b5 27 3e 7d 2c 29 3e
       0.058396988 -0.19319083 0.16377985 0.16520877
000040 72 cc 63 bd ef b0 00 3e c1 5f 16 be bc 0c 34 3e
       -0.055614896 0.12567495 -0.14684965 0.17582983
000050 ca 0f 1b bd 50 af 2a 3d 63 48 24 3d c2 8c 18 3e
       -0.037856854 0.041671097 0.040108096 0.14897445
000060 66 53 c0 3d 28 7f 09 3e 4f ea 26 be 6d 05 04 be
       0.09390907 0.13427413 -0.16300319 -0.12892695
000070 a9 9f 5a 3e 67 60 0e be 8f 8a db 3d 45 65 84 3d
       0.21349968 -0.13903962 0.10719787 0.06464628
000080 25 4e 45 3e 6e dc 34 3e 3c ab 36 be ee e2 c6 bc
       0.19268091 0.17662212 -0.17838758 -0.02427813
000090 6d 72 37 be e2 d3 9c bd 13 d4 bc 3c ac a8 69 bd
       -0.17914744 -0.07657601 0.023050344 -0.057045624
0000a0 01 6c 44 bd 12 18 54 be ef 09 19 be ef ca e9 3d
       -0.047954563 -0.20712307 -0.14945196 0.1141566
0000b0 fa 20 c2 bd d0 29 23 be ca 0c 2e be d9 d6 08 3e
       -0.09478946 -0.15933919 -0.16997066 0.13363208
0000c0 8c 36 bb 3c f4 0f 00 be f3 ef 09 3e 77 68 19 be
       0.022853158 -0.12506086 0.1347044 -0.14981256
0000d0 42 ad b0 3d a0 8c 31 3e 92 26 ed bd 9b ac e6 bd
       0.08626796 0.173388 -0.11579622 -0.11263391
0000e0 a0 e7 1c be d8 c1 a6 bd 57 5a 6a 3c 0f f7 09 3e
       -0.15322733 -0.081424415 0.014303765 0.13473152
0000f0 b4 a1 f1 bd 6b a2 cf 3c 9b 0c 5c 3e 3f 8c 43 3e
       -0.117984205 0.025346002 0.21489184 0.19096468
000100 85 66 b6 bd 57 48 42 3e e5 32 52 3d 27 f0 be bd
       -0.08906273 0.18972908 0.051318068 -0.09323149
000110 bc 06 06 be 25 61 49 be 52 b6 3c be 98 e7 1d be
       -0.13088506 -0.19665964 -0.18428925 -0.15420377
000120 38 7b 89 3d db bd 60 3d 04 d6 00 be d7 fa b9 3d
       0.06712955 0.05486856 -0.1258164 0.09081047
000130 03 2e 9f bd 5d 75 c0 bd 68 f2 a3 3b 18 ed 34 be
       -0.07772448 -0.09397385 0.0050032623 -0.17668569
000140 ce fa bc 3d c3 6e 4b be ce 74 4a 3d 83 58 19 3e
       0.09227525 -0.19866471 0.0494278 0.14975171
000150 f0 3a fa 3d df 7a 0e 3e 3b f6 d9 3c f4 c0 ef b9
       0.12218273 0.13914059 0.02660667 -0.00045729394
000160 6f d5 54 be e9 61 56 3e 70 44 af 3d a6 ce c6 3d
       -0.20784543 0.20935787 0.08557975 0.09707384
000170 3d 63 5c be 7d d9 22 3d 9e b8 2d 3e 8d de 3f be
       -0.21522231 0.039758194 0.16964957 -0.1873724
000180 5a b9 1e be 13 f3 00 be 10 4f 47 3e ab 76 33 3e
       -0.15500394 -0.12592725 0.19463754 0.17525737
000190 64 12 40 be a3 1b 46 3e 3b 46 7e bd b2 1d 40 be
       -0.18757015 0.1934648 -0.062078696 -0.18761328
0001a0 77 de 3d 3e 66 0d c3 bc d2 67 9f bd ac 45 31 be
       0.18541895 -0.0238101 -0.07783474 -0.17311734
0001b0 78 92 50 be 36 45 d9 bd 33 f1 12 3e 81 a7 32 be
       -0.20368373 -0.10608904 0.14349823 -0.1744671
0001c0 44 56 40 be 23 d4 33 3e b6 da 1a 3e 11 5b e4 3d
       -0.18782908 0.17561392 0.15122494 0.11150182
0001d0 ec 3a e0 3d 94 d4 c4 3d 75 ad f0 bd f8 59 24 be
       0.109487385 0.096108586 -0.11751834 -0.16049945
0001e0 a6 0d 25 3e 4a 24 d9 3d e0 88 8c bd da fa 29 bc
       0.16118488 0.10602625 -0.06862044 -0.010374749
0001f0 fb a6 1f be 21 ad ff bd e9 3e 6c bd 08 ab d8 3c
       -0.15591042 -0.124841936 -0.057677183 0.026448742
000200 8c 22 df 3c 2d a1 cf bd ff 8a 61 3d 47 87 14 be
       0.027238153 -0.10138164 0.055064198 -0.14504729
000210 31 09 c0 bd a8 fc fa bd ad ff 10 be 2b 7f 2d be
       -0.09376753 -0.122552216 -0.14160033 -0.16943042
000220 7e 1e 4e 3d 36 d3 d6 bd c6 2d 5d 3e 3b 0b 3d bd
       0.05032205 -0.10489504 0.21599492 -0.04615329
000230 57 19 d6 bc 5b 5a 20 3e 40 c6 cc bd 32 25 b7 3d
       -0.02613513 0.15659468 -0.09998751 0.08942641
000240 6f 3f 5c be 57 b3 01 be db 85 1a 3e 2f 59 3e 3e
       -0.21508573 -0.12666069 0.15090124 0.18588708
000250 56 48 68 3c aa 33 04 be c3 37 58 be f9 4a 56 3e
       0.0141774025 -0.12910333 -0.21115021 0.20927037
000260 ee 0e 62 3d 07 1b c8 bc 8c 47 4a be 8c bf 09 3e
       0.05519002 -0.02442695 -0.19753855 0.13451976
000270 1e 02 88 bd b9 86 da bd 4d f3 32 3e 6d 38 50 be
       -0.06641029 -0.106702276 0.17475624 -0.20334025
000280 57 93 7d 3d e9 3e 1e be ac 8f 2b be 4f 41 05 be
       0.061908092 -0.15453686 -0.16754025 -0.13013195
000290 bb dc 9c bc 42 ba 60 3d ac c3 d3 3b 66 90 8f bd
       -0.019148221 0.05486513 0.006462535 -0.07009964
0002a0 98 82 34 3e 44 fd 3d 3e b9 01 36 be c6 4d e5 bd
       0.17627943 0.18553644 -0.17774095 -0.11196475
0002b0 cd ce cc bd 6c 4a 53 3e 39 62 f0 bd dc a8 2c be
       -0.100003816 0.20633858 -0.117374845 -0.1686129
0002c0 62 6e 0d be 10 f1 7d ba b0 d4 2c 3e 5e ac 9c 3d
       -0.13811639 -0.0009687105 0.16878009 0.07650064
0002d0 58 65 41 3e 56 29 7d bd b3 5e 5c be f5 ed 59 3e
       0.18886316 -0.061807 -0.215205 0.2128218
0002e0 0c 2a 23 be 88 37 ee bd 71 35 f2 3d 1b 3b 52 be
       -0.15934008 -0.116316855 0.118265994 -0.2053036
0002f0 2a 37 f5 3d 2b 28 10 3e c9 d8 22 3e d5 2b df 3d
       0.11973412 0.14077823 0.1590301 0.10897032
000300 10 7f 52 be f9 63 fe 3c af 8c 9d 3d ca 63 52 3e
       -0.20556283 0.03105353 0.07692849 0.20545879
000310 a0 d9 0a be 1f 49 29 3e c7 4b 1f 3e 2d 71 2d bd
       -0.1355958 0.165318 0.1555625 -0.04234426
000320 53 17 02 3e 2e eb 4b 3e 02 61 0e 3e 4a aa 22 bc
       0.1270421 0.19913933 0.13904193 -0.009928295
000330 70 83 be bd f1 41 8f bd 5f 17 ec bc b7 01 3f 3e
       -0.093024135 -0.06994999 -0.028819738 0.18652998
000340 cd fc cd 3d 23 5b a1 3c 5c f6 b8 bd 7f 95 5c 3e
       0.100579835 0.019696778 -0.09031364 0.21541403
000350 60 9b 23 3e b5 92 4f be 83 60 0d 3e 6a 4e 13 3e
       0.1597724 -0.20270808 0.13806348 0.14385381
000360 08 f9 93 3d 36 6a 82 bd 8a 65 de bd 3d 3b 2e 3e
       0.07225233 -0.063679144 -0.10859211 0.17014785
000370 e5 69 14 3e aa 12 bb 3c 11 aa 4a 3d e5 e7 85 bd
       0.1449352 0.022836048 0.049478594 -0.06538371
000380 e5 ea 59 bd 18 e2 52 3e 88 37 1f be a1 96 f8 3d
       -0.05320253 0.2059406 -0.15548527 0.12138105
000390 ee 08 b8 bd 6f 4d 45 3e 44 5c 3c be 19 06 3f 3d
       -0.08986078 0.1926782 -0.18394572 0.046636675
0003a0 de b9 6e 3d bc 64 27 be 2b ea c8 3d 79 eb 2b be
       0.058282726 -0.16347021 0.09810289 -0.16789044
0003b0 e5 a7 07 3e 16 56 d9 bd c8 cf 37 3e 53 97 19 be
       0.1324764 -0.10612123 0.17950356 -0.14999132
0003c0 01 3c 11 3e 07 b6 00 be c9 fe 30 be 70 bb ad 3c
       0.14183046 -0.12569438 -0.17284693 0.021207541
0003d0 90 40 14 bd e0 4a d5 bd c0 a8 fd 3b fc f2 42 bc
       -0.036194384 -0.10414672 0.007741064 -0.011898752
0003e0 7a 12 65 3c 93 fb 11 3e 46 dc 36 3e a0 18 06 bd
       0.013981456 0.14256124 0.17857465 -0.032738328
0003f0 9c 16 dc 3d 2f ca 2b 3e 50 44 9c 3b 41 e0 f2 3d
       0.107465 0.16776346 0.0047688857 0.11859179

bias f4 [64]
000000 00 00 00 00 00 00 00 00 00 00 00 00 00 00 00 00
       0.0 0.0 0.0 0.0
000010 00 00 00 00 00 00 00 00 00 00 00 00 00 00 00 00
       0.0 0.0 0.0 0.0
000020 00 00 00 00 00 00 00 00 00 00 00 00 00 00 00 00
       0.0 0.0 0.0 0.0
000030 00 00 00 00 00 00 00 00 00 00 00 00 00 00 00 00
       0.0 0.0 0.0 0.0
000040 00 00 00 00 00 00 00 00 00 00 00 00 00 00 00 00
       0.0 0.0 0.0 0.0
000050 00 00 00 00 00 00 00 00 00 00 00 00 00 00 00 00
       0.0 0.0 0.0 0.0
000060 00 00 00 00 00 00 00 00 00 00 00 00 00 00 00 00
       0.0 0.0 0.0 0.0
000070 00 00 00 00 00 00 00 00 00 00 00 00 00 00 00 00
       0.0 0.0 0.0 0.0
000080 00 00 00 00 00 00 00 00 00 00 00 00 00 00 00 00
       0.0 0.0 0.0 0.0
000090 00 00 00 00 00 00 00 00 00 00 00 00 00 00 00 00
       0.0 0.0 0.0 0.0
0000a0 00 00 00 00 00 00 00 00 00 00 00 00 00 00 00 00
       0.0 0.0 0.0 0.0
0000b0 00 00 00 00 00 00 00 00 00 00 00 00 00 00 00 00
       0.0 0.0 0.0 0.0
0000c0 00 00 00 00 00 00 00 00 00 00 00 00 00 00 00 00
       0.0 0.0 0.0 0.0
0000d0 00 00 00 00 00 00 00 00 00 00 00 00 00 00 00 00
       0.0 0.0 0.0 0.0
0000e0 00 00 00 00 00 00 00 00 00 00 00 00 00 00 00 00
       0.0 0.0 0.0 0.0
0000f0 00 00 00 00 00 00 00 00 00 00 00 00 00 00 00 00
       0.0 0.0 0.0 0.0

weight f4 [256, 64]
000000 c4 45 54 3d 10 8a 09 3e 47 3b 1b 3d 22 8e 8f 3c
       0.051824346 0.13431573 0.03789833 0.017523829
000010 c6 82 a7 bc 3d 24 9e bd af 4e 97 3d 3b 23 cf 3d
       -0.0204481 -0.07721756 0.073880546 0.101141416
000020 f1 79 b4 3d dd f7 04 bb 80 9b 15 3c 28 fe 1e 3c
       0.08812321 -0.002028934 0.009131312 0.00970415
000030 98 dd 77 bc cb 15 f5 3d f8 67 21 3d 70 92 c2 bb
       -0.015128516 0.11967047 0.039405793 -0.005937867
000040 58 6f 73 3d 4e 63 0f bd 0d db d0 bd 73 93 ab bc
       0.059432358 -0.035006814 -0.101980306 -0.020944333
000050 85 51 f4 bd 0c 76 05 be db 44 fb bd e6 f1 1a 3d
       -0.11929611 -0.13033313 -0.122689925 0.03782835
000060 1f fc d2 3d e6 9d 80 3d 2f 03 eb bd 34 a9 42 3d
       0.103019945 0.06280117 -0.114752166 0.047524646
000070 11 2b 88 3d 81 01 08 3e 4c 53 0b 3e d2 b6 d8 3a
       0.06648839 0.13281824 0.13605994 0.0016533977
000080 74 42 07 be 21 08 d4 3b c8 e4 e3 bd 1f 55 99 bd
       -0.13208944 0.0064706956 -0.11127621 -0.07486939
000090 6a a4 48 3d 83 1d 73 bd 8a 8e af bd 1a f4 62 bd
       0.048984922 -0.059354316 -0.08572109 -0.055408575
0000a0 04 b6 58 bd 68 95 7a bc 86 49 b1 bb a6 90 fe bc
       -0.05290796 -0.01529441 -0.005410376 -0.031074833
0000b0 b9 23 bf 3d 69 e7 7c 3c 83 08 f4 bd d9 d9 53 3d
       0.093329854 0.015436032 -0.11915686 0.051721428
0000c0 7d 39 e2 3d 8e 0f 0a 3e 93 3f cd bd 25 16 24 3d
       0.11046121 0.13482496 -0.100218914 0.04006018
0000d0 a4 ee f7 3a b8 18 dc bd db cc e6 bc 90 13 ea bd
       0.0018915725 -0.10746902 -0.028173855 -0.114295125
0000e0 b9 1e 0c be 00 0e 41 bd e4 ac a7 3d 74 a4 ee bd
       -0.13683595 -0.047132492 0.08187273 -0.11652461
0000f0 59 73 5a 3d 93 ca 21 3c 64 75 fc bd c6 30 06 3e
       0.05333266 0.009874958 -0.12327078 0.13104543
000100 38 ac 72 bd 7f 51 e4 bc ab c5 c4 3c 30 9e 2c bc
       -0.05924627 -0.027870892 0.024020037 -0.010535762
000110 33 23 2f 3c d2 b7 01 bd 47 37 94 bc 47 00 60 bd
       0.0106895445 -0.031669445 -0.018092765 -0.054687764
000120 3f 36 8c 3c a4 18 06 be 1e 60 9a 3d 74 36 fd 3c
       0.01711571 -0.13095337 0.07537864 0.030909754
000130 20 c0 03 3d f9 03 98 bd d7 0e 3f bd 5f e1 19 bc
       0.032165647 -0.07422633 -0.04664501 -0.009392112
000140 bd 95 c9 bb 88 94 fb 3d d4 16 cd 3d aa 39 41 bd
       -0.0061518834 0.122841895 0.1001412 -0.047174133
000150 e9 1c f0 3d 89 0a db bc e8 a5 69 bd 1c 87 98 bc
       0.11724264 -0.026738422 -0.057042986 -0.018619113
000160 3b 2a 7b 3d 78 0b 15 bd 76 74 86 3c 4b 35 97 3d
       0.06131957 -0.03638789 0.016412955 0.07383212
000170 a3 8b ed bd b1 cf ac 3c 9b fe 96 bd af c2 85 3d
       -0.11598899 0.021095129 -0.07372781 0.065312736
000180 d1 a5 ef 3d bb e1 84 bd 4b e8 68 3d 21 f4 e8 bd
       0.11701549 -0.06488367 0.056862157 -0.11374689
000190 71 65 ee 39 dd 0a af bd e0 b0 0a 3e d1 c2 ac 3b
       0.00045470477 -0.08546994 0.13544035 0.0052722474
0001a0 f3 23 e6 bc 85 89 29 3d 49 55 a1 bd 4f 66 fc bd
       -0.028093314 0.041390914 -0.07877595 -0.12324201
0001b0 36 c1 86 3c 20 79 16 bd 92 16 a0 3d fc 53 f2 3d
       0.016449552 -0.036736608 0.07816805 0.11832425
0001c0 18 a5 09 3e b9 3a e5 3d 0a e0 88 bd 73 70 b3 3d
       0.13441885 0.11192841 -0.06683357 0.08761682
0001d0 e3 fa 76 3d da af c1 bd de cf cd bd ff 18 55 3d
       0.060297858 -0.09457369 -0.10049413 0.05202579
0001e0 cb 8b d0 3d d3 3a 50 bd cc ff 02 be e0 38 fb 3d
       0.101829134 -0.05083735 -0.12792891 0.122667074
0001f0 55 22 ce ba 5c c4 5c bd 01 93 6c 3d 19 f3 4c bc
       -0.0015726784 -0.0538982 0.05775738 -0.012509131
000200 b1 fe 97 bc b3 40 9a 3d 5c 8f 57 3d 2e 07 ec bc
       -0.018554064 0.07531872 0.052626953 -0.028812017
000210 69 97 ad 3d cc a5 c0 3c 54 40 01 be 17 38 9a 3d
       0.08476145 0.023516558 -0.12622195 0.075302295
000220 68 cd 88 bd 2e dd 49 bd b2 b5 a3 3d eb b7 db bd
       -0.06679803 -0.0492832 0.0799364 -0.10728439
000230 57 bd 13 3d 57 76 bc bd 92 10 05 be ba c2 9a 3d
       0.03606924 -0.09202259 -0.12994602 0.075566724
000240 11 46 c4 bd de ea 8f bc 17 4e 25 bd 4b 31 15 3d
       -0.095836766 -0.017568048 -0.040357675 0.036423963
000250 08 ea 09 be 27 11 ae bd 10 b9 c0 3d bf da 06 be
       -0.13468182 -0.08499365 0.09410298 -0.13169383
000260 c8 50 b2 bd 6f 80 ef bd 7c b3 b0 3d ff 27 87 bd
       -0.08706814 -0.11694419 0.08627984 -0.065994255
000270 d9 21 c6 bd db 55 81 bd 50 c4 b5 3d ee 21 12 bc
       -0.09674425 -0.06315204 0.08875334 -0.008919222
000280 b7 71 18 3c 14 ea a0 3b 18 5a f6 3d 6c 93 0a 3e
       0.0093044555 0.004910717 0.12028903 0.135328
000290 ae 73 d9 3c a2 38 dc bd d9 4a 8e 3d ab c9 1b 3c
       0.026544418 -0.10752989 0.0694787 0.009508531
0002a0 b5 04 99 bc af ac fa 3b 45 2e f6 bd ef 45 b5 bd
       -0.018679002 0.00764998 -0.12020544 -0.088512294
0002b0 b9 4e 75 3d 29 18 a9 3a 32 a9 04 3e 3b 20 6d 3c
       0.05988953 0.0012900877 0.12955168 0.014473016
0002c0 ca d9 04 bd da be de 3a c9 ce b6 bd 5f da eb 3c
       -0.032434262 0.0016994134 -0.0892616 0.02879065
0002d0 d0 72 b5 3c 82 26 a7 3d 6b b3 4b bd 6d ce 06 bc
       0.022149473 0.08161642 -0.049731653 -0.008227927
0002e0 fb ba 1b bd 92 98 b6 bd 07 58 28 3d cd 14 a4 3d
       -0.038020115 -0.08915819 0.041099574 0.0801178
0002f0 b2 d9 6e bd d6 2b 85 bd c9 ea 06 3d f2 b3 b2 bd
       -0.05831308 -0.06502502 0.032938752 -0.08725728
000300 64 02 c9 bd 16 8f 48 3d 23 36 08 3e a5 23 9a 3c
       -0.09814909 0.048964582 0.13301902 0.018815825
000310 e9 f5 d4 3c 66 45 81 ba 2a 42 82 bd ab f6 fa 3d
       0.025996165 -0.0009862601 -0.06360276 0.122540794
000320 d0 5b c4 bd c3 4c e0 bd 67 3f 0a be 64 8a cf bc
       -0.09587824 -0.10952141 -0.13500749 -0.025334544
000330 c3 d9 c0 3c 81 38 e2 3d 35 a9 b9 3c 24 e3 a4 bd
       0.023541337 0.110459335 0.022663692 -0.08051136
000340 9b fd 88 3d de 73 e7 3d f7 13 ad bd ce d4 fb bd
       0.066889964 0.11301397 -0.084510736 -0.12296449
000350 d4 4f bb 3d 65 06 6e bd ae 86 b0 bd 72 d5 f9 3d
       0.091460854 -0.058111567 -0.08619438 0.121989146
000360 b6 e4 00 3e d3 76 c9 bd 9a 1f 3a bd 0e 17 13 bd
       0.12587246 -0.09837117 -0.045440294 -0.03591066
000370 0b f0 21 bd c9 39 c4 3d bb 07 4a 3d a9 e4 4b bc
       -0.039535563 0.09581334 0.04932378 -0.012444654
000380 e2 e7 00 3e a1 8b 46 bc f9 41 d2 bd 39 8e 9e 3d
       0.12588456 -0.012118251 -0.102664895 0.077419706
000390 78 f3 3c 3d 8d 71 41 3d f6 ee fd 3d c2 db d8 3d
       0.046130627 0.04722743 0.12399094 0.105887905
0003a0 c3 ea b1 3d 6c c2 a9 3d ac 17 aa bd 05 3d ae bd
       0.08687355 0.08289036 -0.08305296 -0.08507732
0003b0 89 3a 22 3d 3c 51 d3 bd 32 af ec 3c 9f 42 38 3d
       0.039606605 -0.103182286 0.028892133 0.04498541
0003c0 a1 df 23 bd 0b ec 55 3d 90 c7 36 bd 1c aa 93 bd
       -0.04000819 0.05222706 -0.04462391 -0.0721018
0003d0 26 a6 86 3d 56 a6 28 3d a1 f2 e4 bc fb 24 c4 bd
       0.06574659 0.041174255 -0.027947726 -0.09577366
0003e0 54 97 6f bd 9b 34 25 bc d9 bc 73 3d ce 3b ff 3d
       -0.058493927 -0.010083343 0.05950627 0.12462579
0003f0 23 41 06 be 6f 65 4b 3d 6c 65 ad 3c a9 ae b4 3d
       -0.13110785 0.04965728 0.021166526 0.08822376

bias f4 [256]
000000 00 00 00 00 00 00 00 00 00 00 00 00 00 00 00 00
       0.0 0.0 0.0 0.0
000010 00 00 00 00 00 00 00 00 00 00 00 00 00 00 00 00
       0.0 0.0 0.0 0.0
000020 00 00 00 00 00 00 00 00 00 00 00 00 00 00 00 00
       0.0 0.0 0.0 0.0
000030 00 00 00 00 00 00 00 00 00 00 00 00 00 00 00 00
       0.0 0.0 0.0 0.0
000040 00 00 00 00 00 00 00 00 00 00 00 00 00 00 00 00
       0.0 0.0 0.0 0.0
000050 00 00 00 00 00 00 00 00 00 00 00 00 00 00 00 00
       0.0 0.0 0.0 0.0
000060 00 00 00 00 00 00 00 00 00 00 00 00 00 00 00 00
       0.0 0.0 0.0 0.0
000070 00 00 00 00 00 00 00 00 00 00 00 00 00 00 00 00
       0.0 0.0 0.0 0.0
000080 00 00 00 00 00 00 00 00 00 00 00 00 00 00 00 00
       0.0 0.0 0.0 0.0
000090 00 00 00 00 00 00 00 00 00 00 00 00 00 00 00 00
       0.0 0.0 0.0 0.0
0000a0 00 00 00 00 00 00 00 00 00 00 00 00 00 00 00 00
       0.0 0.0 0.0 0.0
0000b0 00 00 00 00 00 00 00 00 00 00 00 00 00 00 00 00
       0.0 0.0 0.0 0.0
0000c0 00 00 00 00 00 00 00 00 00 00 00 00 00 00 00 00
       0.0 0.0 0.0 0.0
0000d0 00 00 00 00 00 00 00 00 00 00 00 00 00 00 00 00
       0.0 0.0 0.0 0.0
0000e0 00 00 00 00 00 00 00 00 00 00 00 00 00 00 00 00
       0.0 0.0 0.0 0.0
0000f0 00 00 00 00 00 00 00 00 00 00 00 00 00 00 00 00
       0.0 0.0 0.0 0.0
000100 00 00 00 00 00 00 00 00 00 00 00 00 00 00 00 00
       0.0 0.0 0.0 0.0
000110 00 00 00 00 00 00 00 00 00 00 00 00 00 00 00 00
       0.0 0.0 0.0 0.0
000120 00 00 00 00 00 00 00 00 00 00 00 00 00 00 00 00
       0.0 0.0 0.0 0.0
000130 00 00 00 00 00 00 00 00 00 00 00 00 00 00 00 00
       0.0 0.0 0.0 0.0
000140 00 00 00 00 00 00 00 00 00 00 00 00 00 00 00 00
       0.0 0.0 0.0 0.0
000150 00 00 00 00 00 00 00 00 00 00 00 00 00 00 00 00
       0.0 0.0 0.0 0.0
000160 00 00 00 00 00 00 00 00 00 00 00 00 00 00 00 00
       0.0 0.0 0.0 0.0
000170 00 00 00 00 00 00 00 00 00 00 00 00 00 00 00 00
       0.0 0.0 0.0 0.0
000180 00 00 00 00 00 00 00 00 00 00 00 00 00 00 00 00
       0.0 0.0 0.0 0.0
000190 00 00 00 00 00 00 00 00 00 00 00 00 00 00 00 00
       0.0 0.0 0.0 0.0
0001a0 00 00 00 00 00 00 00 00 00 00 00 00 00 00 00 00
       0.0 0.0 0.0 0.0
0001b0 00 00 00 00 00 00 00 00 00 00 00 00 00 00 00 00
       0.0 0.0 0.0 0.0
0001c0 00 00 00 00 00 00 00 00 00 00 00 00 00 00 00 00
       0.0 0.0 0.0 0.0
0001d0 00 00 00 00 00 00 00 00 00 00 00 00 00 00 00 00
       0.0 0.0 0.0 0.0
0001e0 00 00 00 00 00 00 00 00 00 00 00 00 00 00 00 00
       0.0 0.0 0.0 0.0
0001f0 00 00 00 00 00 00 00 00 00 00 00 00 00 00 00 00
       0.0 0.0 0.0 0.0
000200 00 00 00 00 00 00 00 00 00 00 00 00 00 00 00 00
       0.0 0.0 0.0 0.0
000210 00 00 00 00 00 00 00 00 00 00 00 00 00 00 00 00
       0.0 0.0 0.0 0.0
000220 00 00 00 00 00 00 00 00 00 00 00 00 00 00 00 00
       0.0 0.0 0.0 0.0
000230 00 00 00 00 00 00 00 00 00 00 00 00 00 00 00 00
       0.0 0.0 0.0 0.0
000240 00 00 00 00 00 00 00 00 00 00 00 00 00 00 00 00
       0.0 0.0 0.0 0.0
000250 00 00 00 00 00 00 00 00 00 00 00 00 00 00 00 00
       0.0 0.0 0.0 0.0
000260 00 00 00 00 00 00 00 00 00 00 00 00 00 00 00 00
       0.0 0.0 0.0 0.0
000270 00 00 00 00 00 00 00 00 00 00 00 00 00 00 00 00
       0.0 0.0 0.0 0.0
000280 00 00 00 00 00 00 00 00 00 00 00 00 00 00 00 00
       0.0 0.0 0.0 0.0
000290 00 00 00 00 00 00 00 00 00 00 00 00 00 00 00 00
       0.0 0.0 0.0 0.0
0002a0 00 00 00 00 00 00 00 00 00 00 00 00 00 00 00 00
       0.0 0.0 0.0 0.0
0002b0 00 00 00 00 00 00 00 00 00 00 00 00 00 00 00 00
       0.0 0.0 0.0 0.0
0002c0 00 00 00 00 00 00 00 00 00 00 00 00 00 00 00 00
       0.0 0.0 0.0 0.0
0002d0 00 00 00 00 00 00 00 00 00 00 00 00 00 00 00 00
       0.0 0.0 0.0 0.0
0002e0 00 00 00 00 00 00 00 00 00 00 00 00 00 00 00 00
       0.0 0.0 0.0 0.0
0002f0 00 00 00 00 00 00 00 00 00 00 00 00 00 00 00 00
       0.0 0.0 0.0 0.0
000300 00 00 00 00 00 00 00 00 00 00 00 00 00 00 00 00
       0.0 0.0 0.0 0.0
000310 00 00 00 00 00 00 00 00 00 00 00 00 00 00 00 00
       0.0 0.0 0.0 0.0
000320 00 00 00 00 00 00 00 00 00 00 00 00 00 00 00 00
       0.0 0.0 0.0 0.0
000330 00 00 00 00 00 00 00 00 00 00 00 00 00 00 00 00
       0.0 0.0 0.0 0.0
000340 00 00 00 00 00 00 00 00 00 00 00 00 00 00 00 00
       0.0 0.0 0.0 0.0
000350 00 00 00 00 00 00 00 00 00 00 00 00 00 00 00 00
       0.0 0.0 0.0 0.0
000360 00 00 00 00 00 00 00 00 00 00 00 00 00 00 00 00
       0.0 0.0 0.0 0.0
000370 00 00 00 00 00 00 00 00 00 00 00 00 00 00 00 00
       0.0 0.0 0.0 0.0
000380 00 00 00 00 00 00 00 00 00 00 00 00 00 00 00 00
       0.0 0.0 0.0 0.0
000390 00 00 00 00 00 00 00 00 00 00 00 00 00 00 00 00
       0.0 0.0 0.0 0.0
0003a0 00 00 00 00 00 00 00 00 00 00 00 00 00 00 00 00
       0.0 0.0 0.0 0.0
0003b0 00 00 00 00 00 00 00 00 00 00 00 00 00 00 00 00
       0.0 0.0 0.0 0.0
0003c0 00 00 00 00 00 00 00 00 00 00 00 00 00 00 00 00
       0.0 0.0 0.0 0.0
0003d0 00 00 00 00 00 00 00 00 00 00 00 00 00 00 00 00
       0.0 0.0 0.0 0.0
0003e0 00 00 00 00 00 00 00 00 00 00 00 00 00 00 00 00
       0.0 0.0 0.0 0.0
0003f0 00 00 00 00 00 00 00 00 00 00 00 00 00 00 00 00
       0.0 0.0 0.0 0.0
